tutorials/tutorial 5/lightning_logs/version_72/checkpoints/epoch=99-step=100.ckpt (torch, 523917 bytes, 208 tensors)

_pina_model._model.model.0.weight f4 [20, 2]
-0.22437079 -0.5140722 0.25092378 -0.6222162 -0.6197698 -0.62256116 0.5105532 -0.4191141
-0.20327646 0.15020587 0.09518517 -0.47478807 0.01816894 0.6664143 -0.65562916 0.53268456
0.050284844 0.22975422 -0.35308832 -0.1354669 0.4719483 -0.40963617 -0.025496142 -0.41504613
0.012539613 0.6220384 -0.100933425 -0.07105573 0.23459719 0.5797941 0.12654014 0.3534564
-0.34102172 0.18567373 0.6903797 -0.37174466 0.6296705 0.29974473 -0.20345101 0.69673085
00000000: 75c1 65be 3c9a 03bf 1579 803e 9049 1fbf
00000010: 3ca9 1ebf 2b60 1fbf 9db3 023f 2096 d6be
00000020: b427 50be 91cf 193e 71f0 c23d 6c17 f3be
00000030: 07d7 943c 219a 2a3f 50d7 27bf 045e 083f
00000040: 7bf7 4d3d b144 6b3e fec7 b4be d6b7 0abe
00000050: 35a3 f13e d5bb d1be 49dd d0bc ed80 d4be
00000060: f372 4d3c e93d 1f3f 2fb6 cebd ab85 91bd
00000070: 3f3a 703e 636d 143f bd93 013e 3df8 b43e
00000080: 669a aebe 4121 3e3e b9bc 303f 5155 bebe
00000090: 1632 213f 2478 993e 7655 50be f45c 323f

_pina_model._model.model.0.bias f4 [20]
0.71442425 0.120707184 0.5366397 0.14741343 0.4800957 -0.653156 0.4229858 0.096541174
-0.68355566 -0.5409642 0.019805921 -0.09015056 0.5733069 0.37594688 -0.07323081 -0.5371522
0.56888044 0.11292525 0.39607084 0.4725685
00000000: 82e4 363f 5435 f73d 3861 093f 8cf3 163e
00000010: 1bcf f53e 3b35 27bf 9891 d83e 61b7 c53d
00000020: 81fd 2ebf a17c 0abf 0740 a23c dba0 b8bd
00000030: 3ec4 123f 1c7c c03e 09fa 95bd ce82 09bf
00000040: 26a2 113f 5a45 e73d ccc9 ca3e 80f4 f13e

_pina_model._model.model.2.weight f4 [20, 20]
0.22924437 -0.1645557 0.08774956 0.22805429 -0.09484319 0.18575408 -0.07992805 -0.0018935405
-0.21018697 0.10372244 0.084670916 -0.0077171368 0.15871353 0.004117819 -0.19716829 -0.07146733
0.16374145 -0.0840951 -0.16447388 0.1858907 -0.18535239 -0.08686638 -0.02595704 0.01726712
0.09596089 0.18636055 -0.099502176 0.031191776 0.20805725 -0.180384 -0.10743511 0.030025808
-0.19418842 0.07659327 0.12906219 0.093895204 -0.1320823 -0.11664345 0.20105831 -0.06597471
-0.124766916 0.07338857 -0.015806137 -0.13061328 0.05969535 0.18319832 0.15395641 -0.06299372
0.15917644 0.2199083 0.10744766 0.05047531 0.12328286 0.06702021 -0.035670154 0.13666205
0.19943933 -0.032570228 -0.1348828 -0.0652595 0.03379998 -0.039526243 -0.07085985 -0.02042838
-0.05002859 0.11716667 0.21705832 -0.089386 -0.022616353 -0.20185006 -0.17602037 -0.012858321
-0.101253435 0.15797253 -0.10571247 -0.021383692 0.06320225 -0.022851493 0.0996335 -0.04123523
0.02846217 -0.0751255 -0.04033011 0.028157411 -0.118324116 -0.10494711 -0.019834122 0.16095303
0.1293609 -0.19340457 0.092682034 -0.02619637 -0.08268399 0.15258616 0.14697513 -0.078172654
-0.112366684 -0.20830996 0.08415698 0.22118115 -0.149342 -0.099186696 -0.024647996 -0.02492386
-0.046819147 0.04228947 0.0015055907 -0.09215414 0.05439952 -0.07855473 -0.09994316 0.17023404
0.095130906 0.03307515 0.16544646 0.07423864 0.014029729 -0.15231644 -0.110646404 -0.12516165
-0.19182423 -0.04098818 0.10785909 0.0756209 -0.07467381 -0.052267324 -0.21414272 -0.16274431
0.13852702 0.19331573 -0.2089038 -0.08174471 -0.17807563 0.1604853 -0.011060132 -0.22215249
0.14960055 -0.19763896 0.016804744 0.050135337 -0.21145517 0.07720902 -0.18736877 -0.16312651
0.1352236 -0.10191497 -0.19472122 0.10271774 -0.03141368 -0.21330655 -0.11453975 -0.14109093
-0.2331813 -0.12729007 0.008926725 0.052872315 -0.1704268 -0.11862875 0.041541744 -0.09300906
0.17049493 -0.1071624 0.06335985 0.023547512 0.20314139 -0.045552503 0.16026185 -0.013430295
-0.095843785 0.17433758 -0.21272594 -0.15439536 0.18215646 0.01980665 0.19799004 -0.16585004
-0.1461317 0.08479546 0.18574563 -0.10442743 0.17757633 -0.08769896 -0.018661683 0.16337986
-0.08938555 0.128827 0.16147311 0.1381759 0.045909263 -0.09285503 0.023345081 -0.09915705
-0.19581376 -0.09739317 -0.092828915 0.066346094 0.18540305 -0.052328862 -0.11339518 0.14621428
-0.10193363 0.0149325 -0.027779128 -0.20572746 -0.01141357 0.06328181 -0.18781942 -0.14267927
0.07710353 0.13406019 0.16432674 -0.22597106 -0.08227251 -0.068906814 0.1319043 -0.107171364
0.0054632956 0.07322558 -0.052189402 0.06744011 -0.03951093 -0.17666617 0.12486284 -0.13213196
0.09389725 0.11600702 -0.1024195 0.16868164 0.16450772 0.17998047 0.19976628 -0.056557346
0.21811925 -0.120553635 0.1931179 -0.18521771 0.11649087 -0.022672856 -0.12675367 -0.14169267
-0.0224725 0.11437448 -0.15065485 0.14000504 -0.08103105 -0.08785171 -0.027765702 0.15111886
-0.10297761 -0.025675735 -0.14941886 0.12820536 0.0706758 0.08726282 -0.09772291 -0.07010378
00000000: 09bf 6a3e 4a81 28be 0bb6 b33d 1087 693e
00000010: 253d c2bd 5136 3e3e 51b1 a3bd ad30 f8ba
00000020: 413b 57be 6e6c d43d f267 ad3d 09e0 fcbb
00000030: cd85 223e c5ee 863b 7ce6 49be 775d 92bd
00000040: d7ab 273e 0d3a acbd d76b 28be 225a 3e3e
00000050: 04cd 3dbe 00e7 b1bd dca3 d4bc c673 8d3c
00000060: 2587 c43d 4dd5 3e3e ccc7 cbbd e585 ff3c
00000070: f60c 553e 95b6 38be f006 dcbd aff8 f53c
00000080: 54d9 46be efdc 9c3d e128 043e 214c c03d
00000090: 9540 07be c3e2 eebd 3be2 4d3e c01d 87bd
000000a0: cc85 ffbd bf4c 963d df7b 81bc 7dbf 05be
000000b0: 1c83 743d 5798 3b3e c0a6 1d3e da02 81bd
000000c0: 26ff 223e a42f 613e 850d dc3d 33bf 4e3d
000000d0: b97b fc3d e441 893d de1a 12bd 23f1 0b3e
000000e0: d339 4c3e 5c68 05bd b71e 0abe c6a6 85bd
000000f0: d971 0a3d 45e6 21bd f81e 91bd 6b59 a7bc
00000100: c7ea 4cbd 14f5 ef3d 8944 5e3e 0210 b7bd
00000110: ee45 b9bc c8b1 4ebe af3e 34be b5ab 52bc
00000120: f65d cfbd 8dc3 213e c87f d8bd da2c afbc
00000130: 2e70 813d 0e33 bbbc a60c cc3d 46e6 28bd
00000140: 7f29 e93c 66db 99bd 2f31 25bd 5faa e63c
00000150: ea53 f2bd 83ee d6bd 2b7b a2bc dfd0 243e
00000160: 2f77 043e d90b 46be 14d0 bd3d c599 d6bc
00000170: 3956 a9bd 8c3f 1c3e a680 163e fc18 a0bd
00000180: 8120 e6bd 354f 55be 7f5a ac3d 507d 623e
00000190: 1ced 18be 6522 cbbd 98ea c9bc 1f2d ccbc
000001a0: 6fc5 3fbd b937 2d3d 3e57 c53a 4fbb bcbd
000001b0: 08d2 5e3d 4de1 a0bd 00af ccbd d551 2e3e
000001c0: fed3 c23d cf79 073d cc6a 293e 6e0a 983d
000001d0: f3dc 653c d7f8 1bbe 959a e2bd 602a 00be
000001e0: 926d 44be 39e3 27bd 3ae5 dc3d 21df 9a3d
000001f0: 95ee 98bd 4316 56bd 3b48 5bbe 72a6 26be
00000200: 07da 0d3e 8ff4 453e e1ea 55be c569 a7bd
00000210: 7559 36be 4256 243e 8e35 35bc f17b 63be
00000220: e330 193e de61 4abe 1aaa 893c b65a 4d3d
00000230: b487 58be c31f 9e3d 99dd 3fbe a30a 27be
00000240: 0e78 0a3e ccb8 d0bd 0065 47be ae5d d23d
00000250: a2ab 00bd 086d 5abe d193 eabd 247a 10be
00000260: 14c7 6ebe 5458 02be 6641 123c a490 583d
00000270: 5d84 2ebe a1f3 f2bd ad27 2a3d 897b bebd
00000280: 3996 2e3e f677 dbbd cfc2 813d b6e6 c03c
00000290: 4c04 503e 4395 3abd af1b 243e bd0a 5cbc
000002a0: bf49 c4bd 8d85 323e d4d4 59be d119 1ebe
000002b0: 3987 3a3e 8e41 a23c e7bd 4a3e 98d4 29be
000002c0: 8ca3 15be 3ea9 ad3d 1a34 3e3e 0cde d5bd
000002d0: 92d6 353e 839b b3bd 63e0 98bc 0d4d 273e
000002e0: c50f b7bd 3aeb 033e 3559 253e fc7d 0d3e
000002f0: 5a0b 3c3d c72a bebd 2f3e bf3c da12 cbbd
00000300: 6783 48be 1276 c7bd 161d bebd 76e0 873d
00000310: 4cda 3d3e ca56 56bd bb3b e8bd 32b9 153e
00000320: 94c2 d0bd 72a7 743c 0e91 e3bc 38aa 52be
00000330: fbff 3abc e599 813d bc53 40be 841a 12be
00000340: 75e8 9d3d 1347 093e 4545 283e f564 67be
00000350: 7d7e a8bd 041f 8dbd ec11 073e a97c dbbd
00000360: 7205 b33b 4bf7 953d 8ec4 55bd 0a1e 8a3d
00000370: 37d6 21bd fae7 34be 17b8 ff3d 9a4d 07be
00000380: 344d c03d 1795 ed3d 51c1 d1bd e1ba 2c3e
00000390: b674 283e cd4c 383e 888f 4c3e ada8 67bd
000003a0: a75a 5f3e d3e4 f6bd b3c0 453e b6a9 3dbe
000003b0: c492 ee3d 6dbc b9bc b7cb 01be e217 11be
000003c0: 4018 b8bc 2b3d ea3d 4445 1abe 7b5d 0f3e
000003d0: 9bf3 a5bd 99eb b3bd e674 e3bc e7be 1a3e
000003e0: ede5 d2bd eb55 d2bc 4201 19be 4448 033e
000003f0: 79be 903d d9b6 b23d f322 c8bd 9292 8fbd

_pina_model._model.model.2.bias f4 [20]
0.03567947 -0.034550723 0.15193544 0.01892739 0.053573873 0.031763412 0.100005135 0.05282678
-0.06428242 -0.010004299 -0.08594036 -0.065571845 0.004833818 0.20685238 -0.13899975 0.19178995
0.15476288 -0.04764434 0.16400753 0.081825264
00000000: a324 123d 0f85 0dbd f794 1b3e 9d0d 9b3c
00000010: 4770 5b3d 5a1a 023d 7ecf cc3d e560 583d
00000020: 80a6 83bd 12e9 23bc 8001 b0bd 884a 86bd
00000030: 0165 9e3b 1cd1 533e f355 0ebe 9664 443e
00000040: 297a 1e3e b626 43bd 97f1 273e 0194 a73d

_pina_model._model.model.4.weight f4 [2, 20]
0.07005613 0.013085133 0.03813621 0.1430158 0.22402568 0.17415002 0.0105060795 -0.030478567
-0.082385205 -0.17946559 -0.011807879 -0.09622226 -0.13323152 -0.031250857 0.03781103 0.17669316
0.016117293 -0.1052447 -0.15470564 -0.16485484 -0.06040826 -0.13363828 0.2218989 -0.02241192
0.12114148 -0.03892902 0.0882881 0.05929168 -0.033845857 0.0074912817 -0.11317846 -0.010427075
0.06714207 0.17363182 -0.0976296 -0.049568903 -0.033611607 0.07119595 0.13377166 0.0004979979
00000000: 9779 8f3d 0763 563c b734 1c3d bc72 123e
00000010: fd66 653e 6254 323e b121 2c3c 30ae f9bc
00000020: 93b9 a8bd d4c5 37be d675 41bc 2d10 c5bd
00000030: d86d 08be e600 00bd bddf 1a3d 0def 343e
00000040: 6a08 843c 898a d7bd 286b 1ebe b5cf 28be
00000050: a76e 77bd 79d8 08be 7739 633e 3499 b7bc
00000060: 0619 f83d 0974 1fbd 64d0 b43d d5db 723d
00000070: f4a1 0abd 6d79 f53b 1cca e7bd 53d6 2abc
00000080: c881 893d 8acc 313e 07f2 c7bd c308 4bbd
00000090: 53ac 09bd 2fcf 913d 70fb 083e 138c 023a

_pina_model._model.model.4.bias f4 [2]
-0.0794169 -0.017355926
00000000: 54a5 a2bd 042e 8ebc

d f4 [522]
-0.0049819695 0.00052539795 0.0011050331 0.0017260951 0.002505859 0.0032085525 -0.00067737955 -0.0014061049
-0.0016862935 -0.0008660665 0.0012788004 0.0014507498 -0.0021476517 -0.0039709667 0.0015644445 -0.00051311293
0.0032000507 0.0004287266 -0.0008406326 0.0029111714 -0.0019904904 -0.002114308 -0.0025643208 -0.0019312483
-0.0020091017 -0.0017336137 -0.000837359 -0.0003005105 -0.0008014747 -0.0022833173 0.000997019 0.0007287745
0.0005496668 0.00027428553 -0.0004373574 0.0003968318 0.0014704871 -0.0026179506 -0.0034881642 -0.0033125319
-0.006153163 0.0016540682 0.0023299577 -0.004299285 -0.0011052769 0.0017076826 -0.0036525559 -0.00057969015
0.005236713 0.0031139345 -0.0018625834 -0.0023515732 -0.0036761793 -0.0021349501 -0.0031892918 0.0007645495
-4.9293263e-05 -0.002217669 -0.003292278 -0.0025694245 -0.0016631433 0.00044408184 -0.0001918308 -0.000920487
-0.0010851221 0.0015322706 -0.0015497913 0.0007015669 0.0017143807 0.0014619614 -0.0006939394 0.00019288974
-0.0016398515 -0.0007977262 -0.00088122895 0.0009358396 -0.00066481665 -0.0010731556 -0.0010433743 -0.0013075154
0.0002210277 -0.00065649505 -0.0011877536 -3.8662653e-05 0.0019128227 -0.003655123 0.0039026951 0.0006696923
-0.0019358834 -0.003075977 -0.0005413317 -0.0028102873 0.003962659 0.0011103782 0.0026829236 -0.001030102
0.0020996334 -0.00024880402 0.0033936757 0.0033914838 0.002999805 0.00033712803 0.0014146874 0.0018257828
0.0014278278 -0.0017960762 0.0011183461 -0.0010357803 -0.0019445929 -0.0012887671 0.0012627 0.0007868596
0.0016854884 0.0010277104 -0.0009872067 -0.0016133277 0.0009903443 0.0025916114 -7.096841e-05 0.0012880786
-0.002600247 0.00024019423 -0.00075205346 -0.0009499849 -0.0011634275 0.0014334389 -0.0018572335 0.0012526304
0.0022346713 0.0013816166 -0.0008686579 -0.00016745797 -0.0017773802 -0.0009813311 -0.00096483144 0.0012447557
-0.0005713686 -0.0011121472 -0.0011617607 -0.0015003767 -0.0025472639 0.0026536477 0.003517805 -0.0006110765
-0.0028029284 0.005134293 -0.0074305944 -0.00048521868 0.0036307005 0.0048316065 0.0002051994 0.0031532876
-0.0065448107 -0.0017296583 -0.006428047 0.0015876591 -0.0025276078 -0.0007914661 -0.0070958864 -0.0063477415
-0.0011822695 0.00024355593 -0.0009721556 -0.0003314845 0.0005783225 -0.0015283341 0.0010958832 0.0015553427
0.0003008378 -0.0010593073 -0.0008655133 -0.0015833932 0.0013754887 0.00014523855 0.00029127952 -0.0001605639
0.0012954422 -0.00048304978 0.0012987907 0.0012390377 0.0019549564 -8.621482e-06 -5.5504286e-05 0.0012517753
0.0016189314 -0.0025813947 0.002382234 -0.00061298104 -0.0020518112 -0.0020953636 0.0007140218 -0.00064125203
0.0027008406 0.001083941 0.00071861 -0.0013828545 0.0013696079 0.00160214 0.0014765454 0.0022474173
0.0033900368 6.192239e-05 0.0008873021 0.0023980287 0.0026146926 -0.0042045447 0.0039332723 -0.0014116499
-0.0037918305 -0.0037382282 0.0014942175 -0.0011484774 0.0043531405 0.001927498 0.0013786571 -0.0025982407
0.0021707234 0.0028224958 0.0027934918 0.0035407594 -0.0010491214 2.7581304e-05 0.00019938353 -0.0006518054
-0.0017105408 0.0030866698 -0.0029907636 -0.0004306217 0.001563245 0.0022175673 6.9490714e-05 0.001538787
-0.0032766322 -0.0009559189 -0.0009318322 0.0011688807 -0.0018591937 -0.0009359409 -0.001967379 -0.0029890016
0.00205334 8.256148e-05 0.0017219046 0.0009563198 0.00058406964 -0.00035329338 0.0005898485 -0.0020278196
-0.0017430944 -0.00040273328 0.0011601917 0.00077660277 0.00051451393 0.0006620934 6.820147e-05 -0.000815607
00000000: ca3f a3bb dcba 093a c2d6 903a 243e e23a
00000010: 5639 243b 9446 523b 2c92 31ba 0d4d b8ba
00000020: 9f06 ddba bd08 63ba 6c9d a73a 1627 be3a
00000030: 9ebf 0cbb e21e 82bb 0c0e cd3a 6d82 06ba
00000040: f1b7 513b b6c6 e039 e65d 5cba 5ac9 3e3b
00000050: e372 02bb 3490 0abb 2a0e 28bb f121 fdba
00000060: 22ab 03bb 6c3a e3ba 3682 5bba d68d 9db9
00000070: 0f1a 52ba b5a3 15bb 68ae 823a 3b0b 3f3a
00000080: 8417 103a fbcd 8f39 1e4d e5b9 dd0d d039
00000090: 5cbd c03a ec91 2bbb af99 64bb 1017 59bb
000000a0: 79a0 c9bb 52cd d83a 34b2 183b 04e1 8cbb
000000b0: f0de 90ba 52d4 df3a b85f 6fbb 59f6 17ba
000000c0: bc98 ab3b 2713 4c3b ee21 f4ba da1c 1abb
000000d0: 0eec 70bb 85ea 0bbb 7003 51bb 0c6c 483a
000000e0: 3dc0 4eb8 5056 11bb 42c3 57bb ca63 28bb
000000f0: d4fd d9ba a8d3 e839 3026 49b9 d64c 71ba
00000100: a83a 8eba 78d6 c83a 5e22 cbba 5ce9 373a
00000110: 12b5 e03a 499f bf3a 7ce9 35ba 7242 4a39
00000120: 49f0 d6ba 801e 51ba 4602 67ba 2253 753a
00000130: 1747 2eba 20a9 8cba d5c1 88ba f060 abba
00000140: acc3 6739 a318 2cba 66ae 9bba b529 22b8
00000150: aeb7 fa3a ca8a 6fbb 5cc4 7f3b 4a8e 2f3a
00000160: 78bd fdba 5596 49bb 28e8 0dba cc2c 38bb
00000170: 31d9 813b 1c8a 913a fdd3 2f3b 7d04 87ba
00000180: 019a 093b e971 82b9 6e68 5e3b a843 5e3b
00000190: 6098 443b 8fc0 b039 086d b93a 1b4f ef3a
000001a0: f325 bb3a 516a ebba 7895 923a 05c3 87ba
000001b0: b6e1 feba d9eb a8ba 2e81 a53a 4145 4e3a
000001c0: 9beb dc3a 3db4 863a 2965 81ba 4b76 d3ba
000001d0: 71ce 813a 06d8 293b e0d4 94b8 bfd4 a83a
000001e0: e868 2abb a6dc 7b39 7425 45ba 6808 79ba
000001f0: 267e 98ba 3ae2 bb3a 6a6e f3ba 4d2f a43a
00000200: 9073 123b 5c17 b53a a5b6 63ba a897 2fb9
00000210: fcf6 e8ba 02a0 80ba beec 7cba 1227 a33a
00000220: e6c7 15ba 78c5 91ba 3846 98ba 4aa8 c4ba
00000230: ffef 26bb d2e8 2d3b f98a 663b a630 20ba
00000240: 56b1 37bb 923d a83b 587c f3bb f364 feb9
00000250: 0cf1 6d3b 7452 9e3b cb2a 5739 63a7 4e3b
00000260: da75 d6bb b4b5 e2ba 5ea2 d2bb 0019 d03a
00000270: 39a6 25bb 647a 4fba 9c84 e8bb b700 d0bb
00000280: 62f6 9aba 0c63 7f39 42d8 7eba 19cb adb9
00000290: 919a 173a 6252 c8ba bda3 8f3a a4dc cb3a
000002a0: c4b9 9d39 74d8 8aba 9de3 62ba dc89 cfba
000002b0: be49 b43a 2d4b 1839 e0b6 9839 0b5d 28b9
000002c0: d4cb a93a d841 fdb9 2f3c aa3a 3567 a23a
000002d0: ba1e 003b fca4 10b7 46cd 68b8 9c12 a43a
000002e0: 5332 d43a 9e2c 29bb 411f 1c3b 76b0 20ba
000002f0: ae77 06bb 5e52 09bb 312d 3b3a b219 28ba
00000300: 9600 313b 0613 8e3a 1a61 3c3a e640 b5ba
00000310: 6a84 b33a e6fe d13a a488 c13a 6849 133b
00000320: 612b 5e3b 54dc 8138 d699 683a 3f28 1d3b
00000330: 435b 2b3b 47c6 89bb aee2 803b 1c07 b9ba
00000340: 5c80 78bb 10fd 74bb 9fd9 c33a 8288 96ba
00000350: caa4 8e3b 1aa4 fc3a 0eb4 b43a 3f47 2abb
00000360: b242 0e3b 9ff9 383b 0413 373b 160c 683b
00000370: ac82 89ba 665e e737 9c11 5139 ecdd 2aba
00000380: 3a34 e0ba ba49 4a3b b000 44bb 11c5 e1b9
00000390: cce5 cc3a 9b54 113b 8bbb 9138 20b1 c93a
000003a0: c4bc 56bb a296 7aba 3346 74ba 2135 993a
000003b0: 30b0 f3ba ee59 75ba 24ef 00bb 20e3 43bb
000003c0: 5491 063b db24 ad38 88b1 e13a 89b1 7a3a
000003d0: 401c 193a 3c3a b9b9 10a0 1a3a 2be5 04bb
000003e0: 8b78 e4ba f225 d3b9 9311 983a ee94 4b3a
000003f0: 72e0 063a 5690 2d3a 6307 8f38 76ce 55ba

old_dirs f4 [522]
2.7562055e-07 5.613547e-07 -2.547713e-07 -4.109679e-07 1.8934224e-07 -9.8229066e-08 -5.992333e-07 1.18156095e-07
2.3996108e-08 1.06294465e-07 9.1749826e-08 -1.0083022e-07 -1.6221748e-07 -1.591252e-08 -8.616189e-07 -4.9305527e-08
-5.7676516e-07 3.2020762e-07 5.3012627e-08 3.346504e-07 8.3990744e-07 -1.8702121e-07 5.343609e-07 -4.2287866e-08
1.1372504e-07 -2.1325832e-07 2.640445e-08 -1.6622653e-07 4.2520696e-08 1.4151738e-09 3.5031553e-07 -2.141096e-07
-4.350295e-07 2.7190254e-08 -6.830087e-07 5.180209e-07 -1.9007348e-07 -1.3385943e-07 4.193571e-07 -2.6848284e-09
6.849805e-07 -1.6676495e-07 -1.2783858e-07 2.5225745e-07 -4.931826e-08 5.201673e-08 -1.0684744e-08 9.778887e-08
1.1755037e-07 5.6796125e-08 1.2551027e-08 -4.985486e-08 -5.7734724e-09 9.975156e-08 3.277546e-07 -1.5211845e-07
-1.8417268e-07 1.1478551e-07 3.1403033e-08 1.7601178e-07 1.3047793e-07 6.6964276e-08 -3.6849087e-08 4.083413e-07
-4.9654773e-08 -1.371518e-08 1.6749254e-08 -5.0631934e-07 -1.3134377e-07 -1.2060627e-07 3.6190613e-07 1.2587407e-08
2.5393092e-08 2.60643e-08 6.013397e-08 -1.0850931e-07 -1.1491284e-07 6.468763e-07 9.293581e-08 -7.473136e-08
4.7965295e-07 -5.3987605e-08 8.3309715e-10 3.4966797e-07 8.4819476e-08 -2.2780296e-07 2.9274634e-07 -2.0117295e-07
-3.501773e-07 -2.9014336e-07 2.6143607e-07 -6.239134e-08 2.8229806e-07 1.4396937e-07 2.6225462e-07 -3.3228116e-07
5.7476427e-08 4.5481283e-07 3.8838334e-07 1.958997e-07 -2.5937334e-07 5.65793e-07 7.206836e-07 -1.5644764e-07
-6.323353e-08 2.644665e-07 -4.7035428e-07 -1.13999704e-07 2.7541864e-07 4.5116758e-07 -9.6304575e-08 3.2209937e-07
-3.723908e-07 -8.3758096e-08 -9.1166294e-07 1.6752165e-07 -1.7796992e-08 -2.5362533e-07 -8.671341e-07 -2.4723704e-07
1.2420423e-07 5.0416566e-07 2.970628e-07 7.192575e-07 -2.0871084e-07 2.4051405e-07 -3.2811658e-07 -1.1458178e-06
-5.0118615e-08 7.903509e-08 6.9379166e-07 2.6094494e-07 -2.6551425e-07 -3.065361e-08 -4.1141175e-07 -1.1042357e-07
-3.2391836e-07 1.1306838e-06 -3.010373e-07 -4.2344618e-07 7.759372e-07 8.324423e-07 1.3482058e-06 8.3836494e-07
1.8528954e-07 -2.803281e-07 9.0367394e-08 -1.1072843e-06 -5.05941e-07 -1.7325146e-07 6.7838846e-07 2.9791045e-07
2.5851477e-07 2.704037e-07 -8.437928e-07 -5.6790304e-07 1.6367994e-07 1.23668e-06 -2.679226e-07 1.3616227e-07
7.079325e-08 5.9952436e-07 2.964589e-07 8.844072e-07 -3.3259857e-07 3.9070437e-07 -4.818139e-07 -1.4349935e-06
1.933222e-08 1.9260915e-07 8.6822547e-07 3.4425466e-07 -4.216854e-07 -9.089854e-08 -5.124457e-07 -7.539211e-08
-4.871981e-07 1.4013494e-06 -4.8746733e-07 -5.9377635e-07 -9.568612e-08 2.0210791e-07 2.6097405e-07 -6.672053e-08
-2.0922926e-08 8.280949e-08 -1.4385296e-07 -3.1111995e-08 1.0727581e-07 1.7539969e-07 -4.5056368e-08 1.1103111e-07
-1.124281e-07 -3.4788172e-08 -3.3231117e-07 6.675873e-08 -6.559276e-09 -1.01848855e-07 -3.3863762e-07 -5.6243152e-08
-1.415865e-07 1.6284321e-07 1.6989361e-07 -2.1039887e-07 -7.764538e-08 2.0624611e-07 -2.5684585e-07 1.6121339e-07
1.8863102e-07 2.4195106e-07 -1.5307342e-07 1.4004945e-07 -2.4348083e-07 -7.405606e-08 -2.8790237e-07 1.1111297e-07
-4.197318e-08 -3.6885467e-07 -2.8650174e-07 -1.759181e-07 -4.211688e-08 -1.9708386e-07 -1.804292e-07 -2.4693873e-07
1.684748e-08 1.7325874e-09 3.9424776e-08 3.9221777e-07 4.5783054e-08 1.6911144e-08 -2.2392487e-07 -6.459413e-08
5.1238658e-09 -1.3495082e-08 1.7475395e-07 4.3010004e-08 4.973117e-08 -3.9757288e-07 9.8048986e-08 5.1931693e-08
-7.9096935e-08 -7.864146e-07 -3.2512526e-07 -1.0347576e-06 3.3598917e-07 -3.9218867e-07 5.1506504e-07 1.6258564e-06
-1.9317667e-09 -1.4295074e-07 -9.959622e-07 -3.9685983e-07 4.2760803e-07 8.6798536e-08 6.204791e-07 8.646748e-08
00000000: 00f9 9334 00b0 1635 80c7 88b4 00a3 dcb4
00000010: 004e 4b34 00f2 d2b3 00db 20b5 00bd fd33
00000020: 0020 ce32 0044 e433 0008 c533 0088 d8b3
00000030: 002e 2eb4 00b0 88b2 004a 67b5 00c4 53b3
00000040: 00d3 1ab5 00e9 ab34 00b0 6333 00aa b334
00000050: 0076 6135 00d0 48b4 0071 0f35 00a0 35b3
00000060: 0039 f433 00fc 64b4 00d0 e232 007c 32b4
00000070: 00a0 3633 0080 c230 0013 bc34 00e6 65b4
00000080: 008e e9b4 0090 e932 0058 37b5 200e 0b35
00000090: 0017 4cb4 00bb 0fb4 0024 e134 0080 38b1
000000a0: 80df 3735 0010 33b4 0044 09b4 006e 8734
000000b0: 00d2 53b3 0069 5f33 0090 37b2 0000 d233
000000c0: 0070 fc33 00f0 7333 00a0 5732 0020 56b3
000000d0: 0060 c6b1 0037 d633 40f6 af34 0056 23b4
000000e0: 00c1 45b4 0080 f633 00e0 0633 c0fd 3c34
000000f0: 8019 0c34 00ce 8f33 0044 1eb3 003a db34
00000100: 0044 55b3 00a0 6bb2 00e0 8f32 00ea 07b5
00000110: 8007 0db4 0080 01b4 004c c234 0040 5832
00000120: 0020 da32 00e4 df32 0023 8133 a005 e9b3
00000130: 00c6 f6b3 00a5 2d35 0094 c733 007c a0b3
00000140: 80c1 0035 00e0 67b3 0000 6530 00ba bb34
00000150: 0026 b633 009a 74b4 c02a 9d34 0002 58b4
00000160: 0000 bcb4 00c5 9bb4 805b 8c34 00fc 85b3
00000170: c08e 9734 0096 1a34 00cc 8c34 6064 b2b4
00000180: 00dc 7633 002d f434 0083 d034 8058 5234
00000190: 0040 8bb4 00e1 1735 0075 4135 00fc 27b4
000001a0: 00cb 87b3 00fc 8d34 0085 fcb4 00d0 f4b3
000001b0: 40dd 9334 0038 f234 00d0 ceb3 00ed ac34
000001c0: 00ed c7b4 80de b3b3 00b9 74b5 00e0 3334
000001d0: 00e0 98b2 002a 88b4 00c5 68b5 00bc 84b4
000001e0: 005d 0534 0056 0735 007c 9f34 0013 4135
000001f0: 001a 60b4 0020 8134 0028 b0b4 00ca 99b5
00000200: 0042 57b3 00ba a933 003d 3a35 0018 8c34
00000210: 008c 8eb4 00a8 03b3 00e0 dcb4 0022 edb3
00000220: 00e7 adb4 00c2 9735 409e a1b4 0056 e3b4
00000230: 004a 5035 0075 5f35 00f4 b435 000c 6135
00000240: 00f4 4634 0080 96b4 0010 c233 009e 94b5
00000250: 00d0 07b5 0007 3ab4 801a 3635 80f0 9f34
00000260: 00ca 8a34 002c 9134 0081 62b5 0072 18b5
00000270: 00c0 2f34 00fc a535 00d7 8fb4 0034 1234
00000280: 0007 9833 00ef 2035 0029 9f34 0068 6d35
00000290: 0090 b2b4 00c2 d134 0056 01b5 009a c0b5
000002a0: 0010 a632 00d0 4e34 0010 6935 00d2 b834
000002b0: 0064 e2b4 0034 c3b3 008f 09b5 40e7 a1b3
000002c0: 00c8 02b5 0016 bc35 80da 02b5 0064 1fb5
000002d0: 007c cdb3 0003 5934 001c 8c34 0048 8fb3
000002e0: 00ba b3b2 00d5 b133 0076 1ab4 00a0 05b3
000002f0: 805f e633 8055 3c34 0084 41b3 0070 ee33
00000300: 0070 f1b3 006a 15b3 8068 b2b4 005d 8f33
00000310: 0060 e1b1 00b8 dab3 00ce b5b4 0090 71b3
00000320: 0007 18b4 00da 2e34 006c 3634 00ea 61b4
00000330: 00be a6b3 8074 5d34 a0e4 89b4 001a 2d34
00000340: 808a 4a34 80e5 8134 805c 24b4 8060 1634
00000350: c0b7 82b4 c008 9fb3 0091 9ab4 009d ee33
00000360: 0046 34b3 0007 c6b4 80d0 99b4 00e4 3cb4
00000370: 00e4 34b3 009e 53b4 00bc 41b4 0093 84b4
00000380: 00b8 9032 0020 ee30 0054 2933 0092 d234
00000390: 00a3 4433 0044 9132 0070 70b4 00b7 8ab3
000003a0: 000e b031 00d8 67b2 00a4 3b34 00ba 3833
000003b0: 0098 5533 0072 d5b4 008f d233 800b 5f33
000003c0: 00dc a9b3 001a 53b5 e08c aeb4 00e2 8ab5
000003d0: 0062 b434 008e d2b4 0043 0a35 0038 da35
000003e0: 00c0 04b1 007e 19b4 00ad 85b5 0010 d5b4
000003f0: 0092 e534 0066 ba33 008f 2635 00b0 b933

old_dirs f4 [522]
3.0294177e-07 8.769275e-07 -1.6481135e-07 -3.4650293e-07 2.565721e-07 -8.8799425e-08 -7.388444e-07 5.8887963e-08
6.825576e-08 -7.792187e-08 1.07464075e-07 -1.3707177e-07 -1.0282747e-07 2.3760367e-07 -9.458454e-07 -1.6126069e-07
-5.686743e-07 9.500218e-08 -6.977061e-07 2.4093606e-07 1.0205549e-06 -2.6484486e-08 6.571645e-07 -1.8854917e-07
8.3487976e-08 -4.1167368e-07 5.0262315e-08 -5.9691956e-08 2.753477e-07 -6.676055e-08 2.9990042e-07 -1.6835838e-07
-4.1588646e-07 -2.2797394e-08 -1.0616786e-06 1.9656727e-07 6.766277e-08 4.909998e-08 4.430185e-07 -9.217911e-08
3.75323e-07 -4.9563823e-08 -8.276402e-08 1.6233389e-07 -1.1823613e-07 7.0475835e-08 -4.0812665e-08 -6.681512e-08
4.8086804e-08 5.4460543e-08 2.6897033e-07 -2.4330802e-08 1.209055e-07 1.8392893e-07 3.5701396e-07 -9.749783e-08
-2.8773502e-07 -1.4575198e-07 -4.1607564e-08 1.9802974e-07 9.4686584e-08 3.8919097e-08 -5.3307303e-08 3.9872248e-07
1.27874955e-08 -2.233719e-08 -5.2925316e-08 -4.4179615e-07 -1.5526894e-07 -2.2014501e-07 3.2718526e-07 7.668859e-09
-1.405715e-08 5.644324e-08 3.6816346e-08 -1.0006988e-07 -2.0449079e-08 6.983464e-07 2.639972e-07 -1.4064426e-07
1.3469435e-07 -1.6721606e-07 -1.01397745e-07 2.624547e-07 1.146509e-07 -1.7114871e-07 8.231109e-08 -1.2060627e-07
-2.6459747e-07 -3.1042146e-07 1.8476203e-07 -8.849747e-08 1.15203875e-07 1.1872544e-07 1.9255822e-07 -1.4899842e-07
8.332063e-08 4.131216e-07 3.110763e-07 2.0328116e-08 2.043962e-07 5.096954e-07 4.1746534e-07 -5.7465513e-08
-4.9974915e-08 -2.2369932e-08 2.2610766e-07 -1.1730299e-07 1.6836111e-07 2.929446e-07 -5.4191332e-08 1.3962563e-07
1.9401341e-07 -6.528626e-08 -3.8089638e-07 -2.9496732e-08 1.747685e-08 -1.26558e-07 -3.039895e-07 3.4806726e-07
2.7024726e-07 4.924368e-07 8.468851e-08 8.3421764e-07 -1.1692464e-07 1.12864655e-07 -1.5580736e-07 -1.1434022e-06
-1.48877e-07 -1.988119e-07 7.3446427e-07 1.856024e-07 -9.3714334e-08 2.5043846e-08 -2.1058077e-07 -1.8780338e-07
-1.7973798e-07 1.3859244e-06 3.0413867e-07 -3.1160016e-07 9.839714e-07 5.0455856e-07 4.544272e-07 9.4773713e-07
3.6906567e-07 -7.872077e-07 9.965152e-07 -9.672221e-07 -6.2228355e-07 -7.540548e-07 6.4250344e-07 -1.363369e-07
1.0420918e-06 3.12888e-07 7.907511e-08 -6.03075e-07 4.2052125e-07 1.6143313e-06 1.0650037e-06 8.9153764e-07
2.5003828e-07 5.7292345e-07 8.36917e-08 9.924988e-07 -2.0179141e-07 2.3496978e-07 -2.9685907e-07 -1.3857789e-06
-1.08433596e-07 -1.4046964e-07 8.8568777e-07 2.5921327e-07 -2.290617e-07 -1.1514203e-08 -3.0062802e-07 -1.7587104e-07
-2.8329669e-07 1.6732956e-06 2.2657332e-07 -4.695321e-07 1.4551915e-09 1.1927114e-07 3.297464e-08 -4.8421498e-08
-1.751232e-08 -4.8152287e-08 1.6709964e-07 -1.1532393e-08 9.90176e-08 1.00590114e-07 -4.8265065e-08 -5.9153535e-09
1.3656609e-07 -4.7522917e-08 -5.3663825e-08 4.7451977e-08 -8.1308826e-10 -5.740003e-08 -9.447831e-08 2.1322921e-07
4.84215e-09 2.0333391e-07 2.1101732e-07 -1.7634738e-07 -9.2181835e-08 1.5893283e-07 -1.2698092e-07 1.1867087e-07
1.4814304e-07 2.6228736e-07 -1.1805969e-07 1.3622594e-07 -1.3821045e-07 -6.479968e-08 -2.398083e-07 3.3309334e-08
-6.584196e-08 -3.732057e-07 -3.011737e-07 -5.9555532e-08 -1.0340591e-07 -1.350927e-07 1.62363e-08 -2.6609268e-07
2.673005e-09 6.7328074e-08 -1.2997202e-07 3.579844e-07 4.4124135e-08 1.17382115e-07 -2.1320375e-07 8.696588e-09
-1.2951205e-07 -7.628842e-09 -2.1853339e-08 4.9274604e-08 1.09967e-08 -4.8527727e-07 -2.1746564e-07 -7.8819085e-08
-3.600362e-07 -7.5111166e-07 -3.779769e-08 -1.1916563e-06 1.6740523e-07 -1.28377e-07 1.5815021e-07 1.5936093e-06
1.8885112e-07 2.8599607e-07 -1.0390359e-06 -2.5439658e-07 7.777999e-08 -1.9648724e-08 2.856832e-07 2.4235123e-07
00000000: 00a4 a234 0066 6b35 00f7 30b4 0007 bab4
00000010: 00bf 8934 00b2 beb3 0055 46b5 00ec 7c33
00000020: 0094 9233 0056 a7b3 00c7 e633 002e 13b4
00000030: 00d2 dcb3 0020 7f34 00e6 7db5 0027 2db4
00000040: 00a7 18b5 0004 cc33 004a 3bb5 005a 8134
00000050: 00fa 8835 0080 e3b2 0068 3035 0074 4ab4
00000060: 004a b333 0004 ddb4 00e0 5733 0030 80b3
00000070: 80d3 9334 005e 8fb3 0002 a134 00c6 34b4
00000080: 0047 dfb4 00d4 c3b2 007f 8eb5 0010 5334
00000090: 004e 9133 00e2 5233 00d8 ed34 00f4 c5b3
000000a0: 0080 c934 00e0 54b3 00bc b1b3 004e 2e34
000000b0: 00e9 fdb3 8058 9733 004a 2fb3 007c 8fb3
000000c0: 0088 4e33 00e8 6933 0067 9034 0000 d1b2
000000d0: 40d2 0134 007e 4534 a0ab bf34 0060 d1b3
000000e0: 007a 9ab4 0080 1cb4 00b4 32b3 00a2 5434
000000f0: 8056 cb33 0028 2733 00f4 64b3 0010 d634
00000100: 00b0 5b32 00e0 bfb2 0050 63b3 0030 edb4
00000110: 00b8 26b4 0061 6cb4 00a8 af34 00c0 0332
00000120: 0080 71b2 006c 7233 0020 1e33 00e6 d6b3
00000130: 00a8 afb2 0076 3b35 80bb 8d34 0004 17b4
00000140: 80a0 1034 008c 33b4 00c0 d9b3 80e7 8c34
00000150: 0036 f633 00c5 37b4 00c3 b033 0080 01b4
00000160: 000e 8eb4 00a8 a6b4 0063 4634 000c beb3
00000170: 0066 f733 00f6 fe33 00c2 4e34 60fc 1fb4
00000180: 00ee b233 00cb dd34 0002 a734 009e ae32
00000190: 0078 5b34 00d2 0835 0020 e034 00d0 76b3
000001a0: 00a4 56b3 0028 c0b2 00c8 7234 00e8 fbb3
000001b0: c0c6 3434 0046 9d34 00c0 68b3 00ec 1534
000001c0: 0052 5034 8033 8cb3 007e ccb4 0060 fdb2
000001d0: 0020 9632 00e4 07b4 0034 a3b4 00de ba34
000001e0: 8016 9134 0030 0435 00de b533 00ef 5f35
000001f0: 0018 fbb3 0060 f233 004c 27b4 0077 99b5
00000200: 00db 1fb4 0079 55b4 0028 4535 004a 4734
00000210: 0040 c9b3 0020 d732 001c 62b4 00a7 49b4
00000220: 00fe 40b4 0004 ba35 8048 a334 004a a7b4
00000230: 0011 8435 0071 0735 00f8 f334 0068 7e35
00000240: 0024 c634 8050 53b5 00c0 8535 80d1 81b5
00000250: 000b 27b5 406a 4ab5 8078 2c35 0064 12b4
00000260: 00de 8b35 00fb a734 00d0 a933 00e3 21b5
00000270: 00c4 e134 00ac d835 40f1 8e35 0052 6f35
00000280: 003d 8634 00cb 1935 00ba b333 0036 8535
00000290: 00ac 58b4 004c 7c34 0060 9fb4 00ff b9b5
000002a0: 00dc e8b3 00d4 16b4 00c0 6d35 002a 8b34
000002b0: 00f4 75b4 00d0 45b2 0066 a1b4 10d7 3cb4
000002c0: 0018 98b4 0096 e035 0048 7334 0014 fcb4
000002d0: 0000 c830 0011 0034 00a0 0d33 00f8 4fb3
000002e0: 006e 96b2 00d0 4eb3 006c 3334 0020 46b2
000002f0: 80a3 d433 0004 d833 004c 4fb3 0040 cbb1
00000300: 00a3 1234 001c 4cb3 007c 66b3 00ce 4b33
00000310: 0080 5fb0 0088 76b3 00e4 cab3 00f4 6434
00000320: 0060 a631 0054 5a34 0094 6234 005a 3db4
00000330: 80f5 c5b3 20a7 2a34 4058 08b4 00d8 fe33
00000340: 4011 1f34 80d0 8c34 0088 fdb3 8045 1234
00000350: 0067 14b4 0028 8bb3 00bf 80b4 0010 0f33
00000360: 0065 8db3 005d c8b4 00b1 a1b4 00ca 7fb3
00000370: 0010 deb3 000e 11b4 0078 8b32 80db 8eb4
00000380: 00b0 3731 0096 9033 708e 0bb4 0031 c034
00000390: 0083 3d33 8013 fc33 00ed 64b4 0068 1532
000003a0: 0010 0bb4 0010 03b2 00b8 bbb2 00a2 5333
000003b0: 00ec 3c32 0044 02b5 8080 69b4 4043 a9b3
000003c0: 004b c1b4 00a0 49b5 0057 22b3 00f1 9fb5
000003d0: 00c0 3334 00d8 09b4 00d0 2934 00e4 d535
000003e0: 00c7 4a34 008b 9934 0075 8bb5 0094 88b4
000003f0: 0008 a733 00c8 a8b2 0060 9934 801c 8234

old_dirs f4 [522]
2.6595808e-07 5.607144e-07 -2.3265966e-07 -3.9624138e-07 1.8605351e-07 -1.1196971e-07 -5.9386366e-07 1.2859527e-07
3.9355655e-08 1.1744851e-07 8.063762e-08 -1.1084194e-07 -1.553417e-07 -1.132139e-08 -8.63045e-07 -4.445974e-08
-5.45886e-07 3.4598634e-07 7.5859134e-08 3.6679558e-07 8.2171755e-07 -2.095112e-07 4.9394293e-07 -8.348434e-08
1.1206248e-07 -2.1811866e-07 1.14087015e-08 -1.8115315e-07 2.1504093e-08 -2.0496373e-08 3.2788375e-07 -2.3645407e-07
-4.2096508e-07 3.4746336e-08 -6.876362e-07 5.2540963e-07 -1.9247454e-07 -1.3843419e-07 3.9914448e-07 -1.9463187e-08
6.637856e-07 -1.2975943e-07 -1.5256228e-07 2.8521026e-07 -3.385958e-08 3.309742e-08 3.4651748e-10 1.1449447e-07
1.8649735e-07 1.339431e-07 -3.2967364e-08 -1.4253601e-07 -1.2038072e-08 7.7532604e-08 2.7827627e-07 -2.0059815e-07
-1.5616388e-07 1.2635428e-07 1.987064e-08 1.3709632e-07 1.0469739e-07 6.785194e-08 -3.6132406e-08 3.9549195e-07
-7.7587174e-08 3.169407e-08 -2.582965e-08 -5.0752715e-07 -9.638552e-08 -7.838025e-08 3.5724952e-07 3.043533e-08
-2.1660526e-08 6.4155756e-09 4.0547093e-08 -8.695224e-08 -1.438384e-07 6.348855e-07 5.086258e-08 -1.15418516e-07
4.581998e-07 -5.9204467e-08 7.232302e-09 3.3783363e-07 6.8350346e-08 -2.0126026e-07 2.677607e-07 -1.9632716e-07
-3.264795e-07 -2.6408816e-07 2.5494228e-07 -5.3922122e-08 2.5445843e-07 1.307526e-07 2.509114e-07 -3.1517993e-07
3.993773e-08 4.434114e-07 3.6154233e-07 1.7289312e-07 -2.3098255e-07 5.791371e-07 7.0474925e-07 -1.390581e-07
-4.764297e-08 2.400484e-07 -4.4864282e-07 -1.2520468e-07 2.490042e-07 4.2700412e-07 -8.490315e-08 3.1841773e-07
-3.4760888e-07 -6.917617e-08 -9.035721e-07 1.4524994e-07 -4.3655746e-10 -2.363231e-07 -8.435891e-07 -2.2657332e-07
8.9610694e-08 5.10845e-07 2.8834984e-07 7.03978e-07 -2.5274494e-07 3.1170202e-07 -3.944442e-07 -1.1545199e-06
1.7716957e-09 1.447479e-07 6.9098314e-07 2.908273e-07 -3.3898687e-07 -6.0110324e-08 -4.4173794e-07 -8.068491e-08
-3.6945858e-07 1.1180819e-06 -3.6649362e-07 -4.8740185e-07 7.454946e-07 8.3839404e-07 1.3230601e-06 8.218194e-07
1.4285615e-07 -2.106317e-07 2.6717316e-08 -1.1125085e-06 -4.558533e-07 -1.06381776e-07 6.733608e-07 3.280693e-07
1.86541e-07 2.4249312e-07 -8.703064e-07 -5.410984e-07 1.2134842e-07 1.2220116e-06 -3.3461401e-07 7.652852e-08
2.6659109e-08 6.0694583e-07 2.8705108e-07 8.639472e-07 -3.879395e-07 4.8031507e-07 -5.652255e-07 -1.4437246e-06
8.5106876e-08 2.7585338e-07 8.6345244e-07 3.8163853e-07 -5.139882e-07 -1.2812234e-07 -5.507027e-07 -3.7506425e-08
-5.441834e-07 1.3836543e-06 -5.70275e-07 -6.7363726e-07 -8.724601e-08 2.055458e-07 2.5182817e-07 -6.099435e-08
-1.4973011e-08 7.309791e-08 -1.3464523e-07 -3.4458935e-08 9.812902e-08 1.6617014e-07 -4.1534804e-08 1.08506356e-07
-1.0243457e-07 -2.9779585e-08 -3.2765456e-07 5.986749e-08 -1.4188117e-10 -9.594805e-08 -3.2982643e-07 -4.7351932e-08
-1.2202509e-07 1.6659033e-07 1.6903505e-07 -1.9961954e-07 -6.084974e-08 1.7909088e-07 -2.3173288e-07 1.5852493e-07
1.65644e-07 2.1597589e-07 -1.477365e-07 1.3108001e-07 -2.1539927e-07 -6.125538e-08 -2.7773058e-07 9.530413e-08
-2.4307155e-08 -3.5882113e-07 -2.6038833e-07 -1.5214209e-07 -3.1166564e-08 -2.0039442e-07 -1.7564162e-07 -2.4046676e-07
3.2879143e-08 -2.496381e-08 6.464461e-08 3.9443694e-07 2.7315764e-08 -8.4964995e-09 -2.2214954e-07 -7.662493e-08
3.2983962e-08 -3.1777745e-09 1.8664286e-07 3.3412107e-08 6.5831955e-08 -3.909081e-07 1.2424971e-07 7.5713615e-08
-3.7951395e-08 -7.965573e-07 -3.0924275e-07 -1.0190124e-06 3.9003498e-07 -4.790054e-07 5.954789e-07 1.6390113e-06
-6.463233e-08 -2.2213862e-07 -9.946816e-07 -4.3377804e-07 5.1675306e-07 1.2268356e-07 6.5639324e-07 5.0909875e-08
00000000: 00c9 8e34 0084 1635 00d1 79b4 00bb d4b4
00000010: 00c6 4734 0074 f0b3 006a 1fb5 0014 0a34
00000020: 0008 2933 0038 fc33 002b ad33 0008 eeb3
00000030: 00cc 26b4 0080 42b2 00ac 67b5 00f4 3eb3
00000040: 0089 12b5 00c0 b934 00e8 a233 00ec c434
00000050: 0094 5c35 00f6 60b4 8097 0435 0048 b3b3
00000060: 00a7 f033 0034 6ab4 0000 4432 0083 42b4
00000070: 00b8 b832 0010 b0b2 0008 b034 00e4 7db4
00000080: 0001 e2b4 003c 1533 0096 38b5 e009 0d35
00000090: 00ab 4eb4 80a4 14b4 004a d634 0030 a7b2
000000a0: 002f 3235 0054 0bb4 00d0 23b4 001f 9934
000000b0: 006d 11b3 0027 0e33 0080 be2f 00e0 f533
000000c0: 0040 4834 00d2 0f34 0098 0db3 000c 19b4
000000d0: 00d0 4eb2 0080 a633 0066 9534 0064 57b4
000000e0: 00ae 27b4 00ac 0734 00b0 aa32 c034 1334
000000f0: 00d6 e033 00b6 9133 0030 1bb3 0054 d434
00000100: 009e a6b3 0020 0833 00e0 ddb2 003d 08b5
00000110: 80fc ceb3 0052 a8b3 00cc bf34 00b8 0233
00000120: 0010 bab2 0070 dc31 0026 2e33 80ba bab3
00000130: 0072 1ab4 006d 2a35 0074 5a33 00dc f7b3
00000140: 80fe f534 0048 7eb3 0080 f831 805f b534
00000150: 00c8 9233 001a 58b4 c0c0 8f34 00ce 52b4
00000160: 0047 afb4 00c8 8db4 00df 8834 0098 67b3
00000170: 809c 8834 0065 0c34 00b5 8634 0036 a9b4
00000180: 0088 2b33 000e ee34 001a c234 80a4 3934
00000190: 0004 78b4 0076 1b35 002e 3d35 0050 15b4
000001a0: 00a0 4cb3 00e0 8034 00dd f0b4 0070 06b4
000001b0: e0ae 8534 003f e534 0054 b6b3 00f3 aa34
000001c0: 009f bab4 008e 94b3 008d 72b5 00f6 1b34
000001d0: 0000 f0af 00c0 7db4 0073 62b5 0048 73b4
000001e0: 0070 c033 0021 0935 80ce 9a34 00f9 3c35
000001f0: 00b1 87b4 0058 a734 00c4 d3b4 00f5 9ab5
00000200: 0080 f330 006c 1b34 007c 3935 0023 9c34
00000210: 00fe b5b4 0016 81b3 0028 edb4 0045 adb3
00000220: 005a c6b4 0011 9635 80c2 c4b4 00d6 02b5
00000230: 001e 4835 000e 6135 0094 b135 009b 5c35
00000240: 0064 1934 002a 62b4 0080 e532 8051 95b5
00000250: 00bc f4b4 0074 e4b3 00c1 3435 8021 b034
00000260: 004c 4834 0030 8234 009f 69b5 0040 11b5
00000270: 004c 0234 0004 a435 00a5 b3b4 0058 a433
00000280: 0000 e532 00ed 2235 001c 9a34 00ea 6735
00000290: 0046 d0b4 00ef 0035 00ba 17b5 00c6 c1b5
000002a0: 00c4 b633 0019 9434 00c8 6735 00e4 cc34
000002b0: 00f9 09b5 0092 09b4 00d4 13b5 c016 21b3
000002c0: 0014 12b5 00b6 b935 0015 19b5 00d4 34b5
000002d0: 005c bbb3 00b4 5c34 0033 8734 00fc 82b3
000002e0: 009e 80b2 00fa 9c33 0093 10b4 0000 14b3
000002f0: 00bb d233 806c 3234 0064 32b3 0004 e933
00000300: 00fa dbb3 00ce ffb2 80e8 afb4 8090 8033
00000310: 0000 1caf 000c ceb3 0013 b1b4 0060 4bb3
00000320: 0006 03b4 00e0 3234 0080 3534 0057 56b4
00000330: 80ac 82b3 204c 4034 40d2 78b4 0037 2a34
00000340: e0db 3134 00e7 6734 80a1 1eb4 00bf 0c34
00000350: 8048 67b4 808b 83b3 001b 95b4 00aa cc33
00000360: 00cc d0b2 00a4 c0b4 80cb 8bb4 805c 23b4
00000370: 00dc 05b3 002c 57b4 0098 3cb4 8019 81b4
00000380: 0037 0d33 0070 d6b2 c0d2 8a33 00c3 d334
00000390: 00a4 ea32 00f8 11b2 0088 6eb4 008d a4b3
000003a0: 40aa 0d33 0060 5ab1 0068 4834 0081 0f33
000003b0: 805f 8d33 00de d1b4 8069 0534 0098 a233
000003c0: 0000 23b3 00d3 55b5 0006 a6b4 00c5 88b5
000003d0: 0066 d134 0095 00b5 00d9 1f35 00fc db35
000003e0: 00cc 8ab3 0085 6eb4 0081 85b5 00e2 e8b4
000003f0: 00b7 0a35 00bb 0334 0033 3035 00a8 5a33

old_dirs f4 [522]
3.2600656e-07 8.8562956e-07 -2.0291554e-07 -3.8287544e-07 2.71124e-07 -7.229755e-08 -7.6800643e-07 4.3273758e-08
5.1288225e-08 -9.422729e-08 1.2418968e-07 -1.2442615e-07 -1.1860175e-07 2.1986489e-07 -9.744545e-07 -1.7644925e-07
-6.3329935e-07 6.472692e-08 -7.051567e-07 1.9956497e-07 1.0645308e-06 5.318725e-09 7.303024e-07 -1.1897646e-07
9.374162e-08 -4.0588202e-07 6.9521775e-08 -3.857349e-08 2.9974035e-07 -2.8856448e-08 3.472669e-07 -1.3475801e-07
-4.5078195e-07 -3.7392965e-08 -1.0607473e-06 2.0185871e-07 5.617403e-08 4.6460627e-08 4.8310903e-07 -6.520713e-08
4.3060572e-07 -1.1410884e-07 -5.1004463e-08 1.2126111e-07 -1.4795387e-07 1.022745e-07 -6.01658e-08 -8.8890374e-08
-5.3769327e-08 -6.482878e-08 3.3692777e-07 1.1570228e-07 1.2897544e-07 2.2468885e-07 4.4427907e-07 -2.5393092e-08
-3.3458855e-07 -1.6078411e-07 -2.5149347e-08 2.6193266e-07 1.3731915e-07 3.7263817e-08 -5.657421e-08 4.2910688e-07
5.4129487e-08 -9.393261e-08 1.5919795e-08 -4.5435445e-07 -2.1212509e-07 -2.8686554e-07 3.437308e-07 -2.1016604e-08
6.157643e-08 8.6871296e-08 6.9845555e-08 -1.3569206e-07 2.0088919e-08 7.36356e-07 3.2794924e-07 -7.743802e-08
1.8976607e-07 -1.5613477e-07 -1.0147414e-07 2.9476723e-07 1.3915633e-07 -2.166853e-07 1.3134195e-07 -1.3783574e-07
-3.1124e-07 -3.553796e-07 2.0596417e-07 -1.0035728e-07 1.6752892e-07 1.4202305e-07 2.146553e-07 -1.8883202e-07
1.0813892e-07 4.4902117e-07 3.631576e-07 6.2916115e-08 1.4521356e-07 5.0500967e-07 4.509493e-07 -9.3714334e-08
-6.784103e-08 2.0401785e-08 1.672015e-07 -9.784708e-08 2.1171309e-07 3.406094e-07 -7.917697e-08 1.5599653e-07
1.3666431e-07 -8.452662e-08 -4.2672036e-07 9.931682e-09 -3.2014214e-10 -1.6968988e-07 -3.78408e-07 3.0183583e-07
3.2335447e-07 4.9031223e-07 9.9527824e-08 8.725474e-07 -5.176844e-08 6.708433e-09 -6.277696e-08 -1.1592929e-06
-2.3141365e-07 -2.9411967e-07 7.535564e-07 1.4458055e-07 1.27911335e-08 7.117342e-08 -1.7687853e-07 -2.3589564e-07
-1.15796865e-07 1.4349062e-06 3.8195685e-07 -2.22979e-07 1.0477961e-06 5.0946255e-07 5.24451e-07 9.80639e-07
4.4983608e-07 -9.0659887e-07 1.0868243e-06 -9.732321e-07 -7.199269e-07 -8.5472857e-07 6.5471977e-07 -1.734661e-07
1.1532829e-06 3.7057907e-07 8.527422e-08 -6.6238863e-07 5.0211383e-07 1.6511185e-06 1.1265656e-06 9.842479e-07
3.1544732e-07 5.6883437e-07 9.782161e-08 1.0409276e-06 -1.2107193e-07 1.01703336e-07 -1.7827551e-07 -1.406006e-06
-2.1092274e-07 -2.5981717e-07 9.0990216e-07 2.0657899e-07 -9.454379e-08 4.5460183e-08 -2.5541522e-07 -2.350555e-07
-2.0451262e-07 1.7355196e-06 3.2463868e-07 -3.5672565e-07 -1.7735147e-08 1.1933298e-07 4.915637e-08 -6.2413164e-08
-2.4539077e-08 -3.0824594e-08 1.4333273e-07 -3.929017e-09 1.14827344e-07 1.2028067e-07 -5.7763827e-08 2.1318556e-09
1.1382144e-07 -5.4425072e-08 -7.366907e-08 6.053051e-08 -7.605195e-09 -7.485505e-08 -1.2479722e-07 1.9463187e-07
-2.9376679e-08 2.0571315e-07 2.1693268e-07 -1.9771323e-07 -1.2016153e-07 2.0841935e-07 -1.7713501e-07 1.2617238e-07
1.8844366e-07 3.0870797e-07 -1.2954843e-07 1.5623846e-07 -1.9196978e-07 -8.60216e-08 -2.665256e-07 6.037044e-08
-9.358337e-08 -3.9985025e-07 -3.4951154e-07 -1.0487929e-07 -1.2054807e-07 -1.3376848e-07 4.8985385e-09 -2.7922943e-07
-2.534125e-08 1.1125849e-07 -1.656199e-07 3.6220445e-07 7.71588e-08 1.5625119e-07 -2.1886444e-07 2.5591362e-08
-1.7163052e-07 -2.6672296e-08 -3.1934178e-08 6.667415e-08 -1.6440026e-08 -5.0138624e-07 -2.4517794e-07 -1.1387283e-07
-4.192334e-07 -7.5007847e-07 -5.7674697e-08 -1.2391247e-06 8.918141e-08 -1.2514647e-09 4.893809e-08 1.6155245e-06
2.8684008e-07 4.003232e-07 -1.0633667e-06 -2.0550215e-07 -4.847243e-08 -7.444032e-08 2.4875044e-07 2.9753573e-07
00000000: 0006 af34 00bc 6d35 00e1 59b4 008e cdb4
00000010: 008f 9134 0042 9bb3 0029 4eb5 00dc 3933
00000020: 0048 5c33 005a cab3 0059 0534 009a 05b4
00000030: 00b2 feb3 0014 6c34 00ca 82b5 0076 3db4
00000040: 0000 2ab5 0000 8b33 004a 3db5 0048 5634
00000050: 00e1 8e35 00c0 b631 000a 4435 0080 ffb3
00000060: 004f c933 00e8 d9b4 004c 9533 00ac 25b3
00000070: 00ec a034 00e0 f7b2 0070 ba34 00b2 10b4
00000080: 0003 f2b4 009a 20b3 005f 8eb5 80be 5834
00000090: 0044 7133 008c 4733 00af 0135 0008 8cb3
000000a0: 002e e734 000c f5b3 0010 5bb3 0034 0234
000000b0: 40dd 1eb4 00a2 db33 8034 81b3 00e4 beb3
000000c0: 00f0 66b3 0038 8bb3 00e3 b434 0078 f833
000000d0: 807c 0a34 0042 7134 4085 ee34 0020 dab2
000000e0: 80a1 b3b4 00a4 2cb4 0008 d8b2 c09f 8c34
000000f0: 0072 1334 000c 2033 00fc 72b3 0060 e634
00000100: 007c 6833 00b8 c9b3 00c0 8832 00ee f3b4
00000110: 80c4 63b4 8002 9ab4 008a b834 0088 b4b2
00000120: 003c 8433 008e ba33 00fe 9533 c0b2 11b4
00000130: 0090 ac32 00aa 4535 0011 b034 004c a6b3
00000140: 80c2 4b34 00a6 27b4 00ea d9b3 8040 9e34
00000150: 006b 1534 00aa 68b4 0007 0d34 0000 14b4
00000160: 8018 a7b4 00cb beb4 0027 5d34 0084 d7b3
00000170: 00e2 3334 007f 1834 007c 6634 c0c1 4ab4
00000180: 003a e833 0011 f134 00f8 c234 801c 8733
00000190: 00ec 1b34 0090 0735 001a f234 0040 c9b3
000001a0: 00b0 91b3 0040 af32 0088 3334 0020 d2b3
000001b0: 4053 6334 00dd b634 0008 aab3 0080 2734
000001c0: 00be 1234 0085 b5b3 0018 e5b4 00a0 2a32
000001d0: 0000 b0af 0034 36b4 0028 cbb4 000c a234
000001e0: 8099 ad34 009e 0335 00bc d533 0039 6a35
000001f0: 0058 5eb3 0080 e631 00d0 86b3 0099 9bb5
00000200: 807a 78b4 80e7 9db4 0048 4a35 003e 1b34
00000210: 00c0 5b32 00d8 9833 00ec 3db4 804a 7db4
00000220: 00ac f8b3 0097 c035 c00f cd34 006c 6fb4
00000230: 00a2 8c35 00c2 0835 00c8 0c35 809e 8335
00000240: 0081 f134 005d 73b5 00df 9135 00a0 82b5
00000250: 0041 41b5 8070 65b5 00c0 2f35 0042 3ab4
00000260: 80ca 9a35 00f4 c634 0020 b733 00cf 31b5
00000270: 00c9 0635 009c dd35 8034 9735 801a 8435
00000280: c05a a934 00b2 1835 0012 d233 00b6 8b35
00000290: 0000 02b4 0068 da33 006c 3fb4 00b6 bcb5
000002a0: 007a 62b4 007d 8bb4 0040 7435 00d0 5d34
000002b0: 0008 cbb3 0040 4333 0020 89b4 9063 7cb4
000002c0: 0098 5bb4 00f0 e835 004a ae34 0084 bfb4
000002d0: 0058 98b2 0022 0034 0020 5333 0008 86b3
000002e0: 00ca d2b2 0064 04b3 00e7 1934 0000 87b1
000002f0: 0097 f633 8026 0134 0018 78b3 0080 1231
00000300: 006e f433 00c1 69b3 0034 9eb3 00fd 8133
00000310: 00a8 02b2 00c0 a0b3 0000 06b4 00fc 5034
00000320: 0058 fcb2 00e2 5c34 00ee 6834 004b 54b4
00000330: c005 01b4 e0c9 5f34 8032 3eb4 007a 0734
00000340: 0057 4a34 80bc a534 001a 0bb4 80c2 2734
00000350: 4020 4eb4 e0ba b8b3 0017 8fb4 00a5 8133
00000360: 00f8 c8b3 00ab d6b4 80a4 bbb4 003a e1b3
00000370: 0070 01b4 00a2 0fb4 0050 a831 00e9 95b4
00000380: 00ae d9b2 00ed ee33 40d5 31b4 0075 c234
00000390: 80b2 a533 00c6 2734 0001 6bb4 00d4 db32
000003a0: 7049 38b4 001d e5b2 0028 09b3 802e 8f33
000003b0: 0038 8db2 0097 06b5 00a1 83b4 408a f4b3
000003c0: 0013 e1b4 0059 49b5 00b6 77b3 0050 a6b5
000003d0: 0084 bf33 0000 acb0 0030 5233 00d5 d835
000003e0: 00ff 9934 00ec d634 00b9 8eb5 00a8 5cb4
000003f0: 0030 50b3 00dc 9fb3 008c 8534 00bd 9f34

old_dirs f4 [522]
2.6144698e-07 5.9086597e-07 -1.9714207e-07 -3.7267455e-07 1.7976708e-07 -1.3087265e-07 -5.9192826e-07 1.46596e-07
6.674236e-08 1.2904638e-07 6.494156e-08 -1.2949386e-07 -1.4238321e-07 1.3496901e-08 -8.678471e-07 -3.7733116e-08
-4.9881055e-07 3.7869904e-07 6.410119e-08 4.1622843e-07 8.052157e-07 -2.415909e-07 4.3773616e-07 -1.6114791e-07
1.0508484e-07 -2.405286e-07 -1.22818165e-08 -2.0268635e-07 1.542503e-09 -6.013579e-08 2.8848444e-07 -2.7390342e-07
-3.9890438e-07 4.775211e-08 -7.165945e-07 5.239999e-07 -1.7849379e-07 -1.3286626e-07 3.7065183e-07 -5.2372343e-08
6.2421896e-07 -6.4610504e-08 -1.8929131e-07 3.339519e-07 -5.8416845e-09 2.4829205e-09 1.7173988e-08 1.3590034e-07
2.936431e-07 2.589877e-07 -9.6610165e-08 -2.9250805e-07 -1.5361366e-08 4.136018e-08 2.0067637e-07 -2.789675e-07
-1.1819429e-07 1.341541e-07 1.3460522e-10 7.575727e-08 6.2448635e-08 6.8295776e-08 -3.425157e-08 3.7612335e-07
-1.19092874e-07 1.0430813e-07 -9.8625605e-08 -5.076872e-07 -4.2789907e-08 -1.6905688e-08 3.4971163e-07 5.914262e-08
-9.998621e-08 -2.2952008e-08 8.305506e-09 -5.292668e-08 -1.8548599e-07 6.1937317e-07 -6.1372702e-09 -1.852386e-07
4.077774e-07 -7.4869604e-08 -1.5788828e-09 3.1764648e-07 4.73392e-08 -1.6160993e-07 2.2171844e-07 -1.8607534e-07
-2.8965587e-07 -2.3062603e-07 2.4251494e-07 -4.5056368e-08 2.0654625e-07 1.1142947e-07 2.3607572e-07 -2.8091836e-07
1.7127604e-08 4.2648753e-07 3.215464e-07 1.3089993e-07 -1.6401464e-07 5.986949e-07 6.9437374e-07 -1.11584086e-07
-2.9811417e-08 1.960907e-07 -3.820751e-07 -1.4094985e-07 2.1245705e-07 3.9210863e-07 -6.810296e-08 3.0706724e-07
-2.8463546e-07 -5.1469215e-08 -8.729112e-07 1.0515214e-07 2.1027518e-08 -2.0787411e-07 -7.8429e-07 -1.6685226e-07
4.2473403e-08 5.2628457e-07 2.8099748e-07 6.8888767e-07 -3.2322714e-07 4.2578904e-07 -4.9766095e-07 -1.1734664e-06
8.306961e-08 2.3896064e-07 6.926275e-07 3.3914694e-07 -4.5375782e-07 -1.06796506e-07 -4.853064e-07 -3.652349e-08
-4.402682e-07 1.112523e-06 -4.3981527e-07 -5.9060403e-07 7.1150134e-07 8.3906343e-07 1.2777164e-06 8.051866e-07
7.568451e-08 -1.1562952e-07 -3.236346e-08 -1.1214579e-06 -3.7404243e-07 -2.3072062e-08 6.6868233e-07 3.595378e-07
1.067674e-07 1.9458821e-07 -8.7467197e-07 -4.986359e-07 5.7480065e-08 1.2222445e-06 -3.6898564e-07 1.4202669e-08
-3.441164e-08 6.248447e-07 2.8168506e-07 8.4139174e-07 -4.7669164e-07 6.2584877e-07 -6.9891394e-07 -1.4634279e-06
1.8871651e-07 3.9734732e-07 8.625793e-07 4.4351327e-07 -6.618793e-07 -1.8710489e-07 -6.090995e-07 1.8935907e-08
-6.3281914e-07 1.372071e-06 -6.6801294e-07 -8.061179e-07 -6.827395e-08 2.0750304e-07 2.3742177e-07 -5.1863026e-08
-7.565177e-09 5.3139956e-08 -1.04206265e-07 -3.8540747e-08 8.6241016e-08 1.505141e-07 -3.6616257e-08 9.9506906e-08
-7.4272975e-08 -2.4340807e-08 -3.0867886e-07 4.9095433e-08 8.036295e-09 -8.4983185e-08 -3.0379306e-07 -1.9630534e-08
-8.445204e-08 1.741646e-07 1.7436832e-07 -1.835433e-07 -3.5932317e-08 1.3517149e-07 -1.8623905e-07 1.542212e-07
1.294834e-07 1.788394e-07 -1.3950921e-07 1.1735392e-07 -1.6643753e-07 -4.1646445e-08 -2.6151974e-07 6.754453e-08
1.5334081e-09 -3.4586992e-07 -2.230554e-07 -1.0883559e-07 -1.5508704e-08 -2.0415973e-07 -1.6674494e-07 -2.3260145e-07
6.1531864e-08 -6.856226e-08 9.833661e-08 3.9923907e-07 -6.3873813e-09 -4.6699824e-08 -2.2066524e-07 -9.367068e-08
7.349104e-08 1.629769e-08 1.974222e-07 1.6119884e-08 9.38353e-08 -3.86819e-07 1.4884063e-07 1.09864686e-07
1.1983502e-08 -8.18487e-07 -2.9719558e-07 -1.0049262e-06 4.7501817e-07 -6.149203e-07 7.154449e-07 1.6648264e-06
-1.6075319e-07 -3.3370816e-07 -9.995711e-07 -4.9242226e-07 6.5137283e-07 1.7827915e-07 7.067283e-07 1.204171e-09
00000000: 005d 8c34 009c 1e35 00ae 53b4 0014 c8b4
00000010: 0006 4134 0086 0cb4 00e5 1eb5 0068 1d34
00000020: 0054 8f33 0090 0a34 0076 8b33 000b 0bb4
00000030: 00e2 18b4 00e0 6732 00f6 68b5 0010 22b3
00000040: 00e6 05b5 0050 cb34 00a8 8933 0076 df34
00000050: 0026 5835 00b4 81b4 0002 eb34 0008 2db4
00000060: 00ab e133 0022 81b4 0000 53b2 00a2 59b4
00000070: 0000 d430 0024 81b3 00e1 9a34 000d 93b4
00000080: 0029 d6b4 0018 4d33 005c 40b5 00a9 0c35
00000090: 00a8 3fb4 00aa 0eb4 00fe c634 00f0 60b3
000000a0: 0090 2735 00c0 8ab3 0040 4bb4 004a b334
000000b0: 00b8 c8b1 00a0 2a31 0086 9332 00ec 1134
000000c0: 00a6 9d34 000b 8b34 0078 cfb3 000a 9db4
000000d0: 00f4 83b2 00a4 3133 8079 5734 00c5 95b4
000000e0: 00d2 fdb3 000c 1034 0000 142f 00b0 a233
000000f0: 801b 8633 00aa 9233 001c 13b3 00ee c934
00000100: 00c0 ffb3 0000 e033 00cc d3b3 0048 08b5
00000110: 00c8 37b3 0038 91b2 00c0 bb34 0004 7e33
00000120: 00b8 d6b3 0028 c5b2 00b0 0e32 8051 63b3
00000130: 002a 47b4 0043 2635 00e0 d2b1 00e6 46b4
00000140: 80ec da34 00c8 a0b3 0000 d9b0 0089 aa34
00000150: 0052 4b33 0087 2db4 8011 6e34 00cc 47b4
00000160: 0082 9bb4 00a2 77b4 0033 8234 0084 41b3
00000170: 00c7 5d34 004b ef33 007c 7d34 20d1 96b4
00000180: 0020 9332 00f8 e434 00a1 ac34 808d 0c34
00000190: 001c 30b4 00b6 2035 0065 3a35 00a0 efb3
000001a0: 000a 00b3 008d 5234 0020 cdb4 0058 17b4
000001b0: c01f 6434 0083 d234 0040 92b3 00db a434
000001c0: 00d0 98b4 000f 5db3 0052 6ab5 00d0 e133
000001d0: 00a0 b432 0034 5fb4 0088 52b5 0028 33b4
000001e0: 006c 3633 0046 0d35 00dc 9634 00ec 3835
000001f0: 0088 adb4 0098 e434 0097 05b5 0080 9db5
00000200: 0064 b233 804a 8034 00ed 3935 0014 b634
00000210: 009c f3b4 0058 e5b3 0046 02b5 00de 1cb3
00000220: 005e ecb4 0052 9535 c01f ecb4 008a 1eb5
00000230: 00fe 3e35 003c 6135 007e ab35 0024 5835
00000240: 0088 a233 0050 f8b3 0000 0bb3 0085 96b5
00000250: 00d0 c8b4 0030 c6b2 807f 3335 8006 c134
00000260: 0048 e533 00f0 5034 00cb 6ab5 00da 05b5
00000270: 00e0 7633 000c a435 0019 c6b4 0000 7432
00000280: 00cc 13b3 00bb 2735 803a 9734 00dc 6135
00000290: 00ec ffb4 0000 2835 009d 3bb5 006b c4b5
000002a0: 00a2 4a34 0053 d534 008c 6735 001c ee34
000002b0: 00ac 31b5 00e7 48b4 0081 23b5 80a8 a232
000002c0: 00df 29b5 0028 b835 8051 33b5 0064 58b5
000002d0: 009e 92b3 00ce 5e34 00ee 7e34 00c0 5eb3
000002e0: 00f8 01b2 003c 6433 00c8 dfb3 0088 25b3
000002f0: 8033 b933 009d 2134 0044 1db3 80b0 d533
00000300: 0080 9fb3 0016 d1b2 80b8 a5b4 00dd 5233
00000310: 0010 0a32 0080 b6b3 0019 a3b4 00a0 a8b2
00000320: 005c b5b3 0002 3b34 003a 3b34 0014 45b4
00000330: 0054 1ab3 a823 1134 00f9 47b4 0098 2534
00000340: 2008 0b34 0007 4034 00cc 15b4 0004 fc33
00000350: 00b6 32b4 c0de 32b3 0067 8cb4 000d 9133
00000360: 00c0 d230 00b0 b9b4 0081 6fb4 00b9 e9b3
00000370: 0038 85b2 0037 5bb4 800a 33b4 00c1 79b4
00000380: 8023 8433 803c 93b3 202d d333 0057 d634
00000390: 0078 dbb1 0093 48b3 00f0 6cb4 0028 c9b3
000003a0: 20d2 9d33 00ff 8b32 00fb 5334 0078 8a32
000003b0: 8082 c933 00ac cfb4 00d1 1f34 c0ee eb33
000003c0: 00e0 4d32 00b6 5bb5 408e 9fb4 00e1 86b5
000003d0: 0006 ff34 0011 25b5 000d 4035 0073 df35
000003e0: 809b 2cb4 8028 b3b4 0029 86b5 002f 04b5
000003f0: 00da 2e35 006d 3f34 00b6 3d35 0080 a530
