tutorials/tutorial 5/lightning_logs/version_111/checkpoints/epoch=1-step=2.ckpt (torch, 211701 bytes, 86 tensors)

_pina_model._model.layers.0.weight f4 [20, 2]
-0.319648 0.28730887 -0.34008184 0.13828348 -0.024165059 0.463235 0.4080318 -0.5629867
0.08729826 0.2148129 -0.43737102 0.5558102 0.6911581 -0.193333 0.29613125 0.3814726
-0.57192063 -0.17738347 -0.27146718 -0.21583416 -0.5127654 -0.3949477 0.14874594 0.06741387
0.6919403 0.3221457 -0.5433345 0.57900774 0.51540846 -0.19589189 0.63262284 -0.014634563
-0.10381737 -0.18386817 -0.5136135 -0.30806458 0.48812482 0.68464416 0.541982 -0.5857
00000000: e7a8 a3be 261a 933e 351f aebe 2f9a 0d3e
00000010: cdf5 c5bc 232d ed3e 8be9 d03e e51f 10bf
00000020: 6ec9 b23d eaf7 5b3e 18ef dfbe 9449 0e3f
00000030: bdef 303f 16f9 45be 849e 973e 6050 c33e
00000040: 6469 12bf 03a4 35be bffd 8abe a103 5dbe
00000050: 9844 03bf 9636 cabe db50 183e 4810 8a3d
00000060: 0023 313f 48f0 a43e f817 0bbf da39 143f
00000070: cff1 033f e297 48be 92f3 213f cec5 6fbc
00000080: 349e d4bd f047 3cbe 2d7c 03bf a4ba 9dbe
00000090: 7feb f93e d744 2f3f 55bf 0a3f 6ff0 15bf

_pina_model._model.layers.0.bias f4 [20]
-0.008817522 0.17896168 0.121116795 0.41781214 -0.51865745 -0.51652277 -0.42380896 0.37816942
-0.3838087 -0.5590889 0.23171334 -0.43807837 0.69235826 0.17841226 0.038225513 -0.39036512
-0.58878773 0.1632477 0.09545827 0.34395757
00000000: 5e77 10bc bb41 373e 150c f83d 79eb d53e
00000010: bcc6 04bf d63a 04bf 7dfd d8be 6c9f c13e
00000020: 9382 c4be 7320 0fbf 4346 6d3e cf4b e0be
00000030: 643e 313f b4b1 363e 5b92 1c3d f0dd c7be
00000040: cbba 16bf 682a 273e a07f c33d 351b b03e

_pina_model._model.layers.2.weight f4 [20, 20]
0.14747034 -0.17000785 -0.04704212 -0.21075836 -0.21594852 0.06689108 0.030443827 -0.21305552
-0.13400657 -0.08067808 0.050365053 0.05179648 -0.12560546 -0.002833893 0.1420948 0.08051715
0.21637373 -0.2072491 0.12956019 0.21473561 0.15606785 0.014646375 0.06077211 -0.18774725
0.13963556 0.0888425 0.15617865 0.004617006 0.06223708 0.0042089955 0.17467484 0.20896548
0.18455054 -0.13193262 0.030925216 -0.034949213 0.13626963 0.10711244 -0.13930511 0.20933531
-0.074196786 0.16239512 -0.13028277 0.2091306 0.013482164 -0.14976043 -0.20343332 -0.21425176
0.00798217 -0.18596898 -0.22095509 0.08887931 0.06461369 -0.20972705 0.009514306 -0.14696151
-0.025224252 0.07753969 0.15045595 0.056739915 -0.114368305 0.050329927 0.08111079 0.14390111
0.032574445 0.15551764 0.14304668 0.040833667 -0.1262748 0.10018981 0.15142705 0.06944676
-0.038752638 0.16606563 0.026707713 -0.08243571 -0.07657129 0.14172421 -0.11723063 -0.22179368
0.11371509 -0.11842659 -0.21501231 0.15231971 -0.06884951 -0.16217984 -0.095703214 -0.10107919
-0.18950227 0.11557923 0.04158125 -0.12407226 -0.1362671 -0.14835109 -0.057695188 -0.08723425
-0.056884553 -0.09042822 0.043562792 -0.16232032 -0.1744682 -0.08456583 -0.08572485 0.010816194
0.20177606 -0.071294345 -0.070498765 -0.10656931 0.062408302 -0.041992813 -0.02702367 -0.1650409
0.08495762 0.1364669 0.026097447 -0.19700211 0.06161931 -0.19554925 0.20292348 -0.20494838
0.05807684 -0.10057593 -0.10472342 0.144197 0.115035325 0.03396507 0.14672108 -0.17890085
-0.05775559 0.04617079 -0.04578828 0.22131382 0.13207275 0.05454208 -0.037006967 -0.007872427
0.1546216 -0.079162866 0.08124577 0.0581864 -0.122818515 0.16107224 0.15876296 -0.10180056
-0.22169895 -0.08487469 -0.1837266 0.11056859 -0.09842022 0.20312636 0.071645394 0.026553404
-0.035381738 0.21491009 -0.12655221 -0.02227052 0.026295291 0.2106933 -0.10790571 0.1819263
0.15481855 -0.04560904 -0.2158425 0.14813659 0.039796133 -0.12781781 0.049927674 0.003127552
-0.015547703 0.10992979 -0.003294837 0.17874524 -0.14617178 -0.0007894369 0.17008793 0.07065916
0.141337 -0.20033221 0.11315457 -0.08298558 0.21100622 0.16617432 -0.091482915 0.18592365
-0.2186215 0.080879696 0.2059469 -0.14613952 0.11624038 -0.21799387 0.20181417 -0.20595823
-0.055350102 0.17238472 0.15201688 -0.1928668 -0.12934461 0.020598348 -0.0013107533 0.04267068
0.05474649 -0.14227982 -0.029238164 -0.12355427 0.048357174 -0.104554884 -0.07942669 0.2023654
-0.009462206 0.123608634 -0.13888007 -0.027269185 0.05567514 0.12356971 -0.1643973 0.06905956
0.13792133 0.14492857 0.10872046 -0.05571003 0.0301304 0.21500756 -0.12514165 0.014782518
-0.10814832 0.13996942 -0.08967903 -0.00902203 0.1413234 -0.06681323 0.060395483 0.05451486
-0.040598698 0.13842277 -0.18499574 0.16848153 0.09957418 -0.1656946 0.19043663 -0.052106433
0.0040660906 0.17291886 0.12329502 -0.043963008 -0.20505638 -0.025450658 0.1898506 -0.10738944
-0.07177339 0.063911 0.15166542 -0.040389 -0.10708649 -0.19429874 -0.018127168 -0.19312131
00000000: 7702 173e 8a16 2ebe 3daf 40bd 0ad1 57be
00000010: 9c21 5dbe 31fe 883d 5565 f93c 3a2b 5abe
00000020: 0539 09be 8d3a a5bd 964b 4e3d 8c28 543d
00000030: b89e 00be d6b8 39bb 4d81 113e 2de6 a43d
00000040: 1391 5d3e 1c39 54be 6dab 043e a7e3 5b3e
00000050: 40d0 1f3e 59f7 6f3c 2dec 783d d140 40be
00000060: a0fc 0e3e 0ef3 b53d 4ced 1f3e 414a 973b
00000070: 4fec 7e3d 9deb 893b f6dd 323e 0cfb 553e
00000080: d1fa 3c3e 5819 07be e156 fd3c e826 0fbd
00000090: 448a 0b3e c45d db3d 00a6 0ebe ff5b 563e
000000a0: 7cf4 97bd e84a 263e d968 05be 5526 563e
000000b0: 4be4 5c3c cc5a 19be d350 50be d064 5bbe
000000c0: a6c7 023c a76e 3ebe 0d42 62be 5b06 b63d
000000d0: 2f54 843d b0c2 56be e4e1 1b3c 147d 16be
000000e0: 17a3 cebc 21cd 9e3d 2011 1a3e 1d68 683d
000000f0: ee39 eabd c126 4e3d 6a1d a63d d05a 133e
00000100: c86c 053d 0440 1f3e d47a 123e 3441 273d
00000110: 2e4e 01be 5130 cd3d b10f 1b3e 1a3a 8e3d
00000120: 16bb 1ebd 1c0d 2a3e 22ca da3c 0ed4 a8bd
00000130: 69d1 9cbd 2720 113e 9d16 f0bd e21d 63be
00000140: 75e3 e83d a489 f2bd 302c 5cbe b3f9 1b3e
00000150: f900 8dbd 7912 26be 0c00 c4bd 9b02 cfbd
00000160: e20c 42be ceb4 ec3d 1a51 2a3d 9919 febd
00000170: 9a89 0bbe 59e9 17be ca51 6cbd dfa7 b2bd
00000180: c7ff 68bd 6e32 b9bd e66e 323d 4c37 26be
00000190: cba7 32be da30 adbd 8390 afbd 6836 313c
000001a0: 629e 4e3e c502 92bd a861 90bd 0341 dabd
000001b0: d99f 7f3d a800 2cbd be60 ddbc 7b00 29be
000001c0: 43fe ad3d fbbd 0b3e 50ca d53c ecba 49be
000001d0: 8864 7c3d 103e 48be 2ccb 4f3e fddd 51be
000001e0: fbe1 6d3d c1fa cdbd 3c79 d6bd 61a8 133e
000001f0: a497 eb3d f51e 0b3d 0d3e 163e c931 37be
00000200: 2091 6cbd 951d 3d3d 7e8c 3bbd 17a0 623e
00000210: 143e 073e 8467 5f3d 9e94 17bd 5afb 00bc
00000220: 2055 1e3e 2420 a2bd 2f64 a63d dd54 6e3d
00000230: 4688 fbbd 1ff0 243e c292 223e d07c d0bd
00000240: 0d05 63be c8d2 adbd d322 3cbe c971 e23d
00000250: 8a90 c9bd 5b00 503e d2ba 923d 8686 d93c
00000260: 71ec 10bd 6411 5c3e e796 01be aa70 b6bc
00000270: 3969 d73c fcbf 573e abfd dcbd e34a 3a3e
00000280: c188 1e3e 8bd0 3abd d105 5dbe 1eb1 173e
00000290: 4501 233d ace2 02be f680 4c3d 9ef7 4c3b
000002a0: cbbb 7ebc df22 e13d 31ee 57bb fe08 373e
000002b0: 0eae 15be 37f2 4eba 882b 2e3e c0b5 903d
000002c0: a6ba 103e e323 4dbe 95bd e73d 58f4 a9bd
000002d0: 0412 583e 9a29 2a3e 655b bbbd c562 3e3e
000002e0: 51de 5fbe 41a4 a53d bfe3 523e 99a5 15be
000002f0: 700f ee3d c939 5fbe 60a8 4e3e b7e6 52be
00000300: cab6 62bd 9f85 303e 50aa 1b3e e07e 45be
00000310: ea72 04be debd a83c 95cd abba 73c7 2e3d
00000320: db3d 603d cdb1 11be e084 efbc 050a fdbd
00000330: 2c12 463d df20 d6bd 76aa a2bd e038 4f3e
00000340: 5e07 1bbc 8626 fd3d 9436 0ebe a063 dfbc
00000350: 9e0b 643d 1e12 fd3d c457 28be 196f 8d3d
00000360: 403b 0d3e 2868 143e d5a8 de3d 3330 64bd
00000370: 07d4 f63c f12a 5c3e 2225 00be 6032 723c
00000380: de7c ddbd 2554 0f3e a4a9 b7bd 23d1 13bc
00000390: 15b7 103e 60d5 88bd 4161 773d f94a 5f3d
000003a0: d24a 26bd b3be 0d3e 866f 3dbe 6c86 2c3e
000003b0: 8ced cb3d d8ab 29be d201 433e 8e6d 55bd
000003c0: d73c 853b a411 313e 1982 fc3d 8e12 34bd
000003d0: 4dfa 51be e67d d0bc 3268 423e ffee dbbd
000003e0: edfd 92bd c5e3 823d 2e4e 1b3e f06e 25bd
000003f0: 2950 dbbd 40f6 46be 6d7f 94bc 98c1 45be

_pina_model._model.layers.2.bias f4 [20]
-0.108016804 -0.16842717 -0.15167251 0.21556419 -0.1325135 0.21452041 0.06943383 -0.05146481
-0.10392591 -0.049414147 0.095303364 0.14332683 0.18058872 0.07573647 0.07989764 -0.15579939
0.20275624 0.1016405 -0.0065332567 -0.18179028
00000000: ea37 ddbd 2c78 2cbe 0a50 1bbe dcbc 5c3e
00000010: 9eb1 07be 3dab 5b3e 5333 8e3d c4cc 52bd
00000020: 1cd7 d4bd 7d66 4abd 692e c33d 45c4 123e
00000030: 40ec 383e b91b 9b3d 60a1 a33d e089 1fbe
00000040: 559f 4f3e e528 d03d ee14 d6bb 3b27 3abe

_pina_model._model.layers.4.weight f4 [2, 20]
0.106295854 -0.1304914 0.20791599 0.024148574 -0.20762047 0.1704903 -0.008903209 -0.19628148
0.18270187 0.13212343 0.030230016 -0.19086073 -0.2192658 -0.21292871 -0.20478374 -0.020503186
0.007536116 0.17730454 -0.15263025 0.1533893 0.10196486 -0.059199657 0.20501736 -0.02821989
-0.22635253 0.14233045 -0.10865451 -0.114629544 -0.07397952 0.21788795 -0.17361277 0.04242028
0.13551034 0.19624949 0.10411033 0.19177449 -0.070360795 0.12561329 0.08704172 -0.17988774
00000000: a4b1 d93d 8a9f 05be eee7 543e 3bd3 c53c
00000010: 769a 54be 0295 2e3e c4de 11bc 03fe 48be
00000020: 3316 3b3e 5d4b 073e f0a4 f73c ff70 43be
00000030: 3787 60be fc09 5abe d4b2 51be 4cf6 a7bc
00000040: 86f1 f63b 528f 353e 1b4b 1cbe 1612 1d3e
00000050: f4d2 d03d 577b 72bd 12f0 513e 662d e7bc
00000060: f5c8 67be 13bf 113e 4186 debd e5c2 eabd
00000070: 9382 97bd 051e 5f3e 8cc7 31be e3c0 2d3d
00000080: 39c3 0a3e a0f5 483e cc37 d53d 8860 443e
00000090: 5219 90bd c5a0 003e ee42 b23d 7e34 38be

_pina_model._model.layers.4.bias f4 [2]
0.20065261 0.14095369
00000000: e177 4d3e 2a56 103e

d f4 [522]
0.017207464 0.011709964 -0.15030484 -0.11017624 0.021774413 0.031076733 -0.076988675 -0.10706084
0.07929331 0.075059 -0.06430092 -0.042060595 0.046947382 0.022653298 0.065175965 0.047882073
-0.05174762 -0.028841553 0.04729613 0.04292671 -0.10869548 -0.08580906 0.13484657 0.12117361
-0.0014580574 -0.002878879 -0.042715058 -0.014696996 -0.06269049 -0.07622088 0.26371306 0.25363192
0.032801975 0.021669395 -0.06328653 -0.063052 0.006709439 -0.0027297686 0.027172387 0.0025113653
0.018572817 0.011268038 -0.022024807 -0.015444144 -0.01334655 0.0048220474 0.0059243073 -0.083224356
0.09170305 0.012282331 0.13948594 0.0088299895 -0.04694062 -0.005139376 -0.048446663 -0.017881902
-0.013039563 0.09634247 -0.16603293 0.0029597953 -0.0038420784 0.008424233 0.008651443 0.004781077
0.0035155006 0.014190849 0.014727497 0.0020307975 -0.0023224999 -0.0077520274 -0.016122742 -0.009668221
-0.0004245325 0.0025699944 0.023291104 -0.014104414 -0.0047729504 -0.018743461 0.0062410915 -0.005479476
0.0013553998 -0.008947655 0.007639258 7.103197e-05 -0.0031194603 -0.014912384 -0.0030456325 0.018169682
-0.019009985 -0.01179785 -0.010409355 0.0052407663 0.021049242 0.00138994 -0.005267861 0.020825665
-0.011226841 -0.0071153487 0.020690255 0.008359418 0.010993161 0.067268185 -0.06091386 0.022712316
-0.045296952 0.021257985 -0.089207314 -0.08850225 0.09475077 0.050692756 0.14940761 -0.058103137
-0.07242027 0.018044528 -0.0330868 -0.16780277 0.03601424 0.12815261 -0.1372485 -0.018684607
0.009466401 0.022686636 -0.030940324 0.0029847324 -0.022008961 -0.0014376172 -0.052124918 -0.037096735
0.041384373 0.026496544 0.075234 -0.017126083 -0.029214485 0.009066629 -0.035627075 -0.059915446
0.017678745 0.069040574 -0.060398594 -0.0059915287 -0.0133037055 -0.049710546 0.053645574 0.012742433
0.0035013799 -0.059391573 0.048426073 0.100283235 -0.10890643 -0.07523933 -0.10860833 0.023533821
0.10653873 -0.010991203 0.029922236 0.12163052 -0.06339434 -0.094694875 0.1281874 0.046426248
0.011707055 0.039369036 -0.042692788 -0.008977133 -0.0072542597 0.040399943 -0.045399804 -0.07570957
0.082735345 0.05637303 0.09006681 -0.020123087 -0.07819794 0.01092562 -0.029041877 -0.09624618
0.046353903 0.07937479 -0.09971066 -0.033688765 -0.016156295 -0.039881002 0.031554062 -0.0019087887
0.028327474 -0.012468486 0.07050154 0.04684874 -0.053300895 -0.029529475 -0.093444206 0.030235328
0.03695998 -0.02284635 0.037737772 0.095989965 -0.01885157 -0.08362106 0.07631743 0.01821055
0.0058432138 -0.008813607 0.010550977 0.0050431793 -0.018864432 -0.036283493 -0.025942294 0.033548262
-0.033523392 -0.025549414 0.0009448688 -0.00031252083 0.04504154 0.009493758 -0.0203453 0.020679722
-0.026828544 0.005032165 0.030225039 0.018535933 -0.015452398 -0.0049146162 -0.007961124 0.017881604
0.0013002481 -0.008017836 0.0266235 -0.0045077787 0.001129622 -6.8543806e-05 -0.0085752765 -0.0031078048
-0.0057584066 -0.020893678 0.022583304 0.004776037 0.002660704 -0.010998994 -0.0024546846 0.015569369
0.019832162 0.09228035 -0.08818891 0.041599493 -0.085193984 -0.002058905 -0.15607908 -0.11011701
0.11944927 0.05992682 0.23281638 -0.086607024 -0.07635723 0.030378295 -0.06869847 -0.23515286
00000000: abf6 8c3c 26db 3f3c 83e9 19be 15a4 e1bd
00000010: 4160 b23c a294 fe3c 3dac 9dbd b742 dbbd
00000020: 8864 a23d 88b8 993d 33b0 83bd bb47 2cbd
00000030: e64b 403d 6993 b93c fa7a 853d fe1f 443d
00000040: 50f5 53bd 1f45 ecbc 96b9 413d ebd3 2f3d
00000050: bc9b debd a9bc afbd 3815 0a3e df29 f83d
00000060: 4a1c bfba 93ab 3cbb fcf5 2ebd abcb 70bc
00000070: df63 80bd b119 9cbd 6605 873e 0bdc 813e
00000080: 5d5b 063d 0484 b13c 5e9c 81bd 6821 81bd
00000090: dbda db3b ebe5 32bb a098 de3c b895 243b
000000a0: 0526 983c 949d 383c 5e6d b4bc 6f09 7dbc
000000b0: 7dab 5abc 4402 9e3b b120 c23b 8871 aabd
000000c0: cfce bb3d d43b 493c 67d5 0e3e a9ab 103c
000000d0: cf44 40bd 3668 a8bb 0270 46bd 117d 92bc
000000e0: e4a3 55bc 334f c53d 8904 2abe 20f9 413b
000000f0: 61cb 7bbb cb05 0a3c c8be 0d3c 95aa 9c3b
00000100: 5064 663b bc80 683c 994b 713c 2117 053b
00000110: 1535 18bb b804 febb d713 84bc 7567 1ebc
00000120: ca93 deb9 5a6d 283b fccc be3c 3316 67bc
00000130: 6966 9cbb e38b 99bc 1282 cc3b 2d8d b3bb
00000140: aca7 b13a 2f99 12bc be52 fa3b 00f7 9438
00000150: dc6f 4cbb 1253 74bc 3c99 47bb 96d8 943c
00000160: d4ba 9bbc c54b 41bc 008c 2abc bcba ab3b
00000170: 766f ac3c a62e b63a 059e acbb 969a aa3c
00000180: c9f0 37bc df27 e9bb 9c7e a93c f1f5 083c
00000190: a91c 343c e7c3 893d d080 79bd 2e0f ba3c
000001a0: 4c89 39bd 3a25 ae3c 53b2 b6bd ab40 b5bd
000001b0: b10c c23d 35a3 4f3d 4ffe 183e 8efd 6dbd
000001c0: 1451 94bd 1ed2 933c 0686 07bd 7dd4 2bbe
000001d0: ab83 133d 703a 033e df8a 0cbe 7610 99bc
000001e0: f718 1b3c 53d9 b93c 9076 fdbc 809b 433b
000001f0: 234c b4bc 6e6e bcba f080 55bd bff2 17bd
00000200: a982 293d 480f d93c 4914 9a3d 004c 8cbc
00000210: 3753 efbc 338c 143c b2ed 11bd e669 75bd
00000220: 04d3 903c 2565 8d3d 8464 77bd 9654 c4bb
00000230: c9f7 59bc 499d 4bbd 76bb 5b3d a3c5 503c
00000240: 6877 653b 9444 73bd 6b5a 463d 4c61 cd3d
00000250: 560a dfbd 1417 9abd 0b6e debd 00ca c03c
00000260: fa30 da3d 7214 34bc 7a1f f53c 6c19 f93d
00000270: e4d4 81bd 63ef c1bd 8f43 033e 7329 3e3d
00000280: f3ce 3f3c 6d41 213d a2de 2ebd d314 13bc
00000290: 24b5 edbb 697a 253d 25f5 39bd 9e0d 9bbd
000002a0: 2671 a93d 68e7 663d f374 b83d 2cd9 a4bc
000002b0: 3e26 a0bd 5f01 333c 3be9 edbc b81c c5bd
000002c0: 97dd 3d3d 408f a23d 1a35 ccbd 3bfd 09bd
000002d0: 355a 84bc 435a 23bd d53e 013d 5230 faba
000002e0: 050f e83c 9f48 4cbc 1d63 903d 77e4 3f3d
000002f0: 0a52 5abd cce7 f1bc ad5f bfbd 14b0 f73c
00000300: 5963 173d 4528 bbbc ec92 1a3d 6396 c43d
00000310: 9c6e 9abc 8541 abbd 504c 9c3d 4b2e 953c
00000320: 6e78 bf3b f266 10bc 01de 2c3c 4141 a53b
00000330: 9589 9abc 009e 14bd ef84 d4bc e769 093d
00000340: d34f 09bd 014d d1bc 12b1 773a d6d9 a3b9
00000350: 7a7d 383d b58b 1b3c 30ab a6bc 8568 a93c
00000360: 89c7 dbbc dce4 a43b 809a f73c abd8 973c
00000370: 0e2c 7dbc ca0a a1bb 606f 02bc 717c 923c
00000380: 166d aa3a 3e5d 03bc 8719 da3c fdb5 93bb
00000390: d30f 943a 2dbf 8fb8 517f 0cbc 50ac 4bbb
000003a0: 04b1 bcbb 3829 abbc 9f00 b93c 4d80 9c3b
000003b0: 355f 2e3b 2035 34bc c6de 20bb ab16 7f3c
000003c0: 0f77 a23c 7bfd bc3d 639c b4bd 3b64 2a3d
000003d0: 2f7a aebd b2ee 06bb 32d3 1fbe 0785 e1bd
000003e0: d2a1 f43d d375 753d 6b67 6e3e 065f b1bd
000003f0: 2e61 9cbd e7db f83c c9b1 8cbd e9cb 70be

old_dirs f4 [522]
-6.7830086e-05 0.0003618598 0.0010180473 -7.2956085e-05 0.0010005236 -1.7832965e-05 -0.0010088682 -1.975894e-05
-0.0010354519 -0.00035881996 -0.0005784035 -0.00056296587 -0.0003143847 0.00026756525 0.0007405281 0.0006773472
-2.6673079e-06 -0.00061535835 0.0013198853 0.0007119179 0.0014692545 -0.00019997358 -4.2825937e-05 0.0003489852
0.00011412799 -0.00019064546 0.00035712123 0.000592947 -0.0028734207 -0.002046585 0.0013639927 0.0011637211
6.817281e-05 0.00025072694 0.0017108917 0.0009224415 0.00015726686 -0.00018453598 0.000102072954 -0.00012975931
-0.00026282668 2.8461218e-06 0.00027549267 0.00022180378 6.427616e-05 0.000105306506 -5.8442354e-05 -0.0014624596
0.00061643124 -0.0013766289 -0.0008623004 -6.6597015e-05 0.00034061074 -0.00012534857 0.00070917606 -2.7351081e-05
-0.00017160177 -0.0012693405 0.0011655092 -0.00011458993 0.00012861192 0.0005146861 -0.00094366074 0.000256747
-0.0006083846 -0.00018444657 -0.001218915 -0.0010504723 0.0011013746 0.0007724762 0.0020258427 -0.00042188168
-0.00081658363 6.0535967e-06 -0.00083863735 -0.001483202 0.0005475879 0.0018491745 -0.0016736984 3.736466e-05
-0.00024181604 -0.0005219579 0.00046229362 -6.343424e-05 0.000523448 5.525723e-05 0.0011507273 0.00053966045
-0.00063312054 -0.00034064054 -0.0014121532 0.00043022633 0.00033849478 -0.0003347993 0.0007070303 0.0012538433
-0.00017094612 -0.0012946129 0.0009951591 0.00013265014 0.00017793477 0.00091540813 -0.0016050339 0.0006364584
-0.0012264252 -0.0005400777 -0.0021800995 -0.0016717911 0.0017499924 0.0011538267 0.0035562515 -0.0008627176
-0.0011782646 4.0233135e-07 -0.0013990402 -0.0026392937 0.0007663965 0.0032291412 -0.002805233 0.00024327636
0.00012248755 5.7652593e-05 0.00017225742 -0.00022402406 8.9243054e-05 0.00020852685 -7.036328e-05 9.7010285e-05
-4.9762428e-05 -5.2473508e-05 -0.00016410276 2.907589e-05 4.1939318e-05 0.00022372603 -7.1525574e-05 3.7550926e-06
-4.867837e-05 -0.00013145618 0.00016728789 -0.00022953749 -0.00010102987 -0.0009576082 0.0015833378 -0.000957489
0.0015075207 0.0009007454 0.0023088455 0.0014536381 -0.0014867783 -0.0008581877 -0.0036559105 0.001085043
0.0007894039 2.1833926e-05 0.0012900829 0.0027799606 -0.00047659874 -0.0032820702 0.0027031898 -0.0005466938
0.00019213557 0.00073468685 -0.000980258 0.00044935942 -0.0009711981 -0.00041797757 -0.001708746 -0.0009723902
0.001040101 0.0005917549 0.0024569035 -0.00073063374 -0.0005598068 0.0001912713 -0.0009959936 -0.0019757748
0.0003219247 0.0022227764 -0.0017969608 0.00015172362 0.00032016635 5.9671e-05 0.00064361095 -0.00068831444
0.00038331747 0.00063943863 3.9726496e-05 0.0004364252 -0.00031101704 -0.00026389956 -0.0008279085 0.00017371774
0.0002283752 0.00061643124 -4.4550747e-05 0.00028586388 -0.00021234155 -0.00070393085 0.0007481575 -0.0006649494
-0.00035327673 -0.0009545088 0.0011031628 -0.00031781197 0.0010806322 0.00027683377 0.0021603107 0.0012037754
-0.001342535 -0.00077700615 -0.0029387474 0.0008403063 0.00077462196 -0.00041365623 0.0013295412 0.0024456978
-0.0004400611 -0.0026783943 0.0021474361 5.9574842e-05 0.0008637905 0.0008827448 -8.364022e-05 -0.0010890961
-6.767362e-05 0.0010993481 -0.001714468 -0.00070369244 0.00103724 0.00066155195 0.0012927055 -0.00022938848
-0.0008075237 0.0012869835 -0.0013606548 -0.0015895367 0.00043207407 0.00129354 -0.00096929073 -0.0013582706
-0.00017377734 0.00044459105 -0.0015432835 0.00088214874 -0.0009393692 -0.00076425076 -0.0012221336 -0.0014662743
0.0014021397 0.0010396242 0.0027709007 -0.0005584955 -0.0010552406 -0.00058072805 -0.0007945299 -0.0017113686
00000000: 0040 8eb8 00b8 bd39 0070 853a 0000 99b8
00000010: 0024 833a 0098 95b7 003c 84ba 00c0 a5b7
00000020: 00b8 87ba 0020 bcb9 00a0 17ba 0094 13ba
00000030: 00d4 a4b9 0048 8c39 0020 423a 0090 313a
00000040: 0000 33b6 0050 21ba 0000 ad3a 00a0 3a3a
00000050: 0094 c03a 00b0 51b9 00a0 33b8 00f8 b639
00000060: 0058 ef38 00e8 47b9 003c bb39 0070 1b3a
00000070: 0050 3cbb 0020 06bb 00c8 b23a 0088 983a
00000080: 00f8 8e38 0074 8339 0040 e03a 00d0 713a
00000090: 00e8 2439 0080 41b9 0010 d638 0010 08b9
000000a0: 00cc 89b9 0000 3f36 0070 9039 0094 6839
000000b0: 00cc 8638 00d8 dc38 0020 75b8 00b0 bfba
000000c0: 0098 213a 0070 b4ba 000c 62ba 00aa 8bb8
000000d0: 0094 b239 0070 03b9 00e8 393a 0070 e5b7
000000e0: 00f0 33b9 0060 a6ba 00c4 983a 0050 f0b8
000000f0: 00dc 0639 00ec 063a 0060 77ba 009c 8639
00000100: 007c 1fba 0068 41b9 00c4 9fba 00b0 89ba
00000110: 005c 903a 0080 4a3a 00c4 043b 0030 ddb9
00000120: 0010 56ba 0020 cb36 00d8 5bba 0068 c2ba
00000130: 008c 0f3a 0060 f23a 0060 dbba 00b8 1c38
00000140: 0090 7db9 00d4 08ba 0060 f239 0008 85b8
00000150: 0038 093a 00c4 6738 00d4 963a 0078 0d3a
00000160: 00f8 25ba 0098 b2b9 0018 b9ba 0090 e139
00000170: 0078 b139 0088 afb9 0058 393a 0058 a43a
00000180: 0040 33b9 00b0 a9ba 0070 823a 0018 0b39
00000190: 0094 3a39 00f8 6f3a 0060 d2ba 00d8 263a
000001a0: 00c0 a0ba 0094 0dba 00e0 0ebb 0020 dbba
000001b0: 0060 e53a 003c 973a 0010 693b 0028 62ba
000001c0: 0070 9aba 0000 d834 0060 b7ba 00f8 2cbb
000001d0: 00e8 483a 00a0 533b 00d8 37bb 0018 7f39
000001e0: 0070 0039 00d0 7138 00a0 3439 00e8 6ab9
000001f0: 0028 bb38 00a8 5a39 0090 93b8 0072 cb38
00000200: 00b8 50b8 0017 5cb8 0013 2cb9 00e8 f337
00000210: 00e8 2f38 0098 6a39 0000 96b8 0000 7c36
00000220: 002c 4cb8 80d7 09b9 006a 2f39 00b0 70b9
00000230: 00e0 d3b8 0008 7bba 0088 cf3a 0000 7bba
00000240: 0098 c53a 0020 6c3a 0050 173b 0088 be3a
00000250: 00e0 c2ba 00f8 60ba 0098 6fbb 0038 8e3a
00000260: 00f0 4e3a 0028 b737 0018 a93a 0030 363b
00000270: 00e0 f9b9 0018 57bb 0028 313b 0050 0fba
00000280: 0078 4939 0098 403a 007c 80ba 0098 eb39
00000290: 0098 7eba 0024 dbb9 00f8 dfba 00e8 7eba
000002a0: 0054 883a 0020 1b3a 0004 213b 0088 3fba
000002b0: 00c0 12ba 0090 4839 008c 82ba 007c 01bb
000002c0: 00c8 a839 00ac 113b 0088 ebba 0018 1f39
000002d0: 00dc a739 4047 7a38 00b8 283a 0070 34ba
000002e0: 00f8 c839 00a0 273a 00a0 2638 00d0 e439
000002f0: 0010 a3b9 005c 8ab9 0008 59ba 0028 3639
00000300: 0078 6f39 0098 213a 00dc 3ab8 00e0 9539
00000310: 00a8 5eb9 0088 38ba 0020 443a 0050 2eba
00000320: 0038 b9b9 0038 7aba 0098 903a 00a0 a6b9
00000330: 00a4 8d3a 0024 9139 0094 0d3b 00c8 9d3a
00000340: 00f8 afba 00b0 4bba 0098 40bb 0048 5c3a
00000350: 0010 4b3a 00e0 d8b9 0044 ae3a 0048 203b
00000360: 00b8 e6b9 0088 2fbb 00bc 0c3b 00e0 7938
00000370: 0070 623a 0068 673a 0068 afb8 00c0 8eba
00000380: 00ec 8db8 0018 903a 00b8 e0ba 0078 38ba
00000390: 00f4 873a 006c 2d3a 0070 a93a 0088 70b9
000003a0: 00b0 53ba 00b0 a83a 0058 b2ba 0058 d0ba
000003b0: 0088 e239 008c a93a 0018 7eba 0008 b2ba
000003c0: 0038 36b9 0018 e939 0048 caba 0040 673a
000003d0: 0040 76ba 0058 48ba 0030 a0ba 0030 c0ba
000003e0: 00c8 b73a 0044 883a 0098 353b 0068 12ba
000003f0: 0050 8aba 003c 18ba 0048 50ba 0050 e0ba

old_dirs f4 [522]
-0.00010531396 0.00057935715 0.0016134977 -0.00012102723 0.0015856028 -3.5457313e-05 -0.0016007423 -2.4080276e-05
-0.0016323328 -0.00056007504 -0.0009032488 -0.00087833405 -0.0004903376 0.00043272972 0.0011729002 0.001074791
6.7055225e-07 -0.0009784698 0.002094984 0.0011264086 0.0023440123 -0.00031232834 -6.264448e-05 0.0005556345
0.00018142164 -0.0003039539 0.00056017935 0.00093853474 -0.004545212 -0.0032279491 0.002159834 0.0018296242
0.00011104345 0.00040140748 0.0027177334 0.0014675856 0.0002491176 -0.00029739738 0.00016111135 -0.0002091527
-0.00042155385 2.1532178e-06 0.0004428327 0.00035253167 0.00010757148 0.0001654625 -9.615719e-05 -0.0023036003
0.00096416473 -0.0021845102 -0.0013777018 -0.000102777034 0.0005508363 -0.0001988709 0.0011221766 -3.0368567e-05
-0.000271976 -0.0020124912 0.0018771887 -0.00018291175 0.00020323694 0.00080776215 -0.0014950037 0.00040474534
-0.00095808506 -0.00029325485 -0.0019267797 -0.0016634464 0.0017435551 0.0012232065 0.0032052994 -0.0006611943
-0.0012927055 4.865229e-06 -0.0013270378 -0.0023372173 0.0008676052 0.0029251575 -0.0026512146 6.124377e-05
-0.0003864467 -0.0008264184 0.0007353425 -9.8560005e-05 0.0008299351 8.737296e-05 0.0018308163 0.0008586645
-0.0010077953 -0.0005414486 -0.0022466183 0.00068092346 0.00053834915 -0.0005338192 0.0011268854 0.0019910336
-0.00027167797 -0.002059698 0.0015842915 0.00021222234 0.00028133392 0.001435399 -0.0025453568 0.0010045767
-0.0019310713 -0.0008570552 -0.0034439564 -0.0026490688 0.0027730465 0.0018303394 0.0056290627 -0.0013519526
-0.0018701553 -8.299947e-06 -0.0022144318 -0.0041589737 0.0012173653 0.00510931 -0.0044460297 0.00038790703
0.00019490719 9.0405345e-05 0.0002770424 -0.00035780668 0.00014398247 0.00033274293 -0.00010880828 0.00015711412
-8.182973e-05 -8.524768e-05 -0.00026721135 4.770467e-05 6.858632e-05 0.00035616755 -0.00011181831 1.0088086e-05
-7.863343e-05 -0.0002143886 0.00027116388 -0.0003657341 -0.00015944242 -0.0015047789 0.0025100708 -0.0015199184
0.0023841858 0.001434803 0.003653288 0.002300024 -0.0023510456 -0.0013561249 -0.0057902336 0.001709938
0.0012453794 3.9346516e-05 0.0020401478 0.004386425 -0.0007519722 -0.0051965714 0.004281044 -0.000872314
0.00030493736 0.0011571646 -0.0015523434 0.00071173906 -0.0015351772 -0.00066527724 -0.0027046204 -0.001539588
0.0016460419 0.00093507767 0.0038924217 -0.0011520386 -0.0008842945 0.00030007958 -0.0015786886 -0.003121376
0.00050771236 0.0035197735 -0.0028467178 0.00024246424 0.00051033497 0.000100732315 0.0010213852 -0.0010925531
0.0006040931 0.0010176301 5.567074e-05 0.0006905794 -0.000490427 -0.00041726232 -0.0013077259 0.00027099252
0.00036105514 0.0009839535 -7.521361e-05 0.0004426837 -0.00033640862 -0.001111269 0.0011838675 -0.0010575652
-0.0005630255 -0.0015063286 0.0017493963 -0.00049591064 0.0017056465 0.0004351139 0.003426075 0.0019085407
-0.00213027 -0.0012331009 -0.004655838 0.0013238192 0.0012295246 -0.0006557703 0.002110839 0.0038676262
-0.00069874525 -0.004245758 0.0034062862 9.843707e-05 0.0013734102 0.001395464 -0.00012500584 -0.0017347336
-0.00010008365 0.0017482042 -0.0027151108 -0.0011094809 0.0016410351 0.0010457039 0.0020387173 -0.00035694242
-0.0012780428 0.002044201 -0.002157092 -0.0025126934 0.0006827116 0.0020405054 -0.0015280247 -0.002159357
-0.0002773702 0.0006853342 -0.002444744 0.0013914108 -0.0014704466 -0.0012093782 -0.0019140244 -0.0023245811
0.0022203922 0.0016520023 0.0043735504 -0.00086545944 -0.0016781092 -0.00093340874 -0.0012522936 -0.0026798248
00000000: 00dc dcb8 00e0 173a 007c d33a 00d0 fdb8
00000010: 00d4 cf3a 00b8 14b8 00d0 d1ba 0000 cab7
00000020: 00f4 d5ba 00d2 12ba 00c8 6cba 0040 66ba
00000030: 008a 00ba 00e0 e239 00bc 993a 00e0 8c3a
00000040: 0000 3435 0040 80ba 004c 093b 00a4 933a
00000050: 009e 193b 00c0 a3b9 0060 83b8 00a8 113a
00000060: 003c 3e39 005c 9fb9 00d9 123a 0008 763a
00000070: 00f0 94bb 008c 53bb 008c 0d3b 00d0 ef3a
00000080: 00e0 e838 0074 d239 001c 323b 005c c03a
00000090: 009c 8239 00ec 9bb9 00f0 2839 0050 5bb9
000000a0: 0004 ddb9 0080 1036 002c e839 00d4 b839
000000b0: 0098 e138 0080 2d39 00a8 c9b8 00f8 16bb
000000c0: 00c0 7c3a 002a 0fbb 0094 b4ba 008a d7b8
000000d0: 0066 103a 0088 50b9 0016 933a 00c0 feb7
000000e0: 0098 8eb9 00e4 03bb 000c f63a 00cc 3fb9
000000f0: 001c 5539 00c0 533a 00f4 c3ba 0034 d439
00000100: 0028 7bba 00c0 99b9 008c fcba 0008 daba
00000110: 0088 e43a 0054 a03a 0010 523b 0054 2dba
00000120: 0070 a9ba 0040 a336 00f0 adba 002c 19bb
00000130: 0070 633a 00b4 3f3b 00c0 2dbb 0070 8038
00000140: 009c cab9 00a4 58ba 00c4 403a 00b2 ceb8
00000150: 0090 593a 003c b738 00f8 ef3a 0018 613a
00000160: 0018 84ba 00f0 0dba 003c 13bb 0080 323a
00000170: 0020 0d3a 00f0 0bba 00b4 933a 007c 023b
00000180: 0070 8eb9 00fc 06bb 00a8 cf3a 0088 5e39
00000190: 0080 9339 0024 bc3a 00d0 26bb 00ac 833a
000001a0: 001c fdba 00ac 60ba 00b4 61bb 009c 2dbb
000001b0: 00bc 353b 00e8 ef3a 0074 b83b 0034 b1ba
000001c0: 0020 f5ba 0040 0bb7 0020 11bb 0048 88bb
000001d0: 0090 9f3a 006c a73b 00b0 91bb 0060 cb39
000001e0: 0060 4c39 0098 bd38 0040 9139 0098 bbb9
000001f0: 00fa 1639 0074 ae39 0030 e4b8 00bf 2439
00000200: 009c abb8 00c7 b2b8 8018 8cb9 8016 4838
00000210: 00d6 8f38 00bc ba39 0080 eab8 0040 2937
00000220: 00e8 a4b8 80cd 60b9 002b 8e39 00c0 bfb9
00000230: 0030 27b9 003c c5ba 0080 243b 0038 c7ba
00000240: 0040 1c3b 0010 bc3a 006c 6f3b 00bc 163b
00000250: 0014 1abb 00c0 b1ba 00bc bdbb 0020 e03a
00000260: 003c a33a 0008 2538 00b4 053b 00bc 8f3b
00000270: 0020 45ba 0048 aabb 0048 8c3b 00ac 64ba
00000280: 00e0 9f39 00ac 973a 0078 cbba 0094 3a3a
00000290: 0038 c9ba 0066 2eba 0040 31bb 00cc c9ba
000002a0: 00c0 d73a 0020 753a 0018 7f3b 0000 97ba
000002b0: 00d0 67ba 0054 9d39 00ec ceba 0090 4cbb
000002c0: 0018 053a 00ac 663b 0090 3abb 003e 7e39
000002d0: 00c8 053a 4040 d338 00e0 853a 0034 8fba
000002e0: 005c 1e3a 0062 853a 0080 6938 0008 353a
000002f0: 0090 00ba 00c4 dab9 0068 abba 0014 8e39
00000300: 004c bd39 00f8 803a 00bc 9db8 0018 e839
00000310: 0060 b0b9 00a8 91ba 002c 9b3a 009e 8aba
00000320: 0098 13ba 0070 c5ba 004c e53a 0000 02ba
00000330: 0090 df3a 0020 e439 0088 603b 0028 fa3a
00000340: 009c 0bbb 00a0 a1ba 0090 98bb 0084 ad3a
00000350: 0028 a13a 00e8 2bba 0056 0a3b 0078 7d3b
00000360: 002c 37ba 0020 8bbb 003c 5f3b 0070 ce38
00000370: 0004 b43a 00e8 b63a 0014 03b9 0060 e3ba
00000380: 00e4 d1b8 0024 e53a 00f0 31bb 006c 91ba
00000390: 0018 d73a 0010 893a 009c 053b 0024 bbb9
000003a0: 0084 a7ba 00f8 053b 005e 0dbb 00ac 24bb
000003b0: 00f8 323a 00ba 053b 0048 c8ba 0084 0dbb
000003c0: 006c 91b9 00a8 333a 0038 20bb 0060 b63a
000003d0: 00bc c0ba 0084 9eba 00e0 faba 0058 18bb
000003e0: 0084 113b 0088 d83a 0050 8f3b 00e0 62ba
000003f0: 00f4 dbba 00b0 74ba 0024 a4ba 00a0 2fbb

old_dirs f4 [522]
-0.00010525435 0.000590086 0.0016329288 -0.00012406707 0.0016012192 -4.277751e-05 -0.0016167164 -1.6838312e-05
-0.0016417503 -0.0005584061 -0.00089895725 -0.0008723736 -0.00048744678 0.0004451871 0.0011821985 0.0010877848
6.005168e-06 -0.0009907484 0.0021195412 0.0011361837 0.0023834705 -0.00031125546 -6.0111284e-05 0.0005608797
0.00018396974 -0.0003094077 0.0005594492 0.00094753504 -0.0045814514 -0.0032455921 0.002174139 0.0018322468
0.00011457503 0.00040891767 0.0027537346 0.0014895201 0.0002515912 -0.00030454993 0.00016185641 -0.00021657348
-0.00043076277 -1.6018748e-07 0.00045341253 0.0003568083 0.00011423975 0.00016631186 -0.00010051578 -0.0023124218
0.0009610653 -0.002207756 -0.0014027953 -0.00010148063 0.0005672574 -0.00020170212 0.0011321306 -1.7732382e-05
-0.0002746582 -0.002034545 0.0019267797 -0.00018630922 0.00020478666 0.00080788136 -0.0015099049 0.00040701032
-0.00096201897 -0.00029933453 -0.0019396544 -0.0016788244 0.0017591715 0.0012350082 0.003232956 -0.0006605387
-0.0013051033 4.209578e-07 -0.0013383627 -0.0023479462 0.0008764863 0.0029506683 -0.0026760101 6.373972e-05
-0.00039353967 -0.0008344054 0.00074487925 -9.662658e-05 0.0008383393 8.850545e-05 0.0018566847 0.0008701086
-0.0010219812 -0.00054872036 -0.0022768974 0.0006864667 0.00054591894 -0.0005415678 0.0011429787 0.002013564
-0.00027525425 -0.002087593 0.0016063452 0.0002169609 0.000282377 0.0014340878 -0.002571106 0.0010101795
-0.001937747 -0.0008675456 -0.0034651756 -0.0026743412 0.0027980804 0.0018504858 0.005674839 -0.0013501644
-0.0018908978 -1.6659498e-05 -0.002231121 -0.0041747093 0.0012317896 0.0051522255 -0.0044879913 0.00039368868
0.00019785762 9.034574e-05 0.00028458238 -0.000364393 0.00014832616 0.00033926964 -0.00010675192 0.00016262755
-8.6054206e-05 -8.84207e-05 -0.00027741864 4.99147e-05 7.1533024e-05 0.0003619492 -0.00011137128 1.4349818e-05
-8.110888e-05 -0.00022329297 0.0002804622 -0.0003722608 -0.00015978515 -0.0015072823 0.002534628 -0.0015337467
0.0024011135 0.001455903 0.0036830902 0.0023179054 -0.0023686886 -0.0013651848 -0.005841732 0.0017175674
0.0012520552 4.711002e-05 0.0020575523 0.0044116974 -0.0007559061 -0.005241871 0.0043210983 -0.00088590384
0.00030869246 0.0011607409 -0.0015665293 0.00071686506 -0.0015462637 -0.00067666173 -0.0027284622 -0.0015509129
0.0016582012 0.00094103813 0.0039265156 -0.0011575222 -0.00088858604 0.00030055642 -0.0015923977 -0.003140688
0.00050997734 0.0035517216 -0.0028722286 0.0002477765 0.0005182922 0.00010833022 0.0010328293 -0.0011047125
0.00060641766 0.00103122 4.8339367e-05 0.00069606304 -0.00049233437 -0.00042036176 -0.00131464 0.00026899576
0.0003632009 0.0009993911 -8.0186874e-05 0.00043559074 -0.00033965707 -0.001116991 0.0011934042 -0.0010730028
-0.0005723238 -0.0015144348 0.0017662048 -0.0004938543 0.0017158985 0.00043848157 0.003459692 0.0019283295
-0.002153635 -0.0012469292 -0.004702568 0.0013287067 0.0012446642 -0.00066298246 0.0021363497 0.00389719
-0.0007069707 -0.0042886734 0.0034422874 0.00010356307 0.0013914108 0.0014059544 -0.000119403005 -0.0017607212
-9.407103e-05 0.0017720461 -0.002742052 -0.0011155605 0.0016554594 0.0010541081 0.0020500422 -0.00035479665
-0.0012891293 0.0020700693 -0.002180457 -0.0025291443 0.0006878972 0.0020543337 -0.0015357733 -0.0021884441
-0.00028447807 0.0006735921 -0.002468586 0.0013979673 -0.0014665127 -0.0012192726 -0.0019116402 -0.0023469925
0.0022411346 0.0016719103 0.0043973923 -0.0008547306 -0.001699686 -0.0009548068 -0.0012567043 -0.0026714802
00000000: 00bc dcb8 00b0 1a3a 0008 d63a 0018 02b9
00000010: 00e0 d13a 006c 33b8 00e8 d3ba 0040 8db7
00000020: 0030 d7ba 0062 12ba 00a8 6bba 00b0 64ba
00000030: 0090 ffb9 0068 e939 00f4 9a3a 0094 8e3a
00000040: 0080 c936 00dc 81ba 00e8 0a3b 00ec 943a
00000050: 0034 1c3b 0030 a3b9 0020 7cb8 0008 133a
00000060: 00e8 4039 0038 a2b9 00a8 123a 0064 783a
00000070: 0020 96bb 00b4 54bb 007c 0e3b 0028 f03a
00000080: 0048 f038 0064 d639 0078 343b 003c c33a
00000090: 00e8 8339 00ac 9fb9 00b8 2939 0018 63b9
000000a0: 00d8 e1b9 0000 2cb4 00b8 ed39 0012 bb39
000000b0: 0094 ef38 0064 2e39 00cc d2b8 008c 17bb
000000c0: 00f0 7b3a 00b0 10bb 00de b7ba 00d2 d4b8
000000d0: 00b4 143a 0080 53b9 0064 943a 00c0 94b7
000000e0: 0000 90b9 0056 05bb 008c fc3a 005c 43b9
000000f0: 00bc 5639 00c8 533a 00e8 c5ba 0064 d539
00000100: 0030 7cba 00f0 9cb9 003c feba 000c dcba
00000110: 0094 e63a 00e0 a13a 00e0 533b 0028 2dba
00000120: 0010 abba 0000 e234 006c afba 00e0 19bb
00000130: 00c4 653a 0060 413b 0060 2fbb 00ac 8538
00000140: 0054 ceb9 00bc 5aba 0044 433a 00a4 cab8
00000150: 00c4 5b3a 009c b938 005c f33a 0018 643a
00000160: 00f4 85ba 00d8 0fba 0038 15bb 00f4 333a
00000170: 001c 0f3a 00f8 0dba 00d0 953a 00f6 033b
00000180: 0050 90b9 00d0 08bb 008c d23a 0080 6339
00000190: 000c 9439 00f8 bb3a 0080 28bb 0068 843a
000001a0: 00fc fdba 006c 63ba 0018 63bb 0044 2fbb
000001b0: 0060 373b 008c f23a 00f4 b93b 00f8 b0ba
000001c0: 00d8 f7ba 00c0 8bb7 0038 12bb 00cc 88bb
000001d0: 0074 a13a 00d4 a83b 0010 93bb 0068 ce39
000001e0: 0078 4f39 0078 bd38 0034 9539 000c bfb9
000001f0: 0088 1b39 00e0 b139 00e0 dfb8 0087 2a39
00000200: 0078 b4b8 806e b9b8 8072 91b9 805b 5138
00000210: 0004 9638 00c4 bd39 0090 e9b8 00c0 7037
00000220: 0019 aab8 c023 6ab9 000b 9339 002c c3b9
00000230: 008c 27b9 0090 c5ba 001c 263b 0008 c9ba
00000240: 005c 1d3b 00d4 be3a 0060 713b 00e8 173b
00000250: 003c 1bbb 00f0 b2ba 006c bfbb 0020 e13a
00000260: 001c a43a 0098 4538 00d8 063b 0090 903b
00000270: 0028 46ba 00c4 abbb 0098 8d3b 003c 68ba
00000280: 00d8 a139 0024 983a 0054 cdba 00ec 3b3a
00000290: 00ac caba 0062 31ba 00d0 32bb 0048 cbba
000002a0: 0058 d93a 00b0 763a 00aa 803b 00b8 97ba
000002b0: 00f0 68ba 0094 9d39 00b8 d0ba 00d4 4dbb
000002c0: 00b0 053a 00c4 683b 003c 3cbb 00e8 8139
000002d0: 00de 073a 582f e338 0060 873a 00cc 90ba
000002e0: 00f8 1e3a 002a 873a 00c0 4a38 0078 363a
000002f0: 0010 01ba 0064 dcb9 0050 acba 0008 8d39
00000300: 006c be39 00fe 823a 002a a8b8 0060 e439
00000310: 0014 b2b9 0068 92ba 006c 9c3a 00a4 8cba
00000320: 0008 16ba 0080 c6ba 0080 e73a 0076 01ba
00000330: 00e8 e03a 00e4 e539 00bc 623b 00c0 fc3a
00000340: 0024 0dbb 0070 a3ba 0018 9abb 0028 ae3a
00000350: 0024 a33a 00cc 2dba 0002 0c3b 0068 7f3b
00000360: 0054 39ba 0088 8cbb 0098 613b 0030 d938
00000370: 0060 b63a 0048 b83a 0068 fab8 00c8 e6ba
00000380: 0048 c5b8 0044 e83a 00b4 33bb 0038 92ba
00000390: 00fc d83a 002a 8a3a 005a 063b 0004 bab9
000003a0: 00f8 a8ba 00aa 073b 00e6 0ebb 00c0 25bb
000003b0: 0054 343a 00a2 063b 004c c9ba 006c 0fbb
000003c0: 0026 95b9 0094 303a 00c8 21bb 003c b73a
000003d0: 0038 c0ba 00d0 9fba 0090 faba 00d0 19bb
000003e0: 00e0 123b 0024 db3a 0018 903b 0010 60ba
000003f0: 00c8 deba 004c 7aba 00b8 a4ba 0014 2fbb

old_dirs f4 [522]
-0.000106066465 0.0006018281 0.0016566515 -0.00012403727 0.0016183853 -4.991144e-05 -0.0016319752 -8.6426735e-06
-0.0016548634 -0.00055894256 -0.0008946657 -0.0008648634 -0.00048483908 0.00045734644 0.0011912584 0.0011003017
1.168251e-05 -0.0010037422 0.0021438599 0.0011457205 0.0024263859 -0.00031000376 -6.094575e-05 0.00056505203
0.00018663704 -0.00031489134 0.00055873394 0.0009588599 -0.004617691 -0.003264904 0.0021877289 0.0018296242
0.00011742115 0.000415951 0.0027911663 0.0015120506 0.000254035 -0.00031223893 0.00016224384 -0.00022599101
-0.0004402101 -2.2947788e-06 0.0004643798 0.00036118925 0.000120677054 0.00016787648 -0.00010480732 -0.0023226738
0.0009573698 -0.0022330284 -0.0014294982 -0.0001006946 0.00058457255 -0.0002053678 0.0011429787 -5.2936375e-06
-0.00027698278 -0.0020577908 0.0019782782 -0.0001898706 0.00020600855 0.0008084178 -0.001526475 0.00041007996
-0.00096684694 -0.0003041029 -0.0019551516 -0.0016957521 0.0017762184 0.0012478828 0.003263235 -0.00066047907
-0.0013186932 -4.5970082e-06 -0.0013507605 -0.0023605824 0.00088608265 0.0029788017 -0.0027036667 6.662309e-05
-0.00040087104 -0.0008429885 0.0007548332 -9.52445e-05 0.0008468628 8.9202076e-05 0.0018831491 0.0008819103
-0.0010364056 -0.00055605173 -0.0023071766 0.00069230795 0.00055372715 -0.00054967403 0.0011612177 0.0020378828
-0.00027883053 -0.0021166801 0.0016291142 0.00022128224 0.00028266013 0.0014317036 -0.002600193 0.0010163784
-0.001945734 -0.00088089705 -0.0034871101 -0.002701044 0.0028252602 0.0018693209 0.0057229996 -0.0013488531
-0.0019111633 -2.6911497e-05 -0.0022513866 -0.004190445 0.0012466908 0.0051965714 -0.0045337677 0.00040251017
0.00020104647 9.0286136e-05 0.0002926141 -0.00037193298 0.00015313923 0.00034624338 -0.000104516745 0.00016860291
-9.08114e-05 -9.2075206e-05 -0.0002892278 5.2446034e-05 7.493794e-05 0.0003681183 -0.00011086464 1.9475818e-05
-8.381903e-05 -0.00023333263 0.00029081106 -0.00037929416 -0.00016081333 -0.0015101433 0.0025606155 -0.0015492439
0.0024206638 0.001480341 0.0037162304 0.002336502 -0.0023870468 -0.0013738871 -0.005894184 0.0017254353
0.0012594461 5.350262e-05 0.0020753145 0.0044374466 -0.0007597804 -0.005291462 0.0043611526 -0.0009008646
0.0003119409 0.0011650324 -0.0015815496 0.00072288513 -0.0015583038 -0.00068697333 -0.0027549267 -0.0015631914
0.0016713142 0.00094664097 0.003963232 -0.0011628866 -0.00089371204 0.00029999018 -0.0016075373 -0.0031604767
0.0005120635 0.003583908 -0.0028994083 0.00025185198 0.00052681565 0.00011657132 0.0010435581 -0.0011183023
0.0006092787 0.0010460019 4.0113926e-05 0.0007009506 -0.00049364567 -0.0004233122 -0.001322031 0.00026685
0.00036495924 0.0010166764 -8.608401e-05 0.00042766333 -0.0003428161 -0.0011222363 0.0012027025 -0.0010886788
-0.0005814433 -0.0015237331 0.0017848015 -0.0004918277 0.001726985 0.00044098496 0.003497839 0.0019497871
-0.0021777153 -0.0012613535 -0.0047512054 0.0013341904 0.001259923 -0.0006699562 0.0021612644 0.003928423
-0.0007157922 -0.00433445 0.0034811497 0.00010821223 0.0014110804 0.0014178753 -0.00011332333 -0.0017874241
-8.8483095e-05 0.0017969608 -0.0027692318 -0.0011235476 0.0016702414 0.0010632873 0.002063632 -0.00035262108
-0.001301527 0.0020964146 -0.0022056103 -0.0025491714 0.00069355965 0.0020694733 -0.0015459061 -0.0022192001
-0.0002899915 0.0006607175 -0.0024926662 0.0014035702 -0.0014631748 -0.001229763 -0.0019056797 -0.0023696423
0.0022597313 0.001691699 0.004421711 -0.0008434057 -0.0017212629 -0.0009788275 -0.0012611151 -0.0026621819
00000000: 0070 deb8 00c4 1d3a 0024 d93a 0010 02b9
00000010: 0020 d43a 0058 51b8 00e8 d5ba 0000 11b7
00000020: 00e8 d8ba 0086 12ba 0088 6aba 00b8 62ba
00000030: 0032 feb9 00c8 ef39 0024 9c3a 0038 903a
00000040: 0000 4437 0090 83ba 0080 0c3b 002c 963a
00000050: 0004 1f3b 0088 a2b9 00a0 7fb8 0020 143a
00000060: 00b4 4339 0018 a5b9 0078 123a 005c 7b3a
00000070: 0050 97bb 00f8 55bb 0060 0f3b 00d0 ef3a
00000080: 0040 f638 0014 da39 00ec 363b 0030 c63a
00000090: 0030 8539 00b4 a3b9 0020 2a39 00f8 6cb9
000000a0: 00cc e6b9 0000 1ab6 0078 f339 005e bd39
000000b0: 0014 fd38 0008 3039 00cc dbb8 0038 18bb
000000c0: 00f8 7a3a 0058 12bb 005e bbba 002c d3b8
000000d0: 003e 193a 0058 57b9 00d0 953a 00a0 b1b6
000000e0: 0038 91b9 00dc 06bb 00a6 013b 0018 47b9
000000f0: 0004 5839 00ec 533a 0014 c8ba 0000 d739
00000100: 0074 7dba 0070 9fb9 0022 00bb 0044 deba
00000110: 00d0 e83a 0090 a33a 00dc 553b 0024 2dba
00000120: 00d8 acba 0040 9ab6 000c b1ba 00b4 1abb
00000130: 0048 683a 0038 433b 0030 31bb 00b8 8b38
00000140: 002c d2b9 00fc 5cba 00e0 453a 00be c7b8
00000150: 0000 5e3a 0012 bb38 00d4 f63a 0030 673a
00000160: 00d8 87ba 00c4 11ba 0034 17bb 007c 353a
00000170: 0028 113a 0018 10ba 0034 983a 008e 053b
00000180: 0030 92b9 00b8 0abb 0088 d53a 0008 6839
00000190: 0032 9439 00a8 bb3a 0068 2abb 0038 853a
000001a0: 0008 ffba 00ec 66ba 0088 64bb 0004 31bb
000001b0: 0028 393b 0004 f53a 0088 bb3b 00cc b0ba
000001c0: 0080 faba 00c0 e1b7 008c 13bb 0050 89bb
000001d0: 0068 a33a 0048 aa3b 0090 94bb 0008 d339
000001e0: 00d0 5239 0058 bd38 006a 9939 0000 c3b9
000001f0: 0094 2039 0088 b539 0030 dbb8 00cb 3039
00000200: 0072 beb8 8018 c1b8 80a3 97b9 80f9 5b38
00000210: 0028 9d38 0000 c139 0080 e8b8 0060 a337
00000220: 00c8 afb8 c0aa 74b9 0078 9839 00dc c6b9
00000230: 00a0 28b9 00f0 c5ba 00d0 273b 0010 cbba
00000240: 00a4 1e3b 0008 c23a 008c 733b 0020 193b
00000250: 0070 1cbb 0014 b4ba 0024 c1bb 0028 e23a
00000260: 0014 a53a 0068 6038 0002 083b 0068 913b
00000270: 002c 47ba 0064 adbb 00e8 8e3b 0028 6cba
00000280: 008c a339 00b4 983a 004c cfba 0080 3d3a
00000290: 0040 ccba 0016 34ba 008c 34bb 00e4 ccba
000002a0: 0010 db3a 0028 783a 00de 813b 006c 98ba
000002b0: 0048 6aba 0048 9d39 00b4 d2ba 0020 4fbb
000002c0: 003c 063a 00e0 6a3b 0004 3ebb 000b 8439
000002d0: 001a 0a3a c077 f438 00c8 883a 0094 92ba
000002e0: 00b8 1f3a 001a 893a 0040 2838 00c0 373a
000002f0: 0068 01ba 00f0 ddb9 0048 adba 00e8 8b39
00000300: 0058 bf39 0042 853a 0088 b4b8 0038 e039
00000310: 00bc b3b9 0018 93ba 00a4 9d3a 00b2 8eba
00000320: 006c 18ba 00b8 c7ba 00f0 e93a 00ee 00ba
00000330: 005c e23a 0034 e739 003c 653b 0090 ff3a
00000340: 00b8 0ebb 0054 a5ba 00b0 9bbb 00e0 ae3a
00000350: 0024 a53a 00a0 2fba 00a4 0d3b 00ba 803b
00000360: 00a4 3bba 0008 8ebb 0024 643b 00f0 e238
00000370: 00f4 b83a 00d8 b93a 00a8 edb8 0048 eaba
00000380: 0090 b9b8 0088 eb3a 007c 35bb 0044 93ba
00000390: 00ec da3a 005e 8b3a 003e 073b 00e0 b8b9
000003a0: 0098 aaba 0064 093b 008c 10bb 0010 27bb
000003b0: 00d0 353a 00a0 073b 00a0 caba 0070 11bb
000003c0: 000a 98b9 0034 2d3a 005c 23bb 00f8 b73a
000003d0: 00c8 bfba 0030 a1ba 00c8 f9ba 004c 1bbb
000003e0: 0018 143b 00bc dd3a 00e4 903b 0018 5dba
000003f0: 009c e1ba 004c 80ba 004c a5ba 0078 2ebb

old_dirs f4 [522]
-0.00010783225 0.00061392784 0.0016855001 -0.00012129545 0.0016366243 -5.7611614e-05 -0.0016474724 8.940697e-08
-0.0016713142 -0.00056159496 -0.0008915663 -0.00085663795 -0.00048273802 0.0004698038 0.0012007952 0.0011152029
1.7762184e-05 -0.001018405 0.0021719933 0.0011570454 0.0024735928 -0.00030839443 -6.4373016e-05 0.00056678057
0.00018967688 -0.0003209412 0.0005583018 0.0009739399 -0.0046601295 -0.003289938 0.0021989346 0.0018270016
0.000119671226 0.00042304397 0.0028345585 0.0015376806 0.000256747 -0.00032055378 0.00016275048 -0.00023764372
-0.0004503429 -4.3846667e-06 0.0004761517 0.0003656745 0.00012725592 0.00017020106 -0.0001091063 -0.0023355484
0.0009549856 -0.002260089 -0.0014585257 -0.000100404024 0.0006028414 -0.00020977855 0.0011551976 7.3723495e-06
-0.0002795756 -0.0020848513 0.0020333529 -0.00019399822 0.00020776689 0.0008099675 -0.0015462637 0.00041398406
-0.00097352266 -0.00031158328 -0.0019733906 -0.0017154217 0.0017968416 0.0012630224 0.003298521 -0.00066155195
-0.0013343096 -9.741634e-06 -0.0013659 -0.0023765564 0.0008972883 0.003011465 -0.0027360916 6.971508e-05
-0.00040882826 -0.0008522868 0.0007650256 -9.275973e-05 0.00085633993 8.9645386e-05 0.001912713 0.0008947849
-0.0010522604 -0.000564456 -0.0023412704 0.00069862604 0.00056248903 -0.0005585551 0.0011800528 0.0020635128
-0.00028303266 -0.002147913 0.0016531944 0.00022637844 0.00028432906 0.0014308691 -0.0026295185 0.0010254383
-0.00195539 -0.00089496374 -0.003512144 -0.002730608 0.002854824 0.0018918514 0.005777836 -0.0013483763
-0.0019338131 -4.0858984e-05 -0.0022714138 -0.004210472 0.001262784 0.005247593 -0.0045809746 0.00041151047
0.00020503998 9.036064e-05 0.00030189753 -0.00038048625 0.00015865266 0.0003543496 -0.00010237098 0.00017539412
-9.59523e-05 -9.609852e-05 -0.00030216202 5.521835e-05 7.859059e-05 0.00037565827 -0.00011047721 2.489984e-05
-8.696318e-05 -0.00024413783 0.00030242652 -0.0003875196 -0.00016064942 -0.001513958 0.0025897026 -0.0015666485
0.002441883 0.0015044212 0.0037519932 0.0023579597 -0.0024073124 -0.0013839006 -0.0059547424 0.0017361641
0.0012668371 6.0595572e-05 0.0020951033 0.0044674873 -0.00076425076 -0.005344391 0.0044050217 -0.0009174347
0.00031596422 0.00116992 -0.0015971661 0.00072944164 -0.0015716553 -0.0006993711 -0.0027832985 -0.0015755892
0.0016852617 0.0009531975 0.004001379 -0.0011698008 -0.0008983612 0.0003029108 -0.0016247034 -0.0031838417
0.0005143881 0.003620863 -0.0029275417 0.00025705248 0.0005366802 0.00012512988 0.0010557175 -0.0011321306
0.0006120205 0.0010617971 3.1083822e-05 0.00070655346 -0.0004950762 -0.00042653084 -0.001329422 0.00026467443
0.0003668368 0.0010348558 -9.2249364e-05 0.00041913986 -0.00034609437 -0.0011276007 0.0012128353 -0.0011062622
-0.0005916357 -0.0015343428 0.0018063784 -0.0004911423 0.0017405748 0.00044506788 0.003538847 0.0019731522
-0.0022058487 -0.0012774467 -0.004804611 0.0013412237 0.0012768507 -0.00067716837 0.0021914244 0.003963232
-0.0007253289 -0.0043845177 0.003522396 0.00011228025 0.0014328957 0.0014317036 -0.00010872632 -0.001817584
-8.316338e-05 0.001824975 -0.0028021336 -0.0011327267 0.001688242 0.0010740757 0.0020798445 -0.00035130978
-0.0013159513 0.0021277666 -0.0022330284 -0.002572298 0.0007003546 0.0020891428 -0.0015574694 -0.0022530556
-0.00029858947 0.00064742565 -0.0025193691 0.0014139414 -0.0014609098 -0.0012437105 -0.0019025803 -0.0023930073
0.0022797585 0.0017123222 0.004448414 -0.00083225965 -0.0017430782 -0.0010023713 -0.0012662411 -0.0026533604
00000000: 0024 e2b8 00f0 203a 00ec dc3a 0060 feb8
00000010: 0084 d63a 00a4 71b8 00f0 d7ba 0000 c033
00000020: 0010 dbba 0038 13ba 00b8 69ba 0090 60ba
00000030: 0018 fdb9 0050 f639 0064 9d3a 002c 923a
00000040: 0000 9537 007c 85ba 0058 0e3b 00a8 973a
00000050: 001c 223b 00b0 a1b9 0000 87b8 0094 143a
00000060: 00e4 4639 0044 a8b9 005b 123a 0050 7f3a
00000070: 00b4 98bb 009c 57bb 001c 103b 0078 ef3a
00000080: 00f8 fa38 00cc dd39 00c4 393b 008c c93a
00000090: 009c 8639 0010 a8b9 00a8 2a39 0030 79b9
000000a0: 001c ecb9 0020 93b6 00a4 f939 00b8 bf39
000000b0: 0070 0539 0078 3239 00d0 e4b8 0010 19bb
000000c0: 0058 7a3a 001e 14bb 002c bfba 0090 d2b8
000000d0: 0008 1e3a 00f8 5bb9 006a 973a 0060 f736
000000e0: 0094 92b9 00a2 08bb 0042 053b 006c 4bb9
000000f0: 00dc 5939 0054 543a 00ac caba 000c d939
00000100: 0034 7fba 005c a3b9 0054 01bb 00d8 e0ba
00000110: 0084 eb3a 008c a53a 002c 583b 006c 2dba
00000120: 00e4 aeba 0070 23b7 0008 b3ba 00c0 1bbb
00000130: 0038 6b3a 005c 453b 0050 33bb 0034 9238
00000140: 0058 d6b9 006c 5fba 008c 483a 0088 c2b8
00000150: 007c 603a 0000 bc38 00b4 fa3a 0090 6a3a
00000160: 00ec 89ba 00f8 13ba 0070 19bb 0024 373a
00000170: 0074 133a 006c 12ba 00ac 9a3a 003c 073b
00000180: 0064 94b9 00c4 0cbb 00b0 d83a 0060 6d39
00000190: 0012 9539 008c bb3a 0054 2cbb 0068 863a
000001a0: 0026 00bb 009c 6aba 002c 66bb 00f4 32bb
000001b0: 0018 3b3b 00f8 f73a 0054 bd3b 00bc b0ba
000001c0: 0078 fdba 0060 2bb8 00dc 14bb 00f8 89bb
000001d0: 0084 a53a 00f4 ab3b 001c 96bb 00c0 d739
000001e0: 0000 5739 0080 bd38 0048 9e39 007c c7b9
000001f0: 005c 2639 00c8 b939 00b0 d6b8 00ea 3739
00000200: 003a c9b8 8088 c9b8 806b 9eb9 409a 6738
00000210: 00d1 a438 00f4 c439 00b0 e7b8 00e0 d037
00000220: 0060 b6b8 40ff 7fb9 008f 9e39 002c cbb9
00000230: 0074 28b9 0070 c6ba 00b8 293b 0058 cdba
00000240: 0008 203b 0030 c53a 00e4 753b 0088 1a3b
00000250: 00c4 1dbb 0064 b5ba 0020 c3bb 0090 e33a
00000260: 000c a63a 0028 7e38 004e 093b 0064 923b
00000270: 0058 48ba 0020 afbb 0058 903b 0080 70ba
00000280: 00a8 a539 0058 993a 0058 d1ba 0038 3f3a
00000290: 0000 ceba 0056 37ba 0068 36bb 0084 ceba
000002a0: 00e4 dc3a 00e0 793a 001e 833b 0054 99ba
000002b0: 0080 6bba 00d0 9e39 00f4 d4ba 00a8 50bb
000002c0: 00d8 063a 004c 6d3b 00dc 3fbb 00c5 8639
000002d0: 00b0 0c3a 4c35 0339 0060 8a3a 0064 94ba
000002e0: 0070 203a 002c 8b3a 0060 0238 0038 393a
000002f0: 00c8 01ba 00a0 dfb9 0040 aeba 00c4 8a39
00000300: 0054 c039 00a4 873a 0076 c1b8 00c0 db39
00000310: 0074 b5b9 00cc 93ba 00f8 9e3a 0000 91ba
00000320: 0018 1bba 001c c9ba 00c4 ec3a 00c0 00ba
00000330: 0024 e43a 0058 e939 00ec 673b 0050 013b
00000340: 0090 10bb 0070 a7ba 0070 9dbb 00cc af3a
00000350: 005c a73a 0084 31ba 009e 0f3b 00de 813b
00000360: 0024 3eba 00ac 8fbb 00d8 663b 0078 eb38
00000370: 00d0 bb3a 00a8 bb3a 0004 e4b8 003c eeba
00000380: 0068 aeb8 0034 ef3a 00a4 37bb 0078 94ba
00000390: 0048 dd3a 00c8 8c3a 004e 083b 0030 b8b9
000003a0: 007c acba 0072 0b3b 0058 12bb 0094 28bb
000003b0: 0098 373a 00ea 083b 0024 ccba 00a8 13bb
000003c0: 008c 9cb9 00b8 293a 001c 25bb 0054 b93a
000003d0: 007c bfba 0004 a3ba 0060 f9ba 00d4 1cbb
000003e0: 0068 153b 0070 e03a 00c4 913b 002c 5aba
000003f0: 0078 e4ba 0062 83ba 00f8 a5ba 00e4 2dbb
