tutorials/tutorial 5/lightning_logs/version_3/checkpoints/epoch=499-step=500.ckpt (torch, 523917 bytes, 208 tensors)

_pina_model._model.model.0.weight f4 [20, 2]
00000000: 52f8 50bf 11be 45be 691a d9bd 0862 b13e
00000010: 678b 4b3e 2cd9 873e 9325 20bf 7c2f 083f
00000020: bd0a e0be ac9f aabe 80e0 133e 9657 70be
00000030: 8057 4dbf 47cf b53d b9d2 17bf ed0e 3c3e
00000040: 9e8d 53bf 2d88 393f d01a 1bbf 3589 b1be
00000050: a5a8 24bf a53c 82bf e5f8 3fbe a651 d7be
00000060: 9f9a 32be f897 7abe edfe 6cbe eaa8 4cbf
00000070: 6db0 3f3e 778b 233f 3eda 833e 7a0a 4cbf
00000080: 7fb3 513e 1ee1 053f 9b0f 6ebf 3920 913f
00000090: dbb4 82bf 942c 293f 7f61 113e 29e2 11bf
-0.81628907 -0.19310786 -0.106007405 0.34645104 0.19877397 0.26532876 -0.62557334 0.53197455
-0.43758193 -0.33324945 0.14441109 -0.23470911 -0.8021164 0.08877426 -0.5930591 0.18365069
-0.82637966 0.7247341 -0.6058779 -0.34674993 -0.6431983 -1.0174757 -0.1874729 -0.4205448
-0.17441796 -0.24472034 -0.23144121 -0.7994524 0.18719645 0.6388468 0.25752443 -0.79703486
0.20478629 0.52296627 -0.9299256 1.1337959 -1.0211443 0.66083646 0.14197348 -0.5698572

_pina_model._model.model.0.bias f4 [20]
00000000: d416 15bf 14f4 2d3f 5bdf d73e 0554 d8be
00000010: 4f23 353e da8f c43e 3b58 003f 8b2c 1cbf
00000020: 6693 0f3e fcc9 efbe 72aa 513e 72a0 003f
00000030: 6abe 3abe 9a95 14bf 0a03 17be 0344 76be
00000040: 22d2 b7be 6ca1 a7be 427b 373f 63ea abbe
-0.5823796 0.6795056 0.42162594 -0.42251602 0.1768925 0.38391 0.5013463 -0.6100547
0.14021072 -0.4683379 0.20475176 0.5024482 -0.182367 -0.58040774 -0.14747253 -0.24049382
-0.35902506 -0.32740343 0.7167245 -0.3357726

_pina_model._model.model.2.weight f4 [20, 20]
00000000: a329 b63d 5bd4 113e c463 1e3d 2a6d 29be
00000010: 0280 363e f55c e63c 442d dcbc 84fd dd3d
00000020: 37d0 78be be21 933d aa1b 2f3e a21f 8c3d
00000030: 4ac8 1f3d 940b 853e cec9 89bc ace0 2a3e
00000040: 420b 2cbe 5cb7 26be b3c9 b0be db4a 17bc
00000050: 6084 6cbc 24c3 4f3e 5b71 13be 8fe4 18be
00000060: b60f 3ebd 09fb 4fbe 4e13 7cbd 3439 453e
00000070: 0937 2e3e 6106 e13d a1f7 82bd 8828 ba3d
00000080: 010f dcbd cfa6 dcbb 3787 15be 7533 073e
00000090: c60d 073e a04b 07be 4abf bfbc a1ef ad3c
000000a0: 83b9 efbd 764b 11be c274 1ebe 195d b73d
000000b0: 6139 353e e065 0cbd 4daa e9bd acac eabd
000000c0: 1e4d 9abd 19c2 00be 1049 7a3e a9ba 093e
000000d0: d2e1 203e ffe9 1ebd 1118 1b3e eeb9 243e
000000e0: 0f42 91bd 50ba b8bd 4eb0 743d cb5e dd3d
000000f0: b9ed 473e 2561 febd 38a3 b2bd 59d4 133e
00000100: f9a3 313d 4f18 fb3b d0be 97be bb3f 933e
00000110: aaf9 16be 56fe 393e 3d98 373e 2eb6 003e
00000120: 521c 933d 2cfb ffbd 5b49 9ebe 7321 6d3e
00000130: 8fcd 14bc 370c 88be a6a8 4c3d ea3e 603e
00000140: c075 763e 9cd2 513e a51c 443e 7d8a 553d
00000150: 60a2 f3bc d1cf 37be 4590 e2bd adf0 4cbe
00000160: f1df 37bd 377b 62bd 0600 92bd 44b1 a13c
00000170: fa9a 94bd 9be8 283d 0212 74bd 874d f9bd
00000180: 55c9 033e 62f1 993d faf8 f23c 70e4 f73d
00000190: ae72 8e3e 3ab4 b63d 5900 50bd c3e2 b53e
000001a0: 35b8 e8bd 9342 48be 2df8 223d b4ba 513e
000001b0: ea35 c83c d0a5 393e 4241 bb3e ea26 fdbd
000001c0: 159e c03d ebe1 933e 9638 67be abdd 783e
000001d0: 2025 e0bd d556 aa3e 79d5 66be 3c1f a9bd
000001e0: cc27 b1bc ee4b ad3c f558 f53d b956 a53d
000001f0: e9cc 793d d7bb 2d3e 7b9f ba3d da20 3cbe
00000200: 20b2 603e 751f 303e 2111 2a3e caa9 b3bd
00000210: 90d8 103e e9a9 953d 44ac 063d 231e d33c
00000220: 1b63 08bc d3c0 8d3d a475 473e 7eb8 ae3c
00000230: bf6d 50be 8597 af3e 89e6 833e 1823 03bb
00000240: 499f 1abd d732 2c3d 2f8a ad3c 07c7 53bd
00000250: a503 a3be 1ba9 09be 6e13 d73d d9a8 09be
00000260: 5af4 59be 7ae2 893c 11f2 793d 04c5 9b3d
00000270: ced9 133e c1a3 03bf ef36 debd 5ef3 73be
00000280: 57cc 133d fe69 43be 0cc9 f6bd a42e a2bc
00000290: bd97 503d 94e3 1b3e 8b41 b6bd 73d1 8b3d
000002a0: 1daa b339 9830 7c3e 201f 4e3e 1f14 0dbc
000002b0: 8583 b3bd 2414 15bd 506b 0fbe bf2f 613e
000002c0: 25b3 053e 3d90 58bd e1bc 47be 1540 e03b
000002d0: e817 ca3d dfee ac3e d5e7 f0bd 3b4e 0e3d
000002e0: cdde dbbd 1991 383d caeb 473e bfc3 7b3d
000002f0: 6865 3f3e 2b3a 9f3d 4664 b2bb 4eab cb3d
00000300: de6c 35be 9264 12bd cb03 853d 51fe b8be
00000310: 9e17 243d 7c39 3e3e cc66 a33e 9b98 97be
00000320: 445a 2c3c ddeb 513e 0a2e 053e dc80 a2bd
00000330: f1b6 47be ae1a 56bc bb63 293e 5bf5 41bc
00000340: 2e03 033e 1d99 73bb 6998 123e c02e ed3d
00000350: f5b3 1f3e c4d2 45be c361 febc 64e4 e6bd
00000360: b470 1bbe 67d2 64bd 8fc1 5f3c 3176 5bbd
00000370: e308 04be bd91 ec3d ac0d d7bc a089 99be
00000380: 6767 4d3c 8873 243e e923 0c3f 7930 273d
00000390: fb9d efbd 979e fb3d 7a03 ed3e 9f4a a83e
000003a0: ea75 433e 224a 593c 61a2 753d d3b0 71be
000003b0: 8dcd 64be 972a 563d 1035 c03e c537 c13d
000003c0: ce23 c6be ba3f 753e 220c 36bd 5b1d b2be
000003d0: 685e f1bd 83dc 883d 6ac0 033e 43fa 2bbe
000003e0: 3d5b 86bd f283 9a3c 1c42 54be 1391 973d
000003f0: 26b3 17bd ffff 9dbe 8cfd c53d c025 3abe
0.0889466 0.14241163 0.038669363 -0.16545549 0.17822269 0.028120497 -0.026877053 0.1083937
-0.24298178 0.0718417 0.17100397 0.06841971 0.03900937 0.25985396 -0.01681986 0.16687268
-0.1680117 -0.16280884 -0.34528884 -0.0092341555 -0.014435858 0.20289284 -0.1439871 -0.14930938
-0.046401702 -0.20310606 -0.061541848 0.19260103 0.17013182 0.10987545 -0.06394888 0.09089762
-0.10745049 -0.0067337523 -0.14602362 0.13203223 0.13188848 -0.13212442 -0.023406643 0.021232428
-0.117053054 -0.14188942 -0.15474227 0.08953304 0.1769767 -0.034276843 -0.114094354 -0.11458716
-0.0753424 -0.12574042 0.24441934 0.13450111 0.15711144 -0.038797375 0.151459 0.16086552
-0.07092678 -0.09019911 0.05973845 0.10809096 0.19524278 -0.124208726 -0.08722538 0.14436473
0.043369267 0.00766281 -0.29637766 0.2875956 -0.14743677 0.18163428 0.17929168 0.12569496
0.07183136 -0.12499079 -0.3091534 0.23157291 -0.009082212 -0.2657182 0.049965523 0.21899
0.24068356 0.20490497 0.19151552 0.052134026 -0.029740512 -0.1795037 -0.110626735 -0.20013686
-0.0448913 -0.055293288 -0.07128911 0.019737847 -0.07256122 0.041237455 -0.059587486 -0.1217299
0.12869771 0.07516743 0.029659737 0.12104118 0.2782187 0.08921094 -0.05078158 0.35524568
-0.1136326 -0.19556646 0.03978746 0.20481378 0.02443977 0.18129659 0.36573225 -0.12360938
0.09405152 0.288833 -0.2258018 0.2430331 -0.10944581 0.33269373 -0.22542371 -0.082579106
-0.021625422 0.02115437 0.11979858 0.08073182 0.060986433 0.16966186 0.0911245 -0.18371907
0.2194295 0.171995 0.16608097 -0.08772619 0.14145112 0.073077984 0.03287913 0.025771206
-0.00832441 0.06921544 0.1947847 0.021328207 -0.20354365 0.34295288 0.25761822 -0.0020009931
-0.037749562 0.042040672 0.021184055 -0.05170348 -0.31838718 -0.13443415 0.10501753 -0.13443317
-0.21284619 0.016831625 0.06102187 0.07605937 0.14438555 -0.51421744 -0.108503215 -0.23823306
0.036083546 -0.19083402 -0.120500654 -0.01979763 0.05092596 0.15223533 -0.0889922 0.06827059
0.00034268285 0.24627912 0.20129061 -0.008610754 -0.0876532 -0.03639616 -0.1400578 0.2199087
0.1305662 -0.05287193 -0.19505645 0.0068435767 0.09867841 0.33775994 -0.117629685 0.034742575
-0.10735855 0.04506025 0.1952354 0.061465975 0.18691027 0.077747665 -0.0054440824 0.09944783
-0.17717311 -0.035740443 0.06494864 -0.36131528 0.040061586 0.18576616 0.31914365 -0.29608616
0.010519568 0.20500131 0.13005844 -0.07934734 -0.1950338 -0.013067884 0.1654195 -0.011838282
0.12794182 -0.003717012 0.14315952 0.115811825 0.15595992 -0.19318682 -0.031052476 -0.11274031
-0.15179712 -0.055864718 0.013656988 -0.053579513 -0.12894015 0.11551235 -0.026251636 -0.29987812
0.01253686 0.16059697 0.54742295 0.04081771 -0.11700054 0.12286108 0.46291715 0.3286943
0.1908795 0.013262304 0.05996931 -0.2360261 -0.22344036 0.05228671 0.37540483 0.09434465
-0.38699192 0.23950091 -0.044445165 -0.3478802 -0.11785585 0.06682684 0.12866369 -0.16794686
-0.06560371 0.018861745 -0.20728344 0.074007176 -0.037036084 -0.30859372 0.09667501 -0.18178463

_pina_model._model.model.2.bias f4 [20]
00000000: 9e49 d2bd bdde 503d 782a 81bd 99e8 573e
00000010: 6379 823e ecd9 4fbd 6ac5 233e 8962 c93e
00000020: ecf1 a4bc 6d09 4cbd 6fd2 3d3e e00d d43d
00000030: 0e76 ed3b 0743 563e 87ef 0bbe 6017 82be
00000040: e871 c53d 949f 89bd bc25 733d 4623 a8bd
-0.102679476 0.05099367 -0.063069284 0.21084823 0.25483236 -0.050744936 0.15993276 0.3933299
-0.020134889 -0.049813677 0.18537305 0.10354209 0.007246739 0.20924006 -0.13665591 -0.2540846
0.096408665 -0.0671989 0.05936216 -0.08209853

_pina_model._model.model.4.weight f4 [2, 20]
00000000: 5905 953e 6cda 35be 1229 663e af6f 07bf
00000010: e1cb 68be 3e42 aabe da8b 09be 2355 29bf
00000020: 04d0 12be 4868 3fbe 9873 803e 3831 fc3e
00000030: 36da 443e b481 26be 334c f53e cd02 4f3c
00000040: 390e 89be 8b5a f9bc c23d 59bd 4811 303f
00000050: 6370 82bd a25b 383e d130 9e3e 894e bdbe
00000060: 3d11 56be 614f b2be cccf 763e 5bec 2ebf
00000070: 3594 5fbe a29e c4be c11a dcbd 2117 043f
00000080: 4d59 763e a244 d1bd 202e 933e 8fb2 21be
00000090: df15 31be 33f7 3b3e 79e8 4bbe 180c 313f
0.29105642 -0.17759103 0.22476605 -0.5290479 -0.22734024 -0.33253664 -0.13432255 -0.66145533
-0.14337164 -0.18692124 0.2508819 0.492563 0.19223866 -0.16260415 0.47909698 0.012634945
-0.26768664 -0.030438682 -0.053037412 0.6877637 -0.06369092 0.18003705 0.3089662 -0.3697398
-0.20905013 -0.34826186 0.24102706 -0.683294 -0.2183388 -0.38402277 -0.107472904 0.5159779
0.24057503 -0.10218169 0.28746128 -0.15790771 -0.172935 0.18356018 -0.199129 0.6915908

_pina_model._model.model.4.bias f4 [2]
00000000: 78aa 903d eaea a53d
0.07063764 0.08101447

d f4 [522]
00000000: 4525 61ba 76fc e6b8 f62a 95b8 f135 cab8
00000010: ff7a 9539 4244 73b9 62f1 27ba 6e7a d3b8
00000020: eddf 02ba e3b4 e7b8 1ffb 64b9 caeb 50b8
00000030: c58e 13ba dba6 02b9 2f72 59b9 3e02 9bb9
00000040: 1e76 7239 8ae8 af39 eed9 9238 d210 0bba
00000050: 2e04 123b 1ec7 e13a 1c4b ffb7 d20c 26ba
00000060: aa4a 8539 d62f 3cb9 8826 93b9 323a 37ba
00000070: fa95 dab8 3a29 f0b9 2e6f 033a d504 f3b9
00000080: 80d2 cf36 3803 a339 8668 d4ba 262f bd39
00000090: edb4 8e39 f972 ca39 83dd d439 35df 8539
000000a0: 2fb7 143a 0f4f 8439 60a0 a338 ac02 d1b7
000000b0: 82e7 913a f98d ccb7 c8d7 e5b9 4c4c 4139
000000c0: d58b dab9 d048 66b9 7a53 02bb 1334 673a
000000d0: b92d 4439 76bc 8739 99bb 15ba 9da4 4eb9
000000e0: f40f dcba 7093 2cba d020 eab6 9472 9b38
000000f0: 7e0b f635 2867 58b9 a3cb a0b8 29af f237
00000100: bfed 2fb9 8d99 20b7 04d7 bab9 9e75 2838
00000110: cc67 8cb9 5fdb a9b7 e76a 7939 6e12 14b9
00000120: b5bc 7cb6 f314 8139 494c 8338 ecbb aa39
00000130: e983 2739 b8e5 9139 74fc 3fba adf0 7439
00000140: c8e9 73b6 80a4 b2b3 2b3a a0b7 882a c9b7
00000150: 8c4b 58b6 7a81 a1b7 9b26 9438 8968 7ab7
00000160: 8c8d 0438 dd23 1838 569f 3738 910a b3b7
00000170: 94a8 da37 c6e9 1c38 488b 9b37 0173 25b8
00000180: 7ae8 0d37 0aed 83b8 02a2 3c39 2b79 1cb7
00000190: d829 b5b9 71ad 2439 d1e6 1039 3af8 d2b9
000001a0: 4f6e b2b8 dda2 9639 6748 d438 a8a3 9ab9
000001b0: 2c19 dfb8 24f8 c2b9 c8af 9eb9 26b8 9839
000001c0: ae92 12b9 11dc e4b9 b9da 0539 cdcd 2bb9
000001d0: b900 beb7 7a15 12ba fac5 c1b8 4656 1eb9
000001e0: 6667 6739 2c43 8339 6006 1639 3755 39b9
000001f0: 9cd6 2639 288e 6cb7 5acf 9cb8 fd5a 64b8
00000200: fe30 01b9 923d 5039 3a70 e4b9 8b7c 1539
00000210: 40fb a538 9307 5cb9 44ce 2ab9 2d84 b4b9
00000220: f746 d3b9 8e4b abba 02a5 3c3a 8a6b 4db9
00000230: 5c32 b138 6993 f937 b2a9 8138 1f85 5339
00000240: b0f6 afb8 64e2 18b9 47c8 09b9 06b7 9a38
00000250: 7002 38b6 aa57 e238 7e79 0f39 0fc9 57b9
00000260: f046 eab7 68c4 0c39 82b4 cd38 3c98 10b6
00000270: dcb1 1939 cdf3 6439 4a86 e637 fc5b d8b7
00000280: 540c ad39 46e1 c5b8 4ae9 36b9 3e8f 2139
00000290: 1bc2 de39 869a 25b8 541c 9039 77eb 0d39
000002a0: 4e04 2338 265b c839 a34e 673a 2683 4f39
000002b0: d80c 8139 0abd 2c3a 843e 10ba 6ac9 e339
000002c0: fa08 bfb9 f767 8cb8 14b4 1036 2397 a139
000002d0: 21ae b938 01a4 31b8 26bf b1b8 6e70 6a37
000002e0: 87f1 e838 3f8f ffb7 d24a 2d39 f486 7938
000002f0: 59bf 0439 6469 ee38 56e2 2239 de93 5538
00000300: 381e ca38 a4b8 6038 0c59 b8b8 ec6a acb7
00000310: 028b 04b9 4903 93b8 3913 8039 7cbe e437
00000320: 5479 e5b9 18fd e139 204f a139 7a7b e3b8
00000330: 4e57 88b8 6eed 4039 cc26 463a 3ad3 9fb9
00000340: 015a 01b9 7ca0 24b9 4007 ce3a 632c 2d39
00000350: 5069 04b9 ac7e 0738 d993 1b39 d499 0338
00000360: d36d 9eb8 efd8 b6ba af14 ac39 92b5 e3b8
00000370: e7fb 6739 9cd8 04b8 1692 e4b7 4b7c ea38
00000380: 012c aa37 46c3 d6b8 282d 1cb9 d914 ff38
00000390: 1255 bbb8 8ec7 5139 fe91 9b38 3a8b c5b8
000003a0: 22e3 8338 198b 3439 f479 1ab7 365e a137
000003b0: 86be 09b7 21c8 9cb8 2822 3ab8 8373 2038
000003c0: 36b4 5c39 4860 f339 f1d3 c238 0b16 2839
000003d0: bb43 1f3a 12b3 6eb7 b2b9 7e3a abdb 0239
000003e0: 3a84 1b3a 4267 8039 2abf 3639 5943 d839
000003f0: fe39 dc38 e60b 0bba 7e41 beb9 58c7 0fba
-0.00085886224 -0.00011014279 -7.112876e-05 -9.642158e-05 0.00028511134 -0.00023199714 -0.0006406513 -0.00010084068
-0.0004992474 -0.00011048631 -0.00021837324 -4.981066e-05 -0.00056288793 -0.00012459925 -0.0002073727 -0.00029565574
0.0002312292 0.00033551856 7.002415e-05 -0.00053049356 0.0022280323 0.0017225479 -3.0433344e-05 -0.0006334308
0.00025423366 -0.00017946897 -0.00028066733 -0.0006989568 -0.00010422985 -0.00045807083 0.00050138205 -0.00046352172
6.193586e-06 0.0003109218 -0.0016205467 0.00036084017 0.0002721915 0.00038614104 0.0004060083 0.0002553404
0.00056730484 0.00025235905 7.802318e-05 -2.4915986e-05 0.0011131617 -2.4384806e-05 -0.00043839053 0.00018434337
-0.00041684383 -0.00021961634 -0.0019886182 0.00088197103 0.0001870905 0.0002588962 -0.0005711853 -0.00019707014
-0.0016789422 -0.0006583249 -6.9775633e-06 7.412318e-05 1.8331773e-06 -0.00020637794 -7.667325e-05 2.8930213e-05
-0.00016777868 -9.5724945e-06 -0.00035636884 4.016386e-05 -0.00026780216 -2.0248523e-05 0.00023786315 -0.00014121245
-3.7660768e-06 0.00024620406 6.260776e-05 0.0003256494 0.00015975501 0.0002782771 -0.000732369 0.00023359312
-3.63459e-06 -8.318693e-08 -1.9100573e-05 -2.3980872e-05 -3.2230482e-06 -1.9252988e-05 7.064381e-05 -1.49255e-05
3.160308e-05 3.6273024e-05 4.3778993e-05 -2.1343383e-05 2.6066125e-05 3.7411017e-05 1.8542298e-05 -3.944617e-05
8.458383e-06 -6.290719e-05 0.0001798943 -9.326536e-06 -0.00034554186 0.00015704871 0.00013818896 -0.00040239264
-8.508248e-05 0.00028731572 0.00010122434 -0.00029495102 -0.00010638157 -0.00037187443 -0.00030267076 0.000291289
-0.00013978287 -0.0004365151 0.00012765349 -0.00016384498 -2.2650102e-05 -0.0005572658 -9.239833e-05 -0.00015100194
0.00022068396 0.00025036314 0.0001430749 -0.0001767472 0.00015910942 -1.40997945e-05 -7.477282e-05 -5.4444175e-05
-0.0001232065 0.00019859363 -0.00043571164 0.00014256143 7.914612e-05 -0.00020983657 -0.00016289303 -0.00034430754
-0.0004029793 -0.0013068782 0.0007196219 -0.00019590385 8.449398e-05 2.9751756e-05 6.1828076e-05 0.0002017212
-8.3905994e-05 -0.00014580187 -0.00013139947 7.377383e-05 -2.7419555e-06 0.000107928485 0.00013682802 -0.00020578898
-2.7928007e-05 0.00013424607 9.808784e-05 -2.1546284e-06 0.00014657475 0.00021834597 2.748067e-05 -2.579204e-05
0.00033006317 -9.4356525e-05 -0.0001744378 0.00015407518 0.0004248776 -3.9482977e-05 0.00027486926 0.00013534525
3.8866237e-05 0.00038214884 0.00088236685 0.00019789915 0.00024614367 0.00065894483 -0.00055024796 0.0004344688
-0.00036437047 -6.695085e-05 2.1562491e-06 0.0003082092 8.8539215e-05 -4.235283e-05 -8.475622e-05 1.3973664e-05
0.0001110761 -3.0465073e-05 0.00016526438 5.949191e-05 0.00012659784 0.00011368355 0.0001553384 5.092087e-05
9.637739e-05 5.357772e-05 -8.79039e-05 -2.0553787e-05 -0.00012640285 -7.010118e-05 0.00024428384 2.726842e-05
-0.0004376868 0.00043103914 0.00030767266 -0.00010847203 -6.501247e-05 0.00018398996 0.0007558882 -0.0003048422
-0.00012335928 -0.00015700044 0.0015718713 0.00016515101 -0.00012627733 3.230448e-05 0.0001483703 3.1376097e-05
-7.5544835e-05 -0.0013950149 0.00032821807 -0.000108580236 0.00022123718 -3.1672986e-05 -2.7247745e-05 0.00011181141
2.028607e-05 -0.00010240688 -0.00014894141 0.00012163231 -8.9327004e-05 0.00020006133 7.418169e-05 -9.419625e-05
6.2888736e-05 0.00017217956 -9.20751e-06 1.9236566e-05 -8.210196e-06 -7.4759366e-05 -4.4377666e-05 3.825455e-05
0.00021047969 0.00046420307 9.290118e-05 0.0001602994 0.0006075461 -1.42275985e-05 0.0009717002 0.00012479599
0.0005932484 0.00024490996 0.00017428087 0.00041248908 0.000105012194 -0.0005304202 -0.0003628842 -0.00054847216

old_dirs f4 [522]
00000000: 80f5 f0b4 c0b0 2db5 00d9 7eb4 00be 36b5
00000010: 0076 4db4 c0b5 8cb4 005b 34b5 8077 96b5
00000020: 00b6 d434 00a3 1eb5 001e 9033 0028 2b34
00000030: 0088 d533 8077 5135 40f8 60b4 808a 3bb4
00000040: 0050 0b35 00d9 6e34 0025 0bb4 005c 0bb4
00000050: 0068 e2b4 0010 63b3 00f3 ec34 807a 0335
00000060: 8063 d834 c002 0935 0007 02b4 0014 5434
00000070: 0040 21b2 8004 a835 00b0 8433 005b 03b5
00000080: 00da adb4 0025 8435 00c8 f934 00e9 8735
00000090: 00f2 2434 007b 6f34 0057 2134 80e9 9334
000000a0: 0078 fab4 80ad 0fb5 00b1 52b4 408d a7b5
000000b0: 009c 7eb4 801d 2c34 8008 9935 0067 abb3
000000c0: 003e 9c34 009a f033 0042 a035 8087 5335
000000d0: 00c9 2735 80cb b834 00cc a435 005c 34b4
000000e0: 0030 e634 8022 8635 0048 f933 0056 8e34
000000f0: e034 09b5 4012 d034 807e ba34 8063 90b4
00000100: 80e3 15b4 a02b 5634 00d7 b133 00bc dab4
00000110: 0080 b5b1 80dd fcb4 804d a5b4 80f7 f833
00000120: c05d 77b4 4057 0cb5 00e6 2734 40ce 88b4
00000130: 0094 6b32 80db 33b4 00a3 5434 8009 9fb4
00000140: 9084 b834 d8d8 a2b4 c07c 8bb4 e0c3 1834
00000150: 009c d233 9854 10b4 4060 c2b3 4038 9534
00000160: 7270 b2b3 709a ac34 4009 7b34 0070 9bb3
00000170: 20e7 3834 b048 c034 c0e3 10b4 a0fd 6934
00000180: 00b5 00b3 00a0 9bb0 203d 68b4 a05c 7d34
00000190: 2041 51b5 40f4 2735 c091 1035 80e2 7cb4
000001a0: 201a 89b4 e015 5334 00b2 9e34 1087 12b5
000001b0: a0a9 bd34 a041 42b5 0078 18b5 80a9 7733
000001c0: 0024 cab4 c08b 68b5 80e6 d834 005c 26b5
000001d0: c099 3234 0051 2f34 8068 3735 4045 20b5
000001e0: 900d 9735 6068 5fb5 e018 49b5 c0ed ef34
000001f0: 804d d334 80cf 9eb4 8037 8eb4 1834 5335
00000200: 004c 69b4 f0ea 8d35 00d8 7e35 001a cab3
00000210: 60b8 0d35 4050 ab35 0097 12b5 0069 5b35
00000220: 008f 58b4 00c6 6434 00b4 44b5 4019 5635
00000230: c0ec 2e35 e00f 0db5 c0df f6b4 f090 4134
00000240: a066 8434 50fd 23b4 00f2 6ab4 d0bc f134
00000250: 6096 aab4 00fb 2435 0087 1535 0053 90b2
00000260: 4080 b034 c0e1 4535 00e7 cdb4 c00f 1435
00000270: 400d 40b4 8055 45b4 a016 1ab5 8027 0b35
00000280: 004e 8f34 0000 92b2 005c fab3 0075 8233
00000290: 408e a434 00d2 6333 80e0 6534 0061 e433
000002a0: 00dc d232 00f8 9134 00ee 2935 c038 7334
000002b0: 0079 1834 8021 8234 00ee b5b4 0094 5b34
000002c0: 80a8 9ab4 00a0 c6b2 0030 5932 0015 1934
000002d0: 009c 3434 c0c1 19b4 407e 0ab4 0071 da33
000002e0: 40a5 4d33 403a bab3 00e0 2131 a038 2534
000002f0: 4061 0a33 e020 2834 808f e233 00f6 57b3
00000300: a002 b333 80c3 2234 805c 2ab3 00ae 7e33
00000310: 0022 a731 0097 a933 00bc f7b2 c01c b733
00000320: 002f ba35 8047 4db5 201b 5eb5 80d6 2c35
00000330: 4036 4035 008a a9b4 c09a 1434 80a3 8535
00000340: 0054 dbb3 007e ab35 8006 b935 40a4 0a34
00000350: 8056 2c35 8072 a435 c025 56b5 4005 5335
00000360: c004 fdb4 00f6 9133 c0a4 1eb5 4013 4a35
00000370: 00bb c134 40ac 94b4 00e8 86b4 00c7 ab33
00000380: 8003 3634 0041 6ab3 80c5 d9b3 80bd 6f34
00000390: 402b 35b4 6024 bc34 00d8 d734 001d 0c33
000003a0: 608f 4b34 407e ef34 c08c 8db4 008d bc34
000003b0: c069 19b4 4027 a4b3 0098 a4b4 c0f8 a734
000003c0: 002b ef34 00c9 b5b4 00c7 9eb4 0080 2d34
000003d0: 00b6 af33 0064 2ab4 00d5 32b4 0037 a734
000003e0: 004a 8db3 0081 df34 0036 4e34 0059 0bb4
000003f0: 00e1 4c34 80bf 0a35 0086 f4b3 00c0 6f34
-4.4882108e-07 -6.470473e-07 -2.3734538e-07 -6.807677e-07 -1.9135041e-07 -2.6209273e-07 -6.718765e-07 -1.121065e-06
3.96205e-07 -5.9096783e-07 6.7109795e-08 1.5940168e-07 9.943324e-08 7.803246e-07 -2.0951938e-07 -1.7466118e-07
5.189795e-07 2.2244421e-07 -1.2958844e-07 -1.2978853e-07 -4.217145e-07 -5.2867108e-08 4.413523e-07 4.8979564e-07
4.030553e-07 5.104048e-07 -1.210974e-07 1.9751315e-07 -9.385985e-09 1.2518285e-06 6.178743e-08 -4.8933725e-07
-3.2382377e-07 9.845535e-07 4.6525383e-07 1.0126096e-06 1.536173e-07 2.2303357e-07 1.5025944e-07 2.7550777e-07
-4.665344e-07 -5.3524127e-07 -1.9622166e-07 -1.2483579e-06 -2.3712346e-07 1.602948e-07 1.1401862e-06 -7.9815436e-08
2.9102375e-07 1.1203883e-07 1.1940137e-06 7.8800804e-07 6.250484e-07 3.4420736e-07 1.2278324e-06 -1.6797276e-07
4.2875763e-07 9.993819e-07 1.1608063e-07 2.6512134e-07 -5.111342e-07 3.8756298e-07 3.473724e-07 -2.6894486e-07
-1.395947e-07 1.9946174e-07 8.281313e-08 -4.0742452e-07 -5.2823452e-09 -4.709982e-07 -3.0790034e-07 1.159342e-07
-2.3037774e-07 -5.228103e-07 1.563676e-07 -2.548204e-07 1.3712452e-08 -1.6750528e-07 1.9803338e-07 -2.962297e-07
3.4369123e-07 -3.0332626e-07 -2.5981535e-07 1.4227362e-07 9.807263e-08 -1.344182e-07 -9.051337e-08 2.779434e-07
-8.3092246e-08 3.2149865e-07 2.3379562e-07 -7.2381226e-08 1.7220418e-07 3.5815674e-07 -1.34939e-07 2.1792084e-07
-2.996694e-08 -1.1323209e-09 -2.1628921e-07 2.3596158e-07 -7.7953337e-07 6.256778e-07 5.3856274e-07 -2.3551729e-07
-2.5537247e-07 1.9658864e-07 2.9559305e-07 -5.458578e-07 3.5327412e-07 -7.236613e-07 -5.6799036e-07 5.766333e-08
-3.7651625e-07 -8.66301e-07 4.0400846e-07 -6.1973697e-07 1.6633476e-07 1.6327613e-07 6.832488e-07 -5.9705417e-07
1.1254324e-06 -8.322586e-07 -7.4914533e-07 4.4690205e-07 3.93582e-07 -2.958077e-07 -2.6489943e-07 7.867943e-07
-2.1727465e-07 1.0573694e-06 9.4936695e-07 -9.4110874e-08 5.2794894e-07 1.2763849e-06 -5.460897e-07 8.173665e-07
-2.016859e-07 2.1306187e-07 -7.3277624e-07 7.9757956e-07 6.516457e-07 -5.2549694e-07 -4.598387e-07 1.8027254e-07
2.4661585e-07 -1.5272713e-07 -2.1880987e-07 4.5027127e-07 -3.177438e-07 6.1460014e-07 5.5703276e-07 -1.680155e-08
3.287587e-07 7.371673e-07 -3.83523e-07 5.5157216e-07 -1.7886214e-07 -1.837816e-07 -5.7402394e-07 5.1839015e-07
2.6692578e-07 -1.6996637e-08 -1.1658267e-07 6.074879e-08 3.065088e-07 5.304355e-08 2.140896e-07 1.06347215e-07
2.4547262e-08 2.7188798e-07 6.330374e-07 2.2651784e-07 1.4200123e-07 2.423876e-07 -3.3887045e-07 2.0449806e-07
-2.8807335e-07 -2.3122993e-08 1.2641976e-08 1.4256875e-07 1.6820559e-07 -1.4319721e-07 -1.2898181e-07 1.01719706e-07
4.7880576e-08 -8.6718956e-08 2.3555913e-09 1.5387423e-07 3.2219077e-08 1.5658179e-07 1.05500476e-07 -5.0282324e-08
8.3358145e-08 1.5158548e-07 -3.9665338e-08 5.9297236e-08 4.864205e-09 7.8971425e-08 -2.8840077e-08 8.526831e-08
1.3871759e-06 -7.64725e-07 -8.2740917e-07 6.438713e-07 7.160452e-07 -3.157911e-07 1.3839872e-07 9.956857e-07
-1.0213262e-07 1.2777164e-06 1.3785466e-06 1.2912005e-07 6.420087e-07 1.2252276e-06 -7.9776146e-07 7.8611265e-07
-4.7128378e-07 6.796836e-08 -5.909933e-07 7.5278876e-07 3.6085112e-07 -2.7692477e-07 -2.5128247e-07 7.999006e-08
1.6951344e-07 -5.4541488e-08 -1.0140775e-07 2.2327549e-07 -1.6872673e-07 3.5044195e-07 4.020403e-07 3.2622665e-08
1.8958008e-07 4.4609078e-07 -2.6365706e-07 3.512032e-07 -1.4287707e-07 -7.643985e-08 -3.0657975e-07 3.1287163e-07
4.4548506e-07 -3.3860124e-07 -2.9574585e-07 1.6158447e-07 8.182178e-08 -1.5868864e-07 -1.6655031e-07 3.1146192e-07
-6.579285e-08 4.1630847e-07 1.920489e-07 -1.2977762e-07 1.9080835e-07 5.1687675e-07 -1.138651e-07 2.2328459e-07

old_dirs f4 [522]
00000000: 00c0 6db3 80fe cf34 0010 29b4 0069 6934
00000010: 0098 3f32 0085 a334 001e 95b4 80a2 6c35
00000020: 00d8 59b5 0080 8832 0090 5532 00c0 01b4
00000030: 00c4 3834 80eb afb4 0042 1033 00ee 5433
00000040: c060 3fb5 8046 26b5 000e f933 0054 3bb3
00000050: 80fe 2e35 008c 2a35 8007 c7b4 c06c 43b5
00000060: 00a9 f0b3 0070 c3b4 0058 8932 00d8 c533
00000070: 0033 3c35 00c0 0f34 00b4 32b4 00b0 6cb3
00000080: 00da 8935 0008 86b3 80be 8b34 00e0 75b5
00000090: 808c 1fb5 0040 12b5 00f7 6e34 00d8 bdb3
000000a0: 00ae 2635 008b c734 8098 a134 80fc 5335
000000b0: 00ac c3b4 0010 74b3 005a cfb4 0058 2434
000000c0: c0dd 88b5 00d0 8632 0003 0fb5 0084 64b5
000000d0: 408f 22b5 00ce 70b4 0018 d4b4 0068 1fb3
000000e0: 00a8 ae34 00b8 1eb5 007e 3ab5 0022 aeb3
000000f0: 0007 5f34 8038 28b4 00dc 0db4 00d2 3634
00000100: 0034 89b2 a07a 13b4 00e6 6db3 8040 5934
00000110: 8065 8e33 00b5 3934 00ec d9b3 c07d 13b4
00000120: 8097 9133 008e 3634 001e 9a33 0024 cab2
00000130: 803d e733 8056 3d34 0010 2eb3 0016 4a33
00000140: 80f8 46b3 0091 6732 8093 b332 c0ec b7b3
00000150: 0084 5cb2 a09a 2733 80d2 4eb3 40db 82b3
00000160: 0ed3 bfb3 8058 1ab3 0000 4232 0000 bc32
00000170: 007f 59b2 0039 96b2 00b9 a3b2 0042 0333
00000180: 005d aab2 805c 0ab4 808b 69b3 00ff 4732
00000190: 80e5 0535 2082 03b5 8097 d1b4 00b3 a933
000001a0: 0089 2733 700b 5ab4 004b b2b4 c08b cc34
000001b0: c0a4 b6b4 c0eb f434 0020 6432 c08d 35b4
000001c0: 60f8 8134 80aa 0c35 003e b5b3 0087 8d34
000001d0: 0003 3d33 0087 b4b4 40d3 f1b4 80ee b334
000001e0: c016 4db5 c085 1c35 40f9 0735 c078 06b5
000001f0: 0040 e2b2 80d4 eb34 007e 5434 78e8 36b5
00000200: 007a e2b3 60f2 34b5 0080 2332 807e dd34
00000210: 00d5 99b4 80a0 3cb5 00c0 ddb3 0010 70b3
00000220: 003b 91b4 0025 d9b4 0088 4a34 00ce 8ab4
00000230: 005d e1b4 20f8 df34 8063 b434 0098 41b3
00000240: 8029 8fb3 7482 2034 401f 8f34 40bd a6b4
00000250: 303b ad34 4025 d2b4 0028 eab3 80a3 d833
00000260: 40dc 69b4 80e8 f5b4 0020 0b34 c08e 95b4
00000270: 0040 6e32 8077 b334 808f dc34 8081 a9b4
00000280: 0073 a1b4 406e 9134 00d6 8034 0001 8bb3
00000290: 40ae 13b4 00a8 ad33 8004 9533 802f 6cb4
000002a0: 0020 3134 0029 a0b4 80b1 bab4 0080 20b1
000002b0: 40d5 3bb4 800a bcb4 008e 4c34 8096 8ab4
000002c0: 00a8 ce33 00ba 1834 4016 8634 c0c2 85b4
000002d0: 80ea 2933 c0f3 b6b3 8099 6cb3 0094 d8b3
000002e0: 0010 b7b0 00fc 6e32 e0de 06b4 0008 0cb1
000002f0: 6081 54b4 00b8 4133 0006 8732 000e ff31
00000300: c0df 2033 80f8 b233 004b 66b3 00c7 e233
00000310: 40f9 02b3 40f9 8ab4 40da 36b4 0054 c433
00000320: 0078 b9b5 801a ae35 f036 9035 80f5 8fb4
00000330: 80d5 efb4 003e d434 a013 2e35 a054 89b5
00000340: 40a2 7d35 40ef afb5 0026 a1b5 00cf 0734
00000350: 4039 47b5 6015 cab5 80a0 4935 e00c 9fb5
00000360: 403f a834 0043 5a35 e062 c335 f009 9ab5
00000370: 6002 97b4 2008 8334 40a0 6234 002a ccb3
00000380: 00e7 47b3 40f6 0634 0091 d633 8003 72b4
00000390: 00cf c333 40e6 8bb4 0040 77b3 00cf c033
000003a0: a047 10b4 c0ba 9ab4 0094 2d33 0068 ddb3
000003b0: 00a6 ddb2 4047 9333 807e 1c34 80a2 25b4
000003c0: 0098 a633 00c0 9c32 0038 2fb3 00f8 fa33
000003d0: 0063 5d34 0018 8c32 005d 8934 0010 8333
000003e0: 0090 3b34 00f0 d633 00a5 2135 8026 1134
000003f0: 00ea 8f33 0038 9d33 802c 80b4 0089 1334
-5.5355486e-08 3.8741928e-07 -1.5745172e-07 2.1738015e-07 1.1152224e-08 3.0457886e-07 -2.777524e-07 8.815332e-07
-8.115312e-07 1.5890691e-08 1.2430974e-08 -1.208391e-07 1.720764e-07 -3.276764e-07 3.358764e-08 4.9576556e-08
-7.1293834e-07 -6.194241e-07 1.15975126e-07 -4.3615728e-08 6.51904e-07 6.353366e-07 -3.7072095e-07 -7.2801413e-07
-1.1206612e-07 -3.640307e-07 1.5988917e-08 9.2128175e-08 7.010967e-07 1.3387762e-07 -1.6643025e-07 -5.5108103e-08
1.0270742e-06 -6.2413164e-08 2.6029375e-07 -9.1595575e-07 -5.943657e-07 -5.448237e-07 2.2255335e-07 -8.8402885e-08
6.209302e-07 3.7167774e-07 3.0099545e-07 7.897106e-07 -3.6446727e-07 -5.682523e-08 -3.8622238e-07 1.5305704e-07
-1.0197327e-06 1.569424e-08 -5.3276017e-07 -8.5128704e-07 -6.055816e-07 -2.2426684e-07 -3.950554e-07 -3.711466e-08
3.2532262e-07 -5.912734e-07 -6.9473754e-07 -8.108691e-08 2.077104e-07 -1.5666774e-07 -1.3211684e-07 1.7026468e-07
-1.5972546e-08 -1.3735053e-07 -5.5390046e-08 2.0233165e-07 6.630853e-08 1.7295315e-07 -1.0147778e-07 -1.373619e-07
6.7796464e-08 1.700173e-07 7.176641e-08 -2.3532266e-08 1.07679625e-07 1.7633465e-07 -4.0527084e-08 4.70518e-08
-4.6326477e-08 1.3478939e-08 2.0905418e-08 -8.564666e-08 -1.2835699e-08 3.9023348e-08 -4.815456e-08 -6.093478e-08
-8.932521e-08 -3.593641e-08 1.1292286e-08 2.188608e-08 -1.2659939e-08 -1.7488219e-08 -1.9059826e-08 3.056084e-08
-1.9832896e-08 -1.2885903e-07 -5.4376414e-08 1.1641305e-08 4.988033e-07 -4.899066e-07 -3.9039514e-07 7.902236e-08
3.900732e-08 -2.0306993e-07 -3.3209653e-07 3.8099643e-07 -3.4020013e-07 4.5620072e-07 1.3278623e-08 -1.6908507e-07
2.420884e-07 5.2402174e-07 -8.439747e-08 2.6361522e-07 4.400772e-08 -3.3625838e-07 -4.5043453e-07 3.351488e-07
-7.6401557e-07 5.830916e-07 5.0654126e-07 -5.0094604e-07 -2.6338967e-08 4.3926775e-07 1.9789877e-07 -6.813857e-07
-1.0546137e-07 -6.740793e-07 9.516953e-09 4.12565e-07 -2.865345e-07 -7.0269016e-07 -1.0326039e-07 -5.5893906e-08
-2.7051283e-07 -4.044632e-07 1.8862193e-07 -2.5854388e-07 -4.1977182e-07 4.1717522e-07 3.3600008e-07 -4.5074557e-08
-6.666505e-08 1.494862e-07 2.6658563e-07 -3.1057607e-07 3.2266826e-07 -3.914265e-07 -1.090375e-07 1.0088024e-07
-2.1779942e-07 -4.5803972e-07 1.2957025e-07 -2.7857277e-07 1.3867975e-08 3.3428296e-07 4.1082603e-07 -3.1572927e-07
-3.007226e-07 2.7088572e-07 2.3997563e-07 -6.472874e-08 -1.3753834e-07 8.086499e-08 6.939172e-08 -2.1996493e-07
1.6496051e-07 -2.9832154e-07 -3.4774348e-07 -2.3355824e-09 -1.7493312e-07 -3.5025369e-07 1.905064e-07 -2.5814006e-07
9.6231815e-08 1.422377e-07 2.4975634e-07 -2.491488e-07 3.9561655e-08 -8.519373e-08 -5.508764e-08 -1.0085205e-07
-1.331955e-09 1.39107215e-08 -1.2560804e-07 -2.0377229e-09 -1.9791105e-07 4.510366e-08 1.5718797e-08 7.4230684e-09
3.7456402e-08 8.333973e-08 -5.361926e-08 1.0560143e-07 -3.0494675e-08 -2.5885856e-07 -1.702947e-07 9.142241e-08
-1.3818499e-06 1.2971723e-06 1.0744825e-06 -2.681445e-07 -4.467256e-07 3.9533188e-07 6.484861e-07 -1.0231925e-06
9.448595e-07 -1.3108147e-06 -1.2006494e-06 1.2648161e-07 -7.4216587e-07 -1.5056394e-06 7.5111893e-07 -1.185017e-06
3.133846e-07 8.1308826e-07 1.4557409e-06 -1.1476786e-06 -2.812767e-07 2.4406563e-07 2.1106189e-07 -9.50713e-08
-4.654339e-08 1.2569308e-07 9.991527e-08 -2.253928e-07 9.118048e-08 -2.6058296e-07 -5.7567377e-08 8.97835e-08
-1.3437102e-07 -2.8820614e-07 4.0414307e-08 -1.0310032e-07 -2.5803274e-08 6.858181e-08 1.4574653e-07 -1.542594e-07
7.757626e-08 1.8248102e-08 -4.0796294e-08 1.1686643e-07 2.0618245e-07 1.6309059e-08 2.5585905e-07 6.103073e-08
1.7468119e-07 1.0008807e-07 6.021728e-07 1.3518184e-07 6.701521e-08 7.3210686e-08 -2.3874236e-07 1.3740282e-07

old_dirs f4 [522]
00000000: 00b2 5234 c0e1 1eb5 80d3 d834 0096 c3b4
00000010: 0008 5632 0043 f4b4 80ef 2335 c0eb a1b5
00000020: 8086 ff35 00ee 0735 004f 9db3 00cf 9f33
00000030: 00a1 48b5 00df 6834 c052 16b4 00fe 24b4
00000040: 602b b335 e03f a035 c0cb b0b4 00fe b5b3
00000050: e0f8 0fb6 8078 93b5 8082 ed34 009b 8935
00000060: 803a 1634 8026 2f35 801d ddb4 00bc 5cb4
00000070: c08d 0bb6 00fc 1bb5 0060 0435 0007 4234
00000080: 80ab 18b6 002e b9b4 80cf 1bb5 0053 5235
00000090: 008b 6835 a078 8b35 004b aeb4 00a1 2a34
000000a0: 00d1 48b5 0042 9ab4 00bb f9b4 807d 55b5
000000b0: 80ba e135 00d6 97b3 0060 a134 002c 2bb4
000000c0: c05c 1636 0028 b2b2 00d0 de34 00f7 c935
000000d0: e003 7e35 008f 2e34 0004 4ab5 0046 ce34
000000e0: 00b8 efb5 00ce 1835 8052 da35 0082 8033
000000f0: 0017 34b4 0047 9233 00e4 bf33 801b 0eb4
00000100: 00a4 89b2 4015 e133 00f9 61b3 0057 17b4
00000110: 004a 2fb4 0068 1cb4 00ac a733 00d5 b533
00000120: 0020 5eb3 005e 08b4 006c 68b3 00a5 c733
00000130: 00fd 98b3 00c8 08b4 0064 7eb4 0038 7432
00000140: a0a7 12b4 906a 4b34 b089 0f34 0065 cd32
00000150: 0080 c0b2 6058 0933 9001 2c34 0054 c6b3
00000160: c2b3 6034 80e2 10b4 c047 f2b3 0085 bd32
00000170: e080 bcb3 a0d0 55b4 00ca df33 c0c8 62b4
00000180: 80f7 2533 40b2 3334 b0a7 9a34 e0ca 46b4
00000190: 202a 42b5 a05c 4d35 400a 1c35 00c3 a532
000001a0: 0096 ecb2 90b0 7c34 40af 3335 905a 01b5
000001b0: 2047 4235 a021 31b5 0020 1032 c06b 6934
000001c0: 408c c1b4 40eb 68b5 8042 7834 00c8 1cb5
000001d0: 0040 ccb0 0013 4735 c053 5235 4042 27b5
000001e0: 8093 8e35 e0ae 4fb5 40d7 37b5 80da 0135
000001f0: 0040 e633 405e f6b4 c0e7 bab4 6863 5835
00000200: 005c 26b3 80c8 7d35 0060 ee33 00b7 d4b4
00000210: 003d df34 8016 8e35 0030 c1b3 00bc a834
00000220: 00fe 3f34 005c 2a34 0030 6bb4 80d2 0335
00000230: a0ab 1935 505f 1fb5 2071 f7b4 8056 10b3
00000240: c010 8833 d81a 30b4 c09e 04b5 2025 c634
00000250: 18e2 1db5 6080 0e35 0098 c233 00ca 08b4
00000260: 2002 9f34 c019 3a35 0079 7cb4 8096 0435
00000270: 8008 52b3 c019 27b5 00e7 27b5 8041 0835
00000280: 8066 3335 805b cbb4 40dd d8b4 0006 3734
00000290: c086 b634 0050 e0b3 003c 18b3 00d3 de34
000002a0: 806e 42b4 8054 2835 8043 4935 80aa be33
000002b0: 0012 aa34 80f1 2735 807d e2b4 004d e434
000002c0: 000a 8ab4 0030 18b4 c09b b4b4 c0a2 d534
000002d0: c0e8 66b4 50bc a334 00df 6534 00e0 b433
000002e0: 80d1 95b2 80ba 4833 10c2 9d34 0035 0cb4
000002f0: 1807 d034 80c1 61b4 805e a7b3 00fb 2733
00000300: a0b9 14b4 4036 acb4 20a0 2034 203c abb4
00000310: 80c8 6333 c0df d134 a091 e934 d027 9cb4
00000320: 802f 2436 e858 07b6 80bd e6b5 406b 0235
00000330: c085 4135 c0b8 25b5 e8fc 94b5 2096 e235
00000340: 002b c6b5 801d 1736 0086 ec35 802b 62b4
00000350: 2026 9f35 3044 2836 a027 a4b5 e0fb fc35
00000360: a0b6 04b5 e032 94b5 1091 1db6 40bf f335
00000370: 80a7 f234 a01b d3b4 205d b4b4 0070 cd33
00000380: 80d8 c833 00db 24b4 001f 5cb4 2009 aa34
00000390: c092 5ab4 20ad e134 0050 1634 80a3 c7b3
000003a0: 60cf 6d34 e0db 0835 0075 2cb4 001c 9734
000003b0: 00fc fbb2 20a3 4bb4 00c9 7eb4 8004 aa34
000003c0: 0057 91b4 0058 cb33 006a 0934 009a c7b4
000003d0: 80a0 81b4 00c6 9e33 007a 83b4 0063 98b4
000003e0: 00d9 8cb4 00c6 81b4 806f 3fb5 001a 8eb3
000003f0: 008e f2b3 002c 11b4 0013 6234 0022 3ab4
1.962253e-07 -5.9188096e-07 4.0387022e-07 -3.643072e-07 1.2458258e-08 -4.549729e-07 6.107075e-07 -1.2064047e-06
1.9038125e-06 5.0637755e-07 -7.325252e-08 7.4416675e-08 -7.474009e-07 2.168781e-07 -1.3999943e-07 -1.5366095e-07
1.3349163e-06 1.1939519e-06 -3.2930802e-07 -8.4746716e-08 -2.1453525e-06 -1.0987424e-06 4.423964e-07 1.0252406e-06
1.3991121e-07 6.5248605e-07 -4.1185922e-07 -2.055749e-07 -2.0795123e-06 -5.810871e-07 4.931353e-07 1.8070205e-07
-2.2749591e-06 -3.4492405e-07 -5.804395e-07 7.835188e-07 8.6629007e-07 1.0391414e-06 -3.2464595e-07 1.5891055e-07
-7.480994e-07 -2.8732757e-07 -4.6515925e-07 -7.953131e-07 1.6818085e-06 -7.070412e-08 3.0058436e-07 -1.5941623e-07
2.240573e-06 -2.0740117e-08 4.1502062e-07 1.5047553e-06 9.462801e-07 1.6257036e-07 -7.5256685e-07 3.8421422e-07
-1.7860439e-06 5.692418e-07 1.6266276e-06 5.984111e-08 -1.6772174e-07 6.8115696e-08 8.9356035e-08 -1.3234785e-07
-1.6023478e-08 1.0481244e-07 -5.261336e-08 -1.4094621e-07 -1.6325066e-07 -1.4566467e-07 7.80783e-08 8.467214e-08
-5.1717507e-08 -1.2700184e-07 -5.4114935e-08 9.296673e-08 -7.124072e-08 -1.2738747e-07 -2.3691973e-07 1.4215402e-08
-1.3658291e-07 1.8944615e-07 1.3368003e-07 2.391107e-08 -2.240995e-08 3.1978175e-08 1.6019317e-07 -9.235373e-08
2.0927021e-07 -1.3493445e-07 -1.12820544e-07 2.2062977e-08 -8.7778744e-08 -1.9913068e-07 1.042099e-07 -2.1120923e-07
3.8642156e-08 1.6735521e-07 2.8806744e-07 -1.8513992e-07 -7.233193e-07 7.650324e-07 5.8129444e-07 1.9297204e-08
-2.7542228e-08 2.3533562e-07 6.693772e-07 -4.818803e-07 7.237413e-07 -6.598657e-07 8.389179e-09 2.1739015e-07
-3.6051097e-07 -8.676907e-07 2.3120992e-07 -5.8405567e-07 -1.4861143e-09 7.4160926e-07 7.835297e-07 -6.2308754e-07
1.0622753e-06 -7.7367986e-07 -6.848604e-07 4.8374204e-07 1.0721851e-07 -4.5889647e-07 -3.481382e-07 8.0610926e-07
-3.873356e-08 9.454161e-07 1.1100201e-07 -3.9621227e-07 4.158137e-07 1.0586373e-06 -8.995994e-08 3.1429227e-07
1.7880666e-07 1.5865953e-07 -2.1903543e-07 4.910762e-07 5.724669e-07 -5.9370814e-07 -4.6089644e-07 -3.3606284e-08
6.33604e-08 -1.6401043e-07 -4.9404844e-07 3.6907386e-07 -5.881607e-07 5.308593e-07 9.0614776e-08 -1.2739474e-07
2.9617604e-07 6.932787e-07 -2.3513348e-07 4.939284e-07 -4.8902166e-08 -6.224982e-07 -6.25485e-07 5.0759263e-07
6.6831853e-07 -3.7878272e-07 -4.0394116e-07 1.7045386e-07 3.3998185e-07 -1.0445365e-07 -3.5444828e-08 4.1504245e-07
-1.8107858e-07 6.270784e-07 7.497656e-07 8.878578e-08 3.1678064e-07 6.2563777e-07 -4.2187094e-07 4.2524334e-07
-2.571178e-07 -1.4173565e-07 -3.3640936e-07 3.9792758e-07 -2.1505093e-07 3.049813e-07 2.1408414e-07 8.4226485e-08
-1.7441153e-08 4.673575e-08 2.9384728e-07 -1.3057797e-07 3.874818e-07 -2.1025153e-07 -7.793733e-08 3.9111e-08
-1.3851104e-07 -3.207697e-07 1.4959414e-07 -3.189498e-07 5.303491e-08 3.9092083e-07 4.3505588e-07 -2.9086232e-07
2.4465553e-06 -2.0168318e-06 -1.7191487e-06 4.8584843e-07 7.2092735e-07 -6.1736137e-07 -1.1100465e-06 1.6882004e-06
-1.4764664e-06 2.2517925e-06 1.7622369e-06 -2.1063715e-07 1.1857519e-06 2.5073641e-06 -1.2230485e-06 1.8848768e-06
-4.9439586e-07 -1.1041666e-06 -2.347926e-06 1.8160572e-06 4.5197885e-07 -3.9321912e-07 -3.359537e-07 9.566429e-08
9.352607e-08 -1.5353362e-07 -2.0500374e-07 3.1671607e-07 -2.035622e-07 4.203548e-07 1.3998942e-07 -9.2964e-08
2.2147788e-07 5.098391e-07 -1.6061313e-07 2.8146314e-07 -2.9334842e-08 -1.8965193e-07 -2.3728717e-07 3.1668242e-07
-2.7071655e-07 9.468931e-08 1.2797682e-07 -3.7178688e-07 -2.4144902e-07 7.393464e-08 -2.4489418e-07 -2.8384238e-07
-2.623492e-07 -2.4172186e-07 -7.13153e-07 -6.61712e-08 -1.1294833e-07 -1.3520184e-07 2.1054802e-07 -1.7334969e-07

old_dirs f4 [522]
00000000: 009c 4eb4 00a3 3c34 0009 95b4 0090 c5b2
00000010: 00e0 85b1 0031 4f34 0035 2db5 00da cb34
00000020: 004e 93b5 004c 07b5 00a0 b533 00e8 2db2
00000030: 00dd 0435 0080 ea32 0040 61b0 0060 7631
00000040: 002f 60b5 c09e 5db5 00ae e333 0050 30b3
00000050: 806a 5435 00e2 f734 806e a3b4 40d8 19b5
00000060: 0074 17b3 8039 71b4 0060 ad33 0084 1c34
00000070: 00a7 9635 0004 4b35 007f 91b4 80b6 9eb4
00000080: 00cf b835 00f3 2a35 0057 1835 002b 12b5
00000090: 8034 33b5 00e3 31b5 002c 8534 0080 e530
000000a0: 00f7 9a34 0000 5f33 00fe 7934 0070 ca33
000000b0: 00ef 39b5 0017 c433 00e8 9734 0090 e231
000000c0: 0077 acb5 0054 4fb3 00c0 a5b4 802d 18b5
000000d0: c06b a4b4 008c 67b3 0022 0a35 0052 92b4
000000e0: 0006 5f35 002c bbb4 0062 7cb5 0004 0933
000000f0: 0059 feb3 00a6 dd33 00e7 c033 00fe 80b3
00000100: 008a 92b3 00b2 ef32 0080 5d31 00ef c9b3
00000110: 0000 7432 005b f9b3 00dc 4eb4 0040 29b2
00000120: 80c2 90b3 0010 0fb4 0070 e033 80a7 0fb4
00000130: 00ec 7433 0066 2ab3 008e da33 0077 f1b3
00000140: c0cb 5134 d0b1 3db4 7062 22b4 8072 8a33
00000150: c040 8333 e051 96b3 80cb 75b3 c0a8 2234
00000160: 7ffd 8cb3 c068 4734 e058 2534 807c 11b3
00000170: 6028 da33 20d4 6134 c054 c1b3 6057 1334
00000180: 00d9 ebb2 80b2 00b3 20c3 0fb4 a00d 1a34
00000190: 0086 5834 8018 63b4 0073 32b4 8097 94b3
000001a0: 00f0 9eb2 c089 a8b3 0048 6ab4 40b1 0b34
000001b0: 00a7 9ab4 0071 4434 0008 91b3 40c2 aab3
000001c0: 8031 d733 0074 5c34 00e0 69b1 0090 b033
000001d0: 00cc 2833 002b e6b4 807a 47b4 0054 0734
000001e0: 0045 53b4 0005 a733 0014 e033 8001 0db4
000001f0: 0050 c132 003f 2934 0098 b8b2 4034 3eb4
00000200: 00f6 ecb3 80dc 33b4 0054 0134 0000 2934
00000210: 005a 55b3 0042 e5b3 00c0 26b4 00a6 6634
00000220: 00a5 28b4 00e0 04b3 00f6 7eb4 001a b133
00000230: 004e 1db4 80b9 2e34 0056 0634 c034 a933
00000240: 0060 ee31 2086 3933 c071 4234 8027 b8b3
00000250: 80d3 8d34 8081 10b4 0000 bb32 801c 2c33
00000260: 4092 a9b3 0090 29b4 00a8 dd32 00a6 c7b3
00000270: 008a 04b2 c0c4 ce34 007b 4334 0029 f3b3
00000280: 00c5 55b4 8037 0d34 8049 1134 0032 a3b3
00000290: 0079 f3b3 0050 6033 00e4 90b2 8037 27b4
000002a0: 002e 7c33 003e 4ab4 0069 87b4 00e4 d3b2
000002b0: 807c e3b3 00cf 3db4 00b8 f033 0008 efb3
000002c0: 00f4 9933 001d 8b33 00a5 ce33 0094 f4b3
000002d0: 6097 5634 4025 57b4 4055 31b4 0000 7032
000002e0: 40da 5733 c0a0 8ab3 00f1 e5b3 408c 1a34
000002f0: 70b5 22b4 40b0 4c34 80bc f733 00d6 06b3
00000300: 40c7 ed33 c048 7034 00a2 c5b3 4036 2734
00000310: 409f 01b3 004a 33b4 000b 3eb4 00dc 2e34
00000320: 00f0 96b5 70ce 8135 804d 5935 007e 8db4
00000330: 0012 bdb4 c0d6 a634 7095 0e35 40e0 61b5
00000340: c033 5335 c0b7 8ab5 808d 86b5 400d cd33
00000350: c0b0 16b5 c0b8 96b5 4015 1435 c057 6db5
00000360: 00a2 7434 c0dc 2f35 20d2 a135 800f 64b5
00000370: 4090 12b4 801d d733 00d0 d533 00f2 ffb2
00000380: 002e d4b2 8044 9133 0050 bf32 8062 e6b3
00000390: 00a7 3833 8038 07b4 00a0 fcb1 0096 3033
000003a0: 4074 8bb3 002d f8b3 00a0 09b1 0070 be31
000003b0: 00ea adb2 c09f ee33 009c 92b2 0000 25b3
000003c0: 0059 ba34 0088 61b4 0052 66b4 00c1 9f34
000003d0: 00bf 5334 00fe 01b4 00d0 ed33 00bd a234
000003e0: 00e3 2f34 0033 b034 8080 1635 0068 59b2
000003f0: 004e 2c34 006c ad34 00ed 66b4 003e 7034
-1.9241998e-07 1.7568163e-07 -2.775996e-07 -2.2999302e-08 -3.8962753e-09 1.9296203e-07 -6.452465e-07 3.7970312e-07
-1.0975054e-06 -5.0402014e-07 8.457573e-08 -1.0122676e-08 4.949543e-07 2.7299393e-08 -8.194547e-10 3.5852281e-09
-8.3514897e-07 -8.255993e-07 1.06021616e-07 -4.1050953e-08 7.913113e-07 4.6171772e-07 -3.0441515e-07 -5.7311627e-07
-3.526293e-08 -2.2465792e-07 8.0734026e-08 1.4576653e-07 1.1224474e-06 7.5629214e-07 -2.710076e-07 -2.956258e-07
1.3769313e-06 6.3683547e-07 5.6751014e-07 -5.445181e-07 -6.6759094e-07 -6.6267967e-07 2.4805195e-07 1.6698323e-09
2.8864451e-07 5.1921234e-08 2.3282337e-07 9.426731e-08 -6.926566e-07 9.131145e-08 2.8294744e-07 6.5938366e-09
-1.2849632e-06 -4.827234e-08 -3.0873343e-07 -5.6690624e-07 -3.062578e-07 -5.3911208e-08 5.145848e-07 -2.7254282e-07
8.3082705e-07 -3.4863479e-07 -9.4019924e-07 3.1901436e-08 -1.1843986e-07 1.032131e-07 8.9827154e-08 -6.006667e-08
-6.823757e-08 2.7904207e-08 3.2232492e-09 -9.403266e-08 1.4202669e-08 -1.1611519e-07 -1.926528e-07 -9.851647e-09
-6.740902e-08 -1.3323734e-07 1.04511855e-07 -1.3378849e-07 5.7025318e-08 -3.9673978e-08 1.0177246e-07 -1.1244083e-07
1.9538766e-07 -1.7666684e-07 -1.5123237e-07 6.446953e-08 6.111941e-08 -6.999812e-08 -5.722859e-08 1.5148817e-07
-6.565369e-08 1.8571427e-07 1.5399155e-07 -3.3873675e-08 1.015876e-07 2.1031929e-07 -9.002679e-08 1.3722229e-07
-2.745628e-08 -2.9964667e-08 -1.3388899e-07 1.4347324e-07 2.0165317e-07 -2.1149935e-07 -1.6619379e-07 -6.919345e-08
-1.850276e-08 -7.848166e-08 -2.1819142e-07 1.3009867e-07 -2.8806244e-07 1.8295032e-07 -6.753544e-08 -7.951576e-08
1.0020722e-07 2.0531297e-07 -3.4033292e-09 8.221832e-08 3.9301085e-08 -4.2872125e-07 -1.8577884e-07 1.2603414e-07
-1.9676008e-07 7.777453e-08 1.0434451e-07 -1.3132194e-07 2.2504537e-08 1.5762271e-07 -2.148954e-08 -1.7714137e-07
-1.10343535e-07 -1.6750892e-07 1.204462e-07 1.5739352e-07 -4.967478e-08 -1.0675649e-07 -1.5529804e-07 2.148081e-07
-1.5706246e-07 -3.093737e-08 -2.3745088e-07 8.246934e-08 -1.465014e-07 1.6272497e-07 1.2511009e-07 7.879271e-08
6.9376256e-09 4.3195655e-08 1.810904e-07 -8.575353e-08 2.6417183e-07 -1.3458157e-07 2.1769665e-08 4.007279e-08
-7.8962785e-08 -1.5791738e-07 2.5804184e-08 -9.296855e-08 -7.714789e-09 3.8513645e-07 1.8205537e-07 -1.1323027e-07
-1.9908839e-07 1.3151839e-07 1.3530916e-07 -7.599374e-08 -1.1337579e-07 5.2226824e-08 -1.6867489e-08 -1.5573278e-07
5.871516e-08 -1.8835271e-07 -2.5222107e-07 -2.4667315e-08 -1.05931576e-07 -1.7677303e-07 1.120934e-07 -1.113076e-07
7.169001e-08 6.477967e-08 9.622636e-08 -1.13890565e-07 1.9985373e-07 -2.0036987e-07 -1.6515423e-07 1.3969839e-08
5.0257086e-08 -6.455366e-08 -1.0707481e-07 1.439339e-07 -1.5153432e-07 1.90631e-07 1.1536122e-07 -3.1393938e-08
1.1072416e-07 2.2378208e-07 -9.202995e-08 1.5572823e-07 -3.017999e-08 -1.6697595e-07 -1.769913e-07 1.6285048e-07
-1.124572e-06 9.67133e-07 8.0951577e-07 -2.6354974e-07 -3.521709e-07 3.107616e-07 5.311658e-07 -8.414536e-07
7.867893e-07 -1.033528e-06 -1.002496e-06 9.5484666e-08 -5.613656e-07 -1.122964e-06 5.516522e-07 -8.8417073e-07
2.2783206e-07 6.5513814e-07 1.2056589e-06 -8.4959174e-07 -1.3649787e-07 1.0017084e-07 9.9564204e-08 -2.9795956e-08
-2.4700967e-08 6.764549e-08 2.2271706e-08 -1.0728127e-07 4.2992724e-08 -1.259341e-07 -7.352355e-09 4.1114617e-08
-6.493838e-08 -1.15565854e-07 -2.0027073e-09 5.5424607e-09 -2.0246262e-08 1.1111797e-07 -1.7067578e-08 -3.8417056e-08
3.4709956e-07 -2.1004234e-07 -2.145025e-07 2.9756484e-07 1.9720392e-07 -1.2106466e-07 1.10740075e-07 3.0312367e-07
1.6380727e-07 3.2819662e-07 5.6066347e-07 -1.2654709e-08 1.6047125e-07 3.2302341e-07 -2.150664e-07 2.2374297e-07
