tutorials/tutorial 5/lightning_logs/version_9/checkpoints/epoch=34-step=35.ckpt (torch, 536909 bytes, 208 tensors)

_pina_model._model.layers.0.weight f4 [20, 3]
000000 8a 03 21 be da 33 09 3f bb 49 81 be 1e f5 6b be
       -0.15724006 0.53594744 -0.25251564 -0.23042724
000010 38 f8 09 3f 44 95 15 3f dd 52 51 3e dd f6 0f bf
       0.53894377 0.58430886 0.20441766 -0.5623606
000020 27 50 0d bf 86 88 b2 3e cf 25 2c be ea 2b b7 3d
       -0.5520043 0.34869784 -0.16811298 0.08943923
000030 bb d4 e9 3e c9 72 89 be fe 49 93 3e 23 c6 cb bc
       0.45670113 -0.26845387 0.2876739 -0.024874752
000040 3d c7 fd 3e b5 77 19 3d de 40 0a bc 5d 95 bd be
       0.4956607 0.037467677 -0.008438317 -0.37028018
000050 89 e9 83 be e5 3a ae 3e 36 50 38 be f3 d3 b1 be
       -0.2576411 0.34029308 -0.17999348 -0.34732017
000060 42 d4 7c 3e ab 34 22 3d 3f 7b c2 be ae d1 aa 3e
       0.24690345 0.03960101 -0.37984654 0.33363098
000070 d5 98 6b 3d 54 a1 77 3e ce 2e 9d be 8d 4a 8e 3e
       0.0575188 0.24182636 -0.30699772 0.27791253
000080 3b b6 de 3d ee 83 9e 3e 8d 71 ec be 81 3b ed be
       0.108746015 0.3096003 -0.46180382 -0.4633446
000090 39 ba bf 3e 79 26 fe be 15 50 e9 be a4 3f 56 3e
       0.37446764 -0.49638727 -0.4556891 0.20922714
0000a0 1d a9 a0 3e 53 e7 00 3e 1d cb ec 3d 8e e5 5c 3e
       0.31379023 0.12588243 0.11562178 0.21571943
0000b0 ca 0f 03 bf ad 6a 57 bd a7 d8 b8 be f5 a9 63 be
       -0.5119597 -0.05259197 -0.36102793 -0.22232802
0000c0 1b 7b e3 bd 44 c0 ba 3d 7a 51 11 3f 47 83 b9 be
       -0.11107465 0.09118703 0.5676495 -0.3623297
0000d0 3c 35 99 be 28 f0 57 be e2 f3 0f 3e ea 2c ec 3e
       -0.29923427 -0.21087706 0.14057878 0.46128017
0000e0 ff 4a 14 3f 78 f5 c1 3e 45 46 04 be 57 80 7e 3d
       0.57926935 0.3788259 -0.1291743 0.062134113

_pina_model._model.layers.0.bias f4 [20]
000000 d8 c5 e9 3c 07 df c9 bd 68 e1 0c be ed 0d 45 3e
       0.028536722 -0.09856992 -0.1375786 0.19243594
000010 7b 02 63 3d 63 04 2e be d9 38 ab be 87 6f d0 3d
       0.055422287 -0.16993861 -0.3344181 0.10177522
000020 e4 14 e1 be bb 74 40 3d fc 9a 11 3f 8f 05 9b 3e
       -0.4396125 0.046986323 0.5687711 0.30277678
000030 69 25 99 3e 64 d9 6e be dd d8 17 3e cb 75 f8 3d
       0.29911354 -0.23325115 0.1482882 0.12131842
000040 78 d3 fc 3e a2 77 04 3f fb 28 c8 3d 3e aa f6 be
       0.49380088 0.51745045 0.097734414 -0.4817676

_pina_model._model.layers.2.weight f4 [20, 20]
000000 c4 ac 19 be 93 c1 87 bd 3d 91 2c 3e 0f fe 07 3e
       -0.15007311 -0.06628718 0.16852279 0.1328051
000010 97 c7 44 be ff e8 27 3e 23 fc 1a 3e a6 47 e9 bd
       -0.19216762 0.16397475 0.15135245 -0.11390619
000020 c3 e1 0e 3e 26 3e 38 be 67 63 3d be 91 9f ec 3d
       0.13953309 -0.17992458 -0.1849495 0.115538724
000030 4f c5 be 3c 03 f2 3c be 37 c9 ea bd c4 b9 a0 3d
       0.023287443 -0.18451695 -0.1146416 0.07847932
000040 61 97 c5 bd 8f 9a a5 bd 58 da 39 be b3 b2 28 be
       -0.09648014 -0.0808612 -0.18149698 -0.16474418
000050 c0 f8 be bd d5 a5 89 bd 77 b5 a1 3d 1b 73 28 be
       -0.09324789 -0.06721083 0.0789594 -0.16450159
000060 11 24 03 3e 7d 41 69 3d 7e 80 fe bc ab dc 53 be
       0.12806727 0.05694722 -0.03106713 -0.20689647
000070 9f f7 50 bd 64 b1 57 3b 5e be 18 be e1 69 40 3e
       -0.0510174 0.003291213 -0.1491637 0.1879039
000080 de 54 65 3d 40 0f 4f bd 17 3a 38 be ca da 0e be
       0.05598914 -0.050551653 -0.1799091 -0.13950649
000090 65 dd 1d be c4 3c 45 be 7e f6 d5 3c 83 d5 b0 3c
       -0.15416487 -0.19261461 0.026118513 0.021586185
0000a0 28 b7 b4 bd 60 58 66 bd 1f b2 2d 3e 20 d5 2a 3e
       -0.08823997 -0.056236625 0.16962479 0.16682863
0000b0 07 bf 36 bd 8e 77 a8 bd bc 1b bc bd a4 0d 1b 3e
       -0.04461577 -0.08225928 -0.091849774 0.15141922
0000c0 7d 0f 35 be bd 37 60 be 94 a8 7b 3d 3f b9 74 bd
       -0.1768169 -0.21896262 0.061440066 -0.059746977
0000d0 9a 95 99 3a 05 56 10 3e 4c 8f 1f 3e 70 91 c6 3c
       0.0011717558 0.14095314 0.15582007 0.024239272
0000e0 eb c8 b9 3d 12 5a d4 bb 8a fa 5d 3e 53 9d 2c bd
       0.09071525 -0.006480464 0.21677604 -0.042142224
0000f0 17 d4 11 be 3b ff 3c bd 2f f9 12 be ca 0c b1 3c
       -0.14241062 -0.046141844 -0.14352868 0.021612544
000100 c9 87 c5 3d 7e c4 4e 3e 40 b0 23 3e 23 be 50 3e
       0.096450396 0.20192143 0.15985203 0.20385031
000110 45 a1 b2 3b 44 c6 6d bd b3 b9 4d 3e 70 ab 17 be
       0.0054513537 -0.05805041 0.2009037 -0.14811492
000120 40 40 25 3e d7 e6 8c bd 31 07 a6 bd 8f b0 43 3e
       0.1613779 -0.06879967 -0.081068404 0.1911032
000130 1d 3e 10 3e 02 bc b2 3d 9e 7b d4 ba cb 41 3e 3e
       0.14086194 0.08727266 -0.0016211157 0.18579786
000140 c5 f3 94 3c 6b 04 7c bd 58 96 8e bd 88 df ba 3d
       0.018182645 -0.06152765 -0.069622695 0.091246665
000150 72 cb 63 3e f5 06 03 be e3 1e 93 bd 49 4d e8 3d
       0.22245577 -0.12795623 -0.071836255 0.11342866
000160 52 1a ef 3c d6 ac 42 3e 4b 5e 33 be bd d8 5f be
       0.029187355 0.19011244 -0.17516439 -0.21860023
000170 9a ef 37 3e c7 49 a2 3c 8f e5 36 be 45 0c 9c 3c
       0.17962494 0.01981057 -0.17861007 0.01904882
000180 45 b6 66 bd b4 61 23 3d 47 68 0f be f3 12 26 be
       -0.05632617 0.0398881 -0.14004622 -0.16218166
000190 c1 e3 5a bd f7 5f cf bd 00 97 66 3e 83 13 4d bd
       -0.05343986 -0.10125726 0.2251854 -0.050067436
0001a0 56 b8 1c 3c 60 45 a6 bd 44 c9 5a be b7 89 e3 bc
       0.0095654335 -0.08118701 -0.21365839 -0.027775628
0001b0 84 41 5e be ec e1 5d be 83 b8 60 be ed f1 ec bd
       -0.2170468 -0.21668214 -0.21945386 -0.11569581
0001c0 44 f7 cf bd 76 b6 a6 3d 45 dd 0c 3e f0 b0 54 3e
       -0.10154584 0.081402704 0.13756283 0.20770621
0001d0 ad dc 2b 3e 98 46 21 3e 22 dc 92 bd de a4 56 3e
       0.167834 0.15749586 -0.07170893 0.2096133
0001e0 c0 b0 85 3c 0c 36 14 3d 4a 6a e1 bd 29 e0 39 be
       0.016319633 0.036184356 -0.11006601 -0.18151917
0001f0 34 93 66 3d cb 08 e0 3d c3 31 63 3e 47 b4 ff bd
       0.056292728 0.10939177 0.22186951 -0.12485557
000200 6e 21 40 be 83 3a 98 bd 70 51 99 3d 70 11 55 3e
       -0.18762752 -0.07433035 0.07486236 0.20807433
000210 13 58 61 be ee 5d 0f 3e 3b 0d 4d 3e 32 8c 58 3a
       -0.22006254 0.14000675 0.20024578 0.0008260637
000220 bf fb 74 bd be 65 37 be 06 9c 25 be 35 e6 2a 3e
       -0.059810396 -0.17909905 -0.161728 0.1668938
000230 a3 0c 11 be 89 16 50 3d 3d 57 04 3d 29 65 57 3e
       -0.14164977 0.05080274 0.03230976 0.21034683
000240 61 bb 97 3b 45 68 20 bd 57 f8 17 3e 6d 8d 8c ba
       0.0046304916 -0.03916194 0.14840828 -0.00107233
000250 8a f5 77 bd 41 dd 0c 3e 26 aa 41 3e 58 cf 14 3e
       -0.0605369 0.13756277 0.18912563 0.1453222
000260 83 f7 e1 3d d0 e6 50 3e 67 27 cd bc b7 d9 d7 3c
       0.11033537 0.20400548 -0.025043203 0.026348932
000270 e7 5b 64 3e 18 bb 5d be 36 d1 37 bc 1f f1 4c be
       0.22300683 -0.21653402 -0.011219313 -0.20013855
000280 6f 3f ab 3d 20 d2 d6 3b 84 cd 7e bd 64 b6 21 3e
       0.083617084 0.0065558106 -0.062207714 0.15792233
000290 38 09 2e 3e 27 8f f4 3d 78 b8 e1 3d f2 a0 cf 3d
       0.16995704 0.11941367 0.11021513 0.1013812
0002a0 3a 71 19 3e d2 fe 8e bd ee 05 0c 3e 70 18 00 be
       0.14984599 -0.06982197 0.13674137 -0.12509322
0002b0 02 10 d2 bd 3e e8 11 be d9 e0 5e be 7a 7b 14 3e
       -0.102569595 -0.1424875 -0.2176546 0.14500228
0002c0 2f b1 49 3d 7d 1e 63 be 27 90 3d 3e 40 c6 49 3e
       0.04924124 -0.22179599 0.18512021 0.19704533
0002d0 b5 a8 9e bd 2c d3 2a 3e de d5 dc bb e5 11 06 be
       -0.07747022 0.16682118 -0.006739362 -0.13092764
0002e0 fe ac 58 3d 60 d7 3e 3e 63 08 2a be e4 f4 a0 bd
       0.052899353 0.18636847 -0.16604762 -0.07859209
0002f0 f9 f1 44 be c6 2c c5 bc 2f 71 29 3e f1 96 57 be
       -0.1923293 -0.024069201 0.16547082 -0.21053673
000300 07 25 aa bc f6 b2 3b 3e 96 fe 31 be 3b 11 21 be
       -0.02076961 0.18329987 -0.17382273 -0.15729229
000310 31 3a b3 bd 95 0f 46 bd 2f a6 e1 bd de 93 ee bd
       -0.087513335 -0.048354704 -0.11018025 -0.11649297
000320 7b 74 f7 3d f3 5e 33 be 7d 0f 77 ba 28 22 31 3e
       0.12082764 -0.17516689 -0.000942461 0.17298186
000330 c5 30 65 3e 3a 8a 25 be 63 29 15 be 77 fa 0e bc
       0.22381885 -0.1616601 -0.14566569 -0.008726708
000340 21 ac 46 be 7f e5 3f 3c 97 9c ab bc cf dc 48 be
       -0.194016 0.011712431 -0.020948691 -0.19615482
000350 6a 90 1d 3e af 7c 25 3c da 41 1b be ff 13 ce bd
       0.15387121 0.010100528 -0.15161839 -0.10062408
000360 ee d0 24 3e db a3 0d 3e cd 0d 07 bd 40 fb 4b be
       0.16095325 0.13832037 -0.032972146 -0.19920063
000370 df 55 4c 3d 24 7c 53 3d ff 49 20 3e d3 8b 11 bd
       0.04988658 0.05163206 0.15653227 -0.035533737
000380 9a 14 4c 3e b2 32 47 be 18 f6 41 be 48 a6 31 be
       0.19929734 -0.19452932 -0.18941534 -0.17348588
000390 ba 22 3b bc a5 24 4f bc 00 8e 93 3d bb a0 6d 3d
       -0.011421854 -0.012643014 0.07204819 0.058014613
0003a0 a5 de 78 3c 8f 97 32 3e 24 de e8 3c ef e5 11 3d
       0.015189801 0.17440628 0.028426237 0.035619672
0003b0 76 ce 2c bc 6b 6f 05 be bd 5f 05 3e ea 74 a2 bd
       -0.010547271 -0.13030784 0.13024803 -0.07932456
0003c0 5b 20 e8 bd 2c e0 98 bd df c0 0a be f0 4a 36 3e
       -0.11334296 -0.074646324 -0.13550137 0.17802024
0003d0 9f 5f 4f 3e 7c 34 8a bd c1 6b 1f be 04 2a e1 3d
       0.2025132 -0.06748292 -0.15568449 0.10994342
0003e0 b8 0a 5e 3d dd e2 25 3e 66 65 a8 3d 2b b2 05 3e
       0.05420944 0.16199823 0.08222465 0.13056247
0003f0 70 8f 40 3e 3c 92 fb 3d 94 83 05 3e 88 53 46 be
       0.18804717 0.12283751 0.13038474 -0.19367802

_pina_model._model.layers.2.bias f4 [20]
000000 6b 22 e5 3d 64 c5 68 3d 5e 7b 8e 3d 47 2f fe 3c
       0.11188205 0.05682887 0.06957124 0.031028403
000010 85 53 44 bd 28 64 17 be ad 8d b0 3d 28 83 59 3e
       -0.047931213 -0.147843 0.086207725 0.21241438
000020 c1 aa 26 be 38 32 38 3e f2 32 e2 bd 5f 3c 9c 3b
       -0.16276075 0.17987907 -0.11044873 0.004767939
000030 32 8d 4d be e1 ef 28 be 53 b9 13 be bb 55 60 3d
       -0.20073393 -0.16497757 -0.14426164 0.05476926
000040 33 e6 4e 3e 48 d3 88 bd 0f 9c a2 3d 04 d7 1f be
       0.20205002 -0.06680924 0.07939922 -0.15609366

_pina_model._model.layers.4.weight f4 [2, 20]
000000 01 3b 35 3e 85 cb 69 be 77 38 76 3c 87 d0 47 be
       0.1769829 -0.22831543 0.015028111 -0.1951314
000010 62 5a 24 bd 57 d6 85 bd a2 b5 90 bd 67 1b 7f 3d
       -0.04012526 -0.06535023 -0.07065894 0.062281992
000020 7f 45 aa bb b8 06 89 bc 9c 75 26 3e 88 ee 94 bd
       -0.005196273 -0.016726837 0.16255802 -0.07272059
000030 be f8 15 3e 4d 0a 5b be 67 db 2f be 06 bb 84 3d
       0.14645669 -0.21390648 -0.17173539 0.064809844
000040 8e bc 5a bc 40 be 2b 3e b5 8d 8b be 62 de 28 3d
       -0.013350619 0.16771793 -0.2725655 0.041227706
000050 c8 47 45 3e 5f f7 ca 3d 18 35 6e 3d 61 73 0c be
       0.19265664 0.099104635 0.058156103 -0.13715889
000060 6b 4a 15 3d e7 bd bf 3d a3 e1 85 bd bb 18 17 be
       0.036447924 0.09362393 -0.065371774 -0.14755528
000070 dd ad d9 3d 5c 3d 22 be bc 30 c0 3d 01 3e 20 bd
       0.10628865 -0.15843719 0.09384295 -0.03912163
000080 77 85 a2 bd 32 ff 7e bd dc 32 a4 3d c2 72 d2 3d
       -0.07935613 -0.062255092 0.08017513 0.102757946
000090 61 29 f1 bd 44 22 86 bd cd 72 2e 3e 48 c9 28 3e
       -0.117754705 -0.065495044 0.1703598 0.16483033

_pina_model._model.layers.4.bias f4 [2]
000000 30 25 20 be 76 e8 3c 3e
       -0.15639186 0.18448052

d f4 [542]
000000 d0 ff 72 bc 11 43 97 bc a1 7b 82 bc 06 36 1b bc
       -0.014831498 -0.018464597 -0.015928091 -0.009473329
000010 0a cf 37 bb ee 45 1b bb ec 53 06 3c 8b 2e 19 bc
       -0.002804699 -0.0023692804 0.0081987195 -0.009349476
000020 05 cc 49 ba 98 80 49 3c 98 d7 86 ba 48 8a a7 ba
       -0.0007697943 0.012298726 -0.0010287641 -0.00127823
000030 47 c0 c7 3b 6e 1b d4 ba bd af e0 ba 32 95 c2 3b
       0.0060959193 -0.0016182491 -0.0017142218 0.0059381956
000040 d8 a7 1b 3c 0b e6 31 3c d5 b5 ea 3a 54 a0 da 3b
       0.009500466 0.010858069 0.0017906973 0.0066719446
000050 d4 06 97 3b 8e ee 8a 3a 2b 13 d9 3a af af c8 3a
       0.0046089683 0.0010599659 0.0016561499 0.0015311147
000060 2e ac f3 ba 1a 60 b1 bb a8 5d 94 bb b3 16 77 3b
       -0.0018590742 -0.0054130675 -0.0045277663 0.0037702739
000070 da 77 39 bb 8f f8 03 bb a7 8d 53 bb 34 09 c4 3b
       -0.0028300197 -0.0020137166 -0.0032280476 0.0059825424
000080 0f da 97 3b 3d 94 34 3b 8b 0b 39 bb 88 7c 1c bb
       0.004634149 0.0027554177 -0.002823564 -0.0023877937
000090 21 88 2c 3c 3d 0e de 3b 60 02 3e 3b e2 9b 81 bb
       0.010530503 0.0067765997 0.0028993115 -0.0039553503
0000a0 0c ea 46 bb 6c 12 94 3a 77 06 12 bc e0 56 91 bc
       -0.0030351905 0.0011296994 -0.008912674 -0.01774162
0000b0 5a 55 83 bc 91 5d 6e 3b 2a 31 e0 3a e6 93 d7 3a
       -0.01603191 0.0036371688 0.0017104496 0.0016447275
0000c0 5c 6c a5 3b 04 d8 21 3b 08 32 65 3b bb 70 86 3a
       0.005048318 0.0024695406 0.0034972448 0.0010256985
0000d0 e6 69 48 3b 30 19 76 ba 1c 32 39 b9 48 4a 9d bb
       0.0030580699 -0.00093879085 -0.00017661642 -0.004800115
0000e0 44 cc a5 ba 34 c7 3f 3c ca b8 5d bb 89 f7 33 3a
       -0.0012649377 0.011705209 -0.0033832067 0.0006865194
0000f0 0d 9a 07 bd 0e 3c f3 bb a2 4e 67 3b 9b e1 9d bc
       -0.0331059 -0.0074229306 0.0035294672 -0.019272616
000100 71 56 a1 bb 1f 6a e7 3c d5 3f ba 3b 82 91 2f 3b
       -0.0049236347 0.028248845 0.005683879 0.002678961
000110 c8 ed 12 bc 62 e5 4b bc 4a 85 d9 3b 10 04 cd b8
       -0.008967824 -0.012444826 0.0066382037 -9.7759184e-05
000120 5c 58 8b 3b 65 6f eb 3b 28 22 07 bd 09 6e 0c 3c
       0.0042524766 0.00718491 -0.03299156 0.008571156
000130 87 43 4c 3c c4 ba ef bb 19 17 41 bb e4 47 5c 3c
       0.012467272 -0.0073159654 -0.002946323 0.013444874
000140 ef d3 11 3a 8a de 2e 3c 8a f6 34 bc 4f 57 b8 3a
       0.00055628916 0.010673175 -0.011045108 0.0014064106
000150 df 2d d9 3a df ca 2b 3c 66 a4 12 bc 70 2b 84 bb
       0.0016569457 0.01048538 -0.008950328 -0.0040334985
000160 53 88 c7 bb 77 60 b8 3b f1 83 e8 3b 35 97 04 bc
       -0.006089249 0.005626734 0.0070958068 -0.008092691
000170 5f 7c e4 bb bb f2 da 3b 14 a1 85 bb 39 36 e7 bb
       -0.006972834 0.0066817678 -0.00407804 -0.0070560244
000180 6f 68 0e 3c b1 7f ab bb 1b 01 55 3c cd d6 2b bb
       0.008691891 -0.005233728 0.013000752 -0.002622056
000190 31 a6 94 3b a4 f9 03 bc d5 82 20 3c 80 d5 ac 3b
       0.004536413 -0.008055124 0.009796818 0.0052744746
0001a0 cd ce 73 3a 51 6b 56 bc b0 84 9a 3a 5e fd a1 3b
       0.000930053 -0.01308711 0.0011788812 0.004943534
0001b0 a3 cf e0 b9 2f 0c 19 3b 51 7d 74 b9 a7 fc 9d 3b
       -0.0004287931 0.002335321 -0.00023316337 0.0048213783
0001c0 16 63 97 3b ef 74 92 bb 8b 20 05 3c e7 9c 29 3a
       0.0046199663 -0.004469506 0.008125435 0.00064702187
0001d0 01 55 aa ba c1 cb ff 3b 3a c7 78 bb 68 2a 83 bb
       -0.0012995304 0.007806272 -0.0037960545 -0.004002858
0001e0 36 23 80 39 cb 86 ce 3a d3 b9 1e bb d3 1e 02 ba
       0.00024440297 0.0015756724 -0.0024219647 -0.00049636996
0001f0 73 5c a7 b9 9b bd da 3a a7 a8 0f bb 36 f0 75 ba
       -0.00031921602 0.0016688587 -0.0021920593 -0.00093818025
000200 c4 13 d3 ba b0 6d eb 39 5f cb d7 3a 3a 87 6e ba
       -0.0016103913 0.00044904416 0.0016463808 -0.000909913
000210 e3 0b b8 ba 05 a8 25 3a 9a 17 0d ba c5 d6 08 ba
       -0.0014041628 0.00063192873 -0.000538224 -0.00052199914
000220 f6 93 22 3b 5c 49 2a b9 8c cf 22 3b 50 83 84 ba
       0.002480743 -0.00016239792 0.0024842946 -0.0010109935
000230 16 2f ee 3b 47 6b 24 3c b0 a4 82 bc f0 74 4d 3c
       0.0072687967 0.010035343 -0.01594767 0.012540087
000240 4f 66 0a 3c 2c b3 73 bb 64 90 a4 bc c2 f6 a6 3a
       0.008447244 -0.0037185652 -0.020088382 0.0012738334
000250 38 9b 8d bc 6c 27 3d 3c 9f e7 af 3c 65 6a 07 3a
       -0.017285928 0.011545043 0.02147275 0.00051656953
000260 6f f1 b8 3a c8 3a cc b9 2c 71 be 3b 8e 6c e2 bb
       0.0014110039 -0.00038953708 0.005811831 -0.0069099134
000270 21 ad b9 3c 51 26 11 3c b1 1a 92 3c 9e 8f 6f bc
       0.022665562 0.008859233 0.017834993 -0.014621643
000280 2a 82 a9 3a 22 0f 24 bb 34 eb 87 3b 9f 05 42 3a
       0.0012932469 -0.0025033434 0.0041479114 0.00074013503
000290 0c 17 82 b9 e8 2e 23 bb 45 e6 15 3b 3a e5 b4 3a
       -0.00024812703 -0.0024899784 0.0022872847 0.0013801225
0002a0 aa c2 08 3b 94 93 41 39 27 67 0e bb cf c7 ce 39
       0.0020867982 0.00018460891 -0.0021728964 0.0003944025
0002b0 02 ac 1b 3a 55 02 81 b9 5c a6 0b 3b ca c4 09 b9
       0.0005938412 -0.00024606535 0.0021308875 -0.00013138648
0002c0 d8 97 48 bb 6e 19 a9 38 74 e7 26 bb b1 0f 1f 3a
       -0.0030608084 8.0632846e-05 -0.0025467547 0.0006067707
0002d0 b8 3c f3 39 28 81 dc bb 07 ba 20 3c 52 5b 02 b9
       0.0004639381 -0.006729264 0.009809977 -0.00012431786
0002e0 f2 46 dd ba 2b de be bb 4a e1 ce 3b c7 1e 16 3b
       -0.0016882105 -0.0058248243 0.0063134776 0.0022906528
0002f0 98 2a 93 3b e7 16 c8 ba 6b 66 c0 bb 85 e5 00 3b
       0.0044911616 -0.0015265614 -0.005871584 0.0019668054
000300 52 d8 0b 3b 0f b1 06 bb 2b 33 2d 3b 03 55 d9 3a
       0.0021338654 -0.0020552312 0.0026428204 0.0016581122
000310 43 7a ef bb 36 a0 e8 3a 93 37 de bb 31 6c e6 3a
       -0.007308276 0.0017747942 -0.0067815273 0.0017579851
000320 3a 66 42 3a 81 f7 03 bb c0 65 dd 3a 9e df 9d 3a
       0.00074157456 -0.0020136537 0.0016891286 0.0012044793
000330 e1 90 b0 39 07 fa 89 bb d6 d8 a9 39 35 f3 9b 3a
       0.0003367728 -0.004210714 0.00032395747 0.0011898043
000340 f5 98 1c ba 45 29 90 b9 3b 60 17 3a 48 4d 19 3b
       -0.000597372 -0.00027496569 0.00057745323 0.002339201
000350 96 21 14 3b fa 2e 1d bb f5 bc ec 3a fb 5b 96 3a
       0.0022603027 -0.00239843 0.0018061685 0.0011471504
000360 62 d5 fe 38 b9 e5 5e 3b c8 d6 e0 ba ea 58 b1 ba
       0.000121514095 0.0034011437 -0.0017153854 -0.0013530527
000370 65 b8 bb 39 11 a4 2c 3c 2d c2 80 bc f0 36 aa 3b
       0.00035804804 0.010537163 -0.01571759 0.0051945373
000380 e9 ca af 3b 11 cd a7 3b e7 e6 63 bc a3 99 05 bb
       0.005364765 0.0051208814 -0.013910032 -0.0020385764
000390 70 2c 40 bc 0f ff cc 3b 9d 38 66 3c b2 31 fb ba
       -0.011729345 0.0062559913 0.014051584 -0.0019164591
0003a0 9d d1 98 ba da 58 0a 3b 8f 4a 0d bb 88 74 8d bb
       -0.0011659149 0.0021110089 -0.0021559333 -0.00431687
0003b0 5a 14 85 3c 2a d6 cb 3a 3b 45 6b 3c e7 87 ea bb
       0.016245056 0.0015551497 0.014359768 -0.007157314
0003c0 2b 15 0d 3a 02 4d 5c ba a7 be 84 3a f3 21 9a ba
       0.00053818774 -0.0008403809 0.001012762 -0.0011759385
0003d0 1f 3a a0 ba b1 52 ce 39 d2 9f 64 39 22 95 47 b9
       -0.0012224353 0.00039352992 0.00021803312 -0.00019033675
0003e0 33 76 24 3a e7 02 a9 b9 c2 7e 84 ba d7 98 c7 b9
       0.00062737166 -0.00032236354 -0.0010108578 -0.00038070112
0003f0 98 af 98 ba 0f 25 c9 39 22 42 f7 39 e7 13 2b 39
       -0.0011649011 0.00038365318 0.00047160784 0.00016315245

old_dirs f4 [542]
000000 00 4b ff 39 00 8c f5 39 00 e8 3d 3a 80 69 62 3a
       0.0004869327 0.0004683435 0.00072443485 0.00086369365
000010 00 19 dc 39 00 c1 c0 39 00 7c e3 ba 00 37 74 ba
       0.00041980296 0.0003676489 -0.001735568 -0.0009316057
000020 80 66 49 ba 00 8d a8 3a 00 4c b3 3a 00 c5 04 3b
       -0.0007682815 0.0012859404 0.0013679266 0.0020259023
000030 80 f1 b9 39 00 5c a2 39 00 aa b6 39 00 d7 8b ba
       0.0003546588 0.00030967593 0.00034840405 -0.0010668933
000040 00 b4 48 ba 00 e4 9f ba 00 88 26 3a 00 02 94 39
       -0.00076562166 -0.0012198687 0.0006352663 0.0002823025
000050 80 7d 85 39 00 22 35 b9 00 40 4d b8 00 2a b6 b8
       0.00025461242 -0.00017274171 -4.8935413e-05 -8.6862594e-05
000060 00 52 fc b8 00 18 ac b8 00 ac 5c b7 00 53 55 3a
       -0.0001203157 -8.2060695e-05 -1.3153069e-05 0.0008137673
000070 00 ae 55 3a 00 92 8a 3a 80 95 26 3a 00 4c 8c 39
       0.0008151233 0.0010572076 0.00063546747 0.00026759505
000080 60 03 2f 39 00 fb a2 b9 00 5a b4 b9 00 70 f4 b9
       0.00016690558 -0.00031086057 -0.0003439933 -0.00046622753
000090 00 28 81 3a 00 cc a5 39 00 17 ad 39 00 30 4f b8
       0.000985384 0.00031623244 0.00033014268 -4.939735e-05
0000a0 00 68 85 b9 00 fe 2a ba 00 b4 bc 3a 00 a0 27 3a
       -0.00025445223 -0.00065228343 0.0014396906 0.00063943863
0000b0 00 d8 4d 3a 80 27 14 ba 00 a4 f7 b9 00 12 2e ba
       0.0007852316 -0.0005651638 -0.000472337 -0.00066402555
0000c0 00 47 4f ba 00 72 ec b9 00 32 0f ba 00 a7 93 3a
       -0.0007907003 -0.00045098364 -0.00054624677 0.001126498
0000d0 00 d2 27 3a 00 b8 6b 3a 80 bf 28 ba 00 32 9a b9
       0.0006401837 0.0008991957 -0.0006437227 -0.00029410422
0000e0 00 ac 0c b8 00 cc e6 ba 00 ac 72 ba 00 74 ca ba
       -3.353879e-05 -0.0017608404 -0.00092571974 -0.0015445948
0000f0 00 15 d3 3a 00 67 5c 3a 80 7a f6 ba 00 4f a2 3b
       0.0016104281 0.0008407682 -0.0018804818 0.004953265
000100 00 fb 53 3a 00 f9 3c bb 80 e2 2c 3a 00 94 9d b9
       0.0008086413 -0.002883494 0.00065950304 -0.00030055642
000110 00 1c b5 b7 00 f5 26 3b c0 2c 93 39 80 41 88 ba
       -2.158992e-05 0.0025475621 0.00028071366 -0.0010395497
000120 c0 2c 46 3a 00 aa d8 ba 00 95 e4 3a 00 fe ce ba
       0.0007559769 -0.0016530156 0.0017439425 -0.0015792251
000130 00 fa c6 ba 00 ee 08 3b 00 70 fd b8 00 6e 70 bb
       -0.0015180707 0.0020893812 -0.00012084842 -0.003668666
000140 00 80 3a 38 00 c6 1d 3a 00 c2 99 ba 00 ef 3b 3a
       4.4465065e-05 0.0006018579 -0.001173079 0.00071690977
000150 00 6c ec 39 00 06 ab b9 00 eb c3 ba 00 d4 08 b9
       0.00045093894 -0.00032620132 -0.0014947355 -0.00013048947
000160 00 a2 e4 ba 00 21 17 3a 00 34 fb 3a 00 28 1d 39
       -0.0017443299 0.000576511 0.0019165277 0.00014987588
000170 00 42 26 39 00 02 d7 b9 00 d8 87 b7 00 d8 07 b9
       0.0001585558 -0.00041009486 -1.6193837e-05 -0.0001295507
000180 00 f9 05 3b 80 cb a0 3a 00 aa 9b 3a 00 fc be ba
       0.0020442605 0.0012267679 0.0011876225 -0.0014570951
000190 00 34 20 b9 00 56 a0 ba 00 24 19 3b 00 1d ff ba
       -0.0001527816 -0.0012232661 0.0023367405 -0.0019463599
0001a0 00 98 e2 ba 00 40 7d 38 00 25 45 3b 00 dd da b9
       -0.0017287731 6.0379505e-05 0.0030081868 -0.00041744858
0001b0 00 0b 23 3b 00 9c fd ba 00 6e 3d bb 00 06 fc b9
       0.0024878383 -0.001934886 -0.0028904676 -0.00048069656
0001c0 00 82 26 ba 00 18 8b b9 00 d3 ac b9 00 a6 5d 3a
       -0.0006351769 -0.00026530027 -0.00032963604 0.0008455217
0001d0 00 07 63 bb 00 ab 44 ba 00 75 43 bb 00 30 d5 3a
       -0.0034641623 -0.00075022876 -0.0029824376 0.0016264915
0001e0 00 00 ef 37 00 08 d4 38 00 8d 0d b9 00 04 a6 b7
       2.849102e-05 0.00010110438 -0.00013499334 -1.9790605e-05
0001f0 00 09 96 b8 00 e0 1f b8 00 f8 0a b9 00 3b ee b8
       -7.154234e-05 -3.811717e-05 -0.00013253093 -0.00011359714
000200 00 61 74 b9 00 3c 01 b8 00 a1 7e 39 80 d5 88 b8
       -0.00023305789 -3.0811876e-05 0.00024283305 -6.524753e-05
000210 80 49 aa b8 00 54 e3 b8 00 5e 43 b8 00 00 4a 37
       -8.119922e-05 -0.0001083985 -4.6579167e-05 1.2040138e-05
000220 00 42 6d 39 00 20 6e 39 00 64 8f 38 00 62 77 b9
       0.00022626668 0.0002270937 6.837398e-05 -0.00023592263
000230 00 04 62 b9 00 e3 93 ba 00 60 fd 3a 00 95 8d ba
       -0.0002155453 -0.0011282861 0.0019330978 -0.0010801852
000240 00 10 42 ba 00 c4 49 39 00 35 18 3b 00 a8 4c 39
       -0.0007402897 0.0001924187 0.002322495 0.00019517541
000250 00 03 1e 3b 00 5d 86 ba 00 ef 30 bb 00 e8 13 b8
       0.0024110675 -0.0010251105 -0.0026997924 -3.5263598e-05
000260 00 a0 89 b8 00 32 93 39 00 e8 b9 b7 00 d6 ed 39
       -6.5624714e-05 0.00028075278 -2.2161752e-05 0.00045363605
000270 00 cc 41 bb 80 bb b3 ba 00 6e 06 bb 00 df fb 3a
       -0.0029571056 -0.0013712496 -0.0020512342 0.001921624
000280 00 04 44 b8 00 b8 82 b9 00 0a f5 39 00 1a d2 b9
       -4.6733767e-05 -0.00024932623 0.00046737492 -0.00040073693
000290 80 dc bf b9 00 68 be b7 00 0a 1d 3a 80 97 df b8
       -0.00036594644 -2.2698194e-05 0.0005990565 -0.00010661688
0002a0 00 fc eb 39 00 11 d8 b9 00 43 0d ba 00 4c c3 b8
       0.00045010448 -0.00041211396 -0.0005388707 -9.312481e-05
0002b0 00 79 05 b9 00 fc d2 b8 00 74 b9 b8 00 c6 4c 39
       -0.00012728944 -0.00010060519 -8.843094e-05 0.00019528717
0002c0 00 10 2d ba 00 8e 9e b8 00 02 21 ba 00 23 90 39
       -0.00066018105 -7.560477e-05 -0.00061419606 0.00027491897
0002d0 00 70 81 b8 00 9e c2 b9 00 f3 3d 3a 00 eb 28 ba
       -6.172061e-05 -0.00037120283 0.00072459877 -0.0006443709
0002e0 80 d4 1d ba 00 d0 21 b8 00 63 74 3a 80 62 52 b9
       -0.00060207397 -3.8579106e-05 0.00093226135 -0.00020063855
0002f0 00 98 2e 3a 00 70 2d ba 00 3f 52 ba 00 bb 3f b9
       0.0006660223 -0.00066161156 -0.0008020252 -0.00018284842
000300 00 1a 7e b9 00 c6 3a b9 00 89 1d b9 00 cf a1 39
       -0.00024233013 -0.00017812103 -0.00015023723 0.0003086254
000310 80 27 83 ba 00 de ac b8 00 70 80 ba 00 aa c9 39
       -0.0010006279 -8.24295e-05 -0.0009799004 0.00038464367
000320 00 46 a7 b8 00 f8 d5 b9 00 a1 33 3a 00 9d b6 b9
       -7.976219e-05 -0.000408113 0.0006852299 -0.0003483072
000330 00 9b 63 b9 00 e4 a7 38 00 21 55 3a 00 e2 df 38
       -0.00021706149 8.005649e-05 0.00081302226 0.000106755644
000340 00 40 67 3a 00 84 aa b9 00 72 80 ba 00 90 4d 37
       0.00088214874 -0.00032523274 -0.00097996 1.225248e-05
000350 00 80 06 37 00 52 0d 39 00 58 42 37 00 aa 16 39
       8.016825e-06 0.00013477355 1.158379e-05 0.00014368445
000360 00 b8 8a ba 00 36 0d ba 00 4c 37 ba 00 20 3d 3a
       -0.0010583401 -0.000538677 -0.0006992221 0.0007214546
000370 00 60 0f b8 00 c0 7f 38 00 ca 87 b9 00 85 e7 39
       -3.4183264e-05 6.097555e-05 -0.00025899708 0.00044158846
000380 00 a6 f5 39 00 40 09 b7 00 98 da b9 80 bb 8e 39
       0.0004685372 -8.1807375e-06 -0.0004169345 0.0002722405
000390 00 2a 49 b9 00 f2 e0 39 00 96 88 39 00 80 80 39
       -0.000191845 0.00042904913 0.000260517 0.0002450943
0003a0 00 08 9f 39 00 34 2e 39 00 d4 0e 39 00 e4 21 b9
       0.00030332804 0.00016613305 0.00013621151 -0.00015439093
0003b0 00 6a ca 39 00 6c dc b8 00 32 00 3a 00 78 af b7
       0.00038607419 -0.00010510534 0.0004890263 -2.0917505e-05
0003c0 00 dc 01 38 00 16 81 38 00 80 11 36 00 58 88 b9
       3.0960888e-05 6.155297e-05 2.168119e-06 -0.00026005507
0003d0 80 a8 aa b9 00 00 6a b8 00 5a bd 38 00 81 8a b9
       -0.0003255047 -5.5789948e-05 9.028986e-05 -0.00026417524
0003e0 00 a8 19 b9 00 b1 8e b9 00 05 e6 38 80 da 40 b9
       -0.00014653802 -0.00027216226 0.00010968186 -0.00018391944
0003f0 00 14 71 b9 00 62 67 b9 00 09 0e b9 00 ec e3 38
       -0.00022991002 -0.00022066385 -0.00013545528 0.00010868162

old_dirs f4 [542]
000000 00 5a ff 39 00 20 f6 39 00 30 3e 3a 00 b4 61 3a
       0.00048704445 0.00046944618 0.00072550774 0.0008609891
000010 00 73 dc 39 80 e7 c0 39 00 8e e2 ba 80 4e 74 ba
       0.00042047352 0.00036793575 -0.0017284751 -0.0009319559
000020 80 58 49 ba 00 6b a8 3a 00 7a b2 3a 00 b7 04 3b
       -0.0007680729 0.0012849271 0.0013616681 0.0020250678
000030 00 d8 b9 39 00 68 a1 39 00 62 b6 39 00 ec 8b ba
       0.00035446882 0.000307858 0.0003478676 -0.0010675192
000040 00 0a 49 ba 00 54 a0 ba 00 f3 25 3a 00 56 93 39
       -0.00076690316 -0.0012232065 0.00063304603 0.000281021
000050 00 64 85 39 00 5e 36 b9 00 70 53 b8 00 16 bb b8
       0.00025442243 -0.0001739189 -5.041063e-05 -8.920953e-05
000060 00 d0 f8 b8 00 57 aa b8 00 f4 52 b7 00 f2 54 3a
       -0.000118643045 -8.122437e-05 -1.2573786e-05 0.0008123219
000070 00 ac 54 3a 00 5e 8a 3a 80 4a 25 3a 80 76 8b 39
       0.0008112788 0.0010556579 0.0006305352 0.00026600435
000080 e0 c0 2c 39 00 97 a1 b9 00 7e b3 b9 00 7d f3 b9
       0.0001647505 -0.00030820817 -0.00034235418 -0.00046441704
000090 80 1f 81 3a 00 18 a6 39 00 4d ae 39 00 90 51 b8
       0.0009851307 0.0003167987 0.00033245236 -4.9963593e-05
0000a0 00 6e 85 b9 00 3e 2b ba 00 91 bc 3a 00 68 27 3a
       -0.00025449693 -0.0006532371 0.0014386475 0.00063860416
0000b0 00 8c 4e 3a 00 ac 13 ba 00 d4 f6 b9 00 ce 2d ba
       0.0007879138 -0.0005633235 -0.0004707873 -0.00066301227
0000c0 00 af 4e ba 00 34 ec b9 00 4a 0f ba 80 4a 93 3a
       -0.00078843534 -0.0004505217 -0.0005466044 0.0011237413
0000d0 00 88 27 3a 00 12 6c 3a c0 46 28 ba 00 16 9b b9
       0.000639081 0.0009005368 -0.0006419234 -0.00029580295
0000e0 00 4f 12 b8 00 46 e6 ba 00 84 72 ba 00 96 ca ba
       -3.4882687e-05 -0.0017568469 -0.0009251237 -0.001545608
0000f0 00 81 d2 3a 00 aa 5b 3a 80 59 f5 ba 00 9e a1 3b
       0.0016060174 0.0008379519 -0.001871869 0.004932165
000100 00 e7 52 3a 00 99 3c bb 00 06 2c 3a 00 05 9f b9
       0.0008045286 -0.0028777719 0.00065621734 -0.0003033057
000110 00 e0 a9 b7 00 20 26 3b b0 74 90 39 00 4b 87 ba
       -2.0250678e-05 0.0025348663 0.0002755276 -0.0010322034
000120 c0 80 46 3a 00 00 d8 ba 00 62 e4 3a 00 e9 cd ba
       0.0007572286 -0.0016479492 0.0017424226 -0.0015709698
000130 00 2d c6 ba 00 88 08 3b 00 7a 00 b9 00 8b 6f bb
       -0.0015119612 0.0020833015 -0.0001225248 -0.0036551356
000140 00 30 33 38 00 34 1d 3a 00 19 99 ba 00 3e 3b 3a
       4.272163e-05 0.00059968233 -0.0011680424 0.00071427226
000150 00 f7 eb 39 00 ea aa b9 00 0e c3 ba 00 08 0a b9
       0.00045006722 -0.0003259927 -0.0014881492 -0.00013163686
000160 00 c5 e3 ba 00 a8 16 3a 00 04 fa 3a 00 88 1b 39
       -0.0017377436 0.000574708 0.0019074678 0.00014832616
000170 00 36 24 39 00 36 d6 b9 00 20 97 b7 00 24 07 b9
       0.00015660375 -0.00040857494 -1.8015504e-05 -0.00012888014
000180 00 79 05 3b 80 fe 9f 3a 00 06 9b 3a 00 1b be ba
       0.002036631 0.0012206584 0.001182735 -0.0014503896
000190 00 24 1d b9 00 30 a0 ba 00 c8 18 3b 00 50 fe ba
       -0.00014986098 -0.0012221336 0.0023312569 -0.0019402504
0001a0 00 2a e2 ba 00 70 7e 38 00 6d 44 3b 80 f4 d8 b9
       -0.0017254949 6.0662627e-05 0.0029972196 -0.00041380897
0001b0 00 6e 22 3b 00 de fc ba 00 88 3c bb 00 42 fa b9
       0.0024784803 -0.0019292235 -0.0028767586 -0.0004773289
0001c0 00 59 25 ba 00 24 8b b9 00 a8 aa b9 00 02 5d 3a
       -0.00063075125 -0.00026538968 -0.00032550097 0.0008430779
0001d0 00 39 62 bb 00 fd 42 ba 00 e4 42 bb 00 00 d4 3a
       -0.0034518838 -0.00074382126 -0.002973795 0.0016174316
0001e0 00 1a f1 37 00 7a d3 38 00 ca 0c b9 00 24 a8 b7
       2.8741546e-05 0.00010083988 -0.00013426691 -2.0043924e-05
0001f0 00 41 96 b8 00 c6 1d b8 00 4d 0a b9 00 3d ee b8
       -7.1646646e-05 -3.761612e-05 -0.0001318939 -0.000113600865
000200 00 5b 73 b9 00 cc 00 b8 00 85 7d 39 80 ac 89 b8
       -0.00023208186 -3.0707568e-05 0.00024177507 -6.5648e-05
000210 00 29 ab b8 00 e8 e1 b8 00 ba 42 b8 00 00 45 37
       -8.161552e-05 -0.000107720494 -4.642643e-05 1.1742115e-05
000220 00 42 6c 39 00 b8 6c 39 00 98 8e 38 00 74 76 b9
       0.00022531301 0.00022575259 6.7994e-05 -0.00023503602
000230 00 50 62 b9 00 30 94 ba 00 56 fd 3a 80 68 8d ba
       -0.00021582842 -0.0011305809 0.0019327998 -0.001078859
000240 00 29 42 ba 00 aa 46 39 00 06 18 3b 00 20 4f 39
       -0.0007406622 0.00018946081 0.0023196936 0.0001975298
000250 00 b0 1d 3b 00 79 86 ba 00 7a 30 bb 00 18 02 b8
       0.0024061203 -0.001025945 -0.0026928186 -3.1016767e-05
000260 00 30 7f b8 00 05 91 39 00 80 ae b7 00 08 ef 39
       -6.084144e-05 0.0002766028 -2.0802021e-05 0.00045591593
000270 00 84 41 bb 00 8f b2 ba 00 6b 06 bb 00 0e fb 3a
       -0.002952814 -0.001362294 -0.0020510554 0.0019153953
000280 00 20 40 b8 00 49 82 b9 00 12 f4 39 00 48 d1 b9
       -4.580617e-05 -0.00024849921 0.00046552718 -0.0003991723
000290 80 5f bf b9 00 28 bb b7 00 3e 1c 3a 00 55 de b8
       -0.00036501512 -2.2310764e-05 0.00059601665 -0.000106016174
0002a0 00 b1 ea 39 00 2d d7 b9 80 61 0c ba 00 84 c2 b8
       0.00044763833 -0.00041041523 -0.0005355105 -9.275228e-05
0002b0 00 d9 04 b9 00 40 d2 b8 00 7e b7 b8 00 c0 4b 39
       -0.0001266934 -0.00010025501 -8.749589e-05 0.00019431114
0002c0 00 2f 2c ba 00 57 9c b8 00 4b 20 ba 00 03 8f 39
       -0.0006568283 -7.454865e-05 -0.00061146915 0.0002727732
0002d0 00 68 7c b8 00 be c1 b9 00 0a 3d 3a 80 33 28 ba
       -6.017834e-05 -0.0003695339 0.0007211268 -0.00064163655
0002e0 00 69 1d ba 00 60 1f b8 00 eb 72 3a 00 9d 51 b9
       -0.0006004721 -3.799796e-05 0.0009266585 -0.0001999028
0002f0 80 5c 2d 3a 00 a5 2c ba 00 a0 50 ba 00 36 3f b9
       0.000661321 -0.0006585866 -0.0007958412 -0.00018235296
000300 00 3d 7d b9 00 44 3a b9 00 02 1c b9 00 e6 a0 39
       -0.00024150684 -0.00017763674 -0.00014878064 0.00030688941
000310 80 56 82 ba 00 a2 a8 b8 00 92 7f ba 00 94 c7 39
       -0.0009943992 -8.041039e-05 -0.0009749234 0.00038066506
000320 00 d4 a6 b8 00 d0 d5 b9 00 32 33 3a 00 ff b5 b9
       -7.954985e-05 -0.00040781498 0.00068357587 -0.00034713
000330 00 2b 63 b9 00 62 a6 38 00 7b 54 3a 00 52 e1 38
       -0.00021664426 7.933751e-05 0.00081054866 0.0001074411
000340 00 76 66 3a 00 3a aa b9 00 df 7f ba 00 c0 61 37
       0.0008791387 -0.0003246814 -0.00097607076 1.3455749e-05
000350 00 40 1f 37 00 10 0c 39 00 e0 4b 37 00 e0 16 39
       9.49204e-06 0.00013357401 1.2151897e-05 0.00014388561
000360 00 4e 8a ba 00 56 0c ba 00 dc 36 ba 00 57 3c 3a
       -0.001055181 -0.0005353391 -0.00069755316 0.0007184595
000370 00 20 18 b8 00 c0 79 38 00 c2 86 b9 00 1a e7 39
       -3.6269426e-05 5.954504e-05 -0.00025703013 0.00044079125
000380 00 ac f5 39 00 80 24 b7 00 f0 d8 b9 40 c8 8e 39
       0.00046858191 -9.804964e-06 -0.00041377544 0.00027233548
000390 00 f0 46 b9 00 10 e0 39 00 d9 86 39 00 0d 81 39
       -0.00018972158 0.0004273653 0.0002572015 0.00024614483
0003a0 00 80 9f 39 00 fa 2c 39 00 8e 0d 39 00 0a 20 b9
       0.0003042221 0.0001649633 0.00013499707 -0.00015262514
0003b0 00 d6 c8 39 00 88 dc b8 00 dc fe 39 00 b8 9c b7
       0.00038306415 -0.000105157495 0.00048610568 -1.868233e-05
0003c0 00 0c 05 38 00 f8 7d 38 00 f0 80 36 80 73 88 b9
       3.1720847e-05 6.055087e-05 3.842637e-06 -0.00026025996
0003d0 00 c1 aa b9 00 10 66 b8 00 66 bf 38 80 30 8a b9
       -0.00032568723 -5.4851174e-05 9.126589e-05 -0.00026357546
0003e0 00 d0 17 b9 00 85 8e b9 80 fc e2 38 80 20 41 b9
       -0.00014477968 -0.00027183443 0.000108235516 -0.00018418022
0003f0 80 39 71 b9 00 12 66 b9 00 18 0d b9 00 bc e2 38
       -0.00023004971 -0.00021941215 -0.00013455749 0.000108115375

old_dirs f4 [542]
000000 00 3a fe 39 00 a6 f5 39 00 9d 3d 3a 00 fd 5f 3a
       0.0004848987 0.0004685372 0.00072331727 0.0008544475
000010 00 c4 db 39 80 28 c0 39 80 a4 e0 ba 80 4b 73 ba
       0.00041916966 0.0003665127 -0.0017138869 -0.0009280965
000020 00 69 48 ba 00 89 a7 3a 00 f6 b0 3a 00 15 04 3b
       -0.0007645041 0.0012781918 0.0013501048 0.0020154119
000030 80 f0 b8 39 00 ce 9f 39 00 51 b5 39 00 60 8b ba
       0.000352744 0.00030480325 0.0003458336 -0.0010633469
000040 00 88 48 ba 00 0e a0 ba 00 a8 24 3a 00 08 92 39
       -0.000764966 -0.0012211204 0.00062811375 0.0002785325
000050 80 ba 84 39 00 bf 36 b9 00 90 58 b8 00 06 bf b8
       0.00025315955 -0.00017428026 -5.1632524e-05 -9.108707e-05
000060 00 5b f4 b8 00 e1 a7 b8 00 c4 48 b7 00 a0 53 3a
       -0.00011651777 -8.00509e-05 -1.1966564e-05 0.0008072853
000070 00 c6 52 3a 00 92 89 3a 00 4d 23 3a 00 03 8a 39
       0.00080403686 0.0010495782 0.00062294304 0.00026323646
000080 20 c9 29 39 00 84 9f b9 00 eb b1 b9 00 87 f1 b9
       0.00016192021 -0.0003042519 -0.0003393516 -0.00046067685
000090 80 85 80 3a 00 a6 a5 39 00 b9 ae 39 00 c0 52 b8
       0.0009805411 0.00031594932 0.00033325702 -5.0246716e-05
0000a0 00 ee 84 b9 00 be 2a ba 00 9b bb 3a 00 76 26 3a
       -0.00025354326 -0.00065132976 0.0014313161 0.0006349981
0000b0 00 52 4e 3a 80 8a 12 ba 00 06 f5 b9 00 c8 2c ba
       0.00078704953 -0.0005590096 -0.00046734512 -0.00065910816
0000c0 00 2c 4d ba 00 f6 ea b9 00 c0 0e ba 00 4a 92 3a
       -0.0007826686 -0.00044815242 -0.00054454803 0.001116097
0000d0 00 88 26 3a 00 5e 6b 3a 40 0e 27 ba 00 31 9b b9
       0.0006352663 0.00089785457 -0.0006372668 -0.00029600412
0000e0 00 1f 17 b8 00 c1 e4 ba 00 58 71 ba 00 d7 c9 ba
       -3.6030076e-05 -0.0017452538 -0.00092065334 -0.0015399158
0000f0 00 fe d0 3a 00 f0 59 3a 00 2c f3 ba 00 3e a0 3b
       0.0015944839 0.0008313656 -0.0018552542 0.0048902035
000100 00 f0 50 3a 00 67 3b bb 00 73 2a 3a 00 b1 9f b9
       0.0007970333 -0.0028595328 0.00065021217 -0.00030458719
000110 00 88 9e b7 00 96 24 3b 90 2f 8d 39 80 c5 85 ba
       -1.8898398e-05 0.002511382 0.00026929053 -0.0010205954
000120 c0 f2 45 3a 00 68 d6 ba 00 2a e3 3a 00 f2 cb ba
       0.0007551126 -0.0016357899 0.0017331243 -0.0015559793
000130 00 86 c4 ba 80 8a 07 3b 00 9f 01 b9 00 9e 6d bb
       -0.0014993548 0.0020681918 -0.00012361631 -0.0036257505
000140 00 f0 2b 38 00 0e 1c 3a 00 d2 97 ba 00 bc 39 3a
       4.0993094e-05 0.0005953014 -0.0011582971 0.0007085204
000150 00 7b ea 39 00 fe a9 b9 00 64 c1 ba 00 be 0a b9
       0.000447236 -0.00032423437 -0.0014754534 -0.00013231486
000160 00 f2 e1 ba 00 8b 15 3a 00 c5 f7 3a 00 06 19 39
       -0.0017238259 0.00057046115 0.0018903315 0.00014593452
000170 00 3a 21 39 00 73 d4 b9 00 50 a5 b7 00 08 06 b9
       0.00015375763 -0.00040521473 -1.9706786e-05 -0.00012782216
000180 00 6a 04 3b 00 84 9e 3a 00 c2 99 3a 00 6c bc ba
       0.0020204782 0.0012093782 0.001173079 -0.0014375448
000190 00 84 19 b9 00 64 9f ba 00 c9 17 3b 00 6a fc ba
       -0.00014640391 -0.001216054 0.0023160577 -0.0019257665
0001a0 00 bd e0 ba 00 70 7d 38 00 e1 42 3b 00 10 d6 b9
       -0.001714617 6.042421e-05 0.0029736161 -0.00040829182
0001b0 00 1c 21 3b 00 05 fb ba 00 da 3a bb 00 56 f7 b9
       0.002458334 -0.001915127 -0.0028511286 -0.00047175586
0001c0 00 71 23 ba 00 a0 8a b9 00 cb a7 b9 00 70 5b 3a
       -0.0006234795 -0.0002644062 -0.0003200397 0.00083708763
0001d0 00 78 60 bb 80 82 40 ba 00 7c 41 bb 00 ef d1 3a
       -0.0034251213 -0.0007343665 -0.0029523373 0.0016016662
0001e0 00 4e f2 37 00 1a d2 38 00 7d 0b b9 00 7c a9 b7
       2.888497e-05 0.00010018423 -0.00013302639 -2.0204112e-05
0001f0 00 dc 95 b8 00 0c 1b b8 00 18 09 b9 00 41 ed b8
       -7.145852e-05 -3.6966056e-05 -0.00013074279 -0.00011313148
000200 00 51 71 b9 00 a4 ff b7 00 5c 7b 39 00 fa 89 b8
       -0.00023013726 -3.0474737e-05 0.00023971498 -6.579235e-05
000210 40 4d ab b8 00 88 df b8 00 3c 41 b8 00 e0 3e 37
       -8.168304e-05 -0.000106588006 -4.6070665e-05 1.1377037e-05
000220 00 41 6a 39 00 5c 6a 39 00 44 8d 38 00 7a 74 b9
       0.00022340193 0.00022350252 6.73607e-05 -0.00023315102
000230 00 c6 61 b9 00 d6 93 ba 00 32 fc 3a 00 99 8c ba
       -0.00021531433 -0.0011278987 0.0019240975 -0.001072675
000240 00 61 41 ba 00 9c 42 39 00 2f 17 3b 00 b8 50 39
       -0.000737682 0.00018559396 0.0023068786 0.00019904971
000250 00 ae 1c 3b 00 f7 85 ba 00 42 2f bb 00 d0 de b7
       0.0023907423 -0.0010220706 -0.002674222 -2.656132e-05
000260 00 c0 69 b8 00 3f 8e 39 00 10 a2 b7 00 38 ef 39
       -5.5730343e-05 0.0002713129 -1.9319355e-05 0.00045627356
000270 00 67 40 bb 80 a0 b0 ba 00 d4 05 bb 00 29 f9 3a
       -0.0029358268 -0.0013475567 -0.0020420551 0.0019009411
000280 00 98 3b b8 00 4d 81 b9 00 12 f2 39 00 91 cf b9
       -4.4725835e-05 -0.00024662167 0.00046171248 -0.0003959015
000290 00 0d be b9 00 50 b7 b7 00 c8 1a 3a c0 15 dc b8
       -0.0003624931 -2.1852553e-05 0.0005904436 -0.00010494469
0002a0 00 6a e8 39 00 5b d5 b9 00 e5 0a ba 00 e0 c0 b8
       0.00044329464 -0.00040694326 -0.0005298406 -9.196997e-05
0002b0 00 a4 03 b9 00 ac d0 b8 00 c2 b4 b8 00 dc 49 39
       -0.00012554228 -9.9502504e-05 -8.619204e-05 0.0001925081
0002c0 00 98 2a ba 00 7f 99 b8 00 e4 1e ba 80 47 8d 39
       -0.0006507635 -7.319264e-05 -0.00060611963 0.00026946887
0002d0 00 d8 74 b8 00 0c c0 b9 00 53 3b 3a 00 c5 26 ba
       -5.83753e-05 -0.00036630034 0.0007145852 -0.0006361753
0002e0 00 4e 1c ba 00 48 1c b8 00 70 70 3a 00 e6 4f b9
       -0.00059625506 -3.7260354e-05 0.0009171963 -0.0001982674
0002f0 80 6a 2b 3a 00 1c 2b ba 00 26 4e ba 00 d8 3d b9
       0.0006539002 -0.00065273046 -0.0007863939 -0.00018104911
000300 00 48 7b b9 00 f8 38 b9 00 d0 19 b9 00 54 9f 39
       -0.00023964047 -0.00017639995 -0.00014668703 0.00030389428
000310 00 f9 80 ba 00 b4 a3 b8 00 2c 7d ba 00 a9 c4 39
       -0.0009839833 -7.805973e-05 -0.00096577406 0.00037509948
000320 00 b8 a5 b8 00 c6 d4 b9 00 06 32 3a 00 95 b4 b9
       -7.902086e-05 -0.00040583313 0.0006791055 -0.0003444329
000330 00 c4 61 b9 00 16 a4 38 00 ee 52 3a 00 ee e1 38
       -0.00021530688 7.824227e-05 0.0008046329 0.00010773167
000340 00 bc 64 3a 00 39 a9 b9 00 c7 7d ba 00 e0 76 37
       0.0008725524 -0.0003227666 -0.00096808374 1.4714897e-05
000350 00 d0 36 37 00 36 0a 39 00 e0 54 37 00 78 16 39
       1.0896474e-05 0.00013180822 1.2688339e-05 0.00014349818
000360 00 4b 89 ba 00 e2 0a ba 00 a9 35 ba 00 c4 3a 3a
       -0.0010474622 -0.0005297959 -0.0006929785 0.0007124543
000370 00 00 20 b8 00 f0 72 38 00 32 85 b9 00 b7 e5 39
       -3.8146973e-05 5.7920814e-05 -0.0002540499 0.0004381463
000380 00 9f f4 39 00 60 3d b7 00 72 d6 b9 c0 34 8e 39
       0.0004665777 -1.128763e-05 -0.00040902197 0.00027123652
000390 00 f4 43 b9 00 42 de 39 00 99 84 39 00 01 81 39
       -0.00018687546 0.00042392313 0.00025290996 0.00024605542
0003a0 00 41 9f 39 00 10 2b 39 00 b8 0b 39 00 8c 1d b9
       0.00030375272 0.00016313791 0.00013324618 -0.00015024841
0003b0 00 78 c6 39 00 94 db b8 00 46 fc 39 00 d0 8a b7
       0.0003785491 -0.00010470301 0.0004811734 -1.654774e-05
0003c0 00 ac 07 38 00 ec 78 38 00 a0 b5 36 80 f8 87 b9
       3.2346696e-05 5.93476e-05 5.412847e-06 -0.00025934353
0003d0 00 1f aa b9 00 60 61 b8 00 7a c0 38 00 46 89 b9
       -0.00032448024 -5.3733587e-05 9.177998e-05 -0.0002618283
0003e0 00 60 15 b9 00 ba 8d b9 00 12 df 38 80 8a 40 b9
       -0.0001424551 -0.00027032197 0.000106368214 -0.00018362142
0003f0 00 52 70 b9 00 cc 63 b9 00 90 0b b9 00 aa e0 38
       -0.00022918731 -0.00021724403 -0.00013309717 0.00010712817

old_dirs f4 [542]
000000 00 7f fd 39 00 80 f5 39 00 41 3d 3a 80 90 5e 3a
       0.00048350543 0.0004682541 0.00072194636 0.000849016
000010 00 56 db 39 80 a5 bf 39 80 0a df ba 80 9d 72 ba
       0.0004183501 0.00036553666 -0.0017016679 -0.0009255037
000020 80 bd 47 ba 00 f5 a6 3a 00 b6 af 3a 00 9c 03 3b
       -0.0007619485 0.0012737811 0.0013405681 0.0020081997
000030 00 5a b8 39 00 6a 9e 39 00 7d b4 39 00 0a 8b ba
       0.0003516227 0.00030215085 0.00034425408 -0.0010607839
000040 00 54 48 ba 00 fb 9f ba 80 96 23 3a 00 eb 90 39
       -0.00076419115 -0.0012205541 0.0006240383 0.0002764091
000050 00 40 84 39 00 5e 37 b9 00 b0 5d b8 00 10 c3 b8
       0.00025224686 -0.00017487258 -5.285442e-05 -9.301305e-05
000060 00 4e f0 b8 00 ab a5 b8 00 48 3f b7 00 a7 52 3a
       -0.000114586204 -7.899664e-05 -1.1401251e-05 0.0008035749
000070 00 2c 51 3a 00 f0 88 3a 80 8f 21 3a 80 bc 88 39
       0.0007979274 0.0010447502 0.0006163046 0.00026080385
000080 00 18 27 39 00 ba 9d b9 00 a4 b0 b9 00 dc ef b9
       0.00015935302 -0.00030083954 -0.00033691525 -0.00045749545
000090 80 1d 80 3a 00 62 a5 39 80 61 af 39 00 00 55 b8
       0.0009774417 0.00031544268 0.00033451244 -5.0783157e-05
0000a0 00 c8 84 b9 00 76 2a ba 00 e7 ba 3a 00 b6 25 3a
       -0.00025326014 -0.0006502569 0.0014259517 0.00063213706
0000b0 00 51 4e 3a 80 a2 11 ba 00 8c f3 b9 00 f6 2b ba
       0.00078703463 -0.00055555254 -0.0004645288 -0.0006559789
0000c0 00 f8 4b ba 00 08 ea b9 00 64 0e ba 80 84 91 3a
       -0.00077807903 -0.00044637918 -0.0005431771 0.001110211
0000d0 00 d4 25 3a 00 fe 6a 3a c0 0f 26 ba 80 76 9b b9
       0.0006325841 0.00089642406 -0.00063347444 -0.00029652193
0000e0 00 5c 1c b8 00 94 e3 ba 00 a2 70 ba 00 5b c9 ba
       -3.727898e-05 -0.0017362833 -0.00091794133 -0.0015362203
0000f0 00 c0 cf 3a 80 7d 58 3a 00 55 f1 ba 00 13 9f 3b
       0.0015850067 0.0008258447 -0.0018412173 0.00485456
000100 00 41 4f 3a 00 6f 3a bb 80 1b 29 3a 00 84 a0 b9
       0.0007906109 -0.0028447509 0.0006450936 -0.00030615926
000110 00 f8 93 b7 00 42 23 3b f0 2c 8a 39 80 6e 84 ba
       -1.763925e-05 0.0024911165 0.00026354892 -0.0010103732
000120 c0 ab 45 3a 00 18 d5 ba 00 36 e2 3a 00 3b ca ba
       0.00075405464 -0.0016257763 0.0017258525 -0.001542896
000130 00 1f c3 ba 80 bc 06 3b 00 0c 03 b9 00 05 6c bb
       -0.0014886558 0.0020559132 -0.00012497604 -0.0036013722
000140 00 10 26 38 00 28 1b 3a 00 c6 96 ba 00 7e 38 3a
       3.9592385e-05 0.0005918741 -0.00115031 0.00070378184
000150 00 4d e9 39 00 17 a9 b9 00 01 c0 ba 00 96 0b b9
       0.00044498593 -0.00032251328 -0.0014648736 -0.00013311952
000160 00 6c e0 ba 00 a8 14 3a 00 d9 f5 3a 00 80 16 39
       -0.001712203 0.0005670786 0.0018756688 0.00014352798
000170 00 54 1e 39 00 cf d2 b9 00 f8 b1 b7 00 54 05 b9
       0.00015099347 -0.00040208548 -2.1215528e-05 -0.00012715161
000180 00 87 03 3b 00 31 9d 3a 00 bb 98 3a 00 f8 ba ba
       0.002006948 0.0011992753 0.001165241 -0.0014264584
000190 00 50 16 b9 00 c8 9e ba 00 00 17 3b 00 e3 fa ba
       -0.00014334917 -0.0012114048 0.0023040771 -0.0019141138
0001a0 00 a3 df ba 00 00 7c 38 00 99 41 3b 80 91 d3 b9
       -0.0017062128 6.0081482e-05 0.0029540658 -0.00040353462
0001b0 00 03 20 3b 00 8b f9 ba 00 6b 39 bb 00 c6 f4 b9
       0.002441585 -0.0019038618 -0.0028292537 -0.00046686828
0001c0 00 c2 21 ba 00 68 8a b9 00 38 a5 b9 00 3e 5a 3a
       -0.0006170571 -0.00026398897 -0.00031512976 0.0008325279
0001d0 00 01 5f bb 00 2f 3e ba 00 5a 40 bb 00 1f d0 3a
       -0.0034027696 -0.00072549284 -0.002935052 0.0015878379
0001e0 00 52 f4 37 00 1e d1 38 00 6e 0a b9 00 28 ab b7
       2.912525e-05 9.9714845e-05 -0.00013201684 -2.0403415e-05
0001f0 00 b0 95 b8 00 46 18 b8 00 19 08 b9 00 99 ec b8
       -7.137656e-05 -3.6304817e-05 -0.00012979284 -0.000112818554
000200 00 96 6f b9 00 dc fd b7 00 8b 79 39 80 84 8a b8
       -0.00022848696 -3.0262396e-05 0.00023798272 -6.605033e-05
000210 40 c1 ab b8 00 58 dd b8 00 e2 3f b8 00 50 38 37
       -8.189911e-05 -0.000105544925 -4.5748428e-05 1.0985881e-05
000220 00 94 68 39 00 3c 68 39 00 42 8c 38 00 d7 72 b9
       0.00022180378 0.00022147596 6.688014e-05 -0.00023159012
000230 00 b2 61 b9 00 b5 93 ba 00 68 fb 3a 80 f6 8b ba
       -0.00021523982 -0.0011269152 0.0019180775 -0.0010678321
000240 00 d5 40 ba 00 76 3e 39 00 8d 16 3b 00 7c 52 39
       -0.0007355958 0.0001816377 0.0022972226 0.00020073354
000250 00 dc 1b 3b 00 a7 85 ba 00 45 2e bb 00 10 b9 b7
       0.0023782253 -0.0010196865 -0.002659142 -2.206117e-05
000260 00 30 54 b8 00 7d 8b 39 00 00 98 b7 00 bc ef 39
       -5.0589442e-05 0.00026605278 -1.8119812e-05 0.00045725703
000270 00 86 3f bb 80 e1 ae ba 00 6d 05 bb 00 93 f7 3a
       -0.0029224157 -0.0013342351 -0.0020359159 0.0018888414
000280 00 48 37 b8 00 7d 80 b9 00 62 f0 39 00 25 ce b9
       -4.3697655e-05 -0.00024507195 0.00045849383 -0.0003931895
000290 00 03 bd b9 00 d8 b3 b7 00 88 19 3a 00 3b da b8
       -0.00036051124 -2.1439046e-05 0.00058567524 -0.0001040604
0002a0 00 6f e6 39 00 d8 d3 b9 00 9a 09 ba 00 7e bf b8
       0.0004395172 -0.0004040599 -0.0005249083 -9.131059e-05
0002b0 00 a2 02 b9 00 68 cf b8 00 56 b2 b8 00 48 48 39
       -0.00012458116 -9.889901e-05 -8.50372e-05 0.00019100308
0002c0 00 39 29 ba 00 ba 96 b8 00 b8 1d ba 80 bc 8b 39
       -0.0006455332 -7.1872026e-05 -0.0006016493 0.0002665259
0002d0 00 a8 6d b8 00 a6 be b9 00 df 39 3a 00 94 25 ba
       -5.6661665e-05 -0.00036363304 0.00070904195 -0.0006316304
0002e0 80 70 1b ba 00 78 19 b8 00 48 6e 3a 00 8a 4e b9
       -0.00059295446 -3.65898e-05 0.00090897083 -0.000196971
0002f0 00 b2 29 3a 00 d3 29 ba 00 f2 4b ba 00 ca 3c b9
       0.00064733624 -0.000647828 -0.0007779896 -0.00018004328
000300 00 b3 79 b9 00 f0 37 b9 00 dd 17 b9 00 f6 9d 39
       -0.00023813173 -0.00017541647 -0.00014482811 0.00030128658
000310 00 97 7f ba 00 02 9f b8 00 22 7b ba 00 00 c2 39
       -0.0009749979 -7.582083e-05 -0.00095799565 0.00037002563
000320 00 20 a5 b8 00 12 d4 b9 00 1b 31 3a 00 6f b3 b9
       -7.8737736e-05 -0.00040449202 0.00067560375 -0.00034224242
000330 00 9c 60 b9 00 ac a1 38 00 ae 51 3a 00 ac e2 38
       -0.00021420419 7.709116e-05 0.00079986453 0.00010808557
000340 00 45 63 3a 00 78 a8 b9 00 05 7c ba 00 50 86 37
       0.00086696446 -0.00032132864 -0.0009613782 1.6011298e-05
000350 00 a0 50 37 00 67 08 39 00 40 5c 37 00 60 16 39
       1.2435019e-05 0.00013008341 1.3127923e-05 0.00014340878
000360 00 7a 88 ba 00 8e 09 ba 00 c3 34 ba 00 6d 39 3a
       -0.0010412335 -0.0005247295 -0.00068955123 0.0007073432
000370 00 30 28 b8 00 70 6c 38 00 d4 83 b9 00 ab e4 39
       -4.0099025e-05 5.6371093e-05 -0.0002514422 0.00043614954
000380 00 f3 f3 39 00 20 58 b7 00 40 d4 b9 00 d9 8d 39
       0.0004652962 -1.2882054e-05 -0.00040483475 0.00027055293
000390 00 40 41 b9 00 c8 dc 39 00 8b 82 39 00 29 81 39
       -0.00018429756 0.00042110682 0.00024899095 0.00024635345
0003a0 00 3d 9f 39 00 62 29 39 00 0c 0a 39 00 4a 1b b9
       0.00030372292 0.00016153604 0.00013165176 -0.00014809519
0003b0 00 6a c4 39 00 14 db b8 00 0e fa 39 00 d0 70 b7
       0.0003746301 -0.00010446459 0.00047694147 -1.43535435e-05
0003c0 00 cc 0a 38 00 9c 74 38 00 20 e7 36 80 ad 87 b9
       3.3091754e-05 5.831942e-05 6.8880618e-06 -0.00025878474
0003d0 80 b5 a9 b9 00 88 5c b8 00 a4 c1 38 00 91 88 b9
       -0.0003236942 -5.2578747e-05 9.2335045e-05 -0.00026047975
0003e0 00 2c 13 b9 00 1a 8d b9 00 9f db 38 80 45 40 b9
       -0.00014035404 -0.00026912987 0.0001047235 -0.00018336438
0003f0 00 ca 6f b9 00 c0 61 b9 00 30 0a b9 00 b2 de 38
       -0.00022868067 -0.00021529198 -0.00013178587 0.0001061894
