tutorials/tutorial 5/lightning_logs/version_9/checkpoints/epoch=4-step=5.ckpt (torch, 518805 bytes, 206 tensors)

_pina_model._model.model.0.weight f4 [20, 2]
00000000: 224d edbd 8d40 f6be 6ccc 363f 0826 f3bd
00000010: a7e1 d43e 2f80 403e 7eff dfbe 8b4a e0be
00000020: 9baf 9d3d 48f3 90bd 39fd f1be 45e7 20be
00000030: 1efd dfbe 1668 e53e 2722 09be aa7c da3e
00000040: 1f25 2cbe 5640 63be d1f7 e5be 0afe e03e
00000050: 307b c93d 4b6c 043f 18da a6be aa81 8ebe
00000060: 6179 22bf 43ee 1b3f 1c95 873b 1eea 093f
00000070: c9d9 c73e 2d27 023f 949b 073f 42fa 463e
00000080: 6ba1 d2be dd58 783e 47ff 2cbf 3fe3 0ebf
00000090: 0052 a5be 1ab8 d93e 3023 a3be 1bbb 9abe
-0.115869775 -0.48096123 0.71405673 -0.11872488 0.4157841 0.18798898 -0.43749613 -0.43806872
0.0769951 -0.07077652 -0.47263506 -0.15713222 -0.437478 0.44805974 -0.13391934 0.42673236
-0.16811036 -0.22192511 -0.4491563 0.43943816 0.09837949 0.5172774 -0.32588267 -0.278333
-0.6346646 0.60910434 0.0041376483 0.5387286 0.39033344 0.5084103 0.5297177 0.19431403
-0.41138777 0.24252649 -0.6757702 -0.558155 -0.32289124 0.4252327 -0.31862783 -0.30220875

_pina_model._model.model.0.bias f4 [20]
00000000: 9252 4b3e e70d f43e aa09 8d3e 889a 223f
00000010: 9b93 13bf 71a0 04be f4a5 2bbf 346e f7be
00000020: 38b6 0cbf dd98 c3be 3c40 16bf 1cad f63e
00000030: 8b10 18bf d016 09bf d7d0 64bd 63f4 8b3e
00000040: b181 12bf 067b 243f fa08 77be cfe9 fcbe
0.19855717 0.47666857 0.27546436 0.63517046 -0.57647103 -0.12951829 -0.670501 -0.48326266
-0.54965544 -0.38202563 -0.58691764 0.48178947 -0.5940024 -0.53550434 -0.055863228 0.2733489
-0.57229143 0.6425022 -0.24124518 -0.49397132

_pina_model._model.model.2.weight f4 [20, 20]
00000000: a98e 233e abf1 193e 35d5 cf3d 9228 563e
00000010: 1c95 293e e852 e63d b9f7 39bd e808 453d
00000020: 3d49 36be f8a9 443e 6332 44be 1c47 1ebd
00000030: 99c8 5f3d 97f0 55be 97a9 2a3d fde5 e13d
00000040: 4a5a 623d f630 43be b2b4 28bc 8a0f 253d
00000050: 62a6 80bb aca9 8f3d a99e bf3c 8b6a 62bc
00000060: 2502 6abb 0ed8 ad3d 7753 f73d fa9d f33d
00000070: 035f 81bd 14e8 53bd 7924 c63d 6b91 57bd
00000080: a3c0 fbbc dcc4 c33d 2e9a a73d 4cbe e13d
00000090: 9251 7bbd 4dcd ebbc 9bec 1fbe a79a debd
000000a0: efd7 583d 7f1e 6ebc 6a15 643e 879b 393e
000000b0: 463a dbbd a960 44be 65c6 f3bd 6623 b0bd
000000c0: 08d5 ca3c ca22 90bd 86c2 493e b7fe 033e
000000d0: 98a3 40bd d01a 94bd 38a8 9abd 7b8d 973d
000000e0: fec8 b1bd 5713 53be 5c1e 52be bfe5 0c3d
000000f0: 5e13 07bd e123 39be 0f2a 28be bdaa 893d
00000100: f233 28be 76c6 2e3e f589 51be ad50 13be
00000110: e3ec 3bbe ce23 543d 25ee 0cbe a82c f73d
00000120: c7eb 163e 5e60 293e 9bb5 1bbe 42b4 e23d
00000130: fa1b 553e 60ff 19be 17a8 94bd d296 f43d
00000140: d7bc 233e f5b8 b1bd 44cf 05be bd58 963d
00000150: 1b71 bc3c 99da 6d3e 4eeb a53d 67e3 01be
00000160: 6f47 a73d 175e 4a3e 2f84 73bd 4fc7 3abe
00000170: a0fc 273d 58b7 213e b120 1cbd ec74 05be
00000180: 5d6a 263e 2657 3b3d e628 073e 3757 bdbd
00000190: a4dd 3e3e 2a39 db3d 827c 863d b089 803d
000001a0: e9db 37be 3ef0 4dbe 6338 953d ebba 9e3d
000001b0: 2792 603e fbcb 293e 2618 3e3e b22d 4d3e
000001c0: 3671 9aba 4c93 523e e74a 213d 00be b8bd
000001d0: 0b9f 09be 7102 06be ca60 c33d 0ef0 f83d
000001e0: 4468 e0bd 53dd a3bc 3720 3fbe c98a 433e
000001f0: 297a 2fbd a2eb b23d e82d 2dbe c49b 393e
00000200: bdf7 123e 76e8 113d 1b5a 183e 8a76 073e
00000210: 47e0 a4bb 0e77 8b3d cfbc 273e 2017 a8bd
00000220: 6be9 e13d 7b2d 4fbe 47e8 063e 8387 f4ba
00000230: eb46 46be 9b0f 3cbe ca22 06be 08d8 4b3d
00000240: 2322 c8bd 150b 14be 72f5 cbbd aa36 dbbd
00000250: 4663 58be 5974 e33d 5c9d 6f3d fe45 bc3c
00000260: 77cf 59be 3d79 d13c 4f17 c43d fa4a 9e3c
00000270: 0707 313e fe3a 313e 4aed 1c3e dc57 cfbd
00000280: bb4c cc3d 08ae eb3d 97b0 49be b1b6 353e
00000290: ce41 cfbd c314 09bd 0504 753d e3e0 93bd
000002a0: 996e 113d 4460 1abe 94f9 1f3e aa75 493e
000002b0: 15bd 543e 668e 30be a96f 383c 3028 bf3c
000002c0: 6165 63be b551 d9bd 95d5 c73d 1c67 4dbd
000002d0: 9b53 49be f454 3cbd b2ec 703c 67e2 d0bc
000002e0: 14c2 1a3e e51f 283e 8274 c7bb 5894 71bd
000002f0: 22b1 52bd 8297 1a3e d6a9 bd3d c81e 0fbe
00000300: 67b3 9a3d 5ce6 f9bd 41b0 c83c b589 4fbe
00000310: 3a35 0abe 5afd 443e 8204 02be b130 92bc
00000320: 0af4 593e d8a3 373e dca3 5b3e ac36 a23d
00000330: 13fc 51be ca68 b93d efff 253d 1a0e b63c
00000340: c7b2 373e 201c dabd 62f9 38be ca5c 313e
00000350: d260 c9bd 7ebb 16be d3b7 1bbe 4c22 16bd
00000360: 904f 573e a870 ce3d 44dd e4bc c51c e2bd
00000370: a45d 463e 484a 1d3d d7e5 2ebe 2c21 493e
00000380: 9169 8f3d 4b4f 273e 60e0 2b3e c09b 403e
00000390: eaba 433e 8397 79bd 57b9 123e 316c ebbc
000003a0: 1227 ebbd 4de1 1c3c 0f38 ac3d a2cf 14be
000003b0: 384c 4f3d 11b8 92bd 0060 3cbd e1a0 56be
000003c0: bb9e 483e f09e 163d 70c4 4dbe 6184 853d
000003d0: 1bf3 9f3c fbec 113e 1a3d 4f3e d2d4 e73d
000003e0: ae07 f6bd 7147 2fbe 2f5c d43d 2ead 643d
000003f0: dfd8 ea3a 3f7d 083e 7c8d ec3d eae3 4d3d
0.1597239 0.15033595 0.10148088 0.20913914 0.16560787 0.11246282 -0.045402262 0.048104197
-0.17801376 0.19205463 -0.19159846 -0.038642034 0.054634664 -0.20892559 0.04166564 0.11030195
0.055261888 -0.19061646 -0.010296987 0.040298022 -0.0039260844 0.07014784 0.023391085 -0.013819347
-0.0035706845 0.08488475 0.120764665 0.11895366 -0.0631695 -0.051735 0.09674925 -0.052628916
-0.030731505 0.09559032 0.08183704 0.110226244 -0.06135709 -0.028784418 -0.15617602 -0.10869341
0.052940305 -0.014533638 0.22273794 0.18125735 -0.10704474 -0.19177498 -0.11903075 -0.08600502
0.024759784 -0.070378855 0.19703111 0.12890135 -0.047031015 -0.072316766 -0.075516164 0.07400032
-0.08680914 -0.20612846 -0.20519394 0.03439879 -0.032977454 -0.18080093 -0.16422294 0.06722019
-0.16426066 0.17067894 -0.20462783 -0.14386244 -0.18352084 0.05179196 -0.1376272 0.120690644
0.1473838 0.16540667 -0.15205996 0.11069538 0.20811453 -0.15038824 -0.07258623 0.11942829
0.15990005 -0.08677856 -0.13067347 0.07341144 0.023003152 0.2322792 0.081015214 -0.12684403
0.08167922 0.19762455 -0.059452232 -0.18240093 0.041012406 0.15792596 -0.038117114 -0.13032883
0.16251512 0.045737408 0.13199195 -0.092451505 0.18639237 0.107042626 0.06566717 0.06276262
-0.17954983 -0.20111176 0.072861455 0.077504955 0.21930753 0.16581719 0.185639 0.20036963
-0.0011783007 0.20564002 0.039378073 -0.090206146 -0.13439576 -0.13086869 0.095399454 0.12155162
-0.10957387 -0.020002997 -0.18664633 0.19095911 -0.04284111 0.0873635 -0.16912043 0.18125826
0.14352317 0.035622083 0.14878123 0.13228813 -0.0050316188 0.06809817 0.16380619 -0.08207536
0.11030849 -0.20232193 0.13174544 -0.0018656108 -0.1936299 -0.18365328 -0.13099208 0.04976657
-0.09772136 -0.14457352 -0.09958924 -0.10703786 -0.2113162 0.11106176 0.05849968 0.022982594
-0.21270548 0.025570506 0.09574758 0.019322861 0.17287837 0.1730766 0.15324894 -0.1012418
0.09975573 0.11507803 -0.1969627 0.17745472 -0.10119973 -0.033467066 0.059818286 -0.07220628
0.035505865 -0.15075785 0.1562255 0.19673792 0.20775254 -0.1724182 0.011257091 0.023334593
-0.22206642 -0.106112875 0.097575344 -0.05014716 -0.19660799 -0.045979455 0.01470487 -0.025498582
0.15113097 0.16418417 -0.006086887 -0.058979362 -0.05143846 0.15096858 0.09260909 -0.13976586
0.075537495 -0.12202141 0.024498107 -0.20267375 -0.13496867 0.19237271 -0.12697032 -0.017845483
0.212845 0.17933595 0.21449226 0.07920584 -0.20506315 0.0905319 0.04052728 0.022223521
0.17939292 -0.10649896 -0.18063882 0.17320552 -0.0983292 -0.1471996 -0.15206842 -0.0366538
0.21026444 0.10080081 -0.027937539 -0.110406436 0.19371659 0.03840092 -0.17079864 0.1964156
0.07002557 0.16338842 0.16784811 0.18809414 0.19114271 -0.06093551 0.14328514 -0.028738113
-0.114820614 0.0095752 0.0840913 -0.1453233 0.050609797 -0.07164014 -0.04598999 -0.20959808
0.19591801 0.03677267 -0.20094466 0.0651939 0.019525101 0.14250557 0.20238152 0.11319889
-0.120131835 -0.17117096 0.10369145 0.05582922 0.0017917416 0.13329028 0.115504235 0.050266184

_pina_model._model.model.2.bias f4 [20]
00000000: 31a7 40be 3f60 8abb 51fd 403e 2109 89bd
00000010: b62c 4b3e 190a 2d3d c373 8cbd e381 623e
00000020: 5762 44be 6f2c 4f3e ca84 1abc 4b84 20be
00000030: c17a 88bd a311 1cbe 0593 aabd 89a7 b7bd
00000040: eeea f2bd eaf7 593e c9dd 2dbe 44e0 453e
-0.18813778 -0.004222899 0.18846633 -0.06691194 0.19841275 0.042245958 -0.06858017 0.2211986
-0.19178139 0.20231794 -0.009431073 -0.15675466 -0.066640384 -0.15241103 -0.08328823 -0.08967502
-0.118612155 0.21285978 -0.16979136 0.19323832

_pina_model._model.model.4.weight f4 [2, 20]
00000000: bddf 333e 3996 8d3d 12ba d3bd ff97 673e
00000010: 83e6 423d 6b0a 36bd 1bb3 493e 20ee 23bd
00000020: 0b4c ddbd a8ba 22be 6494 b6bd ecb5 acbd
00000030: c4ff f53d edff 5ebd ecb0 263e ba32 3b3e
00000040: 9951 0c3d 12b0 bb3d 53a3 0b3e cb92 50be
00000050: d326 f6bc fe73 3f3e 6c91 2c3e 43d2 3cbe
00000060: 8b90 fe3d b90f 0fbe 2c3b 4bbe 9a9c a13d
00000070: 9ea1 563d f242 723e 4f93 1a3e 8863 073e
00000080: c680 8f3d 0256 763e 9068 32be 654b d7bc
00000090: fb1e 07be e39d 433e 124d 08be 016b f7bd
0.17565818 0.06913418 -0.103382245 0.22616576 0.047583114 -0.04444353 0.1969723 -0.040022016
-0.1080552 -0.15891516 -0.08915022 -0.08433136 0.12011674 -0.05444329 0.16278428 0.1828107
0.034257505 0.09164442 0.13636522 -0.20368497 -0.03004781 0.18696591 0.16852349 -0.18439583
0.12429913 -0.13970841 -0.19846791 0.078911975 0.052400224 0.2365835 0.15095256 0.13221562
0.070069835 0.24056247 -0.174227 -0.026281068 -0.13195412 0.19103198 -0.1331065 -0.12080956

_pina_model._model.model.4.bias f4 [2]
00000000: f5c5 de3d aa99 d93d
0.10877601 0.10625012

d f4 [522]
00000000: 64a1 f2bb ca62 843c cedc b13d a0b3 683b
00000010: fa6e d13d f7ef 493d f1f0 d13c 0d1c d83c
00000020: 7b83 813c 43ec 6ebc f3b8 09be a09f 5bbd
00000030: cf09 13bd 9198 513c 51ee bdbc f8ba 1e3d
00000040: 782c 78bb d9f0 8a3c 2d0b 21bc a6af 1fbd
00000050: 9fa7 c2bc 6ead 11bd 0a58 d43c 9dce 003c
00000060: 3d5b 72bd 4222 6fbb 7701 a4bd 641b 69bc
00000070: ec5d 74bd 7a53 97bd d1be 063c 23fb 4cbb
00000080: c599 92bd 7f70 0b3d 1f95 3ebd d1f5 28bd
00000090: 86dd 663a ef4a 07bd 68b7 af3c eaae 933c
000000a0: 10c9 bf3c 8bec 173d 64c5 233d 147f 443d
000000b0: 9a61 2fbd e047 8bbd 07e9 73bd 0bae 53bd
000000c0: 9192 b8bb ca60 75bc 2d9b 45bd 91be da3d
000000d0: 0b8b 6cbd ac4c bfbd d98e 87bd 3cf4 483d
000000e0: a972 d23c 0695 11be a76b fc3c 4785 a8bb
000000f0: cece 2f3c e8d7 233c 537a 883c 24e9 4d3c
00000100: 1083 07bd 5391 1abc ef35 b2bc c3f1 bbbc
00000110: d13a 08bd 4c25 6fbc 33d5 a8bc fff5 7f3c
00000120: ea0a d839 7391 abbc ee64 1fbc d7e6 503c
00000130: 1562 d8bc a296 593c 4fa7 78bc 6397 dbbc
00000140: 5e0c 363b 8c12 f6bd 92ff 82bd c9ec a4bd
00000150: e8f4 483d bca3 6e3d 6eb6 d53d 0fa9 613d
00000160: be12 6a3d 1dd2 893d 9812 8c3d 169c 6bbd
00000170: 8649 1a3e a4c0 873d 6634 46bd 4139 a0bd
00000180: 135e 983d 52b8 18bd b3f7 c33c 2c69 923d
00000190: 9eca 73bc acba 6f3c 0198 8f3c d55d 32bc
000001a0: f66e 82bc dcb8 42bc e559 f0bb 70c8 a93a
000001b0: 9445 bebc 27c7 13bb e456 ed3b 290c ffbb
000001c0: f529 8439 92b7 0f3c bd87 cd3c c994 9b3c
000001d0: d26c 65bc 9225 0bbc d9a9 443a 5e21 cfbc
000001e0: 9142 ef3c 7f7b 38bc ba5a 06bc 2658 1e3d
000001f0: 8567 88bc 142e 2d3c b9f8 20bc aa2c b7bc
00000200: 54e8 9dbb d94a 93bb 13e8 06bd 835d 0d3d
00000210: e891 5e3b ac7c 06bd 3dfb 32bd 162f 6cbc
00000220: 8474 a7bb 51dc 1b3d 4874 00bc 95dd 983b
00000230: a8a2 023c 062f 0fbe 32e8 a3bd d24b 39bc
00000240: e87e b93c 942f b33d d950 ed3d 99ba 773d
00000250: eff1 423d 2003 d53d eb57 383d 9f9f 8bbb
00000260: eecc 313e 4956 633d 4bc6 8fbd f5b4 c9bd
00000270: 7c2c b83d fe3d 363d 3e9d 833d 4302 8b3d
00000280: 3b2a e63b 0c64 203d 8791 183c e8e3 363d
00000290: 2de4 91ba 3556 42bc b4b0 0bbd f47f 96bc
000002a0: 966c b43a 9fa1 b7bc 9bdf ffbc 09ce f13c
000002b0: c926 89bd 8993 f8bc 5ceb c23b aaa6 843c
000002c0: d45e 67bc c766 d83c 593c a6bb 55dc b6bb
000002d0: e32e ce3c 295f a4bb 1301 1fbc 2807 153d
000002e0: 95d1 a2bb 5519 103c ce3b 26bc f44a 94bc
000002f0: 5003 b33b caef dabb 1dda f0bc 5e41 f43c
00000300: db1b 2dbc 5dc0 f2bc 2053 0fbd dd56 4fbc
00000310: e674 5eba d8a0 043d f258 dbbb 1353 303c
00000320: 49b2 dabb 8d90 593c 8228 5e3c 94eb 0bbc
00000330: 0169 2cbc 98a2 2ebc 18ac 1fbc 0779 75bb
00000340: 0f0a 84bc 2877 01bc 721c f93a 46e9 c6bb
00000350: f6c8 b7bb f778 e53a 8abd 763c b162 6f3c
00000360: 89a3 5fbc 79a7 0bbc 4d12 c1bb 3c4d 8ebc
00000370: a37a 39bc 9228 c23c f354 603c 6e67 99ba
00000380: 5461 3ebb 793c 53bc 5628 5dbc 76c0 68ba
00000390: 8dc8 10bc dd0e 18bc 75f7 853a 814b 6abb
000003a0: 1c76 ccbc 8734 d63a d0eb c93c 0329 963c
000003b0: c089 34bc 5b03 cfbb 887e abba dfff 6ebc
000003c0: e43e babc 351c 8cbd 683a 0cbd ed15 a0bd
000003d0: 35c9 2c3d 9439 ee3c 4a15 9b3d b0e8 5e3d
000003e0: f23d 203d f795 4e3d 7483 8e3d 826f 78bd
000003f0: 169b c33d 8633 8d3d 368b 383b 319b 20bd
-0.007404493 0.016160388 0.08684693 0.0035507455 0.10226245 0.049301114 0.025627585 0.026380563
0.015809765 -0.014582696 -0.13449459 -0.053619027 -0.035898026 0.012792722 -0.023184927 0.038752526
-0.0037868302 0.016960548 -0.009829325 -0.03898587 -0.023761569 -0.035565786 0.025920887 0.00786176
-0.059169043 -0.0036488925 -0.08008092 -0.014227722 -0.059659883 -0.07388969 0.008224205 -0.003127762
-0.071582355 0.03404283 -0.04652893 -0.041250054 0.0008806813 -0.033030447 0.02144976 0.018027741
0.023411304 0.03709082 0.03998317 0.047972754 -0.04281769 -0.068008184 -0.059548404 -0.051679652
-0.0056327065 -0.01497669 -0.04824369 0.10680879 -0.05774979 -0.09340796 -0.06619043 0.049061045
0.02568944 -0.14217004 0.030813051 -0.005142841 0.010730458 0.0100002065 0.016659891 0.012567792
-0.033083975 -0.009434062 -0.021754233 -0.02294243 -0.033259217 -0.014596295 -0.020609474 0.015622615
0.00041206862 -0.020943379 -0.009728653 0.012750349 -0.026413957 0.013280543 -0.015176608 -0.026805585
0.0027778368 -0.12015256 -0.063964024 -0.08052976 0.049061686 0.058261618 0.10435186 0.055092867
0.05714678 0.06729529 0.06839484 -0.057521902 0.1506711 0.0662854 -0.048389815 -0.0782342
0.07439818 -0.037285157 0.023921823 0.07148966 -0.014879851 0.014631908 0.017528536 -0.010886629
-0.01592205 -0.011884894 -0.007334935 0.0012953412 -0.023226537 -0.0022549124 0.007243024 -0.007783432
0.00025208262 0.008771794 0.02508914 0.018991845 -0.014002996 -0.008492844 0.0007502116 -0.025284465
0.029206546 -0.0112599125 -0.008200342 0.038658284 -0.016650924 0.010570068 -0.009824925 -0.022360165
-0.0048189554 -0.0044950065 -0.032936167 0.034513008 0.0033961479 -0.03283374 -0.04369663 -0.014415523
-0.0051103253 0.038051907 -0.007840224 0.0046650865 0.007973351 -0.13982782 -0.08003272 -0.011309581
0.022643521 0.08749309 0.11587686 0.060480688 0.047594007 0.10400987 0.04500572 -0.0042609717
0.1736333 0.05550221 -0.07020243 -0.09848968 0.0899286 0.044492714 0.06426476 0.06787541
0.0070240772 0.039157912 0.00931204 0.044650942 -0.0011130624 -0.011861374 -0.034104064 -0.01837156
0.0013765271 -0.022415934 -0.031234553 0.02951719 -0.06696851 -0.030343788 0.005948467 0.016192753
-0.01412173 0.026416196 -0.005073112 -0.005580465 0.025168842 -0.005016227 -0.009704846 0.036383778
-0.004968832 0.008795102 -0.0101460945 -0.018102147 0.0054630414 -0.006681417 -0.02940088 0.029816326
-0.010565723 -0.029632742 -0.034991384 -0.012654987 -0.0008486047 0.032379955 -0.0066939527 0.010761994
-0.0066740853 0.0132790925 0.0135594625 -0.008540053 -0.010523082 -0.010658883 -0.00974562 -0.003745617
-0.016118078 -0.007901944 0.001900567 -0.006070289 -0.005608673 0.0017507364 0.015059838 0.014610932
-0.01364983 -0.008523815 -0.005892074 -0.017370813 -0.011320743 0.023700986 0.0136921285 -0.0011703798
-0.0029049711 -0.012892836 -0.013498386 -0.00088787766 -0.0088368775 -0.009280887 0.0010220843 -0.003575057
-0.024958663 0.0016342559 0.024648577 0.018330103 -0.01101917 -0.0063175387 -0.0013083974 -0.014587372
-0.022735067 -0.068413176 -0.034235388 -0.07816682 0.042184073 0.02908019 0.0757242 0.054421127
0.039121576 0.050435986 0.069586664 -0.060653217 0.09551065 0.06894593 0.0028159148 -0.039210502

old_dirs f4 [522]
00000000: 0000 71b7 00a0 70b7 00f8 05b7 002c 8bb6
00000010: 005e 86b7 00ec 77b7 0060 d736 00ec d036
00000020: 0080 dbb7 0060 b8b7 0080 4fb7 0050 41b7
00000030: 0018 30b7 0030 b4b7 0000 ecb6 00c0 d4b6
00000040: 0078 3a36 00c0 bb35 0060 0738 0008 fc37
00000050: 0068 1d37 0058 fb36 0060 d236 0000 e636
00000060: 0008 4e37 00c0 f036 0060 2d38 005c 2038
00000070: 0000 0db7 0080 dcb6 0050 f436 00a8 3337
00000080: 00b0 8b37 0080 9c37 0060 5fb8 0008 47b8
00000090: 0020 fd37 0048 d737 00b0 d237 0080 b337
000000a0: 0020 eeb7 0048 3bb7 003c 06b8 00a0 1937
000000b0: 0070 48b8 00c0 d6b7 0010 f5b7 0060 56b7
000000c0: 0000 1936 0050 8438 0020 9b37 0000 3437
000000d0: 00a0 ab37 00d8 a338 0010 80b7 0020 d437
000000e0: 0018 1b38 0020 d2b8 0000 6338 0008 5338
000000f0: 0088 2ab6 0094 a537 0080 8937 0068 b736
00000100: 0044 8cb7 0094 54b7 00d4 95b7 0050 2cb7
00000110: 00f0 acb7 0058 42b7 0028 0db7 0088 a436
00000120: 00e0 81b7 0008 03b7 0028 3e37 005c 9137
00000130: 00d4 9cb7 0000 2935 0018 d9b6 00bc b4b7
00000140: 00f0 c236 00e0 49b8 00a0 1eb8 0060 50b7
00000150: 0040 1638 0060 f637 00a0 3238 0000 c437
00000160: 0010 3e38 0040 f737 0030 a437 0050 2db7
00000170: 0080 2b38 0028 9d37 0050 f3b7 0008 2cb8
00000180: 0090 3338 0028 84b6 00f0 8a37 0020 4d38
00000190: 00d8 da36 0098 6db8 0008 3bb8 00d8 8db7
000001a0: 0068 3838 00e8 0f38 00e8 5438 00c0 ed37
000001b0: 0048 6538 00d0 0e38 0020 cc37 0050 6cb7
000001c0: 00c0 4838 0048 bf37 0010 0bb8 0028 4ab8
000001d0: 0030 5638 00e0 cfb6 0078 9d37 00f8 7438
000001e0: 8020 18b7 0008 a038 00b8 7f38 0030 c037
000001f0: 0070 7fb8 00a8 43b8 0088 8fb8 0038 21b8
00000200: 0030 9eb8 0078 3eb8 0000 0ab8 0058 a237
00000210: 0058 84b8 00e8 00b8 0058 3b38 0030 8938
00000220: 0010 92b8 0030 0637 0070 d1b7 0030 a8b8
00000230: 00f0 ef35 00e0 3cb7 00e0 24b7 0060 5cb6
00000240: 0000 2d37 0080 ec36 00b0 2637 00c0 b536
00000250: 0050 5537 0000 d436 0060 9b36 00c0 45b6
00000260: 0020 0637 00b0 9036 0040 f2b6 0040 2ab7
00000270: 0060 3537 0030 f5b5 0080 5f36 0020 6037
00000280: 00b0 94b6 00d8 3438 0058 0d38 0080 5137
00000290: 00e8 08b8 00c0 d9b7 0048 22b8 00d0 b5b7
000002a0: 0068 2bb8 00b0 dfb7 0018 9cb7 00a0 2c37
000002b0: 0010 1bb8 00a0 94b7 0080 d237 00e8 1838
000002c0: 0090 22b8 0010 a936 00f0 7db7 0028 38b8
000002d0: 0054 36b7 00b0 a338 00d8 8338 0000 b437
000002e0: 0028 82b8 0000 4bb8 0018 91b8 00b0 1fb8
000002f0: 0030 a2b8 0078 3fb8 0090 05b8 0058 9a37
00000300: 0070 85b8 00f0 f8b7 0098 4638 00a8 8d38
00000310: 0068 94b8 00a0 c236 0040 ceb7 00d0 acb8
00000320: 00bc 7a36 0038 16b8 0020 eab7 00b0 36b7
00000330: 00a0 e537 0010 b537 0038 0738 0050 9837
00000340: 00cc 0e38 0040 b737 00a0 8337 0078 16b7
00000350: 0014 0138 00a8 7737 0000 adb7 00f0 fdb7
00000360: 0004 0738 0030 89b6 00f8 4c37 00c8 1838
00000370: 00da 6936 0020 e2b7 0010 b8b7 0010 f5b6
00000380: 00c0 b637 00d4 8d37 0018 ca37 0010 6337
00000390: 0070 e337 0040 8637 0048 3c37 0020 d5b6
000003a0: 0070 b637 0070 3037 00ec 85b7 0048 c4b7
000003b0: 0088 d037 0020 dbb5 0000 1537 00f0 f037
000003c0: 0098 2937 00c0 a8b8 00d0 87b8 0020 b6b7
000003d0: 0030 8538 00b0 5138 0078 9638 00f0 2738
000003e0: 0070 a638 0068 4a38 0008 0c38 0028 9cb7
000003f0: 0080 8a38 0008 0438 00d0 48b8 0098 91b8
-1.4364719e-05 -1.4342368e-05 -7.98516e-06 -4.147645e-06 -1.6017817e-05 -1.4777295e-05 6.418675e-06 6.226357e-06
-2.6166439e-05 -2.1979213e-05 -1.2367964e-05 -1.1522323e-05 -1.0496005e-05 -2.1480024e-05 -7.033348e-06 -6.340444e-06
2.778601e-06 1.3988465e-06 3.2275915e-05 3.0044466e-05 9.382144e-06 7.4906275e-06 6.2696636e-06 6.854534e-06
1.22804195e-05 7.174909e-06 4.133582e-05 3.8232654e-05 -8.404255e-06 -6.571412e-06 7.28108e-06 1.0708347e-05
1.6652048e-05 1.8656254e-05 -5.325675e-05 -4.7452748e-05 3.0174851e-05 2.5663525e-05 2.5115907e-05 2.1398067e-05
-2.8386712e-05 -1.1162832e-05 -3.200397e-05 9.156764e-06 -4.7788024e-05 -2.5600195e-05 -2.9213727e-05 -1.2777746e-05
2.2798777e-06 6.309152e-05 1.8492341e-05 1.0728836e-05 2.0459294e-05 7.812679e-05 -1.526624e-05 2.528727e-05
3.697723e-05 -0.00010019541 5.4121017e-05 5.031377e-05 -2.5411136e-06 1.973845e-05 1.6391277e-05 5.465932e-06
-1.6720966e-05 -1.2670644e-05 -1.7860904e-05 -1.0270625e-05 -2.0615757e-05 -1.158379e-05 -8.413568e-06 4.9034134e-06
-1.5482306e-05 -7.810071e-06 1.1334196e-05 1.7328188e-05 -1.869537e-05 6.2957406e-07 -6.469898e-06 -2.1545216e-05
5.80959e-06 -4.813075e-05 -3.7819147e-05 -1.2420118e-05 3.582239e-05 2.9370189e-05 4.258752e-05 2.336502e-05
4.531443e-05 2.9474497e-05 1.9572675e-05 -1.033023e-05 4.0888786e-05 1.8734485e-05 -2.900511e-05 -4.1015446e-05
4.2811036e-05 -3.938563e-06 1.656264e-05 4.890561e-05 6.522052e-06 -5.6646764e-05 -4.4591725e-05 -1.6909093e-05
4.3965876e-05 3.4309924e-05 5.0760806e-05 2.8342009e-05 5.466491e-05 3.4049153e-05 2.4333596e-05 -1.4085323e-05
4.786253e-05 2.2802502e-05 -3.3155084e-05 -4.8197806e-05 5.106628e-05 -6.1951578e-06 1.8771738e-05 5.84051e-05
-9.067473e-06 7.630885e-05 6.09681e-05 2.2910535e-05 -6.0901046e-05 -4.6648085e-05 -6.844103e-05 -3.8437545e-05
-7.542968e-05 -4.541129e-05 -3.2901764e-05 1.9352883e-05 -6.310642e-05 -3.0733645e-05 4.466623e-05 6.54161e-05
-6.964803e-05 7.998198e-06 -2.4966896e-05 -8.019805e-05 1.7876737e-06 -1.1257827e-05 -9.827316e-06 -3.2838434e-06
1.0311604e-05 7.0482492e-06 9.935349e-06 5.416572e-06 1.2714416e-05 6.3180923e-06 4.630536e-06 -2.9467046e-06
7.994473e-06 4.3120235e-06 -7.2196126e-06 -1.0147691e-05 1.0810792e-05 -1.8267892e-06 3.3304095e-06 1.3358891e-05
-4.431233e-06 4.311651e-05 3.3698976e-05 1.2487173e-05 -3.2640994e-05 -2.5957823e-05 -3.8690865e-05 -2.1673739e-05
-4.0866435e-05 -2.6665628e-05 -1.8607825e-05 1.0289252e-05 -3.696978e-05 -1.771748e-05 2.5093555e-05 3.645569e-05
-3.875792e-05 5.038455e-06 -1.51358545e-05 -4.390627e-05 -1.0867603e-05 7.805228e-05 6.2868e-05 2.1457672e-05
-6.206334e-05 -4.839897e-05 -6.918609e-05 -3.8072467e-05 -7.733703e-05 -4.5649707e-05 -3.184378e-05 1.8399209e-05
-6.362796e-05 -2.9675663e-05 4.734844e-05 6.7546964e-05 -7.0765615e-05 5.800277e-06 -2.4586916e-05 -8.240342e-05
3.7362333e-06 -3.581494e-05 -2.7909875e-05 -1.08890235e-05 2.7373433e-05 2.1584332e-05 3.2238662e-05 1.8157065e-05
3.4045428e-05 2.1845102e-05 1.5690923e-05 -8.968636e-06 3.0774623e-05 1.4761463e-05 -2.0623207e-05 -3.0271709e-05
3.2190233e-05 -4.088506e-06 1.22170895e-05 3.642589e-05 3.4846598e-06 -2.69562e-05 -2.194196e-05 -7.3034316e-06
2.1785498e-05 1.690723e-05 2.4091452e-05 1.353398e-05 2.7112663e-05 1.6003847e-05 1.1222437e-05 -6.35162e-06
2.1748245e-05 1.05164945e-05 -1.5964732e-05 -2.3398548e-05 2.4858862e-05 -1.6326085e-06 8.881092e-06 2.8721988e-05
1.0108575e-05 -8.046627e-05 -6.476045e-05 -2.1710992e-05 6.350875e-05 4.9993396e-05 7.174909e-05 4.003942e-05
7.9363585e-05 4.825741e-05 3.338605e-05 -1.8615276e-05 6.604195e-05 3.1478703e-05 -4.787743e-05 -6.942451e-05

old_dirs f4 [522]
00000000: 0090 06b8 0080 04b8 00c0 c8b7 00be 1ab7
00000010: 004f 19b8 008d 04b8 0000 e335 002c 6836
00000020: 00f4 84b8 0090 5ab8 0010 fab7 0070 f0b7
00000030: 00b8 82b7 00c8 46b8 00d0 c0b7 0008 acb7
00000040: 00da 1437 0054 ab36 0000 ab38 0098 9638
00000050: 0014 ed37 000a be37 00e8 4637 0044 7337
00000060: 003c 1a38 00c2 8f37 007c c238 007c ad38
00000070: 00f0 cbb7 0040 a7b7 0060 be36 0092 8e37
00000080: 00d0 0438 00c0 1638 0014 03b9 00cc e8b8
00000090: 0028 a938 0098 8938 0008 7f38 002c 5738
000000a0: 0090 88b8 0082 e9b7 00e2 8fb8 0030 94b6
000000b0: 00f8 f0b8 00d8 89b8 00a8 6fb8 00c0 2bb8
000000c0: 0090 0637 0038 2339 002c 6b38 0060 a037
000000d0: 001c 6b38 00c8 3739 003c 31b8 0048 3e38
000000e0: 00a8 9538 0048 78b9 0098 1439 001c fb38
000000f0: 00b8 5ab6 001c e237 0020 c637 0078 0637
00000100: 00cc d3b7 00f0 94b7 00ac cfb7 00f0 76b7
00000110: 0010 01b8 0008 83b7 008c 4bb7 00d8 f736
00000120: 0000 a3b7 0060 3ab7 0008 7a37 0060 ca37
00000130: 0084 e3b7 00c0 7535 009c 16b7 0084 04b8
00000140: 00a0 7d37 0064 02b9 0050 cbb8 00bc 04b8
00000150: 00b8 bf38 003c 9e38 0028 e638 0088 7938
00000160: 0044 f338 00e4 9f38 0030 5138 00c4 d6b7
00000170: 0070 de38 0048 4438 0080 9fb8 00b4 deb8
00000180: 000c e638 00bc 17b7 0040 3438 00b6 0339
00000190: 0094 7137 00f0 0fb9 0068 dfb8 0070 2eb8
000001a0: 00bc da38 0020 ac38 0044 0139 00fc 8f38
000001b0: 004e 0839 00a4 af38 00b4 7938 0028 0db8
000001c0: 0068 f738 0008 6838 00ae a7b8 006c f3b8
000001d0: 00c8 0039 0094 83b7 00b0 4438 0048 1239
000001e0: 4071 9eb7 0054 3039 0008 0c39 0040 5a38
000001f0: 001c 0cb9 003c d5b8 0050 1eb9 0014 b1b8
00000200: 00a4 2db9 003c d3b8 00b4 99b8 0090 3338
00000210: 00a8 12b9 00a4 8db8 00f0 ce38 00e4 1639
00000220: 00a8 20b9 0028 a437 0014 6ab8 0010 39b9
00000230: 007c 8536 0000 d5b7 0070 bfb7 0000 0fb7
00000240: 0080 d537 0010 8437 00c8 be37 0000 5037
00000250: 0050 0138 0000 6937 0060 3837 0098 fab6
00000260: 0010 8c37 0030 2137 00c8 8ab7 0020 c5b7
00000270: 00c8 d337 00f0 b8b6 00b0 f336 0070 0638
00000280: 00b8 39b7 006c ea38 0090 b538 0000 0a38
00000290: 0008 b0b8 00b4 8bb8 0088 d2b8 0058 6ab8
000002a0: 0068 dcb8 0090 91b8 00d4 4ab8 00a0 dd37
000002b0: 0064 cab8 00c0 3db8 0044 8938 0030 c638
000002c0: 006c d1b8 00a8 5e37 00f4 25b8 0054 edb8
000002d0: 00b9 c0b7 0028 3839 0062 1339 00d8 5238
000002e0: 00fc 11b9 00a4 e1b8 0098 23b9 00e0 b3b8
000002f0: 00d4 35b9 0008 d9b8 00d4 98b8 00c0 2f38
00000300: 00fc 16b9 0078 8cb8 00e8 de38 00f0 1e39
00000310: 00d0 26b9 0030 8237 004c 6cb8 0018 42b9
00000320: 00a5 1037 00a4 b3b8 00cc 8ab8 000c e1b7
00000330: 004a 8838 00f0 5538 00b4 a138 0020 3538
00000340: 0076 a938 0084 5b38 0068 1e38 0028 b5b7
00000350: 007a 9b38 0018 1338 00e0 4fb8 0082 97b8
00000360: 0084 a038 005c 33b7 0090 f537 00e6 b538
00000370: 005b de36 00bc 68b8 0090 3db8 0018 85b7
00000380: 0038 3e38 0098 1038 0008 5138 0058 eb37
00000390: 0024 6c38 0018 0b38 009c c637 0008 62b7
000003a0: 0034 3b38 00ac b737 00fa 08b8 0008 4ab8
000003b0: 0028 5838 0090 93b6 0084 9c37 0000 7a38
000003c0: 00be b237 0034 3ab9 00a4 15b9 0010 4eb8
000003d0: 008c 1339 0054 e538 0058 2639 0004 b938
000003e0: 0040 3839 0074 e038 00f0 9b38 0078 2cb8
000003f0: 0080 1839 00cc 9038 0050 deb8 00d8 20b9
-3.20822e-05 -3.159046e-05 -2.3931265e-05 -9.223353e-06 -3.6551617e-05 -3.160257e-05 1.6912818e-06 3.4596305e-06
-6.339699e-05 -5.210936e-05 -2.9809773e-05 -2.8662384e-05 -1.558289e-05 -4.7393143e-05 -2.2985041e-05 -2.0507723e-05
8.8722445e-06 5.105976e-06 8.1539154e-05 7.1808696e-05 2.8261915e-05 2.2654422e-05 1.1855736e-05 1.4499761e-05
3.677234e-05 1.7137267e-05 9.273738e-05 8.27238e-05 -2.4311244e-05 -1.9937754e-05 5.673617e-06 1.6995706e-05
3.1664968e-05 3.59416e-05 -0.00012500584 -0.0001110062 8.0659986e-05 6.560981e-05 6.080419e-05 5.1300973e-05
-6.5118074e-05 -2.78363e-05 -6.860867e-05 -4.4163316e-06 -0.000114902854 -6.572902e-05 -5.7138503e-05 -4.094839e-05
8.02055e-06 0.00015565753 5.6069344e-05 1.911819e-05 5.6054443e-05 0.00017526746 -4.2255968e-05 4.5366585e-05
7.136166e-05 -0.00023677945 0.00014171004 0.00011973828 -3.2591633e-06 2.6954338e-05 2.361834e-05 8.014962e-06
-2.5248155e-05 -1.7754734e-05 -2.4756417e-05 -1.4718622e-05 -3.0770898e-05 -1.5620142e-05 -1.2132339e-05 7.3863193e-06
-1.9431114e-05 -1.1108816e-05 1.4903024e-05 2.412498e-05 -2.7121976e-05 9.154901e-07 -8.977018e-06 -3.1594187e-05
1.5117228e-05 -0.00012435019 -9.6946955e-05 -3.164634e-05 9.1418624e-05 7.545203e-05 0.00010974705 5.9492886e-05
0.00011599809 7.624179e-05 4.9874187e-05 -2.5602058e-05 0.000106066465 4.6797097e-05 -7.605553e-05 -0.000106193125
0.0001096949 -9.0440735e-06 4.297495e-05 0.00012560934 1.4399178e-05 -0.0001372695 -0.0001065284 -4.158914e-05
0.00010430068 8.2075596e-05 0.0001232773 6.86571e-05 0.00012999028 8.375198e-05 5.9533864e-05 -3.3654273e-05
0.00011797249 5.532056e-05 -7.9955906e-05 -0.000116072595 0.00012281537 -1.5685335e-05 4.6893954e-05 0.00013950467
-1.8887804e-05 0.0001681596 0.0001335442 5.2034855e-05 -0.00013361871 -0.00010167807 -0.00015097857 -8.443743e-05
-0.0001655966 -0.0001007244 -7.329136e-05 4.2811036e-05 -0.0001398623 -6.753951e-05 9.867549e-05 0.00014390051
-0.00015321374 1.956895e-05 -5.5808574e-05 -0.00017648935 3.9781444e-06 -2.5391579e-05 -2.2821128e-05 -8.523464e-06
2.5451183e-05 1.5743077e-05 2.2742897e-05 1.2397766e-05 3.0830503e-05 1.3887882e-05 1.0989606e-05 -7.4682757e-06
1.6696751e-05 9.607524e-06 -1.6544014e-05 -2.3499131e-05 2.5246292e-05 -5.511567e-06 7.2624534e-06 3.2052398e-05
-1.10697e-05 0.00011178106 8.657575e-05 3.2901764e-05 -8.393824e-05 -6.661564e-05 -0.00010038912 -5.5871904e-05
-0.00010509789 -6.940961e-05 -4.8357993e-05 2.6419759e-05 -9.650737e-05 -4.5239925e-05 6.545335e-05 9.4503164e-05
-9.986013e-05 1.3271347e-05 -3.956631e-05 -0.00011316687 -2.2974331e-05 0.00017562509 0.0001405552 5.0269067e-05
-0.00013922155 -0.000107593834 -0.00015601516 -8.5771084e-05 -0.00017340481 -0.000103488564 -7.287413e-05 4.1902065e-05
-0.00014398992 -6.698072e-05 0.00010628998 0.00015157461 -0.0001590848 1.551956e-05 -5.6337565e-05 -0.00018510222
8.621486e-06 -8.5659325e-05 -6.618351e-05 -2.6827678e-05 6.498769e-05 5.1006675e-05 7.710606e-05 4.3183565e-05
8.080527e-05 5.2336603e-05 3.7766993e-05 -2.1595508e-05 7.4137e-05 3.5069883e-05 -4.9561262e-05 -7.2244555e-05
7.6539814e-05 -1.0690652e-05 2.9273331e-05 8.6735934e-05 6.6267094e-06 -5.54882e-05 -4.5195222e-05 -1.5866011e-05
4.5351684e-05 3.4473836e-05 4.9836934e-05 2.8055161e-05 5.6300312e-05 3.3162534e-05 2.3676082e-05 -1.3472512e-05
4.4632703e-05 2.1895394e-05 -3.2657757e-05 -4.8168004e-05 5.1535666e-05 -4.397705e-06 1.8658116e-05 5.9604645e-05
2.130773e-05 -0.00017757714 -0.00014270842 -4.912913e-05 0.00014071167 0.00010935217 0.00015863776 8.8222325e-05
0.0001757145 0.00010702759 7.4356794e-05 -4.1119754e-05 0.00014543533 6.904453e-05 -0.00010600686 -0.00015339255

old_dirs f4 [522]
00000000: 0044 0bb8 0034 08b8 00a0 efb7 00b6 1db7
00000010: 0070 23b8 009d 09b8 0020 43b6 0000 2cb2
00000020: 0032 88b8 0048 5cb8 00d0 f0b7 00e0 ebb7
00000030: 0088 3fb7 0050 4cb8 00f0 ccb7 009c aeb7
00000040: 0082 1837 0090 a636 00b0 b638 0040 9b38
00000050: 0024 0438 00c2 d137 0008 1837 001c 5837
00000060: 0078 3438 00fa 8f37 003c cb38 0090 b138
00000070: 0010 d3b7 00d0 aeb7 0000 3e35 00e8 7437
00000080: 008c ff37 00e8 1538 0054 06b9 0014 edb8
00000090: 00fc b438 005a 8f38 00f0 8338 00ac 5c38
000000a0: 002c 90b8 00fe feb7 0042 96b8 0018 75b7
000000b0: 0018 f5b8 0014 8bb8 00b8 63b8 0058 30b8
000000c0: 00a0 f936 00e4 2b39 0070 8338 00f0 5637
000000d0: 00e8 8238 0024 4039 00c4 2db8 0098 3538
000000e0: 00be 9338 00d8 7eb9 00d4 1c39 0022 0139
000000f0: 0040 23b6 0028 b937 0040 aa37 00f8 ef36
00000100: 0048 beb7 003c 79b7 00d4 acb7 00d0 54b7
00000110: 00b0 e4b7 0008 53b7 0024 30b7 00f0 e036
00000120: 00f0 73b7 00d8 1eb7 0028 4337 0050 a837
00000130: 0048 c5b7 0000 8d35 00a8 f8b6 0040 e7b7
00000140: 004c 8037 00c4 05b9 0070 cfb8 00e4 04b8
00000150: 00e4 c238 0050 a138 0088 eb38 0080 7d38
00000160: 00d8 f738 00ac a438 00c4 5338 00dc d2b7
00000170: 0088 e438 0080 4438 00a8 a5b8 00a0 e4b8
00000180: 00e4 ea38 00a4 14b7 000c 3a38 00b8 0639
00000190: 00bd 6d37 0002 18b9 001c eab8 00bc 3ab8
000001a0: 0060 e538 0024 b438 00bc 0839 0064 9838
000001b0: 00d6 0e39 00c0 ba38 00d2 8438 00cc 14b8
000001c0: 0098 0339 0020 7538 00a2 b0b8 000e 00b9
000001d0: 00bc 0739 00ac 93b7 0060 5238 00aa 1939
000001e0: c096 99b7 0044 3339 00c8 0d39 0090 6138
000001f0: 005c 0eb9 00ec d6b8 0000 21b9 00fc b3b8
00000200: 002c 30b9 0034 d7b8 0010 9db8 00b4 3638
00000210: 0050 15b9 0050 8fb8 00a8 d238 000c 1939
00000220: 0058 23b9 0020 b337 0024 6fb8 001c 3cb9
00000230: 0010 6436 00a0 b2b7 0008 a9b7 00a0 08b7
00000240: 0060 ca37 00b0 5a37 0080 a137 0010 3037
00000250: 00b8 f037 0000 3a37 0020 2137 00f0 edb6
00000260: 0080 4937 00a0 0337 00c0 71b7 0070 abb7
00000270: 0008 bb37 0088 d8b6 00e0 bb36 0070 f737
00000280: 00f4 39b7 00bc f538 0018 bd38 0014 1138
00000290: 006c b7b8 0028 91b8 00b8 dcb8 00d0 74b8
000002a0: 00a8 e5b8 0038 99b8 0084 54b8 0000 e537
000002b0: 00f4 d4b8 00d0 44b8 00bc 9038 0084 cf38
000002c0: 00e0 dab8 0050 7137 0038 2fb8 0008 f8b8
000002d0: 00c8 bcb7 0078 3c39 006c 1639 001c 5c38
000002e0: 00d0 15b9 0038 e5b8 00a8 27b9 0084 b8b8
000002f0: 0038 3ab9 00ac deb8 00a0 9db8 00d0 3438
00000300: 0090 1ab9 0054 8fb8 0030 e438 0074 2239
00000310: 0000 2bb9 00f8 9237 005c 73b8 00fc 46b9
00000320: 00e3 0f37 0004 bbb8 00d6 8fb8 008c edb7
00000330: 00ac 8d38 0010 5d38 0070 a838 008c 3c38
00000340: 00f2 af38 0014 6538 00ac 2538 00e4 bcb7
00000350: 003c a238 00a4 1838 00b0 58b8 0072 9db8
00000360: 00f6 a638 0090 45b7 005a 0038 0028 bd38
00000370: 0026 d136 009c 6bb8 0074 3fb8 0000 8cb7
00000380: 00e8 4138 000a 1138 003c 5438 0000 f037
00000390: 00d8 6f38 0034 0d38 0078 cc37 00c8 69b7
000003a0: 0064 3d38 00f8 ba37 00d4 09b8 00fc 4bb8
000003b0: 00dc 5b38 00d8 b1b6 00c0 9f37 0000 7e38
000003c0: 0018 ab37 0090 39b9 0028 15b9 0028 4fb8
000003d0: 00f4 1339 0054 e338 00f4 2539 0088 b838
000003e0: 0080 3839 0048 e038 00f0 9b38 00fc 2ab8
000003f0: 004c 1739 0014 8f38 0060 deb8 0078 20b9
-3.3203512e-05 -3.2473356e-05 -2.8565526e-05 -9.400304e-06 -3.8966537e-05 -3.2809563e-05 -2.907589e-06 -1.0011718e-08
-6.4942986e-05 -5.2519143e-05 -2.8707087e-05 -2.8118491e-05 -1.1416152e-05 -4.8711896e-05 -2.4430454e-05 -2.081506e-05
9.090174e-06 4.9639493e-06 8.711219e-05 7.402897e-05 3.150478e-05 2.500508e-05 9.061769e-06 1.28811225e-05
4.3027103e-05 1.7163344e-05 9.69097e-05 8.46684e-05 -2.516061e-05 -2.0839274e-05 7.0780516e-07 1.459755e-05
3.0463561e-05 3.5740435e-05 -0.00012810528 -0.00011304766 8.6300075e-05 6.835535e-05 6.29127e-05 5.2612275e-05
-6.874651e-05 -3.0397438e-05 -7.164851e-05 -1.4608726e-05 -0.00011686981 -6.631762e-05 -5.429238e-05 -4.2043626e-05
7.4394047e-06 0.00016392767 6.2674284e-05 1.2811273e-05 6.2420964e-05 0.00018323958 -4.1428953e-05 4.3295324e-05
7.0448965e-05 -0.00024303794 0.00014956295 0.00012315065 -2.4326146e-06 2.2072345e-05 2.0295382e-05 7.151626e-06
-2.2683293e-05 -1.4855526e-05 -2.0602718e-05 -1.26846135e-05 -2.7261674e-05 -1.2578443e-05 -1.0498799e-05 6.70366e-06
-1.4539808e-05 -9.467825e-06 1.1632219e-05 2.0064414e-05 -2.3517758e-05 1.0505319e-06 -7.4105337e-06 -2.7567148e-05
1.529418e-05 -0.00012756884 -9.891391e-05 -3.1683594e-05 9.293109e-05 7.6919794e-05 0.00011231005 6.043911e-05
0.00011818111 7.852167e-05 5.048886e-05 -2.5136396e-05 0.00010897219 4.684925e-05 -7.8991055e-05 -0.000109016895
0.00011200458 -8.859672e-06 4.435703e-05 0.00012847781 1.4170306e-05 -0.00014496595 -0.00011163205 -4.4520944e-05
0.00010937452 8.5897744e-05 0.00013040006 7.266551e-05 0.00013621897 8.904934e-05 6.333366e-05 -3.547594e-05
0.00012549758 5.8442354e-05 -8.422509e-05 -0.00012212247 0.00012944639 -1.760386e-05 5.015731e-05 0.00014654547
-1.830922e-05 0.00017096102 0.00013521314 5.377829e-05 -0.00013576448 -0.000102482736 -0.00015354156 -8.582324e-05
-0.00016801059 -0.00010261685 -7.4893236e-05 4.355982e-05 -0.0001423955 -6.8336725e-05 0.00010044873 0.00014595687
-0.00015577674 2.1353364e-05 -5.7015568e-05 -0.00017939508 3.398396e-06 -2.129376e-05 -2.0150095e-05 -8.143485e-06
2.412498e-05 1.3034791e-05 1.92523e-05 1.0494143e-05 2.8695911e-05 1.1086464e-05 9.603798e-06 -7.09109e-06
1.2010336e-05 7.845461e-06 -1.4409423e-05 -2.0436943e-05 2.2295862e-05 -6.453134e-06 5.5991113e-06 2.9496849e-05
-1.108367e-05 0.00011717528 9.016693e-05 3.458932e-05 -8.7462366e-05 -6.9215894e-05 -0.0001052469 -5.836785e-05
-0.00010950863 -7.306039e-05 -5.0667673e-05 2.7298927e-05 -0.00010154396 -4.6923757e-05 6.901473e-05 9.895116e-05
-0.00010436773 1.4383346e-05 -4.1775405e-05 -0.00011827052 -2.2504479e-05 0.0001797378 0.00014345348 5.2478164e-05
-0.00014287233 -0.00010930002 -0.00015988946 -8.7983906e-05 -0.00017759204 -0.000106178224 -7.516146e-05 4.310906e-05
-0.00014740229 -6.8344176e-05 0.00010880828 0.00015492737 -0.00016307831 1.752004e-05 -5.8021396e-05 -0.00018976629
8.576317e-06 -8.9176e-05 -6.858632e-05 -2.8317794e-05 6.7554414e-05 5.2705407e-05 8.031726e-05 4.4953078e-05
8.389726e-05 5.461648e-05 3.9499253e-05 -2.2517517e-05 7.735938e-05 3.639236e-05 -5.1662326e-05 -7.5075775e-05
7.961318e-05 -1.1775643e-05 3.0601397e-05 9.019673e-05 6.233109e-06 -5.6173652e-05 -4.5645982e-05 -1.66893e-05
4.6230853e-05 3.4580007e-05 5.0600618e-05 2.861023e-05 5.7183206e-05 3.366545e-05 2.4374574e-05 -1.3934448e-05
4.5154244e-05 2.2288412e-05 -3.2860786e-05 -4.8633665e-05 5.241856e-05 -5.3001568e-06 1.9043684e-05 6.055832e-05
2.0395964e-05 -0.00017696619 -0.00014224648 -4.93899e-05 0.0001410991 0.0001083985 0.00015826523 8.799136e-05
0.00017595291 0.000106945634 7.4356794e-05 -4.076585e-05 0.00014428794 6.822497e-05 -0.00010603666 -0.00015303493

old_dirs f4 [522]
00000000: 000c 12b8 005c 0eb8 006d 0cb8 00ea 24b7
00000010: 00b7 32b8 009b 13b8 00a8 c4b6 00c4 0cb6
00000020: 008e 8bb8 00f8 5db8 0080 e1b7 0040 e2b7
00000030: 00e8 04b7 0008 56b8 0050 d0b7 0098 a8b7
00000040: 00fc 1637 0068 9736 0030 c338 0000 a138
00000050: 0026 1038 00ac e237 0010 ca36 0044 3a37
00000060: 001a 4f38 00f4 9037 002e d938 0064 ba38
00000070: 00d8 d2b7 0090 afb7 0000 59b6 00b4 5d37
00000080: 00c4 0038 00f0 1b38 007c 0ab9 00a4 f2b8
00000090: 00d4 bf38 00b0 9438 00d8 8838 00e8 6238
000000a0: 00d0 99b8 0091 0cb8 002a a2b8 007c b8b7
000000b0: 00f8 f8b8 0054 89b8 00c0 5db8 00d8 2bb8
000000c0: 0070 d436 0068 3539 00a8 8f38 00e0 c336
000000d0: 00be 9038 0038 4d39 0000 23b8 0038 3638
000000e0: 0076 9838 0044 83b9 002c 2439 0082 0539
000000f0: 0000 03b6 006c a737 0000 a137 00d0 eb36
00000100: 0090 bbb7 0020 66b7 00f4 9eb7 0080 4ab7
00000110: 0070 deb7 0098 3bb7 0004 28b7 0098 df36
00000120: 00d0 48b7 00f8 14b7 0068 2737 0068 9a37
00000130: 0080 bcb7 0010 af35 0088 e2b6 00c8 ddb7
00000140: 0048 8037 0064 07b9 0008 d1b8 00e8 01b8
00000150: 0084 c338 0040 a238 00b8 ed38 00f0 7d38
00000160: 006c f938 005c a738 00dc 5238 00e4 c9b7
00000170: 0080 e738 00a0 4138 0020 aab8 009c e7b8
00000180: 0000 ed38 0040 0eb7 00a0 3d38 0022 0839
00000190: 00b9 6d37 00ba 21b9 00a4 f7b8 00d4 48b8
000001a0: 0014 f338 0014 be38 00ae 1139 0084 a238
000001b0: 0040 1739 00ac c738 001c 8e38 00ec 1db8
000001c0: 00b0 0c39 0048 8238 00aa bbb8 00d8 07b9
000001d0: 0050 1039 00c4 a5b7 00c0 6138 00f6 2239
000001e0: 806a 98b7 00a0 3939 005a 1239 00f8 6b38
000001f0: 007c 13b9 00f8 dcb8 00d0 26b9 0068 bab8
00000200: 0050 36b9 0030 dfb8 0018 a3b8 00ac 3c38
00000210: 00b8 1ab9 007c 93b8 00a4 da38 0040 1e39
00000220: 0050 29b9 00d0 c337 0070 78b8 00f0 42b9
00000230: 00c8 3536 00b0 83b7 00a8 89b7 0030 f4b6
00000240: 0058 b737 0030 1e37 0010 7237 0050 0337
00000250: 00f0 d437 00a0 f536 00d0 fc36 0098 d4b6
00000260: 00c0 c536 0040 b636 0080 41b7 0088 87b7
00000270: 0008 9837 0040 f6b6 0000 6136 0020 d737
00000280: 0010 39b7 0084 ff38 0078 c338 0064 1638
00000290: 00b4 bdb8 00b0 95b8 0058 e5b8 00bc 7db8
000002a0: 00a0 edb8 0004 a0b8 005c 5cb8 00a8 e937
000002b0: 001c deb8 004c 4ab8 0088 9738 0080 d738
000002c0: 0024 e3b8 0038 8137 0050 37b8 00b0 00b9
000002d0: 002a bdb7 0008 4439 001e 1c39 00c8 6738
000002e0: 0054 1cb9 00dc ecb8 0098 2eb9 0050 c0b8
000002f0: 00f0 41b9 000c e8b8 00b0 a4b8 0014 3c38
00000300: 009c 20b9 0054 94b8 00a0 ed38 00d4 2839
00000310: 004c 32b9 0050 a437 0020 7eb8 006c 4fb9
00000320: 007a 1037 0048 c4b8 006e 96b8 0088 fbb7
00000330: 00a0 9438 0080 6638 00f6 b038 0024 4638
00000340: 0060 b838 0008 7138 0084 2e38 00e8 c5b7
00000350: 0098 aa38 00b2 1f38 00b8 63b8 0006 a5b8
00000360: 0050 af38 00e0 58b7 0056 0738 0078 c638
00000370: 0082 cc36 0090 76b8 00e0 47b8 00b8 96b7
00000380: 00f4 4b38 0088 1638 00a8 5e38 00b8 fc37
00000390: 0080 7b38 0014 1438 00a0 d837 0010 78b7
000003a0: 0044 4638 0034 c437 008e 0fb8 00ec 54b8
000003b0: 00e4 6638 0050 d3b6 0018 a837 002e 8538
000003c0: 00b8 a637 0078 3bb9 00c4 16b9 0020 51b8
000003d0: 0074 1639 0074 e438 00a8 2739 0070 ba38
000003e0: 0050 3b39 00f8 e238 006c 9d38 009c 2ab8
000003f0: 00ec 1739 00d8 8e38 00b0 e1b8 003c 22b9
-3.482029e-05 -3.394112e-05 -3.3480115e-05 -9.829644e-06 -4.260894e-05 -3.5191886e-05 -5.860813e-06 -2.0975713e-06
-6.654486e-05 -5.2921474e-05 -2.6881695e-05 -2.6971102e-05 -7.92183e-06 -5.1029027e-05 -2.4832785e-05 -2.0097941e-05
8.99937e-06 4.512258e-06 9.307265e-05 7.677078e-05 3.4367666e-05 2.7021393e-05 6.0219318e-06 1.1102296e-05
4.937686e-05 1.7279759e-05 0.000103559345 8.8877976e-05 -2.5134534e-05 -2.092868e-05 -3.233552e-06 1.3214536e-05
3.0700117e-05 3.7178397e-05 -0.00013206899 -0.000115700066 9.147078e-05 7.0899725e-05 6.5252185e-05 5.4098666e-05
-7.3343515e-05 -3.3513643e-05 -7.732585e-05 -2.1992251e-05 -0.00011871755 -6.548315e-05 -5.286932e-05 -4.0970743e-05
6.331131e-06 0.00017300248 6.850064e-05 5.83753e-06 6.901845e-05 0.00019571185 -3.886223e-05 4.3444335e-05
7.269904e-05 -0.0002503693 0.0001565665 0.00012732297 -1.9520521e-06 1.9958243e-05 1.9192696e-05 7.02776e-06
-2.2359192e-05 -1.3716519e-05 -1.894869e-05 -1.2069941e-05 -2.6516616e-05 -1.1181459e-05 -1.0014512e-05 6.663613e-06
-1.1969358e-05 -8.879229e-06 9.97819e-06 1.840666e-05 -2.2470951e-05 1.3043173e-06 -6.7511573e-06 -2.6438385e-05
1.5292317e-05 -0.00012911856 -9.967387e-05 -3.0972064e-05 9.3229115e-05 7.736683e-05 0.00011335313 6.0543418e-05
0.00011893362 7.980317e-05 5.0272793e-05 -2.4067238e-05 0.0001103878 4.6163797e-05 -8.112192e-05 -0.000110439956
0.00011301041 -8.478761e-06 4.5210123e-05 0.00012982637 1.41693745e-05 -0.00015423447 -0.00011808425 -4.7881156e-05
0.00011590868 9.063631e-05 0.00013893098 7.749349e-05 0.00014424324 9.521097e-05 6.776303e-05 -3.765151e-05
0.00013417006 6.212294e-05 -8.94852e-05 -0.0001295507 0.00013762712 -1.9760802e-05 5.3822994e-05 0.00015541166
-1.8169405e-05 0.0001770258 0.00013957173 5.6259334e-05 -0.00014065206 -0.00010536611 -0.0001590848 -8.888543e-05
-0.00017386675 -0.00010642409 -7.776916e-05 4.498288e-05 -0.0001475513 -7.032603e-05 0.000104255974 0.00015091896
-0.00016146898 2.3342669e-05 -5.9232116e-05 -0.00018590689 2.7087517e-06 -1.5698373e-05 -1.6409904e-05 -7.2773546e-06
2.1856278e-05 9.42871e-06 1.4428049e-05 7.826835e-06 2.5384128e-05 7.3201954e-06 7.5343996e-06 -6.3357875e-06
5.8934093e-06 5.4314733e-06 -1.1533499e-05 -1.6156584e-05 1.8123537e-05 -7.338822e-06 3.3527613e-06 2.5644898e-05
-1.1030585e-05 0.000121839345 9.320676e-05 3.585592e-05 -9.04575e-05 -7.137656e-05 -0.00010935962 -6.049499e-05
-0.00011330843 -7.6301396e-05 -5.253777e-05 2.7853996e-05 -0.00010591 -4.8231333e-05 7.225573e-05 0.00010275841
-0.00010830909 1.5404075e-05 -4.3705106e-05 -0.00012272596 -2.2550113e-05 0.00018694997 0.00014888495 5.5260956e-05
-0.00014908612 -0.00011294335 -0.00016650558 -9.1701746e-05 -0.00018495321 -0.00011064857 -7.852912e-05 4.484132e-05
-0.00015316904 -7.072836e-05 0.00011330843 0.00016100705 -0.00017003715 1.9587576e-05 -6.058812e-05 -0.00019781291
8.611474e-06 -9.359419e-05 -7.1730465e-05 -2.9984862e-05 7.086992e-05 5.4955482e-05 8.438155e-05 4.7240406e-05
8.791685e-05 5.7466328e-05 4.1607767e-05 -2.3592263e-05 8.134544e-05 3.807433e-05 -5.429238e-05 -7.868931e-05
8.3595514e-05 -1.2926757e-05 3.2266602e-05 9.4637275e-05 6.0948078e-06 -5.878508e-05 -4.7653913e-05 -1.7967075e-05
4.8626214e-05 3.5889447e-05 5.3085387e-05 3.0126423e-05 5.9962273e-05 3.5304576e-05 2.5823712e-05 -1.4785677e-05
4.727021e-05 2.3389235e-05 -3.4226105e-05 -5.076453e-05 5.5048615e-05 -6.2976032e-06 2.0038337e-05 6.3505024e-05
1.9874424e-05 -0.00017878413 -0.0001437813 -4.9859285e-05 0.00014348328 0.00010893494 0.00015988946 8.890033e-05
0.00017863512 0.000108227134 7.50646e-05 -4.0676445e-05 0.00014488399 6.811321e-05 -0.000107616186 -0.00015471876

old_dirs f4 [522]
00000000: 0008 1ab8 00d8 15b8 00fc 23b8 00da 2fb7
00000010: 005f 46b8 00e5 20b8 0098 12b7 009a 8cb6
00000020: 00e4 8fb8 00d8 60b8 0080 ceb7 00f0 d6b7
00000030: 00a0 8db6 0094 62b8 00c8 d2b7 00ec a1b7
00000040: 00fa 1637 0000 8936 00f8 d138 0090 a838
00000050: 00b4 1d38 003a f637 0020 3036 0038 1937
00000060: 0000 6d38 000e 9437 0028 eb38 002c c638
00000070: 0038 d1b7 00e0 aeb7 00f0 f7b6 00b8 4737
00000080: 002e 0438 0070 2438 00cc 0fb9 001c fab8
00000090: 0080 cc38 0060 9b38 0014 8f38 0030 6b38
000000a0: 00dc a4b8 009d 1cb8 00d2 b1b8 00c4 f7b7
000000b0: 0010 feb8 00b0 86b8 00b0 58b8 00f0 25b8
000000c0: 0090 af36 00e4 4039 007c 9d38 0080 07b6
000000d0: 00d8 a038 00d4 5d39 003c 16b8 0078 3838
000000e0: 00be 9f38 0008 88b9 00d0 2c39 0024 0b39
000000f0: 00c0 cab5 0030 9937 00ec 9a37 0020 eb36
00000100: 0020 bcb7 0070 57b7 002c 94b7 00f0 43b7
00000110: 0040 dcb7 0018 28b7 00c0 22b7 00f0 e036
00000120: 0020 21b7 00e4 0db7 00b0 0e37 0098 8f37
00000130: 0044 b7b7 00f0 cf35 0048 d1b6 0098 d8b7
00000140: 0056 8137 0054 09b9 0020 d3b8 0048 fbb7
00000150: 0080 c438 00a0 a338 0054 f038 0080 7e38
00000160: 00b8 fb38 007c aa38 00b4 5138 0098 beb7
00000170: 00a8 ea38 0010 3e38 0080 afb8 003c ebb8
00000180: 009c ef38 00b8 04b7 00c8 4138 00f4 0939
00000190: 001c 7137 00b2 2db9 0048 04b9 006c 59b8
000001a0: 0014 0239 00a0 ca38 00a8 1c39 00d8 ae38
000001b0: 00ca 2139 0054 d738 005a 9938 00d0 28b8
000001c0: 00c0 1739 00a8 8b38 007e c9b8 0086 11b9
000001d0: 00f6 1a39 0080 bab7 0040 7438 0096 2e39
000001e0: c05c 99b7 0050 4239 00b2 1839 00a8 7838
000001f0: 005c 1ab9 0090 e5b8 0094 2eb9 0004 c3b8
00000200: 00a8 3eb9 00f4 e9b8 00f8 aab8 00fc 4338
00000210: 00f4 21b9 0020 99b8 0094 e538 005e 2539
00000220: 006c 31b9 0090 d637 0066 82b8 0030 4cb9
00000230: 00e0 0336 00a0 16b7 00c0 47b7 00d0 ccb6
00000240: 00a8 9f37 0000 ac36 0090 0f37 0000 9936
00000250: 00d8 b237 0040 3836 0030 a736 00b8 b2b6
00000260: 0000 c4b5 0060 2636 0040 08b7 0090 38b7
00000270: 0010 5b37 0030 0bb7 0000 2735 00f0 af37
00000280: 00f4 39b7 00a4 0539 0058 cb38 002c 1c38
00000290: 0060 c5b8 0044 9bb8 00cc efb8 002c 84b8
000002a0: 0084 f7b8 00fc a7b8 00b4 65b8 0090 ee37
000002b0: 00cc e8b8 00e8 50b8 00c8 9f38 0028 e138
000002c0: 0030 edb8 00a0 8a37 00fc 40b8 0060 06b9
000002d0: 004a c0b7 0034 4e39 00de 2339 00b0 7538
000002e0: 00d8 24b9 0094 f7b8 00c8 37b9 0078 cab8
000002f0: 0054 4cb9 0050 f4b8 00b4 adb8 00d8 4438
00000300: 00c0 28b9 00f4 9ab8 007c fa38 0068 3139
00000310: 00e8 3bb9 0020 b737 0018 86b8 00a4 5ab9
00000320: 0006 1337 0034 d0b8 00fc 9eb8 002a 06b8
00000330: 0082 9d38 00f4 7238 00ce bb38 0048 5238
00000340: 0048 c338 001c 8038 009c 3938 00ec d0b7
00000350: 0038 b538 00a4 2838 00fc 71b8 00c2 aeb8
00000360: 0008 ba38 0008 6fb7 0020 1038 006c d238
00000370: 0049 cb36 00c8 82b8 0060 53b8 0084 a3b7
00000380: 0030 5938 0066 1e38 00c4 6c38 00bc 0638
00000390: 0096 8538 006c 1d38 0020 e837 00a8 84b7
000003a0: 007c 5238 0044 d037 00b8 17b8 004c 61b8
000003b0: 00c4 7538 00b8 f7b6 003c b337 0086 8d38
000003c0: 005f a437 00d8 3eb9 00a0 19b9 00b8 53b8
000003d0: 0020 1a39 0080 e738 00b4 2a39 00c4 bd38
000003e0: 00d0 3f39 0070 e738 00f0 9f38 0048 2ab8
000003f0: 0098 1939 0048 8f38 0058 e7b8 0064 25b9
-3.672391e-05 -3.5725534e-05 -3.909692e-05 -1.048157e-05 -4.7295354e-05 -3.8360246e-05 -8.737668e-06 -4.190253e-06
-6.86124e-05 -5.3606927e-05 -2.4616718e-05 -2.5622547e-05 -4.220754e-06 -5.4020435e-05 -2.5127083e-05 -1.9302592e-05
8.998904e-06 4.082918e-06 0.0001001209 8.037686e-05 3.7599355e-05 2.9352494e-05 2.624467e-06 9.132549e-06
5.6505203e-05 1.7649494e-05 0.00011213124 9.4495714e-05 -2.4940819e-05 -2.0846725e-05 -7.3891133e-06 1.1904165e-05
3.1514093e-05 3.9204955e-05 -0.00013713539 -0.00011926144 9.75132e-05 7.408857e-05 6.822497e-05 5.607307e-05
-7.8611076e-05 -3.7339516e-05 -8.479133e-05 -2.9535964e-05 -0.00012114644 -6.4224005e-05 -5.1662326e-05 -3.9562583e-05
5.23217e-06 0.00018395483 7.50944e-05 -2.0191073e-06 7.669628e-05 0.00021155179 -3.5818666e-05 4.3980777e-05
7.617101e-05 -0.00025945902 0.00016480684 0.00013269484 -1.5106052e-06 1.8261373e-05 1.8468127e-05 7.007271e-06
-2.2426248e-05 -1.2841076e-05 -1.7663464e-05 -1.1678785e-05 -2.6255846e-05 -1.0019168e-05 -9.700656e-06 6.70366e-06
-9.603798e-06 -8.45734e-06 8.504838e-06 1.7117709e-05 -2.1846965e-05 1.5492551e-06 -6.2370673e-06 -2.5819987e-05
1.5418045e-05 -0.0001309663 -0.000100672245 -2.995506e-05 9.36985e-05 7.802248e-05 0.00011459738 6.067753e-05
0.00012002885 8.1293285e-05 4.999712e-05 -2.2720546e-05 0.00011189282 4.531443e-05 -8.368492e-05 -0.00011216849
0.00011425465 -7.910654e-06 4.620105e-05 0.00013156235 1.4371239e-05 -0.00016564876 -0.00012615323 -5.1837415e-05
0.00012405217 9.661913e-05 0.00014939904 8.3372e-05 0.00015429407 0.00010267645 7.312372e-05 -4.0248036e-05
0.00014472008 6.659329e-05 -9.607896e-05 -0.00013878196 0.00014778227 -2.2232533e-05 5.8233738e-05 0.00016649812
-1.8282211e-05 0.00018531084 0.0001456216 5.928427e-05 -0.00014720857 -0.00010946393 -0.00016649067 -9.29907e-05
-0.00018182397 -0.00011155754 -8.152425e-05 4.6726316e-05 -0.00015445054 -7.301569e-05 0.00010947138 0.00015770644
-0.00016920269 2.5577843e-05 -6.217882e-05 -0.00019472837 1.9650906e-06 -8.97795e-06 -1.1906028e-05 -6.103888e-06
1.9032508e-05 5.1259995e-06 8.556992e-06 4.5597553e-06 2.1319836e-05 2.745539e-06 4.982576e-06 -5.326234e-06
-1.4603138e-06 2.4791807e-06 -8.121133e-06 -1.1000782e-05 1.30571425e-05 -8.2962215e-06 6.221235e-07 2.0973384e-05
-1.108367e-05 0.00012744963 9.6961856e-05 3.7234277e-05 -9.4115734e-05 -7.403642e-05 -0.00011434406 -6.302446e-05
-0.00011802465 -8.010119e-05 -5.4765493e-05 2.8438866e-05 -0.0001110062 -4.980713e-05 7.618964e-05 0.00010736287
-0.00011309981 1.6525388e-05 -4.601106e-05 -0.00012814999 -2.2922643e-05 0.00019665062 0.00015627593 5.8576465e-05
-0.00015720725 -0.00011805445 -0.00017526746 -9.654462e-05 -0.00019486248 -0.00011649728 -8.2828104e-05 4.6931207e-05
-0.00016093254 -7.388741e-05 0.00011944026 0.00016918778 -0.00017920136 2.1830201e-05 -6.394088e-05 -0.00020851195
8.76328e-06 -9.927899e-05 -7.580966e-05 -3.1987205e-05 7.510558e-05 5.792454e-05 8.955225e-05 5.0134957e-05
9.3117356e-05 6.108731e-05 4.4252723e-05 -2.4905428e-05 8.6411834e-05 4.020706e-05 -5.769357e-05 -8.333102e-05
8.870661e-05 -1.4247373e-05 3.4362078e-05 0.00010033697 6.0583698e-06 -6.236136e-05 -5.0395727e-05 -1.9492581e-05
5.1781535e-05 3.776513e-05 5.6449324e-05 3.212318e-05 6.369874e-05 3.75323e-05 2.7671456e-05 -1.5813857e-05
5.0183386e-05 2.4827197e-05 -3.617257e-05 -5.371496e-05 5.859509e-05 -7.382594e-06 2.1366403e-05 6.7483634e-05
1.9594561e-05 -0.00018200278 -0.00014650822 -5.0477684e-05 0.00014698505 0.0001103878 0.00016279519 9.04873e-05
0.00018292665 0.000110358 7.626414e-05 -4.0598214e-05 0.00014647841 6.8321824e-05 -0.000110313296 -0.00015772879
