tutorials/tutorial 5/lightning_logs/version_65/checkpoints/epoch=39-step=40.ckpt (torch, 7123 bytes, 6 tensors)

_pina_model._model.model.0.weight f4 [20, 2]
00000000: 2ecb 263f 57da ca3e 3f2c b0be a3b1 62bd
00000010: c5fa 0f3f f399 1b3f 8a70 4fbe 60cc e5be
00000020: 0278 2ebf 07fc e4be c9a0 0abd e545 c63c
00000030: 0de9 9b3e 0ab7 d4be 0ba8 273e 271e 643e
00000040: 0abb 12bf a3e4 91be f0f9 823e 9be1 dabd
00000050: 8b34 a7be 0b4f acbe 7253 193f 73ed a2be
00000060: 2125 33bd a12d 39bb 8e70 3e3e 7956 273f
00000070: d92c 21be 6669 173f c132 0ebe 5796 c5bd
00000080: 5a21 dabe 6b4a 263f 7659 cbbe 4b48 30bf
00000090: e90d db3e a0d4 19bf 1279 edbe 45f7 353e
0.6515378 0.39619705 -0.34408757 -0.05534519 0.5624202 0.6078178 -0.20257774 -0.44882488
-0.6815187 -0.44723532 -0.033844743 0.02420325 0.3045124 -0.41545898 0.16372697 0.22277127
-0.5731665 -0.28494748 0.25581312 -0.10687562 -0.32657275 -0.33654055 0.5989295 -0.31821784
-0.04373658 -0.0028255957 0.18597624 0.6536632 -0.15739764 0.591452 -0.13886549 -0.09647816
-0.4260357 0.649573 -0.3971669 -0.6886031 0.4278405 -0.60090065 -0.46381432 0.17770107

_pina_model._model.model.0.bias f4 [20]
00000000: acb9 0e3f 27a9 f83e 05b5 93be e76d 7e3e
00000010: 2cd5 5cbe 0702 86bd e96e 143f 64f2 b83e
00000020: 2e02 f93e 009b 1e3e abaf fdbe 3cd9 4c3e
00000030: fdf3 03bf 0764 41be a33a 2dbf f2bd 893c
00000040: b0c1 24bf dfe2 73bd 8744 0cbf 3fe0 7a3c
0.5575206 0.48566553 -0.28849044 0.24846612 -0.21565694 -0.065433554 0.57981735 0.3612243
0.48634475 0.15488815 -0.49548087 0.20004743 -0.5154417 -0.18885814 -0.676676 0.016814206
-0.64358044 -0.059542533 -0.54792064 0.0153122535

_pina_model._model.model.2.weight f4 [20, 20]
00000000: dce4 e9bb 5710 593e 4653 38be a70a 8abd
00000010: 6076 3abe 7e0d 823d 0aa4 c4bd 64b4 3f3e
00000020: 5e74 dcbd 3c71 003e 77d3 07be ff14 3f3e
00000030: a5fe a23d 3aaa ae3d 71a1 3d3e 5c80 2b3e
00000040: 663d 60be a797 453e 6b05 2c3e 7f1d 14be
00000050: b0ee 1e3e 95ef 513e 95c6 543e a7d2 0f3e
00000060: 34ec b03d 6820 87bd e25d 4a3e 956f b7bd
00000070: b3c2 093d e0f6 5cbe 1801 3cbd 12ce 8fbb
00000080: 727e 183e 551a 39bd 4919 3bbe 8ebe 8b3d
00000090: ef79 73bd 0030 34be 9405 ed3c 73a0 0a3d
000000a0: f1eb 28bc 11e3 023e bce0 27be 0ba4 4e3e
000000b0: bc03 d6bd cde5 d53c dc87 a33d 025c 9abd
000000c0: cfa6 563e dc87 10be 5656 1abe a123 2c3d
000000d0: 0ca1 6a3d 3e60 c8bc c75d 4ebe 0d34 5ebe
000000e0: a235 4d3e 099a b9bb 4b42 ca3d 566c 62be
000000f0: b267 b63d 326e 03be 0df1 ca3d fb4e c53d
00000100: a158 0e3d 7f32 a93c db4c 2d3d 18d6 0bbe
00000110: 3757 143e 23b2 d6bc 1624 98bb b684 f2bd
00000120: 854b 4a3d 35df dabd 6f8a d53c 59db 453e
00000130: 7ec7 c5bd b394 6f3d 47ad b7bd 0f05 4dbd
00000140: 2728 0c3e 8b88 0b3e 7349 2bbc 9106 343c
00000150: ed34 08be 7b57 a1bd 66e7 243e 4780 fabd
00000160: 1e5c 42bd 3d53 5ebe 56d2 0dbe ee28 273e
00000170: 19e2 59be 96ff ddbb 1003 4ebe fe7d 3cbd
00000180: d8d8 acbc c749 da3d bbf6 6ebd 4a98 2dbd
00000190: 6f77 4fbe 3730 5d3e f912 3cbe 5a30 1c3d
000001a0: 6ecc d8bd 8f3d b7bd d46a 81bd 3157 19be
000001b0: 0f50 cabc 3f07 f9bd 53a6 44be b27c 1b3d
000001c0: 2904 34be 4dbb 783d 1d40 2cbe 8f19 aabd
000001d0: c307 423e 954a 23be a2e4 a13d a887 083e
000001e0: d38d e1bd 05a6 803d 5e80 09be 1efe 00be
000001f0: 7e03 0f3e c33c adbd 7d54 21be b73c 90bb
00000200: 5a05 10be 9284 1fbe 5779 1f3e df7d 2a3e
00000210: 4c41 f63d 29ed 5bbe 2754 dbbd b7f5 ddbd
00000220: 3c63 e33d 6e4b 263e 88dc 2dbe db30 42be
00000230: 4756 f13d ddb7 9c3d 2adf a3bc a8fb 50be
00000240: faf6 1e3d e535 363e 314a 2dbd a95e f53d
00000250: b5db d6bd 6d08 5e3e 8ef4 a7bd 5f73 1d3e
00000260: 852c 163d 83d9 23be f834 063e dc6d a53c
00000270: 92d6 bbbc 671c debd 18d4 893d 3bd2 5c3e
00000280: 599d 353e aae2 6cbd f1b3 e43d c5b9 62bc
00000290: 753b a03d 68bd 2dbe 220c eabb 2a98 b43d
000002a0: 41fc dd3d a93a 243e 65c7 583e 835e 06bd
000002b0: 92aa 3dbe e4d2 02be 6c91 583d c6e0 fb3d
000002c0: 4985 393d 18ca 2e3d eb69 4b3e 7494 263e
000002d0: 3e6a 05be 4e62 efbc 6ea2 953d ec41 31be
000002e0: e4e0 363e ccc6 07bd 9b15 cfbd 6661 d03d
000002f0: 7049 b9bc a955 323e db6f 35be d97d 1f3e
00000300: 1788 413d 920f 3ebe bb50 bcbd 0402 403e
00000310: 7326 0cbd e28f 4b3e 9817 273c df00 093e
00000320: 22d2 8dbb ef66 e5bd 6eed 9a3d 11b1 6a3d
00000330: 4c42 20be 97c0 433d 9410 08be 8f5f 3fbe
00000340: 2b11 7fbd 01c3 a13d 51fd 353d 152b 2abe
00000350: a687 ea3c 1db4 1fbe cf4e 47be 829d 04bc
00000360: b27c 313e 34bd 213e cc2c 18be 41cf 503e
00000370: 86b5 0cbe 7531 5abe c53d d7bd 1ca8 8bbd
00000380: dcef 4d3e 4a91 c4bd 90a9 783d e836 3a3e
00000390: 4c15 1fbe 6071 5bbd 9715 113e 358b 38bc
000003a0: 27ed 49be d2f9 603e 3094 3b3e f354 a83d
000003b0: 00dc c5bb 2fbd 30be b234 07bd b935 4cbe
000003c0: 0041 583e a78c 833c d830 2a3e 2b03 513e
000003d0: 81b0 593e 4d0b 01be 11ef 373e 0403 a73d
000003e0: a215 00be b7ee 183e 3c2b 333e 6258 493e
000003f0: 2d00 45be b6fb 413e 5cd2 113e c8fc 69bd
-0.007137878 0.2119764 -0.18000516 -0.06740313 -0.18209219 0.0635023 -0.096016005 0.18721157
-0.10764383 0.12543195 -0.13264261 0.18660353 0.07958726 0.08528562 0.18518616 0.16748184
-0.21898422 0.19296132 0.16798942 -0.14464377 0.1552074 0.2050155 0.20778878 0.14045201
0.08638802 -0.06597978 0.19762376 -0.089568295 0.033632945 -0.2157855 -0.04589948 -0.004388579
0.14891985 -0.045191128 -0.18271364 0.06823455 -0.059442457 -0.17596436 0.028933324 0.033844423
-0.010310159 0.12781931 -0.16394323 0.20179765 -0.10449931 0.026110554 0.079848975 -0.0753708
0.2096207 -0.14114326 -0.15071997 0.042026166 0.057282493 -0.024459954 -0.2015296 -0.21699543
0.2003999 -0.0056641144 0.09875926 -0.2211164 0.08906497 -0.12835005 0.09909258 0.09634205
0.03475249 0.020653961 0.042309623 -0.13655889 0.14486395 -0.02620799 -0.0046429737 -0.11841719
0.049388427 -0.106871046 0.026066987 0.19321956 -0.09657191 0.05849142 -0.08968597 -0.050053652
0.13687192 0.13626306 -0.010454523 0.010987894 -0.1330144 -0.07878014 0.16103896 -0.12231498
-0.04745113 -0.2171144 -0.13849768 0.16324207 -0.21277656 -0.006774853 -0.20118356 -0.046018593
-0.021099493 0.10658603 -0.05834077 -0.042381562 -0.20260404 0.21600424 -0.18366612 0.03813205
-0.10585867 -0.08947288 -0.06319204 -0.14974667 -0.024696378 -0.12159585 -0.19204073 0.037960716
-0.17579712 0.0607255 -0.16821332 -0.08305656 0.18948273 -0.1594642 0.079049364 0.13332999
-0.11013379 0.06281666 -0.13427874 -0.12596938 0.13966176 -0.08458855 -0.15754886 -0.004401769
-0.14064541 -0.15577915 0.15573631 0.16649579 0.12024173 -0.21477188 -0.1070941 -0.10837882
0.11102912 0.16239712 -0.16978657 -0.1896395 0.11784034 0.07652257 -0.020003874 -0.20408499
0.038809754 0.17793997 -0.042307083 0.119809456 -0.104911245 0.21682902 -0.08200942 0.15376042
0.03666355 -0.16000943 0.13106143 0.020193987 -0.022929464 -0.10845261 0.06729907 0.21564572
0.17735805 -0.05783335 0.111671336 -0.013838236 0.078238405 -0.16966784 -0.0071425596 0.088180855
0.10839129 0.16038002 0.21169813 -0.032804977 -0.18522099 -0.12775761 0.05287306 0.122987315
0.045293126 0.0426732 0.19864623 0.16267568 -0.1302881 -0.02922168 0.07306372 -0.17310303
0.17859226 -0.03314857 -0.10111543 0.10174827 -0.022618026 0.1741549 -0.1771845 0.15575351
0.047248926 -0.18560627 -0.091950856 0.18750769 -0.034216356 0.19879106 0.010198496 0.13379239
-0.0043280283 -0.11201274 0.07564817 0.05729777 -0.1565029 0.04779109 -0.13287574 -0.18688796
-0.062272232 0.07898522 0.044431034 -0.16617997 0.028629135 -0.15596052 -0.19463657 -0.008094193
0.17332724 0.15794832 -0.14860839 0.20391561 -0.1374112 -0.21307929 -0.105098285 -0.06819174
0.2011103 -0.09598024 0.060708582 0.18185008 -0.15535468 -0.05357492 0.14168392 -0.011263658
-0.19719373 0.21970299 0.18318248 0.08219328 -0.006038189 -0.17259668 -0.03300924 -0.19942369
0.21118546 0.01605828 0.16620195 0.20411365 0.21258737 -0.12601967 0.1796229 0.08154872
-0.12508252 0.14934812 0.17496961 0.19662622 -0.19238348 0.18943676 0.14240402 -0.057125837

_pina_model._model.model.2.bias f4 [20]
00000000: f225 5e3e 659e bbbc d810 643d 8f3b 74bd
00000010: 7db6 1e3e 7677 a3bc e061 3f3e 835e 963d
00000020: dee3 0e3c 0a3f 2fbe 98a2 0c3e e2c1 ee3c
00000030: d665 e8bc 8483 4e3e 9cea 60bd 2388 483e
00000040: b036 38be 8d37 b63c 7554 353d 1c6a 983d
0.21694162 -0.022902677 0.055680126 -0.059627112 0.15499301 -0.019954424 0.1868968 0.073422454
0.00872132 -0.17113891 0.137339 0.029145185 -0.028368872 0.20167357 -0.05491124 0.19583182
-0.17989612 0.022243286 0.044269998 0.07442114

_pina_model._model.model.4.weight f4 [2, 20]
00000000: 769d 3f3e 7c6a d73c aa46 493e df45 573e
00000010: 8133 4bbe 93af e9bd 62c7 3c3e 2b27 463e
00000020: a2a1 62be f947 853d cca0 93bd 687e 25be
00000030: d6da c03c ad68 483e 8e51 58be 854a f1bd
00000040: 7ffa b2bd a184 2e3e cd6c 91bd e45f 103e
00000050: 3b6d dc3c 7d1d 0bbe 35f4 743d 698f 483e
00000060: 60a4 643e 217b acbd 0bc8 93bd 0e36 0abe
00000070: 74bf 9e3d 2ec1 5bbe 3629 a43d 5138 50bb
00000080: bf7c 36bd 0b25 60b8 89d1 c4bc e407 eb3c
00000090: bd9c 493e adc6 e33c c96c c83d fe8f 0fbe
0.1871241 0.026295893 0.19655862 0.21022747 -0.19843866 -0.11410441 0.18435434 0.19350879
-0.2213197 0.06507868 -0.07208404 -0.16161501 0.02354185 0.1957118 -0.2112486 -0.117817916
-0.087391846 0.17042781 -0.0710083 0.1409908 0.026907554 -0.13585468 0.059803206 0.19585957
0.22328329 -0.084219225 -0.072158895 -0.13497183 0.077513605 -0.21460411 0.08015673 -0.0031771848
-0.04455256 -5.344026e-05 -0.024025695 0.028690286 0.19688697 0.027804697 0.09786374 -0.14019772

_pina_model._model.model.4.bias f4 [2]
00000000: 54c4 aabd 5c50 4cbe
-0.08338228 -0.1995253
