tutorials/tutorial 5/lightning_logs/version_168/checkpoints/epoch=67-step=68.ckpt (torch, 523917 bytes, 208 tensors)

_pina_model._model.layers.0.weight f4 [20, 2]
0	0xbdb3bf30	-0.087767005
1	0xbeda5ba2	-0.42648035
2	0x3d850d99	0.06496734
3	0xbf0f49b8	-0.5597186
4	0x3e8ad841	0.27118114
5	0x3e59b7d2	0.21261528
6	0x3f19b7b6	0.60045946
7	0xbe1bcf9d	-0.15215917
8	0xbe055a0b	-0.1302263
9	0x3ee20657	0.44145462
10	0xbf08dc2d	-0.5346096
11	0x3f1b9d29	0.6078668
12	0x3eda08db	0.4258488
13	0x3ea6950f	0.32535598
14	0xbea4f6a4	-0.32219422
15	0x3e6fe37e	0.23426625
16	0xbea9b58d	-0.33146325
17	0x3ee43140	0.44568825
18	0xbd95f7ab	-0.073226295
19	0x3eafb623	0.34318647
20	0x3efa2d64	0.48862755
21	0xbed2737f	-0.41103742
22	0xbf0f9cb0	-0.5609846
23	0xbdba6e98	-0.09103125
24	0xbc2ad5fc	-0.010426994
25	0x3d21772f	0.039420303
26	0xbf2cd3ec	-0.6751087
27	0xbe083fbb	-0.13305561
28	0x3e1af9c9	0.15134348
29	0x3eef42d7	0.46730682
30	0x3c857bdf	0.016294418
31	0xbe361005	-0.17779548
32	0xbe885e98	-0.2663467
33	0xbd1a75a3	-0.037709843
34	0x3f1e2fd5	0.61791736
35	0x3f03469c	0.51279616
36	0xbeb0802d	-0.3447279
37	0xbdfd9a14	-0.12382904
38	0x3f112163	0.5669157
39	0xbf2309d0	-0.6368685

_pina_model._model.layers.0.bias f4 [20]
0	0xbebbf80a	-0.36712676
1	0xbf05494c	-0.5206497
2	0xbf14209f	-0.57862276
3	0x3e40c432	0.18824843
4	0x3daaeceb	0.0834597
5	0xbc83540d	-0.01603129
6	0xbe4166e8	-0.18886912
7	0x3e31165b	0.17293684
8	0x3e0945b7	0.134055
9	0xbea23e77	-0.31688282
10	0xbecd9e30	-0.4015975
11	0x3f028527	0.50984424
12	0xbebc2666	-0.36748046
13	0xbefa5280	-0.48891068
14	0xbdff9ea9	-0.12481434
15	0x3e79d53e	0.24397752
16	0xbdc2bd8c	-0.095088094
17	0x3d0529fc	0.032510743
18	0xbf0fb7f4	-0.56140065
19	0xbe5b0052	-0.21386841

_pina_model._model.layers.2.weight f4 [20, 20]
0	0x3de56619	0.11201114
1	0xbe154c05	-0.1457978
2	0x3ddec399	0.10877151
3	0xbb8c2fd3	-0.004278162
4	0x3e169347	0.1470462
5	0x3dbc273d	0.091871716
6	0xbe1d9e9e	-0.15392539
7	0x3de4ed4a	0.11178072
8	0x3e49795b	0.196752
9	0xbdb9b222	-0.09067179
10	0xbe3151ee	-0.1731641
11	0xbe4c5c9a	-0.199572
12	0x3e0408ce	0.12893984
13	0x3dd2be90	0.10290253
14	0x3e600081	0.21875192
15	0x3de55df1	0.111995585
16	0x3dfe2354	0.12409082
17	0x3e15aa5f	0.14615773
18	0xbd9befe5	-0.076141156
19	0xbe435a8a	-0.19077507
20	0x3e0cca4e	0.13749048
21	0x3dfb8816	0.12281816
22	0xbd342356	-0.04397901
23	0x3e3edd37	0.18639074
24	0xbdbca429	-0.092109986
25	0x3db07d5a	0.08617659
26	0xbe142961	-0.1446891
27	0x3d2a9643	0.041647207
28	0xbd618e7a	-0.055067517
29	0xbd0483d5	-0.032352287
30	0x3d1de942	0.03855253
31	0xbe2716c2	-0.16317275
32	0x3dcb7952	0.099352494
33	0x3bddcad7	0.006768565
34	0xbe0beb85	-0.13664062
35	0x3e4850a6	0.19562015
36	0xbe0a9c87	-0.13536273
37	0x3e5f640d	0.2181551
38	0x3ac24341	0.0014821069
39	0x3d3d80e0	0.046265483
40	0x3e557dcb	0.20848767
41	0xbe121cbf	-0.14268778
42	0x3d7eb55c	0.062184677
43	0x3dea2d09	0.11434371
44	0xbe28f161	-0.16498329
45	0xbdad46f6	-0.084608
46	0xbde8c54e	-0.11365758
47	0xbe1a505b	-0.15069716
48	0xbc9f34cb	-0.019434353
49	0xbc6d8100	-0.014496088
50	0x3e4ff097	0.20306621
51	0x3d705f9d	0.058684934
52	0xbe0f6937	-0.1400498
53	0xbe51cd66	-0.2048851
54	0x3dc4614f	0.09588873
55	0xbcefcb71	-0.029271813
56	0xbd92932e	-0.071569785
57	0x3d7c69f5	0.061624486
58	0x3e06262e	0.13100502
59	0x3e05b990	0.13059068
60	0x3deafbc2	0.114738
61	0xbe2fc398	-0.17164457
62	0x3deb3701	0.114851005
63	0xbd8df092	-0.06930651
64	0xbe31ebd1	-0.17375113
65	0x3dde428b	0.10852536
66	0x3dd45429	0.10367615
67	0x3d9550f5	0.07290832
68	0xbd2b34a6	-0.041798256
69	0x3e5de832	0.21670607
70	0x3dd74bdd	0.10512517
71	0xbdbb528d	-0.09146605
72	0xbe1ff2cc	-0.15619963
73	0x3bd7e760	0.0065888613
74	0x3e4d398f	0.20041488
75	0x3dfff22e	0.12497364
76	0xbdc70ba0	-0.09719014
77	0x3e01d357	0.12678276
78	0x3e470378	0.19434917
79	0x3ded9f5d	0.11602662
80	0xbdb19775	-0.08671466
81	0x3cf21060	0.029548824
82	0x3d916c34	0.07100716
83	0xbd324f4b	-0.04353265
84	0xbdca2fb3	-0.09872379
85	0x3da01eaf	0.078183524
86	0xbd88cb53	-0.06679406
87	0x3dc293c7	0.095008425
88	0x3de7eca4	0.113244325
89	0xbcfca5c5	-0.030840764
90	0xbd943adc	-0.07237789
91	0xbe4bae9c	-0.19890827
92	0xbe5409f2	-0.20706919
93	0xbe24a4f7	-0.16078554
94	0xbdb1b83b	-0.08677717
95	0x3e5ce748	0.21572602
96	0xbd3c41f4	-0.045961335
97	0x3c318c46	0.010836666
98	0xbd8d0e04	-0.06887439
99	0xbe35be68	-0.17748415
100	0x3e426aea	0.18986097
101	0x3e03314c	0.12811774
102	0x3c3e4e98	0.011615418
103	0xbdd8ac3f	-0.10579728
104	0x3e6a45dd	0.22878213
105	0x3cf7b222	0.030236308
106	0x3e3f952a	0.18709245
107	0xbda0c2dd	-0.07849667
108	0x3d6535ff	0.055959698
109	0x3d665aae	0.056238823
110	0x3d1bb647	0.03801563
111	0xbdbcc03b	-0.092163526
112	0xbdce11d8	-0.10061997
113	0x3c7e6dbe	0.015529094
114	0x3b05bf6f	0.0020408293
115	0xbe2bf6fc	-0.16793436
116	0xbe4c6926	-0.19961986
117	0x3dd29916	0.10283105
118	0x3e035022	0.12823537
119	0xbdd817c7	-0.1055141
120	0x3c10c46b	0.008835892
121	0x3d7367c7	0.05942514
122	0xbe1becfc	-0.15227121
123	0xbdab0070	-0.08349693
124	0xbe1cc672	-0.15310076
125	0x3e0d2c1e	0.1378636
126	0xbdc98b7f	-0.0984106
127	0x3e5398da	0.20663777
128	0xbe2e4ce8	-0.17021525
129	0x3e1f4f1e	0.15557525
130	0x3de4c964	0.11171225
131	0xbe154252	-0.1457608
132	0xbe50e4e0	-0.20399809
133	0xbb9987ed	-0.004685393
134	0xbc5c8e80	-0.013461709
135	0xbe151df5	-0.14562209
136	0x3ddd4c49	0.10805566
137	0xbbe9ddeb	-0.0071370504
138	0x3d917274	0.07101908
139	0xbe44d09a	-0.192202
140	0xbda350b6	-0.07974379
141	0xbe2a2912	-0.1661723
142	0xbe453ab9	-0.19260682
143	0x3c410bf4	0.011782635
144	0x3dc2d099	0.09512443
145	0xbc85daf4	-0.016339757
146	0x3d23c8f1	0.039986555
147	0xbd12938d	-0.035785247
148	0xbd976c44	-0.07393697
149	0xbcbb9629	-0.02289875
150	0xbd4ccdbd	-0.050000895
151	0xbe22fb3c	-0.15916151
152	0x3cfee267	0.031113816
153	0xbe03bd37	-0.12865148
154	0xbd9c264b	-0.07624491
155	0x3d87a8b9	0.06623978
156	0x3ce3e1bd	0.027817601
157	0xbde9f010	-0.114227414
158	0x3d8d3d73	0.06896486
159	0xbc523f05	-0.012832408
160	0x3ca17cbe	0.019712802
161	0xbdc77f86	-0.0974112
162	0x3e386e5e	0.18010852
163	0x3e028a85	0.12748154
164	0xbe2b3e43	-0.1672297
165	0xbd29acea	-0.04142467
166	0xbbd9d9d4	-0.0066482816
167	0x3c95d2e2	0.018289033
168	0xbddfd924	-0.10930088
169	0x3db9546f	0.090493076
170	0xbe2de062	-0.16980127
171	0x3e5be0b4	0.21472436
172	0xbe3cb2f8	-0.18427646
173	0xbcf1609a	-0.029465009
174	0xbdf64907	-0.120256476
175	0xbe0a036d	-0.1347787
176	0xbe2915ef	-0.16512273
177	0xbe35f76f	-0.1777017
178	0xbe2d5e75	-0.16930564
179	0x3e5113f2	0.20417765
180	0xbe2d82e3	-0.1694446
181	0xbd66c046	-0.05633571
182	0x3b0d6b52	0.002157886
183	0xbe3026bc	-0.17202276
184	0xbcd662cd	-0.026170159
185	0xbdf67036	-0.12033121
186	0xbc205a67	-0.009787179
187	0xbd1ff4ce	-0.039051823
188	0xbddce5eb	-0.10786041
189	0x3e6bd206	0.23029336
190	0x3e2ad475	0.16682608
191	0xbddaf9d0	-0.10692179
192	0x3e39465b	0.18093245
193	0xbc7708f5	-0.015077819
194	0xbdc4f2e4	-0.0961664
195	0xbd64a736	-0.055823527
196	0x3db54127	0.088503174
197	0x3e125828	0.14291441
198	0xbe2022b2	-0.15638235
199	0x3df9b5ce	0.121928796
200	0x3e0045d4	0.12526637
201	0xbe1b980b	-0.15194719
202	0x3e202b12	0.1564143
203	0xbe03bc7d	-0.12864871
204	0x3d8b95c5	0.06815676
205	0xbe5d7e04	-0.21630102
206	0x3da36da7	0.07979899
207	0x3e0fa53d	0.14027877
208	0xbe07f394	-0.13276511
209	0x3af50b9c	0.0018695476
210	0xbdc8ee5c	-0.098110884
211	0x3d400ece	0.04688912
212	0xbd837104	-0.064180404
213	0xbe389031	-0.18023755
214	0x3ce882c0	0.028382659
215	0xbdd8a3b7	-0.10578101
216	0xbe10aa31	-0.14127423
217	0xbd0494af	-0.03236836
218	0x3a4a3a44	0.0007714371
219	0x3e562c06	0.20915231
220	0x3ddcf5d9	0.10789079
221	0xbe3b5a57	-0.1829618
222	0xbe29a1cf	-0.16565631
223	0x3e2232b5	0.15839656
224	0xbdc4e269	-0.09613497
225	0xbcfc31ca	-0.03078546
226	0xbe1e069a	-0.15432206
227	0x3e2f920d	0.17145558
228	0xbe2df35d	-0.16987367
229	0x3deb6a70	0.11494911
230	0xbdbb0b77	-0.09133046
231	0x3d84b014	0.06478897
232	0x3dfdb37e	0.12387751
233	0xbd40e02d	-0.04708879
234	0x3e0acb04	0.13554007
235	0xbda86124	-0.08221653
236	0xbcaa4f1e	-0.02078968
237	0x3d83cfed	0.06436143
238	0x3d807691	0.06272615
239	0x3e60819e	0.21924445
240	0xbe1a6327	-0.15076886
241	0x3e1b0dcc	0.15141982
242	0xbe0bb59a	-0.13643494
243	0xbe2816c9	-0.16414942
244	0x3df2c249	0.11853463
245	0x3db07666	0.08616333
246	0xbdb22e2e	-0.08700214
247	0xbd9724db	-0.073800765
248	0xbe002518	-0.1251415
249	0xbd10044b	-0.035160344
250	0x3e6067bc	0.21914572
251	0x3d5ed1aa	0.05439917
252	0xbe5a9823	-0.21347098
253	0xbe41f8c2	-0.1894255
254	0x3c1cbea1	0.009566934
255	0xbe049065	-0.12945707

_pina_model._model.layers.2.bias f4 [20]
0	0xbe24801a	-0.16064492
1	0xbe60895b	-0.21927397
2	0xbe50b4fc	-0.2038154
3	0xbbb76069	-0.00559621
4	0x3dd12f68	0.1021412
5	0xbe36eda8	-0.17864096
6	0xbe4f0745	-0.20217617
7	0xbccfd8a9	-0.025371866
8	0xbe4a83aa	-0.19776788
9	0xbd1b7123	-0.037949692
10	0x3e2b6cd2	0.1674073
11	0x3cb15388	0.021646276
12	0xbdf8b713	-0.12144294
13	0xbe4c3252	-0.1994107
14	0xbd169abf	-0.03676867
15	0x3dee709a	0.11642571
16	0x3e126aeb	0.14298598
17	0xbe2f657d	-0.17128558
18	0x3db04891	0.08607591
19	0x3e02c94c	0.12772101

_pina_model._model.layers.4.weight f4 [2, 20]
0	0xbe444ca0	-0.19169855
1	0xbdda421c	-0.106571406
2	0x3d283ee0	0.041075587
3	0x3c50860a	0.01272727
4	0xbe18e3a4	-0.14930588
5	0x3d1dc207	0.038515117
6	0xbe3b3332	-0.18281248
7	0xbe018130	-0.12646937
8	0x3d21440e	0.039371543
9	0xbe508210	-0.20362115
10	0xbcb3ec69	-0.021963315
11	0xbcad383b	-0.021144977
12	0xbc9718ba	-0.018444408
13	0x3e352615	0.17690308
14	0x3e5f62f8	0.21815097
15	0x3e1f2239	0.15540399
16	0xbe2db879	-0.16964902
17	0xbcd54b80	-0.026036978
18	0xbc678e63	-0.014133069
19	0xbdd0ab7f	-0.1018896
20	0x3e0426db	0.12905447
21	0x3dd78094	0.10522571
22	0x3e740212	0.23828915
23	0x3d2d251f	0.04227173
24	0x3c0fbd5a	0.008773172
25	0xbd3d9208	-0.046281844
26	0x3da6c319	0.08142681
27	0xbdb04fdb	-0.08608981
28	0xbcfe1f4f	-0.031020788
29	0x3e019454	0.12654239
30	0xbe184a65	-0.1487213
31	0xbe1b5de0	-0.15172529
32	0xbde7b447	-0.11313682
33	0x3e000528	0.12501967
34	0xbd28a10a	-0.041169204
35	0x3e4cc5a4	0.19997269
36	0x3e059b6e	0.13047573
37	0xbe3f750f	-0.18696998
38	0x3cf0963f	0.029368518
39	0xbd96ba89	-0.073597975

_pina_model._model.layers.4.bias f4 [2]
0	0x3d2102a4	0.03930916
1	0xbddc2183	-0.10748579

d f4 [522]
0	0xbd3d26ee	-0.046179704
1	0xbcec8830	-0.028873533
2	0x3bf376a3	0.007429914
3	0xbc04c890	-0.008104458
4	0xbe2013aa	-0.15632501
5	0xbe1bd43d	-0.15217681
6	0x3d02d055	0.031936962
7	0x3cfd19e0	0.030896127
8	0xbd8e963d	-0.069622494
9	0xbdde76b1	-0.10862482
10	0xbca711f0	-0.020394295
11	0xbd2d8010	-0.042358458
12	0xbdffa0fe	-0.12481879
13	0xbdb9f4be	-0.09079884
14	0x3c02e4f0	0.007989153
15	0xbcf92040	-0.030410886
16	0x3cc2bec6	0.023772608
17	0x3c4ed7de	0.012624709
18	0xbdb701d6	-0.08935897
19	0xbde471d8	-0.111545265
20	0xbda447fe	-0.08021544
21	0xbd89e256	-0.06732623
22	0x3e14d025	0.14532526
23	0x3e3e79c8	0.18601143
24	0xbd8115f0	-0.06303012
25	0xbd59de8b	-0.05319075
26	0x3a3dd05a	0.00072408246
27	0xbcb006c9	-0.02148761
28	0xbdc4fb2f	-0.09618222
29	0xbd8c81a9	-0.06860668
30	0x3dc20730	0.09474027
31	0x3d6fb325	0.058520455
32	0x3c863da1	0.016386809
33	0xbc70dc87	-0.014701015
34	0xbc4aa7a1	-0.012369067
35	0x3b522e27	0.0032070966
36	0xbb68bba5	-0.0035512235
37	0xbc2d1959	-0.010565125
38	0x3cae1877	0.0212519
39	0xbc200cdd	-0.009768692
40	0x3d23d376	0.039996587
41	0xbb7055a2	-0.0036672135
42	0xbd290139	-0.04126093
43	0x3b753282	0.0037414138
44	0xbd067b01	-0.03283215
45	0x3d5f87d7	0.054572906
46	0x3cdea833	0.027179813
47	0xbcad1fea	-0.021133382
48	0x3c37f5e7	0.011228061
49	0xbbd9e03f	-0.0066490467
50	0x3caeffb2	0.02136216
51	0xbccd8afd	-0.025090689
52	0xbc6e2967	-0.014536238
53	0xbc1f4fb3	-0.009723592
54	0x3cb778a5	0.022396395
55	0xbb3c9547	-0.00287755
56	0xbb69eba2	-0.0035693427
57	0x3dd40cf8	0.10354036
58	0x3c3705f8	0.011170857
59	0xbbf03e00	-0.0073316097
60	0x3d55e86b	0.052223604
61	0x3d3d7e82	0.046263225
62	0xbd17f146	-0.03709533
63	0xbce1297e	-0.027485605
64	0xbd36d3fe	-0.044635765
65	0xbcf075df	-0.02935308
66	0xbd937c10	-0.072013974
67	0xb9992095	-0.0002920671
68	0xbcb7cdb8	-0.022436962
69	0xbd117903	-0.035515796
70	0x3bfb7882	0.0076742778
71	0x3d45ab1e	0.048258893
72	0x3a821e6e	0.0009927282
73	0x3d358d17	0.044324007
74	0xbd8fbeab	-0.07018789
75	0x3ca62719	0.020282315
76	0x3ce845c9	0.028353589
77	0xbd95b757	-0.0731036
78	0x3d20b514	0.03923519
79	0x3c161f4b	0.009162734
80	0x3c6b602a	0.014366189
81	0x3c1e23e4	0.009652112
82	0xbce05d4c	-0.027388237
83	0xbc749c0f	-0.014929785
84	0xbc49ff3a	-0.012328917
85	0x3a51c05d	0.00080013816
86	0xbd07fd62	-0.03320063
87	0x3c141d88	0.009040244
88	0x3af60162	0.0018768723
89	0xbc8bc485	-0.017061481
90	0xbc58fa98	-0.01324334
91	0x3d0a0549	0.033696447
92	0xbbaa54e4	-0.005198108
93	0x3c4b4c24	0.01240829
94	0xbceaf278	-0.028680071
95	0x3c296622	0.010339292
96	0x3c571efb	0.013129945
97	0xbcd2a50f	-0.025713472
98	0x3c24f2bf	0.010067641
99	0xbc705779	-0.014669293
100	0xbbddb483	-0.0067659034
101	0xbd084d0e	-0.03327661
102	0x3c4cb856	0.012495121
103	0x3bc97194	0.006147573
104	0x3ca0c617	0.019625707
105	0xbb91b6e7	-0.0044468525
106	0xbc819fd7	-0.015823288
107	0x3c16153a	0.009160334
108	0xbbd55ad5	-0.006511072
109	0xbb895491	-0.0041909893
110	0xbb7e464d	-0.0038799227
111	0xbc77e3e3	-0.015130016
112	0x3ba531c1	0.0050413315
113	0xbc59ec8a	-0.013301024
114	0xbb0c3ce0	-0.002139859
115	0xbb900c98	-0.0043960325
116	0x3b07ccab	0.0020721357
117	0xbb77c2a6	-0.0037805228
118	0xbc7ea161	-0.015541405
119	0xbc8bab71	-0.017049523
120	0x3d37ef4d	0.04490595
121	0x3cdeb52c	0.027185999
122	0xbc220d73	-0.009890902
123	0xbd1ccae8	-0.038279444
124	0xbc90d39e	-0.017679032
125	0xbbb0bdbd	-0.0053937123
126	0xbd91d449	-0.07120568
127	0x3c2b181d	0.010442761
128	0xbc5ea396	-0.013588807
129	0xbc373fec	-0.011184674
130	0x3b839bef	0.0040163915
131	0x3d0eee0d	0.03489499
132	0x3c6c4080	0.014419675
133	0x3d458e8e	0.048231654
134	0xbd55df29	-0.052214775
135	0x3bdc5cb9	0.0067249206
136	0x3d0106a1	0.031500462
137	0xbd9a8db0	-0.07546556
138	0x3d1a5174	0.037675336
139	0xbb939e97	-0.0045049894
140	0xbbdda9fa	-0.0067646476
141	0x3bb04f8f	0.005380578
142	0xbc8c4972	-0.017124865
143	0x3cbfd784	0.023418196
144	0xbc874030	-0.0165101
145	0xbc96f535	-0.01842747
146	0x3c8ef16d	0.017449105
147	0xbc603ec2	-0.013686838
148	0xbbef668a	-0.007305925
149	0xbc953942	-0.01821578
150	0x3bc72cf6	0.006078358
151	0xbb2096c6	-0.002450393
152	0xbc6982d1	-0.0142523805
153	0xbca17803	-0.019710546
154	0xbac2d0d1	-0.0014863258
155	0x3c21fd99	0.009887123
156	0xbc50a8d1	-0.0127355615
157	0x3cbc7875	0.023006657
158	0xbc4aec86	-0.012385493
159	0x3c67e698	0.014154099
160	0x3d42e556	0.047581993
161	0x3d1ca549	0.038243566
162	0xbcdaafdc	-0.026695184
163	0xbd2577b2	-0.040397353
164	0xbd00521b	-0.031328302
165	0xbc984332	-0.018586729
166	0xbda088aa	-0.078385666
167	0x3be85a71	0.0070908596
168	0xbc97e628	-0.018542364
169	0xbc99b6a3	-0.018763846
170	0x3c0a4de5	0.008441423
171	0x3d5e65fa	0.05429647
172	0x3be0be65	0.0068586343
173	0x3d46ad8d	0.048505355
174	0xbd824cbe	-0.06362294
175	0x3c82323d	0.015893096
176	0x3d01827a	0.031618573
177	0xbda87e22	-0.08227183
178	0x3d150649	0.036382947
179	0x3c857b86	0.016294252
180	0xbb6e4532	-0.0036357162
181	0x3b61b86d	0.0034442202
182	0x3ae13e44	0.0017184694
183	0x3d0421cd	0.032258797
184	0xbc773164	-0.015087459
185	0xbcca2597	-0.024676127
186	0x3cc837e1	0.024440708
187	0xbc9b1125	-0.018929074
188	0xbc7b6b1c	-0.015345361
189	0xbc7529c1	-0.014963568
190	0x3c8bb77c	0.017055266
191	0xbce0ab72	-0.027425501
192	0xbbded058	-0.006799739
193	0xbcab9ab1	-0.020947786
194	0x3b490f67	0.0030679347
195	0x3b5f3c90	0.0034063198
196	0xbc80e243	-0.01573289
197	0x3cb80c66	0.02246685
198	0xbc36122b	-0.01111273
199	0x3c8d4947	0.017246855
200	0xbc1af7b1	-0.009458468
201	0x3bec4a1b	0.0072109825
202	0xbd71519f	-0.05891573
203	0xbb3b479d	-0.002857662
204	0xbca82484	-0.020525225
205	0x3aeed3b8	0.0018221056
206	0xbc27c042	-0.010238709
207	0x3c0490ab	0.008091132
208	0x3c82c393	0.015962398
209	0xbcbba423	-0.022905415
210	0xbcd59ba7	-0.026075197
211	0x3d76feee	0.060301714
212	0xbcee2585	-0.029070625
213	0xbc63ebfe	-0.013911245
214	0xbc9a0cd6	-0.018804949
215	0x3cb8e99f	0.022572337
216	0xba889e82	-0.0010423216
217	0x3ae97b51	0.001781324
218	0xbc4ff81e	-0.012693433
219	0xbb281d9d	-0.0025652417
220	0xbcf31586	-0.02967335
221	0xbccf0a59	-0.025273489
222	0x3d3c87c1	0.046027903
223	0x3cca4dea	0.024695355
224	0x3cfbf32d	0.030755604
225	0x3c88aa51	0.016682776
226	0x3d80aff4	0.062835604
227	0xbbfcd1c5	-0.007715436
228	0x3c1ba952	0.009500818
229	0x3cf2237c	0.029557936
230	0x3bcbf073	0.006223732
231	0xbd7ab3ce	-0.06120663
232	0x3c03e2d9	0.00804969
233	0xbccbfb2d	-0.024900043
234	0x3d66688b	0.056252044
235	0xbcb27bc1	-0.021787526
236	0xbcb3b98d	-0.021939063
237	0x3d6616d3	0.05617411
238	0xbc952462	-0.018205825
239	0xbbc96726	-0.0061463295
240	0x3cf05b85	0.029340515
241	0x3cbe7ea4	0.023253746
242	0xbd7bfc00	-0.061519623
243	0xbc5597d5	-0.013036688
244	0xbd216430	-0.039402187
245	0xbcc1cfcd	-0.023658657
246	0xbd87e12b	-0.06634744
247	0x3bce4cfb	0.006295798
248	0xbc4311d3	-0.011906105
249	0xbd4158ff	-0.047204014
250	0xbc39d6b0	-0.011342689
251	0x3d85e227	0.06537276
252	0xbc8a227e	-0.01686215
253	0x3c60198c	0.013677966
254	0xbd88ec56	-0.066857025
255	0x3cf00799	0.029300498

old_dirs f4 [522]
0	0x36a6c780	4.9704104e-06
1	0xb72b2000	-1.0199845e-05
2	0xb7b16200	-2.1145679e-05
3	0x36f03000	7.1581453e-06
4	0x388e1480	6.774906e-05
5	0x3847e500	4.765857e-05
6	0xb7c0b900	-2.2974331e-05
7	0xb6438800	-2.9136427e-06
8	0x38b63980	8.6891465e-05
9	0x3924f600	0.00015731901
10	0xb8d9c880	-0.000103847124
11	0xb8ed9e00	-0.000113304704
12	0xb7cc2000	-2.4333596e-05
13	0x3806c300	3.2129698e-05
14	0x38986280	7.266272e-05
15	0x37c89c00	2.3914501e-05
16	0xb803b680	-3.14028e-05
17	0xb86b0300	-5.603116e-05
18	0x379ca600	1.8673949e-05
19	0xb62bcd00	-2.5600311e-06
20	0xb6953700	-4.446949e-06
21	0xb858af00	-5.1661395e-05
22	0xb8760700	-5.865749e-05
23	0x388ffd80	6.8659894e-05
24	0x39040480	0.00012590177
25	0x386adb00	5.5993907e-05
26	0xb6708400	-3.583962e-06
27	0x37a0aa80	1.9152882e-05
28	0x372b7d40	1.0221556e-05
29	0xb22e0000	-1.0128133e-08
30	0x38ea8700	0.00011183135
31	0xb6bed600	-5.687354e-06
32	0x3842cf00	4.6445988e-05
33	0xb7b50600	-2.1579675e-05
34	0x3652b400	3.1397212e-06
35	0xb7c52800	-2.3502856e-05
36	0xb7256700	-9.858748e-06
37	0x3613f800	2.2049062e-06
38	0xb8996700	-7.314794e-05
39	0x3837f900	4.38625e-05
40	0x37a18200	1.9253232e-05
41	0xb72e7600	-1.0398682e-05
42	0x372a5a00	1.0153744e-05
43	0x37a7bf80	1.9997125e-05
44	0xb7074700	-8.063158e-06
45	0xb83ee980	-4.5516994e-05
46	0x38a7a080	7.993076e-05
47	0x37073400	8.058734e-06
48	0x36f83400	7.3970295e-06
49	0xb71b1e00	-9.245705e-06
50	0xb7309a80	-1.052639e-05
51	0x3805d680	3.190944e-05
52	0x3649c000	3.0063093e-06
53	0x379e9a00	1.890678e-05
54	0x37118c00	8.67527e-06
55	0xb693b800	-4.402362e-06
56	0xb7e7eb00	-2.7646776e-05
57	0xb76a3e00	-1.3961922e-05
58	0x37a14c00	1.9228086e-05
59	0xb77eac00	-1.5179627e-05
60	0x37a61400	1.9798055e-05
61	0x38140e80	3.5299454e-05
62	0x37f4a680	2.91646e-05
63	0x389db900	7.520802e-05
64	0xb8736f00	-5.803909e-05
65	0xb923ec80	-0.00015632994
66	0x37d79600	2.5699846e-05
67	0xb89cd780	-7.4788e-05
68	0xb8c96900	-9.603985e-05
69	0xb8254000	-3.939867e-05
70	0x38eaf600	0.000112038106
71	0xb8a64600	-7.928535e-05
72	0xb609cc00	-2.0533334e-06
73	0xb7c2dd00	-2.3229513e-05
74	0xb79c8300	-1.865765e-05
75	0x3782fd00	1.561502e-05
76	0xb80af280	-3.312761e-05
77	0x36bc7c00	5.617272e-06
78	0xb774fa00	-1.4601741e-05
79	0x3926e080	0.00015914626
80	0x37657b00	1.3678102e-05
81	0x37ba5600	2.2212975e-05
82	0x372a2000	1.014024e-05
83	0x38190d00	3.649015e-05
84	0xb8138000	-3.516674e-05
85	0xb8b81e80	-8.779485e-05
86	0x3705cd80	7.975264e-06
87	0xb8263780	-3.9629173e-05
88	0xb862df00	-5.4090284e-05
89	0xb7ca8f80	-2.4147099e-05
90	0x3880a780	6.134715e-05
91	0xb8140b00	-3.5296194e-05
92	0xb5d3a400	-1.5768455e-06
93	0xb72f5700	-1.0451069e-05
94	0xb7831a80	-1.5628757e-05
95	0x372bfc80	1.0251184e-05
96	0xb77bbe00	-1.5005004e-05
97	0xb4080000	-1.2665987e-07
98	0xb6cc0000	-6.0796738e-06
99	0x38bd8f00	9.038858e-05
100	0x389c0880	7.440243e-05
101	0x38b53800	8.6411834e-05
102	0xb8aa8500	-8.131005e-05
103	0xb7e48740	-2.7242699e-05
104	0xb8d24600	-0.00010026619
105	0xb8e6a500	-0.00010997988
106	0xb8cf8d00	-9.8967925e-05
107	0xb7e9b200	-2.7858652e-05
108	0xb8afa100	-8.374639e-05
109	0xb8976700	-7.219426e-05
110	0x388bed00	6.672181e-05
111	0x38b10000	8.440018e-05
112	0xb6de9a00	-6.6340435e-06
113	0x3811f400	3.4797937e-05
114	0xb8f7be00	-0.00011813268
115	0x382fff00	4.196074e-05
116	0x380e1700	3.387686e-05
117	0xb8985a00	-7.2646886e-05
118	0x380c6e40	3.348128e-05
119	0x39084600	0.00012996048
120	0x375be700	1.3107201e-05
121	0x37676000	1.3791025e-05
122	0xb7d71a80	-2.5642337e-05
123	0xb78ba680	-1.6647624e-05
124	0xb790bb40	-1.7253333e-05
125	0xb77b4700	-1.4977297e-05
126	0xb7efe300	-2.8596725e-05
127	0x36608e00	3.3461256e-06
128	0xb725db00	-9.885756e-06
129	0xb7625240	-1.34898e-05
130	0x3655e200	3.1871023e-06
131	0x3809d100	3.285799e-05
132	0xb677f8c0	-3.695066e-06
133	0x3720df00	9.588664e-06
134	0xb7e26e80	-2.6992755e-05
135	0x3716a340	8.978706e-06
136	0x37446080	1.17049785e-05
137	0xb7a69200	-1.9856729e-05
138	0x36d4ff00	6.3477783e-06
139	0x37a54a80	1.9704225e-05
140	0xb6c3be00	-5.833572e-06
141	0xb51c8000	-5.8300793e-07
142	0x38484100	4.774425e-05
143	0x3842f200	4.6478584e-05
144	0xb62c4000	-2.566725e-06
145	0xb8610f00	-5.365815e-05
146	0x3839b900	4.427973e-05
147	0xb8106980	-3.443053e-05
148	0xb7f19800	-2.880022e-05
149	0x368a3d00	4.119822e-06
150	0x383bb500	4.4752844e-05
151	0xb89b5b80	-7.408019e-05
152	0x36c3c700	5.8346195e-06
153	0xb77c0000	-1.50203705e-05
154	0x37daa800	2.6065856e-05
155	0xb6f9bf80	-7.443072e-06
156	0xb7dc7f00	-2.6285183e-05
157	0x37a31c00	1.9444153e-05
158	0xb7269c00	-9.930693e-06
159	0x3851fa00	5.0062314e-05
160	0xb7230c00	-9.718351e-06
161	0xb7708b00	-1.4337478e-05
162	0xb6dd4f00	-6.59551e-06
163	0xb72ad280	-1.01818005e-05
164	0x37842380	1.5752157e-05
165	0x380c6200	3.346987e-05
166	0xb61bcf00	-2.321729e-06
167	0x3789e280	1.6437145e-05
168	0x37bcde00	2.2514723e-05
169	0x36fdff00	7.5696735e-06
170	0xb7e38b00	-2.7125236e-05
171	0x377ef400	1.519639e-05
172	0xb614f000	-2.2193417e-06
173	0xb5d27400	-1.567998e-06
174	0x36eeee00	7.1206596e-06
175	0xb62a6580	-2.5391055e-06
176	0x36810b00	3.84578e-06
177	0x3634fe00	2.6969938e-06
178	0xb6484e00	-2.9847724e-06
179	0xb81c0a00	-3.720261e-05
180	0x3806b600	3.211759e-05
181	0x383e8400	4.5422465e-05
182	0x38359f00	4.3301843e-05
183	0x380b8c00	3.3270568e-05
184	0xb8256280	-3.94308e-05
185	0xb8c94600	-9.5974654e-05
186	0x37948400	1.7704442e-05
187	0xb85b3d00	-5.227048e-05
188	0xb8866000	-6.407499e-05
189	0xb71b4900	-9.255717e-06
190	0x38af5c00	8.3617866e-05
191	0xb88f4800	-6.8321824e-05
192	0x3780b700	1.5344005e-05
193	0x37777200	1.474889e-05
194	0xb716a900	-8.980045e-06
195	0xb6126f00	-2.1820306e-06
196	0xb764f800	-1.3647601e-05
197	0xb7801100	-1.5266705e-05
198	0x37999e00	1.8312596e-05
199	0x38dee000	0.00010627508
200	0xb7c64f00	-2.3640227e-05
201	0xb7ab4400	-2.0416453e-05
202	0x38af9d00	8.373894e-05
203	0x38845c80	6.31148e-05
204	0x37ddcf80	2.6441878e-05
205	0xb78d8cc0	-1.6874052e-05
206	0x38aca200	8.231774e-05
207	0xb80b9d00	-3.32864e-05
208	0xb6da9e00	-6.5153e-06
209	0x37e8ad00	2.7737115e-05
210	0x3802a000	3.1143427e-05
211	0xb8f2d200	-0.00011578575
212	0x37574700	1.283153e-05
213	0xb7c80c00	-2.3847446e-05
214	0x38893b80	6.543752e-05
215	0xb7bbb980	-2.2378517e-05
216	0xb8253700	-3.939029e-05
217	0x383af700	4.4575892e-05
218	0xb778e100	-1.4834339e-05
219	0x36e58a00	6.840797e-06
220	0xb6791200	-3.7114369e-06
221	0xb6fcf200	-7.5383577e-06
222	0xb7413700	-1.1516502e-05
223	0xb78c5000	-1.6726553e-05
224	0x3729b600	1.011556e-05
225	0x37f91c00	2.9696152e-05
226	0xb72cfe00	-1.0311138e-05
227	0x378b3300	1.659384e-05
228	0x379f6680	1.9002007e-05
229	0x36ab2b00	5.101203e-06
230	0xb7cbce00	-2.4295412e-05
231	0x37bdc900	2.2624154e-05
232	0xb5c5ef80	-1.4747347e-06
233	0x36953500	4.446716e-06
234	0xb503a400	-4.9039954e-07
235	0xb590e400	-1.0795193e-06
236	0x3706cd00	8.034753e-06
237	0xb6956b00	-4.4530025e-06
238	0x35ff5c00	1.9025756e-06
239	0xb800e280	-3.0728523e-05
240	0x37d46300	2.531847e-05
241	0x382cf400	4.123524e-05
242	0x383eaf00	4.546251e-05
243	0x387ca800	6.0237944e-05
244	0xb850fd00	-4.982669e-05
245	0xb9113700	-0.00013848767
246	0x37fb1a00	2.9933639e-05
247	0xb8929680	-6.989855e-05
248	0xb8b56680	-8.649845e-05
249	0xb7c02280	-2.2904249e-05
250	0x38e2b100	0.000108094886
251	0xb8b6f900	-8.724816e-05
252	0x3709a080	8.203206e-06
253	0xb6be1800	-5.665235e-06
254	0xb7134580	-8.7780645e-06
255	0x36a0f180	4.796486e-06

old_dirs f4 [522]
0	0x36b1b600	5.2961987e-06
1	0xb72f2800	-1.0440126e-05
2	0xb7c56500	-2.3531262e-05
3	0x36f66c00	7.343944e-06
4	0x389d8500	7.5111166e-05
5	0x385aad00	5.213637e-05
6	0xb7d15900	-2.4956185e-05
7	0xb610b000	-2.1560118e-06
8	0x38c93b80	9.5955096e-05
9	0x3931bb00	0.00016949698
10	0xb8f07080	-0.000114650466
11	0xb9014000	-0.0001232624
12	0xb7dd4000	-2.6375055e-05
13	0x38238d80	3.899401e-05
14	0x38a97e80	8.0821104e-05
15	0x37db9800	2.6177615e-05
16	0xb8139480	-3.5185833e-05
17	0xb87f7300	-6.090384e-05
18	0x37aaf500	2.0379666e-05
19	0xb659f900	-3.2480457e-06
20	0xb6ac7000	-5.139038e-06
21	0xb86e8900	-5.6871213e-05
22	0xb888f080	-6.529782e-05
23	0x389f2500	7.5886026e-05
24	0x39134000	0.00014042854
25	0x387fc300	6.0978346e-05
26	0xb67a7000	-3.7318096e-06
27	0x37bd0f00	2.253754e-05
28	0x37391cc0	1.1033553e-05
29	0x350ab000	5.166512e-07
30	0x39032180	0.00012505613
31	0xb6e0da00	-6.7010988e-06
32	0x38580000	5.1498413e-05
33	0xb7ccd140	-2.4416135e-05
34	0x3635d000	2.7092174e-06
35	0xb7dc9900	-2.629729e-05
36	0xb7324e00	-1.0627788e-05
37	0x3673c400	3.6323909e-06
38	0xb8aa0300	-8.1067905e-05
39	0x38466500	4.7300942e-05
40	0x37b3d700	2.143858e-05
41	0xb73d5400	-1.1284836e-05
42	0x372dd300	1.0360731e-05
43	0x37c07a00	2.2944994e-05
44	0xb72f2500	-1.0439428e-05
45	0xb84ba200	-4.8549846e-05
46	0x38bf4300	9.1200694e-05
47	0x370f0b00	8.526025e-06
48	0x37152e80	8.891919e-06
49	0xb7316300	-1.0573072e-05
50	0xb748d900	-1.1971453e-05
51	0x38199900	3.6620535e-05
52	0x36158400	2.2279564e-06
53	0x37b15b00	2.114242e-05
54	0x3726b300	9.936048e-06
55	0xb6c51000	-5.87292e-06
56	0xb8050380	-3.171293e-05
57	0xb7870e00	-1.6099773e-05
58	0x37b71900	2.1826942e-05
59	0xb7893a00	-1.6358681e-05
60	0x37b6c400	2.178736e-05
61	0x38235e00	3.8949773e-05
62	0x380a37c0	3.2953685e-05
63	0x38ad8c80	8.275453e-05
64	0xb8863000	-6.3985586e-05
65	0xb9351c00	-0.00017271936
66	0x37f21400	2.8857961e-05
67	0xb8adef80	-8.293893e-05
68	0xb8deb800	-0.000106200576
69	0xb8353e00	-4.3211505e-05
70	0x39025880	0.00012430735
71	0xb8b9ce80	-8.859951e-05
72	0xb604b600	-1.977547e-06
73	0xb7d05400	-2.4834648e-05
74	0xb7a8c100	-2.0117033e-05
75	0x378edc00	1.7030165e-05
76	0xb819b500	-3.6646612e-05
77	0x36cefc00	6.168615e-06
78	0xb783ba00	-1.570303e-05
79	0x39389380	0.00017602555
80	0x377ba900	1.5000114e-05
81	0x37cd8e00	2.4504028e-05
82	0x3748ca00	1.1967961e-05
83	0x3828bb00	4.022848e-05
84	0xb8225880	-3.8706232e-05
85	0xb8cb8500	-9.7045675e-05
86	0x371ef880	9.475392e-06
87	0xb8391280	-4.4124667e-05
88	0xb87b2800	-5.9880316e-05
89	0xb7dd2880	-2.6364112e-05
90	0x388f4600	6.83181e-05
91	0xb827e080	-4.0024985e-05
92	0xb5c0a000	-1.4351681e-06
93	0xb73aa600	-1.1125114e-05
94	0xb78bf700	-1.668511e-05
95	0x3739de80	1.1078664e-05
96	0xb78c1900	-1.6700942e-05
97	0x34c0d000	3.5914127e-07
98	0xb6d70e00	-6.409129e-06
99	0x38d1c500	0.00010002591
100	0x38a84300	8.023344e-05
101	0x38c2da80	9.29134e-05
102	0xb8bcb780	-8.998718e-05
103	0xb8021de0	-3.102224e-05
104	0xb8e3ce00	-0.00010862574
105	0xb8f95800	-0.000118896365
106	0xb8e31300	-0.000108277425
107	0xb7f6a480	-2.9402087e-05
108	0xb8bd6280	-9.030569e-05
109	0xb8a4f200	-7.8652054e-05
110	0x38961a80	7.1574934e-05
111	0x38c56780	9.4129704e-05
112	0xb6f45e00	-7.2827097e-06
113	0x381e4c00	3.7740916e-05
114	0xb906bc80	-0.00012849458
115	0x38405600	4.585646e-05
116	0x381db980	3.7604477e-05
117	0xb8a15900	-7.693656e-05
118	0x38197100	3.6583282e-05
119	0x39134e80	0.00014048256
120	0x376c5000	1.4085323e-05
121	0x37753b00	1.4616875e-05
122	0xb7f13c00	-2.8757378e-05
123	0xb79ec100	-1.892494e-05
124	0xb79c0f40	-1.860375e-05
125	0xb785fc80	-1.5972415e-05
126	0xb8057900	-3.182236e-05
127	0x368e7f80	4.2467727e-06
128	0xb72d4200	-1.032697e-05
129	0xb77772c0	-1.4749065e-05
130	0x363a06a0	2.7720016e-06
131	0x381baa00	3.7113205e-05
132	0xb68be480	-4.1691237e-06
133	0x37316100	1.0572607e-05
134	0xb7f8bd80	-2.9652147e-05
135	0x3725d980	9.885407e-06
136	0x375cce00	1.3160985e-05
137	0xb7b53b00	-2.1604355e-05
138	0x36e91400	6.9462694e-06
139	0x37b07e80	2.1039741e-05
140	0xb6c00600	-5.7227444e-06
141	0x34f10000	4.4889748e-07
142	0x38617500	5.3753145e-05
143	0x38595500	5.1815994e-05
144	0xb673ac00	-3.630994e-06
145	0xb87dad00	-6.048102e-05
146	0x384f0800	4.9360096e-05
147	0xb8241300	-3.9118342e-05
148	0xb80a6400	-3.2994896e-05
149	0x3693cf80	4.4050976e-06
150	0x38564400	5.1084906e-05
151	0xb8af4200	-8.356944e-05
152	0x36e2dd00	6.7610526e-06
153	0xb785a200	-1.5930273e-05
154	0x37f00c00	2.8615817e-05
155	0xb70aabc0	-8.26543e-06
156	0xb7f62600	-2.934318e-05
157	0x37add600	2.0722859e-05
158	0xb7308000	-1.052022e-05
159	0x386e9c00	5.6888908e-05
160	0xb7304300	-1.0506017e-05
161	0xb7833100	-1.5639234e-05
162	0xb7006280	-7.652328e-06
163	0xb7425580	-1.1583208e-05
164	0x37911880	1.7296756e-05
165	0x381b5d80	3.704196e-05
166	0xb650d700	-3.1119562e-06
167	0x379a8500	1.8420164e-05
168	0x37d16580	2.4962006e-05
169	0x370b9700	8.320203e-06
170	0xb7fd9800	-3.023073e-05
171	0x37925680	1.7444836e-05
172	0xb6280e00	-2.50421e-06
173	0xb5d03200	-1.551176e-06
174	0x36fae300	7.477007e-06
175	0xb638e840	-2.7553324e-06
176	0x36966500	4.4821063e-06
177	0x361ec800	2.366025e-06
178	0xb6557b00	-3.1811069e-06
179	0xb82c6580	-4.1102525e-05
180	0x3817d200	3.6196783e-05
181	0x38566a00	5.1120296e-05
182	0x384cd200	4.8832968e-05
183	0x3818f800	3.6470592e-05
184	0xb838a800	-4.402548e-05
185	0xb8df7d00	-0.00010656752
186	0x37a5aa00	1.9748695e-05
187	0xb8754200	-5.847402e-05
188	0xb895f380	-7.150229e-05
189	0xb728ac00	-1.0053627e-05
190	0x38c44080	9.358022e-05
191	0xb8a10c80	-7.6794066e-05
192	0x37929780	1.7475104e-05
193	0x37937500	1.7578248e-05
194	0xb7272300	-9.962125e-06
195	0xb6303980	-2.6259513e-06
196	0xb77bf000	-1.5016645e-05
197	0xb7948800	-1.7706305e-05
198	0x37b17e00	2.1158718e-05
199	0x38f82100	0.00011831708
200	0xb7cee200	-2.4662353e-05
201	0xb7abe400	-2.049096e-05
202	0x38c45500	9.361841e-05
203	0x38943700	7.0674345e-05
204	0x37e7c780	2.7630245e-05
205	0xb7ae5880	-2.0783627e-05
206	0x38bef980	9.106379e-05
207	0xb820f000	-3.837049e-05
208	0xb71a2c00	-9.18936e-06
209	0x37fcc6c0	3.0133291e-05
210	0x381a6d00	3.6817975e-05
211	0xb9085500	-0.00013001636
212	0x3772f400	1.4481135e-05
213	0xb7d63200	-2.5534071e-05
214	0x3895b300	7.138215e-05
215	0xb7ce4000	-2.4586916e-05
216	0xb8383580	-4.3918844e-05
217	0x3846a100	4.735682e-05
218	0xb784bd80	-1.5823869e-05
219	0x372c7ea0	1.0281481e-05
220	0xb68a5a00	-4.123198e-06
221	0xb70ca180	-8.382252e-06
222	0xb758c980	-1.2921519e-05
223	0xb79a2900	-1.8377323e-05
224	0x373b5e00	1.1167955e-05
225	0x38097800	3.2775104e-05
226	0xb7413200	-1.1515338e-05
227	0x379a9c80	1.8431107e-05
228	0x37b08900	2.104463e-05
229	0x36ba6300	5.554757e-06
230	0xb7e2a100	-2.701627e-05
231	0x37d3f700	2.5268178e-05
232	0xb5e7bb80	-1.7265411e-06
233	0x369d4300	4.6867644e-06
234	0xb52fe400	-6.5524364e-07
235	0xb597f100	-1.1320517e-06
236	0x3714ef00	8.877134e-06
237	0xb6a5a000	-4.9360096e-06
238	0x36035600	1.957058e-06
239	0xb80e9a00	-3.3998862e-05
240	0x37eef600	2.8486364e-05
241	0x38425f00	4.634168e-05
242	0x38586900	5.1596202e-05
243	0x388b0c80	6.630365e-05
244	0xb8685500	-5.5392273e-05
245	0xb9212680	-0.00015368499
246	0x380d6f00	3.3720396e-05
247	0xb8a3ce00	-7.810816e-05
248	0xb8ca1580	-9.636115e-05
249	0xb7d18500	-2.4976674e-05
250	0x38fd9500	0.000120917335
251	0xb8ce1100	-9.826012e-05
252	0x3722a600	9.694602e-06
253	0xb6a5d400	-4.9420632e-06
254	0xb71d0280	-9.358511e-06
255	0x36a64180	4.9548107e-06

old_dirs f4 [522]
0	0x36dac000	6.519258e-06
1	0xb7390700	-1.1028489e-05
2	0xb7de4500	-2.6496593e-05
3	0x36fe0300	7.570139e-06
4	0x38ac4200	8.2138926e-05
5	0x38779b80	5.903421e-05
6	0xb7df3e00	-2.6612543e-05
7	0xb64ef000	-3.083609e-06
8	0x38d6f380	0.000102496706
9	0x39459f00	0.00018846616
10	0xb9036500	-0.00012530759
11	0xb9102d00	-0.00013749674
12	0xb7da1800	-2.5998801e-05
13	0x38379e80	4.3778215e-05
14	0x38b9e100	8.863397e-05
15	0x37f82900	2.9582996e-05
16	0xb8217d00	-3.8501807e-05
17	0xb88f1a00	-6.823614e-05
18	0x37b6c000	2.1785498e-05
19	0xb677f900	-3.6950805e-06
20	0xb6c10600	-5.7525467e-06
21	0xb884f680	-6.340165e-05
22	0xb8958900	-7.130392e-05
23	0x38b40e80	8.58577e-05
24	0x39221900	0.00015458837
25	0x388fdf80	6.8604015e-05
26	0xb66eec00	-3.5602134e-06
27	0x37d0a680	2.4873065e-05
28	0x374fc080	1.2382981e-05
29	0x35a7b000	1.2493692e-06
30	0x39101d80	0.000137439
31	0xb70bc000	-8.329749e-06
32	0x386b8000	5.6147575e-05
33	0xb7eab7c0	-2.7980539e-05
34	0x36082000	2.0284206e-06
35	0xb7f48880	-2.915063e-05
36	0xb7349900	-1.0764459e-05
37	0x368f0400	4.2621978e-06
38	0xb8bc0a40	-8.966448e-05
39	0x38586f00	5.160179e-05
40	0x37cec100	2.4646986e-05
41	0xb758b800	-1.2917444e-05
42	0x3730ce00	1.0538381e-05
43	0x37d93a80	2.5895657e-05
44	0xb77c1400	-1.5025027e-05
45	0xb8594c80	-5.1808078e-05
46	0x38d9a180	0.00010377448
47	0x3716a780	8.979696e-06
48	0x3736e180	1.0900549e-05
49	0xb7494700	-1.1997065e-05
50	0xb757b180	-1.2856326e-05
51	0x382ef600	4.1713938e-05
52	0x359cb000	1.1674128e-06
53	0x37c3c300	2.3336615e-05
54	0x37453f00	1.1756783e-05
55	0xb7032000	-7.815659e-06
56	0xb817a700	-3.6156736e-05
57	0xb795dc80	-1.7864862e-05
58	0x37cfb500	2.4760608e-05
59	0xb79d0100	-1.8716324e-05
60	0x37cae800	2.418831e-05
61	0x38331d00	4.2703934e-05
62	0x3815cdc0	3.5715988e-05
63	0x38bed500	9.09958e-05
64	0xb894b780	-7.0913695e-05
65	0xb9488200	-0.00019121915
66	0x38010d00	3.0768104e-05
67	0xb8c01e00	-9.1608614e-05
68	0xb8f63c00	-0.0001174137
69	0xb84af200	-4.8385933e-05
70	0x390fa880	0.00013700314
71	0xb8cbb500	-9.713508e-05
72	0xb61db000	-2.3497269e-06
73	0xb7deea00	-2.6573427e-05
74	0xb7c0bf00	-2.2977125e-05
75	0x37a12800	1.9211322e-05
76	0xb8285680	-4.013488e-05
77	0x36b4f800	5.393289e-06
78	0xb78ed600	-1.702737e-05
79	0x394bb500	0.00019427016
80	0x378ef480	1.7041573e-05
81	0x37e5b600	2.7383678e-05
82	0x375b4900	1.3070414e-05
83	0x3839e700	4.4322573e-05
84	0xb835a300	-4.330557e-05
85	0xb8e29180	-0.00010803621
86	0x3725ff80	9.894255e-06
87	0xb84e1f80	-4.9143564e-05
88	0xb88beb00	-6.671809e-05
89	0xb7f87e00	-2.9622577e-05
90	0x389f3c80	7.59298e-05
91	0xb8395c80	-4.4193584e-05
92	0xb5c22c00	-1.4466932e-06
93	0xb741c100	-1.1548633e-05
94	0xb79fc900	-1.9047875e-05
95	0x37511300	1.24617945e-05
96	0xb798d200	-1.82176e-05
97	0xb4c4b000	-3.6635902e-07
98	0xb6daea00	-6.5241475e-06
99	0x38e8ca00	0.000111002475
100	0x38b95100	8.836575e-05
101	0x38d61a80	0.00010209251
102	0xb8d58500	-0.00010181405
103	0xb8069860	-3.209e-05
104	0xb8ffa900	-0.00012190826
105	0xb90e4b00	-0.00013570115
106	0xb8fcba00	-0.000120509416
107	0xb80e0c80	-3.386708e-05
108	0xb8d63880	-0.00010214839
109	0xb8bc4a00	-8.978322e-05
110	0x38a93c00	8.069724e-05
111	0x38dca280	0.000105206855
112	0xb717ba00	-9.043608e-06
113	0x3825b400	3.9506704e-05
114	0xb916c580	-0.00014378689
115	0x385b9e80	5.2361283e-05
116	0x382c7c80	4.1123945e-05
117	0xb8adfc00	-8.2962215e-05
118	0x3823d3c0	3.9059436e-05
119	0x39261800	0.00015839934
120	0x37846480	1.5782425e-05
121	0x37888480	1.6274163e-05
122	0xb8088dc0	-3.255694e-05
123	0xb7aed500	-2.0841602e-05
124	0xb7b16a00	-2.1149404e-05
125	0xb79d7780	-1.8771505e-05
126	0xb8168480	-3.5886187e-05
127	0x36977b00	4.5144698e-06
128	0xb7491900	-1.1986354e-05
129	0xb78e9600	-1.6997568e-05
130	0x36633c40	3.3860706e-06
131	0x382f2b00	4.17633e-05
132	0xb6a0be60	-4.790534e-06
133	0x37427500	1.1590542e-05
134	0xb80cbf00	-3.3556484e-05
135	0x373e0340	1.1325639e-05
136	0x3776d580	1.4712452e-05
137	0xb7c9ae00	-2.4042092e-05
138	0x37005380	7.648836e-06
139	0x37cab480	2.4164328e-05
140	0xb6c1ba00	-5.7735015e-06
141	0x3589a000	1.0253862e-06
142	0x387cfa00	6.0314313e-05
143	0x386c0700	5.6273304e-05
144	0xb67a5800	-3.7304126e-06
145	0xb889d900	-6.5730885e-05
146	0x38641e00	5.4387376e-05
147	0xb834b080	-4.3079723e-05
148	0xb8170780	-3.600819e-05
149	0x36bb7480	5.5865967e-06
150	0x386bdd00	5.623419e-05
151	0xb8c2e380	-9.293016e-05
152	0x37069680	8.022063e-06
153	0xb785b000	-1.5936792e-05
154	0x38058400	3.1832606e-05
155	0xb7214200	-9.611715e-06
156	0xb8067300	-3.205519e-05
157	0x37b2ab00	2.1298882e-05
158	0xb7307300	-1.0517193e-05
159	0x3881d600	6.19106e-05
160	0xb746e100	-1.1854107e-05
161	0xb792ff00	-1.75233e-05
162	0xb70f0100	-8.523697e-06
163	0xb75ca380	-1.315109e-05
164	0x37a3a980	1.9510044e-05
165	0x382e8680	4.1610096e-05
166	0xb6646600	-3.403402e-06
167	0x37aeaf80	2.082414e-05
168	0x37ebca00	2.8108247e-05
169	0x37208bc0	9.569281e-06
170	0xb80e6400	-3.394857e-05
171	0x37a4ba00	1.9636936e-05
172	0xb63e5800	-2.836343e-06
173	0xb5f50600	-1.8255669e-06
174	0x370ef000	8.519739e-06
175	0xb6570000	-3.2037497e-06
176	0x36a82480	5.0110393e-06
177	0x3633d000	2.679415e-06
178	0xb676d500	-3.6780839e-06
179	0xb8408d80	-4.590815e-05
180	0x382bcd80	4.0960964e-05
181	0x38704500	5.728472e-05
182	0x38632a00	5.4160133e-05
183	0x38254200	3.9400533e-05
184	0xb84dee80	-4.909793e-05
185	0xb8f73500	-0.0001178775
186	0x37ae9600	2.0812266e-05
187	0xb887e680	-6.4802356e-05
188	0xb8a64080	-7.927511e-05
189	0xb73c2500	-1.1214288e-05
190	0x38d96000	0.00010365248
191	0xb8b1ec00	-8.483976e-05
192	0x37a5a180	1.9744737e-05
193	0x37b28e00	2.1285377e-05
194	0xb7451100	-1.1746073e-05
195	0xb6449d00	-2.9297662e-06
196	0xb7865600	-1.6014092e-05
197	0xb7b62c00	-2.171658e-05
198	0x37ceea00	2.4666078e-05
199	0x39091280	0.0001307223
200	0xb7e4d980	-2.7281e-05
201	0xb7bd8600	-2.2592954e-05
202	0x38dc8500	0.00010515191
203	0x38a13d00	7.6884404e-05
204	0x38059820	3.185135e-05
205	0xb7a888c0	-2.009084e-05
206	0x38d49900	0.00010137446
207	0xb82eaa80	-4.1643623e-05
208	0xb7104900	-8.6000655e-06
209	0x381319e0	3.507163e-05
210	0x38260680	3.9583538e-05
211	0xb917de00	-0.00014483184
212	0x378b3740	1.6595819e-05
213	0xb7e01200	-2.6711263e-05
214	0x38a84780	8.024182e-05
215	0xb7ec8800	-2.8196722e-05
216	0xb84b0100	-4.8399903e-05
217	0x3855b200	5.0948933e-05
218	0xb78bf900	-1.668604e-05
219	0x3716ba80	8.98412e-06
220	0xb69f2700	-4.7431095e-06
221	0xb71d8580	-9.389012e-06
222	0xb76e6400	-1.42091885e-05
223	0xb7a88b00	-2.0091888e-05
224	0x37510900	1.2459466e-05
225	0x38180680	3.6245678e-05
226	0xb750a200	-1.2435485e-05
227	0x37ab2a00	2.0404346e-05
228	0x37c39580	2.3315428e-05
229	0x36d14d00	6.2376494e-06
230	0xb7faa700	-2.9880088e-05
231	0x37e94480	2.7807662e-05
232	0xb604d7c0	-1.9795116e-06
233	0x36a04d00	4.7773356e-06
234	0xb5098000	-5.122274e-07
235	0xb5adba00	-1.2943638e-06
236	0x3721fa00	9.6545555e-06
237	0xb6a8ed00	-5.0343806e-06
238	0x35fd1400	1.885579e-06
239	0xb81d6900	-3.7529506e-05
240	0x38096180	3.275415e-05
241	0x385b4480	5.2277464e-05
242	0x38700a00	5.7229772e-05
243	0x38979480	7.2279014e-05
244	0xb8820700	-6.200187e-05
245	0xb932c700	-0.00017049536
246	0x38171800	3.6023557e-05
247	0xb8b5fa00	-8.677319e-05
248	0xb8e09e80	-0.00010710675
249	0xb7ea2600	-2.7912669e-05
250	0x390cc280	0.00013423897
251	0xb8e3d200	-0.00010863319
252	0x373d7600	1.1292752e-05
253	0xb654c800	-3.1706877e-06
254	0xb73ebc00	-1.1368655e-05
255	0x36b8f600	5.5122655e-06

old_dirs f4 [522]
0	0x36df9800	6.663613e-06
1	0xb73e5a00	-1.1345837e-05
2	0xb7f49700	-2.9157382e-05
3	0x37024400	7.764436e-06
4	0x38bf4000	9.119511e-05
5	0x38880200	6.485358e-05
6	0xb7f44800	-2.9120594e-05
7	0xb6462800	-2.9527582e-06
8	0x38eece80	0.00011387188
9	0x39557600	0.00020357221
10	0xb910bc80	-0.00013803132
11	0xb91c9200	-0.00014931709
12	0xb7f8a400	-2.9640272e-05
13	0x3852bb00	5.024206e-05
14	0x38ce9a80	9.851623e-05
15	0x38084c00	3.2495707e-05
16	0xb8349580	-4.3054577e-05
17	0xb89b5800	-7.407367e-05
18	0x37ca2700	2.4098437e-05
19	0xb68f9f80	-4.2803003e-06
20	0xb6d77b00	-6.4218184e-06
21	0xb89189c0	-6.939797e-05
22	0xb8a72580	-7.9701655e-05
23	0x38c64c00	9.455532e-05
24	0x39343580	0.00017186068
25	0x389d0b80	7.4884854e-05
26	0xb674ec00	-3.6496203e-06
27	0x37eb4b00	2.8049108e-05
28	0x375ba600	1.3092067e-05
29	0x3600b400	1.917826e-06
30	0x39211a80	0.00015364029
31	0xb7212d00	-9.606825e-06
32	0x3882ba80	6.2336214e-05
33	0xb80388e0	-3.136031e-05
34	0x35db1c00	1.6324921e-06
35	0xb80740c0	-3.224681e-05
36	0xb7472d00	-1.1871802e-05
37	0x36ba4300	5.551032e-06
38	0xb8cf0dc0	-9.87309e-05
39	0x3867e000	5.5283308e-05
40	0x37e53900	2.732547e-05
41	0xb76c6800	-1.4090911e-05
42	0x37365100	1.0866905e-05
43	0x37f7cb00	2.9539224e-05
44	0xb79db480	-1.879991e-05
45	0xb8644580	-5.4424163e-05
46	0x38f52500	0.00011689402
47	0x371e5080	9.436277e-06
48	0x37582900	1.2884149e-05
49	0xb762b000	-1.3511628e-05
50	0xb76ec900	-1.4232704e-05
51	0x38440fc0	4.674471e-05
52	0x34784000	2.3120083e-07
53	0x37da7600	2.6042573e-05
54	0x375dc900	1.3219425e-05
55	0xb71e3600	-9.430107e-06
56	0xb82b6e00	-4.0872023e-05
57	0xb7abe880	-2.0493055e-05
58	0x37eb2900	2.8033275e-05
59	0xb7a9a900	-2.0225067e-05
60	0x37dcd900	2.6327092e-05
61	0x38445600	4.6810135e-05
62	0x38287440	4.0162588e-05
63	0x38d21680	0.00010017771
64	0xb8a33380	-7.782038e-05
65	0xb95c7b00	-0.00021026656
66	0x3811f100	3.4795143e-05
67	0xb8d44a00	-0.00010122731
68	0xb9078f00	-0.00012927875
69	0xb85e0a00	-5.2938238e-05
70	0x391eb380	0.00015134923
71	0xb8e31f80	-0.00010830071
72	0xb61e1800	-2.3557805e-06
73	0xb7f1fd00	-2.8847251e-05
74	0xb7cdc000	-2.4527311e-05
75	0x37afa900	2.0940322e-05
76	0xb83a5c80	-4.4432003e-05
77	0x36dc5800	6.5667555e-06
78	0xb79bec00	-1.8587336e-05
79	0x39602e80	0.00021379627
80	0x379bad80	1.8558232e-05
81	0x37fbf600	3.0036084e-05
82	0x377bcb00	1.50080305e-05
83	0x384db400	4.9043447e-05
84	0xb847c100	-4.7625042e-05
85	0xb8f9c380	-0.0001190966
86	0x37432580	1.1631637e-05
87	0xb864d080	-5.4553617e-05
88	0xb89a8b00	-7.369183e-05
89	0xb8086d40	-3.2526674e-05
90	0x38b08f00	8.41897e-05
91	0xb850a680	-4.974613e-05
92	0xb5bf3800	-1.4246907e-06
93	0xb753c600	-1.26226805e-05
94	0xb7ab9000	-2.0451844e-05
95	0x37647700	1.3617566e-05
96	0xb7aa6600	-2.0313077e-05
97	0x34b0c000	3.2922253e-07
98	0xb6ef3400	-7.1288086e-06
99	0x39005580	0.00012238882
100	0x38c87780	9.559002e-05
101	0x38e63680	0.00010977406
102	0xb8eca700	-0.00011284463
103	0xb8181a40	-3.626407e-05
104	0xb90aad80	-0.0001322534
105	0xb919ee00	-0.00014679879
106	0xb90b2100	-0.00013268366
107	0xb8162b80	-3.58033e-05
108	0xb8e73180	-0.000110241584
109	0xb8ce2800	-9.830296e-05
110	0x38b4d600	8.6229295e-05
111	0x38f65300	0.00011745654
112	0xb7297000	-1.0099262e-05
113	0x38349a00	4.3058768e-05
114	0xb924b900	-0.00015709177
115	0x3870fb80	5.7454687e-05
116	0x383f9e00	4.5685098e-05
117	0xb8bb7600	-8.938834e-05
118	0x3832eec0	4.266086e-05
119	0x39331000	0.00017076731
120	0x378fdc00	1.7149374e-05
121	0x37922980	1.7423881e-05
122	0xb817e800	-3.6217272e-05
123	0xb7c3fa80	-2.336246e-05
124	0xb7c06e00	-2.2939406e-05
125	0xb7a94980	-2.0180596e-05
126	0xb8274280	-3.9877836e-05
127	0x36b4ef00	5.3922413e-06
128	0xb7555a00	-1.2716744e-05
129	0xb79ca3c0	-1.8672901e-05
130	0x364d4d40	3.0592346e-06
131	0x3843d500	4.6689995e-05
132	0xb6b26b40	-5.317299e-06
133	0x3757e200	1.2867618e-05
134	0xb81aeb40	-3.6935555e-05
135	0x37513240	1.24690705e-05
136	0x3789eb00	1.6441103e-05
137	0xb7ddf700	-2.6460271e-05
138	0x370e3080	8.475152e-06
139	0x37d8f300	2.5862362e-05
140	0xb6c8a000	-5.979091e-06
141	0x36082000	2.0284206e-06
142	0x388da180	6.753486e-05
143	0x3883cb00	6.2843785e-05
144	0xb6a1ca00	-4.82169e-06
145	0xb89a6000	-7.3611736e-05
146	0x387fb100	6.096158e-05
147	0xb84c0a00	-4.8646703e-05
148	0xb82b6f80	-4.087342e-05
149	0x36ca9880	6.0378225e-06
150	0x3885b480	6.375555e-05
151	0xb8db2000	-0.00010448694
152	0x3717c100	9.045238e-06
153	0xb7928600	-1.7466955e-05
154	0x3813d980	3.5250094e-05
155	0xb7321280	-1.0613934e-05
156	0xb8169100	-3.589783e-05
157	0x37c6b500	2.3687724e-05
158	0xb741b800	-1.1546537e-05
159	0x38929640	6.989809e-05
160	0xb757d900	-1.2865523e-05
161	0xb7a06d80	-1.9124476e-05
162	0xb7216200	-9.619165e-06
163	0xb779ff80	-1.4901045e-05
164	0x37b42200	2.1473505e-05
165	0x3840cb80	4.596589e-05
166	0xb68cc580	-4.195317e-06
167	0x37c2d800	2.3227185e-05
168	0x38028040	3.1113857e-05
169	0x37328000	1.0639429e-05
170	0xb81df480	-3.7659425e-05
171	0x37ba3b80	2.2200635e-05
172	0xb651e800	-3.1278469e-06
173	0xb5ee5800	-1.7757993e-06
174	0x37192280	9.127543e-06
175	0xb66f1d40	-3.56308e-06
176	0x36c0ec80	5.749578e-06
177	0x36206400	2.3900066e-06
178	0xb682cb00	-3.897934e-06
179	0xb8542d00	-5.058665e-05
180	0x383eb900	4.5471825e-05
181	0x3885b200	6.375089e-05
182	0x387ea600	6.071292e-05
183	0x38373000	4.3675303e-05
184	0xb8646d00	-5.446095e-05
185	0xb908bd00	-0.00013040379
186	0x37c6d400	2.370216e-05
187	0xb8978700	-7.225387e-05
188	0xb8b8bd00	-8.809008e-05
189	0xb74dd880	-1.226936e-05
190	0x38f23280	0.000115488656
191	0xb8c7ae80	-9.5215626e-05
192	0x37b99f00	2.2127759e-05
193	0x37c9e400	2.4067238e-05
194	0xb7544e00	-1.26543455e-05
195	0xb6624280	-3.3715332e-06
196	0xb7963700	-1.7907005e-05
197	0xb7c84700	-2.387492e-05
198	0x37e7b580	2.7621863e-05
199	0x3917ea00	0.00014487654
200	0xb7f57800	-2.9262155e-05
201	0xb7c36c80	-2.3296336e-05
202	0x38f56780	0.00011701789
203	0x38b3cb00	8.573197e-05
204	0x380e4660	3.392098e-05
205	0xb7c90d80	-2.3967354e-05
206	0x38ec4900	0.00011266954
207	0xb8465100	-4.7282316e-05
208	0xb73aee00	-1.1141878e-05
209	0x38215740	3.846665e-05
210	0x38409400	4.5914203e-05
211	0xb929b880	-0.00016185828
212	0x379abd80	1.8446473e-05
213	0xb7f62800	-2.9344112e-05
214	0x38b90100	8.821674e-05
215	0xb8023340	-3.1042146e-05
216	0xb8627e00	-5.3999946e-05
217	0x3869c600	5.573593e-05
218	0xb79a2980	-1.8377556e-05
219	0x3752c840	1.25636e-05
220	0xb6af3f00	-5.2227406e-06
221	0xb72e1780	-1.037668e-05
222	0xb7841740	-1.5746453e-05
223	0xb7b95100	-2.2091437e-05
224	0x3766d000	1.3757497e-05
225	0x38277800	3.992766e-05
226	0xb767b500	-1.3810815e-05
227	0x37bd7200	2.2583641e-05
228	0x37d81780	2.576015e-05
229	0x36e6aa00	6.8743248e-06
230	0xb80ac780	-3.3087563e-05
231	0x38016280	3.0847732e-05
232	0xb6152a80	-2.2227468e-06
233	0x36ac9500	5.1433453e-06
234	0xb526e000	-6.216578e-07
235	0xb5bf0500	-1.4232064e-06
236	0x3732cb80	1.0657008e-05
237	0xb6bd4a00	-5.6412537e-06
238	0x36073200	2.0145671e-06
239	0xb82db200	-4.141219e-05
240	0x38182000	3.6269426e-05
241	0x3873bd00	5.8111735e-05
242	0x3886d300	6.42892e-05
243	0x38a7e300	8.0054626e-05
244	0xb8900a80	-6.868411e-05
245	0xb945be00	-0.00018858165
246	0x382b2e00	4.0812418e-05
247	0xb8cabd80	-9.667408e-05
248	0xb8f95680	-0.00011889357
249	0xb800be80	-3.0694995e-05
250	0x391cbd00	0.00014947727
251	0xb8ff9a00	-0.00012188032
252	0x37578400	1.2845732e-05
253	0xb645a000	-2.944842e-06
254	0xb749b080	-1.2021628e-05
255	0x36c68380	5.9161684e-06
