tutorials/tutorial 5/lightning_logs/version_21/checkpoints/epoch=4-step=5.ckpt (torch, 518805 bytes, 206 tensors)

_pina_model._model.model.0.weight f4 [20, 2]
0	0x3e99d96b	0.3004869
1	0x3ec1b3d3	0.37832507
2	0x3d918238	0.071049154
3	0x3e860f5e	0.261836
4	0x3e9ab90e	0.3021931
5	0x3f0d02ee	0.55082595
6	0xb8cd49f6	-9.788938e-05
7	0x3df1f4de	0.11814283
8	0xbf325b5d	-0.6967066
9	0xbecd5e32	-0.40110928
10	0x3e8748be	0.26422685
11	0xbf03a8d1	-0.5142947
12	0x3c613ad1	0.013746933
13	0x3f2b36e7	0.6688065
14	0x3f201473	0.62531203
15	0xbf2d9a92	-0.6781398
16	0xbef759a8	-0.4831059
17	0xbe8b8877	-0.27252552
18	0x3dcaa7b4	0.09895268
19	0x3c91d84a	0.01780333
20	0x3ed33faf	0.41259524
21	0xbf2e0ef4	-0.67991567
22	0xbe583a18	-0.21115911
23	0x3d4dbfae	0.050231628
24	0xbe3ace76	-0.18242821
25	0xbe64078e	-0.22268507
26	0xbf1e3573	-0.6180031
27	0xbdea152a	-0.11429818
28	0x3f0a25f0	0.5396414
29	0x3f0b2266	0.5434936
30	0xbf0a9c35	-0.54144603
31	0x3e5d0895	0.21585305
32	0xbe115ba5	-0.14195116
33	0xbdd7500f	-0.10513317
34	0x3e3bfe64	0.18358761
35	0xbe81f89c	-0.25384986
36	0xbf368758	-0.7130027
37	0xbece7dc0	-0.40330315
38	0xbf279a8f	-0.6547021
39	0x3f0b2ae2	0.5436231

_pina_model._model.model.0.bias f4 [20]
0	0x3e8871a7	0.2664921
1	0x3e9fae3a	0.31187612
2	0x3f1774ca	0.5916258
3	0xbf018b67	-0.50603336
4	0xbf1369f8	-0.5758357
5	0xbf30d651	-0.6907702
6	0xbf2ccf84	-0.67504144
7	0xbebdbdac	-0.3705877
8	0x3effe602	0.4998017
9	0x3f33b2be	0.70194614
10	0x3ec4b0d1	0.3841615
11	0xbee805e9	-0.4531701
12	0x3dd3a3ff	0.10334014
13	0x3cae9e41	0.021315696
14	0xbea30de4	-0.31846535
15	0xbea4b05c	-0.32165802
16	0x3f35b6ff	0.70982355
17	0xbe4134d3	-0.18867807
18	0x3e5a487c	0.21316713
19	0x3e0c279c	0.13686985

_pina_model._model.model.2.weight f4 [20, 20]
0	0x3dbd9a6c	0.09257969
1	0xbd47bfcd	-0.0487669
2	0xbe292597	-0.16518246
3	0xbe0b9034	-0.13629228
4	0xbe68d303	-0.22736745
5	0x3cb55867	0.02213688
6	0xbdbf9ff6	-0.09356682
7	0x3e100d69	0.14067616
8	0xbc7bb18f	-0.0153621575
9	0xbd323878	-0.043510884
10	0xbe3914bb	-0.18074314
11	0x3e057bd9	0.13035525
12	0xbcd43f73	-0.025909161
13	0xbcba8ed9	-0.022773193
14	0xbdf35c9f	-0.118829004
15	0xbdb61634	-0.08890954
16	0xbd8db76a	-0.06919749
17	0xbdd218eb	-0.10258659
18	0xbe71c702	-0.23611072
19	0x3d244bb7	0.04011127
20	0x3d9dfd67	0.07714348
21	0xbdb97f50	-0.09057486
22	0xbdec1a89	-0.11528499
23	0xbbc553a8	-0.0060219355
24	0xbdb2ed3a	-0.087366536
25	0xbd99672c	-0.074903816
26	0xbdf3de61	-0.1190765
27	0xbdff901a	-0.12478657
28	0x3d93f865	0.07225112
29	0xbe21483a	-0.15750208
30	0x3cca2f33	0.02468071
31	0x3e031753	0.12801866
32	0xbd85986c	-0.06523213
33	0x39880ac7	0.0002594797
34	0x3e0366de	0.1283221
35	0x3e23d09b	0.15997545
36	0x3e2026d9	0.15639819
37	0x3e108f2d	0.14117117
38	0xbd9d9389	-0.07694156
39	0xbe25dfff	-0.16198729
40	0xbe38f436	-0.18061909
41	0xbe57736a	-0.2104012
42	0x3da56fec	0.08077988
43	0xbe2ec13d	-0.17065902
44	0xbe4f6598	-0.20253599
45	0xbe1b6466	-0.15175018
46	0xbcd7d554	-0.02634684
47	0xbdf646c2	-0.12025215
48	0x3dcc3971	0.099718936
49	0x3e037372	0.12837008
50	0x3e327518	0.1742748
51	0x3e61f10d	0.2206461
52	0x3df2fc90	0.11864579
53	0x3db64b80	0.08901119
54	0xbdc43c52	-0.09581818
55	0x3e3462a8	0.1761576
56	0x3d5733d0	0.052539647
57	0x3d044411	0.032291476
58	0xbdb32206	-0.08746724
59	0x3d95ed59	0.07320661
60	0x3cdf2148	0.02723755
61	0xbd79e0e9	-0.061005507
62	0x3d168393	0.036746573
63	0xbe14c784	-0.14529234
64	0x3dd9c4bc	0.10633227
65	0xbe316e5d	-0.17327257
66	0xbdac66b8	-0.084180295
67	0xbe180546	-0.14845762
68	0xbdf38bfe	-0.11891936
69	0xbd5706c5	-0.05249669
70	0x3e2620fa	0.16223517
71	0xbbeebe83	-0.0072858944
72	0x3d0ee18c	0.034883067
73	0xbd8e46da	-0.069471076
74	0x3d53baf6	0.05169197
75	0x3e3207ad	0.1738574
76	0x3e1ff792	0.15621784
77	0xbd54dc13	-0.05196769
78	0xbdd53e88	-0.104123175
79	0xbe5ac170	-0.21362853
80	0xbd890cf5	-0.066919245
81	0x3d97c3a2	0.07410361
82	0x3d61a29c	0.055086717
83	0x3d65c1c4	0.056092992
84	0x3b7f6839	0.0038972034
85	0x3e357450	0.17720151
86	0xbe3016aa	-0.17196146
87	0x3cccb462	0.024988357
88	0x3e29ec0b	0.1659395
89	0x3e51a91b	0.20474665
90	0xbe61b567	-0.22041856
91	0xbd448209	-0.047975574
92	0xbe1bf485	-0.15229996
93	0xbd9e3670	-0.07725227
94	0xbe50b215	-0.20380433
95	0xbdf3e5f1	-0.11909092
96	0x3e148363	0.14503245
97	0x3e1e3e78	0.15453517
98	0xbe0f998e	-0.1402342
99	0x3d9ac36c	0.07556805
100	0xbe14ea96	-0.14542612
101	0x3d2b7859	0.04186282
102	0x3ca89ea7	0.020583464
103	0xbd8544a4	-0.06507233
104	0xbe3947db	-0.18093817
105	0x3e4a1a92	0.19736698
106	0x3e382da2	0.17986158
107	0x3ccb3463	0.024805253
108	0xbd7ae183	-0.06125022
109	0xbc4c9316	-0.01248624
110	0xbd50fd16	-0.05102261
111	0xbdf15bc4	-0.11785081
112	0x3e5ff656	0.21871313
113	0x3e582b2a	0.21110216
114	0xbe26d9ac	-0.16293973
115	0xbe5bd698	-0.2146858
116	0xbe19febb	-0.15038578
117	0x3d1a739b	0.037707906
118	0x3defcb1f	0.11708664
119	0xbdf96bc1	-0.121787556
120	0xbe3d2c4a	-0.18473926
121	0x3d76dc7a	0.060268857
122	0xbd348844	-0.044075266
123	0x3e1de126	0.15417919
124	0x3bc2e7a5	0.0059480243
125	0x3cc399de	0.02387708
126	0xbe137cbe	-0.14403054
127	0xbda4de92	-0.080502644
128	0xbdb9ee30	-0.09078634
129	0x3dc5b7af	0.096541755
130	0xbe51be0d	-0.20482655
131	0xbe0f3a63	-0.13987117
132	0x3e25ecd6	0.16203627
133	0x3ad58b89	0.0016292195
134	0x3d83fb02	0.0644436
135	0xbe2278e4	-0.15866429
136	0x3e5ecafa	0.21757117
137	0xbe073d00	-0.13206863
138	0xbdff7274	-0.12473002
139	0x3dd185a3	0.10230567
140	0xbe4a0e3c	-0.19731992
141	0xbdbab8f9	-0.09117312
142	0x3e3ae6a4	0.18252045
143	0xbd2284fd	-0.03967761
144	0x3b9eba95	0.0048440197
145	0xbe2923c4	-0.1651755
146	0x3ce81ff5	0.02833555
147	0x3e6375c1	0.22212888
148	0xbdefdec7	-0.11712413
149	0x3e4804e8	0.19533122
150	0xbd7b7aa0	-0.06139624
151	0xbe39463a	-0.18093196
152	0x3de858f0	0.113450885
153	0xbe4d04e2	-0.20021394
154	0xbdae82ea	-0.085210636
155	0x3d80767f	0.06272601
156	0xbe472412	-0.19447353
157	0xbc731e9a	-0.014838839
158	0x3e070956	0.13187155
159	0x3dbcd7c3	0.09220841
160	0xbe04624c	-0.12928122
161	0xbdac17ca	-0.08402975
162	0x3e13c4fd	0.14430614
163	0xbe388359	-0.18018855
164	0xbd5995dd	-0.053121436
165	0xbcbf3a1e	-0.023343142
166	0xbd695005	-0.05696108
167	0x3de9537f	0.11392879
168	0xbc487e7b	-0.012237187
169	0xbddf79b8	-0.10911888
170	0xbdfa9943	-0.122362636
171	0x3e0926b0	0.13393664
172	0x3e5f39d5	0.21799405
173	0x3badb79f	0.0053014304
174	0xbe3fde4b	-0.18737142
175	0xbe505120	-0.20343447
176	0x3e00f8e8	0.1259495
177	0xbe0c010d	-0.13672276
178	0xbde7fd87	-0.113276534
179	0xbd8a59f4	-0.067554384
180	0x3c04379c	0.008069899
181	0x3b2fb619	0.002681142
182	0xbd8fe22f	-0.07025563
183	0x3dbfac80	0.09359074
184	0xbe5244c6	-0.20534047
185	0x3d89b9b4	0.06724873
186	0x3e0e97c7	0.13925086
187	0x3d0ec2a1	0.03485358
188	0x3e2b1e69	0.1671082
189	0xbce60279	-0.02807735
190	0x3e394ed5	0.18096478
191	0x3e5ef7b5	0.2177418
192	0xbe47b91a	-0.19504204
193	0x3cdd45d7	0.027010841
194	0x3e3ac475	0.18239005
195	0xbe361812	-0.1778262
196	0x3e655936	0.22397313
197	0x3ddf69ce	0.109088525
198	0xbbfbd4ae	-0.0076852655
199	0x3dd3de52	0.103451386
200	0xbdd8355c	-0.105570525
201	0x3ba032e2	0.004888878
202	0xbe199046	-0.14996442
203	0xbe14cd04	-0.14531332
204	0x3e45ad75	0.1930445
205	0x3ddf23f1	0.10895527
206	0x3e42558d	0.18977948
207	0x3dfa4f60	0.12222171
208	0x3d14288e	0.03617149
209	0x3e53de3e	0.20690247
210	0x3db82d4b	0.08993014
211	0x3e197ec6	0.14989766
212	0xbdb82c78	-0.08992857
213	0x3e14f461	0.14546348
214	0xbe7fbcef	-0.24974416
215	0x3e4a3a21	0.19748737
216	0x3d4d5774	0.05013223
217	0xbe5ac84d	-0.21365471
218	0x3e32b762	0.17452767
219	0xbd16b729	-0.03679577
220	0xbe1a76e3	-0.15084414
221	0xbd8c0601	-0.06837083
222	0xbd601209	-0.0547047
223	0xbda111ce	-0.07864724
224	0xbd14801b	-0.036254983
225	0x3df0e3ea	0.11762221
226	0x3d4a01fa	0.04931829
227	0x3e524166	0.2053276
228	0x3dc07b5f	0.09398531
229	0x3e226626	0.15859279
230	0xbdf64265	-0.120243825
231	0x3dd3c130	0.10339582
232	0xbe276d38	-0.16350257
233	0xbe5b4b6a	-0.21415487
234	0xbde2b02e	-0.1106876
235	0x3e2a98f7	0.16659914
236	0xbdad6a2e	-0.08467518
237	0x3e1d60d3	0.15368967
238	0x3de19d9d	0.110163905
239	0x3d8ebbfe	0.069694504
240	0x3e0c0ed4	0.13677531
241	0xbe172e8e	-0.14763853
242	0x3c2635d0	0.010144666
243	0x3e563caa	0.20921579
244	0x3e399a92	0.1812537
245	0xbd76b944	-0.060235277
246	0x3cc7f6fe	0.024409767
247	0xbdfb93d1	-0.12284053
248	0x3e28ea27	0.16495572
249	0x3d888a1b	0.066669665
250	0xbe4a15ac	-0.1973483
251	0xbd55e9ca	-0.05222491
252	0x3e0da3a9	0.13831963
253	0xbcc93e3d	-0.02456581
254	0xbda0ae7b	-0.078457795
255	0xbcfe5e67	-0.031050874

_pina_model._model.model.2.bias f4 [20]
0	0xbe022fa0	-0.1271348
1	0xbe309939	-0.1724595
2	0x3cfbf658	0.030757114
3	0x3d64c9c8	0.055856496
4	0x3dd78205	0.10522846
5	0x3cecb8b7	0.028896673
6	0x3db4c627	0.08826857
7	0x3d96c405	0.073616065
8	0xbe156e42	-0.14592841
9	0x3e31123c	0.17292112
10	0xbde38fb2	-0.11111392
11	0x3dce5b20	0.100759745
12	0xbe38aa9e	-0.18033835
13	0x3dcb3b44	0.099234134
14	0x3d1f5f30	0.038909137
15	0xbe0bd71f	-0.13656281
16	0x3d9f09b0	0.077655196
17	0x3dabc13f	0.08386468
18	0x3e15cc97	0.14628826
19	0x3e1278b4	0.14303857

_pina_model._model.model.4.weight f4 [2, 20]
0	0xbe4f6231	-0.20252301
1	0x3d0f6833	0.03501148
2	0xbe28b021	-0.16473438
3	0x3e511b1f	0.20420502
4	0xbe4baa27	-0.19889127
5	0xbe1a3eac	-0.1506297
6	0x3cc058a1	0.023479762
7	0x3e38a6e1	0.18032409
8	0xbde5b7ae	-0.11216675
9	0x3dfc5b5e	0.123221144
10	0x3e357ba8	0.17722952
11	0x3d941a8e	0.072316274
12	0x3decca43	0.11562016
13	0xbc99000e	-0.018676784
14	0x3e21c5b6	0.15798077
15	0x3e43fa6d	0.19138499
16	0xbdfe1e4f	-0.12408125
17	0x3e0c3967	0.13693772
18	0xbe19bd8f	-0.15013717
19	0x3da18185	0.07886032
20	0xbd6a5eb4	-0.057219222
21	0xbe485ff0	-0.19567847
22	0x3d54e780	0.051978588
23	0x3e2777b0	0.16354251
24	0x3e313ce0	0.17308378
25	0x3e25643f	0.16151522
26	0x3e0b8aa9	0.13627113
27	0x3e43d431	0.19123913
28	0xbc938667	-0.018008424
29	0x3c8e0073	0.017334199
30	0x3dd3b4fd	0.10337255
31	0xbd0825b5	-0.033239085
32	0x3c2d72bc	0.010586437
33	0xbb9587b9	-0.0045632985
34	0x3dcd0db6	0.10012381
35	0x3e6abc1f	0.22923325
36	0x3e571017	0.21002232
37	0xbe1a87ae	-0.1509082
38	0xbdcc5259	-0.09976644
39	0xbe360907	-0.17776881

_pina_model._model.model.4.bias f4 [2]
0	0x3e534507	0.206318
1	0xbdde8fc6	-0.10867266

d f4 [522]
0	0x3c2f14a4	0.010686073
1	0x3dbf3ac8	0.093373835
2	0x3da860f0	0.08221614
3	0xbde4dea5	-0.111752786
4	0x3c086d48	0.008326836
5	0x395cbd24	0.00021051295
6	0x3d79f852	0.061027832
7	0x3e29f4c1	0.16597272
8	0xbdb14d34	-0.086573035
9	0xbd280053	-0.041015934
10	0xbda944ce	-0.082650766
11	0x3dd9ba23	0.10631206
12	0xbddc0106	-0.10742383
13	0x3e9714af	0.29507968
14	0x3e80c5ce	0.25150913
15	0xbf2684b3	-0.6504623
16	0xbd50614d	-0.050874043
17	0xbc960480	-0.018312693
18	0x3c922fc9	0.017845051
19	0xbd924eae	-0.07143913
20	0xbc8e8575	-0.017397622
21	0xbe27cfec	-0.1638791
22	0xbd90a797	-0.07063215
23	0xbbbf7475	-0.00584274
24	0x3c8f5461	0.01749629
25	0x3c3dfafc	0.011595484
26	0x3c039f56	0.008033594
27	0x3cfc4e03	0.030798918
28	0xbd7da243	-0.061922323
29	0x3b03aa38	0.0020090472
30	0xbe9c1167	-0.30482027
31	0x3e59891b	0.21243708
32	0xbd396877	-0.04526564
33	0x3d24e587	0.040257957
34	0x3dc12b6e	0.09432112
35	0x3d43d9db	0.047815185
36	0xbf13890b	-0.57630986
37	0xbec38c8c	-0.38193166
38	0xbd985f83	-0.074400924
39	0xbb25ca17	-0.0025297457
40	0xbd98af78	-0.07455343
41	0x3d0f12c8	0.03493002
42	0xbd6974ef	-0.056996282
43	0x3ccfbacb	0.025357625
44	0x3e38fee8	0.18065989
45	0x3c4dc6e1	0.012559623
46	0xbd8a4f3d	-0.06753395
47	0xbe961bbe	-0.2931804
48	0x3d89283c	0.06697127
49	0x3dc0ec90	0.09420121
50	0xbd320164	-0.043458357
51	0xbbc4f30e	-0.0060104197
52	0xbd4af471	-0.049549524
53	0x3db39c0b	0.08769997
54	0xbe3d9d81	-0.18517114
55	0x3e09697a	0.13419142
56	0x3bd22db1	0.0064141382
57	0xbca82d2b	-0.02052935
58	0xbd9f5d6f	-0.07781493
59	0xbe080a12	-0.13285092
60	0xbd2c1c74	-0.042019323
61	0xbd77de92	-0.060514994
62	0xbd34030b	-0.043948215
63	0x3d734ae8	0.059397608
64	0x3ceeae5c	0.029135875
65	0xbbfd898f	-0.0077373455
66	0xbd72ccc0	-0.059277296
67	0xbe8bf5d5	-0.27335992
68	0x3d82a7ea	0.06379683
69	0xbdddea20	-0.108356714
70	0x3d02ca65	0.0319313
71	0x3db09f73	0.086241625
72	0x3d0314fe	0.03200244
73	0x3ce56253	0.028000986
74	0x3b2f2bdf	0.002672903
75	0x3cabb10e	0.02095845
76	0xbd6d99bf	-0.05800795
77	0xbbe3a947	-0.0069476697
78	0xbdb8853b	-0.09009787
79	0x3db552f8	0.08853716
80	0xbd0e7f42	-0.03478933
81	0xbd42a41f	-0.0475198
82	0xbd19209b	-0.03738461
83	0x3d501abd	0.05080675
84	0x3ca5fdb9	0.020262586
85	0x3b69ba46	0.0035664006
86	0xbd266852	-0.04062683
87	0xbe5b64c2	-0.21425155
88	0x3d4e210e	0.050324492
89	0xbda9759e	-0.08274387
90	0x3c95b56c	0.018274985
91	0x3d83fbe7	0.06444531
92	0x3cc587a0	0.024112523
93	0x3cdaad32	0.026693914
94	0xbbf33b4b	-0.0074228398
95	0x3c8b11b1	0.01697621
96	0xbd52edda	-0.051496364
97	0xba81c1ca	-0.0009899673
98	0xbda8cbb4	-0.08241978
99	0x3d76243e	0.060093157
100	0xbd1b600e	-0.0379334
101	0xbd4e5be8	-0.050380617
102	0xbd1dab44	-0.03849341
103	0x3d35462a	0.044256367
104	0x3cd4bd14	0.025969066
105	0xbbe77178	-0.007063087
106	0xbd4c7c10	-0.049923003
107	0xbe598b1a	-0.2124447
108	0x3d8a23cd	0.0674511
109	0xbdafc1ac	-0.08581862
110	0x3c865345	0.016397128
111	0x3d954036	0.07287638
112	0x3d040ecb	0.03224067
113	0x3d2e5952	0.04256565
114	0xbca77ab4	-0.020444252
115	0x3cf19b04	0.029492863
116	0xbd217f3c	-0.03942798
117	0xbc31e952	-0.010858851
118	0xbd07fed0	-0.033201993
119	0x3da83658	0.0821349
120	0x37cdcd10	2.4533394e-05
121	0x3d277bcf	0.040889557
122	0xbc040f88	-0.008060344
123	0xbd47b32d	-0.04875486
124	0x3d2106fc	0.0393133
125	0x3d1d0cbe	0.03834223
126	0x3dc9ffdd	0.09863255
127	0x3e8dfd1d	0.27732173
128	0xbd0f79c5	-0.035028238
129	0x3db65484	0.08902839
130	0xbdde8c7b	-0.10866638
131	0xbd69cad5	-0.0570782
132	0xbc778a01	-0.015108586
133	0x3d582558	0.05276999
134	0xbd9e0198	-0.07715148
135	0x3d50914c	0.050919816
136	0x3d5feeb4	0.054671004
137	0xbb15dcc4	-0.0022867182
138	0x3e3d659b	0.1849579
139	0xbd4cea1d	-0.050027955
140	0x3ba46d65	0.0050179237
141	0xbb861634	-0.0040920023
142	0x3b5cc43d	0.0033686303
143	0x3ada3d10	0.0016650278
144	0xbbaa5782	-0.00519842
145	0xbbeb244a	-0.007175957
146	0xbc4b19dc	-0.012396302
147	0xbc625cbf	-0.013816058
148	0xbb398fad	-0.0028314397
149	0xbc2bba46	-0.010481423
150	0x3c96c595	0.018404761
151	0x3bf23985	0.007392111
152	0x39b87b13	0.00035186912
153	0xbc512172	-0.012764322
154	0x3c992fa5	0.018699476
155	0xbc177a82	-0.009245517
156	0xba5e7284	-0.0008485692
157	0xbabf1037	-0.0014576976
158	0xbc1ce6dd	-0.0095765265
159	0x3ad8a2f7	0.001652806
160	0x3c84f548	0.01623024
161	0x3c54f73e	0.0129984
162	0x3cadbc07	0.021207822
163	0xbc96ff4b	-0.01843228
164	0xbc9b1cd6	-0.018934648
165	0xbc74f0e4	-0.014950011
166	0xbc3a423b	-0.01136833
167	0x3d42ab19	0.047526453
168	0xbc224dd9	-0.009906256
169	0x3caf6695	0.02141122
170	0x3cb5a438	0.022173032
171	0xbc940b44	-0.018071778
172	0xbb9e7449	-0.0048356396
173	0xbcb90565	-0.02258558
174	0x3c81f6d3	0.015864765
175	0xbc9e9259	-0.019356893
176	0x3ca0677b	0.019580593
177	0xba5bfa98	-0.00083915284
178	0x3c88cd6b	0.016699513
179	0xbc71f48e	-0.014767779
180	0x3b12a139	0.0022373928
181	0x3c487350	0.012234524
182	0xbb1f92cb	-0.002434897
183	0xbcd99297	-0.026559157
184	0x3bbb418d	0.0057146014
185	0x3cefcc20	0.02927214
186	0x3c03535e	0.008015482
187	0x3e28a148	0.16467774
188	0xbcc34ccf	-0.023840336
189	0x3d20da1f	0.039270516
190	0x3be8d38d	0.007105297
191	0xbd04cd05	-0.032422084
192	0xbb9f246b	-0.0048566363
193	0xbb28476e	-0.002567734
194	0xbcd2c274	-0.025727488
195	0xbc3a1128	-0.011356629
196	0x3cc38893	0.023868835
197	0x3c80d93c	0.015728585
198	0x3d7e6eee	0.06211751
199	0xbd93629d	-0.07196543
200	0x3c69c863	0.014268967
201	0x3d84b459	0.06479711
202	0x3b90b514	0.0044161174
203	0xbd8e665c	-0.06953117
204	0x3d2a609c	0.04159604
205	0x3d431c68	0.047634512
206	0x3e0b0190	0.13574815
207	0x3edf96c6	0.43669719
208	0xbdb14747	-0.08656173
209	0x3e024e82	0.12725261
210	0xbdeb17a4	-0.114791185
211	0xbdbbc806	-0.09169011
212	0xbd0ebad1	-0.03484613
213	0x3ca82254	0.020524181
214	0xbd4e7f18	-0.050414175
215	0x3d241140	0.040055513
216	0x3d8d3153	0.068941735
217	0x3c02cc5a	0.0079832915
218	0x3e69f672	0.22847918
219	0xbdbf1fd6	-0.09332244
220	0xbbd17339	-0.0063919094
221	0xbcacc8ac	-0.021091782
222	0xbbbdb02e	-0.0057888245
223	0x3ce192d2	0.02753583
224	0xbb36c86a	-0.0027890452
225	0xbc8a6fe6	-0.01689906
226	0xbcd139a6	-0.025540184
227	0xbe143271	-0.14472367
228	0x3cb35da8	0.021895245
229	0xbd41f854	-0.047355965
230	0x3c926c05	0.017873773
231	0x3d151f66	0.036406897
232	0x3c0aee51	0.008479671
233	0xbb355916	-0.0027671508
234	0x3cc1e22d	0.02366742
235	0x399d4da0	0.0003000321
236	0xbcdac8bf	-0.026707051
237	0xbbec0c8a	-0.007203643
238	0xbd84b786	-0.06480317
239	0x3d3ff027	0.046859886
240	0xbc2a1df0	-0.010383114
241	0x3c703945	0.014662092
242	0xbc48da03	-0.012259009
243	0xbcd53d11	-0.026030095
244	0x3ce85ca9	0.028364496
245	0x3cceccf2	0.02524421
246	0x3d0fe2d0	0.035128415
247	0x3e0b1766	0.13583145
248	0xbbb8d4b2	-0.0056405896
249	0x3d3049ba	0.04303906
250	0xbd3966e6	-0.045264147
251	0xbcdf4f26	-0.02725942
252	0xb9bd88ed	-0.00036150907
253	0x3d12130b	0.035662692
254	0xbd673207	-0.056444194
255	0x3cd6e038	0.026229963

old_dirs f4 [522]
0	0x37281400	1.0018237e-05
1	0x3722c800	9.702519e-06
2	0xb7148a00	-8.853618e-06
3	0xb70fc800	-8.57003e-06
4	0xb7401800	-1.144968e-05
5	0xb734b800	-1.0771677e-05
6	0x363a0c00	2.7723145e-06
7	0x362b6000	2.5536865e-06
8	0x370dd000	8.452684e-06
9	0x3723c200	9.760726e-06
10	0x36e16000	6.7166984e-06
11	0x37748000	1.4573336e-05
12	0x34828000	2.430752e-07
13	0xb5a74000	-1.2461096e-06
14	0x35b81000	1.3713725e-06
15	0x37293c00	1.0087155e-05
16	0x37870a00	1.609791e-05
17	0x3787f000	1.6205013e-05
18	0xb6f4c000	-7.2941184e-06
19	0xb7019000	-7.722527e-06
20	0x37666800	1.3733283e-05
21	0x37ae5800	2.0783395e-05
22	0x37413c00	1.1517666e-05
23	0x374ed000	1.2326986e-05
24	0xb7ee7400	-2.8425828e-05
25	0xb7e5d000	-2.7395785e-05
26	0xb712d800	-8.75257e-06
27	0xb74dcc00	-1.226645e-05
28	0x3754f000	1.2692064e-05
29	0x3731d000	1.0598451e-05
30	0x37d9ac00	2.594851e-05
31	0x3803ec00	3.1452626e-05
32	0xb7256400	-9.858049e-06
33	0xb73c9200	-1.12396665e-05
34	0xb70ddc00	-8.455478e-06
35	0xb712c600	-8.748379e-06
36	0x3755f400	1.27526e-05
37	0x37475a00	1.1882279e-05
38	0xb6c44000	-5.8487058e-06
39	0xb7067800	-8.014962e-06
40	0x37cd3400	2.4462119e-05
41	0xb796dc00	-1.7983839e-05
42	0xb7c30400	-2.3247674e-05
43	0x36ca3000	6.025657e-06
44	0x37be8000	2.270937e-05
45	0x37895c00	1.6374514e-05
46	0xb4bc0000	-3.501773e-07
47	0x37155b80	8.902396e-06
48	0x37fe9400	3.0348077e-05
49	0xb7806a00	-1.530815e-05
50	0x380a9800	3.3043325e-05
51	0x37bf6400	2.281554e-05
52	0xb8675800	-5.5156648e-05
53	0xb7e00800	-2.6706606e-05
54	0x38230400	3.8865954e-05
55	0x3876a400	5.8803707e-05
56	0xb7a69500	-1.9858126e-05
57	0xb782b800	-1.558289e-05
58	0x379ba400	1.8553808e-05
59	0xb7518000	-1.2487173e-05
60	0xb780c800	-1.5351921e-05
61	0xb75fec00	-1.3346784e-05
62	0xb7b9b800	-2.21394e-05
63	0x37635800	1.35507435e-05
64	0x37c22000	2.3141503e-05
65	0x379a3c00	1.838617e-05
66	0x3716f800	8.998439e-06
67	0x36ed6000	7.0743263e-06
68	0xb6787000	-3.7020072e-06
69	0xb7a86c00	-2.0077452e-05
70	0xb6d96000	-6.47828e-06
71	0x377ed800	1.5189871e-05
72	0x3625ed00	2.4724868e-06
73	0x37129400	8.736737e-06
74	0xb697f000	-4.5280904e-06
75	0x375b1800	1.3059005e-05
76	0xb7887400	-1.626648e-05
77	0x36d74c00	6.416347e-06
78	0x36d43000	6.3236803e-06
79	0xb5e5c000	-1.7117709e-06
80	0x38342800	4.2952597e-05
81	0x3818f600	3.646873e-05
82	0x3880e000	6.145239e-05
83	0xb812c000	-3.4987926e-05
84	0xb8869200	-6.4168125e-05
85	0xb85d1000	-5.2705407e-05
86	0xb7c1bc00	-2.3094937e-05
87	0xb7c29800	-2.3197383e-05
88	0x37012000	7.69645e-06
89	0x385cb400	5.2619725e-05
90	0x3796bc00	1.7968938e-05
91	0xb828c400	-4.023686e-05
92	0xb7048600	-7.899012e-06
93	0xb7e1f000	-2.6933849e-05
94	0x37a17000	1.924485e-05
95	0xb8176400	-3.6094338e-05
96	0x38301800	4.198402e-05
97	0xb7933000	-1.7546117e-05
98	0xb7b53800	-2.1602958e-05
99	0x3701e000	7.741153e-06
100	0xb8244400	-3.9163977e-05
101	0xb8099200	-3.279932e-05
102	0xb86a2c00	-5.5830926e-05
103	0x38025200	3.1070784e-05
104	0x38763800	5.8703125e-05
105	0x38489400	4.782155e-05
106	0x37b09200	2.1048822e-05
107	0x37bc1e00	2.2425316e-05
108	0xb6e30400	-6.765593e-06
109	0xb8446800	-4.68269e-05
110	0xb78d0400	-1.6810372e-05
111	0x3816be00	3.5939738e-05
112	0x36f66800	7.3434785e-06
113	0x37d33000	2.5175512e-05
114	0xb79a9e00	-1.8431805e-05
115	0x380a7000	3.3006072e-05
116	0xb81c7c00	-3.7308782e-05
117	0x37853000	1.5877187e-05
118	0x37af3600	2.0886771e-05
119	0xb6f3e800	-7.2689727e-06
120	0xb756b800	-1.2798235e-05
121	0xb7216e00	-9.621959e-06
122	0xb7919800	-1.7356128e-05
123	0x36f74000	7.368624e-06
124	0x379bd800	1.8578023e-05
125	0x37807000	1.5310943e-05
126	0x36a56000	4.928559e-06
127	0x37166000	8.9630485e-06
128	0x354ac000	7.553026e-07
129	0xb747a800	-1.190044e-05
130	0xb6c68000	-5.915761e-06
131	0x37227e00	9.685289e-06
132	0x366a4000	3.490597e-06
133	0x37374000	1.0922551e-05
134	0xb7421000	-1.1567026e-05
135	0x3732e800	1.06636435e-05
136	0xb7113000	-8.653849e-06
137	0x3693e200	4.4072513e-06
138	0x3737e000	1.0959804e-05
139	0xb655f000	-3.1879172e-06
140	0xb87fd000	-6.0990453e-05
141	0xb8590400	-5.1740557e-05
142	0xb8b69800	-8.7067485e-05
143	0x384ec000	4.929304e-05
144	0x38beac00	9.0919435e-05
145	0x389c9a00	7.4673444e-05
146	0x38067200	3.205426e-05
147	0x380e1800	3.387779e-05
148	0xb735ac00	-1.0828488e-05
149	0xb89bc000	-7.426739e-05
150	0xb7ce7800	-2.4612993e-05
151	0x386dc800	5.6691468e-05
152	0x373ed400	1.1374243e-05
153	0x381f5e00	3.79961e-05
154	0xb7e4f400	-2.729334e-05
155	0x3854f400	5.077198e-05
156	0xb8786000	-5.9217215e-05
157	0x37d35c00	2.5196001e-05
158	0x38017e00	3.0873343e-05
159	0xb741f400	-1.1560507e-05
160	0xb84eb800	-4.928559e-05
161	0xb8315400	-4.227832e-05
162	0xb8945a00	-7.073954e-05
163	0x382d5800	4.132837e-05
164	0x389a8c00	7.369369e-05
165	0x387c6000	6.017089e-05
166	0x37e36400	2.7107075e-05
167	0x37d12800	2.4933368e-05
168	0xb7211800	-9.601936e-06
169	0xb881c000	-6.186962e-05
170	0xb7ac8c00	-2.056919e-05
171	0x3845d000	4.7162175e-05
172	0x3712b000	8.743256e-06
173	0x37fbbc00	3.0009076e-05
174	0xb7a71c00	-1.992099e-05
175	0x382e3c00	4.1540712e-05
176	0xb84fe400	-4.9564987e-05
177	0x37a9d400	2.024509e-05
178	0x37c2ea00	2.3235567e-05
179	0xb7034600	-7.824507e-06
180	0xb7ed4000	-2.8282404e-05
181	0xb7c64400	-2.3635104e-05
182	0xb828b000	-4.0218234e-05
183	0x37b50e00	2.15834e-05
184	0x38303c00	4.201755e-05
185	0x38142400	3.5319477e-05
186	0x376ab400	1.3989396e-05
187	0x37985000	1.8157065e-05
188	0xb6930000	-4.3809414e-06
189	0xb809ca00	-3.2851472e-05
190	0xb7373400	-1.0919757e-05
191	0x37d2e200	2.513919e-05
192	0x36bbf800	5.6019053e-06
193	0x37995800	1.828e-05
194	0xb77ae000	-1.4953315e-05
195	0x37c1c000	2.30968e-05
196	0xb7da7800	-2.6043504e-05
197	0x37461c00	1.1808239e-05
198	0x3783f800	1.5731901e-05
199	0xb6f2c000	-7.2345138e-06
200	0xb767e000	-1.3820827e-05
201	0xb73f2000	-1.1391938e-05
202	0xb7a2b800	-1.9397587e-05
203	0x3727f200	1.0010321e-05
204	0x37a95000	2.0183623e-05
205	0x378f9000	1.7113984e-05
206	0x36cc6000	6.0908496e-06
207	0x370db000	8.445233e-06
208	0xb5913000	-1.0817312e-06
209	0xb781db00	-1.5479978e-05
210	0xb6b26000	-5.3159893e-06
211	0x37495e00	1.200242e-05
212	0x364e9800	3.0784868e-06
213	0x3721e000	9.648502e-06
214	0xb7145000	-8.840114e-06
215	0x373c9000	1.1239201e-05
216	0xb748ae00	-1.19614415e-05
217	0x36b7ec00	5.481299e-06
218	0x37101000	8.586794e-06
219	0xb6680000	-3.4570694e-06
220	0xb738e400	-1.102034e-05
221	0xb7221400	-9.660609e-06
222	0xb7854400	-1.58865e-05
223	0x3724b800	9.818003e-06
224	0x378a4800	1.648441e-05
225	0x375d6000	1.3194978e-05
226	0x36d2f000	6.2864274e-06
227	0x369eb000	4.729256e-06
228	0xb62b5c00	-2.5534537e-06
229	0xb7746800	-1.4567748e-05
230	0xb695c800	-4.463829e-06
231	0x3738b400	1.1009164e-05
232	0x35f48c00	1.8220162e-06
233	0x36cfc000	6.1914325e-06
234	0xb6581000	-3.2195821e-06
235	0x371bf400	9.295531e-06
236	0xb7456800	-1.1766329e-05
237	0x369adc00	4.615169e-06
238	0x3693a000	4.399568e-06
239	0xb59be000	-1.1613593e-06
240	0x36faa800	7.4701384e-06
241	0x36ea6800	6.9858506e-06
242	0x373a3c00	1.1100434e-05
243	0xb7000800	-7.631257e-06
244	0xb73da000	-1.1302531e-05
245	0xb71a3000	-9.190291e-06
246	0xb6a0d800	-4.7935173e-06
247	0xb62aa000	-2.5425106e-06
248	0x362fd000	2.6198104e-06
249	0x373a4800	1.1103228e-05
250	0x363a7000	2.7781352e-06
251	0xb709e400	-8.218922e-06
252	0xb56b5000	-8.766074e-07
253	0xb65c9000	-3.2866374e-06
254	0x35078000	5.0477684e-07
255	0xb6d3a000	-6.3069165e-06

old_dirs f4 [522]
0	0x3717b800	9.043142e-06
1	0x370f1000	8.5271895e-06
2	0xb71ad600	-9.228941e-06
3	0xb7183000	-9.071082e-06
4	0xb74f7400	-1.236517e-05
5	0xb74fb800	-1.2381002e-05
6	0x35f1b800	1.800945e-06
7	0x35c1c000	1.44355e-06
8	0x370fe800	8.577481e-06
9	0x3724a800	9.814277e-06
10	0x36888000	4.068017e-06
11	0x37bed000	2.2746623e-05
12	0x352a8000	6.35162e-07
13	0xb6234000	-2.4326146e-06
14	0x35908000	1.0766089e-06
15	0x37a2aa00	1.9391067e-05
16	0x3791cc00	1.7380342e-05
17	0x37980000	1.8119812e-05
18	0xb6f78000	-7.376075e-06
19	0xb709b800	-8.208677e-06
20	0x372aa800	1.0171905e-05
21	0x37b6a000	2.1770597e-05
22	0x37578c00	1.2847595e-05
23	0x376a8000	1.3977289e-05
24	0xb7f7b400	-2.9528514e-05
25	0xb7ef1c00	-2.8504059e-05
26	0xb6c2f000	-5.80959e-06
27	0xb7398c00	-1.1059456e-05
28	0x3625c000	2.4698675e-06
29	0xb5810000	-9.611249e-07
30	0x37dce800	2.6334077e-05
31	0x3805d400	3.190711e-05
32	0xb72b5000	-1.0211021e-05
33	0xb7565400	-1.2774952e-05
34	0xb71cdc00	-9.349547e-06
35	0xb7237400	-9.742565e-06
36	0x3798e400	1.8225983e-05
37	0x37871500	1.6103033e-05
38	0xb6ea6000	-6.9849193e-06
39	0xb73c6800	-1.1229888e-05
40	0x37dc5400	2.626516e-05
41	0xb79e4400	-1.8866733e-05
42	0xb7c5d000	-2.3581088e-05
43	0x36afc000	5.237758e-06
44	0x37c10000	2.3007393e-05
45	0x378bb800	1.6655773e-05
46	0xb5240000	-6.109476e-07
47	0x377e7a80	1.51681015e-05
48	0x3809d800	3.286451e-05
49	0xb78fda00	-1.7148443e-05
50	0x38018a00	3.088452e-05
51	0x37cee800	2.4665147e-05
52	0xb8721c00	-5.7723373e-05
53	0xb7e45000	-2.7216971e-05
54	0x3807cc00	3.2376498e-05
55	0x387b5c00	5.9928745e-05
56	0xb7b65000	-2.1733344e-05
57	0xb788c000	-1.630187e-05
58	0x37b44c00	2.1493062e-05
59	0xb7856800	-1.5903264e-05
60	0xb7604000	-1.3366342e-05
61	0xb748e800	-1.1974946e-05
62	0xb7a3dc00	-1.953356e-05
63	0x375af000	1.3049692e-05
64	0x37ac2000	2.0518899e-05
65	0x37816800	1.5426427e-05
66	0x3714f000	8.877367e-06
67	0x369b8000	4.634261e-06
68	0xb68b2800	-4.1471794e-06
69	0xb79f0400	-1.895614e-05
70	0xb6c46000	-5.852431e-06
71	0x376f1000	1.4249235e-05
72	0x35e5ae00	1.711247e-06
73	0x36e01800	6.678514e-06
74	0xb59e8000	-1.180917e-06
75	0x37480000	1.1920929e-05
76	0xb7824800	-1.5530735e-05
77	0x36bd5400	5.642418e-06
78	0x368d1000	4.20399e-06
79	0xb4760000	-2.2910535e-07
80	0x383df000	4.528463e-05
81	0x38224c00	3.869459e-05
82	0x38880000	6.484985e-05
83	0xb81cac00	-3.7353486e-05
84	0xb88d8200	-6.747618e-05
85	0xb868f800	-5.554408e-05
86	0xb7ca4c00	-2.4115667e-05
87	0xb7c4c000	-2.3454428e-05
88	0x3706f400	8.043833e-06
89	0x386b4000	5.608797e-05
90	0x379df000	1.8827617e-05
91	0xb833bc00	-4.2852014e-05
92	0xb70bf600	-8.342322e-06
93	0xb7ed3c00	-2.8280541e-05
94	0x37ac7800	2.0559877e-05
95	0xb81f0800	-3.7916005e-05
96	0x383b3c00	4.4640154e-05
97	0xb79b7000	-1.8529594e-05
98	0xb7b8b400	-2.2018328e-05
99	0x37087000	8.132309e-06
100	0xb82c3e00	-4.1065738e-05
101	0xb8100800	-3.4339726e-05
102	0xb8765c00	-5.8736652e-05
103	0x3808b000	3.258884e-05
104	0x3881ce00	6.18957e-05
105	0x3853c000	5.0485134e-05
106	0x37bd6c00	2.2580847e-05
107	0x37ceb200	2.4640001e-05
108	0xb7008200	-7.6596625e-06
109	0xb84d6400	-4.896894e-05
110	0xb796b200	-1.7964281e-05
111	0x381d7400	3.753975e-05
112	0x36fc0c00	7.511582e-06
113	0x37dcd000	2.6322901e-05
114	0xb7a36c00	-1.9481406e-05
115	0x38115000	3.46452e-05
116	0xb8240c00	-3.9111823e-05
117	0x378d0e00	1.6815029e-05
118	0x37b63e00	2.1724962e-05
119	0xb70dce00	-8.452218e-06
120	0xb79bf400	-1.8591061e-05
121	0xb760b800	-1.3394281e-05
122	0xb7cee800	-2.4665147e-05
123	0x3718ec00	9.114854e-06
124	0x37de7000	2.6516616e-05
125	0x37ba0c00	2.2178516e-05
126	0x36c19000	5.768612e-06
127	0x376ac000	1.399219e-05
128	0x362f2000	2.6095659e-06
129	0xb780d200	-1.5356578e-05
130	0xb7134000	-8.776784e-06
131	0x37579800	1.2850389e-05
132	0x36c0c800	5.745329e-06
133	0x3791e000	1.7389655e-05
134	0xb7aca000	-2.0578504e-05
135	0x377be800	1.5014783e-05
136	0xb7322000	-1.0617077e-05
137	0x36cca900	6.099348e-06
138	0x3794f800	1.7758459e-05
139	0xb6b29800	-5.3225085e-06
140	0xb8845000	-6.309152e-05
141	0xb861f400	-5.3871423e-05
142	0xb8bd2800	-9.019673e-05
143	0x38591000	5.1751733e-05
144	0x38c53000	9.402633e-05
145	0x38a19000	7.7039e-05
146	0x380ab000	3.3065677e-05
147	0x380ec800	3.4041703e-05
148	0xb73ffc00	-1.14431605e-05
149	0xb8a31800	-7.776916e-05
150	0xb7d2a800	-2.5112182e-05
151	0x38787800	5.9239566e-05
152	0x37439c00	1.1659227e-05
153	0x3822aa00	3.8782135e-05
154	0xb7e83600	-2.76817e-05
155	0x385bf400	5.244091e-05
156	0xb881de00	-6.19255e-05
157	0x37dc0800	2.6229769e-05
158	0x38013200	3.0802563e-05
159	0xb7481000	-1.1924654e-05
160	0xb850f000	-4.9814582e-05
161	0xb835d000	-4.3347478e-05
162	0xb896a800	-7.18385e-05
163	0x3835e800	4.336983e-05
164	0x389c5e00	7.4561685e-05
165	0x387e0400	6.0562044e-05
166	0x37eb3c00	2.8042123e-05
167	0x37bf8800	2.2832304e-05
168	0xb72f9800	-1.0466203e-05
169	0xb8875800	-6.453693e-05
170	0xb7aee000	-2.0846725e-05
171	0x384db000	4.903972e-05
172	0x370de400	8.45734e-06
173	0x37f68c00	2.9390678e-05
174	0xb798fe00	-1.823809e-05
175	0x38311000	4.221499e-05
176	0xb8592000	-5.1766634e-05
177	0x37ac7400	2.0558015e-05
178	0x37b3a400	2.1414831e-05
179	0xb6e9d800	-6.969087e-06
180	0xb8061000	-3.196299e-05
181	0xb7de4c00	-2.6499853e-05
182	0xb83de000	-4.5269728e-05
183	0x37c47600	2.3419969e-05
184	0x38461000	4.722178e-05
185	0x3829a000	4.044175e-05
186	0x37776c00	1.4747493e-05
187	0x37bb6800	2.2340566e-05
188	0xb6934000	-4.388392e-06
189	0xb816aa00	-3.592111e-05
190	0xb7456400	-1.1765398e-05
191	0x37e6a000	2.7492642e-05
192	0x36dfe800	6.6729262e-06
193	0x37b1b000	2.1182e-05
194	0xb7a17800	-1.9248575e-05
195	0x37d55800	2.5432557e-05
196	0xb7ed4000	-2.8282404e-05
197	0x37630c00	1.3533048e-05
198	0x379ba800	1.8555671e-05
199	0xb725a000	-9.872019e-06
200	0xb791e800	-1.739338e-05
201	0xb76e1000	-1.4189631e-05
202	0xb7ca3c00	-2.4108216e-05
203	0x3746e400	1.1854805e-05
204	0x37d09800	2.4866313e-05
205	0x37b57000	2.1629035e-05
206	0x36d6b000	6.398186e-06
207	0x3734e000	1.078099e-05
208	0xb4bdc000	-3.5343692e-07
209	0xb79ca100	-1.867162e-05
210	0xb6d35000	-6.2976032e-06
211	0x37744a00	1.4560763e-05
212	0x3691a400	4.340429e-06
213	0x37577800	1.2842938e-05
214	0xb7627000	-1.3496727e-05
215	0x37639000	1.3563782e-05
216	0xb76cb400	-1.4108606e-05
217	0x36e51000	6.8265945e-06
218	0x37400000	1.1444092e-05
219	0xb6a6e000	-4.9732625e-06
220	0xb71f4800	-9.493902e-06
221	0xb7125400	-8.721836e-06
222	0xb769f000	-1.3943762e-05
223	0x3721b000	9.637326e-06
224	0x37719000	1.4398247e-05
225	0x37396000	1.1049211e-05
226	0x36d06800	6.2109903e-06
227	0x3629e000	2.5313348e-06
228	0xb6478000	-2.9727817e-06
229	0xb76b0000	-1.40070915e-05
230	0xb683a000	-3.9227307e-06
231	0x372fa800	1.0469928e-05
232	0x35a1a400	1.2043165e-06
233	0x36965000	4.4796616e-06
234	0xb5108000	-5.3830445e-07
235	0x370c2c00	8.354895e-06
236	0xb7406000	-1.14664435e-05
237	0x3687ba00	4.0449668e-06
238	0x36227000	2.4205074e-06
239	0x32980000	1.7695129e-08
240	0x36ba8800	5.5590644e-06
241	0x36c80800	5.961396e-06
242	0x37143000	8.832663e-06
243	0xb6fdf000	-7.5679272e-06
244	0xb7126000	-8.72463e-06
245	0xb6e94800	-6.952323e-06
246	0xb69f5800	-4.748814e-06
247	0xb4c10000	-3.594905e-07
248	0x366ff000	3.5753474e-06
249	0x3731f800	1.0607764e-05
250	0x35ec8000	1.7620623e-06
251	0xb6fea800	-7.5893477e-06
252	0x328a0000	1.6065314e-08
253	0xb54b0000	-7.5623393e-07
254	0xb654e000	-3.1720847e-06
255	0xb6a46800	-4.899688e-06

old_dirs f4 [522]
0	0x3712c400	8.747913e-06
1	0x37058000	7.95722e-06
2	0xb7322800	-1.061894e-05
3	0xb72ea000	-1.0408461e-05
4	0xb7757200	-1.4629681e-05
5	0xb780ae00	-1.5339814e-05
6	0x35f6d000	1.8388964e-06
7	0x35c04000	1.4323741e-06
8	0x37263000	9.905547e-06
9	0x373e3400	1.133699e-05
10	0x348e0000	2.644956e-07
11	0x380c5800	3.3460557e-05
12	0x36006000	1.9129366e-06
13	0xb65a6000	-3.254041e-06
14	0x355b4000	8.167699e-07
15	0x3807eb80	3.2405835e-05
16	0x37a87000	2.0079315e-05
17	0x37b55400	2.1615997e-05
18	0xb7039400	-7.842667e-06
19	0xb71b0000	-9.23872e-06
20	0x37018000	7.7188015e-06
21	0x37d9ea00	2.597738e-05
22	0x377b5000	1.4979392e-05
23	0x378ba400	1.664646e-05
24	0xb80f4e00	-3.41665e-05
25	0xb80a5600	-3.2981858e-05
26	0xb67b6000	-3.7457794e-06
27	0xb7419000	-1.1537224e-05
28	0xb6f04000	-7.160008e-06
29	0xb750a000	-1.2435019e-05
30	0x37ffec00	3.0508265e-05
31	0x381b8800	3.708154e-05
32	0xb73b2e00	-1.1156779e-05
33	0xb780c800	-1.5351921e-05
34	0xb73cbe00	-1.1249911e-05
35	0xb7458a00	-1.1774246e-05
36	0x37e36800	2.7108938e-05
37	0x37c37000	2.3297966e-05
38	0xb709bc00	-8.2096085e-06
39	0xb77e2000	-1.514703e-05
40	0x38016200	3.0847266e-05
41	0xb7b87800	-2.1990389e-05
42	0xb7de6800	-2.6512891e-05
43	0x36ea2800	6.9784e-06
44	0x37e20000	2.69413e-05
45	0x378ac800	1.6544014e-05
46	0x350ec000	5.317852e-07
47	0x37cb2600	2.421718e-05
48	0x381fb200	3.807433e-05
49	0xb7aba000	-2.0459294e-05
50	0x3809d200	3.2858923e-05
51	0x37ebf400	2.8127804e-05
52	0xb88ce600	-6.718561e-05
53	0xb805ae00	-3.187172e-05
54	0x38066c00	3.2048672e-05
55	0x38929800	6.990135e-05
56	0xb7d33800	-2.5179237e-05
57	0xb79c0c00	-1.8602237e-05
58	0x37ed0c00	2.825819e-05
59	0xb7a5b800	-1.9755214e-05
60	0xb77f8800	-1.5230849e-05
61	0xb769c400	-1.3933517e-05
62	0xb7bcd800	-2.251193e-05
63	0x37867400	1.6028062e-05
64	0x37c78000	2.3782253e-05
65	0x378f0800	1.7050654e-05
66	0x373bf800	1.1203811e-05
67	0x368b8000	4.157424e-06
68	0xb6be8800	-5.6782737e-06
69	0xb7c07800	-2.2944063e-05
70	0xb6e79000	-6.9011003e-06
71	0x378fcc00	1.7141923e-05
72	0x35cb9a00	1.5169499e-06
73	0x36e15800	6.715767e-06
74	0x35aa0000	1.2665987e-06
75	0x376d1800	1.4131889e-05
76	0xb79eec00	-1.8944964e-05
77	0x36da3c00	6.503891e-06
78	0x3676c000	3.6768615e-06
79	0x35588000	8.0652535e-07
80	0x3859e800	5.19529e-05
81	0x383b9e00	4.4731423e-05
82	0x389c2400	7.445365e-05
83	0xb8367200	-4.3498352e-05
84	0xb8a1e400	-7.7195466e-05
85	0xb8857200	-6.363168e-05
86	0xb7e5d000	-2.7395785e-05
87	0xb7d59000	-2.5458634e-05
88	0x37198400	9.150244e-06
89	0x3888b200	6.5181404e-05
90	0x37b38c00	2.1403655e-05
91	0xb850a400	-4.97438e-05
92	0xb7209400	-9.571202e-06
93	0xb8073c00	-3.2242388e-05
94	0x37c6c800	2.3696572e-05
95	0xb8360000	-4.339218e-05
96	0x3858f800	5.172938e-05
97	0xb7b29000	-2.1286309e-05
98	0xb7cb3c00	-2.4227425e-05
99	0x3719b000	9.160489e-06
100	0xb84a3e00	-4.8218295e-05
101	0xb828ee00	-4.0275976e-05
102	0xb8911e00	-6.919727e-05
103	0x38209e00	3.829412e-05
104	0x38994000	7.3075294e-05
105	0x387a4800	5.96717e-05
106	0x37e32400	2.7077273e-05
107	0x37fd3600	3.0185096e-05
108	0xb7218c00	-9.628944e-06
109	0xb8708400	-5.7343394e-05
110	0xb7b41600	-2.1467917e-05
111	0x38383e00	4.392676e-05
112	0x37107800	8.6110085e-06
113	0x38015e00	3.084354e-05
114	0xb7c12000	-2.3022294e-05
115	0x382ada00	4.0734187e-05
116	0xb8409c00	-4.5921654e-05
117	0x37a74000	1.9937754e-05
118	0x37d43c00	2.5300309e-05
119	0xb7362600	-1.0856893e-05
120	0xb7c20800	-2.3130327e-05
121	0xb7844500	-1.5767757e-05
122	0xb7fb2400	-2.9938295e-05
123	0x37154000	8.895993e-06
124	0x3807bc00	3.2361597e-05
125	0x37e6bc00	2.7505681e-05
126	0x36ae3000	5.191192e-06
127	0x379e1000	1.8842518e-05
128	0x36bd6000	5.643815e-06
129	0xb7876000	-1.6137958e-05
130	0xb73d1000	-1.1269003e-05
131	0x376d2000	1.4133751e-05
132	0x37086000	8.128583e-06
133	0x37c98000	2.4020672e-05
134	0xb8023400	-3.1042844e-05
135	0x37985400	1.8158928e-05
136	0xb72ae000	-1.0184944e-05
137	0x36ecb400	7.054303e-06
138	0x37d28000	2.5093555e-05
139	0xb7007000	-7.655472e-06
140	0xb898fc00	-7.2948635e-05
141	0xb8838800	-6.271899e-05
142	0xb8daf400	-0.000104404986
143	0x387ed000	6.0752034e-05
144	0x38e3c000	0.00010859966
145	0x38ba4000	8.881092e-05
146	0x381fd800	3.810972e-05
147	0x381fbc00	3.8083643e-05
148	0xb7627800	-1.3498589e-05
149	0xb8bee000	-9.101629e-05
150	0xb7ef8c00	-2.8556213e-05
151	0x38912200	6.920472e-05
152	0x37604400	1.3367273e-05
153	0x38397400	4.421547e-05
154	0xb8035200	-3.1309202e-05
155	0x387df000	6.0543418e-05
156	0xb897c200	-7.2363764e-05
157	0x38000800	3.052503e-05
158	0x380fc600	3.427826e-05
159	0xb7661e00	-1.3716053e-05
160	0xb86d2400	-5.653873e-05
161	0xb8514000	-4.9889088e-05
162	0xb8abc400	-8.190423e-05
163	0x3855f800	5.1014125e-05
164	0x38b19c00	8.469075e-05
165	0x388f8400	6.843358e-05
166	0x38088600	3.2549724e-05
167	0x37c36200	2.3291446e-05
168	0xb7559800	-1.273118e-05
169	0xb89e3400	-7.543713e-05
170	0xb7c6a800	-2.368167e-05
171	0x386fbc00	5.715713e-05
172	0x371a0400	9.180047e-06
173	0x38078600	3.2311305e-05
174	0xb79bd200	-1.8575229e-05
175	0x384a1800	4.8182905e-05
176	0xb87e2400	-6.0591847e-05
177	0x37c4bc00	2.3452565e-05
178	0x37b84600	2.1967106e-05
179	0xb6e73000	-6.8899244e-06
180	0xb81ed800	-3.78713e-05
181	0xb802e000	-3.120303e-05
182	0xb8604000	-5.3465366e-05
183	0x37e03600	2.6728027e-05
184	0x38697000	5.5655837e-05
185	0x384b7800	4.851073e-05
186	0x3788c600	1.6304664e-05
187	0x37ed0800	2.8256327e-05
188	0xb6992800	-4.564412e-06
189	0xb82d3200	-4.129298e-05
190	0xb75f4c00	-1.3309531e-05
191	0x38049b00	3.1615607e-05
192	0x370acc00	8.272938e-06
193	0x37d75000	2.566725e-05
194	0xb7d42000	-2.528727e-05
195	0x37f6f000	2.9437244e-05
196	0xb8076800	-3.2283366e-05
197	0x37883200	1.6235746e-05
198	0x37bea800	2.2727996e-05
199	0xb762f000	-1.3526529e-05
200	0xb7a95c00	-2.018921e-05
201	0xb788f800	-1.6327947e-05
202	0xb7e75c00	-2.7580187e-05
203	0x37570600	1.2816396e-05
204	0x37ebf000	2.8125942e-05
205	0x37d3b800	2.5238842e-05
206	0x36bed800	5.687587e-06
207	0x37511000	1.2461096e-05
208	0x358ad000	1.0342337e-06
209	0xb7ad6700	-2.067117e-05
210	0xb6e0c000	-6.698072e-06
211	0x37885000	1.6249716e-05
212	0x36bd8c00	5.648937e-06
213	0x3784fc00	1.5852973e-05
214	0xb79c6800	-1.8645078e-05
215	0x377c1000	1.5024096e-05
216	0xb77e3a00	-1.5153084e-05
217	0x3702f800	7.806346e-06
218	0x376be000	1.4059246e-05
219	0xb6db9000	-6.5434724e-06
220	0xb72d7800	-1.0339543e-05
221	0xb725c000	-9.87947e-06
222	0xb7819400	-1.5446916e-05
223	0x3743f800	1.1680648e-05
224	0x37856800	1.5903264e-05
225	0x37443000	1.1693686e-05
226	0x36fef800	7.598661e-06
227	0x35b0c000	1.3168901e-06
228	0xb6887600	-4.066853e-06
229	0xb78bf800	-1.6685575e-05
230	0xb6926800	-4.3632463e-06
231	0x374f8c00	1.2370758e-05
232	0x35795000	9.2876144e-07
233	0x3685e800	3.9907172e-06
234	0x35e48000	1.7024577e-06
235	0x371e8c00	9.45013e-06
236	0xb767b000	-1.3809651e-05
237	0x36969a00	4.4882763e-06
238	0x35ace000	1.2880191e-06
239	0x35858000	9.946525e-07
240	0x36be1800	5.665235e-06
241	0x36e4a800	6.8144873e-06
242	0x37208800	9.568408e-06
243	0xb7213000	-9.607524e-06
244	0xb71b5000	-9.257346e-06
245	0xb6f11800	-7.1851537e-06
246	0xb6ccc800	-6.102957e-06
247	0x35898000	1.0244548e-06
248	0x36b32800	5.3392723e-06
249	0x375c2800	1.3122335e-05
250	0x35cb2000	1.5133992e-06
251	0xb71a2000	-9.186566e-06
252	0x353d3000	7.0477836e-07
253	0x357fc000	9.52743e-07
254	0xb6e63000	-6.860122e-06
255	0xb6afa000	-5.234033e-06

old_dirs f4 [522]
0	0x37024c00	7.766299e-06
1	0x36de6000	6.6272914e-06
2	0xb744fc00	-1.1741184e-05
3	0xb73df000	-1.1321157e-05
4	0xb78b7800	-1.662597e-05
5	0xb798b200	-1.82027e-05
6	0x35e94000	1.7378479e-06
7	0x35aa0000	1.2665987e-06
8	0x373a5000	1.110509e-05
9	0x37538a00	1.2608711e-05
10	0xb69b2000	-4.6230853e-06
11	0x383d2800	4.5098364e-05
12	0x366f8000	3.568828e-06
13	0xb68e8000	-4.246831e-06
14	0x34ed0000	4.414469e-07
15	0x38471000	4.74602e-05
16	0x37bb0000	2.2292137e-05
17	0x37cf4c00	2.4711713e-05
18	0xb7048a00	-7.899944e-06
19	0xb7259000	-9.868294e-06
20	0x3685a000	3.9823353e-06
21	0x37f9ac00	2.9763207e-05
22	0x378ca600	1.67666e-05
23	0x379f1400	1.896359e-05
24	0xb81f3e00	-3.7966296e-05
25	0xb819e200	-3.668852e-05
26	0xb5670000	-8.6054206e-07
27	0xb7404000	-1.1458993e-05
28	0xb79e8000	-1.8894672e-05
29	0xb7db7800	-2.6162714e-05
30	0x380f2800	3.413111e-05
31	0x382d0800	4.1253865e-05
32	0xb742ba00	-1.1606608e-05
33	0xb7946000	-1.7687678e-05
34	0xb75a0000	-1.2993813e-05
35	0xb7648a00	-1.362199e-05
36	0x381bb500	3.712345e-05
37	0x38034c00	3.1303614e-05
38	0xb719b400	-9.16142e-06
39	0xb79ff000	-1.9066036e-05
40	0x3811ec00	3.4790486e-05
41	0xb7cdf400	-2.4551526e-05
42	0xb7ef4800	-2.8524548e-05
43	0x3712b400	8.744188e-06
44	0x37fc7000	3.0092895e-05
45	0x37816900	1.5426893e-05
46	0x360ae000	2.0693988e-06
47	0x381148c0	3.4638448e-05
48	0x38319e00	4.2347237e-05
49	0xb7c46400	-2.3411587e-05
50	0x380af400	3.3129007e-05
51	0x3800e000	3.0726194e-05
52	0xb89d5a00	-7.503107e-05
53	0xb8167c00	-3.587827e-05
54	0x37f8a800	2.9642135e-05
55	0x38a3c800	7.8096986e-05
56	0xb7eba800	-2.8092414e-05
57	0xb7aa5600	-2.0305626e-05
58	0x38141500	3.5305507e-05
59	0xb7c2f800	-2.3242086e-05
60	0xb78ba400	-1.664646e-05
61	0xb7823e00	-1.5526079e-05
62	0xb7d08000	-2.4855137e-05
63	0x379d4c00	1.8751249e-05
64	0x37ddc000	2.643466e-05
65	0x37975000	1.8037856e-05
66	0x3760e000	1.34035945e-05
67	0x3667c000	3.453344e-06
68	0xb6f34800	-7.2503462e-06
69	0xb7de1c00	-2.64775e-05
70	0xb7025800	-7.769093e-06
71	0x37a51800	1.9680709e-05
72	0x359e1c00	1.1780066e-06
73	0x36d47800	6.332062e-06
74	0x368c7000	4.1853637e-06
75	0x37868c00	1.6039237e-05
76	0xb7b8cc00	-2.2029504e-05
77	0x36f15800	7.1926042e-06
78	0x3641c000	2.8871e-06
79	0x36094000	2.0451844e-06
80	0x386f7c00	5.7097524e-05
81	0x384fee00	4.95743e-05
82	0x38abde00	8.195266e-05
83	0xb84bd400	-4.8596412e-05
84	0xb8b17800	-8.4623694e-05
85	0xb8927e00	-6.985292e-05
86	0xb7fa1800	-2.9813498e-05
87	0xb7db9000	-2.617389e-05
88	0x37275000	9.972602e-06
89	0x38986200	7.266179e-05
90	0x37c37000	2.3297966e-05
91	0xb8685800	-5.5395067e-05
92	0xb7308400	-1.0521151e-05
93	0xb813b800	-3.5218894e-05
94	0x37daa000	2.6062131e-05
95	0xb8478c00	-4.7575682e-05
96	0x38713400	5.7507306e-05
97	0xb7c49000	-2.3432076e-05
98	0xb7d48000	-2.5331974e-05
99	0x37252000	9.842217e-06
100	0xb863f200	-5.4346398e-05
101	0xb83e1400	-4.5318156e-05
102	0xb8a41e00	-7.825717e-05
103	0x3834fe00	4.31519e-05
104	0x38adae00	8.281693e-05
105	0x388e0e00	6.773695e-05
106	0x3802b200	3.116019e-05
107	0x3814f900	3.551785e-05
108	0xb7427e00	-1.1592638e-05
109	0xb8871600	-6.4413995e-05
110	0xb7ce4800	-2.4590641e-05
111	0x384ec600	4.929863e-05
112	0x371ecc00	9.465031e-06
113	0x38117600	3.468059e-05
114	0xb7db1000	-2.6114285e-05
115	0x3840c000	4.595518e-05
116	0xb858dc00	-5.1703304e-05
117	0x37be6600	2.2697262e-05
118	0x37ed3400	2.8276816e-05
119	0xb7600800	-1.3353303e-05
120	0xb7e75000	-2.7574599e-05
121	0xb7965500	-1.7920975e-05
122	0xb812d200	-3.500469e-05
123	0x37099c00	8.202158e-06
124	0x381f7800	3.8020313e-05
125	0x38097c00	3.277883e-05
126	0x36926000	4.362315e-06
127	0x37c73000	2.3745e-05
128	0x3717b800	9.043142e-06
129	0xb788da00	-1.6313978e-05
130	0xb768d000	-1.3876706e-05
131	0x377c7800	1.504831e-05
132	0x37329000	1.0643154e-05
133	0x38024400	3.1057745e-05
134	0xb8315800	-4.2282045e-05
135	0x37b1a400	2.1176413e-05
136	0xb71a2000	-9.186566e-06
137	0x37043200	7.879455e-06
138	0x38093c00	3.2719225e-05
139	0xb72b1c00	-1.01989135e-05
140	0xb8a9ae00	-8.090958e-05
141	0xb892d800	-7.002056e-05
142	0xb8f32800	-0.000115945935
143	0x388f6400	6.837398e-05
144	0x38fc7c00	0.00012039393
145	0x38ce0400	9.8235905e-05
146	0x38309c00	4.2106956e-05
147	0x382b2c00	4.0810555e-05
148	0xb7800400	-1.5260652e-05
149	0xb8d63c00	-0.00010215491
150	0xb802b800	-3.116578e-05
151	0x38a29600	7.752702e-05
152	0x37769000	1.469627e-05
153	0x384ad800	4.836172e-05
154	0xb80e2300	-3.3888035e-05
155	0x388ca800	6.707013e-05
156	0xb8aa1200	-8.1095845e-05
157	0x380eec00	3.407523e-05
158	0x3818fe00	3.647618e-05
159	0xb77e3e00	-1.5154015e-05
160	0xb880fa00	-6.150082e-05
161	0xb866f000	-5.505979e-05
162	0xb8bbc600	-8.953735e-05
163	0x38715000	5.7533383e-05
164	0x38c17200	9.224191e-05
165	0x389b7600	7.412955e-05
166	0x3817be00	3.6178157e-05
167	0x37bb4a00	2.2326596e-05
168	0xb7785c00	-1.4803372e-05
169	0xb8b16200	-8.4582716e-05
170	0xb7d7f800	-2.5745481e-05
171	0x38860200	6.3899904e-05
172	0x371fb400	9.519048e-06
173	0x380e6600	3.3950433e-05
174	0xb7951800	-1.777336e-05
175	0x385d1400	5.2709132e-05
176	0xb88e9600	-6.799027e-05
177	0x37d73000	2.5652349e-05
178	0x37b1e200	2.1205284e-05
179	0xb6d54c00	-6.3567422e-06
180	0xb8349800	-4.3056905e-05
181	0xb813fe00	-3.5284087e-05
182	0xb87e5800	-6.0640275e-05
183	0x37f60400	2.9327348e-05
184	0x38842200	6.3005835e-05
185	0x386a0c00	5.5801123e-05
186	0x37916200	1.7330982e-05
187	0x380e5800	3.3937395e-05
188	0xb6981800	-4.532747e-06
189	0xb83f6200	-4.562922e-05
190	0xb772b800	-1.4467165e-05
191	0x38129500	3.494788e-05
192	0x37244400	9.790994e-06
193	0x37fa1800	2.9813498e-05
194	0xb8036400	-3.1325966e-05
195	0x38095400	3.2741576e-05
196	0xb8149200	-3.5421923e-05
197	0x379caa00	1.8675812e-05
198	0x37de9c00	2.6537105e-05
199	0xb7919000	-1.7352402e-05
200	0xb7bc5000	-2.24486e-05
201	0xb7976400	-1.8047169e-05
202	0xb7fe0c00	-3.0284747e-05
203	0x375ef500	1.3289275e-05
204	0x37ffc000	3.0487776e-05
205	0x37ec7000	2.8185546e-05
206	0x36945800	4.4209883e-06
207	0x3761f000	1.3466924e-05
208	0x36386000	2.7474016e-06
209	0xb7b88980	-2.1998538e-05
210	0xb6e35000	-6.7744404e-06
211	0x37924300	1.7435756e-05
212	0x36e97400	6.9574453e-06
213	0x379c6000	1.8641353e-05
214	0xb7c81000	-2.3849308e-05
215	0x3785c000	1.5944242e-05
216	0xb782bd80	-1.558545e-05
217	0x370f6000	8.545816e-06
218	0x3788e800	1.6320497e-05
219	0xb7074000	-8.061528e-06
220	0xb7351800	-1.0794029e-05
221	0xb7342400	-1.0737218e-05
222	0xb789a800	-1.6409904e-05
223	0x37630800	1.3532117e-05
224	0x378d6800	1.6856939e-05
225	0x3746b000	1.1842698e-05
226	0x37154000	8.895993e-06
227	0xb4100000	-1.3411045e-07
228	0xb6ae5c00	-5.1963143e-06
229	0xb79fac00	-1.903437e-05
230	0xb69b9000	-4.636124e-06
231	0x376af000	1.4003366e-05
232	0x350e6000	5.303882e-07
233	0x3652a000	3.138557e-06
234	0x36921800	4.353933e-06
235	0x372c5000	1.0270625e-05
236	0xb7857800	-1.5910715e-05
237	0x36a08e00	4.7849026e-06
238	0xb40f0000	-1.3317913e-07
239	0x360f7000	2.1373853e-06
240	0x36b56800	5.4063275e-06
241	0x36f95000	7.4300915e-06
242	0x37250000	9.834766e-06
243	0xb741e800	-1.1557713e-05
244	0xb71b4000	-9.253621e-06
245	0xb6e9c800	-6.967224e-06
246	0xb6f73800	-7.367693e-06
247	0x3633e000	2.6803464e-06
248	0x36f21800	7.214956e-06
249	0x37819800	1.5448779e-05
250	0x358c4000	1.0449439e-06
251	0xb731b800	-1.0592863e-05
252	0x35ceb800	1.5401747e-06
253	0x3650e000	3.11248e-06
254	0xb739f000	-1.1082739e-05
255	0xb6b13000	-5.280599e-06
