lightning_logs/version_19/checkpoints/epoch=4-step=5.ckpt (torch, 15834 bytes, 15 tensors)

_neural_net._model.model.0.weight f4 [20, 3]
0.28289667 0.08563251 0.21539035 -0.45881966 -0.3910772 0.07303507 -0.3717634 -0.010021367
-0.45172027 0.54691774 0.53311425 0.024182081 0.19064741 -0.07770906 0.48542976 0.4027051
0.2810376 -0.0038251588 -0.17924455 0.56975144 -0.25068668 0.39344049 0.47293967 0.053495247
-0.21817838 0.3920138 -0.3437503 0.57407755 0.40343362 -0.52450454 -0.41276565 -0.42156297
-0.56471425 -0.22464313 -0.3265986 -0.32631028 -0.39500323 0.24822499 0.07647467 -0.4330408
-0.24884544 -0.47502974 0.0038012748 0.063071884 -0.51096433 0.50636905 -0.2718849 -0.030315328
-0.33299634 0.27054557 0.1871948 -0.051503733 -0.24549365 -0.068086185 -0.44263095 -0.48414868
-0.019987559 0.5388938 -0.261652 0.09997815
00000000: d5d7 903e 1960 af3d 4a8f 5c3e 69ea eabe
00000010: 453b c8be 6993 953d c657 bebe a930 24bc
00000020: e147 e7be cd02 0c3f 2d7a 083f 8019 c63c
00000030: 1339 433e ed25 9fbd 408a f83e 5d2f ce3e
00000040: 29e4 8f3e 84af 7abb e28b 37be 3bdb 113f
00000050: 015a 80be 0871 c93e 2625 f23e d51d 5b3d
00000060: 276a 5fbe 08b6 c83e 0a00 b0be bff6 123f
00000070: da8e ce3e ee45 06bf 0556 d3be 1ad7 d7be
00000080: 1d91 10bf d908 66be ef37 a7be 2412 a7be
00000090: dd3d cabe b12e 7e3e c09e 9c3d 86b7 ddbe
000000a0: 57d1 7ebe 1937 f3be cf1e 793b d52b 813d
000000b0: 8fce 02bf 67a1 013f 7f34 8bbe da57 f8bc
000000c0: 7f7e aabe f384 8a3e feaf 3f3e 94f5 52bd
000000d0: b062 7bbe c570 8bbd 86a0 e2be 56e2 f7be
000000e0: f3bc a3bc f2f4 093f 40f7 85be 58c1 cc3d

_neural_net._model.model.0.bias f4 [20]
0.3281553 -0.08314159 0.06144201 0.28956485 -0.33741176 0.19744238 -0.56778425 0.3856302
0.095542975 -0.10647498 0.28756964 0.20505035 0.24910226 0.3256402 0.13137819 -0.17909539
0.5354603 -0.4292813 0.06774579 0.5395852
00000000: f903 a83e 2346 aabd 9eaa 7b3d d841 943e
00000010: 3cc1 acbe 562e 4a3e 4f5a 11bf 5271 c53e
00000020: 09ac c33d 8e0f dabd 543c 933e b8f8 513e
00000030: aa14 7f3e 50ba a63e 0188 063e c864 37be
00000040: ed13 093f c2ca dbbe 4ebe 8a3d 4122 0a3f

_neural_net._model.model.2.weight f4 [20, 20]
-0.02364445 -0.20515433 0.0120350905 0.19294031 -0.1970692 -0.19898786 -0.044122986 0.06448931
-0.06466568 -0.15418562 0.15125501 -0.1994303 0.048327092 -0.12241198 -0.20871705 -0.06767831
0.08406764 0.2050378 -0.13143627 0.19421534 -0.18172611 -0.13056295 -0.082638234 -0.075979315
0.14642449 0.18468963 -0.08714663 0.13298298 0.17316371 0.047341067 0.07490211 -0.13215815
-0.08597937 -0.1280502 -0.21823399 0.09387113 -0.20476659 -0.098400295 0.13705605 0.19545189
0.18886665 0.084925786 -0.15093245 -0.20879784 -0.03409132 -0.019260768 -0.14839034 0.12933694
0.16716282 0.113844804 -0.16261962 -0.1736301 0.05532437 0.19216716 -0.09036086 0.07136177
-0.049099036 -0.056107726 0.0016945443 -0.11162822 0.17284724 -0.19542848 0.17615125 0.21730936
-0.12128131 0.1573083 -0.13483839 0.21486947 -0.06592496 0.11908394 -0.17641264 0.13295533
-0.08017738 0.12948099 -0.033908684 -0.011452807 -0.11415661 -0.22602077 0.17302202 -0.19996168
-0.15309569 -0.026953798 0.10812795 0.1715217 -0.16072598 -0.07348271 -0.1429826 -0.10059394
-0.072627306 0.032439493 -0.120355345 -0.05369356 -0.21920207 -0.020755686 0.09471824 -0.20636424
-0.21747637 0.13733244 -0.19005215 -0.13064145 0.049626354 -0.10739964 -0.06359814 0.05286152
0.1614259 -0.068410225 0.0718196 0.16986854 -0.2165126 0.18535872 0.035134554 0.1851526
-0.21556543 -0.0814143 -0.03655552 -0.067635395 -0.022665653 0.18386777 -0.19639812 -0.19432008
-0.084569454 0.18763916 0.061436914 0.13372935 -0.09101297 -0.123072565 -0.22408178 -0.11876678
0.044252746 0.13924722 0.09657091 0.098558806 0.117595054 -0.014563475 0.04976093 0.17887238
-0.113651395 -0.15118235 0.13841201 0.16424876 0.12925263 -0.12600774 0.09814659 0.0852347
-0.017366277 0.068523236 -0.039599594 -0.027876234 -0.1353836 0.15580732 0.14251035 -0.15134503
0.12062474 -0.007292997 -0.15453427 -0.021968257 -0.13528648 -0.19998443 0.08664412 -0.16812037
-0.04259595 0.22774683 -0.16595379 0.17440538 -0.12002359 -0.102170974 0.10539198 -0.122095644
-0.12447622 -0.015324542 -0.19594392 -0.13662475 -0.12965432 0.11159659 -0.0972702 0.18023807
0.12545985 0.057254605 -0.16260017 -0.20412393 0.11764541 -0.06517206 -0.015912034 -0.03967082
-0.040307187 -0.033627015 -0.09756646 0.028354004 0.16028999 0.054962095 0.11787669 -0.1927344
-0.20469306 0.14133257 -0.1529492 -0.01526834 0.1272838 0.13356121 0.041846745 -0.07401356
-0.14413774 0.1518053 -0.19574934 0.21125583 0.097011715 -0.1688099 -0.116121724 0.107294805
-0.053764004 0.16470058 -0.16961712 -0.1175642 0.18376307 -0.19953735 -0.022450097 0.20559265
0.19778216 -0.16517942 0.17882614 -0.20088361 0.1490798 0.1429201 -0.14241716 -0.19888853
-0.19269313 0.17769426 -0.15074892 0.017469151 -0.14042982 0.06873679 0.10262648 -0.09056963
-0.116006695 0.058966797 -0.19852404 0.11404094 -0.09721147 0.12553224 -0.11927305 0.09441284
-0.043328736 -0.13779864 0.03344689 0.055459525 0.060906384 -0.124020085 0.21336202 -0.095094524
0.010575912 0.15750352 0.04357851 0.20554423 -0.09395249 -0.071434766 0.112686604 -0.1997054
00000000: 01b2 c1bc fa13 52be d42e 453c 2592 453e
00000010: 82cc 49be 79c3 4bbe 4eba 34bd f912 843d
00000020: 716f 84bd d6e2 1dbe 98e2 1a3e 7537 4cbe
00000030: a1f2 453d 22b3 fabd ecb9 55be ed9a 8abd
00000040: a82b ac3d 6ef5 513e 3b97 06be 63e0 463e
00000050: 6916 3abe 4bb2 05be 3c3e a9bd 0b9b 9bbd
00000060: 4df0 153e 471f 3d3e ef79 b2bd b12c 083e
00000070: d451 313e b5e8 413d 4766 993d 7754 07be
00000080: f415 b0bd 971f 03be bb78 5fbe 823f c03d
00000090: 55ae 51be 1886 c9bd 6c58 0c3e 8a24 483e
000000a0: 4266 413e 92ed ad3d 098e 1abe 1acf 55be
000000b0: 57a3 0bbd c2c8 9dbc a3f3 17be e770 043e
000000c0: bb2c 2b3e 7727 e93d c285 26be 17cc 31be
000000d0: ce9b 623d 78c7 443e 1d0f b9bd 1f26 923d
000000e0: 121c 49bd 37d1 65bd 791b de3a 569d e4bd
000000f0: defe 303e 671e 48be fe60 343e 5886 5e3e
00000100: 5662 f8bd 6d15 213e 1313 0abe be06 5c3e
00000110: aa03 87bd 48e2 f33d 84a5 34be 7125 083e
00000120: 0a34 a4bd aa96 043e d5e3 0abd 8ea4 3bbc
00000130: f1ca e9bd fd71 67be af2c 313e c1c2 4cbe
00000140: 1ec5 1cbe 36ce dcbc 3072 dd3d 62a3 2f3e
00000150: 5a95 24be 1a7e 96bd 086a 12be 3204 cebd
00000160: a0bd 94bd 46df 043d dd7c f6bd c7ed 5bbd
00000170: 8276 60be d407 aabc a3fb c13d 2651 53be
00000180: 20b2 5ebe e0a0 0c3e 089d 42be dfc6 05be
00000190: 0145 4b3d 58f4 dbbd be3f 82bd 5285 583d
000001a0: d54c 253e a91a 8cbd 2816 933d 05f2 2d3e
000001b0: 7bb5 5dbe adce 3d3e 40e9 0f3d a598 3d3e
000001c0: 2fbd 5cbe 8abc a6bd 3ebb 15bd 6d84 8abd
000001d0: 52ad b9bc d547 3c3e 971c 49be d8fb 46be
000001e0: c032 adbd 7b24 403e 46a5 7b3d 59f0 083e
000001f0: 0265 babd 780d fcbd b275 65be ff3b f3bd
00000200: 5e42 353d d396 0e3e f8c6 c53d 33d9 c93d
00000210: add5 f03d a49b 6ebc 1ed2 4b3d 522a 373e
00000220: 10c2 e8bd 8ccf 1abe e1bb 0d3e d430 283e
00000230: cd5a 043e 2c08 01be 1401 c93d 888f ae3d
00000240: b943 8ebc e955 8c3d 2f33 22bd b35c e4bc
00000250: 00a2 0abe f48b 1f3e 3cee 113e 31fa 1abe
00000260: 1b0a f73d 18fa eebb 3b3e 1ebe c6f6 b3bc
00000270: 8a88 0abe b8c8 4cbe 7972 b13d bf27 2cbe
00000280: 1779 2ebd 7736 693e caef 29be 5397 323e
00000290: eece f5bd 043f d1bd c0d7 d73d 480d fabd
000002a0: 63ed febd ca13 7bbc 86a5 48be 5ce7 0bbe
000002b0: 1ac4 04be c18c e43d 9935 c7bd 5490 383e
000002c0: 8c78 003e ce83 6a3d a980 26be dd05 51be
000002d0: 14f0 f03d ee78 85bd f459 82bc df7d 22bd
000002e0: 2619 25bd 7bbc 09bd edd0 c7bd a846 e83c
000002f0: 0f23 243e ef1f 613d 5669 f13d 2b5c 45be
00000300: 0f9b 51be 7cb9 103e b79e 1cbe 0f28 7abc
00000310: af56 023e 45c4 083e 7e67 2b3d 6c94 97bd
00000320: d898 13be d972 1b3e 8472 48be 7353 583e
00000330: 14ae c63d 81dc 2cbe 3ad1 edbd 61bd db3d
00000340: a537 5cbd 45a7 283e 1cb0 2dbe 80c5 f0bd
00000350: 632c 3c3e 8553 4cbe 44e9 b7bc e186 523e
00000360: 6887 4a3e cb24 29be 331e 373e 6fb4 4dbe
00000370: 60a8 183e a659 123e ced5 11be 6fa9 4bbe
00000380: 5951 45be 7cf5 353e ed5d 1abe 771b 8f3c
00000390: d6cc 0fbe e0c5 8c3d d52d d23d 927c b9bd
000003a0: eb94 edbd 2b87 713d e349 4bbe 4c8e e93d
000003b0: cf16 c7bd 868b 003e 6e45 f4bd 855b c13d
000003c0: 7979 31bd 161b 0dbe 9bff 083d 8729 633d
000003d0: f978 793d 3efe fdbd 937b 5a3e ebc0 c2bd
000003e0: 9746 2d3c 9a48 213e 617f 323d 307a 523e
000003f0: 2a6a c0bd 644c 92bd 3cc8 e63d 937f 4cbe

_neural_net._model.model.2.bias f4 [20]
-0.13704072 -0.03091353 0.13541442 -0.08690182 -0.016854364 0.105566956 -0.09131096 0.063880764
0.028450003 0.044780675 -0.14222305 0.15940802 -0.055374227 0.16623445 -0.106467195 0.09169453
0.04466258 0.13276796 0.12747024 0.11970493
00000000: 6754 0cbe 5f3e fdbc 14aa 0a3e 95f9 b1bd
00000010: 2a12 8abc 7d33 d83d 3e01 bbbd ebd3 823d
00000020: fb0f e93c f16b 373d eba2 11be db3b 233e
00000030: 16d0 62bd 5d39 2a3e 790b dabd 57ca bb3d
00000040: 1cf0 363d 53f4 073e 8f87 023e dc27 f53d

_neural_net._model.model.4.weight f4 [1, 20]
0.039194316 -0.16917622 -0.09183299 -0.0071322457 0.21270108 -0.08402031 -0.093502 0.15047064
0.073182546 -0.13443968 -0.007567792 0.21069534 0.07422683 -0.11594831 -0.036785793 0.13510413
0.101750284 -0.016762005 0.1503391 0.03994744
00000000: 388a 203d 883c 2dbe ef12 bcbd 9db5 e9bb
00000010: 50ce 593e d712 acbd fa7d bfbd fa14 1a3e
00000020: bbe0 953d 8eaa 09be 3efb f7bb 85c0 573e
00000030: 3c04 983d 4f76 edbd b3ac 16bd bd58 0a3e
00000040: 7462 d03d 7950 89bc 7ef2 193e ed9f 233d

exp_avg f4 [20, 3]
0.0011430285 -0.0006196621 0.0020905286 0.010171972 0.008364 0.015971117 -0.0042057605 -0.0046236403
-0.022545353 0.010963318 0.015731135 0.071843475 -0.036197 -0.06381098 -0.36441883 0.0058693737
0.004465609 0.018086335 0.0009491098 0.0034821285 0.0965896 -0.0072771027 -0.012973641 -0.07815366
-0.02084216 -0.037857357 -0.2112584 -0.0138131855 -0.016504435 -0.07805529 0.005112164 -0.0015432131
-0.07274931 -0.004900844 -0.009747557 -0.06460002 0.0051988293 0.005227329 -0.019667843 0.002560338
0.004736288 0.03559957 -0.0069507407 -0.009452976 -0.08221387 -0.0037960892 -0.011585256 -0.09107452
-0.00017931873 0.0028432186 0.013453182 0.0031654774 0.013383539 0.13279693 -0.016859997 -0.024707057
-0.12500401 -0.005369991 -0.003924917 -0.042153675
00000000: acd1 953a d270 22ba 4001 093b 58a8 263c
00000010: 2909 093c dcd5 823c 7ad0 89bb e881 97bb
00000020: 08b1 b8bc 7d9f 333c 95de 803c ac22 933d
00000030: 4e43 14bd 55af 82bd 1b95 babe e053 c03b
00000040: 3e54 923b cb29 943c aecd 783a 6c34 643b
00000050: c5d0 c53d c374 eebb 658f 54bc 070f a0bd
00000060: 2dbd aabc 5110 1bbd 1f54 58be b350 62bc
00000070: 4f34 87bc 74db 9fbd f183 a73b a445 caba
00000080: 97fd 94bd 4297 a0bb 38b4 1fbc 044d 84bd
00000090: f15a aa3b 044a ab3b 751e a1bc 58cb 273b
000000a0: dd32 9b3b dbd0 113d 0ac3 e3bb a8e0 1abc
000000b0: bf5f a8bd cfc7 78bb 16d0 3dbc 4785 babd
000000c0: 8107 3cb9 4b55 3a3b bc6a 5c3c e673 4f3b
000000d0: a246 5b3c ebfb 073e fa1d 8abc 7466 cabc
000000e0: 0d01 00be c0f6 afbb 979c 80bb 55a9 2cbd

exp_avg_sq f4 [20, 3]
3.9656616e-08 2.4086543e-08 1.1443725e-06 3.4656491e-06 2.262311e-06 7.604044e-06 5.353589e-07 6.9556165e-07
2.6488535e-05 4.3302125e-06 8.622554e-06 0.00019251464 4.370177e-05 0.00013161878 0.0045830645 1.1968451e-06
6.9576214e-07 1.5007538e-05 3.610115e-08 4.1872752e-07 0.0003171836 1.7244508e-06 5.26437e-06 0.0002061277
1.4521225e-05 4.8287548e-05 0.0016228622 7.290331e-06 9.756322e-06 0.00023116615 1.0470792e-06 1.1135709e-07
0.0002077425 7.303974e-07 3.0742306e-06 0.00016690763 9.793266e-07 1.3481708e-06 1.1460328e-05 2.0237314e-07
6.553063e-07 3.8933526e-05 1.5671359e-06 2.8064162e-06 0.0002637225 4.6504502e-07 4.439891e-06 0.00030377376
1.8579819e-08 3.039434e-07 9.47977e-06 2.9357005e-07 5.325203e-06 0.00060588284 9.8172895e-06 2.056179e-05
0.00057311216 9.405024e-07 4.4953885e-07 5.951181e-05
00000000: e952 2a33 dee6 ce32 5798 9935 6693 6836
00000010: 35d2 1736 3e26 ff36 95b5 0f35 a2b6 3a35
00000020: b233 de37 3e4c 9136 96a9 1037 c1dd 4939
00000030: 6b4c 3738 2603 0a39 882d 963b 49a3 a035
00000040: 69c4 3a35 e3c8 7b37 a20d 1b33 79cd e034
00000050: aa4b a639 ae73 e735 98a4 b036 fc23 5839
00000060: 30a0 7337 5c88 4a38 38b6 d43a 779f f436
00000070: 15af 2337 3165 7239 5e89 8c35 3523 ef33
00000080: 74d5 5939 8710 4435 e14e 4e36 ed03 2f39
00000090: 6871 8335 ccf2 b435 bc45 4037 e84b 5934
000000a0: 4ee8 2f35 8e4c 2338 6156 d235 dd55 3c36
000000b0: 3c44 8a39 4dab f934 60fa 9436 d343 9f39
000000c0: 7499 9f32 aa2d a334 4d0b 1f37 f69b 9d34
000000d0: 25af b236 1cd4 1e3a f0b4 2437 1c7c ac37
000000e0: e83c 163a d576 7c35 2658 f134 529c 7938

exp_avg f4 [20]
0.0017062819 0.021371474 -0.008240609 0.015522016 -0.106609136 0.010326075 0.004348035 -0.008396904
-0.06206166 -0.023404762 0.0016315453 -0.013931053 0.008317695 0.008118216 -0.01511392 -0.017767392
-0.0008520119 0.011093396 -0.03411789 -0.009700835
00000000: 52a5 df3a 3b13 af3c 9f03 07bc 0e50 7e3c
00000010: e455 dabd b32e 293c f679 8e3b 2b93 09bc
00000020: 5e34 7ebd 58bb bfbc 93d9 d53a 123f 64bc
00000030: f146 083c 4402 053c 60a0 77bc ec8c 91bc
00000040: 8d59 5fba 13c1 353c 33bf 0bbd 40f0 1ebc

exp_avg_sq f4 [20]
1.0822409e-07 1.552136e-05 2.0533316e-06 7.899256e-06 0.0003696351 3.4769103e-06 7.487621e-07 2.0774253e-06
0.00012821236 1.9599138e-05 4.2462673e-07 5.9483973e-06 2.9953578e-06 1.9490315e-06 7.0213255e-06 1.0385444e-05
5.6397166e-08 3.6180631e-06 3.796606e-05 2.910366e-06
00000000: d368 e833 de33 8237 f8cb 0936 0c87 0437
00000010: 95cb c139 dd54 6936 8afe 4835 e569 0b36
00000020: be70 0639 d468 a437 41f8 e334 5898 c736
00000030: db03 4936 1bcc 0236 ba98 eb36 243d 2e37
00000040: 5739 7233 dacd 7236 bf3d 1f38 b54f 4336

exp_avg f4 [20, 20]
0.029726394 -0.004043177 -0.053689726 0.020061277 0.052344747 0.011689758 -0.031429503 0.020290747
-0.036707196 -0.054238502 -0.06707681 -0.042115968 0.015354123 -0.05634039 -0.060431335 -0.008670456
0.029977605 -0.017726531 -0.013191268 0.019987188 -0.13132687 0.026459469 0.22034872 -0.096255824
-0.20534658 -0.05844385 0.13621391 -0.09723003 0.14510638 0.21203364 0.27343428 0.17161182
-0.06591171 0.22774377 0.2408522 0.036181618 -0.1317243 0.08369542 0.061293073 -0.09465272
-0.06599316 0.012571607 0.11311536 -0.04756255 -0.10676594 -0.02871457 0.068252444 -0.04796148
0.07505552 0.10948184 0.14094989 0.08853587 -0.033160545 0.11773877 0.124394596 0.01820432
-0.0660169 0.041288957 0.03092188 -0.046636056 -0.008598842 0.0027233642 0.012943677 -0.007114389
-0.011030381 -0.0045881257 0.008432689 -0.00710702 0.007856966 0.010877605 0.01600509 0.010042224
-0.00397404 0.013138462 0.013244406 0.002006589 -0.008383598 0.0059230607 0.0045461487 -0.0067633996
0.15737693 -0.026802517 -0.27145016 0.11129985 0.25823534 0.06632111 -0.16540116 0.11277177
-0.18210724 -0.26896638 -0.33718845 -0.2117913 0.08095464 -0.2818185 -0.30146036 -0.045457575
0.15947299 -0.09812665 -0.07086444 0.11056717 -0.06831037 0.015744835 0.11094086 -0.051750816
-0.10121854 -0.03194676 0.07016204 -0.052239817 0.07175404 0.10404941 0.13728651 0.08617776
-0.033827696 0.11393889 0.11956478 0.018287167 -0.06837891 0.044713594 0.032627743 -0.05065889
-0.07076197 0.011264856 0.12451738 -0.04922105 -0.11960512 -0.029126283 0.07406743 -0.049781166
0.08398086 0.12388272 0.15539418 0.097554795 -0.036379904 0.13006744 0.13885926 0.020439776
-0.07144911 0.04329384 0.031981234 -0.048724927 0.122750446 -0.027396424 -0.2025176 0.0920686
0.1864214 0.05660169 -0.12550923 0.0927743 -0.13151065 -0.19070594 -0.25162622 -0.15801196
0.06095497 -0.2091285 -0.21921536 -0.033101767 0.12268446 -0.0793512 -0.05896452 0.08960716
0.06586186 -0.015503486 -0.104792826 0.050451025 0.09452009 0.031195492 -0.06789895 0.05107198
-0.067342214 -0.098463655 -0.12913993 -0.081031494 0.033045802 -0.10678003 -0.11264894 -0.018135652
0.066617884 -0.04388624 -0.031027474 0.04956705 -0.11492167 0.025001178 0.18878242 -0.08589381
-0.17369337 -0.052652545 0.11867355 -0.0867728 0.123085715 0.1793858 0.23368947 0.146701
-0.057476003 0.19416496 0.20483892 0.03141925 -0.115493126 0.07455687 0.05410058 -0.084380776
-0.0034265248 0.0006083875 0.005810843 -0.0024528697 -0.0055101775 -0.0014579439 0.0035873007 -0.0025023017
0.0038662562 0.005802103 0.0072225435 0.004539907 -0.0018093084 0.00602392 0.0064572915 0.0010312704
-0.0035172913 0.0021873019 0.0015311677 -0.002422283 0.16331168 -0.03261801 -0.27532303 0.11869373
0.25649765 0.07245224 -0.17254442 0.119523264 -0.18376224 -0.26251337 -0.3387754 -0.21206832
0.07783872 -0.2834627 -0.29933187 -0.04027334 0.15986665 -0.10227202 -0.07532501 0.11992731
0.05139561 -0.0074748835 -0.09155311 0.035150785 0.08869609 0.020605914 -0.05436703 0.035595924
-0.062315434 -0.092131585 -0.11409382 -0.0716689 0.026565235 -0.0957393 -0.10273172 -0.01497969
00000000: c484 f33c a07c 84bb c2e9 5bbd 8c57 a43c
00000010: 7267 563d 6686 3f3c 39bc 00bd c838 a63c
00000020: 495a 16bd 3129 5ebd 915f 89bd cb81 2cbd
00000030: dc8f 7b3c 2ec5 66bd d986 77bd 870e 0ebc
00000040: 9893 f53c 3b37 91bc 3020 58bc 2cbc a33c
00000050: 8d7a 06be 87c1 d83c 18a3 613e c621 c5bd
00000060: 6046 52be d262 6fbd a97b 0b3e 8a20 c7bd
00000070: c496 143e 591f 593e 94ff 8b3e 02bb 2f3e
00000080: b8fc 86bd aa35 693e f6a1 763e 2d33 143d
00000090: bce2 06be 8168 ab3d 720e 7b3d 49d9 c1bd
000000a0: 6c27 87bd 24f9 4d3c 07a9 e73d f3d0 42bd
000000b0: 1aa8 dabd d13a ebbc f0c7 8b3d 4273 44bd
000000c0: b5b6 993d 0438 e03d 2b55 103e 4b52 b53d
000000d0: 5ad3 07bd 0621 f13d 98c2 fe3d 3a21 953c
000000e0: de33 87bd 9c1e 293d e24f fd3c 7305 3fbd
000000f0: 28e2 0cbc 787a 323b b711 543c d21f e9bb
00000100: c5b8 34bc fd57 96bb 4329 0a3c 01e2 e8bb
00000110: 81ba 003c fb37 323c 1b1d 833c 2488 243c
00000120: aa38 82bb b442 573c 11ff 583c fa80 033b
00000130: 5c5b 09bc 3c16 c23b dcf7 943b 829f ddbb
00000140: 6b27 213e f490 dbbc 84fb 8abe 2df1 e33d
00000150: 6c37 843e 5dd3 873d ec5e 29be e3f4 e63d
00000160: 527a 3abe f6b5 89be f7a3 acbe d2df 58be
00000170: 8ccb a53d 844a 90be 0359 9abe b931 3abd
00000180: e34c 233e a0f6 c8bd 6021 91bd 0a71 e23d
00000190: 4fe6 8bbd 50fb 803c f634 e33d aaf8 53bd
000001a0: aa4b cfbd 9bda 02bd 1eb1 8f3d 6bf9 55bd
000001b0: c8f3 923d db17 d53d d694 0c3e f77d b03d
000001c0: e98e 0abd cb58 e93d 61de f43d f8ce 953c
000001d0: 3e0a 8cbd 9a25 373d aba4 053d b27f 4fbd
000001e0: a7eb 90bd 3b90 383c f802 ff3d 039c 49bd
000001f0: 87f3 f4bd 3e9a eebc aab0 973d 56e7 4bbd
00000200: 28fe ab3d 39b6 fd3d a71f 1f3e cfca c73d
00000210: 1803 15bd 6630 053e 1f31 0e3e 5171 a73c
00000220: e953 92bd e254 313d c1fe 023d ca93 47bd
00000230: 9664 fb3d 776e e0bc c660 4fbe 768e bc3d
00000240: 40e5 3e3e 2cd7 673d 7e85 00be 7400 be3d
00000250: baaa 06be 6b48 43be 27d5 80be e3cd 21be
00000260: ebab 793d c825 56be fe79 60be b895 07bd
00000270: fd41 fb3d e282 a2bd c884 71bd f583 b73d
00000280: 95e2 863d 5502 7ebc 9f9d d6bd bca5 4e3d
00000290: c093 c13d b08d ff3c 9b0e 8bbd da30 513d
000002a0: b7ea 89bd 50a7 c9bd 423d 04be d7f3 a5bd
000002b0: 095b 073d 7daf dabd 7db4 e6bd 3891 94bc
000002c0: f56e 883d 0fc2 33bd 542d febc d206 4b3d
000002d0: 0d5c ebbd 45cf cc3c 2e50 413e 18e9 afbd
000002e0: addc 31be 32aa 57bd 1e0b f33d f0b5 b1bd
000002f0: 5d14 fc3d e9b0 373e 4b4c 6f3e c938 163e
00000300: f56b 6bbd 2ed3 463e 4bc1 513e 79b1 003d
00000310: a987 ecbd 46b1 983d 9298 5d3d d4cf acbd
00000320: 8c8f 60bb 327c 1f3a e268 be3b 53c0 20bb
00000330: b88e b4bb 7b18 bfba eb18 6b3b a8fd 23bb
00000340: 0461 7d3b 911f be3b 16ab ec3b 80c3 943b
00000350: 5126 edba 4e64 c53b b097 d33b b12b 873a
00000360: 5b82 66bb d658 0f3b 76b1 c83a 2abf 1ebb
00000370: 2d3b 273e 769a 05bd 24f7 8cbe b315 f33d
00000380: a953 833e d761 943d 7caf 30be 9dc8 f43d
00000390: 2b2c 3cbe 2768 86be f873 adbe 7028 59be
000003a0: e869 9f3d 0622 91be 0742 99be a8f5 24bd
000003b0: 15b4 233e fe73 d1bd 0044 9abd 739c f53d
000003c0: 3484 523d deef f4bb 3280 bbbd 45fa 0f3d
000003d0: 4ca6 b53d bccd a83c f6af 5ebd 08cd 113d
000003e0: 783e 7fbd 7caf bcbd 05aa e9bd 25c7 92bd
000003f0: 569f d93c f712 c4bd 0265 d2bd 606d 75bc

exp_avg_sq f4 [20, 20]
2.9794719e-05 4.989088e-07 0.00010364911 1.2735168e-05 0.000100811565 4.243931e-06 3.4152803e-05 1.292464e-05
5.0227412e-05 0.00010810868 0.00016176395 6.3503496e-05 7.784585e-06 0.000114531504 0.00013334698 2.5044515e-06
2.9938865e-05 9.902689e-06 5.655731e-06 1.290609e-05 0.00057942927 2.0611249e-05 0.001707825 0.00029877393
0.0015049392 0.00010913651 0.000635164 0.0003024569 0.00076218304 0.0016046803 0.002626155 0.0010307453
0.00014285622 0.0018248451 0.0020621247 4.33199e-05 0.00057677436 0.00022434078 0.00012324713 0.00029336032
0.0001449676 4.6131627e-06 0.00044721417 7.203727e-05 0.00040492613 2.5980258e-05 0.00015815724 7.268729e-05
0.00020290156 0.00042582746 0.0006935813 0.0002726542 3.5839596e-05 0.00048495035 0.0005471122 1.0868812e-05
0.00014352318 5.3941865e-05 3.103418e-05 7.035771e-05 2.8009554e-06 2.5344718e-07 6.638026e-06 1.8563594e-06
4.8960583e-06 7.691047e-07 2.7317321e-06 1.8343856e-06 2.5252953e-06 4.7794206e-06 1.0136463e-05 3.980447e-06
5.8428196e-07 6.836578e-06 7.0372075e-06 1.5032542e-07 2.6313994e-06 1.2715425e-06 7.7225e-07 1.6926319e-06
0.0008314567 2.0940162e-05 0.0025952638 0.00039741799 0.002383595 0.00013952276 0.00093700236 0.0004047661
0.0012019493 0.00258352 0.0039995313 0.0015718337 0.00021529927 0.0027989098 0.0032343804 6.8330875e-05
0.0008446465 0.00030704067 0.00016412431 0.00039899655 0.00015469543 7.3181945e-06 0.00042737793 8.5435015e-05
0.00036186614 3.22884e-05 0.00016617269 8.6447515e-05 0.00018437089 0.00038289113 0.000653728 0.00025675553
3.724773e-05 0.00045117372 0.00050258666 1.0968151e-05 0.00015355682 6.3402134e-05 3.449114e-05 8.2981125e-05
0.00016728797 3.736237e-06 0.00054939906 7.659469e-05 0.00051784236 2.6412423e-05 0.0001873989 7.7751916e-05
0.00025863515 0.0005551313 0.0008555336 0.0003358563 4.3366937e-05 0.00060121017 0.00069320854 1.3811775e-05
0.0001687085 5.898335e-05 3.3100754e-05 7.640118e-05 0.00050501846 2.2150853e-05 0.0014462444 0.00027237396
0.0012487097 0.00010196833 0.0005374635 0.00027442072 0.0006296993 0.0013069981 0.0022318687 0.00087717024
0.00012214652 0.0015451297 0.0017170223 3.6313024e-05 0.000499244 0.00020092304 0.000113958624 0.0002613564
0.00014735924 7.186839e-06 0.00039153843 8.30805e-05 0.0003243607 3.1485153e-05 0.00015956575 8.4507206e-05
0.00016702435 0.00035251543 0.0005939698 0.000233081 3.6438767e-05 0.00040689504 0.00045846027 1.1081005e-05
0.00014937411 6.249404e-05 3.1898846e-05 8.13311e-05 0.0004452556 1.8459426e-05 0.001262806 0.00023837785
0.0010884913 8.8700435e-05 0.00048392848 0.00024143101 0.00055418874 0.0011619034 0.0019333988 0.00075930543
0.00010927547 0.0013375408 0.0015061504 3.2939042e-05 0.00044527042 0.00017849551 9.623892e-05 0.00023342062
3.465585e-07 1.12577805e-08 1.0132e-06 1.7587698e-07 9.1617346e-07 6.205124e-08 3.8266836e-07 1.8291267e-07
4.541963e-07 1.0143534e-06 1.5636047e-06 6.1664474e-07 9.603173e-08 1.0887493e-06 1.2555322e-06 3.1180967e-08
3.6389332e-07 1.397885e-07 6.870334e-08 1.7218674e-07 0.00088794535 3.1050924e-05 0.0026668485 0.0004468369
0.0023636494 0.00016470546 0.0010140862 0.0004495907 0.0012301676 0.002473737 0.0040325425 0.0015741576
0.00019638211 0.0028330656 0.0031962937 5.252991e-05 0.00083878485 0.0003294781 0.00018349924 0.00046524295
8.783702e-05 1.6351214e-06 0.00029254216 3.9178994e-05 0.00027845008 1.329904e-05 0.00010028791 3.9852548e-05
0.00013930217 0.00029980805 0.0004538155 0.0001783547 2.2923332e-05 0.00032015913 0.00037188074 7.3227648e-06
00000000: acef f937 c0ec 0535 315e d938 21a9 5537
00000010: cc6a d338 1767 8e36 4b3f 0f38 e8d6 5837
00000020: 46ab 5238 68b8 e238 2e9f 2939 2e2d 8538
00000030: 8a9a 0237 a230 f038 0fd3 0b39 2612 2836
00000040: 3925 fb37 ba23 2637 5cc6 bd36 3c87 5837
00000050: d7e4 173a 52e6 ac37 19d9 df3a c2a4 9c39
00000060: 6141 c53a 38e0 e438 2281 263a 1493 9e39
00000070: 3dcd 473a 2354 d23a 921b 2c3b 131a 873a
00000080: adcb 1539 a42f ef3a b624 073b 63b2 3538
00000090: ac32 173a 053d 6b39 e63b 0139 28ce 9939
000000a0: 7202 1839 c4ca 9a36 1278 ea39 b712 9738
000000b0: 444c d439 2ef0 d937 03d7 2539 b16f 9838
000000c0: f9c1 5439 9841 df39 74d1 353a 07f3 8e39
000000d0: 7952 1638 ef40 fe39 146c 0f3a 3159 3637
000000e0: b67e 1639 a33f 6238 b22a 0238 028d 9338
000000f0: 0cf8 3b36 8411 8834 36bc de36 0628 f935
00000100: d248 a436 7974 4e35 cd52 3736 0235 f635
00000110: 3e78 2936 e95e a036 c70f 2a37 c88f 8536
00000120: 8dd7 1c35 c265 e536 2721 ec36 2369 2134
00000130: 1997 3036 dea9 aa35 9e4c 4f35 642e e335
00000140: 1df6 593a a8a8 af37 4d15 2a3b 8a5c d039
00000150: 1736 1c3b db4c 1239 2aa1 753a c936 d439
00000160: ba8a 9d3a 4650 293b 800e 833b fd05 ce3a
00000170: f5c1 6139 ea6d 373b e6f7 533b dc4c 8f38
00000180: 446b 5d3a 4dfa a039 c918 2c39 6930 d139
00000190: bd35 2239 d08e f536 b211 e039 932b b338
000001a0: dab8 bd39 686d 0738 a43e 2e39 284b b538
000001b0: af53 4139 c7be c839 f25e 2b3a 259d 8639
000001c0: 723a 1c38 838b ec39 05c0 033a da03 3837
000001d0: 1804 2139 c3f6 8438 94aa 1038 2706 ae38
000001e0: 066a 2f39 10bc 7a36 8c05 103a 76a1 a038
000001f0: d0bf 073a 3f90 dd37 8280 4439 be0e a338
00000200: 6c99 8739 3b86 113a e345 603a df15 b039
00000210: e5e4 3538 889a 1d3a 70b8 353a 1fb9 6737
00000220: 58e7 3039 e464 7738 aad5 0a38 9239 a038
00000230: 3763 043a 98d0 b937 e98f bd3a 6acd 8e39
00000240: bfab a33a d5d7 d538 91e4 0c3a 20e0 8f39
00000250: 6812 253a 944f ab3a 8b44 123b e6f1 653a
00000260: 7514 0039 f385 ca3a b50d e13a d04e 1838
00000270: b3df 023a deae 5239 12fd ee38 aa06 8939
00000280: 7284 1a39 7a26 f136 6647 cd39 813b ae38
00000290: f50e aa39 ed0e 0438 1b51 2739 7639 b138
000002a0: 4223 2f39 d2d1 b839 a3b4 1b3a 3467 7439
000002b0: d4d5 1838 8754 d539 7f5d f039 8ee8 3937
000002c0: 4fa1 1c39 3b0f 8338 20cb 0538 4d90 aa38
000002d0: 3271 e939 51d9 9a37 bd84 a53a 11f5 7939
000002e0: b5ab 8e3a af04 ba38 c8b7 fd39 a528 7d39
000002f0: fa46 113a 024b 983a 196a fd3a 200c 473a
00000300: d22a e538 6c50 af3a 056a c53a 0728 0a38
00000310: 2f73 e939 862a 3b39 e0d3 c938 5fc2 7439
00000320: a30e ba34 3e68 4132 49fd 8735 b2d8 3c34
00000330: f6ee 7535 0841 8533 8a71 cd34 a766 4434
00000340: 44d8 f334 eb24 8835 0cdd d135 8187 2535
00000350: 003a ce33 2421 9235 c283 a835 d6eb 0533
00000360: 1e5d c334 c518 1634 108a 9333 55e2 3834
00000370: 01c5 683a ad3c 0238 4bc6 2e3b 6f45 ea39
00000380: 75e7 1a3b c9b4 2c39 16eb 843a 0bb7 eb39
00000390: 933d a13a 6c1e 223b 6b23 843b f753 ce3a
000003a0: eceb 4d39 f4aa 393b e978 513b 9053 5c38
000003b0: e6e1 5b3a cdbd ac39 b469 4039 daeb f339
000003c0: 2435 b838 5876 db35 5860 9939 2054 2438
000003d0: f0fc 9139 f11e 5f37 a951 d238 5927 2738
000003e0: a411 1239 8e2f 9d39 16ee ed39 ba04 3b39
000003f0: 7b4b c037 08db a739 fdf8 c239 12b6 f536

exp_avg f4 [20]
0.020914016 -0.10851708 -0.051936835 -0.008373336 0.123773165 -0.059916556 -0.05291225 0.1041442
0.060328275 -0.098985076 -0.0028064502 0.13336793 0.037522655 -0.08533834 -0.03068568 0.066745296
0.044418145 -0.015080781 0.03316325 0.020259775
00000000: df53 ab3c 343e debd b8bb 54bd 5130 09bc
00000010: c97c fd3d 106b 75bd 84ba 58bd 8e49 d53d
00000020: c81a 773d b0b8 cabd 6cec 37bb 9a91 083e
00000030: 5bb1 193d dec5 aebd 8960 fbbc c2b1 883d
00000040: cdef 353d 6115 77bc 30d6 073d d4f7 a53c

exp_avg_sq f4 [20]
1.3152396e-05 0.00036719893 8.2765786e-05 2.4909098e-06 0.00047373242 0.00011122628 8.468513e-05 0.0003362259
0.000115423434 0.0003062266 2.2985412e-07 0.0005435696 4.2852636e-05 0.00022962518 3.0375511e-05 0.00013565223
5.8214264e-05 7.407534e-06 3.206494e-05 1.2322601e-05
00000000: 1ca9 5c37 9b84 c039 8b92 ad38 8129 2736
00000010: 4a5f f839 2842 e938 fc98 b138 7a47 b039
00000020: 7c0f f238 0a8d a039 d2cd 7634 577e 0e3a
00000030: abbc 3338 8ac7 7039 eace fe37 de3d 0e39
00000040: 172b 7438 3c8e f836 787d 0638 2bbd 4e37

exp_avg f4 [1, 20]
0.67505914 0.4642223 0.359957 -0.11346139 -0.4163647 0.05609725 -0.75841707 0.15761922
0.48742682 -0.16787818 0.9631556 0.34829086 -0.69442624 0.03687827 -0.120745845 0.42070827
0.6782952 -0.10128072 -0.8843375 0.54830986
00000000: add0 2c3f 8cae ed3e 494c b83e 725e e8bd
00000010: c12d d5be 3bc6 653d 9f27 42bf ef66 213e
00000020: 0290 f93e 42e8 2bbe 5e91 763f 2e53 b23e
00000030: ebc5 31bf ab0d 173d 9949 f7bd 1367 d73e
00000040: c1a4 2d3f 446c cfbd f163 62bf 095e 0c3f

exp_avg_sq f4 [1, 20]
0.016216444 0.0072491406 0.004164907 0.00082354475 0.0056171613 9.27422e-05 0.020485459 0.0008527954
0.009180856 0.0011580221 0.032261897 0.0043959464 0.016422734 7.348378e-05 0.0007935022 0.00572104
0.016127404 0.0003853388 0.026456257 0.010494305
00000000: 59d8 843c 338a ed3b c679 883b 27e3 573a
00000010: 2a10 b83b 977e c238 1fd1 a73c 218e 5f3a
00000020: 4d6b 163c c6c8 973a 0d25 043d df0b 903b
00000030: f888 863c 4e1b 9a38 0803 503a 9077 bb3b
00000040: 9e1d 843c 4c07 ca39 cbba d83c 4ef0 2b3c
