lightning_logs/version_13/checkpoints/epoch=4-step=5.ckpt (torch, 15514 bytes, 15 tensors)

_neural_net._model.model.0.weight f4 [20, 2]
0	0x3f233c32	0.63763726
1	0x3f2f67dc	0.6851785
2	0x3e6fc026	0.23413143
3	0xbecb201d	-0.39672938
4	0x3e99f5bd	0.30070296
5	0x3edf27f4	0.4358517
6	0xbe8f4d7d	-0.27988806
7	0xbf099fdb	-0.53759545
8	0xbd9fc0ab	-0.078004204
9	0xbf1f4158	-0.6220908
10	0x3e0575eb	0.13033263
11	0xbea37d04	-0.31931317
12	0x3efa67f0	0.48907423
13	0x3efa4ed1	0.48888257
14	0x3c2eaceb	0.010661344
15	0x3eae996f	0.34101436
16	0xbea93270	-0.33046293
17	0xbf0c7308	-0.54863024
18	0xbe9dbb71	-0.3080707
19	0x3e8effd5	0.2792956
20	0x3e9610bc	0.29309642
21	0xbf2413e5	-0.64092857
22	0x3e66185b	0.22470228
23	0xbf0f4926	-0.5597099
24	0xbe69c6b2	-0.22829702
25	0xbec9d669	-0.39421394
26	0xbee18880	-0.44049454
27	0xbd84e183	-0.064883254
28	0xbf2a0c08	-0.6642461
29	0x3f12a59d	0.57283956
30	0xbe013395	-0.12617333
31	0x3ee87534	0.4540192
32	0x3e9a68c4	0.30158055
33	0x3e7c2bb0	0.2462604
34	0xbe8273d1	-0.25478986
35	0xbd3ad7d6	-0.045615993
36	0xbf2bd9b0	-0.6712904
37	0xbd38a301	-0.045077328
38	0x3e082b98	0.1329788
39	0x3ec550af	0.3853812

_neural_net._model.model.0.bias f4 [20]
0	0x3ebc5b8f	0.36788604
1	0xbf1589b8	-0.5841327
2	0xbedd4eeb	-0.43224272
3	0xbde2fd3e	-0.11083458
4	0xbf0c1630	-0.54721355
5	0x3f0dd988	0.5541005
6	0x3f21eabb	0.63248795
7	0x3eb96e2c	0.36216867
8	0x3f1b3667	0.60629886
9	0x3ef1c0b0	0.4721732
10	0x3eb91a94	0.3615309
11	0x3d3f584a	0.04671506
12	0xbf0c9664	-0.5491698
13	0x3edaae02	0.42710882
14	0x3f1da37d	0.6157759
15	0x3e0b80ab	0.13623302
16	0x3f01b6b7	0.50669426
17	0xbf121100	-0.5705719
18	0xbe425536	-0.18977818
19	0xbe8505b3	-0.2598091

_neural_net._model.model.2.weight f4 [20, 20]
0	0x3da62e48	0.08114296
1	0xbd371938	-0.044701785
2	0x3e52e473	0.20594959
3	0xbdd411a0	-0.10354924
4	0xbce1699e	-0.027516183
5	0x3e339d81	0.17540552
6	0xbdff0f74	-0.12454119
7	0xbde87896	-0.11351125
8	0x3e4d78f8	0.20065677
9	0xbe0e224c	-0.1388027
10	0x3d9563b3	0.07294407
11	0xbc5b56fe	-0.01338744
12	0x3e16e7b0	0.1473682
13	0xbe52d415	-0.20588715
14	0xbcf35d8a	-0.029707689
15	0xbe2876cb	-0.16451566
16	0x3bc94522	0.0061422745
17	0x3e2c380b	0.16818254
18	0x3d872803	0.065994285
19	0x3b6655fd	0.0035146468
20	0x3e364cc0	0.17802715
21	0xbe696c03	-0.2279511
22	0xbcdf601c	-0.027267508
23	0x3e1fbee5	0.15600164
24	0xbe3e5f53	-0.18591051
25	0x3bc27e73	0.005935484
26	0x3dca207f	0.098694794
27	0x3da3006e	0.07959066
28	0xbd8d6171	-0.06903351
29	0x3e1066a5	0.14101656
30	0xbc837e04	-0.0160513
31	0xbe3890c7	-0.18023978
32	0x3e18f2a1	0.14936306
33	0xbe14865c	-0.14504379
34	0xbe2cfdab	-0.16893642
35	0x3d9e7e29	0.07738907
36	0xbe32198e	-0.17392561
37	0x3d4b6c8f	0.049664076
38	0xbe0504ee	-0.12990162
39	0x3e4412f2	0.19147852
40	0xbdb16b37	-0.08663028
41	0xbcd45651	-0.025920065
42	0xbdabd3c5	-0.08390001
43	0xbde734f5	-0.112893976
44	0xbdd9e176	-0.106387064
45	0x3e08fe66	0.13378295
46	0xbe04ba55	-0.12961705
47	0x3d477fc6	0.04870584
48	0xbe2c264a	-0.16811481
49	0xbbd43108	-0.0064755715
50	0xbe10da5c	-0.14145797
51	0xbe126143	-0.14294915
52	0xbddbbd46	-0.107294604
53	0xbe3ee153	-0.18640642
54	0xbd9b0747	-0.075697474
55	0xbdaaa361	-0.08331943
56	0xbe08b904	-0.13351828
57	0x3db32e2d	0.08749042
58	0x3e0987aa	0.13430658
59	0xbd0b2e90	-0.033979952
60	0x3e33caca	0.17557827
61	0xbda4d7c0	-0.080489635
62	0x3de833b5	0.11337987
63	0x3df00951	0.11720527
64	0xbd00c26f	-0.031435426
65	0x3dcf3c29	0.101188965
66	0xbd441bc8	-0.047878057
67	0x3b68ed69	0.0035541898
68	0xbe018328	-0.12647688
69	0x3d9f312f	0.07773053
70	0x3d898a17	0.06715792
71	0x3e066ba3	0.13126998
72	0x3e05e064	0.1307388
73	0xbe06ec5a	-0.13176098
74	0xbdc4c656	-0.09608142
75	0xbd07879c	-0.03308831
76	0xbde2ac9d	-0.110680796
77	0xbe276179	-0.16345777
78	0xbe11afdf	-0.14227246
79	0xbe030847	-0.12796126
80	0xbc600613	-0.013673323
81	0x3dff8795	0.12477032
82	0x3d1d7fd4	0.038451985
83	0x3e44b406	0.19209298
84	0xbc4ea78d	-0.012613189
85	0x3e181190	0.1485045
86	0x3da868ef	0.082231395
87	0xbd7f8000	-0.06237793
88	0x3d0d7db3	0.034543704
89	0x3de740bc	0.11291644
90	0xbdd53055	-0.10409609
91	0x3d4164e9	0.047215376
92	0xba1ff824	-0.00061023445
93	0xbe29e0be	-0.16589639
94	0x3e5aa0df	0.2135043
95	0xbc485b54	-0.012228806
96	0x3c4e6d5d	0.012599316
97	0xbd0d5d70	-0.034512937
98	0x3e34aff9	0.17645253
99	0x3d55221f	0.052034494
100	0x3d80a848	0.06282097
101	0xbd17cc99	-0.037060354
102	0x3e3cfb84	0.1845532
103	0x3e01fe5c	0.12694687
104	0x3dc94c91	0.09829057
105	0xbd9e5944	-0.0773187
106	0xbe0f2a17	-0.139809
107	0xbe4e82ba	-0.20167056
108	0x3e3df39e	0.18549964
109	0xbe582799	-0.21108855
110	0xbc5f056a	-0.013612131
111	0xbe05e365	-0.13075025
112	0xbe5d6e6c	-0.21624154
113	0xbe0eee78	-0.13958156
114	0xbe502328	-0.20325911
115	0x3e08c830	0.13357615
116	0xbd229d8a	-0.039701022
117	0xbe4487c5	-0.19192417
118	0xbe31b054	-0.1735242
119	0xbd9133ef	-0.07089984
120	0xbe452786	-0.19253358
121	0xbde6b3f1	-0.1126479
122	0xbbc9701d	-0.006147398
123	0xbe4737d9	-0.19454898
124	0x3e54fc43	0.20799355
125	0xbe56134a	-0.20905796
126	0xbe239009	-0.15972914
127	0xbe088847	-0.13333236
128	0xbe0dd0bb	-0.13849156
129	0x3c72016d	0.014770848
130	0xbd8a9a0e	-0.06767665
131	0xbe184673	-0.14870624
132	0xbe43da95	-0.19126351
133	0x3e5f9583	0.21834378
134	0x3e3d07a3	0.18459944
135	0xbbea4331	-0.007149123
136	0x3d87d6d0	0.06632769
137	0xba28ddcb	-0.0006441741
138	0xbd94a9a6	-0.0725892
139	0xbe2c4e7b	-0.16826813
140	0xbe191760	-0.14950323
141	0x3e46b597	0.19405209
142	0x3e50311c	0.20331234
143	0x3d1fa46a	0.038975157
144	0x3e29640f	0.16542076
145	0xbe222a7b	-0.15836518
146	0x3e037c03	0.12840275
147	0xbe58f1fb	-0.21186058
148	0xbda1ccac	-0.07900366
149	0x3d0e0df1	0.034681264
150	0x3d6d0263	0.057863604
151	0x3e06f03e	0.13177583
152	0xbdea9631	-0.11454428
153	0xbddef154	-0.108858734
154	0xbd6bb187	-0.05754235
155	0x3d7e9192	0.062150545
156	0xbe2b5f4d	-0.16735573
157	0xbdf76136	-0.120790884
158	0xbd94f02f	-0.07272374
159	0xbdc4b145	-0.09604124
160	0xbe54ad40	-0.20769215
161	0xbe26f5ca	-0.16304699
162	0x3e31b234	0.17353135
163	0xbd4bc372	-0.049746938
164	0x3dc623d0	0.096747994
165	0xbe4e2f95	-0.20135339
166	0x3e4537bf	0.19259547
167	0xbd8dff43	-0.06933453
168	0xbd5a66e6	-0.053320788
169	0x3e0e0a32	0.13871077
170	0xbe3e8be6	-0.18608055
171	0xbc9f3679	-0.019435154
172	0xbd7a9208	-0.061174423
173	0x3e125467	0.1429001
174	0x3c237829	0.009977379
175	0x3c126e4c	0.00893743
176	0xbe64bee9	-0.22338451
177	0xb8fb1f58	-0.00011974451
178	0xbd91c9a5	-0.07118539
179	0xbd35fecf	-0.044432458
180	0xbd611d73	-0.054959726
181	0x3e045d1f	0.12926148
182	0x3e29f279	0.16596402
183	0x3e121afd	0.14268108
184	0x3e4ec4db	0.20192282
185	0x3e57064d	0.20998497
186	0xbe5f8f34	-0.21831971
187	0x3bd2530d	0.006418592
188	0x3e11c1d4	0.14234096
189	0xbb4dc88f	-0.003140006
190	0x3da41daf	0.08013474
191	0xbd113e06	-0.03545954
192	0xbc9eb275	-0.019372204
193	0xbcf323f4	-0.02968023
194	0xbe42b987	-0.19016086
195	0x3e516a7b	0.20450775
196	0xbd1fc723	-0.03900827
197	0x3d1e0c0c	0.038585708
198	0x3dcbb173	0.09945955
199	0x3e351b8a	0.17686287
200	0xbc4e8133	-0.012604046
201	0xbe0abb02	-0.135479
202	0xbe34b558	-0.17647302
203	0xbe127f63	-0.14306407
204	0xbd860244	-0.06543401
205	0x3d0b0ef7	0.03394982
206	0xbde01888	-0.10942179
207	0xbdeaaffe	-0.11459349
208	0xbd179f20	-0.037016988
209	0x3e59b146	0.2125903
210	0x3ce7cce0	0.028295934
211	0xbe0775f4	-0.1322859
212	0xbd78562d	-0.06062906
213	0xbe58ca5d	-0.21170945
214	0x3e27f346	0.16401395
215	0x3e01f40e	0.12690756
216	0xbdd2c816	-0.102920696
217	0xbdadd6c8	-0.08488232
218	0xbd4a841e	-0.049442403
219	0x3e5155a9	0.20442833
220	0xbdb7436a	-0.08948405
221	0x3d3ed3e6	0.0465888
222	0x3db3e327	0.0878356
223	0x3e5272ba	0.20551577
224	0x3e353da9	0.17699303
225	0xbdc9ae45	-0.098476924
226	0xbe3f0976	-0.18655953
227	0xbde6b34b	-0.11264666
228	0x3e273096	0.16327128
229	0xbd3df59e	-0.046376817
230	0xbe18198e	-0.14853498
231	0x3e43966b	0.19100349
232	0xbe331912	-0.17490032
233	0xbdd0512e	-0.10171734
234	0x3e40a22b	0.18811862
235	0x3dbd446d	0.09241567
236	0xbe565c19	-0.2093357
237	0x3de5d213	0.11221709
238	0x3e210a72	0.15726641
239	0x3e41a127	0.18909131
240	0x3df8e4f4	0.12153044
241	0x3e5bc28b	0.21460931
242	0xbe2e61c6	-0.17029485
243	0xbd80c833	-0.06288185
244	0x3e3c81cc	0.18408889
245	0x3ce26219	0.027634667
246	0xbd8e3ccc	-0.0694519
247	0xbdba6c20	-0.091026545
248	0xbe1f62fe	-0.15565106
249	0x3e0396bf	0.12850474
250	0xbdcb6a7e	-0.09932421
251	0x3e463024	0.19354302
252	0x3bd95788	0.006632749
253	0x3de69d95	0.11260525
254	0x3e3c7377	0.18403421
255	0xbd4baf5b	-0.04972778

_neural_net._model.model.2.bias f4 [20]
0	0x3d2ff294	0.04295595
1	0x3e061930	0.13095546
2	0xbd1f328d	-0.03886657
3	0x3dd41bc9	0.10356862
4	0xbe483761	-0.19552375
5	0xbd59f3f1	-0.053211156
6	0x3c29cf25	0.0103643285
7	0xbcc4e5dc	-0.024035387
8	0xbdbb05b5	-0.09131948
9	0x3d8be1aa	0.068301514
10	0x3db9e3c7	0.09076648
11	0xbe5d1a75	-0.21592124
12	0xbdeabdef	-0.11462008
13	0xbe3e1104	-0.18561178
14	0x3ca95a16	0.02067284
15	0xbe134104	-0.1438027
16	0xbc235946	-0.009970015
17	0xbe492f3c	-0.19646925
18	0x3da7a04e	0.081848726
19	0x3e20f2a9	0.15717568

_neural_net._model.model.4.weight f4 [1, 20]
0	0xbd824ed4	-0.063626915
1	0x3e0926e8	0.13393748
2	0x3e1eaad6	0.15494856
3	0x3e4c02cd	0.19922943
4	0x3dbf4cd6	0.09340827
5	0x3e50bba2	0.20384076
6	0xbdeff2b3	-0.11716213
7	0x3e105910	0.14096475
8	0xbcfe1c62	-0.031019393
9	0x3df497fd	0.11943052
10	0xbd3c88cd	-0.0460289
11	0xbe3d6189	-0.18494238
12	0xbb15f5ff	-0.002288222
13	0x3e598a8e	0.2124426
14	0xbdce622b	-0.10077318
15	0x3e244d30	0.1604507
16	0x3e2a4c36	0.16630635
17	0x3df4b526	0.11948614
18	0xbd930675	-0.07178966
19	0xbe3f1688	-0.18660939

exp_avg f4 [20, 2]
0	0x3c810450	0.015749127
1	0xbcce6004	-0.025192268
2	0x3c267308	0.0101592615
3	0xbc3f2c4c	-0.011668276
4	0x3c684e5e	0.01417884
5	0xbd2a6c62	-0.04160727
6	0x3d392eaf	0.045210537
7	0xbd451098	-0.04811153
8	0x3b8c6f26	0.004285711
9	0x3b47bb47	0.0030476616
10	0x3cb2acfc	0.021811001
11	0xbd9e34fa	-0.07724948
12	0xbbb83c93	-0.0056224554
13	0x3bb0abdf	0.0053915824
14	0xbcc7cafa	-0.024388779
15	0x3ce6df8a	0.028182764
16	0x3c06098c	0.008180987
17	0x3c1aeb7e	0.00945556
18	0x3bb4525a	0.005502981
19	0xbbce7724	-0.0063008238
20	0x3c79cce0	0.0152466
21	0xbd097a59	-0.033563945
22	0xbcac2d37	-0.021017654
23	0x3ce692d3	0.028146183
24	0xbb7ca6f2	-0.0038551656
25	0x3b60070f	0.0034183895
26	0xbd079264	-0.033098593
27	0x3dc51d84	0.0962477
28	0xbd892d4c	-0.06698093
29	0x3d105f6e	0.03524726
30	0x3c821334	0.015878297
31	0xbca2f7fc	-0.019893639
32	0xbc086317	-0.008324406
33	0x3ca18205	0.019715318
34	0xba19cada	-0.0005866714
35	0x3c150703	0.00909591
36	0xbceadad4	-0.028668799
37	0x3d848edd	0.064725615
38	0xbc657692	-0.01400532
39	0x3cc64fb4	0.024207927

exp_avg_sq f4 [20, 2]
0	0x36f89e4a	7.409403e-06
1	0x37a3d91e	1.9532217e-05
2	0x36616f12	3.3592264e-06
3	0x36b73dcd	5.4610196e-06
4	0x3703a940	7.847615e-06
5	0x38761ed4	5.867968e-05
6	0x38813c4c	6.1624305e-05
7	0x38a5cf38	7.9064106e-05
8	0x35111437	5.4046126e-07
9	0x34a72202	3.1130918e-07
10	0x3795d410	1.7860933e-05
11	0x39430277	0.00018597567
12	0x3579b566	9.30237e-07
13	0x3589d5aa	1.026948e-06
14	0x379beb0c	1.8586892e-05
15	0x37ed32c3	2.827624e-05
16	0x3602d99b	1.9498173e-06
17	0x364fb9e7	3.0953613e-06
18	0x35724736	9.025565e-07
19	0x359d6c7d	1.1728986e-06
20	0x36fdb2fc	7.560824e-06
21	0x38214059	3.844532e-05
22	0x377b2342	1.4968975e-05
23	0x37db345a	2.6131213e-05
24	0x350f3dd1	5.3361606e-07
25	0x34c049f0	3.5816583e-07
26	0x3835fc54	4.338876e-05
27	0x39a2e842	0.00031072093
28	0x39247618	0.00015684252
29	0x38a1051d	7.678031e-05
30	0x3711ae8a	8.6833115e-06
31	0x375c8465	1.3143847e-05
32	0x3619cb1a	2.2916997e-06
33	0x375d3b0e	1.3186376e-05
34	0x34749628	2.2778897e-07
35	0x36268f78	2.4819437e-06
36	0x37d87e41	2.5807998e-05
37	0x39077215	0.00012917102
38	0x36d08790	6.2146646e-06
39	0x37aef5e8	2.0856925e-05

exp_avg f4 [20]
0	0xbd3b7d5f	-0.04577386
1	0xbc10f97a	-0.008848542
2	0xbce795ef	-0.028269736
3	0xbd49d409	-0.049274478
4	0x3b401794	0.0029310929
5	0xbd946749	-0.072462626
6	0x3c14444d	0.009049487
7	0x3cd8c717	0.026462121
8	0x3c38833e	0.011261759
9	0xbc22c2a6	-0.009934103
10	0xbcfd52e3	-0.030923313
11	0x3cbc43f0	0.022981614
12	0x3ab594ea	0.0013853584
13	0x3d9431d1	0.07236064
14	0x3b060e78	0.0020455401
15	0xbc6b2dc5	-0.014354174
16	0x3c7443b1	0.014908717
17	0x3b88883a	0.00416663
18	0x3d90d924	0.07072666
19	0x3cb0c01e	0.021575984

exp_avg_sq f4 [20]
0	0x3888f203	6.5300635e-05
1	0x36a88a82	5.0229146e-06
2	0x380fab7c	3.4253564e-05
3	0x38d1829a	9.990223e-05
4	0x34ea82da	4.3681104e-07
5	0x3936b246	0.00017423285
6	0x36516a5f	3.1205343e-06
7	0x3804d3aa	3.166838e-05
8	0x36819298	3.8615653e-06
9	0x3644a982	2.9304942e-06
10	0x381b26b0	3.699091e-05
11	0x37bd815e	2.2590797e-05
12	0x33b5b822	8.461963e-08
13	0x395d07c5	0.00021079097
14	0x38b0a81d	8.4236475e-05
15	0x371f92d3	9.511324e-06
16	0x371d6018	9.380303e-06
17	0x3515ec30	5.5850523e-07
18	0x3929e567	0.00016202555
19	0x37a926f5	2.016451e-05

exp_avg f4 [20, 20]
0	0x3caa095e	0.02075642
1	0xbd06feff	-0.032958027
2	0xbade368d	-0.0016953513
3	0xbc964996	-0.018345635
4	0xbcfab2de	-0.030602869
5	0x3b8457c9	0.004038785
6	0x3cd42d79	0.02590059
7	0x3cc7a880	0.02437234
8	0x3b21b7ec	0.0024676276
9	0x3cf595b8	0.029978618
10	0xbcb127bc	-0.021625392
11	0xbcd36e4e	-0.025809433
12	0xbcd1b4fa	-0.025598992
13	0x3ca5a4ce	0.020220187
14	0x3d2c2712	0.042029448
15	0x3cca555b	0.024698904
16	0x3cabb7ea	0.02096172
17	0xbc8ee837	-0.017444713
18	0x3b4a8ea2	0.003090777
19	0x3bb9086f	0.0056467573
20	0xbd2b9af2	-0.041895814
21	0x3d8ba11b	0.06817838
22	0x3bef5ed7	0.007305007
23	0x3d11b43e	0.035572283
24	0x3d805955	0.06267039
25	0xbc2c03c3	-0.010498944
26	0xbd5b45cb	-0.053533357
27	0xbd4ba031	-0.049713317
28	0xbc205fcc	-0.009788465
29	0xbd7ee3e3	-0.06222905
30	0x3d2954dd	0.041340698
31	0x3d507c36	0.050899707
32	0x3d578cd9	0.052624557
33	0xbd33c933	-0.04389305
34	0xbdb24d59	-0.08706159
35	0xbd4a8125	-0.049439568
36	0xbd30d352	-0.04317028
37	0x3d15e598	0.03659591
38	0xbbeb8d99	-0.0071885106
39	0xbc10da43	-0.0088411
40	0xbd915947	-0.070971064
41	0x3dca9426	0.09891538
42	0x3b2b9378	0.0026180428
43	0x3d760fc6	0.060073636
44	0x3dc39179	0.09549231
45	0xbc82ddb0	-0.01597485
46	0xbdabe70e	-0.083936796
47	0xbd992b59	-0.07478971
48	0xbbbffa6f	-0.0058587114
49	0xbdb472d7	-0.088109665
50	0x3d708a96	0.058725916
51	0x3d9800bc	0.07422015
52	0x3da651ba	0.08121057
53	0xbd66161f	-0.05617344
54	0xbdfadad0	-0.122487664
55	0xbd95fb5b	-0.07323333
56	0xbd8ac8d6	-0.06776588
57	0x3d689c41	0.05678964
58	0x3a0d7958	0.0005396805
59	0xbc918837	-0.017765148
60	0xbdbbdb9a	-0.09172745
61	0x3e06afbf	0.1315298
62	0x3bd6d62a	0.006556292
63	0x3d9e19d2	0.077197686
64	0x3e00cb10	0.12577462
65	0xbcb263fe	-0.021776196
66	0xbde199ac	-0.11015639
67	0xbdc9f85c	-0.09861824
68	0xbc386030	-0.011253402
69	0xbdf1120a	-0.11771019
70	0x3d9e2630	0.077221274
71	0x3dc8415a	0.0977809
72	0x3ddaabc2	0.106772915
73	0xbd9dd4fb	-0.077066384
74	0xbe27a0b4	-0.16369897
75	0xbdc5a456	-0.09650485
76	0xbdb5fa1d	-0.08885596
77	0x3d993756	0.074812576
78	0xbb0a4264	-0.00210967
79	0xbcb0a40a	-0.021562595
80	0xbd2b101e	-0.041763417
81	0x3d7615f0	0.060079515
82	0x3b59336a	0.0033142217
83	0x3d0f8379	0.03503749
84	0x3d6afb46	0.05736854
85	0xbc257d17	-0.0101006245
86	0xbd4df669	-0.050283823
87	0xbd383af3	-0.044978093
88	0xbbb4f179	-0.00552195
89	0xbd5c5b50	-0.05379802
90	0x3d0f8663	0.03504027
91	0x3d3631b8	0.04448101
92	0x3d478e42	0.048719652
93	0xbd10ff76	-0.035399877
94	0xbd9940ce	-0.07483064
95	0xbd3402bc	-0.04394792
96	0xbd261862	-0.040550597
97	0x3d0c0f59	0.034194324
98	0xba8b19e8	-0.0010612579
99	0xbc1d85fd	-0.009614465
100	0xbd94ae1e	-0.07259773
101	0x3de739a4	0.11290291
102	0x3b66386d	0.0035128847
103	0x3d846eb9	0.06466431
104	0x3dd84c51	0.10561431
105	0xbc59ac0f	-0.013285651
106	0xbdb748c4	-0.08949426
107	0xbdac2ca6	-0.084069535
108	0xbbbdea24	-0.005795734
109	0xbdd1891f	-0.10231232
110	0x3d997a65	0.07494048
111	0x3db6b61a	0.08921452
112	0x3db51326	0.08841543
113	0xbd8a568e	-0.0675479
114	0xbe12cc3d	-0.14335723
115	0xbdaeb9a1	-0.085315
116	0xbd948d76	-0.07253544
117	0x3d762da0	0.060102105
118	0xbc121864	-0.008916948
119	0xbcab4be3	-0.020910209
120	0x3d52ada1	0.051435117
121	0xbd9a93e9	-0.07547743
122	0xbb4a8f17	-0.0030908042
123	0xbd34a952	-0.04410679
124	0xbd92e878	-0.07173246
125	0x3c39083c	0.011293467
126	0x3d7ec043	0.062195074
127	0x3d677ef0	0.05651754
128	0x3bb01938	0.0053741
129	0x3d8ad149	0.06778199
130	0xbd3d48a6	-0.04621186
131	0xbd6aa6c5	-0.05728795
132	0xbd7862df	-0.060641166
133	0x3d35ac1b	0.044353586
134	0x3dc18037	0.09448283
135	0x3d6536cd	0.055960465
136	0x3d4ddf43	0.050261747
137	0xbd2c691c	-0.042092428
138	0x3b2764a8	0.0025542174
139	0x3c55895a	0.013033235
140	0xbd1aa143	-0.037751447
141	0x3d7de0e7	0.06198206
142	0x3b2a0c0d	0.0025947124
143	0x3d0c3b00	0.034235954
144	0x3d69f3b3	0.057117175
145	0xbbd7bb09	-0.0065835756
146	0xbd438b31	-0.047740165
147	0xbd3b7500	-0.045765877
148	0xbb6ef130	-0.0036459677
149	0xbd67b551	-0.0565694
150	0x3d2d46fa	0.042304017
151	0x3d4ae730	0.049536884
152	0x3d42d08f	0.04756218
153	0xbd1c0d19	-0.03809843
154	0xbda2c93d	-0.079485394
155	0xbd403d49	-0.046933446
156	0xbd1eccce	-0.038769536
157	0x3d03719f	0.03209078
158	0xbbe6e22b	-0.0070460043
159	0xbc373955	-0.011183103
160	0x3c829637	0.015940769
161	0xbcb65027	-0.022255016
162	0xba2d2886	-0.0006605465
163	0xbc5ca65f	-0.0134674
164	0xbcaff0b1	-0.021477075
165	0x3b7008e4	0.0036626393
166	0x3c9ace36	0.018897157
167	0x3c89c867	0.016819192
168	0x3ab8725d	0.0014072169
169	0x3ca2501e	0.019813593
170	0xbc567f85	-0.013091926
171	0xbc880fb9	-0.01660906
172	0xbc95b8f1	-0.018276663
173	0x3c4f4f14	0.012653131
174	0x3ce17470	0.027521342
175	0x3c868ee7	0.016425563
176	0x3c7a15d1	0.0152639905
177	0xbc51ed02	-0.012812855
178	0xb912cb88	-0.00013999466
179	0x3b811be0	0.0039400905
180	0xbd10a05f	-0.03530919
181	0x3d6866ab	0.056738537
182	0x3bb4a40c	0.00551272
183	0x3cf65277	0.03006862
184	0x3d568f81	0.05238295
185	0xbc0f53bc	-0.008747991
186	0xbd37bbf1	-0.04485697
187	0xbd2a1b00	-0.041529655
188	0xbbf5d5dc	-0.0075023007
189	0xbd5395f8	-0.051656693
190	0x3d0cd958	0.034386963
191	0x3d2db98f	0.04241329
192	0x3d3472ae	0.04405468
193	0xbd138d00	-0.03602314
194	0xbd93fb64	-0.07225683
195	0xbd28f360	-0.041247725
196	0xbd14561d	-0.036214937
197	0x3cfb394e	0.030666973
198	0xbbaebd5e	-0.005332633
199	0xbbfc6127	-0.007702011
200	0x3c48ac69	0.012248137
201	0xbcafcbab	-0.021459421
202	0xbb0dc127	-0.002163002
203	0xbc31dc35	-0.010855724
204	0xbc9e9bf6	-0.019361477
205	0x3b2d0652	0.0026401472
206	0x3c8417cd	0.01612463
207	0x3c7e7dd2	0.015532928
208	0x3b33039c	0.0027315384
209	0x3ca1f516	0.019770186
210	0xbc6677ee	-0.014066679
211	0xbc885902	-0.016644005
212	0xbc83c7d0	-0.016086489
213	0x3c66db65	0.014090394
214	0x3ce3ceb1	0.02780852
215	0x3c81b0ce	0.015831377
216	0x3c55d3be	0.013050972
217	0xbc339830	-0.010961577
218	0x3b57ec58	0.0032947268
219	0x3b44859b	0.0029986862
220	0x3d6169d3	0.055032562
221	0xbd997749	-0.07493455
222	0xbc232caf	-0.009959384
223	0xbd2bfdab	-0.041989964
224	0xbd9450f9	-0.07242007
225	0x3c9ab21e	0.018883761
226	0x3d878588	0.06617266
227	0x3d64119c	0.055680856
228	0x3c7471b2	0.014919685
229	0x3d8819dd	0.06645558
230	0xbd09f44f	-0.033680256
231	0xbd483636	-0.048879825
232	0xbd80461d	-0.06263373
233	0x3d3a6a90	0.045511782
234	0x3dbb7c84	0.09154609
235	0x3d5184be	0.051151983
236	0x3d58f4f3	0.052967977
237	0xbd3cfa57	-0.04613718
238	0xbb35e75c	-0.002775631
239	0x3be65452	0.0070290947
240	0x3b15ce70	0.0022858642
241	0xbb4ccf52	-0.0031251502
242	0xb8d914fe	-0.000103512764
243	0xbaf9e0b0	-0.0019064154
244	0xbb4734b1	-0.0030396397
245	0x3a19f4a3	0.00058729405
246	0x3b31b8b4	0.0027118148
247	0x3b1b86d4	0.0023731487
248	0x39683e29	0.000221484
249	0x3b34b875	0.0027575765
250	0xbae17710	-0.0017201621
251	0xbb13b588	-0.002253862
252	0xbb2ad696	-0.0026067845
253	0x3ae3ca34	0.0017378987
254	0x3b79dcc3	0.003812597
255	0x3b14b417	0.002269035

exp_avg_sq f4 [20, 20]
0	0x37a89ee2	2.0101146e-05
1	0x381baeb8	3.71176e-05
2	0x3410d95c	1.349012e-07
3	0x3766966a	1.3744089e-05
4	0x3812249a	3.48432e-05
5	0x3606075d	1.9971842e-06
6	0x37ec8017	2.8193039e-05
7	0x37b2f5b6	2.1333672e-05
8	0x347a894c	2.3333013e-07
9	0x37f4ab2e	2.9166778e-05
10	0x3764dd9e	1.3641458e-05
11	0x37a9b9c5	2.0232876e-05
12	0x37d8d949	2.5850388e-05
13	0x374e08a2	1.2280567e-05
14	0x386b7536	5.6137527e-05
15	0x37a54ac4	1.9704348e-05
16	0x379d2b46	1.873601e-05
17	0x376541b0	1.3664758e-05
18	0x3644cf08	2.9326784e-06
19	0x359360f7	1.0980574e-06
20	0x38a6e0e5	7.957387e-05
21	0x39254f4d	0.00015765168
22	0x35e1e3ca	1.6830102e-06
23	0x3857de3a	5.146696e-05
24	0x391703b5	0.00014401863
25	0x3719aaec	9.1593065e-06
26	0x38f53155	0.00011691699
27	0x38b8389f	8.78435e-05
28	0x3651bc90	3.1253185e-06
29	0x3903717a	0.00012535407
30	0x385129c5	4.9868384e-05
31	0x38a579fb	7.890534e-05
32	0x38e01b07	0.000106861866
33	0x3873e837	5.815198e-05
34	0x397c8ec4	0.00024085777
35	0x38a58976	7.893417e-05
36	0x38a1afa1	7.709792e-05
37	0x387131e3	5.750534e-05
38	0x3730300e	1.0501606e-05
39	0x363bf16c	2.8005697e-06
40	0x3955c173	0.00020385328
41	0x39abc8dc	0.00032765314
42	0x351bdba4	5.806162e-07
43	0x390e23fd	0.00013555582
44	0x39a9acfd	0.00032363078
45	0x379842f1	1.8150984e-05
46	0x398de42b	0.00027063614
47	0x394b934d	0.00019414462
48	0x35b334b7	1.3351881e-06
49	0x3982f732	0.00024979707
50	0x38d30a7b	0.00010063216
51	0x392fe9bb	0.00016776372
52	0x397f57b8	0.00024351373
53	0x38c75266	9.504407e-05
54	0x39f8e95c	0.00047476112
55	0x39343797	0.00017186847
56	0x393b410f	0.00017857946
57	0x39080598	0.00012972055
58	0x379dd142	1.8813302e-05
59	0x37324dcc	1.062774e-05
60	0x39b29e51	0.0003406876
61	0x3a1774a8	0.0005777576
62	0x35ede1da	1.7723607e-06
63	0x396b2a9f	0.00022427224
64	0x3a12bdcb	0.00055977394
65	0x38075285	3.226336e-05
66	0x39f39906	0.00046462583
67	0x39b0894a	0.00033671624
68	0x3692dace	4.3766113e-06
69	0x39e95516	0.00044504617
70	0x39367f98	0.00017404405
71	0x39989ec2	0.00029109983
72	0x39dbff05	0.0004196094
73	0x393bc78f	0.00017908051
74	0x3a5df215	0.0008466554
75	0x399c47d7	0.00029808164
76	0x39a07ec5	0.0003061203
77	0x396ae455	0.0002240104
78	0x37feb058	3.0361276e-05
79	0x37844531	1.5767846e-05
80	0x3895ecaa	7.148956e-05
81	0x38fe098f	0.00012113444
82	0x34e328c7	4.2311714e-07
83	0x384380b8	4.66115e-05
84	0x38f5eb82	0.00011726377
85	0x36ebe269	7.0299034e-06
86	0x38cce9c8	9.771023e-05
87	0x3893baeb	7.0443224e-05
88	0x358e1673	1.0586358e-06
89	0x38c3ace1	9.330526e-05
90	0x38164829	3.582999e-05
91	0x387cee23	6.0303264e-05
92	0x38b8a78e	8.805013e-05
93	0x381ed3f6	3.786754e-05
94	0x393a2356	0.00017751506
95	0x38820a04	6.2007486e-05
96	0x3886ed1e	6.4337844e-05
97	0x3846379c	4.725867e-05
98	0x36dbadf8	6.5469612e-06
99	0x3652e18f	3.142373e-06
100	0x397fb225	0.00024385059
101	0x39e5c469	0.0004382462
102	0x358b8788	1.0395752e-06
103	0x39320616	0.0001697767
104	0x39da7997	0.00041670792
105	0x37c04537	2.2920414e-05
106	0x39b0d7fc	0.00033730257
107	0x3985bdc5	0.00025509126
108	0x35d59389	1.5912675e-06
109	0x39b3213f	0.0003416631
110	0x392bd0eb	0.00016385659
111	0x397e6e4b	0.00024264415
112	0x39a2448f	0.00030950128
113	0x39101f69	0.00013744611
114	0x3a2c1133	0.0006563842
115	0x3977a6f8	0.00023617956
116	0x396bc0f3	0.00022483226
117	0x392acedd	0.00016289526
118	0x380c81e0	3.3499557e-05
119	0x377aff36	1.4960582e-05
120	0x38eaf208	0.00011203071
121	0x394a09dd	0.00019267896
122	0x350381f2	4.89904e-07
123	0x389dc854	7.5236574e-05
124	0x3942f913	0.00018594069
125	0x37303d89	1.0504745e-05
126	0x3920bd86	0.00015329392
127	0x38ebebb9	0.0001124958
128	0x35913658	1.0819158e-06
129	0x391bfc1b	0.00014875869
130	0x3882b449	6.232464e-05
131	0x38d1f216	0.000100109886
132	0x3911e05b	0.00013911857
133	0x3879167e	5.9387174e-05
134	0x3994b708	0.0002836513
135	0x38d3a831	0.00010092592
136	0x38d4cb05	0.00010146763
137	0x389b2cf7	7.399351e-05
138	0x3741798e	1.1531998e-05
139	0x36c1f4cc	5.7803463e-06
140	0x3898c231	7.284096e-05
141	0x390d7524	0.00013490446
142	0x34ed4edc	4.4202068e-07
143	0x385466c4	5.0640447e-05
144	0x3904e255	0.00012672816
145	0x36ff4a0b	7.608212e-06
146	0x38d6cd3d	0.00010242544
147	0x38a36925	7.7920304e-05
148	0x3528dcbb	6.290608e-07
149	0x38ddceed	0.00010576644
150	0x385b1548	5.223349e-05
151	0x389d584d	7.502791e-05
152	0x38c5875c	9.418905e-05
153	0x3837a7d4	4.3786902e-05
154	0x3955a462	0.000203745
155	0x3897bdf2	7.235621e-05
156	0x388fd47d	6.8583504e-05
157	0x3852187c	5.0090704e-05
158	0x3752efee	1.2572838e-05
159	0x36932706	4.3854843e-06
160	0x3730d2e4	1.0539519e-05
161	0x378e552a	1.6967377e-05
162	0x32fbe479	2.9324143e-08
163	0x36ea4b26	6.982492e-06
164	0x378caef8	1.6770777e-05
165	0x3580abab	9.586705e-07
166	0x376c10e2	1.4070627e-05
167	0x3728bc47	1.0057417e-05
168	0x33a43146	7.645808e-08
169	0x375861d3	1.289738e-05
170	0x36a86b16	5.0192566e-06
171	0x370f1a2b	8.529557e-06
172	0x37543495	1.2648427e-05
173	0x36a43a2d	4.8943534e-06
174	0x37ccebb4	2.4428453e-05
175	0x3713fbd0	8.820512e-06
176	0x371bf7e3	9.296436e-06
177	0x36e35736	6.77528e-06
178	0x3574e9e6	9.123745e-07
179	0x350f3238	5.334473e-07
180	0x387103f9	5.7462577e-05
181	0x38e6aa43	0.00010998968
182	0x3585d97f	9.972572e-07
183	0x381bcdaf	3.7146438e-05
184	0x38d558d3	0.00010173176
185	0x36e2fcfa	6.764775e-06
186	0x38aee6ea	8.339978e-05
187	0x3881bd1e	6.186425e-05
188	0x35fe75b4	1.8958731e-06
189	0x38b5f543	8.676436e-05
190	0x3810c5d1	3.4516506e-05
191	0x3865c3f0	5.4780336e-05
192	0x389f3576	7.591669e-05
193	0x38244a04	3.916958e-05
194	0x392e8b08	0.00016645726
195	0x386738d0	5.5127603e-05
196	0x3867518c	5.515064e-05
197	0x382cd130	4.1202817e-05
198	0x3703f618	7.865507e-06
199	0x360e24a3	2.1180974e-06
200	0x370447d7	7.88454e-06
201	0x37884957	1.6246615e-05
202	0x3424e5e2	1.5357321e-07
203	0x36afa72a	5.234867e-06
204	0x3775c869	1.46498e-05
205	0x35817bfe	9.647335e-07
206	0x37455ba2	1.176345e-05
207	0x371777bc	9.028179e-06
208	0x348ebbdc	2.6586247e-07
209	0x375a093f	1.2995965e-05
210	0x36c1dec9	5.777784e-06
211	0x370eb56f	8.506103e-06
212	0x3735ce49	1.083647e-05
213	0x36cb16b7	6.052516e-06
214	0x37d28c2f	2.5099229e-05
215	0x370aecf4	8.280611e-06
216	0x37034de5	7.826345e-06
217	0x36c3f168	5.8395563e-06
218	0x35becfe3	1.4216606e-06
219	0x34ae1dd1	3.243172e-07
220	0x38e8c29f	0.00011098873
221	0x393ee980	0.00018206798
222	0x36483017	2.9830314e-06
223	0x3883be5e	6.2820254e-05
224	0x39395e50	0.00017678109
225	0x377dc0a6	1.512483e-05
226	0x39220f6b	0.00015455268
227	0x38d872bb	0.00010321053
228	0x36e727ce	6.8889703e-06
229	0x391219f5	0.00013933315
230	0x380ae0b3	3.311103e-05
231	0x38981bcc	7.2531024e-05
232	0x390de752	0.00013532981
233	0x3882fd1d	6.246029e-05
234	0x3989243e	0.0002615768
235	0x38ad2eca	8.257998e-05
236	0x38d19ff4	9.99569e-05
237	0x38a0d379	7.6687844e-05
238	0x36de9ff1	6.634735e-06
239	0x35ef92e1	1.7849635e-06
240	0x3492e873	2.7363748e-07
241	0x34dd84d3	4.12611e-07
242	0x3010d0a6	5.26834e-10
243	0x343c5283	1.7538882e-07
244	0x34e11d9b	4.1931057e-07
245	0x32f5825d	2.8581036e-08
246	0x34c3ba6b	3.6457217e-07
247	0x34858263	2.486805e-07
248	0x311f7b2d	2.3207563e-09
249	0x34a3445d	3.0410857e-07
250	0x33ca1e15	9.41183e-08
251	0x3445d29d	1.8423675e-07
252	0x34ad326f	3.2260456e-07
253	0x33e860b9	1.08209356e-07
254	0x3517f723	5.6611515e-07
255	0x345af2f9	2.0391225e-07

exp_avg f4 [20]
0	0x3d1ac663	0.037786853
1	0xbda3ec45	-0.08004049
2	0xbdef83e5	-0.11695079
3	0xbe1fa7b0	-0.15591311
4	0xbd9221a7	-0.07135325
5	0xbe0415e4	-0.12898976
6	0x3db50b32	0.08840026
7	0xbd8fba4a	-0.07017954
8	0x3cd81c7f	0.026380775
9	0xbd8877d2	-0.06663479
10	0x3cc972b1	0.024590822
11	0x3dc1a8f4	0.094560534
12	0x3b777b2e	0.003776263
13	0xbdf520e2	-0.119691625
14	0x3d83257e	0.064036354
15	0xbde550f8	-0.11197084
16	0xbdf330de	-0.11874555
17	0xbd451a33	-0.04812069
18	0x3d47a7a1	0.048743848
19	0x3dcc3c6f	0.09972464

exp_avg_sq f4 [20]
0	0x3864b89b	5.4531363e-05
1	0x3979ef3b	0.00023835611
2	0x3a02109f	0.0004961583
3	0x3a65f7be	0.0008772573
4	0x3942031e	0.00018502443
5	0x3a27f690	0.0006407285
6	0x3997ac74	0.00028929452
7	0x394f1e7a	0.00019752412
8	0x37d9467d	2.590124e-05
9	0x392fa8fd	0.00016752254
10	0x37cb05ea	2.420224e-05
11	0x399eccf3	0.00030288807
12	0x353271d9	6.647584e-07
13	0x3a08009d	0.00051880797
14	0x391e1478	0.0001507568
15	0x39f0a595	0.00045899735
16	0x3a006019	0.0004897132
17	0x38c81d2e	9.542178e-05
18	0x38bd83a1	9.03674e-05
19	0x39c6f3b1	0.00037947067

exp_avg f4 [1, 20]
0	0x3ea28393	0.31741008
1	0xbe906b68	-0.28206944
2	0x3dba7251	0.091038354
3	0x3e0156b4	0.12630731
4	0x3da72ada	0.0816247
5	0x3eaa0a3f	0.33210942
6	0xbe6d534c	-0.23176306
7	0x3ee61288	0.44936013
8	0xbe0397fc	-0.12850946
9	0x3ec343ba	0.3813761
10	0xbedb26ae	-0.42802948
11	0x3ed5c40a	0.41751128
12	0xbcacf37a	-0.021112192
13	0x3eb546f5	0.35405698
14	0x3e6de8af	0.23233293
15	0x3e5b66f5	0.21425994
16	0xbe0fea96	-0.14054331
17	0x3ee968c9	0.45587757
18	0xbe85035f	-0.25979134
19	0xbecf5651	-0.40495542

exp_avg_sq f4 [1, 20]
0	0x3b503312	0.0031768722
1	0x3b3b62e2	0.0028592874
2	0x3a024f78	0.0004970948
3	0x39fe0932	0.00048453506
4	0x39f67159	0.00047005227
5	0x3b66cbb4	0.0035216631
6	0x3acf1cf8	0.001580148
7	0x3bdfdda2	0.0068318406
8	0x39ffda5a	0.00048800075
9	0x3bac5a77	0.0052598077
10	0x3bcf08bb	0.0063181794
11	0x3be32765	0.0069321864
12	0x37e2ccbe	2.703664e-05
13	0x3b9f2449	0.0048566204
14	0x3b00aadf	0.0019633097
15	0x3aec21ff	0.0018015503
16	0x3a93a916	0.0011265601
17	0x3bf262bc	0.007397024
18	0x3b1769ee	0.002310391
19	0x3bbe605b	0.0058098263
