tutorials/tutorial 5/lightning_logs/version_148/checkpoints/epoch=0-step=1.ckpt (torch, 40297 bytes, 44 tensors)

_pina_model._model.layers.0.weight f4 [20, 2]
000000 ef c5 a0 3d b4 af 91 be c5 88 0b bf a5 65 1a bf
       0.07850253 -0.28454363 -0.5450557 -0.6031135
000010 d3 0f 95 be 95 80 28 bd 12 75 fb 3e 0a 3c 03 3e
       -0.29113635 -0.04113825 0.49112755 0.12815872
000020 78 5c 3e 3e 88 82 8c 3d 2d 13 d8 3e 1d 24 cb 3e
       0.18589962 0.06860834 0.4220213 0.3967599
000030 13 56 2b 3f 10 e4 32 3f 6b 5a b8 3e 12 ae 83 3e
       0.66928214 0.69879246 0.36006483 0.25718743
000040 9d b0 37 3d 80 b0 bb be 25 86 97 3d 79 42 f2 be
       0.044846166 -0.36658096 0.07398633 -0.4731634
000050 16 ba 06 bf 1f 1d 32 3f 70 97 c5 3e a5 36 0f bf
       -0.52627695 0.69575685 0.385921 -0.55942756
000060 38 09 b7 3e 7d f6 f2 3e 24 b9 08 3f 94 ca 42 3e
       0.3574922 0.4745368 0.534075 0.1902259
000070 9b 2f 11 3f 0b 20 63 be 66 a3 fc be 8e 7f 64 be
       0.56713265 -0.22180192 -0.49343413 -0.22314283
000080 d3 80 18 3f 8f ec 97 3e 4a 1b c0 bd 87 36 24 3f
       0.5957157 0.29672667 -0.09380205 0.641457
000090 cc 97 e5 be ca f7 85 be 29 04 1d bf ba bd df bd
       -0.44842374 -0.2616561 -0.6133447 -0.10924859

_pina_model._model.layers.0.bias f4 [20]
000000 fe 63 53 3e c1 20 1c bf 18 50 32 3f f1 2a 8d 3e
       0.20643613 -0.6098748 0.69653463 0.27571824
000010 23 63 8c bd 05 1f fb 3e f9 41 13 3f aa 73 c8 be
       -0.06854846 0.49047104 0.5752254 -0.39150745
000020 90 af ed 3b 81 8f 05 be d2 35 cc be 5a 6d 00 3f
       0.0072535947 -0.13043024 -0.39884812 0.5016686
000030 26 65 25 3f 33 eb da be 9b 98 7e bc 35 61 e7 3e
       0.64607465 -0.42757568 -0.015539314 0.4519135
000040 1e b6 be be 1d 02 08 bd 63 8f 85 be 96 84 d1 bd
       -0.3724832 -0.03320514 -0.26085958 -0.10230367

_pina_model._model.layers.2.weight f4 [2, 20]
000000 0f 16 2a be c3 97 89 3b e9 3a 99 bd ba a3 ff bd
       -0.16609977 0.0041989996 -0.07481939 -0.124824
000010 27 17 52 3e 96 bc fc bd a6 e6 22 be 68 a0 06 bd
       0.20516644 -0.123406574 -0.15908298 -0.03286782
000020 30 54 88 bd e7 3b 28 3e 8b 5a 21 be 0c 5e b7 bc
       -0.066566825 0.16429101 -0.15757196 -0.022383712
000030 25 73 68 3b c4 15 08 bd eb 39 c3 3d 84 05 e0 3d
       0.0035469022 -0.033223882 0.09532531 0.10938552
000040 23 5b 47 be 54 33 1f be be a9 00 be 03 a3 da 3d
       -0.1946836 -0.15546924 -0.12564752 0.10675623
000050 bf 0b c0 bd 8b c1 48 be a5 6d 2a 3e df df 18 be
       -0.093772404 -0.19605081 0.16643389 -0.1492915
000060 30 59 97 bd 54 dd 87 3d df 96 16 be b2 64 19 3e
       -0.07390058 0.06634012 -0.1470599 0.14979818
000070 06 3e 4e 3d d7 da 4f be 0a 96 4c 3e 30 c6 8d bd
       0.05035212 -0.20298325 0.1997911 -0.06922567
000080 49 2b b0 3c 01 d8 6d bc 08 74 0f 3e 89 10 52 bc
       0.021505015 -0.014516831 0.14009106 -0.012821325
000090 eb 11 a5 3d 6a f5 56 be ab 05 ce 3c 7a a0 31 3e
       0.08060058 -0.20992056 0.025149187 0.17346373

_pina_model._model.layers.2.bias f4 [2]
000000 03 2e 4a 3e 4e ef 2e 3e
       0.19744115 0.17083475

d f4 [102]
000000 0d 10 e6 bc 10 37 07 bd 74 7b 1e bc 6a 01 76 bc
       -0.028083825 -0.033011496 -0.009672988 -0.015014986
000010 b8 1f 86 bc b6 ae ce bc 35 37 23 3c 23 ac c7 ba
       -0.016372547 -0.025229793 0.009961893 -0.0015233796
000020 4f ff 05 3d 98 ef 1f 3d 2a 46 3f 3c a6 06 fb 3b
       0.032714184 0.039046854 0.011674443 0.0076607047
000030 41 62 bd 3b f4 0c 90 bb c5 3c fa 3c 86 b2 bd 3c
       0.005779535 -0.0043960754 0.030546555 0.023156416
000040 67 78 bd bc f1 7a a8 bc d4 0f 98 bc 59 be 65 bc
       -0.023128701 -0.020566436 -0.018562235 -0.014022433
000050 f0 db 16 bc 9c ca 82 bc 6f 07 8a bb f4 3d 04 bc
       -0.009207711 -0.015965752 -0.004212312 -0.008071411
000060 98 8d 1a 3c d5 62 db 3b 06 ad ff 3c 99 7e c9 3c
       0.009433173 0.0066951313 0.031210434 0.0245965
000070 35 0c c2 3c bd ae a9 3c 70 77 c5 bc 35 e8 73 bc
       0.023687461 0.020713205 -0.024104804 -0.014886905
000080 b4 d0 e4 3c b0 06 49 3c 90 df ae 3b 5b eb 6f bc
       0.027931549 0.012269661 0.0053367093 -0.014643515
000090 37 d3 a5 bc c4 87 89 bc 03 7a 57 bc df cf 10 ba
       -0.020242317 -0.01678837 -0.013151648 -0.0005524139
0000a0 b5 f5 a2 bc e4 68 51 3b 45 66 1d bc 8d 6a 3d 3c
       -0.019892553 0.0031953389 -0.0096069025 0.011561048
0000b0 b3 02 9f 3c 5c 66 2b 3c 38 8b 70 3c bb 2a ec 3c
       0.019410467 0.010461416 0.01468163 0.02882897
0000c0 38 b2 71 bc 01 5b b2 bc a6 ca 3e 3a cf ee 58 bb
       -0.014751963 -0.02177191 0.0007278122 -0.0033101325
0000d0 76 96 a1 3b 31 82 cb 3c a4 84 8e 3c 12 07 a9 bc
       0.0049312664 0.024842354 0.017397232 -0.020633254
0000e0 43 48 e6 3c 04 8a b3 3b 3c bc 1e bc b6 b2 52 bc
       0.028110629 0.005479099 -0.009688433 -0.012859991
0000f0 7c 33 36 bd fe b5 4e bd 3c a2 86 bc d3 a8 22 3d
       -0.044482693 -0.05046653 -0.016434781 0.039711785
000100 1c 05 4d 3d 22 a2 46 3d 4f d7 56 3d 32 5b 5b 3d
       0.0500537 0.048494466 0.052451428 0.053553768
000110 f6 c3 4a bd ee ad 3e bd 4f 81 0d 3c 30 6e 87 bc
       -0.04950329 -0.04655259 0.008636787 -0.016532034
000120 24 6e 38 3d db cf 66 3d 9c 80 f1 3c 82 c4 3f bd
       0.045026913 0.05635057 0.029480271 -0.046818264
000130 89 56 77 3d 21 ba 2b 3d 02 5a 5a bd 37 90 36 bd
       0.06038526 0.041925553 -0.053308494 -0.044571128
000140 10 3a ac 3c 20 b0 dc bc ac 87 86 3c 0a 36 7b 3b
       0.02102378 -0.026939452 0.016422115 0.003833177
000150 60 29 a9 bc 88 60 87 3c f7 ca 0b 3d c0 03 73 bc
       -0.020649612 0.016525522 0.03412911 -0.014832437
000160 a0 94 05 3c 8b f2 cf bb 12 3a 18 bc bc 9f b3 3c
       0.008153111 -0.006346052 -0.009291189 0.021926753
000170 af b5 8d 3c 2e 5c 80 bc 6e 68 ef bb da ce 56 3c
       0.017298548 -0.015668955 -0.00730615 0.013110841
000180 5f 59 44 bb 09 66 40 3c 87 08 04 bc e1 91 65 bb
       -0.0029960496 0.011743077 -0.008058674 -0.0035029578
000190 63 c2 ca 3c 00 00 00 00
       0.024750894 0.0

old_dirs f4 [102]
000000 00 d8 cf bb 00 00 5e 39 00 10 a6 ba 00 34 0c 3a
       -0.006342888 0.0002117157 -0.0012669563 0.0005348325
000010 00 38 03 bc 00 78 47 bc 00 96 87 bb 00 80 32 3a
       -0.008008957 -0.012174606 -0.0041377544 0.00068092346
000020 00 6c 43 3c 00 78 45 3c 00 46 24 bb 00 c8 43 bb
       0.011927605 0.012052536 -0.0025066137 -0.0029873848
000030 00 94 3c bb 00 8c c3 ba 00 52 b2 bb 00 30 3b bc
       -0.0028774738 -0.0014919043 -0.005441904 -0.011425018
000040 00 88 6e bb 00 c4 8e bb 00 40 22 3c 00 38 61 3c
       -0.003639698 -0.004356861 0.009902954 0.013746262
000050 00 10 43 bc 00 0e 95 bc 00 8c 4f 3a 00 f8 85 3b
       -0.01190567 -0.018195152 0.0007917285 0.004088402
000060 00 2c b1 b9 00 93 ea b9 00 30 1d bb 00 26 c5 ba
       -0.00033792853 -0.00044741482 -0.002398491 -0.0015041232
000070 00 a0 00 3a 00 aa c0 bb 00 7c df 3b 00 44 c3 3b
       0.00049066544 -0.0058796406 0.006820202 0.005959034
000080 00 bc 2d bc 00 06 3c bc 00 20 fa bb 00 60 4e 3a
       -0.010603905 -0.01147604 -0.007633209 0.00078725815
000090 00 34 2a bb 00 cc 32 bb 00 84 7a 3b 00 0c 0f bb
       -0.0025970936 -0.0027282238 0.003822565 -0.002182722
0000a0 00 6a 30 bc 00 5c 69 bb 00 96 b8 bb 00 2e fe bb
       -0.01076746 -0.0035607815 -0.005633116 -0.0077569485
0000b0 00 44 53 3c 00 49 09 bb 80 3b 96 bb 00 02 01 bb
       0.01289463 -0.0020948052 -0.0045847297 -0.001968503
0000c0 00 38 62 bb 00 d0 c5 3b 00 52 20 bc 00 d0 46 ba
       -0.0034518242 0.0060367584 -0.009785175 -0.0007584095
0000d0 00 c4 6c 39 00 ca 34 bb 00 4c 9f 3b 00 e4 f2 3b
       0.0002257973 -0.0027586222 0.004861355 0.0074124336
0000e0 00 d0 2c bc 00 b8 6d bc 00 04 77 bb 00 06 04 3c
       -0.010547638 -0.014509201 -0.0037691593 0.008058071
0000f0 00 aa f7 3b 00 e8 6e bd 00 42 e2 3c 00 ac 29 3d
       0.0075581074 -0.05832672 0.027619362 0.041423798
000100 00 38 dc 3b 00 50 54 3d 00 04 75 3d 00 00 7a 3b
       0.006720543 0.051834106 0.059818268 0.0038146973
000110 00 ec 2f bc 00 cc b9 bc 00 60 c1 bc 00 1c ec 3c
       -0.010737419 -0.022680283 -0.023605347 0.028821945
000120 00 84 62 3d 00 64 00 3c 00 cc 9d 3c 00 e8 c0 bb
       0.055301666 0.007836342 0.019262314 -0.0058870316
000130 00 90 99 3c 00 9c 91 3c 00 98 2d bd 00 58 19 bd
       0.018745422 0.017774582 -0.042381287 -0.03743744
000140 00 f0 87 3c 00 6e 31 3c 00 ec f3 3b 00 04 45 bc
       0.016593933 0.010829449 0.007443905 -0.012024879
000150 00 6e 06 bc 00 8e 58 bc 00 82 29 bc 00 80 d0 bc
       -0.008204937 -0.013217449 -0.010345936 -0.02545166
000160 00 ec af 3c 00 98 c6 3c 00 70 ff bc 00 0c c9 3c
       0.021474838 0.024242401 -0.031181335 0.024541855
000170 00 56 37 bc 00 28 c9 bc 00 a0 b6 3a 00 b8 d5 3c
       -0.011189938 -0.024555206 0.0013933182 0.026088715
000180 00 14 fa bc 00 76 08 bd 00 d0 81 3c 00 b4 6c 3c
       -0.030527115 -0.03331566 0.015846252 0.014447212
000190 00 ac 87 3d 00 00 00 00
       0.06624603 0.0

old_dirs f4 [102]
000000 00 14 a7 bb 00 00 8c b7 00 70 72 ba 00 80 b5 39
       -0.0050988197 -1.66893e-05 -0.00092482567 0.00034618378
000010 00 cc bd bb 00 b4 0d bc 00 04 5f bb 00 c0 a0 39
       -0.005792141 -0.008648872 -0.0034029484 0.0003066063
000020 00 e8 15 3c 00 5c 0e 3c 00 46 01 bb 00 d2 09 bb
       0.009149551 0.008688927 -0.001972556 -0.002102971
000030 00 04 11 bb 00 28 8a ba 00 e6 8a bb 00 5a 07 bc
       -0.0022127628 -0.0010540485 -0.004238844 -0.008261204
000040 00 88 34 bb 00 60 4d bb 00 d0 f8 3b 00 ec 21 3c
       -0.0027546883 -0.0031337738 0.007593155 0.009882927
000050 00 04 13 bc 00 70 55 bc 00 90 07 3a 00 6c 3c 3b
       -0.008973122 -0.013027191 0.0005171299 0.0028750896
000060 00 52 86 b9 00 f1 a8 b9 00 f0 0f bb 00 6c ae ba
       -0.00025619566 -0.00032223016 -0.002196312 -0.0013307333
000070 00 c0 06 3a 00 2a 89 bb 00 08 b8 3b 00 b4 95 3b
       0.00051403046 -0.004185915 0.005616188 0.004568577
000080 00 7c 0b bc 00 5e 0a bc 00 40 cd bb 00 c0 85 39
       -0.008513451 -0.008445263 -0.006263733 0.00025510788
000090 00 54 02 bb 00 30 f6 ba 00 c0 55 3b 00 c0 a7 ba
       -0.0019886494 -0.0018782616 0.0032615662 -0.0012798309
0000a0 00 38 f7 bb 00 e8 1d bb 00 34 7e bb 00 0c b0 bb
       -0.0075445175 -0.0024094582 -0.0038788319 -0.0053725243
0000b0 00 38 13 3c 00 12 b1 ba 00 28 3d bb 00 5e d2 ba
       0.008985519 -0.0013509393 -0.0028862953 -0.0016049743
0000c0 00 48 1a bb 00 40 8d 3b 00 30 e1 bb 00 4c 03 ba
       -0.002354145 0.004310608 -0.006872177 -0.00050085783
0000d0 00 90 01 39 00 76 16 bb 00 98 53 3b 00 74 b7 3b
       0.00012356043 -0.0022958517 0.0032286644 0.005598545
0000e0 00 90 fb bb 00 b0 2a bc 00 b8 1b bb 00 f0 b9 3b
       -0.0076770782 -0.010417938 -0.0023760796 0.005674362
0000f0 00 6a b2 3b 00 78 2d bd 00 58 98 3c 00 f0 fd 3c
       0.005444765 -0.04235077 0.01859665 0.03099823
000100 00 80 b4 3b 00 1c 1b 3d 00 4c 32 3d 00 68 92 3b
       0.005508423 0.0378685 0.04352951 0.004467964
000110 00 50 00 bc 00 a0 85 bc 00 14 92 bc 00 74 ad 3c
       -0.0078315735 -0.016311646 -0.017831802 0.021173477
000120 00 e4 23 3d 00 c8 02 3c 00 20 7f 3c 00 80 d5 bb
       0.04001236 0.007982254 0.015571594 -0.006515503
000130 00 ec 83 3c 00 20 57 3c 00 6c 01 bd 00 a8 eb bc
       0.016103745 0.013130188 -0.031597137 -0.028766632
000140 00 10 3f 3c 00 96 ef 3b 00 ac ad 3b 00 da 08 bc
       0.01166153 0.0073115826 0.005300045 -0.0083527565
000150 00 a0 bb bb 00 10 15 bc 00 18 e2 bb 00 60 93 bc
       -0.0057258606 -0.009098053 -0.0068998337 -0.017990112
000160 00 9c 78 3c 00 72 8c 3c 00 d8 b4 bc 00 ec 8d 3c
       0.015173912 0.017144203 -0.022075653 0.017324448
000170 00 40 fc bb 00 2c 8e bc 00 80 8b 3a 00 5c 97 3c
       -0.007698059 -0.017354965 0.0010643005 0.018476486
000180 00 ac af bc 00 2c c1 bc 00 b8 33 3c 00 30 24 3c
       -0.02144432 -0.023580551 0.010969162 0.01002121
000190 00 30 40 3d 00 00 00 00
       0.046920776 0.0

old_dirs f4 [102]
000000 00 9c b5 bb 00 80 11 b9 00 38 76 ba 00 58 a5 39
       -0.0055422783 -0.00013875961 -0.00093925 0.00031536818
000010 00 c0 bf bb 00 34 0d bc 00 00 77 bb 00 40 25 39
       -0.0058517456 -0.008618355 -0.003768921 0.00015759468
000020 00 30 1e 3c 00 88 0f 3c 00 60 0b bb 00 82 08 bb
       0.009654999 0.008760452 -0.0021266937 -0.002082944
000030 00 c0 19 bb 00 10 8a ba 00 b4 94 bb 00 fc 08 bc
       -0.0023460388 -0.0010533333 -0.0045380592 -0.008360863
000040 00 b0 3b bb 00 14 4e bb 00 ae 03 3c 00 2c 23 3c
       -0.002863884 -0.0031445026 0.00803709 0.009959221
000050 00 b8 19 bc 00 6c 56 bc 00 98 02 3a 00 9c 3b 3b
       -0.009382248 -0.013087273 0.0004981756 0.0028626919
000060 00 98 8e b9 00 d9 aa b9 00 ae 29 bb 00 0e ca ba
       -0.000271976 -0.00032586604 -0.0025891066 -0.0015415549
000070 00 e0 2b 3a 00 a6 88 bb 00 f0 cb 3b 00 34 9e 3b
       0.0006556511 -0.0041701794 0.0062236786 0.004827976
000080 00 2c 18 bc 00 02 0e bc 00 a0 e3 bb 00 00 78 b7
       -0.009287834 -0.008667469 -0.0069465637 -1.4781952e-05
000090 00 68 09 bb 00 30 ef ba 00 fc 71 3b 00 48 8a ba
       -0.002096653 -0.0018248558 0.0036923885 -0.0010550022
0000a0 00 10 f3 bb 00 9e 16 bb 00 ac 76 bb 00 dc ab bb
       -0.007417679 -0.002298236 -0.003763914 -0.005244732
0000b0 00 4c 10 3c 00 70 a2 ba 00 b2 28 bb 00 92 e8 ba
       0.008807182 -0.0012392998 -0.0025740862 -0.0017743707
0000c0 00 8c 13 bb 00 de 8d 3b 00 bc de bb 00 5a ee b9
       -0.0022513866 0.004329443 -0.0067973137 -0.00045461953
0000d0 00 60 bc 38 00 da 27 bb 00 8c 47 3b 00 b4 bf 3b
       8.98242e-05 -0.0025612116 0.0030448437 0.005850315
0000e0 00 dc ff bb 00 f8 2b bc 00 08 0b bb 00 0c b8 3b
       -0.0078082085 -0.0104961395 -0.0021214485 0.005616665
0000f0 00 06 b4 3b 00 18 30 bd 00 1e 91 3c 00 c0 03 3d
       0.0054938793 -0.04299164 0.0177145 0.032165527
000100 00 b8 c6 3b 00 20 1e 3d 00 3c 35 3d 00 a8 bf 3b
       0.006064415 0.038604736 0.044246674 0.0058488846
000110 00 a4 02 bc 00 84 86 bc 00 6c 98 bc 00 6c b1 3c
       -0.007973671 -0.016420364 -0.018606186 0.021657944
000120 00 d4 25 3d 00 d8 21 3c 00 70 8b 3c 00 e4 08 bc
       0.040485382 0.009878159 0.01702118 -0.008355141
000130 00 d0 95 3c 00 68 5d 3c 00 e8 05 bd 00 40 f9 bc
       0.018287659 0.013513565 -0.032691956 -0.030426025
000140 00 bc 3c 3c 00 54 e4 3b 00 20 ad 3b 00 e4 05 bc
       0.011519432 0.0069680214 0.0052833557 -0.008172035
000150 00 d8 b7 bb 00 a2 10 bc 00 e2 d4 bb 00 34 92 bc
       -0.005610466 -0.008827686 -0.006496668 -0.017847061
000160 00 a8 76 3c 00 66 8b 3c 00 f4 b3 bc 00 c0 8c 3c
       0.015054703 0.01701641 -0.021966934 0.017181396
000170 00 84 f4 bb 00 0c 8d bc 00 00 95 3a 00 80 96 3c
       -0.0074620247 -0.017217636 0.0011367798 0.018371582
000180 00 88 ad bc 00 e0 bf bc 00 40 2f 3c 00 5c 20 3c
       -0.021183014 -0.023422241 0.010696411 0.0097875595
000190 00 28 3f 3d 00 00 00 00
       0.046669006 0.0

old_dirs f4 [102]
000000 00 d4 be bb 00 00 64 b9 00 30 76 ba 00 18 96 39
       -0.005823612 -0.00021743774 -0.0009391308 0.0002862811
000010 00 ac bf bb 00 94 0b bc 00 10 84 bb 00 00 16 38
       -0.0058493614 -0.008519173 -0.0040302277 3.5762787e-05
000020 00 50 23 3c 00 34 0f 3c 00 86 12 bb 00 8c 06 bb
       0.009967804 0.008740425 -0.0022357702 -0.0020530224
000030 00 b8 1f bb 00 c4 89 ba 00 90 9b bb 00 5c 09 bc
       -0.0024371147 -0.0010510683 -0.0047473907 -0.008383751
000040 00 a0 3e bb 00 5c 4c bb 00 ae 08 3c 00 00 23 3c
       -0.0029087067 -0.0031182766 0.008342266 0.0099487305
000050 00 18 1e bc 00 bc 55 bc 00 fc 02 3a 00 c8 3a 3b
       -0.009649277 -0.013045311 0.00049966574 0.0028500557
000060 00 d2 95 b9 00 a5 ab b9 00 b4 3c bb 00 9c de ba
       -0.00028575957 -0.00032738596 -0.0028793812 -0.0016983747
000070 00 50 4a 3a 00 04 87 bb 00 04 da 3b 00 d4 a3 3b
       0.00077176094 -0.00412035 0.006653309 0.0049996376
000080 00 0c 21 bc 00 ea 0f bc 00 24 f4 bb 00 40 81 b9
       -0.009829521 -0.008783817 -0.0074505806 -0.0002465248
000090 00 c8 0d bb 00 30 e8 ba 00 3e 83 3b 00 d0 62 ba
       -0.0021634102 -0.00177145 0.0040051937 -0.000865221
0000a0 00 30 ed bb 00 46 0f bb 00 80 6e bb 00 3e a7 bb
       -0.007238388 -0.0021861792 -0.0036392212 -0.0051038265
0000b0 00 b0 0c 3c 00 0b 96 ba 00 02 17 bb 00 62 f9 ba
       0.008586884 -0.001144737 -0.0023041964 -0.0019026399
0000c0 00 f8 0b bb 00 b4 8d 3b 00 5c db bb 00 a2 d1 b9
       -0.0021357536 0.004324436 -0.006694317 -0.00039984286
0000d0 00 e0 77 38 00 4a 34 bb 00 f8 3c 3b 00 b8 c4 3b
       5.9098005e-05 -0.0027509928 0.0028834343 0.00600338
0000e0 00 bc 00 bc 00 f0 2b bc 00 14 f9 ba 00 1c b5 3b
       -0.007857323 -0.010494232 -0.0019003153 0.0055270195
0000f0 00 12 b4 3b 00 b8 30 bd 00 5a 8a 3c 00 78 06 3d
       0.00549531 -0.043144226 0.016888618 0.032829285
000100 00 18 d3 3b 00 40 1f 3d 00 24 36 3d 00 10 e1 3b
       0.00644207 0.038879395 0.044467926 0.0068683624
000110 00 58 03 bc 00 10 86 bc 00 14 9c bc 00 f0 b2 3c
       -0.008016586 -0.016365051 -0.019052505 0.021842957
000120 00 18 26 3d 00 8c 38 3c 00 78 93 3c 00 2c 1f bc
       0.040550232 0.011263847 0.018001556 -0.00971508
000130 00 88 a2 3c 00 e0 60 3c 00 5c 08 bd 00 fc 00 bd
       0.01984024 0.013725281 -0.033290863 -0.031490326
000140 00 14 39 3c 00 2e d9 3b 00 08 ab 3b 00 72 02 bc
       0.011296272 0.006627798 0.0052194595 -0.00796175
000150 00 f0 b2 bb 00 e2 0b bc 00 3e c8 bb 00 08 90 bc
       -0.005460739 -0.008537769 -0.0061109066 -0.01758194
000160 00 0c 73 3c 00 6c 89 3c 00 e4 b1 bc 00 cc 8a 3c
       0.014834404 0.016775131 -0.021715164 0.016942978
000170 00 38 ec bb 00 ec 8a bc 00 40 9d 3a 00 84 94 3c
       -0.007208824 -0.016958237 0.0011997223 0.018129349
000180 00 6c aa bc 00 4c bd bc 00 3c 2a 3c 00 1c 1c 3c
       -0.020803452 -0.023107529 0.010390282 0.00952816
000190 00 c4 3c 3d 00 00 00 00
       0.046085358 0.0

old_dirs f4 [102]
000000 00 84 c4 bb 00 80 87 b9 00 60 74 ba 00 a0 88 39
       -0.005997181 -0.00025844574 -0.00093221664 0.0002605915
000010 00 bc be bb 00 cc 09 bc 00 4a 8a bb 00 00 84 b8
       -0.005820751 -0.008410454 -0.0042202473 -6.2942505e-05
000020 00 78 26 3c 00 54 0e 3c 00 d8 17 bb 00 c8 04 bb
       0.010160446 0.008687019 -0.0023169518 -0.002026081
000030 00 0c 24 bb 00 0c 8a ba 00 c2 a0 bb 00 72 09 bc
       -0.0025031567 -0.0010532141 -0.004905939 -0.008388996
000040 00 f0 3e bb 00 98 49 bb 00 6a 0c 3c 00 9c 22 3c
       -0.002913475 -0.0030760765 0.008570194 0.009924889
000050 00 44 21 bc 00 e4 54 bc 00 24 08 3a 00 e0 3a 3b
       -0.009842873 -0.012993813 0.00051933527 0.0028514862
000060 00 a6 9c b9 00 2d ac b9 00 ea 4a bb 00 3c ee ba
       -0.00029878318 -0.00032839924 -0.0030962229 -0.001817584
000070 00 b0 62 3a 00 3c 85 bb 00 28 e4 3b 00 b8 a7 3b
       0.0008647442 -0.0040659904 0.006962776 0.00511837
000080 00 88 27 bc 00 18 11 bc 00 58 00 bc 00 40 eb b9
       -0.010225296 -0.00885582 -0.007833481 -0.00044870377
000090 00 84 10 bb 00 50 e2 ba 00 a6 8a 3b 00 a0 3b ba
       -0.0022051334 -0.0017266273 0.0042312145 -0.0007157326
0000a0 00 48 e7 bb 00 ca 08 bb 00 30 67 bb 00 32 a3 bb
       -0.0070581436 -0.0020872355 -0.0035276413 -0.0049803257
0000b0 00 50 09 3c 00 8a 8c ba 00 c2 08 bb 00 5e 03 bb
       0.00838089 -0.001072228 -0.0020867586 -0.0020045042
0000c0 00 88 04 bb 00 b2 8d 3b 00 6c d8 bb 00 32 b3 b9
       -0.0020222664 0.004324198 -0.0066046715 -0.00034178793
0000d0 00 20 06 38 00 5a 3d bb 00 c0 34 3b 00 ec c7 3b
       3.1977892e-05 -0.0028892756 0.0027580261 0.0061011314
0000e0 00 10 01 bc 00 b4 2b bc 00 a4 e1 ba 00 4c b2 3b
       -0.00787735 -0.010479927 -0.0017215014 0.005441189
0000f0 00 d8 b3 3b 00 b4 30 bd 00 e0 84 3c 00 20 08 3d
       0.0054883957 -0.04314041 0.016220093 0.033233643
000100 00 10 db 3b 00 94 1f 3d 00 50 36 3d 00 e0 f8 3b
       0.006685257 0.038959503 0.044509888 0.0075950623
000110 00 6c 03 bc 00 40 85 bc 00 24 9e bc 00 74 b3 3c
       -0.008021355 -0.01626587 -0.019304276 0.021905899
000120 00 c0 25 3d 00 d4 48 3c 00 e0 98 3c 00 38 2f bc
       0.04046631 0.012257576 0.018661499 -0.010694504
000130 00 90 ab 3c 00 24 63 3c 00 d4 09 bd 00 e0 03 bd
       0.020942688 0.013863564 -0.033649445 -0.032196045
000140 00 98 35 3c 00 78 cf 3b 00 90 a8 3b 00 c0 fe bb
       0.011083603 0.006331444 0.0051441193 -0.007774353
000150 00 20 ae bb 00 a2 07 bc 00 60 bd bb 00 cc 8d bc
       -0.0053138733 -0.00827837 -0.0057792664 -0.017309189
000160 00 44 6f 3c 00 5e 87 3c 00 d0 af bc 00 e4 88 3c
       0.014603615 0.016524315 -0.021461487 0.016710281
000170 00 cc e4 bb 00 c8 88 bc 00 80 a4 3a 00 6c 92 3c
       -0.0069823265 -0.01669693 0.0012550354 0.017873764
000180 00 84 a7 bc 00 b4 ba bc 00 c4 25 3c 00 42 18 3c
       -0.020448685 -0.022790909 0.010117531 0.009293079
000190 00 60 3a 3d 00 00 00 00
       0.04550171 0.0

old_dirs f4 [102]
000000 00 84 c7 bb 00 20 8f b9 00 f8 71 ba 00 20 7a 39
       -0.0060887337 -0.00027298927 -0.0009230375 0.00023853779
000010 00 a0 bd bb 00 2c 08 bc 00 ce 8e bb 00 00 15 b9
       -0.0057868958 -0.008311272 -0.004358053 -0.00014209747
000020 00 60 28 3c 00 68 0d 3c 00 ee 1b bb 00 66 03 bb
       0.010276794 0.008630753 -0.0023792982 -0.002004981
000030 00 64 27 bb 00 08 8b ba 00 e4 a4 bb 00 8a 09 bc
       -0.0025541782 -0.0010607243 -0.0050320625 -0.008394718
000040 00 88 3d bb 00 80 46 bb 00 62 0f 3c 00 48 22 3c
       -0.0028920174 -0.0030288696 0.008751392 0.009904861
000050 00 c0 23 bc 00 3c 54 bc 00 44 11 3a 00 0c 3c 3b
       -0.009994507 -0.012953758 0.0005541444 0.0028693676
000060 00 62 a3 b9 00 f9 ac b9 00 8e 55 bb 00 5e fa ba
       -0.00031162798 -0.00032991916 -0.003258586 -0.00191015
000070 00 20 77 3a 00 68 83 bb 00 88 eb 3b 00 ac aa 3b
       0.00094270706 -0.0040102005 0.0071878433 0.0052084923
000080 00 50 2c bc 00 00 12 bc 00 42 05 bc 00 40 21 ba
       -0.01051712 -0.008911133 -0.008133411 -0.00061511993
000090 00 40 12 bb 00 e0 dd ba 00 10 90 3b 00 d0 1c ba
       -0.002231598 -0.0016927719 0.0043964386 -0.0005981922
0000a0 00 b4 e1 bb 00 4e 03 bb 00 08 61 bb 00 f2 9f bb
       -0.0068879128 -0.0020035505 -0.0034337044 -0.0048811436
0000b0 00 58 06 3c 00 9a 85 ba 00 20 fb ba 00 ee 08 bb
       0.008199692 -0.001019299 -0.0019159317 -0.0020893812
0000c0 00 30 fb ba 00 0e 8e 3b 00 44 d6 bb 00 f4 93 b9
       -0.0019164085 0.004335165 -0.006538868 -0.0002821982
0000d0 00 00 07 37 00 0e 44 bb 00 d8 2e 3b 00 1c ca 3b
       8.046627e-06 -0.0029915571 0.002667904 0.0061678886
0000e0 00 44 01 bc 00 a4 2b bc 00 38 cf ba 00 f0 af 3b
       -0.007889748 -0.010476112 -0.0015809536 0.0053691864
0000f0 00 c2 b3 3b 00 70 30 bd 00 90 80 3c 00 34 09 3d
       0.005485773 -0.04307556 0.015693665 0.033496857
000100 00 30 e0 3b 00 b4 1f 3d 00 44 36 3d 00 c0 04 3c
       0.0068416595 0.03899002 0.044498444 0.008102417
000110 00 30 03 bc 00 50 84 bc 00 50 9f bc 00 80 b3 3c
       -0.00800705 -0.016151428 -0.019447327 0.021911621
000120 00 4c 25 3d 00 48 54 3c 00 90 9c 3c 00 94 3a bc
       0.040355682 0.012956619 0.019111633 -0.011387825
000130 00 e8 b1 3c 00 a0 64 3c 00 c4 0a bd 00 e0 05 bd
       0.021717072 0.013954163 -0.033878326 -0.032684326
000140 00 6c 32 3c 00 80 c7 3b 00 18 a6 3b 00 b0 f9 bb
       0.010890007 0.006088257 0.005068779 -0.007619858
000150 00 c8 a9 bb 00 16 04 bc 00 68 b4 bb 00 ce 8b bc
       -0.0051813126 -0.008061886 -0.005505562 -0.017066002
000160 00 10 6c 3c 00 98 85 3c 00 28 ae bc 00 38 87 3c
       0.014408112 0.01630783 -0.021259308 0.016506195
000170 00 88 de bb 00 d8 86 bc 00 e0 ab 3a 00 90 90 3c
       -0.006791115 -0.016460419 0.0013113022 0.01764679
000180 00 0c a5 bc 00 50 b8 bc 00 10 22 3c 00 24 15 3c
       -0.020147324 -0.022499084 0.00989151 0.009102821
000190 00 4c 38 3d 00 00 00 00
       0.044994354 0.0

old_dirs f4 [102]
000000 00 0c c9 bb 00 00 8a b9 00 20 6f ba 00 00 66 39
       -0.0061354637 -0.0002632141 -0.0009121895 0.0002193451
000010 00 98 bc bb 00 d0 06 bc 00 4e 92 bb 00 40 57 b9
       -0.0057554245 -0.008228302 -0.0044648647 -0.0002052784
000020 00 9c 29 3c 00 80 0c 3c 00 5c 1f bb 00 92 02 bb
       0.010352135 0.008575439 -0.002431631 -0.0019923449
000030 00 30 2a bb 00 b0 8c ba 00 78 a8 bb 00 ee 09 bc
       -0.0025968552 -0.0010733604 -0.0051412582 -0.00841856
000040 00 28 3b bb 00 50 43 bb 00 04 12 3c 00 50 22 3c
       -0.0028557777 -0.0029802322 0.0089120865 0.009906769
000050 00 f0 25 bc 00 24 54 bc 00 a4 1d 3a 00 54 3e 3b
       -0.010128021 -0.012948036 0.00060135126 0.0029041767
000060 00 3a aa b9 00 18 ae b9 00 de 5d bb 00 24 02 bb
       -0.0003246814 -0.00033205748 -0.0033854246 -0.0019857883
000070 00 50 84 3a 00 0c 82 bb 00 40 f1 3b 00 14 ad 3b
       0.0010094643 -0.0039687157 0.0073623657 0.005281925
000080 00 24 30 bc 00 f0 12 bc 00 52 09 bc 00 00 49 ba
       -0.010750771 -0.008968353 -0.008381367 -0.00076675415
000090 00 8c 13 bb 00 f0 da ba 00 22 94 3b 00 a0 05 ba
       -0.0022513866 -0.0016703606 0.0045206547 -0.0005097389
0000a0 00 e0 dc bb 00 a0 fd ba 00 38 5c bb 00 86 9d bb
       -0.00674057 -0.0019350052 -0.0033602715 -0.004807234
0000b0 00 f8 03 3c 00 db 80 ba 00 fc e9 ba 00 e1 0d bb
       0.008054733 -0.0009830892 -0.0017851591 -0.0021649003
0000c0 00 60 ee ba 00 00 8f 3b 00 08 d5 bb 00 20 69 b9
       -0.0018186569 0.0043640137 -0.006501198 -0.00022232533
0000d0 00 00 5c b7 00 4c 49 bb 00 e0 2a 3b 00 d4 cb 3b
       -1.3113022e-05 -0.0030715466 0.0026073456 0.0062203407
0000e0 00 9c 01 bc 00 f8 2b bc 00 10 c1 ba 00 2c ae 3b
       -0.007910728 -0.0104961395 -0.00147295 0.005315304
0000f0 00 44 b4 3b 00 68 30 bd 00 10 7b 3c 00 fc 09 3d
       0.0055012703 -0.043067932 0.015323639 0.03368759
000100 00 48 e3 3b 00 d8 1f 3d 00 38 36 3d 00 78 0a 3c
       0.0069360733 0.039024353 0.044487 0.008451462
000110 00 f0 02 bc 00 84 83 bc 00 18 a0 bc 00 78 b3 3c
       -0.007991791 -0.016054153 -0.019542694 0.021907806
000120 00 0c 25 3d 00 3c 5c 3c 00 0c 9f 3c 00 b0 42 bc
       0.040294647 0.0134420395 0.019414902 -0.011882782
000130 00 80 b6 3c 00 fc 65 3c 00 78 0b bd 00 68 07 bd
       0.022277832 0.014037132 -0.034049988 -0.033058167
000140 00 d4 2f 3c 00 12 c1 3b 00 ec a3 3b 00 e0 f5 bb
       0.010731697 0.0058920383 0.0050024986 -0.0075035095
000150 00 ec a5 bb 00 6c 01 bc 00 2c ad bb 00 42 8a bc
       -0.005063534 -0.007899284 -0.005284786 -0.016877174
000160 00 88 69 3c 00 38 84 3c 00 f8 ac bc 00 10 86 3c
       0.014253616 0.016139984 -0.02111435 0.016365051
000170 00 b4 d9 bb 00 50 85 bc 00 00 b3 3a 00 24 8f 3c
       -0.006643772 -0.016273499 0.0013656616 0.01747322
000180 00 34 a3 bc 00 9c b6 bc 00 48 1f 3c 00 cc 12 3c
       -0.019922256 -0.022291183 0.009721756 0.00895977
000190 00 c8 36 3d 00 00 00 00
       0.04462433 0.0

old_dirs f4 [102]
000000 00 4c c9 bb 00 c0 74 b9 00 78 6c ba 00 80 54 39
       -0.006143093 -0.00023341179 -0.0009020567 0.00020265579
000010 00 bc bb bb 00 cc 05 bc 00 14 95 bb 00 80 86 b9
       -0.0057291985 -0.008166313 -0.0045495033 -0.0002565384
000020 00 60 2a 3c 00 c8 0b 3c 00 4c 22 bb 00 2e 02 bb
       0.010398865 0.00853157 -0.0024764538 -0.0019863844
000030 00 a8 2c bb 00 f0 8e ba 00 d6 ab bb 00 92 0a bc
       -0.0026345253 -0.0010905266 -0.0052440166 -0.008457661
000040 00 20 38 bb 00 54 40 bb 00 7a 14 3c 00 c4 22 3c
       -0.0028095245 -0.0029346943 0.00906229 0.009934425
000050 00 fc 27 bc 00 80 54 bc 00 44 2c 3a 00 8c 41 3b
       -0.010252953 -0.012969971 0.0006571412 0.002953291
000060 00 10 b1 b9 00 90 af b9 00 90 64 bb 00 69 06 bb
       -0.00033771992 -0.0003348589 -0.003487587 -0.0020509362
000070 00 a8 8b 3a 00 02 81 bb 00 c8 f5 3b 00 40 af 3b
       0.0010654926 -0.003937006 0.0075006485 0.0053482056
000080 00 40 33 bc 00 f4 13 bc 00 c0 0c bc 00 60 6b ba
       -0.010940552 -0.009030342 -0.008590698 -0.00089788437
000090 00 78 14 bb 00 30 d9 ba 00 40 97 3b 00 a0 e7 b9
       -0.0022654533 -0.0016570091 0.0046157837 -0.00044178963
0000a0 00 ac d8 bb 00 60 f6 ba 00 60 58 bb 00 e2 9b bb
       -0.006612301 -0.0018796921 -0.0033016205 -0.004757166
0000b0 00 18 02 3c 00 92 7b ba 00 e0 dc ba 00 85 12 bb
       0.007940292 -0.0009596646 -0.0016851425 -0.0022357106
0000c0 00 b8 e2 ba 00 68 90 3b 00 94 d4 bb 00 90 2a b9
       -0.0017297268 0.004406929 -0.0064873695 -0.00016266108
0000d0 00 60 06 b8 00 8c 4d bb 00 7c 28 3b 00 58 cd 3b
       -3.2037497e-05 -0.0031363964 0.0025708675 0.006266594
0000e0 00 18 02 bc 00 98 2c bc 00 40 b6 ba 00 f8 ac 3b
       -0.007940292 -0.0105342865 -0.0013904572 0.0052785873
0000f0 00 44 b5 3b 00 70 30 bd 00 d4 76 3c 00 b8 0a 3d
       0.005531788 -0.04307556 0.015065193 0.033866882
000100 00 f8 e4 3b 00 08 20 3d 00 78 36 3d 00 48 0e 3c
       0.0069875717 0.03907013 0.044548035 0.008684158
000110 00 9c 02 bc 00 f4 82 bc 00 94 a0 bc 00 7c b3 3c
       -0.007971764 -0.015985489 -0.019601822 0.021909714
000120 00 00 25 3d 00 d8 61 3c 00 e4 a0 3c 00 44 48 bc
       0.040283203 0.013784409 0.019639969 -0.012223244
000130 00 d4 b9 3c 00 68 67 3c 00 18 0c bd 00 a0 08 bd
       0.022684097 0.014123917 -0.034202576 -0.033355713
000140 00 d4 2d 3c 00 f2 bb 3b 00 0c a2 3b 00 28 f3 bb
       0.010609627 0.0057356358 0.004945278 -0.00742054
000150 00 b4 a2 bb 00 b8 fe bb 00 5c a7 bb 00 10 89 bc
       -0.0049653053 -0.0077733994 -0.005107403 -0.016731262
000160 00 98 67 3c 00 42 83 3c 00 58 ac bc 00 50 85 3c
       0.014135361 0.016022682 -0.021038055 0.016273499
000170 00 f0 d5 bb 00 28 84 bc 00 c0 b9 3a 00 04 8e 3c
       -0.0065288544 -0.016132355 0.00141716 0.017335892
000180 00 f8 a1 bc 00 60 b5 bc 00 34 1d 3c 00 1e 11 3c
       -0.019771576 -0.022140503 0.009594917 0.00885725
000190 00 c0 35 3d 00 00 00 00
       0.04437256 0.0

old_dirs f4 [102]
000000 00 d0 c8 bb 00 80 47 b9 00 e8 69 ba 00 90 44 39
       -0.006128311 -0.00019025803 -0.00089228153 0.00018745661
000010 00 24 bb bb 00 10 05 bc 00 5a 97 bb 00 80 9d b9
       -0.0057110786 -0.0081214905 -0.004618883 -0.0003004074
000020 00 e4 2a 3c 00 38 0b 3c 00 fe 24 bb 00 34 02 bb
       0.010430336 0.008497238 -0.002517581 -0.001986742
000030 00 f8 2e bb 00 94 91 ba 00 1c af bb 00 86 0b bc
       -0.0026698112 -0.001110673 -0.005343914 -0.008515835
000040 00 b0 34 bb 00 64 3d bb 00 e6 16 3c 00 8c 23 3c
       -0.0027570724 -0.0028898716 0.00921011 0.009982109
000050 00 10 2a bc 00 44 55 bc 00 c8 3c 3a 00 78 45 3b
       -0.010379791 -0.013016701 0.0007201433 0.003013134
000060 00 f0 b7 b9 00 51 b1 b9 00 4a 6a bb 00 51 0a bb
       -0.00035083294 -0.0003382042 -0.0035749674 -0.0021105409
000070 00 40 92 3a 00 54 80 bb 00 a0 f9 3b 00 64 b1 3b
       0.001115799 -0.0039162636 0.0076179504 0.0054135323
000080 00 0c 36 bc 00 1e 15 bc 00 cc 0f bc 00 00 85 ba
       -0.011111259 -0.009101391 -0.008776665 -0.0010147095
000090 00 4c 15 bb 00 80 d8 ba 00 be 99 3b 00 60 cb b9
       -0.0022780895 -0.0016517639 0.004691839 -0.00038790703
0000a0 00 f0 d4 bb 00 6c f0 ba 00 78 55 bb 00 cc 9a bb
       -0.006498337 -0.0018342733 -0.0032572746 -0.0047240257
0000b0 00 98 00 3c 00 12 78 ba 00 c0 d2 ba 00 0a 17 bb
       0.00784874 -0.00094631314 -0.0016078949 -0.0023046732
0000c0 00 b0 d7 ba 00 52 92 3b 00 d4 d4 bb 00 b0 d8 b8
       -0.001645565 0.0044653416 -0.006494999 -0.00010332465
0000d0 00 40 4e b8 00 3c 51 bb 00 3c 27 3b 00 cc ce 3b
       -4.9173832e-05 -0.0031926632 0.002551794 0.00631094
0000e0 00 cc 02 bc 00 9c 2d bc 00 10 ae ba 00 40 ac 3b
       -0.007983208 -0.010596275 -0.0013279915 0.005256653
0000f0 00 de b6 3b 00 c4 30 bd 00 30 74 3c 00 68 0b 3d
       0.0055806637 -0.04315567 0.014904022 0.03403473
000100 00 b0 e5 3b 00 74 20 3d 00 dc 36 3d 00 bc 10 3c
       0.007009506 0.039173126 0.044643402 0.008833885
000110 00 68 02 bc 00 7c 82 bc 00 14 a1 bc 00 b0 b3 3c
       -0.007959366 -0.015928268 -0.019662857 0.02193451
000120 00 24 25 3d 00 cc 65 3c 00 30 a2 3c 00 40 4c bc
       0.040317535 0.014025688 0.019798279 -0.012466431
000130 00 48 bc 3c 00 b4 68 3c 00 bc 0c bd 00 b0 09 bd
       0.022983551 0.014203072 -0.03435898 -0.033615112
000140 00 40 2c 3c 00 ec b7 3b 00 78 a0 3b 00 54 f1 bb
       0.010513306 0.00561285 0.0048971176 -0.00736475
000150 00 e0 9f bb 00 ac fb bb 00 a6 a2 bb 00 26 88 bc
       -0.004878998 -0.007680416 -0.0049636364 -0.016619682
000160 00 58 66 3c 00 94 82 3c 00 14 ac bc 00 e0 84 3c
       0.014059067 0.015939713 -0.02100563 0.016220093
000170 00 08 d3 bb 00 58 83 bc 00 a0 c1 3a 00 50 8d 3c
       -0.0064401627 -0.016033173 0.0014772415 0.017250061
000180 00 30 a1 bc 00 a8 b4 bc 00 bc 1b 3c 00 00 10 3c
       -0.019676208 -0.022052765 0.009505272 0.0087890625
000190 00 40 35 3d 00 00 00 00
       0.04425049 0.0

old_dirs f4 [102]
000000 00 d8 c7 bb 00 40 0e b9 00 f0 67 ba 00 70 36 39
       -0.0060987473 -0.00013566017 -0.00088477135 0.00017398596
000010 00 c4 ba bb 00 8c 04 bc 00 6e 99 bb 00 a0 af b9
       -0.0056996346 -0.008090019 -0.0046823025 -0.0003349781
000020 00 50 2b 3c 00 d0 0a 3c 00 92 27 bb 00 90 02 bb
       0.010456085 0.008472443 -0.00255692 -0.0019922256
000030 00 38 31 bb 00 a4 94 ba 00 80 b2 bb 00 d4 0c bc
       -0.0027041435 -0.001134038 -0.0054473877 -0.008595467
000040 00 00 31 bb 00 b0 3a bb 00 76 19 3c 00 c4 24 3c
       -0.0027008057 -0.0028486252 0.009366512 0.010056496
000050 00 30 2c bc 00 84 56 bc 00 8c 4e 3a 00 20 4a 3b
       -0.010509491 -0.013092995 0.0007879138 0.0030841827
000060 00 da be b9 00 61 b3 b9 00 7e 6f bb 00 13 0e bb
       -0.00036402047 -0.0003421381 -0.0036543608 -0.0021678805
000070 00 48 98 3a 00 02 80 bb 00 24 fd 3b 00 98 b3 3b
       0.0011618137 -0.0039064884 0.007725239 0.0054807663
000080 00 a8 38 bc 00 7e 16 bc 00 ac 12 bc 00 50 93 ba
       -0.011270523 -0.009185314 -0.008952141 -0.0011239052
000090 00 30 16 bb 00 b0 d8 ba 00 e4 9b 3b 00 00 b7 b9
       -0.0022916794 -0.0016531944 0.0047574043 -0.0003490448
0000a0 00 b4 d1 bb 00 c0 eb ba 00 4c 53 bb 00 46 9a bb
       -0.0063996315 -0.0017986298 -0.0032241344 -0.0047080517
0000b0 00 10 ff 3b 00 7c 76 ba 00 0c cb ba 00 a9 1b bb
       0.00778389 -0.0009402633 -0.0015491247 -0.0023751855
0000c0 00 98 cd ba 00 b2 94 3b 00 b0 d5 bb 00 d0 38 b8
       -0.0015685558 0.004537821 -0.006521225 -4.4062734e-05
0000d0 00 10 88 b8 00 aa 54 bb 00 08 27 3b 00 58 d0 3b
       -6.4879656e-05 -0.003244996 0.0025486946 0.0063581467
0000e0 00 b4 03 bc 00 f4 2e bc 00 d4 a7 ba 00 fc ab 3b
       -0.008038521 -0.010678291 -0.001280427 0.0052485466
0000f0 00 1a b9 3b 00 5c 31 bd 00 dc 72 3c 00 30 0c 3d
       0.0056488514 -0.04330063 0.01482296 0.034225464
000100 00 e0 e5 3b 00 10 21 3d 00 90 37 3d 00 3c 12 3c
       0.0070152283 0.0393219 0.044815063 0.008925438
000110 00 34 02 bc 00 34 82 bc 00 9c a1 bc 00 1c b4 3c
       -0.007946968 -0.015893936 -0.019727707 0.021986008
000120 00 a0 25 3d 00 90 68 3c 00 50 a3 3c 00 1c 4f bc
       0.04043579 0.0141944885 0.019935608 -0.012640953
000130 00 4c be 3c 00 40 6a 3c 00 84 0d bd 00 b0 0a bd
       0.023229599 0.014297485 -0.034549713 -0.033859253
000140 00 0c 2b 3c 00 d6 b4 3b 00 20 9f 3b 00 50 f0 bb
       0.010439873 0.005518675 0.0048561096 -0.0073337555
000150 00 78 9d bb 00 9c f9 bb 00 e8 9e bb 00 a8 87 bc
       -0.004805565 -0.0076174736 -0.004849434 -0.0165596
000160 00 98 65 3c 00 3a 82 3c 00 2c ac bc 00 d0 84 3c
       0.01401329 0.015896797 -0.021017075 0.016212463
000170 00 10 d1 bb 00 d4 82 bc 00 80 c8 3a 00 e4 8c 3c
       -0.006380081 -0.01597023 0.0015296936 0.017198563
000180 00 d0 a0 bc 00 50 b4 bc 00 d8 1a 3c 00 5c 0f 3c
       -0.019630432 -0.022010803 0.0094509125 0.008749962
000190 00 24 35 3d 00 00 00 00
       0.044223785 0.0

old_dirs f4 [102]
000000 00 70 c6 bb 00 00 92 b8 00 08 66 ba 00 00 29 39
       -0.006055832 -6.9618225e-05 -0.0008774996 0.00016117096
000010 00 7c ba bb 00 40 04 bc 00 38 9b bb 00 20 c1 b9
       -0.0056910515 -0.008071899 -0.0047369003 -0.0003683567
000020 00 9c 2b 3c 00 70 0a 3c 00 06 2a bb 00 1e 03 bb
       0.010474205 0.008449554 -0.0025943518 -0.0020006895
000030 00 60 33 bb 00 e8 97 ba 00 fa b5 bb 00 60 0e bc
       -0.0027370453 -0.0011589527 -0.005553484 -0.00868988
000040 00 28 2d bb 00 00 38 bb 00 0e 1c 3c 00 3c 26 3c
       -0.0026421547 -0.0028076172 0.009524822 0.010146141
000050 00 44 2e bc 00 0c 58 bc 00 5c 61 3a 00 1c 4f 3b
       -0.01063633 -0.013186455 0.0008596778 0.0031602383
000060 00 a4 c5 b9 00 7e b5 b9 00 50 74 bb 00 ca 11 bb
       -0.00037696958 -0.00034616888 -0.003727913 -0.0022245646
000070 00 90 9d 3a 00 e0 7f bb 00 38 00 3c 00 d4 b5 3b
       0.0012021065 -0.0039043427 0.007825851 0.005548954
000080 00 24 3b bc 00 fc 17 bc 00 56 15 bc 00 30 a0 ba
       -0.011422157 -0.00927639 -0.009114742 -0.0012221336
000090 00 10 17 bb 00 60 d9 ba 00 b4 9d 3b 00 40 a6 b9
       -0.0023050308 -0.0016584396 0.0048127174 -0.0003170967
0000a0 00 b4 ce bb 00 c0 e7 ba 00 8c 51 bb 00 08 9a bb
       -0.0063080788 -0.0017681122 -0.0031974316 -0.0047006607
0000b0 00 30 fd 3b 00 0a 76 ba 00 ce c4 ba 00 68 20 bb
       0.0077266693 -0.00093856454 -0.0015015006 -0.0024476051
0000c0 00 c0 c3 ba 00 66 97 3b 00 e0 d6 bb 00 c0 7e 37
       -0.001493454 0.0046203136 -0.0065574646 1.5184283e-05
0000d0 00 c0 a6 b8 00 e2 57 bb 00 44 27 3b 00 f4 d1 3b
       -7.9512596e-05 -0.0032941103 0.002552271 0.006407261
0000e0 00 c0 04 bc 00 74 30 bc 00 fc a2 ba 00 ec ab 3b
       -0.008102417 -0.010769844 -0.0012434721 0.0052466393
0000f0 00 e4 bb 3b 00 10 32 bd 00 38 72 3c 00 f0 0c 3d
       0.005733967 -0.04347229 0.014783859 0.03440857
000100 00 80 e5 3b 00 b4 21 3d 00 58 38 3d 00 04 13 3c
       0.007003784 0.039478302 0.0450058 0.008973122
000110 00 00 02 bc 00 f8 81 bc 00 34 a2 bc 00 a4 b4 3c
       -0.00793457 -0.015865326 -0.019800186 0.022050858
000120 00 3c 26 3d 00 78 6a 3c 00 40 a4 3c 00 2c 51 bc
       0.040584564 0.014310837 0.020050049 -0.012766838
000130 00 d0 bf 3c 00 a0 6b 3c 00 38 0e bd 00 b0 0b bd
       0.023414612 0.014381409 -0.034721375 -0.034103394
000140 00 0c 2a 3c 00 46 b2 3b 00 f0 9d 3b 00 b8 ef bb
       0.010378838 0.0054404736 0.00481987 -0.0073156357
000150 00 44 9b bb 00 28 f8 bb 00 c0 9b bb 00 48 87 bc
       -0.004738331 -0.0075731277 -0.004753113 -0.016513824
000160 00 30 65 3c 00 1c 82 3c 00 a8 ac bc 00 c4 84 3c
       0.013988495 0.015882492 -0.021076202 0.016206741
000170 00 80 cf bb 00 7e 82 bc 00 a0 d0 3a 00 ac 8c 3c
       -0.0063323975 -0.015929222 0.0015916824 0.01717186
000180 00 c0 a0 bc 00 44 b4 bc 00 40 1a 3c 00 00 0f 3c
       -0.019622803 -0.022005081 0.009414673 0.008728027
000190 00 50 35 3d 00 00 00 00
       0.044265747 0.0

old_dirs f4 [102]
000000 00 cc c4 bb 00 00 d0 36 00 90 64 ba 00 20 1c 39
       -0.006005764 6.198883e-06 -0.00087189674 0.0001488924
000010 00 7c ba bb 00 14 04 bc 00 06 9d bb 00 20 cf b9
       -0.0056910515 -0.008061409 -0.004791975 -0.0003950596
000020 00 f4 2b 3c 00 44 0a 3c 00 7c 2c bb 00 f0 03 bb
       0.010495186 0.008439064 -0.0026319027 -0.0020132065
000030 00 a0 35 bb 00 6c 9b ba 00 be b9 bb 00 2a 10 bc
       -0.0027713776 -0.0011857748 -0.0056684017 -0.008799076
000040 00 28 29 bb 00 70 35 bb 00 dc 1e 3c 00 00 28 3c
       -0.0025811195 -0.0027685165 0.009696007 0.010253906
000050 00 8c 30 bc 00 dc 59 bc 00 0c 75 3a 00 a8 54 3b
       -0.010775566 -0.013297081 0.00093477964 0.0032448769
000060 00 56 cc b9 00 cf b7 b9 00 2e 79 bb 00 b1 15 bb
       -0.00038973987 -0.00035058707 -0.0038021803 -0.0022841096
000070 00 c0 a2 3a 00 14 80 bb 00 e4 01 3c 00 4c b8 3b
       0.001241684 -0.003908634 0.007927895 0.0056242943
000080 00 ac 3d bc 00 b4 19 bc 00 02 18 bc 00 70 ac ba
       -0.0115766525 -0.009381294 -0.009277821 -0.0013155937
000090 00 10 18 bb 00 b0 da ba 00 72 9f 3b 00 a0 99 b9
       -0.0023202896 -0.0016684532 0.004865885 -0.00029301643
0000a0 00 f8 cb bb 00 88 e4 ba 00 40 50 bb 00 1a 9a bb
       -0.0062246323 -0.0017435551 -0.0031776428 -0.0047028065
0000b0 00 e0 fb 3b 00 a8 76 ba 00 ca bf ba 00 6e 25 bb
       0.007686615 -0.0009409189 -0.0014632344 -0.0025242567
0000c0 00 50 ba ba 00 80 9a 3b 00 84 d8 bb 00 c0 9c 38
       -0.0014214516 0.004714966 -0.0066075325 7.4744225e-05
0000d0 00 70 c3 b8 00 32 5b bb 00 1c 28 3b 00 bc d3 3b
       -9.319186e-05 -0.003344655 0.0025651455 0.0064616203
0000e0 00 fc 05 bc 00 3c 32 bc 00 34 9f ba 00 28 ac 3b
       -0.008177757 -0.010878563 -0.0012146235 0.005253792
0000f0 00 44 bf 3b 00 14 33 bd 00 78 72 3c 00 e4 0d 3d
       0.0058369637 -0.043720245 0.014799118 0.034641266
000100 00 e0 e4 3b 00 a8 22 3d 00 70 39 3d 00 6c 13 3c
       0.0069847107 0.039711 0.045272827 0.008997917
000110 00 d8 01 bc 00 e4 81 bc 00 e8 a2 bc 00 7c b5 3c
       -0.007925034 -0.01585579 -0.019886017 0.022153854
000120 00 10 27 3d 00 20 6c 3c 00 28 a5 3c 00 c8 52 bc
       0.040786743 0.014411926 0.020160675 -0.0128650665
000130 00 44 c1 3c 00 40 6d 3c 00 28 0f bd 00 cc 0c bd
       0.023591995 0.014480591 -0.034950256 -0.034374237
000140 00 50 29 3c 00 36 b0 3b 00 f0 9c 3b 00 bc ef bb
       0.010334015 0.005377531 0.0047893524 -0.0073161125
000150 00 4c 99 bb 00 4c f7 bb 00 16 99 bb 00 1c 87 bc
       -0.0046782494 -0.0075469017 -0.004671812 -0.016492844
000160 00 2c 65 3c 00 34 82 3c 00 48 ad bc 00 20 85 3c
       0.013987541 0.015893936 -0.021152496 0.01625061
000170 00 70 ce bb 00 64 82 bc 00 00 d8 3a 00 a8 8c 3c
       -0.0062999725 -0.015916824 0.0016479492 0.017169952
000180 00 08 a1 bc 00 90 b4 bc 00 18 1a 3c 00 00 0f 3c
       -0.019657135 -0.02204132 0.009405136 0.008728027
000190 00 d0 35 3d 00 00 00 00
       0.044387817 0.0

old_dirs f4 [102]
000000 00 e8 c2 bb 00 00 b9 38 00 70 63 ba 00 40 0f 39
       -0.0059480667 8.8214874e-05 -0.0008676052 0.00013661385
000010 00 7c ba bb 00 f8 03 bc 00 b2 9e bb 00 e0 dc b9
       -0.0056910515 -0.008054733 -0.0048429966 -0.00042128563
000020 00 38 2c 3c 00 14 0a 3c 00 ee 2e bb 00 da 04 bb
       0.010511398 0.00842762 -0.0026692152 -0.002027154
000030 00 d4 37 bb 00 00 9f ba 00 aa bd bb 00 36 12 bc
       -0.0028049946 -0.0012130737 -0.005788088 -0.008924007
000040 00 18 25 bb 00 e0 32 bb 00 c8 21 3c 00 14 2a 3c
       -0.0025191307 -0.002729416 0.009874344 0.010380745
000050 00 d0 32 bc 00 dc 5b bc 00 b8 84 3a 00 88 5a 3b
       -0.010913849 -0.013419151 0.0010125637 0.0033345222
000060 00 e4 d2 b9 00 1e ba b9 00 fa 7d bb 00 b6 19 bb
       -0.00040224195 -0.00035499036 -0.0038753748 -0.0023454428
000070 00 78 a7 3a 00 72 80 bb 00 8a 03 3c 00 e0 ba 3b
       0.0012776852 -0.00391984 0.008028507 0.0057029724
000080 00 3c 40 bc 00 88 1b bc 00 9a 1a bc 00 b0 b8 ba
       -0.011733055 -0.009492874 -0.0094361305 -0.0014090538
000090 00 24 19 bb 00 50 dc ba 00 04 a1 3b 00 00 8e b9
       -0.0023367405 -0.001680851 0.004913807 -0.0002708435
0000a0 00 50 c9 bb 00 c0 e1 ba 00 40 4f bb 00 62 9a bb
       -0.00614357 -0.0017223358 -0.003162384 -0.0047113895
0000b0 00 d0 fa 3b 00 d6 77 ba 00 86 bb ba 00 b0 2a bb
       0.00765419 -0.0009454191 -0.0014306903 -0.0026044846
0000c0 00 f8 b0 ba 00 e0 9d 3b 00 60 da bb 00 74 0d 39
       -0.0013501644 0.0048179626 -0.006664276 0.00013490021
0000d0 00 60 de b8 00 82 5e bb 00 30 29 3b 00 a8 d5 3b
       -0.00010603666 -0.0033951998 0.0025815964 0.0065202713
0000e0 00 58 07 bc 00 20 34 bc 00 34 9c ba 00 88 ac 3b
       -0.008260727 -0.0109939575 -0.0011917353 0.005265236
0000f0 00 10 c3 3b 00 14 34 bd 00 38 73 3c 00 cc 0e 3d
       0.005952835 -0.043964386 0.014844894 0.03486252
000100 00 e0 e3 3b 00 9c 23 3d 00 90 3a 3d 00 68 13 3c
       0.006954193 0.039943695 0.045547485 0.0089969635
000110 00 8c 01 bc 00 d4 81 bc 00 a8 a3 bc 00 6c b6 3c
       -0.007906914 -0.01584816 -0.01997757 0.022268295
000120 00 fc 27 3d 00 38 6d 3c 00 0c a6 3c 00 00 54 bc
       0.04101181 0.0144786835 0.020269394 -0.012939453
000130 00 80 c2 3c 00 d4 6e 3c 00 14 10 bd 00 d0 0d bd
       0.023742676 0.014576912 -0.035175323 -0.034622192
000140 00 bc 28 3c 00 8c ae 3b 00 04 9c 3b 00 04 f0 bb
       0.010298729 0.005326748 0.004761219 -0.0073246956
000150 00 80 97 bb 00 c0 f6 bb 00 ca 96 bb 00 1a 87 bc
       -0.004623413 -0.0075302124 -0.004601717 -0.01649189
000160 00 60 65 3c 00 6a 82 3c 00 10 ae bc 00 70 85 3c
       0.013999939 0.015919685 -0.021247864 0.016288757
000170 00 b8 cd bb 00 68 82 bc 00 00 e0 3a 00 d0 8c 3c
       -0.006278038 -0.015918732 0.0017089844 0.017189026
000180 00 5c a1 bc 00 0c b5 bc 00 08 1a 3c 00 24 0f 3c
       -0.01969719 -0.022100449 0.009401321 0.00873661
000190 00 78 36 3d 00 00 00 00
       0.044548035 0.0

old_dirs f4 [102]
000000 00 f4 c0 bb 00 c0 3d 39 00 c0 62 ba 00 a0 02 39
       -0.005888462 0.0001809597 -0.0008649826 0.00012457371
000010 00 c0 ba bb 00 18 04 bc 00 7e a0 bb 00 c0 e9 b9
       -0.0056991577 -0.008062363 -0.004897833 -0.00044584274
000020 00 9c 2c 3c 00 f8 09 3c 00 76 31 bb 00 fa 05 bb
       0.01053524 0.008420944 -0.002707839 -0.00204432
000030 00 2c 3a bb 00 d0 a2 ba 00 fa c1 bb 00 8a 14 bc
       -0.0028407574 -0.0012421608 -0.005919695 -0.009066105
000040 00 e8 20 bb 00 50 30 bb 00 fc 24 3c 00 70 2c 3c
       -0.0024552345 -0.0026903152 0.010069847 0.01052475
000050 00 58 35 bc 00 2c 5e bc 00 42 8f 3a 00 d8 60 3b
       -0.011068344 -0.013560295 0.0010929704 0.0034308434
000060 00 68 d9 b9 00 90 bc b9 00 90 81 bb 00 0b 1e bb
       -0.0004146695 -0.00035965443 -0.0039539337 -0.0024115443
000070 00 00 ac 3a 00 2c 81 bb 00 58 05 3c 00 c8 bd 3b
       0.0013122559 -0.003942013 0.008138657 0.005791664
000080 00 fc 42 bc 00 98 1d bc 00 52 1d bc 00 70 c4 ba
       -0.011900902 -0.009618759 -0.00960207 -0.0014986992
000090 00 70 1a bb 00 60 de ba 00 a0 a2 3b 00 60 85 b9
       -0.0023565292 -0.0016965866 0.004962921 -0.00025439262
0000a0 00 d8 c6 bb 00 84 df ba 00 7c 4e bb 00 e4 9a bb
       -0.0060682297 -0.0017052889 -0.0031507015 -0.0047268867
0000b0 00 08 fa 3b 00 8e 79 ba 00 f2 b7 ba 00 62 30 bb
       0.007630348 -0.0009519756 -0.0014033914 -0.0026913881
0000c0 00 d8 a7 ba 00 a8 a1 3b 00 94 dc bb 00 40 4d 39
       -0.0012805462 0.0049333572 -0.00673151 0.00019574165
0000d0 00 30 f8 b8 00 14 62 bb 00 a8 2a 3b 00 d0 d7 3b
       -0.00011834502 -0.0034496784 0.0026040077 0.006586075
0000e0 00 ec 08 bc 00 40 36 bc 00 ec 99 ba 00 28 ad 3b
       -0.008357048 -0.011123657 -0.0011743307 0.0052843094
0000f0 00 98 c7 3b 00 74 35 bd 00 84 74 3c 00 f0 0f 3d
       0.006091118 -0.04430008 0.014924049 0.03514099
000100 00 00 e3 3b 00 dc 24 3d 00 f8 3b 3d 00 40 13 3c
       0.0069274902 0.04024887 0.045890808 0.008987427
000110 00 68 01 bc 00 cc 81 bc 00 b8 a4 bc 00 a4 b7 3c
       -0.007898331 -0.015844345 -0.02010727 0.022417068
000120 00 2c 29 3d 00 74 6e 3c 00 04 a7 3c 00 20 55 bc
       0.041301727 0.014554024 0.02038765 -0.013008118
000130 00 d0 c3 3c 00 98 70 3c 00 34 11 bd 00 0c 0f bd
       0.023902893 0.014684677 -0.03544998 -0.034923553
000140 00 4c 28 3c 00 2e ad 3b 00 3c 9b 3b 00 a8 f0 bb
       0.010272026 0.0052850246 0.004737377 -0.007344246
000150 00 c8 95 bb 00 b4 f6 bb 00 e0 94 bb 00 38 87 bc
       -0.004570961 -0.007528782 -0.0045433044 -0.016506195
000160 00 e0 65 3c 00 d8 82 3c 00 20 af bc 00 08 86 3c
       0.014030457 0.015972137 -0.021377563 0.016361237
000170 00 60 cd bb 00 96 82 bc 00 20 e8 3a 00 20 8d 3c
       -0.0062675476 -0.015940666 0.0017709732 0.017227173
000180 00 14 a2 bc 00 b8 b5 bc 00 58 1a 3c 00 88 0f 3c
       -0.019784927 -0.022182465 0.009420395 0.008760452
000190 00 6c 37 3d 00 00 00 00
       0.04478073 0.0

old_dirs f4 [102]
000000 00 d4 be bb 00 a0 93 39 00 50 62 ba 00 40 eb 38
       -0.005823612 0.00028157234 -0.0008633137 0.00011217594
000010 00 08 bb bb 00 28 04 bc 00 42 a2 bb 00 60 f6 b9
       -0.005707741 -0.008066177 -0.0049517155 -0.00046992302
000020 00 f8 2c 3c 00 e8 09 3c 00 04 34 bb 00 2e 07 bb
       0.010557175 0.0084171295 -0.0027468204 -0.0020626783
000030 00 84 3c bb 00 ac a6 ba 00 8a c6 bb 00 18 17 bc
       -0.0028765202 -0.0012716055 -0.0060589314 -0.009222031
000040 00 9c 1c bb 00 c0 2d bb 00 54 28 3c 00 10 2f 3c
       -0.0023896694 -0.0026512146 0.010273933 0.010684967
000050 00 e8 37 bc 00 a4 60 bc 00 32 9a 3a 00 70 67 3b
       -0.011224747 -0.013710976 0.0011764169 0.003531456
000060 00 bc df b9 00 ff be b9 00 3a 84 bb 00 ad 22 bb
       -0.00042673945 -0.00036429614 -0.0040352345 -0.0024822354
000070 00 98 b0 3a 00 fe 81 bb 00 34 07 3c 00 dc c0 3b
       0.0013473034 -0.0039670467 0.008252144 0.005885601
000080 00 cc 45 bc 00 ce 1f bc 00 0e 20 bc 00 b0 cf ba
       -0.012072563 -0.009753704 -0.009768963 -0.0015845299
000090 00 e0 1b bb 00 e0 e0 ba 00 3c a4 3b 00 40 7c b9
       -0.0023784637 -0.0017156601 0.0050120354 -0.00024056435
0000a0 00 60 c4 bb 00 94 dd ba 00 e8 4d bb 00 84 9b bb
       -0.0059928894 -0.0016905069 -0.00314188 -0.0047459602
0000b0 00 68 f9 3b 00 7e 7b ba 00 bc b4 ba 00 71 36 bb
       0.0076112747 -0.00095936656 -0.0013788939 -0.002783835
0000c0 00 a0 9e ba 00 b0 a5 3b 00 fc de bb 00 16 87 39
       -0.0012102127 0.005056381 -0.006804943 0.00025765598
0000d0 00 58 08 b9 00 cc 65 bb 00 38 2c 3b 00 24 da 3b
       -0.00013002753 -0.003506422 0.0026278496 0.0066571236
0000e0 00 98 0a bc 00 7c 38 bc 00 1c 98 ba 00 dc ad 3b
       -0.008459091 -0.011260033 -0.0011605024 0.005305767
0000f0 00 92 cc 3b 00 e8 36 bd 00 08 76 3c 00 18 11 3d
       0.0062429905 -0.044654846 0.015016556 0.03542328
000100 00 b8 e1 3b 00 20 26 3d 00 8c 3d 3d 00 d4 12 3c
       0.0068883896 0.04055786 0.046276093 0.008961678
000110 00 30 01 bc 00 e4 81 bc 00 c8 a5 bc 00 f8 b8 3c
       -0.007884979 -0.01585579 -0.020236969 0.022579193
000120 00 6c 2a 3d 00 70 6f 3c 00 10 a8 3c 00 30 56 bc
       0.041606903 0.014614105 0.020515442 -0.0130729675
000130 00 0c c5 3c 00 44 72 3c 00 64 12 bd 00 48 10 bd
       0.024053574 0.01478672 -0.0357399 -0.035224915
000140 00 e4 27 3c 00 06 ac 3b 00 90 9a 3b 00 90 f1 bb
       0.0102472305 0.0052497387 0.004716873 -0.0073719025
000150 00 20 94 bb 00 f0 f6 bb 00 12 93 bb 00 72 87 bc
       -0.0045204163 -0.0075359344 -0.0044882298 -0.016533852
000160 00 90 66 3c 00 4e 83 3c 00 50 b0 bc 00 a8 86 3c
       0.014072418 0.016028404 -0.021522522 0.01643753
000170 00 2c cd bb 00 e0 82 bc 00 20 f0 3a 00 88 8d 3c
       -0.0062613487 -0.015975952 0.0018320084 0.017276764
000180 00 d8 a2 bc 00 a4 b6 bc 00 c0 1a 3c 00 14 10 3c
       -0.019878387 -0.022294998 0.00944519 0.008793831
000190 00 88 38 3d 00 00 00 00
       0.045051575 0.0
