ciao/lightning_logs/version_0/checkpoints/epoch=999-step=1000.ckpt (torch, 10906 bytes, 15 tensors)

_neural_net._model.model.0.weight f4 [10, 1]
0	0x3eb9d634	0.36296237
1	0xbecb1992	-0.39667946
2	0x3f5e947f	0.8694534
3	0xbf847868	-1.0349245
4	0xbe57e89b	-0.21084826
5	0xbf1c11c1	-0.6096459
6	0xbf3fe588	-0.7495961
7	0x3e7ce22a	0.2469565
8	0xbe7dbc68	-0.24778903
9	0x3e164d8c	0.1467802

_neural_net._model.model.0.bias f4 [10]
0	0x3d815a69	0.063160725
1	0xbd9bea92	-0.076131
2	0xbf67a8fa	-0.9049221
3	0xbe466518	-0.19374502
4	0xbf51194b	-0.8167922
5	0xbf0e21db	-0.5552041
6	0x3f5b6ba1	0.85711104
7	0x3f25a841	0.6470986
8	0x3f87577f	1.0573577
9	0x3f71e73c	0.9449346

_neural_net._model.model.2.weight f4 [10, 10]
0	0x3ea299cf	0.31757972
1	0x3df365e4	0.118846685
2	0x3e93a4d4	0.2883669
3	0xbe95e550	-0.29276514
4	0xbebbeedf	-0.36705682
5	0xbe72f26b	-0.23725288
6	0x3ea03e60	0.31297588
7	0x3c92f22e	0.017937746
8	0x3e79660c	0.24355334
9	0x3efdcca5	0.49570194
10	0xbdf30026	-0.11865263
11	0xbd5bc7c1	-0.053657297
12	0xbe9e3d66	-0.30906218
13	0x3e8a74f3	0.2704235
14	0xbd0e5c09	-0.03475574
15	0xbe01b86b	-0.12668006
16	0x3b32b868	0.002727056
17	0xbebd66a8	-0.36992383
18	0xbd55d7ed	-0.052207876
19	0xbee28d2c	-0.4424833
20	0x3f10719a	0.5642334
21	0x3d8be50b	0.06830796
22	0x3e3c3671	0.18380143
23	0xbe850b9c	-0.2598542
24	0x3dd4b282	0.1038561
25	0xbd6398e1	-0.05556572
26	0xbe3f7269	-0.18695988
27	0x3f012560	0.50447655
28	0xbd9c4ee6	-0.07632236
29	0xbd9ea3f9	-0.07746119
30	0x3dbe40eb	0.09289726
31	0xbe7339bf	-0.23752497
32	0x3e9b62a5	0.30348697
33	0x3e5a211c	0.21301693
34	0xbe4a71be	-0.19769952
35	0xbd040410	-0.032230437
36	0xbd84e7f9	-0.06489558
37	0x3db1d3b3	0.086829565
38	0x3e723279	0.23652066
39	0x3e42c747	0.19021331
40	0x3f1ae82b	0.6051051
41	0xbeae3410	-0.34024096
42	0x3f859703	1.043671
43	0x3ea7b675	0.3275639
44	0xbe81656f	-0.252727
45	0x3e4e2394	0.2013076
46	0xbef4eb7e	-0.47835916
47	0xbe3dc359	-0.1853155
48	0xbe6763c9	-0.22596659
49	0xbe84717c	-0.25867832
50	0xbf1712c6	-0.5901302
51	0x3e895996	0.2682616
52	0x3cdb083d	0.026737327
53	0x3d8d08d7	0.06886452
54	0x3da3b564	0.07993582
55	0xbd0d0d7e	-0.034436695
56	0xbe698796	-0.22805628
57	0xbe953dab	-0.2914861
58	0xbe2977ce	-0.16549608
59	0xbe806739	-0.25078753
60	0xbf0a6f5c	-0.5407617
61	0x3d6c8797	0.057746496
62	0xbf8c32b7	-1.0952977
63	0xbdb8dd66	-0.090266034
64	0x3dffc871	0.12489403
65	0xbe6b2f1e	-0.22967193
66	0x3eb7b6aa	0.3588155
67	0x3e55904f	0.2085583
68	0xbd3cf7c8	-0.04613474
69	0x3d8165f9	0.06318278
70	0x3e4b449f	0.19850396
71	0x3dc2c1a4	0.0950959
72	0x3f17d888	0.59314775
73	0x3e1492a4	0.14509064
74	0xbeb325e9	-0.3498986
75	0xbd9f3726	-0.077741906
76	0xbe1796be	-0.14803597
77	0xbdd51df2	-0.10406102
78	0x3d50000f	0.050781306
79	0x3e2a9f8b	0.16662423
80	0x3ec297f8	0.38006568
81	0xbe588e4f	-0.21148036
82	0x3d3ad75a	0.04561553
83	0x3ec7378f	0.38909575
84	0xbdfc25ce	-0.12311898
85	0xbdded59c	-0.108805865
86	0xbeba6f96	-0.36413258
87	0x3f019255	0.5061391
88	0x3e68a674	0.22719747
89	0x3e28633c	0.16444105
90	0xbe6cf85b	-0.23141615
91	0xbe0bfb93	-0.13670187
92	0xbeef2b05	-0.4671251
93	0xbe4867fb	-0.19570915
94	0x3d9d4fcd	0.076812364
95	0x3e9108a8	0.28326917
96	0xbe48e3c9	-0.19618143
97	0xbecb9215	-0.3975989
98	0x3d7d52c2	0.061846502
99	0xbee51b77	-0.44747517

_neural_net._model.model.2.bias f4 [10]
0	0xbd1d9af1	-0.03847784
1	0xbe534564	-0.20631939
2	0xbdb02073	-0.08599939
3	0x3edea020	0.4348154
4	0x3e28500f	0.1643679
5	0xbed7020a	-0.41993743
6	0x3dc57417	0.09641283
7	0x3d1a2821	0.037635926
8	0x3ee8fa31	0.4550338
9	0xbe2d17a6	-0.16903552

_neural_net._model.model.4.weight f4 [1, 10]
0	0x3eb0e816	0.34552068
1	0xbef022bd	-0.46901503
2	0x3e81d9ea	0.25361568
3	0x3f178b42	0.59196866
4	0x3f5cef92	0.86303055
5	0xbef59a2f	-0.47969195
6	0xbecee61f	-0.40409943
7	0x3f354f8f	0.7082452
8	0x3f6a89fa	0.91616786
9	0xbee6afa2	-0.45055872

exp_avg f4 [10, 1]
0	0xbae918d2	-0.0017783886
1	0x39b47894	0.00034422113
2	0xb9f6c107	-0.00047064593
3	0x39353952	0.00017282859
4	0x3a02781b	0.00049770036
5	0x3a57e6dd	0.00082360004
6	0x3ad99070	0.0016598832
7	0xba84bc82	-0.001012698
8	0x39ef78c1	0.000456756
9	0xba1481e5	-0.0005665108

exp_avg_sq f4 [10, 1]
0	0x397c325f	0.00024051357
1	0x3797aca5	1.8080997e-05
2	0x391f1504	0.0001517125
3	0x39063c97	0.00012801807
4	0x38a10a54	7.679002e-05
5	0x37657819	1.3677426e-05
6	0x39527700	0.00020071492
7	0x3716f44c	8.9975765e-06
8	0x3898818b	7.272054e-05
9	0x385c0fd5	5.2466832e-05

exp_avg f4 [10]
0	0x3b044bbf	0.002018675
1	0xba973c41	-0.0011538343
2	0x3c0c2138	0.008552842
3	0xb90b0c84	-0.00013260735
4	0xba00309c	-0.0004890056
5	0x3a36c94e	0.0006972746
6	0xbb0ed2e0	-0.0021793172
7	0xba7f2b3c	-0.00097339205
8	0xb965d6bc	-0.00021919137
9	0xb9ed42d7	-0.00045253962

exp_avg_sq f4 [10]
0	0x3a006d28	0.0004899078
1	0x3a014e17	0.0004932596
2	0x3b12be70	0.0022391342
3	0x38d1a445	9.996494e-05
4	0x37f22c11	2.8869168e-05
5	0x388f4eb4	6.833431e-05
6	0x394732a3	0.00018996983
7	0x3876d45d	5.884875e-05
8	0x3839ffb4	4.434558e-05
9	0x3860b4d2	5.3574164e-05

exp_avg f4 [10, 10]
0	0xb9636b35	-0.00021688345
1	0x39754248	0.00023389712
2	0xb99d8c60	-0.0003004996
3	0x3a15603d	0.00056982395
4	0x3849ed68	4.8143236e-05
5	0x3980acfa	0.0002454294
6	0x399a40a0	0.00029421318
7	0xb8ab2e25	-8.1625105e-05
8	0x38c92f0f	9.593192e-05
9	0xb791e313	-1.7391087e-05
10	0x39d45534	0.00040499272
11	0xb9e724b7	-0.00044087108
12	0x38b1d0e7	8.478929e-05
13	0xbaa1ca69	-0.0012343648
14	0xb9b5a96a	-0.00034649234
15	0xba3235d7	-0.0006798184
16	0xb90fd45b	-0.00013716651
17	0x39c0b19f	0.00036753432
18	0x390f6819	0.00013676322
19	0x39a46371	0.00031354607
20	0xb930eaf2	-0.00016872192
21	0x3942c298	0.00018573774
22	0x3a033602	0.0005005301
23	0x3a236ed5	0.0006234472
24	0x39ffe938	0.00048811152
25	0x3a0ee4da	0.00054509717
26	0xb9d55714	-0.00040691404
27	0xb9e6ac30	-0.00043997308
28	0xb9f4c1b7	-0.00046683635
29	0xba056d44	-0.0005089829
30	0xb9ab9489	-0.0003272633
31	0x39bac2e9	0.00035621904
32	0x39906643	0.0002754201
33	0x3a8a88c4	0.0010569324
34	0x3a039db4	0.0005020753
35	0x3a3c0340	0.0007172115
36	0xb93a0345	-0.0001773956
37	0xb9fd040b	-0.00048258933
38	0xb9c12fda	-0.0003684748
39	0xba027039	-0.0004975829
40	0xba562a0a	-0.00081697165
41	0x3a4eca99	0.0007888466
42	0xbbb876ab	-0.0056293807
43	0xba830c99	-0.0009998261
44	0xbaa2e7ec	-0.0012428737
45	0xba76898b	-0.0009404651
46	0x3ba55aed	0.0050462396
47	0x3a6e767d	0.00090966356
48	0x3b1cc402	0.002392054
49	0x3abfd716	0.0014636244
50	0x397a1ab0	0.000238518
51	0xb986732b	-0.00025644279
52	0x39925747	0.00027912317
53	0xba145e7a	-0.000565983
54	0xb912f59f	-0.00014015146
55	0xb9a18f51	-0.00030815092
56	0xb98c3405	-0.00026741638
57	0x3928e1c0	0.00016105827
58	0xb6a36bdd	-4.8703355e-06
59	0x38f52833	0.00011689998
60	0x39b6b58a	0.00034849002
61	0xb9aff72e	-0.00033562764
62	0x3b199bdb	0.0023438844
63	0x39ea24ab	0.00044659278
64	0x39f7ccb1	0.00047264018
65	0x39c12a40	0.00036843307
66	0xbb09dd83	-0.0021036572
67	0xb9b279d6	-0.0003404158
68	0xba7ac625	-0.0009566269
69	0xba12ec5e	-0.00056046795
70	0xb8de814e	-0.0001060987
71	0x38d81de8	0.00010305253
72	0x39d1c0ff	0.0004000738
73	0x3a11766f	0.0005548959
74	0x392af2ec	0.00016302959
75	0x39ac5dd1	0.00032876295
76	0xb9239955	-0.00015602012
77	0xb92e2558	-0.00016607845
78	0xb83dfec9	-4.52984e-05
79	0xb91ee854	-0.00015154603
80	0xb9b1867d	-0.00033860272
81	0x39c3af87	0.00037324076
82	0x3a172186	0.0005765188
83	0x3aac831e	0.0013161635
84	0x3a1a6d00	0.0005890876
85	0x3a6095f1	0.0008567265
86	0xb9dce717	-0.00042133845
87	0xba12dedb	-0.0005602666
88	0xb9faf303	-0.00047864774
89	0xba1a1a25	-0.00058785296
90	0x3993c485	0.00028184443
91	0xb9a0c6ec	-0.00030665786
92	0xb90e7df2	-0.00013589094
93	0xba69e44e	-0.00089222647
94	0xb9c03c5f	-0.00036666074
95	0xba14ec16	-0.00056809315
96	0x388c0567	6.6767265e-05
97	0x39bd1f78	0.00036072335
98	0x397bf572	0.00024028661
99	0x39bac0bf	0.00035620292

exp_avg_sq f4 [10, 10]
0	0x36d17b1a	6.2430163e-06
1	0x37924715	1.7437656e-05
2	0x374c4604	1.2175649e-05
3	0x381d915f	3.7567104e-05
4	0x38c2ac20	9.282702e-05
5	0x386bcb8c	5.6217934e-05
6	0x3825dbf8	3.9543927e-05
7	0x37c2d417	2.3225364e-05
8	0x389ba94f	7.422512e-05
9	0x3885573a	6.3581814e-05
10	0x37a108fe	1.9196883e-05
11	0x38805043	6.1184655e-05
12	0x3804f285	3.1697116e-05
13	0x39284852	0.0001604867
14	0x39c64f78	0.00037824712
15	0x3973b754	0.00023242581
16	0x393d1073	0.00018030572
17	0x38b495c1	8.610963e-05
18	0x39a8aee0	0.0003217375
19	0x3981356a	0.00024644594
20	0x37e1b461	2.6906086e-05
21	0x3889853d	6.5574866e-05
22	0x388b601b	6.6459375e-05
23	0x39116ed0	0.00013869558
24	0x39a8626e	0.00032116793
25	0x394c37a8	0.0001947569
26	0x3930e294	0.00016869075
27	0x38aeb405	8.330498e-05
28	0x398c3400	0.00026741624
29	0x395e6219	0.00021208114
30	0x37d5cab6	2.5485973e-05
31	0x387cb57b	6.02505e-05
32	0x385720a8	5.1290408e-05
33	0x3908b815	0.00013038547
34	0x39898cf3	0.00026235692
35	0x392e4a28	0.00016621558
36	0x38e0e954	0.00010724613
37	0x389bc083	7.426834e-05
38	0x394503e3	0.00018788832
39	0x3940598d	0.00018343907
40	0x383ca547	4.497662e-05
41	0x38f85649	0.000118416334
42	0x39da37bf	0.00041621734
43	0x39937496	0.00028124888
44	0x3a1b6376	0.00059276016
45	0x39cd9c20	0.0003921697
46	0x3a12ead3	0.00056044495
47	0x3913466e	0.0001404525
48	0x3a0d6f88	0.00053953426
49	0x39caca73	0.0003867928
50	0x385f3e5a	5.3225413e-05
51	0x3914e4f0	0.00014199666
52	0x38c6c05c	9.4772055e-05
53	0x3996e230	0.00028778752
54	0x3a2eff0a	0.0006675577
55	0x39de4289	0.00042392712
56	0x398a3a71	0.00026364953
57	0x3936d636	0.00017436672
58	0x39f8026c	0.0004730405
59	0x39ee1455	0.00045410046
60	0x36a4e9ec	4.914813e-06
61	0x3757889d	1.2846806e-05
62	0x382b23d0	4.080293e-05
63	0x381ffd9c	3.8144746e-05
64	0x389994e6	7.323343e-05
65	0x38382a8d	4.3908647e-05
66	0x388518f1	6.34658e-05
67	0x379253a3	1.7443503e-05
68	0x388d4806	6.736819e-05
69	0x3845f5ff	4.719756e-05
70	0x38127fd0	3.4928147e-05
71	0x38be2d88	9.068387e-05
72	0x38b0bcd2	8.4275045e-05
73	0x397acf40	0.00023919065
74	0x39ee44f4	0.00045446272
75	0x39955034	0.0002847925
76	0x39741427	0.0002327716
77	0x38f4c105	0.00011670779
78	0x39c256bf	0.00037067194
79	0x399e2191	0.00030161117
80	0x376bf316	1.4063689e-05
81	0x37fe2790	3.0297582e-05
82	0x38155dcf	3.5611734e-05
83	0x38e79223	0.000110421584
84	0x390489f8	0.00012639898
85	0x38b2ee8c	8.532134e-05
86	0x386ed55e	5.6942336e-05
87	0x3828a7fe	4.0210776e-05
88	0x38c5382e	9.404156e-05
89	0x38c4a2e2	9.3763476e-05
90	0x374e9778	1.2313823e-05
91	0x3817b9e2	3.6174322e-05
92	0x37bfd322	2.286729e-05
93	0x38bc1cc4	8.9698966e-05
94	0x39576e26	0.00020545031
95	0x3905148b	0.00012691521
96	0x38c46b06	9.365943e-05
97	0x384f4435	4.941617e-05
98	0x392e6897	0.00016632896
99	0x390f9cdb	0.00013695976

exp_avg f4 [10]
0	0x3807e7df	3.2402455e-05
1	0x39a9d330	0.0003239154
2	0xba2b024a	-0.00065234734
3	0xba1be56e	-0.00059469684
4	0x3b117f86	0.0022201254
5	0x38d00a94	9.920183e-05
6	0xba616564	-0.0008598177
7	0xb929c256	-0.00016189492
8	0xba3b2060	-0.0007138308
9	0x39d8c350	0.0004134425

exp_avg_sq f4 [10]
0	0x395a92dd	0.00020844811
1	0x3a6081a4	0.000856424
2	0x3a3c6eec	0.00071881595
3	0x3a11ea49	0.0005566222
4	0x3aa9624b	0.001292297
5	0x3ab98374	0.0014153556
6	0x39337ef5	0.00017118065
7	0x3a85dee5	0.0010213522
8	0x39957f9f	0.0002851458
9	0x39f10a31	0.00045974695

exp_avg f4 [1, 10]
0	0xbb30bc2c	-0.0026967628
1	0x3b1fff01	0.0024413469
2	0xbafeb463	-0.0019432422
3	0xbaf0946d	-0.0018354781
4	0xbba8772f	-0.005141161
5	0x3b1fcc88	0.0024383385
6	0x3b847ef0	0.0040434524
7	0xba95f0c0	-0.0011439547
8	0xbb03d662	-0.0020116796
9	0x3aff6a2a	0.0019486595

exp_avg_sq f4 [1, 10]
0	0x3b01b132	0.0019789455
1	0x3b0ccb29	0.0021483398
2	0x3b6297b0	0.0034575276
3	0x3a4e6bc5	0.0007874335
4	0x3aa5eee8	0.0012659701
5	0x3bb1423d	0.0054095075
6	0x3a80c2c4	0.000982367
7	0x39d2b8cb	0.00040192003
8	0x3a0cda77	0.000537313
9	0x3ad35c41	0.0016125516
