tutorials/tutorial7/tmp_poisson_inverse/lightning_logs/version_10/checkpoints/epoch=98-step=198.ckpt (torch, 54448 bytes, 21 tensors)

_neural_net._model.model.0.weight f4 [40, 2]
000000 36 d1 09 bf a7 43 7b 3e d5 8a ac be 01 ee 9c be
       -0.53834856 0.24537526 -0.3369967 -0.30650333
000010 ca de 87 3d 28 8f 06 bf 6b ea 80 be 3a 96 93 3e
       0.066342905 -0.5256219 -0.25178847 0.2882555
000020 16 b0 20 3f 5e dd a7 be fb e0 35 3f f7 ff 0f 3f
       0.62768686 -0.32786077 0.7104642 0.56249946
000030 1c 21 5c 3e 3f f4 c9 be a8 c3 19 bf c9 6b bb 3e
       0.21497005 -0.39444157 -0.6006417 0.3660567
000040 d9 f7 6e be 82 15 2c 3f 8b e0 ce be cb ec 62 be
       -0.23336734 0.6722032 -0.40405688 -0.22160642
000050 10 58 2f 3f 19 01 26 3f 3f 09 4e 3d 9d a4 31 3f
       0.6849375 0.64845425 0.050301787 0.69391805
000060 c5 17 05 bf f1 f5 24 3f 9c e4 6c 3e e1 14 f5 3e
       -0.51989394 0.64437777 0.23134083 0.47867492
000070 1d 87 f7 3c 1f 88 1c 3f da 1f b7 3d 91 2e 3d 3f
       0.030215794 0.61145204 0.08941622 0.7389918
000080 91 a5 b7 3c 3f a7 09 be 8c 05 f9 bc 15 1b 32 bf
       0.022417815 -0.13442706 -0.030398153 -0.69572574
000090 13 9f 3a bf f2 f9 b7 be f0 ac 6d 3d 53 53 aa 3e
       -0.7289898 -0.3593288 0.058026254 0.33266696
0000a0 d7 3e 2c 3f cb 4b 1d 3f f4 7a 15 3f ea 07 3f bf
       0.67283386 0.61443776 0.58390737 -0.7462145
0000b0 9d e3 86 be 38 c2 38 3f ca 1e bb be d6 1e 40 3f
       -0.2634553 0.72171354 -0.36546928 0.7504705
0000c0 ac a3 f3 bd aa 8a 0d be ca 13 d1 3e f0 2a a5 3e
       -0.11896452 -0.13822427 0.4083541 0.3225932
0000d0 f3 7a 2a bf 9d d1 1d 3f 2d 79 8f 3d 9a 4f 0a 3f
       -0.66593856 0.6164797 0.07005534 0.5402771
0000e0 f7 29 43 bf 47 b2 2b bf 5d 92 e3 be 3b c0 df 3d
       -0.7623591 -0.67068905 -0.44447604 0.10925337
0000f0 78 bd c5 be 62 47 d7 3e 22 05 14 3e a9 80 37 bf
       -0.38621116 0.42046648 0.14455083 -0.71680695
000100 1d 6c 22 3f 05 81 fc 3e d0 f3 0b 3f c9 a4 3d bf
       0.6344622 0.49317184 0.54668903 -0.7407957
000110 a7 a4 38 bf 12 f2 56 bf 37 db ab 3e 7a 2f 0b bf
       -0.7212624 -0.8396312 0.33565685 -0.5436932
000120 c3 ee 42 3e bc 33 e7 be 26 9c 2e 3d e6 62 41 be
       0.19036393 -0.45156658 0.042629384 -0.18885383
000130 c1 ba 32 3f 4d 8d ad bd 15 0b b1 3e 08 be e0 be
       0.69816214 -0.084742166 0.34578767 -0.43894982

_neural_net._model.model.0.bias f4 [40]
000000 19 cc bf be 9d cf 1b 3f e1 e8 25 3f 6c 75 54 3e
       -0.37460402 0.6086367 0.6480847 0.20747918
000010 4b 5e f1 be 54 88 1d be 7e 13 f4 be 08 47 e8 be
       -0.47142252 -0.15384036 -0.4767112 -0.45366693
000020 bd e6 5e be cf dd 2a 3d 2e f2 e7 bd 02 8a 12 be
       -0.21767707 0.04171544 -0.11325489 -0.14310458
000030 d5 4c 23 3f d0 9e b0 3e 64 84 29 be 23 48 32 3f
       0.6378911 0.34496164 -0.1655441 0.6964132
000040 e0 71 89 be 7c e6 27 3c a9 54 20 3f ff 5c ce be
       -0.26844692 0.010247823 0.6262918 -0.40305325
000050 42 5a a6 be ca 3d c5 be 5f 7d e1 3e 5a f2 29 3f
       -0.32490736 -0.38523704 0.44040963 0.66385424
000060 6d 4b a8 be 7f 02 e2 be 21 98 63 bd d2 dc 15 bf
       -0.32870045 -0.4414253 -0.055565003 -0.5854007
000070 50 4c 14 bd 5e 8f 23 3f 57 e0 2a 3d 9c 3f 86 3e
       -0.03620559 0.63890636 0.041717853 0.26220405
000080 01 f8 ac 3e 72 74 6f be 7b 19 be 3e 0a 24 d3 be
       0.33782962 -0.23384264 0.37128815 -0.41238433
000090 35 d2 3e 3d 05 c1 fc 3d f8 1a 99 bc 4d 10 fe 3d
       0.046587188 0.12341503 -0.018689618 0.12405453

_neural_net._model.model.2.weight f4 [40, 40]
000000 06 96 b3 3b df 6f 8d bd 14 8f 09 3e 36 be 11 3d
       0.0054805307 -0.06906103 0.13433486 0.03558179
000010 66 6a 1e be 2e d5 19 be a7 5e 10 bc ab 8e fc bd
       -0.15470275 -0.15022728 -0.008811629 -0.12331899
000020 75 e2 3b bd 59 42 fd 3d e4 ff 12 3e 45 fe f1 bc
       -0.045870263 0.123661704 0.14355427 -0.02954019
000030 dc 9f e0 bd 20 ba 00 be 84 38 f2 bd 5c 4f b5 bd
       -0.10967991 -0.12571001 -0.11827186 -0.08853027
000040 df 2b 12 be 8f d8 07 3e 15 03 91 3d 9a 09 05 3e
       -0.14274548 0.13266204 0.07080666 0.12991944
000050 19 bd 2d bd 42 ed ef bd a5 2a e9 bd 7b 98 10 bb
       -0.042416666 -0.11715175 -0.11385087 -0.0022063542
000060 a3 52 4a bd ec 08 90 bd 1e db 21 3d ca 12 67 3d
       -0.049395215 -0.07032952 0.039515607 0.056414403
000070 63 c5 a9 bd fa 1b 00 be 5e aa de 3d 90 81 66 3c
       -0.08289602 -0.12510672 0.10872339 0.014068976
000080 76 82 39 3d ea d6 51 3d 04 63 06 be 3f 1c 48 bd
       0.045290433 0.05123035 -0.13123709 -0.048855063
000090 7b 36 7c 3b 54 e3 09 be f8 e1 46 3d 32 2c 24 be
       0.0038484621 -0.13465625 0.048555344 -0.16032484
0000a0 c8 8c f4 3d 77 5c 88 3d 02 f9 c7 bd 2a d1 5a bc
       0.119409144 0.06658261 -0.09764291 -0.013355533
0000b0 e9 ee f6 3d de 0f 02 3e 8a 89 44 3d 00 e0 20 3c
       0.12057287 0.12701365 0.04798273 0.009819031
0000c0 56 a5 7a 3d 0c 91 9d 3d 6f ea 03 3e 2b 75 82 bd
       0.061192833 0.07693681 0.12882398 -0.06370004
0000d0 bd 91 ca 3d ce e8 4e bd 0f 86 1a be 8f b6 d9 bd
       0.098910786 -0.05051499 -0.15090202 -0.106305234
0000e0 fc 68 15 be b1 01 c5 bd 8c a4 fa 3c fa b8 aa bd
       -0.1459083 -0.09619463 0.03059604 -0.08336063
0000f0 4b 20 9d 3c 65 0e 19 bc bd a7 95 bd c6 24 ef bd
       0.019180438 -0.009341811 -0.07307384 -0.11676936
000100 9e 3a 01 3c bd 1a fe 3d 4e d1 00 be 43 4a f3 bd
       0.007887511 0.12407444 -0.12579843 -0.11879399
000110 16 03 bd 3d 1d c9 8e bd 10 3a a5 bc 68 18 d5 bd
       0.09229104 -0.06971953 -0.020169288 -0.10405046
000120 b6 af 14 be 05 d7 fd 3d d4 66 b4 bd f5 60 1f be
       -0.14520153 0.12394527 -0.088086754 -0.1556433
000130 22 34 aa 3d 5d b5 e6 bd 32 fd ad bd b4 89 28 be
       0.08310725 -0.11265061 -0.08495559 -0.1645878
000140 c9 54 88 3c 10 65 4e 3d 47 d6 85 3d 18 38 03 bc
       0.016641991 0.05038935 0.06535011 -0.008008979
000150 e4 a8 f1 bd 39 93 da bd 6d 78 b6 39 75 6e f8 3d
       -0.117997915 -0.10672612 0.0003480347 0.12130443
000160 ad 0b 03 be 44 63 bf 3c db 9b db 3d 17 68 e1 3d
       -0.12797423 0.023362763 0.107230864 0.11006182
000170 f0 b1 62 3c a7 2c 40 3c 67 28 8b 3d 8f f8 d8 3d
       0.013836369 0.011729396 0.067948155 0.10594284
000180 2b 32 17 be 67 4d e3 3d b8 1a ca 3d da 71 b5 3d
       -0.14765231 0.11098748 0.098683774 0.08859606
000190 05 c5 d0 bd 14 ad 77 bd 4e 49 24 bc 78 04 c9 3c
       -0.101938285 -0.060467795 -0.010027243 0.024538264
0001a0 9f 9d 5b bd f5 0c 98 bc b4 26 9a bd 6d c0 ae bc
       -0.053617116 -0.018560866 -0.07526913 -0.02133199
0001b0 5f 0a a4 3d 03 22 12 3e 44 f1 85 3d 5f eb 82 3d
       0.08009791 0.14270787 0.065401584 0.0639255
0001c0 9c 7a aa bd 77 50 8d bd 84 8a 2b be 69 e8 a9 bd
       -0.08324167 -0.06900113 -0.16752058 -0.08296282
0001d0 68 5c b9 bd 46 4f 18 be d6 93 f5 bc e8 87 19 be
       -0.09050828 -0.1487399 -0.02997772 -0.1499325
0001e0 a6 e6 9b 3c a3 c2 58 3d 6c cd 0a 3c 1e 7c 14 bd
       0.01903088 0.052919995 0.008471828 -0.03625118
0001f0 8e d0 81 3b 5f 10 6d bd 8e bf ad bc 1a ac ab 3d
       0.0039616292 -0.05787694 -0.021209504 0.08382435
000200 7e 0c a6 3d 1a 3d d3 3d 05 4c 89 3d d1 4a a4 bd
       0.081078514 0.103143886 0.06703953 -0.080220826
000210 fc 7a 7a 3d 2b 3c ce bd 6b 48 1a 3e ce 59 01 3e
       0.061152443 -0.1007007 0.15066688 0.12631914
000220 66 7a cc bd c1 98 b2 3d b6 ad 14 be b3 89 b6 3d
       -0.09984283 0.08720542 -0.1451939 0.08912983
000230 54 78 c5 3d cf 1a 81 bd b5 c8 64 bc a1 ea ac bd
       0.096420914 -0.063039415 -0.013963868 -0.084431894
000240 6c 16 1b 3e 15 17 7e bd be e9 8b bd 2e eb 07 be
       0.15145272 -0.06203373 -0.06831692 -0.13273308
000250 b0 b4 23 3d a4 2a 4b bd 79 74 f8 3d 4f 78 1f 3d
       0.03996724 -0.049601212 0.121315904 0.038933095
000260 9a 44 1e 3e bb 23 e9 bd 43 01 15 3c 17 26 ef 3c
       0.15455857 -0.11383768 0.009094539 0.029192967
000270 af d7 a6 3d d3 5b af bd e3 41 c1 3d 65 dc 19 be
       0.08146607 -0.08562436 0.09436395 -0.1502548
000280 27 e6 e3 bd 3a 1f f2 3d 14 24 cf 3d ee fa 22 be
       -0.111278825 0.11822362 0.10114303 -0.15916035
000290 3e 47 00 be 87 17 54 3c 81 3d 02 be 01 e7 11 3e
       -0.12527177 0.0129450625 -0.12718774 0.14248277
0002a0 09 cc 08 bc 66 01 b9 bd 8d ca 90 bd 19 02 a7 bd
       -0.008349427 -0.0903347 -0.070698835 -0.08154697
0002b0 ae 36 79 bc d7 ab b0 bd df 2b f0 bd a0 03 02 bd
       -0.015210791 -0.08626526 -0.11727118 -0.03174174
0002c0 b1 a8 ef bd bd 2c 1c be 1f 92 eb 3d ee 8c 0d be
       -0.11702097 -0.15251441 0.1150248 -0.13823292
0002d0 37 26 01 bd 93 66 a0 bd ef 2b d3 3d 2b a1 3f bd
       -0.031530585 -0.078320645 0.10311114 -0.04678456
0002e0 cb 46 c2 3d 62 56 b0 bc c2 b7 eb bd 4b 6c b0 bd
       0.09486159 -0.021525566 -0.115096584 -0.08614405
0002f0 99 4a 14 3e 7e 0b af 3d c2 ea 9e bd 1f 72 86 bd
       0.14481582 0.08547114 -0.0775962 -0.065647356
000300 f0 59 f1 3d 51 2e 12 3d ee 67 1f bd 4f 89 9f bd
       0.11784732 0.035688702 -0.038917474 -0.077898614
000310 cb 5b 8e 3d 0d c5 6e 3d 4c e9 6b bd 29 dd a7 3d
       0.06951102 0.05829339 -0.057595536 0.0819648
000320 c8 a2 05 be ba 2e f9 3c 19 04 f6 bd 00 42 48 3c
       -0.13050377 0.030417789 -0.120125 0.012222767
000330 37 38 16 3e 41 88 16 3e e2 be 62 bd 11 c6 10 3e
       0.14669882 0.14700414 -0.05535782 0.14138056
000340 c2 a9 b0 3d 5a 6d 69 3c fa a6 f2 3d c2 74 fb bd
       0.08626129 0.014247263 0.118482545 -0.12278129
000350 08 ec 1e 3d 30 26 b4 bd 65 45 6e 3d 66 74 0a be
       0.038799316 -0.08796346 0.05817165 -0.13520965
000360 5a e4 17 be 2e 0d 35 3d 2c dd 19 3e 81 f9 a4 bd
       -0.14833203 0.044202022 0.15025777 -0.080554016
000370 12 70 ce bd fe 4e b5 3d 4a 2c 14 3e 45 e9 bc bd
       -0.100799695 0.08852957 0.1447002 -0.0922418
000380 41 71 23 be 76 0d a4 3c 2a ab a6 bd 8c 0d 7f bd
       -0.15961172 0.02002595 -0.08138116 -0.06226878
000390 da e5 f6 bd 43 42 0e be 57 7d 01 3d 1d 47 8a 3d
       -0.120555595 -0.13892464 0.031613674 0.06751845
0003a0 e5 b6 ed bb 61 8b 5d bd e8 9e fb bd 6e 67 cd bd
       -0.0072544687 -0.054088 -0.12286168 -0.10029493
0003b0 e8 df fb bb c8 cc 9c bd a2 33 4a 3d 20 c2 61 3c
       -0.007686604 -0.076562464 0.049365647 0.013779193
0003c0 5e f3 14 3e d6 16 38 bd e8 2d 4b bd 81 b3 5c 3c
       0.14545962 -0.044943653 -0.049604326 0.013470531
0003d0 90 58 b4 bd 5b ba b8 3d 0c 6f 22 3e 75 9f 04 3c
       -0.088059545 0.090199195 0.15862674 0.008094658
0003e0 ce fb f2 bd ac a9 db bd 9c 1d 8f bd a7 17 56 bc
       -0.11864434 -0.10725722 -0.069880694 -0.013067163
0003f0 09 3c ed bd 5b 2b 20 3e f4 27 10 3e 70 1b 21 be
       -0.115837164 0.15641539 0.14077741 -0.15733123

_neural_net._model.model.2.bias f4 [40]
000000 52 c9 02 be 78 2d 6d 3d 24 39 d8 bd 24 85 92 bd
       -0.1277211 0.05790469 -0.10557774 -0.07154301
000010 cd 77 20 3d f7 bc 13 bd b5 48 99 bc fe 12 99 3c
       0.03917675 -0.036068883 -0.018711427 0.018685814
000020 68 79 95 bd d3 e0 20 3e d2 05 f0 bd 6d 4f 9d 3d
       -0.07298547 0.15710764 -0.1171986 0.07681165
000030 05 30 62 bd ef 25 c3 bd 71 a7 c4 bd 65 40 ec bd
       -0.055221576 -0.0952872 -0.096022494 -0.1153572
000040 38 8a c8 3d 13 c8 e5 bd 51 8f 19 be b3 a1 9e 3c
       0.09791988 -0.11219802 -0.14996077 0.019364214
000050 ec 33 b5 3d 39 b4 e3 bd 7d c8 d5 bc 3f cf 6f 3d
       0.08847794 -0.11118359 -0.026096577 0.058547255
000060 99 1b 17 3e 78 f0 d0 bd 6f 31 c5 bd 20 46 ba 3c
       0.14756621 -0.10202116 -0.09628569 0.022738516
000070 98 02 e6 b6 f8 21 18 bc bc d6 b4 b9 b1 73 b1 3d
       -6.854836e-06 -0.0092854425 -0.00034492265 0.086646445
000080 83 4c 1d 3d c9 26 b1 3d eb b2 1b 3e b7 02 e1 3c
       0.038403045 0.08649976 0.1520497 0.027467115
000090 64 3f 4e bd bb 74 ac bb bb fc a1 bd 6c e5 0a 3e
       -0.050353423 -0.005262939 -0.07909533 0.1356408

_neural_net._model.model.4.weight f4 [40, 40]
000000 e9 0e 55 bb bb 24 dd 3d bd 5d 13 be 8e 75 0e 3e
       -0.0032510108 0.107980214 -0.14391227 0.13912031
000010 8f 37 1a 3d c0 a7 00 3e cf 99 ba 3c e9 f8 08 3e
       0.03765064 0.12563992 0.02277842 0.13376202
000020 44 6b 3c 3d 89 fc 21 3c 5a 4b ca 3d 4c 1e ad 3c
       0.046000734 0.009886869 0.098776534 0.02113261
000030 ae 1f f1 bd b0 34 39 bc 94 43 aa 3d 23 43 dc bd
       -0.117736205 -0.011304066 0.08313671 -0.10754993
000040 9f 63 99 3d ed 42 18 bd 02 a1 d2 bd 5d 66 00 bc
       0.07489704 -0.0371732 -0.10284616 -0.007836905
000050 57 e8 53 3d c9 de 1e be b8 fb b2 b9 15 3c b1 3c
       0.05173525 -0.15514673 -0.0003413835 0.021635095
000060 2a 5e 90 bc c9 27 a5 3d e0 7a 80 bd 84 ec 64 bd
       -0.017623026 0.08064229 -0.062734365 -0.05588962
000070 76 e1 c9 bd d1 38 be bd 5e 6a 0b be 76 11 01 bb
       -0.098574564 -0.092881806 -0.13614795 -0.0019694245
000080 fb dc f4 3a ba 87 12 be c9 d2 6b 3b e6 f7 81 3d
       0.001868158 -0.14309588 0.0035983792 0.06346111
000090 7e bb 44 bc 4e b7 e4 bd 30 c7 3c bc 0f 67 6c 3d
       -0.012007592 -0.11167775 -0.011522099 0.05771547
0000a0 c9 26 f2 3d 5b e5 fc bd 87 1a 20 bc aa 37 aa 3d
       0.11823804 -0.123484336 -0.00977195 0.08311398
0000b0 5e af 35 3a 22 38 1a 3e 68 d5 83 bd a6 04 ce bc
       0.0006930734 0.15060475 -0.064371884 -0.0251487
0000c0 43 15 80 bd 92 2b 05 3e c1 df 77 ba 94 e7 e0 3d
       -0.06254055 0.13004902 -0.0009455644 0.1098167
0000d0 04 1b 18 be b0 c4 f1 bd f2 c1 8e 3c 4a d3 49 bb
       -0.14854056 -0.11805093 0.017426465 -0.0030796104
0000e0 78 07 00 3e 54 ff c8 3c bd 48 1d 3e 21 01 81 bd
       0.12502849 0.024535812 0.15359779 -0.062990434
0000f0 9f 29 ec bd 52 37 13 bd f3 a8 6d 3d ae 23 23 3e
       -0.11531376 -0.03594143 0.05802245 0.1593158
000100 f4 fc 26 3d cb fb 43 3d ab 0f 1f be 31 f4 46 bd
       0.04076858 0.04784755 -0.1553332 -0.048572723
000110 88 19 9b bd 3a 49 f8 bd 89 a6 0b 3e dd 64 24 be
       -0.07573229 -0.12123342 0.13637747 -0.16054101
000120 b1 6f 83 bc d1 e7 c2 3d 10 b3 f0 bc 9f 8d 1d be
       -0.01604447 0.09516872 -0.029382259 -0.15386055
000130 2c 4d 63 bd d4 4e b7 bd 2d 4b 4c bd 9a ec 18 be
       -0.05549352 -0.08950582 -0.04987638 -0.14934006
000140 bf f0 b6 bd 7d 94 05 be b2 e2 c1 bd c4 8c 4d 3d
       -0.089326374 -0.13044925 -0.09467067 0.050183073
000150 8a 84 fb 3d 72 9c c0 3d ef 60 0e 3d a5 3a 04 3d
       0.12281139 0.094048396 0.03476041 0.03228249
000160 94 31 81 3b e6 00 b3 3d 3e 16 18 be a9 4e a8 3d
       0.0039426778 0.08740406 -0.14852235 0.08218128
000170 3c 1b 1d 3e 54 2b a3 3b 55 cf d6 bd b4 48 16 3e
       0.1534242 0.0049795303 -0.10488764 0.14676172
000180 32 d2 f3 bd 66 25 f6 bd 9b 04 07 bd 90 e7 04 be
       -0.11905326 -0.12018852 -0.032963376 -0.12978959
000190 17 0f 19 3d 72 b4 14 3e f4 a9 0d be fe a8 6b bd
       0.037367906 0.1452196 -0.13834363 -0.05753421
0001a0 26 2a 88 3d e8 44 60 ba ff d8 13 3e 30 0d 0c be
       0.06648664 -0.00085551897 0.14438246 -0.13676906
0001b0 71 cc 85 3d 78 e0 0d 3e b4 89 8e bd 1c da d5 3d
       0.06533135 0.1385516 -0.069598585 0.10441992
0001c0 bc 4a 30 3c f4 c7 0d bd 8f 77 1d 3e 83 9c 28 be
       0.010760006 -0.03461452 0.15377639 -0.16465954
0001d0 25 41 dc bd f5 40 18 3e 88 bb 0a bb 2e 00 1f 3d
       -0.10754613 0.14868529 -0.0021168906 0.03881853
0001e0 7c e7 07 be b8 7b ae bb bd 76 1f bb e7 92 11 3d
       -0.13271898 -0.005324807 -0.0024332248 0.035540488
0001f0 9e 84 84 bb 4c 9c 36 3d aa 76 05 3b 17 c8 13 3e
       -0.0040441295 0.04458265 0.0020364919 0.14431797
000200 16 2d e8 bd 82 38 1d 3e 20 cd bf bd ef 6e de bb
       -0.113367245 0.15353587 -0.09365296 -0.0067881267
000210 99 cc 13 be c0 41 0c 3e 2b b5 a4 bd cf 1f 12 3e
       -0.14433517 0.13696957 -0.080423675 0.14269947
000220 4d 30 c8 bd bd 4a ec 3d bc 04 04 be e4 0b cd 3d
       -0.09774838 0.11537693 -0.12892431 0.100120336
000230 3b 1b 8e bd e0 df d6 bd 5a 49 d8 3d 91 16 97 bc
       -0.069387875 -0.104919195 0.10560866 -0.018443378
000240 f5 69 d5 bd 74 b5 41 bd 0c 93 ad 3d 43 52 5b bc
       -0.104206 -0.047292188 0.084753126 -0.013386312
000250 bf 90 11 3e a0 f8 c9 bd 3b cf 26 bd 11 7d 8c bd
       0.14215373 -0.098618746 -0.040724974 -0.06859792
000260 8b 86 15 be 5d 28 ab bc 55 b1 f9 3d b6 34 4b bc
       -0.14602105 -0.02089327 0.121920265 -0.012402704
000270 f2 f0 f1 bb d1 f1 0d 3e 07 1e 31 3d 12 f7 03 3e
       -0.0073834592 0.13861777 0.043241527 0.12887219
000280 f5 12 35 bd fd 62 69 3b 4c d6 4c bc 6b cf 15 bc
       -0.044207532 0.003561198 -0.012502264 -0.009143691
000290 c2 c3 ae 3d 49 6c 0f 3e 38 63 92 bc 5b 2e ee bd
       0.085334316 0.14006151 -0.017869577 -0.11629935
0002a0 ed 99 13 bc b3 88 b8 3d 34 6b e2 3d f0 ee de 3b
       -0.009008867 0.09010448 0.110556036 0.006803386
0002b0 fa 4f 82 3d e8 f2 97 bd 6f 8b 05 be c9 56 7f bd
       0.063629106 -0.074193776 -0.13041471 -0.062338624
0002c0 23 ab 29 3d 38 9b f1 3d 1f 2f 01 3e c5 84 22 be
       0.041422974 0.11797184 0.12615632 -0.1587096
0002d0 70 58 47 bd cc e2 62 3d 72 17 0e 3d eb 4c 21 3e
       -0.048668325 0.05539207 0.034690328 0.15751998
0002e0 45 95 5a bd e2 dd e7 bd 19 c7 d8 bc f2 d0 e3 3d
       -0.05336501 -0.11321618 -0.026462125 0.111238375
0002f0 1f 79 fa 3d ba ee f1 bd 36 1f a6 bc 85 fd 3c bc
       0.12230133 -0.118131116 -0.020278554 -0.011535053
000300 5a 3c 89 3d a9 3a f6 3d 13 e7 c3 3d 91 38 fe 3d
       0.06700964 0.12022907 0.09565558 0.12413133
000310 56 db 0b be 2f 47 10 3d 70 0d aa bd b2 b7 90 3d
       -0.13657889 0.035224136 -0.08303344 0.07066287
000320 e1 df 69 bc df e3 fb 3d 9f 52 5a 3d 55 be 23 bd
       -0.014274568 0.12299322 0.05330145 -0.039976437
000330 2c 5c db 3d 6d 94 78 bd 0a da 1e 3e 63 33 16 3e
       0.1071094 -0.060688425 0.15512863 0.1466804
000340 d0 dd b0 3d ff 64 e5 bd 9a 4b 27 3d b3 0d 2b bd
       0.086360574 -0.11200904 0.040843584 -0.04176111
000350 2f 6f f1 3c 30 13 d7 3d 49 c8 b3 3d cb 97 f5 3d
       0.029471962 0.105017066 0.08778436 0.11991843
000360 4a e5 21 3e e6 3b eb bd 55 5f fb bd 6d a1 99 bc
       0.15810123 -0.11486034 -0.122740425 -0.018753732
000370 c7 20 ff 3d f7 1c 23 be fc 7e 0a be b9 06 92 bd
       0.12457424 -0.15929018 -0.13525003 -0.071301885
000380 5e bb 9c bd 52 c1 fe 3c 01 3c ec 3c d5 6a ac bd
       -0.07652925 0.031098042 0.028837206 -0.08418814
000390 fc 16 8c bc d8 3e 51 bc 1f b1 81 bd 30 2d ba 3c
       -0.017100804 -0.012771331 -0.06332611 0.022726625
0003a0 d6 2f 01 be c4 36 d1 3d a0 90 2f 3d d1 2a 7c bc
       -0.12615904 0.10215524 0.042862535 -0.015391068
0003b0 b2 ec 98 bd 9f 6f b3 bc 65 5a 63 bd 7b 12 d3 bb
       -0.07467021 -0.021903811 -0.05550613 -0.006441412
0003c0 d0 9a 89 3d e0 b6 b2 3d f2 19 f9 bd 2e 23 d3 bd
       0.06718981 0.08726287 -0.12163152 -0.10309444
0003d0 76 fa 83 3d 98 be 14 be 4e ff d7 bc 7e 5b 94 3d
       0.06444256 -0.14525831 -0.026366856 0.07244013
0003e0 39 22 d2 bd 4b 94 09 bd 3e 86 81 3d 9c 66 c2 3d
       -0.10260434 -0.03358869 0.06324433 0.094922274
0003f0 11 3f c9 3d e6 02 b3 3b 5d 6e bf bd 20 42 ff bd
       0.09826482 0.005462992 -0.09347222 -0.12463784

_neural_net._model.model.4.bias f4 [40]
000000 79 1d 09 be 65 39 23 bd b9 c9 02 be 20 36 e2 bd
       -0.13390149 -0.039849658 -0.12772264 -0.1104548
000010 e4 83 e7 bc 33 9f a4 bd 00 cf 0d 3e 80 2b 36 3d
       -0.028261133 -0.08038177 0.13848495 0.04447508
000020 88 0e 6c 3d 4d 3f da 3d ae 74 08 be 6a 9b 1e be
       0.057631046 0.10656605 -0.1332576 -0.15488973
000030 a0 b4 88 bd 67 62 2d bd d5 75 9a 3d 4a d7 ee bd
       -0.066750765 -0.042330172 0.07542006 -0.11662157
000040 d8 74 30 3d d6 43 c2 bd 3f dc 9b 3d 7c a6 14 be
       0.04308018 -0.09485595 0.07610368 -0.14516634
000050 ee 51 a9 3d 8d 05 b0 bd 9d d9 aa 3d 67 e8 11 be
       0.0826758 -0.08594809 0.08342288 -0.1424881
000060 df e8 a4 bd bf 0c a2 bd a8 f4 1c be 30 5f b4 bd
       -0.08052229 -0.079125874 -0.15327704 -0.08807218
000070 1f 17 e0 bd 08 87 5d bd c8 42 17 3d bc e3 ce bd
       -0.1094191 -0.054083854 0.036928922 -0.10102031
000080 83 ce ee 3d 2f f4 c4 3d 4c 2e 14 3c e4 a0 d6 b8
       0.11660483 0.09616887 0.009044241 -0.000102342834
000090 4d 31 6b bd 39 db db 3c 22 82 45 bd 37 4a f8 3d
       -0.057420064 0.026837932 -0.048219807 0.1212353

_neural_net._model.model.6.weight f4 [1, 40]
000000 81 2f 05 be e0 1c bd 3d db 70 c5 3c 78 c2 0c 3d
       -0.13006403 0.09234023 0.024101665 0.034365147
000010 ff 18 e6 3d 0c b7 01 be 54 17 ce bd 32 34 35 bc
       0.112352364 -0.12667483 -0.10063043 -0.011059808
000020 49 bc 27 3c bb 18 8d 3d be 84 fb bd 00 66 1a be
       0.010237762 0.068894826 -0.12281178 -0.15077972
000030 bf 58 f5 3d 06 7b 2d 3d 2c 77 ee bd 97 cb d4 bd
       0.119798176 0.042353652 -0.11643824 -0.10390394
000040 71 4f 98 bc ee 9f 02 be 64 ce aa bd b3 19 bf bd
       -0.018592568 -0.12756321 -0.08340147 -0.093310736
000050 02 6a bb bc 15 ac 9d 3d 9b 96 95 3d 69 49 dd 3d
       -0.022877697 0.07698838 0.07304116 0.108050175
000060 c3 20 b2 bd e3 da 9a bd 6d 06 ad 3d ba a2 40 3d
       -0.08697655 -0.075612806 0.08448491 0.04703019
000070 60 17 e6 bd 83 3d d7 3d a7 96 67 3d ba e1 c4 bc
       -0.11234927 0.10509779 0.056540158 -0.024033416
000080 4c f4 e3 3c 0a a6 9d bd 3a 1c e6 3d 44 c8 a0 3b
       0.02782645 -0.07697685 0.112358525 0.004906686
000090 ea f4 05 be f5 56 ef bd 5c d6 14 3b d1 23 8e bd
       -0.13081709 -0.116865076 0.0022710776 -0.06940425

exp_avg f4 [40, 2]
000000 a9 81 ea 38 5d 51 de b5 b1 85 99 b8 2d 65 d9 38
       0.000111821406 -1.6563969e-06 -7.3205105e-05 0.00010366212
000010 c7 07 8b b8 48 0b f9 37 8a 47 2d 38 68 f5 66 b8
       -6.629485e-05 2.9688366e-05 4.131304e-05 -5.5064826e-05
000020 07 61 20 b9 e8 80 6e 38 d8 2c 4a ba d9 d2 7a b9
       -0.00015294935 5.6863675e-05 -0.0007712371 -0.00023920405
000030 a8 70 b4 b8 e0 f3 53 38 6d ba d5 38 bd a1 0a b8
       -8.604053e-05 5.0533446e-05 0.00010191356 -3.3052394e-05
000040 a9 34 66 38 20 af bf b8 ba d0 48 b9 1b fb 15 b9
       5.4885317e-05 -9.140209e-05 -0.00019151243 -0.00014303291
000050 e4 bf 3c b9 3b c8 ca b7 df 69 c7 b6 64 12 3c b8
       -0.00018000562 -2.4173516e-05 -5.942987e-06 -4.483982e-05
000060 3d 11 19 39 f8 a6 b0 b7 ea 1c 14 38 c8 9c 9f 38
       0.00014597639 -2.1058586e-05 3.5312878e-05 7.6109136e-05
000070 a4 28 d2 b8 83 f5 a4 b9 d7 39 2f b9 60 b0 c1 b9
       -0.0001002115 -0.00031463438 -0.00016710848 -0.00036943238
000080 f8 64 7f 38 b7 9f da b7 5d b6 0c b9 ec c4 5a 3a
       6.0890772e-05 -2.6061998e-05 -0.00013419376 0.00083453837
000090 57 b3 ea 39 8b da 27 39 ac ba 21 b8 53 7d 97 38
       0.00044765577 0.00016007775 -3.8559243e-05 7.2235845e-05
0000a0 87 01 71 b9 81 64 13 b9 6e 52 b0 b9 e0 4a bb 39
       -0.0002298412 -0.00014056453 -0.0003363075 0.00035723206
0000b0 f8 0d f3 38 1d d1 cf b8 63 ba 98 39 ea ba d0 b9
       0.00011589745 -9.9094796e-05 0.00029130568 -0.00039812113
0000c0 68 1b 9c 37 8d 3a b9 37 d0 2e c4 38 8b 05 34 38
       1.8609411e-05 2.2080983e-05 9.354728e-05 4.2920507e-05
0000d0 3d 5b fc 39 de 7b 4b b9 d2 71 b8 37 19 a7 b1 33
       0.00048133163 -0.00019405733 2.1987511e-05 8.2726e-08
0000e0 b2 05 e7 39 6e 45 89 39 5e 67 ff 37 2c 45 81 37
       0.00044063997 0.00026182405 3.0446503e-05 1.5410209e-05
0000f0 b1 1e 82 39 70 37 24 b9 19 3b fe b8 94 84 99 39
       0.000248184 -0.00015660911 -0.000121226716 0.00029281212
000100 d9 53 21 b9 90 c6 ff b8 7a 2c 41 b9 04 01 9d 39
       -0.00015385392 -0.00012196333 -0.00018422483 0.0002994613
000110 c4 1f eb 39 20 15 36 39 b9 cd 77 b9 34 db 6a 39
       0.0004484636 0.00017364742 -0.00023632393 0.00022397639
000120 2b fd 0c b7 8c c8 62 37 95 3e a3 37 08 ac 4f 38
       -8.4035955e-06 1.3517343e-05 1.9460256e-05 4.9512862e-05
000130 37 49 49 b9 f5 8d ec b7 5b 58 5c b9 df 6b 11 39
       -0.00019196128 -2.8199496e-05 -0.0002101375 0.00013868463

exp_avg_sq f4 [40, 2]
000000 e9 64 26 33 42 fd f4 30 f3 9b 0e 33 18 0b c9 31
       3.8741664e-08 1.7825317e-09 3.3203786e-08 5.851131e-09
000010 d0 80 f4 32 a1 cb 89 32 69 7b ab 32 7e dc 00 32
       2.8463916e-08 1.6041499e-08 1.996314e-08 7.500715e-09
000020 c3 47 d1 31 57 e7 18 31 92 46 f3 34 85 54 16 34
       6.090859e-09 2.2250413e-09 4.5313624e-07 1.4000587e-07
000030 84 fc a5 31 ca 51 b1 30 47 46 8a 33 6e 9b a7 32
       4.8308397e-09 1.2901691e-09 6.438909e-08 1.951204e-08
000040 fa 9f 19 32 0d 6d 8d 32 a3 7b 1a 34 da 5a 4a 33
       8.942147e-09 1.6464151e-08 1.4387346e-07 4.711442e-08
000050 c2 f5 41 32 2e 08 74 31 1d a6 eb 30 6b 25 ae 31
       1.1289957e-08 3.5511323e-09 1.7145713e-09 5.0683204e-09
000060 18 0e da 32 5b 73 e4 31 14 20 b6 31 9b e9 87 32
       2.538495e-08 6.6487877e-09 5.300544e-09 1.58223e-08
000070 b8 87 17 34 b8 c2 9b 34 85 0c 1e 34 e9 9b 3d 34
       1.4112345e-07 2.9012676e-07 1.4719451e-07 1.7658716e-07
000080 25 81 32 32 5b 2d 9f 30 74 9d 7e 34 74 5c 64 35
       1.0390328e-08 1.1581663e-09 2.3712875e-07 8.5071156e-07
000090 02 49 45 33 80 d1 c0 31 2e ad 0d 32 c2 65 46 32
       4.5934037e-08 5.611753e-09 8.246657e-09 1.1548254e-08
0000a0 33 77 07 33 32 37 f8 32 dd b2 df 32 4e f9 97 32
       3.1540548e-08 2.88961e-08 2.6041954e-08 1.7692084e-08
0000b0 5f b4 e5 31 2b 9e 45 32 59 5e b4 33 76 58 0b 34
       6.685283e-09 1.1502872e-08 8.399065e-08 1.2977566e-07
0000c0 59 89 6d 31 a2 19 a5 30 59 a8 c3 32 9c 87 07 32
       3.4566112e-09 1.2012615e-09 2.2777543e-08 7.888868e-09
0000d0 70 69 80 33 81 4f ed 32 fa 50 1d 31 52 e0 94 31
       5.9796434e-08 2.7626585e-08 2.2892537e-09 4.332869e-09
0000e0 6a 0f 4f 33 7f 14 98 32 54 67 bd 33 f2 17 c8 32
       4.8209962e-08 1.770445e-08 8.8197936e-08 2.3293953e-08
0000f0 4e d0 5a 33 82 c9 39 33 1d 0f be 32 4d 9d c2 32
       5.0946532e-08 4.325694e-08 2.2125784e-08 2.2656105e-08
000100 9e 20 2a 33 20 4d 11 33 56 d6 4a 32 d7 43 64 32
       3.9610875e-08 3.3830588e-08 1.1806682e-08 1.3286772e-08
000110 37 f0 9f 33 63 8f 6c 31 85 15 24 33 32 82 80 32
       7.447709e-08 3.4424026e-09 3.8203797e-08 1.4960367e-08
000120 2d 94 fc 30 34 8f c0 2f 1f d1 c2 33 d0 cd f7 32
       1.8377527e-09 3.5026348e-10 9.071868e-08 2.8848177e-08
000130 25 e4 7d 32 da c2 13 32 43 7b 40 33 ba f9 11 33
       1.4778412e-08 8.60083e-09 4.481559e-08 3.398757e-08

exp_avg f4 [40]
000000 3b e5 ca b7 bb 12 f8 36 1a a4 40 b8 cd 85 4c 38
       -2.418702e-05 7.3931565e-06 -4.59292e-05 4.8762002e-05
000010 f2 a3 18 37 c5 ee 5f 37 23 72 0f 36 d5 72 ad 37
       9.0980775e-06 1.3347429e-05 2.1375097e-06 2.067668e-05
000020 c0 50 ce b4 94 a9 35 b8 0e ed 3f b7 c6 ef 0f 36
       -3.8429243e-07 -4.3311695e-05 -1.1439681e-05 2.1448227e-06
000030 70 d9 9e b7 b6 66 dc b7 f5 96 45 38 f3 d7 1a 39
       -1.893632e-05 -2.6273872e-05 4.710905e-05 0.00014767032
000040 d1 4d b7 34 f5 ae 50 39 98 f3 ae 38 e4 0b 23 b8
       3.4143025e-07 0.00019901602 8.3423394e-05 -3.8873302e-05
000050 39 f6 9f 37 b7 96 3f 38 8c 1b 07 37 a5 e8 28 39
       1.9068933e-05 4.5678313e-05 8.053041e-06 0.00016108395
000060 1b e9 fc 36 00 59 5b b7 13 06 e8 b7 2d 11 32 33
       7.5373223e-06 -1.3074139e-05 -2.7659384e-05 4.1459476e-08
000070 55 9f af 38 7f 66 00 b8 e7 cc 3f 38 20 d2 98 38
       8.374328e-05 -3.0613035e-05 4.572878e-05 7.2870636e-05
000080 d8 d4 7e 38 9b e0 39 38 04 d1 1e 39 d5 cc 82 38
       6.0756545e-05 4.4316617e-05 0.00015145919 6.237036e-05
000090 08 a4 bc 37 cc 40 b7 38 df f0 69 38 04 b5 c9 38
       2.248773e-05 8.738189e-05 5.5775858e-05 9.618144e-05

exp_avg_sq f4 [40]
000000 77 cb 04 33 2c e9 b3 32 17 24 8f 33 dc 8e 89 33
       3.0918695e-08 2.0944377e-08 6.665521e-08 6.4055456e-08
000010 83 2b 75 31 50 80 d9 34 23 da 8e 31 9d da 3a 33
       3.5676926e-09 4.051276e-07 4.157543e-09 4.3505327e-08
000020 e2 1f 81 32 94 a7 37 34 e6 ca a1 31 d0 43 d6 31
       1.5032075e-08 1.7104168e-07 4.7087836e-09 6.235929e-09
000030 8a 6d 0f 33 6f 07 ca 32 b5 4f 01 35 dd c5 ee 34
       3.3394407e-08 2.3519275e-08 4.8172234e-07 4.447492e-07
000040 4a 0a a0 31 1a 2b 8b 35 0e 35 a2 33 f6 a6 e8 32
       4.6577826e-09 1.0368851e-06 7.5533634e-08 2.708428e-08
000050 da 9e 32 33 1e ce 86 32 76 74 6c 32 b8 8b 97 34
       4.158833e-08 1.5693384e-08 1.3763488e-08 2.82276e-07
000060 ed f6 6e 32 80 ce 12 33 6c 7e 54 33 33 96 ba 31
       1.3909568e-08 3.4181085e-08 4.9475076e-08 5.430388e-09
000070 6b 1f 11 33 cb e5 31 34 a5 d1 eb 33 ee 4d 77 33
       3.3789018e-08 1.6568008e-07 1.09811744e-07 5.7580046e-08
000080 dc 41 bd 33 e3 5c 23 32 e5 f8 50 33 8f 8d 9f 33
       8.812978e-08 9.508969e-09 4.8655142e-08 7.429764e-08
000090 4e 3c 73 31 52 c3 ac 34 11 9f 9e 32 e6 2f ef 33
       3.5395433e-09 3.217961e-07 1.8465956e-08 1.11380174e-07

exp_avg f4 [40, 40]
000000 a4 be e6 b6 12 9d c1 b8 f0 57 c1 b8 87 2a 9a b8
       -6.8767276e-06 -9.232214e-05 -9.219337e-05 -7.3512136e-05
000010 55 a1 e1 37 b0 74 2d 38 af cf de b7 8a ff 67 37
       2.6897216e-05 4.1355088e-05 -2.6561172e-05 1.382817e-05
000020 6c c2 40 b7 46 11 45 b8 3c 4e 37 38 8d 71 af b7
       -1.1489359e-05 -4.6984547e-05 4.370346e-05 -2.0914502e-05
000030 5b 5a dd b7 c5 10 8f b8 ba d2 03 b8 42 f7 88 b8
       -2.6387328e-05 -6.821895e-05 -3.142909e-05 -6.531041e-05
000040 89 ef 84 b8 e9 3a 9c b7 23 de eb b7 92 f7 49 b8
       -6.3388674e-05 -1.8624081e-05 -2.8117624e-05 -4.8152702e-05
000050 fe e7 34 38 22 e2 98 38 52 2a 13 b8 c3 84 14 b8
       4.3131404e-05 7.290045e-05 -3.5086945e-05 -3.5409594e-05
000060 2a 7b 74 b8 b9 a3 af b7 dd 0a 22 38 cf c0 c4 b7
       -5.828884e-05 -2.0937865e-05 3.8633927e-05 -2.3454804e-05
000070 0c 8c 96 38 30 b9 bd b8 04 ef 1a b8 c6 2b 07 b8
       7.178643e-05 -9.046716e-05 -3.6939062e-05 -3.2227275e-05
000080 35 96 24 b7 79 d6 6a 38 e1 97 44 38 a8 9f f0 35
       -9.8101345e-06 5.598969e-05 4.687149e-05 1.792786e-06
000090 59 a0 4c b8 16 a4 ad b8 91 b3 a8 36 77 3a 2d b8
       -4.8786726e-05 -8.279846e-05 5.0276944e-06 -4.1300864e-05
0000a0 9c dd f1 37 ba 7e 32 b9 a0 dd 3d b9 21 12 ff b8
       2.8832634e-05 -0.00017022612 -0.00018107006 -0.00012162724
0000b0 78 28 cf 38 38 48 31 39 1a 95 36 b8 5f 74 ab 38
       9.878067e-05 0.00016906939 -4.3531043e-05 8.175591e-05
0000c0 e5 bb d2 37 2c 9d 97 b8 b4 32 3a 39 db 6e 88 36
       2.5121446e-05 -7.2295166e-05 0.0001775723 4.066021e-06
0000d0 e5 49 fd 37 56 44 cc b8 5e 83 d0 b7 00 85 8c b8
       3.019436e-05 -9.7402066e-05 -2.4856705e-05 -6.7004934e-05
0000e0 59 f6 02 b9 5a 96 b9 b7 2e 64 29 b5 84 ef a7 b8
       -0.00012489538 -2.2123731e-05 -6.3103187e-07 -8.007794e-05
0000f0 e7 0f 2f 39 01 12 54 39 07 1f 84 b6 86 5a 12 37
       0.00016695225 0.00020224602 -3.9375186e-06 8.723355e-06
000100 63 17 ed b8 dd d9 1e b7 c4 05 2c 39 3f c3 a8 b7
       -0.00011305397 -9.468259e-06 0.00016405346 -2.011808e-05
000110 6f 92 67 39 e7 f4 1a b9 32 58 04 b8 98 55 54 b8
       0.00022084427 -0.00014777818 -3.155339e-05 -5.0624454e-05
000120 1a fc 6d 38 ff 04 2a 39 22 a2 29 39 8c ee d7 37
       5.673999e-05 0.00016214325 0.00016177495 2.574108e-05
000130 ed fc b9 b8 a1 5e 2b b9 37 d5 87 38 94 88 8a b8
       -8.8685985e-05 -0.00016343083 6.477016e-05 -6.6057924e-05
000140 f4 80 1d 39 a6 9a 9c b8 e6 86 8d b9 01 32 81 b7
       0.00015020726 -7.467465e-05 -0.00026994123 -1.5401283e-05
000150 3d 04 ac b8 06 4b 59 38 db 71 02 b9 66 50 59 39
       -8.2023886e-05 5.1806703e-05 -0.0001244018 0.00020724683
000160 84 37 ea 38 82 c5 d9 37 a3 bd 98 38 67 65 34 38
       0.0001116833 2.5960388e-05 7.2832474e-05 4.3009783e-05
000170 bd 19 85 39 14 6c db b8 34 58 7f 37 bc 51 b2 b6
       0.00025386913 -0.00010462865 1.5219721e-05 -5.3143285e-06
000180 b2 59 0c b9 b0 8b c9 b8 06 08 60 39 9d 73 7f b8
       -0.00013384855 -9.610446e-05 0.00021365294 -6.090441e-05
000190 c8 a0 96 38 5a 45 48 b8 e3 94 0f 39 99 80 4e 39
       7.182505e-05 -4.7748304e-05 0.00013693007 0.00019693597
0001a0 2b a9 b9 b8 9f d3 84 b8 c6 80 b1 39 f5 22 16 33
       -8.8529974e-05 -6.333668e-05 0.00033856014 3.495639e-08
0001b0 73 b6 bb 39 6b f0 ee 37 b3 3e ce 38 ed b5 4a b9
       0.00035803355 2.8483764e-05 9.834524e-05 -0.00019331994
0001c0 aa 20 94 b8 37 4c bd b8 21 35 9a 39 cd 8c ed b8
       -7.063274e-05 -9.0264184e-05 0.00029412753 -0.00011327267
0001d0 af 1f 4b b9 87 76 41 b9 a2 8f 11 b9 71 a7 69 b9
       -0.00019371392 -0.00018450069 -0.00013881785 -0.00022282988
0001e0 45 ec f5 b7 4c e3 db 38 3b 19 05 39 72 06 58 38
       -2.9316298e-05 0.00010485071 0.00012693267 5.1504416e-05
0001f0 8b 45 55 b8 46 bf 01 b9 cb f7 13 38 1f f7 81 b8
       -5.0847924e-05 -0.00012373654 3.5278306e-05 -6.197229e-05
000200 6f 60 1b b8 7b c0 38 38 09 8e 09 b9 ee bb e2 b7
       -3.704469e-05 4.404828e-05 -0.0001311825 -2.7028811e-05
000210 8e f5 69 b8 70 b5 ec 37 bb 2c 0a b7 54 43 80 b6
       -5.578022e-05 2.821788e-05 -8.235856e-06 -3.8225353e-06
000220 7b 56 97 38 12 ac 2e 38 84 da f2 36 53 c7 07 38
       7.216349e-05 4.1645086e-05 7.2376006e-06 3.2372143e-05
000230 b7 39 fd b8 6e bd bc b8 53 1b 0e b8 1a a9 44 b8
       -0.0001207473 -8.9998226e-05 -3.3880886e-05 -4.688753e-05
000240 51 82 88 38 f4 7a 18 b7 67 3b fc b8 f7 08 86 b6
       6.509259e-05 -9.088533e-06 -0.00012027361 -3.994555e-06
000250 b4 1d df b8 03 10 91 38 60 f5 3f b6 d4 90 81 38
       -0.00010639001 6.917121e-05 -2.8604045e-06 6.178176e-05
000260 b9 df 84 b8 4b e1 88 b8 34 77 75 b8 17 d7 1a 36
       -6.335922e-05 -6.5269494e-05 -5.852357e-05 2.3072987e-06
000270 21 06 8c 38 82 cd c9 38 4e 50 2f b8 3f 1f 5f 38
       6.676862e-05 9.622706e-05 -4.179804e-05 5.3196443e-05
000280 41 ef 84 35 e0 33 10 37 23 7e 92 37 24 c3 b2 b6
       9.904398e-07 8.595147e-06 1.7463293e-05 -5.3275307e-06
000290 db d7 89 37 20 ae c6 36 23 d0 2b 37 03 e1 fc 35
       1.6432188e-05 5.9211307e-06 1.0240855e-05 1.884095e-06
0002a0 eb a3 5e b6 a1 9f e1 36 64 ae af 36 32 e5 8c b6
       -3.317599e-06 6.724106e-06 5.235708e-06 -4.199007e-06
0002b0 b2 5e ad b6 37 1c d4 b6 60 79 9d b6 23 ee 21 b7
       -5.1668258e-06 -6.321377e-06 -4.6930945e-06 -9.651793e-06
0002c0 2f 25 f8 35 ee db c3 37 5c 78 8b 37 42 ca 86 b6
       1.8488262e-06 2.3348224e-05 1.6626138e-05 -4.017057e-06
0002d0 a1 a0 b2 36 94 3d 09 38 35 dc e4 b6 03 86 f7 b6
       5.323513e-06 3.2720694e-05 -6.820565e-06 -7.3767746e-06
0002e0 f3 1d e2 35 32 1e aa b3 0b ff 23 36 19 80 54 b6
       1.6847029e-06 -7.9217344e-08 2.4437347e-06 -3.1665024e-06
0002f0 5c 41 00 38 a1 a4 13 b6 28 b7 77 b6 6c 25 da 37
       3.057845e-05 -2.2000534e-06 -3.691248e-06 2.6005051e-05
000300 93 01 e0 35 8d 80 07 38 fe 51 1d 38 37 bd 96 37
       1.6689759e-06 3.230623e-05 3.7508078e-05 1.7969503e-05
000310 1a c8 6b 37 97 97 70 36 22 23 54 37 5e ad 85 37
       1.4053681e-05 3.5851024e-06 1.2644365e-05 1.5935566e-05
000320 c2 b4 7f b6 1c 1c da 36 41 ac c6 b6 5e f9 8d 36
       -3.8103176e-06 6.5001786e-06 -5.920913e-06 4.2311576e-06
000330 22 f0 09 b8 03 24 26 b8 0b f9 24 b7 65 c3 0b b7
       -3.2886986e-05 -3.9611023e-05 -9.833147e-06 -8.3305395e-06
000340 26 96 03 b7 d6 b1 28 36 1c 1b 27 b8 ba 8b 2c b7
       -7.843168e-06 2.5137465e-06 -3.984115e-05 -1.02845315e-05
000350 6c 01 08 b7 d4 cf 1e b7 83 10 ee b6 a0 f1 49 b7
       -8.106563e-06 -9.465923e-06 -7.094875e-06 -1.2036791e-05
000360 a8 43 b1 35 ce 47 55 b7 1b 9b 37 b5 ae e9 8c b5
       1.3207218e-06 -1.2712508e-05 -6.839852e-07 -1.0498823e-06
000370 08 b9 16 b8 53 91 45 b8 84 d4 0d b7 e6 da 1a b7
       -3.593511e-05 -4.7103804e-05 -8.453735e-06 -9.230082e-06
000380 7f 04 5f 36 d4 58 67 b7 e9 48 8d b7 f0 74 b7 b6
       3.3232207e-06 -1.3789355e-05 -1.6842461e-05 -5.4674383e-06
000390 10 b3 a6 b7 8d 48 04 37 87 07 b2 b5 17 89 93 b7
       -1.9872125e-05 7.884705e-06 -1.3264224e-06 -1.7587603e-05
0003a0 86 4e 11 b8 41 76 39 b8 ad da 8b b7 bf 12 b1 b7
       -3.4643825e-05 -4.421757e-05 -1.667192e-05 -2.1108774e-05
0003b0 30 02 37 b7 31 bc 77 35 ad 62 17 b8 1c 0f 99 b7
       -1.0908159e-05 9.2288525e-07 -3.6093104e-05 -1.8246057e-05
0003c0 b5 5c 5c b8 a4 9b 18 b8 fa 1b c9 b8 40 16 52 38
       -5.2538428e-05 -3.6384576e-05 -9.589638e-05 5.0088624e-05
0003d0 48 b7 4f b9 2a 8e 2e b9 da 68 a7 b8 ad 40 af b8
       -0.00019809336 -0.00016646893 -7.982711e-05 -8.356697e-05
0003e0 31 17 c6 b7 a2 cd 5d b8 9c 88 2e b9 4e dc 1b b7
       -2.3614239e-05 -5.2882016e-05 -0.00016644824 -9.290014e-06
0003f0 c5 67 34 b8 75 5f 21 38 7a 71 17 37 c1 1b 10 38
       -4.3011987e-05 3.8474293e-05 9.026722e-06 3.4358123e-05

exp_avg_sq f4 [40, 40]
000000 2f 66 57 33 fe 2d 35 34 f1 6d 50 34 fe 8d bd 33
       5.0151524e-08 1.687367e-07 1.9411506e-07 8.8268266e-08
000010 18 f7 81 33 34 c7 cf 33 d0 10 2a 33 09 78 5f 33
       6.051977e-08 9.6754235e-08 3.95965e-08 5.2030405e-08
000020 42 8b 83 33 ee c4 c6 33 d3 24 e2 33 46 b4 98 33
       6.125494e-08 9.255915e-08 1.05306434e-07 7.110843e-08
000030 e9 f0 48 34 db 63 01 34 2c 9a 86 33 ed bc 4d 34
       1.8714094e-07 1.2050388e-07 6.267905e-08 1.9160844e-07
000040 7a 1f 44 33 c7 98 dc 33 5b bf 52 34 c7 e4 21 33
       4.5663434e-08 1.02723384e-07 1.9627389e-07 3.7693805e-08
000050 fb 2f aa 33 1d ce a8 33 25 bc 19 34 3d 8e 48 34
       7.9249695e-08 7.8606014e-08 1.4317682e-07 1.8678197e-07
000060 70 e7 28 33 4d 2f 48 33 5c d2 b8 33 1c 50 13 33
       3.932604e-08 4.660915e-08 8.606432e-08 3.4298964e-08
000070 55 21 13 34 b3 26 31 34 ca 4a a4 33 59 23 10 34
       1.3702568e-07 1.6498488e-07 7.650449e-08 1.3423904e-07
000080 e5 dd 24 34 e4 4d cb 33 9f 0b 59 34 a5 e3 68 33
       1.5354415e-07 9.467092e-08 2.0213928e-07 5.422375e-08
000090 e6 80 c3 33 f0 98 aa 33 4c b8 dd 33 73 c5 da 33
       9.1038416e-08 7.944061e-08 1.0324638e-07 1.0187332e-07
0000a0 3e 00 90 35 77 5c 5f 36 35 e2 67 36 4d 57 ec 35
       1.0728907e-06 3.328341e-06 3.4553352e-06 1.7608778e-06
0000b0 69 2f 82 35 6f be dc 35 7f 17 37 35 46 0f 99 35
       9.699553e-07 1.6446701e-06 6.8207004e-07 1.1403833e-06
0000c0 46 d3 a3 35 0c 0b fa 35 4d 30 f5 35 c7 be b7 35
       1.2205935e-06 1.8629667e-06 1.826798e-06 1.3690086e-06
0000d0 df 37 83 36 12 48 15 36 f6 48 a0 35 10 f9 72 36
       3.9106085e-06 2.224468e-06 1.1942163e-06 3.6205784e-06
0000e0 31 65 5d 35 c3 56 f2 35 8e 1c 86 36 a8 9c 41 35
       8.247617e-07 1.8055656e-06 3.9968354e-06 7.212607e-07
0000f0 32 23 b6 35 4d 60 a3 35 08 3a 40 36 4d 05 7c 36
       1.35703e-06 1.2172474e-06 2.8644008e-06 3.7554012e-06
000100 eb d2 47 35 23 7b 5c 35 fe 35 f1 35 47 8d 2f 35
       7.4440203e-07 8.2135574e-07 1.7971613e-06 6.5398166e-07
000110 67 22 37 36 b9 41 64 36 23 87 d0 35 01 25 1b 36
       2.728915e-06 3.4012903e-06 1.5536538e-06 2.311834e-06
000120 8e c6 31 36 4a a2 c7 35 f4 86 84 36 bc d9 6f 35
       2.649063e-06 1.4873888e-06 3.949617e-06 8.9351283e-07
000130 77 7a d2 35 09 dd c1 35 1c 46 e3 35 5d b3 e6 35
       1.5681861e-06 1.444395e-06 1.6933222e-06 1.7188537e-06
000140 ea 86 04 36 4b a4 a2 36 f7 dc 81 36 66 da 45 36
       1.9748063e-06 4.8471024e-06 3.8702233e-06 2.9482412e-06
000150 ef bd 5e 35 ed b2 07 36 f9 c4 44 35 a0 c8 15 36
       8.2977834e-07 2.0220716e-06 7.330232e-07 2.231951e-06
000160 99 05 17 36 90 f6 39 36 f8 d0 20 36 55 c5 1d 36
       2.2504012e-06 2.7710666e-06 2.3963494e-06 2.3509685e-06
000170 d0 24 fc 36 62 d7 5d 36 9f da 04 36 2c bc c5 36
       7.514471e-06 3.3056936e-06 1.9796787e-06 5.8929636e-06
000180 59 95 87 35 99 88 03 36 5e 74 d1 36 03 bf 99 35
       1.010175e-06 1.9600031e-06 6.2422323e-06 1.145498e-06
000190 0f 2c e5 35 8d 18 85 35 a6 22 b0 36 cb 37 e8 36
       1.7074652e-06 9.916417e-07 5.2492423e-06 6.920634e-06
0001a0 be f2 8a 35 cb 3b 8a 35 09 73 6d 36 1b a1 8f 35
       1.0352448e-06 1.0299203e-06 3.5382711e-06 1.0701218e-06
0001b0 40 31 84 36 4c db c0 36 21 5f 3a 36 71 fa 20 36
       3.93964e-06 5.7475754e-06 2.7771532e-06 2.3987634e-06
0001c0 a5 38 5b 36 73 01 a4 35 5c 03 b8 36 6c 80 62 35
       3.2666514e-06 1.2219374e-06 5.4840184e-06 8.437844e-07
0001d0 0c ba da 35 b1 9b f2 35 76 ce d6 35 8d 76 e7 35
       1.6296412e-06 1.8075717e-06 1.600433e-06 1.7245344e-06
0001e0 be 73 cc 34 b0 a8 8e 35 50 7f 90 35 06 e0 39 35
       3.8082175e-07 1.0628919e-06 1.0765889e-06 6.924387e-07
0001f0 b7 01 bb 34 d1 68 50 35 67 e0 75 34 27 c9 e0 34
       3.4832712e-07 7.7638566e-07 2.289904e-07 4.186961e-07
000200 6c 98 0f 35 7e aa 18 35 c2 c5 6c 35 1a d7 28 35
       5.3493454e-07 5.687251e-07 8.8204627e-07 6.289789e-07
000210 b1 c2 d4 35 45 00 87 35 df 0d 11 35 fb 7f dc 35
       1.5851894e-06 1.0058362e-06 5.4036894e-07 1.6428525e-06
000220 a7 9c 9b 34 b9 1d 0e 35 1b 41 a6 35 0d 32 a6 34
       2.898498e-07 5.2942374e-07 1.2386912e-06 3.0956326e-07
000230 da f7 2d 35 49 2d d4 34 52 c4 a6 35 26 fe d6 35
       6.4808194e-07 3.9521026e-07 1.24251e-06 1.6018209e-06
000240 c3 68 8e 34 3e 20 c8 34 28 73 3e 35 d5 ff a0 34
       2.6525785e-07 3.7276362e-07 7.094809e-07 2.9988465e-07
000250 68 26 49 35 a9 53 a1 35 f7 df 25 35 d4 e8 3e 35
       7.4934223e-07 1.2019783e-06 6.17932e-07 7.1119325e-07
000260 a0 81 a3 35 ce 44 01 35 83 c1 92 35 1c 76 9d 34
       1.2182172e-06 4.815637e-07 1.0934167e-06 2.9329465e-07
000270 f5 8f 0b 35 c6 fd 0a 35 fe 8a 33 35 27 ba 1d 35
       5.199102e-07 5.1778295e-07 6.6884957e-07 5.8757945e-07
000280 66 ae cd 31 61 c0 ab 32 6c 24 ad 32 08 fa 11 32
       5.986112e-09 1.9994504e-08 2.0156413e-08 8.496961e-09
000290 b1 56 90 31 73 79 ae 31 6b 37 73 31 41 54 d4 31
       4.2008073e-09 5.0778737e-09 3.5392655e-09 6.1795906e-09
0002a0 8a 37 b3 31 2d be 49 32 9a 1d c2 31 6c e3 b7 31
       5.2158997e-09 1.1742981e-08 5.6495084e-09 5.351856e-09
0002b0 26 1a a2 32 52 6a 0f 32 ab 21 a1 31 ef 3c 70 32
       1.8871173e-08 8.34787e-09 4.6895443e-09 1.3983693e-08
0002c0 9a fe 90 31 94 cf 3c 32 69 62 d5 32 df 5d 51 31
       4.2198964e-09 1.0990238e-08 2.4841215e-08 3.0466862e-09
0002d0 b7 67 8f 31 71 a9 cb 31 ba bc 55 32 82 f5 8e 32
       4.1736388e-09 5.927341e-09 1.2441143e-08 1.664262e-08
0002e0 db bb 84 31 68 9c 42 31 d0 d2 17 32 9f 71 2d 31
       3.8630623e-09 2.8319622e-09 8.83729e-09 2.52394e-09
0002f0 7b fc 9e 32 f7 1d a2 32 ee db 00 32 14 ad 63 32
       1.8508436e-08 1.8872909e-08 7.500587e-09 1.3252492e-08
000300 7b 63 15 32 93 7b fd 31 af 33 e2 32 37 8e 9c 31
       8.695561e-09 7.377318e-09 2.6333366e-08 4.5563655e-09
000310 f0 9c 0d 32 50 87 f8 31 58 e4 df 31 79 9c 12 32
       8.242964e-09 7.233133e-09 6.516114e-09 8.533896e-09
000320 e1 b1 fc 32 e6 bf c0 33 58 a5 e0 33 72 c3 81 33
       2.9417551e-08 8.975603e-08 1.0460889e-07 6.042582e-08
000330 d1 16 2e 33 d2 e1 ae 33 69 a4 c9 32 a8 e0 09 33
       4.0533283e-08 8.143583e-08 2.3474245e-08 3.2102122e-08
000340 4c 8c 46 33 bc 83 44 33 7c 26 c4 33 86 13 77 33
       4.6228067e-08 4.5754618e-08 9.1339615e-08 5.7526925e-08
000350 fe 37 0a 34 14 1c d2 33 f4 06 57 33 35 4f 24 34
       1.2872621e-07 9.7839944e-08 5.0064912e-08 1.5302506e-07
000360 7a c8 f2 32 76 ff 59 33 55 e5 d1 33 6b 03 f7 32
       2.8263674e-08 5.075659e-08 9.774036e-08 2.8756139e-08
000370 2d 9e 91 33 c0 53 41 33 a0 86 e5 33 aa 43 12 34
       6.780861e-08 4.5012484e-08 1.06881316e-07 1.3621926e-07
000380 36 f0 d2 32 77 7f 28 33 2c e3 6c 33 fc 77 f2 32
       2.4556453e-08 3.9231477e-08 5.5154644e-08 2.822707e-08
000390 99 a1 70 33 7f 8c d2 33 02 d5 5e 33 c6 5b 9a 33
       5.6026327e-08 9.804443e-08 5.1882132e-08 7.187877e-08
0003a0 56 da 09 34 d5 b6 6c 33 66 7c b7 33 b8 76 08 33
       1.283855e-07 5.5114317e-08 8.5442295e-08 3.177294e-08
0003b0 38 4a 6a 33 3a 65 5a 33 97 5b a4 33 04 35 87 33
       5.4549872e-08 5.0849145e-08 7.653505e-08 6.296071e-08
0003c0 ca c6 ec 34 f3 75 bd 35 54 81 d6 35 25 5c 59 35
       4.4103064e-07 1.4115925e-06 1.5981882e-06 8.097289e-07
0003d0 74 87 0d 35 bc 11 77 35 3c 10 b6 34 f8 5c fb 34
       5.2723703e-07 9.204048e-07 3.3911954e-07 4.6820037e-07
0003e0 5f 5c 1c 35 71 c5 4a 35 44 50 88 35 d0 16 38 35
       5.8248946e-07 7.553818e-07 1.015615e-06 6.857854e-07
0003f0 cd 03 e9 35 5f 55 9b 35 a8 5b 21 35 37 4f f6 35
       1.7360959e-06 1.1573246e-06 6.011055e-07 1.8351483e-06

exp_avg f4 [40]
000000 c4 e1 f6 b8 3d 55 70 b9 6e 0a 5d b9 a6 4e 01 39
       -0.00011772246 -0.00022919937 -0.00021080088 0.00012331698
000010 fa 46 06 b6 fc 2c a8 36 be 7b 8d 38 26 46 c2 b8
       -2.000887e-06 5.012027e-06 6.746453e-05 -9.263707e-05
000020 c0 39 2c 39 7a 99 87 39 e6 d4 45 38 46 3a 8f 37
       0.00016424712 0.00025863555 4.7166737e-05 1.7074064e-05
000030 7a 1c b9 38 c9 fa 6c b9 09 fd 01 b8 a6 6f 0f 38
       8.8267916e-05 -0.00022600139 -3.0991654e-05 3.4197838e-05
000040 9a 38 14 b7 b4 63 a9 39 40 f6 88 39 a0 3f 06 b9
       -8.834666e-06 0.00032308477 0.00026123412 -0.00012802938
000050 a2 58 66 38 8e 66 5a 39 48 1c 34 39 78 a3 ec 38
       5.491882e-05 0.00020828305 0.00017176673 0.00011283805
000060 e4 2e 9c 38 43 93 ef 37 0b c9 26 b8 fe af c2 38
       7.447394e-05 2.8559594e-05 -3.976472e-05 9.283422e-05
000070 eb 0e 55 38 14 39 77 b9 20 e1 86 38 6c cc b1 b8
       5.079705e-05 -0.00023577019 6.431551e-05 -8.478094e-05
000080 2a 4f 02 b8 cc 5e d0 b8 63 cb c6 38 3a 67 ab b9
       -3.1068143e-05 -9.93587e-05 9.4792595e-05 -0.0003269257
000090 2b be 0f b9 db be a1 b8 e2 80 b4 b8 90 02 34 b7
       -0.00013708386 -7.712628e-05 -8.607075e-05 -1.0729433e-05

exp_avg_sq f4 [40]
000000 50 f9 0d 34 87 7a 25 36 17 ca 62 36 3c c8 76 35
       1.3222348e-07 2.4658236e-06 3.3794256e-06 9.193352e-07
000010 c3 2f 50 32 9e b9 ba 33 38 0b 9e 35 47 a1 22 34
       1.2118053e-08 8.6950635e-08 1.1775182e-06 1.5146098e-07
000020 51 a9 07 36 ea 7d c9 36 a3 aa af 32 47 a0 6d 34
       2.0215123e-06 6.004925e-06 2.0450278e-08 2.2130654e-07
000030 9d 10 11 35 6c 88 6c 35 8e 9c be 31 ca aa 81 34
       5.4040885e-07 8.811537e-07 5.547526e-09 2.4152388e-07
000040 02 9b 22 33 22 f4 e1 36 7c fe 9c 36 3e 1d 16 35
       3.7859543e-08 6.7339433e-06 4.678788e-06 5.592191e-07
000050 89 de 9a 34 94 1c 87 36 09 b6 01 36 ae eb 04 36
       2.884665e-07 4.0266405e-06 1.9328456e-06 1.9806716e-06
000060 fc ba 3f 34 c3 fa 4f 34 1a fb 12 32 29 a3 a9 34
       1.7856286e-07 1.9369604e-07 8.555412e-09 3.1597418e-07
000070 c9 ca fe 33 72 ba 27 36 47 14 39 34 8b 3c 20 33
       1.1864683e-07 2.4993465e-06 1.7236844e-07 3.7307966e-08
000080 03 25 64 32 66 d3 c6 32 ea b5 a7 35 43 ca 31 35
       1.3279762e-08 2.3146367e-08 1.2495414e-06 6.623197e-07
000090 3e 5a c3 35 59 b9 c5 34 d5 cb 00 34 2b 56 71 32
       1.4554896e-06 3.6828968e-07 1.1995083e-07 1.4047639e-08
