lightning_logs/version_4/checkpoints/epoch=14-step=15.ckpt (torch, 15514 bytes, 15 tensors)

_neural_net._model.model.0.weight f4 [20, 2]
-0.2676021 0.36576265 0.2404993 0.6125355 0.61063474 0.21884014 0.4933833 0.5388589
-0.42278168 -0.06282475 0.69917613 -0.15646645 0.42463687 0.2592349 -0.31654897 0.34770542
0.45656848 -0.24385813 -0.33343968 0.11424474 -0.01961774 -0.5237218 0.3509344 -0.24619564
0.5826554 0.04627307 -0.6132508 0.56328315 -0.60878414 -0.2275248 0.59170604 0.7066403
0.17877701 0.33316362 -0.50175667 -0.22643207 -0.5148378 -0.20767708 -0.34510267 0.6012171
00000000: 2403 89be 3e45 bb3e 7345 763e 20cf 1c3f
00000010: 8f52 1c3f a117 603e bc9c fc3e a8f2 093f
00000020: d776 d8be 43aa 80bd 35fd 323f be38 20be
00000030: 016a d93e 70ba 843e b512 a2be 7206 b23e
00000040: 58c3 e93e f2b5 79be 9bb8 aabe 25f9 e93d
00000050: 62b5 a0bc a212 06bf acad b33e b61a 7cbe
00000060: e728 153f d588 3d3d 01fe 1cbf 5333 103f
00000070: 47d9 1bbf 43fc 68be 0c7a 173f 61e6 343f
00000080: 5211 373e 6c94 aa3e 2073 00bf cfdd 67be
00000090: 69cc 03bf 4da9 54be 4cb1 b0be 5de9 193f

_neural_net._model.model.0.bias f4 [20]
0.5096443 -0.36480415 0.30407643 -0.2456393 0.65178066 -0.41713393 0.32658494 0.33940658
-0.5087414 -0.2076146 -0.2752149 -0.35302082 -0.0779562 -0.17370957 0.6395253 -0.26652813
0.56091124 0.69424427 -0.4711866 -0.45942104
00000000: 0d78 023f 9cc7 babe e8af 9b3e de88 7bbe
00000010: 19db 263f 9492 d5be 2436 a73e b3c6 ad3e
00000020: e03c 02bf ec98 54be f8e8 8cbe 25bf b4be
00000030: 80a7 9fbd ece0 31be eeb7 233f 6076 88be
00000040: e197 0f3f feb9 313f 5f3f f1be 3c39 ebbe

_neural_net._model.model.2.weight f4 [20, 20]
-0.04010545 -0.18159369 -0.18879434 -0.022018244 -0.0793156 -0.18789215 0.20592189 -0.10970795
0.16752858 0.19187902 0.11912407 -0.13452038 -0.023814233 0.0497257 -0.12965827 -0.10906316
0.0154065285 -0.088251136 -0.21586974 -0.0397459 0.20265956 0.21127614 -0.11929568 -0.1691707
-0.13209228 0.044682227 -0.19860262 0.015056136 -0.06113318 -0.12816903 0.1673137 -0.13557418
-0.12784539 -0.05946488 0.10820618 0.13417815 0.05967205 -0.17796512 0.080528595 -0.14537764
0.16789828 0.1035421 0.08776477 0.015388031 0.08543985 0.015612744 0.1456409 0.018170565
0.2024816 -0.12374233 -0.22169672 -0.041751843 0.14966634 -0.16933832 -0.05326887 -0.07702756
-0.079391874 -0.19810349 0.13247614 -0.13080676 -0.17733051 -0.15580387 0.09293715 0.02989027
0.01518721 -0.08455777 -0.12491464 0.061408326 -0.21089403 0.015106999 0.14879729 0.102084205
0.09495137 0.15245178 -0.18090802 0.23944122 0.1722156 -0.03722962 0.14070456 0.04005731
-0.100571945 -0.20307548 -0.20336339 0.17678688 0.14207885 0.021507531 0.00046353447 -0.13939117
0.15260875 0.17379902 0.19993964 -0.15305857 -0.14484696 -0.15499924 0.0045282026 0.093068935
-0.20148046 -0.08897344 0.054994598 0.0954466 -0.09319303 0.10686701 -0.10602975 -0.009802204
0.08622715 0.21702547 0.19445916 -0.12487384 -0.22368468 -0.029662807 -0.05309143 0.06427473
0.19896583 -0.20627607 -0.013354312 -0.14313357 0.090446 -0.13599555 0.018461075 0.20424089
-0.10820582 -0.2042575 0.01825633 -0.061516937 0.1509439 -0.13414334 -0.13270783 0.19648492
0.03644824 -0.22806665 0.12767398 -0.16732316 0.10628017 0.19012508 0.08821242 -0.1651219
-0.1090908 -0.100287 -0.10809776 -0.16868931 0.015479623 -0.10943571 0.19232969 0.008570685
-0.055133324 -0.13622136 -0.23025215 -0.018884001 0.16307129 0.12054062 0.012807863 0.03201247
0.0654128 0.11662697 -0.15459234 0.01214488 -0.20966293 0.19004245 -0.034151338 0.21427126
-0.17640568 0.11952252 0.1588249 -0.040606305 0.19721554 -0.096529484 0.12382175 0.07422835
0.16490033 -0.03281417 -0.19985093 0.04024473 0.1923228 0.15310507 0.042340066 -0.16411223
-0.20324206 -0.07518737 0.13700797 -0.090643734 -0.20587295 -0.066188775 0.011051426 0.06413114
-0.13806172 -0.14748201 -0.1293414 -0.18486328 0.20092705 -0.073414974 -0.08618191 -0.16720101
0.14209977 -0.06762088 0.021203196 -0.065062165 0.17635301 -0.07209494 0.0021476597 -0.04472431
-0.14367233 -0.043608557 -0.10527533 -0.06898042 -0.026262192 0.048458125 0.14925765 -0.17524523
0.16812111 -0.061254043 -0.07894005 -0.12383823 0.14309677 -0.20440097 -0.106886454 -0.03304133
0.07716837 -0.020091807 0.2101277 -0.099615954 0.22335297 0.089481056 0.03572092 -0.12204384
0.1704184 -4.217145e-08 -0.094925456 0.0068319696 0.18016313 -0.095053546 -0.12482116 0.19645794
-0.002132577 -0.058933605 -0.08828673 0.03683106 0.062016033 -0.041638523 -0.04169173 -0.14560264
-0.09654064 0.13796043 0.104754105 0.19136986 -0.039061565 -0.12447645 0.0880562 0.046674524
-0.21281053 -0.021205137 -0.18820724 -0.098097086 -0.07446303 0.03592902 0.055314247 0.14569531
00000000: 9d45 24bd b2f3 39be 4e53 41be 9b5f b4bc
00000010: 3870 a2bd cd66 40be 30dd 523e 90ae e0bd
00000020: 9d8c 2b3e ef7b 443e 52f7 f33d b6bf 09be
00000030: 1116 c3bc 2dad 4b3d 23c5 04be 825c dfbd
00000040: aa6b 7c3c 03bd b4bd f50c 5dbe 99cc 22bd
00000050: fd85 4f3e c658 583e 4b51 f4bd 153b 2dbe
00000060: 3343 07be b604 373d 7c5e 4bbe 03ae 763c
00000070: c966 7abd be3e 03be 4854 2b3e f5d3 0abe
00000080: e7e9 02be 7291 73bd 349b dd3d ff65 093e
00000090: ae6a 743d 7d3c 36be 2dec a43d e0dd 14be
000000a0: 87ed 2b3e e10d d43d 04be b33d 141e 7c3c
000000b0: 17fb ae3d 98cc 7f3c e322 153e 70da 943c
000000c0: 5657 4f3e 9e6c fdbd 7704 63be fb03 2bbd
000000d0: 2242 193e 0667 2dbe 7530 5abd a0c0 9dbd
000000e0: 3598 a2bd a4db 4abe d3a7 073e 35f2 05be
000000f0: 2196 35be 0d8b 1fbe d555 be3d 71dc f43c
00000100: c7d3 783c a02c adbd 3fd3 ffbd 4c87 7b3d
00000110: 9bf4 57be 5983 773c 515e 183e 8611 d13d
00000120: dd75 c23d 521c 1c3e f43f 39be 1430 753e
00000130: 4959 303e 167e 18bd db14 103e 2213 243d
00000140: aaf8 cdbd 05f3 4fbe 7e3e 50be 9f07 353e
00000150: 1e7d 113e 9030 b03c 8b06 f339 8fbc 0ebe
00000160: 7845 1c3e 5ff8 313e fabc 4c3e 63bb 1cbe
00000170: c352 14be 1fb8 1ebe 5161 943b ed9a be3d
00000180: e550 4ebe b537 b6bd 0442 613d 8279 c33d
00000190: fddb bebd 17dd da3d 2026 d9bd 6c99 20bc
000001a0: dc97 b03d ed3b 5e3e 4d20 473e dbbd ffbd
000001b0: 990d 65be 6aff f2bc 6676 59bd 78a2 833d
000001c0: b3bd 4b3e 093a 53be 0bcc 5abc 9b91 12be
000001d0: c13b b93d 6b42 0bbe ae3b 973c 8624 513e
000001e0: 039b ddbd e128 51be 4d8e 953c 2ff9 7bbd
000001f0: 0a91 1a3e df5c 09be 90e4 07be 5833 493e
00000200: c04a 153d 4e8a 69be f8bc 023e c356 2bbe
00000210: 6ba9 d93d 26b0 423e b7a8 b43d b715 29be
00000220: ff6a dfbd 4563 cdbd 5c62 ddbd e4bc 2cbe
00000230: 3f9e 7d3c d41f e0bd 13f2 443e 0f6c 0c3c
00000240: 7bd3 61bd 9d7d 0bbe 38c7 6bbe 9fb2 9abc
00000250: 29fc 263e 00de f63d 12d8 513c 821f 033d
00000260: 25f7 853d 1fda ee3d 744d 1ebe 52fb 463c
00000270: e1b1 56be 7d9a 423e 46e2 0bbd ed69 5b3e
00000280: b1a3 34be 39c8 f43d ffa2 223e cc52 26bd
00000290: dff2 493e 40b1 c5bd 4296 fd3d 0805 983d
000002a0: a2db 283e 2768 06bd b9a5 4cbe a8d7 243d
000002b0: 45f0 443e 93c7 1c3e c76c 2d3d 090d 28be
000002c0: b01e 50be d6fb 99bd d14b 0c3e 6ca3 b9bd
000002d0: 5cd0 52be fb8d 87bd 0a11 353c 3057 833d
000002e0: 0d60 0dbe 8605 17be 1272 04be cd4c 3dbe
000002f0: d2bf 4d3e 975a 96bd 2480 b0bd be36 2bbe
00000300: 9a82 113e d17c 8abd 53b2 ad3c 503f 85bd
00000310: e295 343e 83a6 93bd c0bf 0c3b d730 37bd
00000320: d71e 13be e39e 32bd 989a d7bd 9b45 8dbd
00000330: cf23 d7bc 077c 463d ffd6 183e 7c73 33be
00000340: f127 2c3e 85e5 7abd 52ab a1bd e69e fdbd
00000350: f687 123e 7d4e 51be 49e7 dabd 5856 07bd
00000360: 730a 9e3d 9397 a4bc b72b 573e 7303 ccbd
00000370: a4b6 643e d841 b73d 1950 123d 1ff2 f9bd
00000380: 2982 2e3e 0020 35b3 4768 c2bd b7de df3b
00000390: af7c 383e 6fab c2bd 3da2 ffbd 452c 493e
000003a0: b4c2 0bbb 5d64 71bd accf b4bd 2adc 163d
000003b0: 8604 7e3d 288d 2abd f3c4 2abd dc18 15be
000003c0: 19b7 c5bd 8045 0d3e 5289 d63d 76f6 433e
000003d0: 05ff 1fbd 82ed febd cf56 b43d c92d 3f3d
000003e0: 01eb 59be 65b6 adbc 66b9 40be 20e7 c8bd
000003f0: 1380 98bd 4f2a 133d 3191 623d 2731 153e

_neural_net._model.model.2.bias f4 [20]
-0.029627545 -0.21292709 0.19330634 -0.041401397 -0.16463204 0.15485689 0.057311554 0.02000426
0.09768235 -0.22009686 -0.1657067 -0.13384208 0.11931775 -0.15201218 0.015771672 0.15742122
-0.06148299 0.20215255 0.13140798 -0.10066831
00000000: 77b5 f2bc 8f09 5abe 19f2 453e 8394 29bd
00000010: 4d95 28be ce92 1e3e 85bf 6a3d f9df a33c
00000020: af0d c83d 1261 61be 04af 29be e60d 09be
00000030: dd5c f43d 15a9 1bbe 9833 813c 0733 213e
00000040: 96d5 7bbd 1401 4f3e d08f 063e 302b cebd

_neural_net._model.model.4.weight f4 [1, 20]
-0.026192931 -0.19025457 -0.022132128 -0.21724841 -0.10054608 -0.19494691 -0.0038567767 0.1117305
0.18116929 0.21864735 -0.041440483 -0.19982594 0.045549214 0.11051894 -0.038248576 0.092491075
-0.17985229 0.061702322 -0.14767738 0.05424799
00000000: 8f92 d6bc 18d2 42be 704e b5bc 5e76 5ebe
00000010: 1aeb cdbd 2aa0 47be fac1 7cbb f6d2 e43d
00000020: 7184 393e 17e5 5f3e 7fbd 29bd 2c9f 4cbe
00000030: d091 3a3d c157 e23d 8aaa 1cbd f66b bd3d
00000040: 332b 38be 93bb 7c3d bd38 17be 2433 5e3d

exp_avg f4 [20, 2]
0.071020484 -0.07266466 0.0017842059 0.008022641 0.027693043 0.043171953 0.0058502993 0.063928775
0.01924667 -0.017014744 0.03324605 -0.05227892 0.011669444 0.046550583 -0.0032695972 0.02280089
-0.14159645 0.12653838 0.006695596 0.010061627 0.039946035 -0.08492098 0.051872324 -0.04936346
-0.0006429031 0.034148883 0.020846078 0.05582087 -0.0028062053 -0.01735972 -0.009486318 -0.11416786
0.00042583607 -0.030199574 -0.049873196 0.04219441 0.0035494568 0.004983326 -0.0009027724 -0.0067289993
00000000: 3073 913d 36d1 94bd 04dc e93a 6571 033c
00000010: 85dc e23c 13d5 303d deb3 bf3b 17ed 823d
00000020: 31ab 9d3c 8162 8bbc 032d 083d 6c22 56bd
00000030: 3231 3f3c d3ab 3e3d bd46 56bb efc8 ba3c
00000040: a9fe 10be 4793 013e bb66 db3b 86d9 243c
00000050: 749e 233d 0deb adbd 1378 543d 5731 4abd
00000060: 7f88 28ba b3df 0b3d 65c5 aa3c 6da4 643d
00000070: 50e8 37bb f935 8ebc 806c 1bbc d7d0 e9bd
00000080: c042 df39 1965 f7bc d647 4cbd 0cd4 2c3d
00000090: 019e 683b 2b4b a33b 08a8 6cba f07e dcbb

exp_avg_sq f4 [20, 2]
0.00020547908 0.00020580068 9.650309e-06 1.0554185e-05 6.558382e-05 0.00011568103 9.106131e-05 0.00018003717
2.4990859e-05 2.7567363e-05 7.469608e-05 0.000112762966 5.2509586e-05 0.00010329246 9.402621e-06 2.1308151e-05
0.0009048174 0.0008118108 1.1094479e-05 2.9201334e-05 0.00013619964 0.000242107 0.00011957435 0.00012365081
5.528945e-05 7.928183e-05 8.0105114e-05 0.00015721898 1.5599513e-05 2.0622698e-05 9.3426046e-05 0.00036115164
1.8167515e-05 4.248645e-05 0.00016066553 0.0001871326 8.518563e-07 1.8942817e-06 1.0298284e-06 1.5193906e-06
00000000: df75 5739 33cc 5739 c3e7 2137 e111 3137
00000010: 0c8a 8938 c899 f238 2bf8 be38 5cc8 3c39
00000020: 76a3 d137 7640 e737 27a6 9c38 287b ec38
00000030: bd3d 5c38 b89e d838 f3bf 1d37 e8be b237
00000040: 4531 6d3a b3cf 543a 6d22 3a37 63f5 f437
00000050: d0d0 0e39 1ade 7d39 fec3 fa38 43a8 0139
00000060: 98e6 6738 1c44 a638 1bfe a738 26db 2439
00000070: b3db 8237 e8fe ac37 baed c338 f458 bd39
00000080: 7166 9837 7a33 3238 5378 2839 0639 4439
00000090: 1fab 6435 063f fe35 a238 8a35 dded cb35

exp_avg f4 [20]
0.05779171 0.0013038223 -0.028236026 -0.0053873784 0.008561051 0.0040074456 -0.021779193 -0.0042005847
-0.06795934 0.0037516411 0.061921254 0.029853817 -0.0066589746 0.021776436 -0.008042716 -0.010648016
0.019912288 -0.003777824 -0.006303196 -0.0011771036
00000000: 00b7 6c3d 04e5 aa3a 3d4f e7bc 9b88 b0bb
00000010: a743 0c3c e450 833b 476a b2bc 0fa5 89bb
00000020: 442e 8bbd 18de 753b 24a1 7d3d fe8f f43c
00000030: 8733 dabb 7f64 b23c 99c5 03bc 0475 2ebc
00000040: 181f a33c 5f95 77bb 0a8b cebb 0b49 9aba

exp_avg_sq f4 [20]
0.00019149049 1.1583333e-05 0.00014373891 0.00012908038 2.9714021e-05 6.153862e-05 9.617994e-05 1.09234525e-05
0.00069898786 2.6622507e-05 0.00020170369 0.00010344853 7.0533235e-05 0.0001064552 2.2529175e-05 0.00014695924
4.535467e-05 0.00016368047 3.6427482e-06 1.0037091e-06
00000000: d6ca 4839 0956 4237 9fb8 1639 c059 0739
00000010: 6042 f937 4c0e 8138 36b4 c938 df43 3737
00000020: 483c 373a 6653 df37 6c80 5339 82f2 d838
00000030: 3eeb 9338 b340 df38 09fd bc37 1219 1a39
00000040: 353b 3e38 a4a1 2b39 f075 7436 2fb7 8635

exp_avg f4 [20, 20]
-0.0028031908 -0.013796418 -0.0008139761 -0.011871184 0.002978045 0.00706253 0.00032015628 -0.006109494
0.004020125 -0.00652888 0.0069853407 0.0043701534 0.0011788908 -0.013723777 0.0022193294 -0.01741935
0.0029180155 0.0037203107 -0.0026499627 -0.0135137485 -0.016120473 -0.07743347 -0.0025892057 -0.0658796
0.014970522 0.045221273 0.003984678 -0.035999067 0.02493512 -0.04003167 0.039310515 0.026451577
0.010421956 -0.0824741 0.007968358 -0.098859854 0.018638372 0.017770594 -0.017362034 -0.079649284
-0.0029418312 -0.010564912 -0.004574525 -0.010930069 0.0020502321 0.0025106785 -0.003289041 -0.004179328
0.0024561745 -0.0019710897 0.0066709784 0.0026416422 -0.0023221804 -0.0064038155 0.0030386802 -0.015278549
-0.001111506 0.0031789988 0.0020773287 -0.0068103275 -0.029831653 -0.0829762 -0.0025934982 -0.068370655
0.002841347 0.07065813 0.0038254317 -0.05241729 0.043358464 -0.048980802 0.051225096 0.041842416
0.021756278 -0.103251025 -0.009144475 -0.10772295 0.015661888 0.0038819024 -0.017541315 -0.09163431
-0.0023034457 -0.044742957 0.004586234 -0.035412997 0.016475288 0.015067594 0.006513787 -0.013746683
0.0055265245 -0.022250382 0.016084312 0.00869361 0.004096927 -0.04475115 0.015304528 -0.049384136
0.014984973 0.020145468 -0.015111915 -0.047788028 -0.032228507 -0.089861885 -0.027566485 -0.08621727
0.008041616 0.046313424 -0.018375808 -0.04745234 0.035169017 -0.030119982 0.060028657 0.034708146
-0.002530642 -0.077693716 0.008621703 -0.12603687 -0.0033344664 0.014476893 0.006823704 -0.072973244
-0.0013498191 -0.003449814 -0.0019148621 -0.0037759237 0.00037413972 0.0012145009 -0.0013246717 -0.0017397599
0.0012377863 -0.00054104 0.0025563987 0.0011694321 -0.00092128955 -0.0017474435 0.00065818394 -0.005392707
-0.000538499 0.0006667261 0.00096595706 -0.001677568 0.011718086 0.04579678 0.0058745616 0.040996026
-0.007166404 -0.026708929 0.001207651 0.02244356 -0.016155431 0.02137805 -0.025799803 -0.016460957
-0.0038931628 0.045580935 -0.0036614886 0.061687093 -0.007636661 -0.008835502 0.006090158 0.04332739
0.02077917 0.07789822 -0.00044950313 0.063925825 -0.010161791 -0.055706806 -0.0062282444 0.04199366
-0.03192558 0.04450803 -0.042339828 -0.032356583 -0.016823675 0.091465764 -0.00065790094 0.09823354
-0.018984357 -0.012082586 0.019833228 0.084899984 0.029870382 0.08712408 -0.016179804 0.061590113
-0.0036436631 -0.083184026 -0.017979095 0.05754488 -0.047779538 0.06267111 -0.049002636 -0.047393184
-0.03716117 0.12776701 0.011920849 0.09845487 -0.026069228 -0.0048753684 0.03458471 0.113657825
-0.0071948394 -0.018446816 0.004224641 -0.012249598 7.752157e-06 0.0184793 0.0039424915 -0.013000552
0.010967438 -0.013634987 0.010742807 0.010908923 0.008875575 -0.028778013 -0.0029629453 -0.019406224
0.004800611 0.00059307466 -0.00743938 -0.02545806 -0.02752564 -0.08628759 -0.0064869346 -0.073492445
0.0077719074 0.061125923 0.00020630495 -0.04882465 0.03797227 -0.045028362 0.051536366 0.037701868
0.015197699 -0.09737627 -0.00051921856 -0.11219789 0.01346045 0.010691986 -0.014108306 -0.08921069
-0.00014189792 0.023635417 -0.0073515465 0.016343353 -0.009576586 -0.009867114 -0.0074894717 0.007161283
-0.0027404441 0.014840144 -0.006564017 -0.0047803796 -0.005589577 0.02809394 -0.007751071 0.022938682
00000000: bdb5 37bb 5f0a 62bc 0361 55ba 5b7f 42bc
00000010: 4e2b 433b cc6c e73b a6da a739 2632 c8bb
00000020: 41bb 833b 37f0 d5bb 49e5 e43b 8133 8f3b
00000030: 0385 9a3a b1d9 60bc 2b72 113b 06b3 8ebc
00000040: 2d3c 3f3b 75d0 733b ffaa 2dbb c568 5dbc
00000050: 150f 84bc 7095 9ebd aaaf 29bb e2eb 86bd
00000060: ec46 753c f139 393d e791 823b c273 13bd
00000070: bd44 cc3c 40f8 23bd 1004 213d fab0 d83c
00000080: dac0 2a3c 2ee8 a8bd b78d 023c 0977 cabd
00000090: 80af 983c a393 913c d33a 8ebc 2a1f a3bd
000000a0: bdcb 40bb 7418 2dbc e6e5 95bb 0814 33bc
000000b0: 305d 063b 328a 243b f48c 57bb bff2 88bb
000000c0: c5f7 203b 662d 01bb 3998 da3b 671f 2d3b
000000d0: b92f 18bb 19d7 d1bb 9824 473b e152 7abc
000000e0: f4af 91ba c056 503b cb23 083b 2b29 dfbb
000000f0: 8361 f4bc 6def a9bd aef7 29bb ea05 8cbd
00000100: e435 3a3b 36b5 903d 18b4 7a3b 83b3 56bd
00000110: a598 313d 18a0 48bd 68d1 513d f462 2b3d
00000120: 393a b23c 4675 d3bd b5d2 15bc da9d dcbd
00000130: 5c4d 803c 8467 7e3b ceb2 8fbc c5aa bbbd
00000140: 68f5 16bb 6444 37bd 1f48 963b 380d 11bd
00000150: 2ff7 863c 12de 763c 9b71 d53b c439 61bc
00000160: d917 b53b 6f46 b6bc 3fc3 833c a56f 0e3c
00000170: 843f 863b fb4c 37bd d8bf 7a3c 0547 4abd
00000180: 8883 753c 1c08 a53c f797 77bc 61bd 43bd
00000190: 0a02 04bd 8209 b8bd 1cd3 e1bc ae92 b0bd
000001a0: fbc0 033c 25b3 3d3d dd88 96bc 635d 42bd
000001b0: 630d 103d 2ebe f6bc 9ce0 753d 212a 0e3d
000001c0: 21d9 25bb e21d 9fbd 0b42 0d3c cf0f 01be
000001d0: 1087 5abb 7d30 6d3c 6199 df3b ff72 95bd
000001e0: 6aec b0ba 4616 62bb 1cfc faba 7d75 77bb
000001f0: 2f28 c439 e32f 9f3a 9ba0 adba a808 e4ba
00000200: 373d a23a 94d4 0dba 4189 273b a147 993a
00000210: b282 71ba 790a e5ba fa89 2c3a 4eb5 b0bb
00000220: 0e2a 0dba 3bc7 2e3a 4838 7d3a d7e1 dbba
00000230: 37fd 3f3c 6895 3b3d 657f c03b 73eb 273d
00000240: 27d4 eabb afcc dabc 0b4a 9e3a 8fdb b73c
00000250: 6558 84bc 0521 af3c 1c5a d3bc 21d9 86bc
00000260: 6f24 7fbb 13b3 3a3d 96f5 6fbb 9bab 7c3d
00000270: f53c fabb c8c2 10bc f38f c73b 1078 313d
00000280: 1439 aa3c 1a89 9f3d 4aab ebb9 8beb 823d
00000290: a47d 26bc d22c 64bd 4d16 ccbb 8b01 2c3d
000002a0: 66c4 02bd 0d4e 363d 876c 2dbd 5688 04bd
000002b0: ced1 89bc 6752 bb3d fc76 2cba ab2e c93d
000002c0: 1585 9bbc 0af6 45bc 4b79 a23c 0be0 ad3d
000002d0: bbb2 f43c 1c6e b23d 828b 84bc ea45 7c3d
000002e0: 86ca 6ebb 635c aabd e548 93bc 2eb4 6b3d
000002f0: 7ab4 43bd b659 803d fdb6 48bd 5b1f 42bd
00000300: 5036 18bd 5bd5 023e aa4f 433c b5a2 c93d
00000310: 228f d5bc 8ec1 9fbb b2a8 0d3d 6fc5 e83d
00000320: b0c2 ebbb c71d 97bc db6e 8a3b 8ab2 48bc
00000330: 430f 0237 e761 973c 0430 813b 4400 55bc
00000340: c5b0 333c 4865 5fbc 9902 303c 57bb 323c
00000350: dc6a 113c debf ebbc f92d 42bb cdf9 9ebc
00000360: 724e 9d3b 9178 1b3a 0bc6 f3bb 6c8d d0bc
00000370: 737d e1bc 8cb7 b0bd 5a90 d4bb 3583 96bd
00000380: 7cab fe3b 2d5f 7a3d 9053 5839 5bfc 47bd
00000390: d088 1b3d a96f 38bd cc17 533d 466d 1a3d
000003a0: c5ff 783c 366d c7bd 2b1c 08ba 02c8 e5bd
000003b0: 3889 5c3c 712d 2f3c 8626 67bc 18b4 b6bd
000003c0: 6fca 14b9 109f c13c 3ee5 f0bb 7fe2 853c
000003d0: 1de7 1cbc ada9 21bc 3e6a f5bb 32a9 ea3b
000003e0: 0699 33bb 1324 733c f716 d7bb bba4 9cbb
000003f0: c528 b7bb 4325 e63c b2fc fdbb e7e9 bb3c

exp_avg_sq f4 [20, 20]
1.2989805e-05 7.35563e-06 1.0526798e-05 1.0241663e-05 9.9000035e-06 1.3746752e-05 9.536243e-06 1.0257452e-05
1.2159373e-05 3.0532753e-06 1.1966051e-05 8.802053e-06 6.290115e-06 1.326133e-05 9.61167e-06 1.7412449e-05
1.4103378e-05 9.104125e-06 1.1958522e-05 7.332035e-06 0.00042182527 0.00022992726 0.00031663742 0.00031031732
0.00032327021 0.00047271937 0.00029142885 0.0003395996 0.00040472954 0.0001010875 0.00037880617 0.00029328177
0.00020241084 0.0004574654 0.0003185303 0.00053195463 0.00044442448 0.00029770174 0.00036796872 0.00024842654
6.154164e-06 3.4286647e-06 3.5906996e-06 4.535932e-06 4.74566e-06 6.1636306e-06 3.4581376e-06 4.9132036e-06
5.8939827e-06 6.881718e-07 5.508995e-06 4.2224965e-06 2.1293567e-06 4.8107117e-06 4.592877e-06 7.906674e-06
5.7524235e-06 4.39186e-06 4.2369675e-06 2.2016725e-06 0.0006264676 0.00029071834 0.0004834572 0.00040850084
0.00044393606 0.00070672913 0.00044388487 0.00051173236 0.0005981081 0.00015631132 0.00057389756 0.0004367181
0.00029567126 0.0006976646 0.00042766155 0.0007114763 0.00065947475 0.00039585758 0.00055845646 0.00036396855
5.643123e-05 6.1033737e-05 4.43649e-05 6.3103595e-05 5.4804532e-05 6.629946e-05 4.0766485e-05 4.5195156e-05
5.5127966e-05 1.9343643e-05 5.0783663e-05 3.931825e-05 3.0537256e-05 8.000674e-05 5.827296e-05 0.00010444305
6.452973e-05 5.6876135e-05 5.4370037e-05 6.1327046e-05 0.0005653761 0.00029106298 0.00040709806 0.00041259255
0.00041051017 0.00059366116 0.00037367502 0.00045598688 0.00053597975 0.00010200688 0.0005237709 0.00038862386
0.00024049115 0.0005310112 0.0003962158 0.0007182042 0.00056520535 0.00037121886 0.00045942242 0.00025957232
2.2297022e-06 7.2974893e-07 2.410154e-06 1.6370719e-06 1.4655159e-06 1.8582218e-06 2.0610262e-06 1.6140998e-06
1.8777092e-06 4.8799893e-07 2.1950543e-06 1.3580186e-06 1.1417087e-06 1.6695666e-06 1.2471293e-06 2.7675783e-06
2.6896264e-06 1.2227956e-06 2.5260465e-06 7.990345e-07 0.0001810086 8.24497e-05 0.00012658809 0.00011563455
0.00013334745 0.00019045676 0.00011889242 0.00014431542 0.00017129995 3.578911e-05 0.00016108894 0.0001240966
7.515558e-05 0.00017428085 0.00012481387 0.0002016143 0.00018636059 0.00011888731 0.00014989532 8.74041e-05
0.00047201768 0.00024239428 0.00036842652 0.0003299131 0.00034611105 0.0005257159 0.00033831762 0.0003817487
0.00044838636 0.00012059118 0.00043126565 0.00032668115 0.00022577753 0.0005275058 0.00033377658 0.0005702477
0.00050577446 0.00031255963 0.00042781833 0.0002877946 0.00046602008 0.000298508 0.0004611858 0.00038083975
0.00031923034 0.0005628112 0.00040708075 0.00039002724 0.0004377612 0.00018355949 0.00046349358 0.0003251654
0.0002783401 0.0006928237 0.00031510246 0.0006593283 0.0005493285 0.00028888742 0.00051794417 0.00043204636
1.2702067e-05 1.261795e-05 1.5720601e-05 1.4475122e-05 8.036461e-06 1.7814975e-05 1.3282751e-05 1.1567506e-05
1.2087785e-05 7.3521564e-06 1.4449822e-05 9.291285e-06 1.0001722e-05 2.6762022e-05 8.914823e-06 2.4820141e-05
1.5941565e-05 7.671678e-06 1.6741444e-05 1.8444429e-05 0.00056196353 0.0002903989 0.00042629128 0.0003941851
0.0004056906 0.00062227354 0.00039209484 0.00045785346 0.0005349497 0.00013424965 0.0005183599 0.00039012064
0.00025937558 0.00061494304 0.00039158404 0.0006863426 0.0005873452 0.000365527 0.0004920512 0.0003279413
1.0376541e-05 1.7035147e-05 1.1623902e-05 1.5342954e-05 1.1273957e-05 1.32649375e-05 1.0246415e-05 8.387846e-06
9.866548e-06 6.755823e-06 1.0067598e-05 7.127294e-06 7.5237904e-06 2.3493883e-05 1.2141158e-05 2.5204386e-05
00000000: caee 5937 61d0 f636 419c 3037 9cd3 2b37
00000010: 3118 2637 daa1 6637 dafd 1f37 6c17 2c37
00000020: 1c00 4c37 dfe6 4c36 ccc1 4837 88ac 1337
00000030: ad0f d336 fb7c 5e37 cf41 2137 f310 9237
00000040: 8c9d 6c37 ebbd 1837 76a1 4837 b305 f636
00000050: 6e28 dd39 a118 7139 5b02 a639 16b2 a239
00000060: 987c a939 52d7 f739 ebca 9839 490c b239
00000070: e131 d439 f0fe d338 819a c639 9dc3 9939
00000080: 3f3e 5439 f7d7 ef39 6a00 a739 df72 0b3a
00000090: a501 e939 da14 9c39 edeb c039 3f3f 8239
000000a0: de7f ce36 0318 6636 c0f7 7036 5c33 9836
000000b0: e93c 9f36 2fd1 ce36 5a12 6836 19dc a436
000000c0: edc4 c536 ceba 3835 e8d9 b836 f8ae 8d36
000000d0: 12e6 0e36 b36b a136 831c 9a36 e8a6 0437
000000e0: f104 c136 ca5d 9336 462b 8e36 72c0 1336
000000f0: 8739 243a 8e6b 9839 8778 fd39 0e2c d639
00000100: 17c0 e839 ca43 393a 38b9 e839 c725 063a
00000110: 5bca 1c3a 80e7 2339 9d71 163a 50f7 e439
00000120: 5304 9b39 7be3 363a c337 e039 5e82 3a3a
00000130: 9ae0 2c3a 1b8b cf39 6165 123a 08d3 be39
00000140: 92b0 6c38 7afe 7f38 7314 3a38 7c56 8438
00000150: ebdd 6538 400a 8b38 aefc 2a38 ee8f 3d38
00000160: 3439 6738 2844 a237 8b00 5538 a6e9 2438
00000170: 2115 0038 4bc9 a738 1d6a 7438 6f08 db38
00000180: 2354 8738 498e 6e38 620b 6438 b59c 8038
00000190: bf35 143a d099 9839 c76f d539 3c51 d839
000001a0: be39 d739 ed9f 1b3a d0e9 c339 8611 ef39
000001b0: fe80 0c3a 87ec d538 ac4d 093a 36c0 cb39
000001c0: 5a2c 7c39 8f33 0b3a 2fbb cf39 de45 3c3a
000001d0: 4a2a 143a 27a0 c239 a2de f039 3517 8839
000001e0: fea1 1536 f7e3 4335 21be 2136 5db9 db35
000001f0: beb2 c435 0468 f935 2950 0a36 0ca4 d835
00000200: 9905 fc35 08ff 0235 bf4e 1336 2a45 b635
00000210: d03c 9935 df15 e035 0963 a735 a2ba 3936
00000220: 6e7f 3436 f01e a435 2685 2936 3c7d 5635
00000230: 20cd 3d39 d8e8 ac38 bbbc 0439 d480 f238
00000240: 2fd3 0b39 59b5 4739 e255 f938 6053 1739
00000250: fb9e 3339 441c 1638 fce9 2839 ed1f 0239
00000260: d89c 9d38 29bf 3639 78e0 0239 6d68 5339
00000270: ca69 4339 2353 f938 382d 1d39 b84c b738
00000280: 2479 f739 382b 7e39 5f29 c139 30f8 ac39
00000290: 3d76 b539 32d0 093a 3960 b139 7125 c839
000002a0: 6615 eb39 e6e5 fc38 7f1b e239 6746 ab39
000002b0: b2be 6c39 5148 0a3a bcfe ae39 ad7c 153a
000002c0: f395 043a 0bdf a339 ce4c e039 23e3 9639
000002d0: 2854 f439 1181 9c39 4fcb f139 72ab c739
000002e0: 5f5e a739 9f89 133a 746d d539 927c cc39
000002f0: 5083 e539 e079 4039 0e01 f339 f67a aa39
00000300: 2dee 9139 9d9e 353a 5634 a539 c6d6 2c3a
00000310: d000 103a d075 9739 a5c6 073a 4884 e239
00000320: f61a 5537 afb1 5337 bcdf 8337 2dda 7237
00000330: 56d4 0637 5e71 9537 fbd8 5e37 0f12 4237
00000340: a4cc 4a37 8bb2 f636 836d 7237 c4e1 1b37
00000350: 12cd 2737 017f e037 e090 1537 d934 d037
00000360: 40ba 8537 9bb5 0037 fa6f 8c37 1cb9 9a37
00000370: bc50 133a ae40 9839 d97f df39 a1aa ce39
00000380: dfb2 d439 1220 233a 1492 cd39 0d0c f039
00000390: de3b 0c3a 5ec5 0c39 8be2 073a 1b89 cc39
000003a0: cdfc 8739 2134 213a 854d cd39 aceb 333a
000003b0: 12f8 193a 34a4 bf39 fffc 003a 89ef ab39
000003c0: e716 2e37 b3e6 8e37 4704 4337 beb4 8037
000003d0: 4725 3d37 798c 5e37 04e8 2b37 86b9 0c37
000003e0: 8088 2537 14b0 e236 01e8 2837 fd26 ef36
000003f0: de74 fc36 bb14 c537 e0b1 4b37 026e d337

exp_avg f4 [20]
0.01387269 0.08244129 0.005429392 0.08299823 0.05151828 0.056837913 0.001624456 -0.044106554
-0.08359765 -0.09932847 0.019390766 0.080908775 -0.032330878 -0.05514368 0.023211192 -0.04654247
0.035133716 -0.019717475 0.06270968 -0.015877381
00000000: 474a 633c fbd6 a83d 0be9 b13b fafa a93d
00000010: d504 533d dfce 683d b3eb d43a 13a9 34bd
00000020: 3f35 abbd ba6c cbbd 62d9 9e3c 80b3 a53d
00000030: 626d 04bd 57de 61bd 6625 be3c 51a3 3ebd
00000040: 5fe8 0f3d 8b86 a1bc ef6d 803d 4811 82bc

exp_avg_sq f4 [20]
3.3188535e-05 0.0010615425 1.31987545e-05 0.0014965979 0.00018864934 0.0012583643 5.4205398e-06 0.0004307489
0.0011826741 0.0012874994 3.7658792e-05 0.0013510598 4.852514e-05 0.00042340276 3.4400586e-05 0.00021991921
0.00095406856 9.603662e-05 0.0008157047 8.1559316e-05
00000000: eb33 0b38 7523 8b3a 3870 5d37 7e29 c43a
00000010: 2cd0 4539 b3ef a43a 15e2 b536 24d6 e139
00000020: f503 9b3a 50c1 a83a d2f3 1d38 0b16 b13a
00000030: 7987 4b38 28fc dd39 5949 1038 1d9a 6639
00000040: 751a 7a3a 4567 c938 04d5 553a d30a ab38

exp_avg f4 [1, 20]
-0.12687802 0.09518466 -0.14860195 0.1620374 0.048935615 -0.21425381 -0.1924822 0.16520484
-0.0022623758 -0.022613427 -0.26898557 -0.09024821 0.20031357 0.16066267 0.14966854 -0.36728713
0.20758176 -0.1064055 -0.23540509 0.22750151
00000000: 50ec 01be 2df0 c23d 1c2b 18be 22ed 253e
00000010: b670 483d 5a65 5bbe 0e1a 45be 752b 293e
00000020: 5e44 14bb cb3f b9bc 7ab8 89be 0ed4 b8bd
00000030: 001f 4d3e c184 243e b642 193e 0f0d bcbe
00000040: 5090 543e 20eb d9bd 080e 71be 28f6 683e

exp_avg_sq f4 [1, 20]
0.0017943213 0.0033039746 0.0044001644 0.0007749957 0.0113726 0.0021274593 0.0035645443 0.0018752925
0.00016966392 0.0059604966 0.010896776 0.0008301425 0.012853398 0.0033149004 0.009472571 0.007735257
0.0063693444 0.0012824282 0.002483532 0.0066385423
00000000: 6f2f eb3a 7f87 583b 412f 903b 1529 4b3a
00000010: 2454 3a3c d86c 0b3b 219b 693b 60cc f53a
00000020: d0e7 3139 4550 c33b 6488 323c ec9d 593a
00000030: 0f97 523c cd3e 593b d832 1b3c 0a78 fd3b
00000040: efb5 d03b 2617 a83a c1c2 223b 2188 d93b
