tutorials/tutorial 5/lightning_logs/version_12/checkpoints/epoch=4-step=5.ckpt (torch, 505941 bytes, 205 tensors)

_pina_model._model.model.0.weight f4 [20, 2]
0	0xbe69bf61	-0.22826912
1	0x3daee205	0.085392036
2	0x3e268260	0.16260672
3	0x3f12e42c	0.5737941
4	0xbeff909e	-0.49915022
5	0x3da5e9f3	0.08101263
6	0x3f02f638	0.5115695
7	0x3e20f9bd	0.15720268
8	0xbe06c164	-0.1315971
9	0xbe9cbdf7	-0.30613682
10	0xbebf9f3d	-0.37426177
11	0xbdccf725	-0.100080766
12	0x3d14fed1	0.036375824
13	0xbf333089	-0.69995934
14	0x3f0140ba	0.5048939
15	0xbeacd6dc	-0.33757675
16	0xbed0e9ff	-0.40803525
17	0xbed3864e	-0.41313404
18	0x3e95acb8	0.29233336
19	0x3efe469b	0.49663243
20	0x3ede3288	0.43397927
21	0xbedff049	-0.4373801
22	0x3ed13c0b	0.40866122
23	0xbe811445	-0.25210777
24	0xbf2fe4d9	-0.6870857
25	0xbec18fa6	-0.37804908
26	0xbeea988d	-0.45819512
27	0xbf2acb04	-0.6671603
28	0xbe787562	-0.24263528
29	0xbea346f1	-0.31890061
30	0xbf33474e	-0.7003068
31	0xbeed589a	-0.4635666
32	0x3f27b30b	0.6550757
33	0xbeb62585	-0.355755
34	0x3f12c61a	0.5733353
35	0x3f283e94	0.65720487
36	0x3f2416d8	0.64097357
37	0x3e39f912	0.18161419
38	0xbf27084f	-0.6524705
39	0x3eef7c8a	0.46774703

_pina_model._model.model.0.bias f4 [20]
0	0x3f2c8e5e	0.67404735
1	0xbea3a861	-0.319644
2	0xbe2127ed	-0.15737887
3	0xbed88489	-0.42288616
4	0xbeb199e8	-0.34687734
5	0xbeec335d	-0.46132937
6	0xbeda0e38	-0.42588973
7	0xbd9c2ffb	-0.07626339
8	0xbdab8124	-0.08374241
9	0x3e0d77d6	0.13815245
10	0xbe8be66c	-0.27324235
11	0xbf0e6e6c	-0.5563724
12	0x3ed9a47d	0.42508307
13	0x3e92a540	0.286417
14	0x3e36b32d	0.17841788
15	0x3f1e8165	0.6191619
16	0xbeea2af9	-0.4573591
17	0x3f17eec3	0.59348696
18	0xbef643f3	-0.48098716
19	0xbf19e1a8	-0.6010995

_pina_model._model.model.2.weight f4 [20, 20]
0	0xbd85d2c0	-0.06534338
1	0x3dda0c87	0.10646921
2	0x3d5daec6	0.054121755
3	0x3e53e432	0.20692518
4	0x3d9cfece	0.07665788
5	0xbe22a554	-0.1588338
6	0x3e1688f7	0.14700685
7	0x3e2f44c4	0.17116076
8	0xbdaf0639	-0.08546109
9	0x3e0ac571	0.1355188
10	0xbca92736	-0.02064858
11	0x3d9fbdfb	0.07799908
12	0x3c5350cb	0.0128976805
13	0x3bd5c460	0.006523654
14	0x3d6f25a7	0.058385517
15	0x3e0a5aae	0.13511154
16	0xbc2c97cb	-0.010534237
17	0xbd58d800	-0.05294037
18	0xbdccc88a	-0.09999187
19	0xbe0650b7	-0.13116728
20	0x3e3ddb2d	0.1854064
21	0x3e13249e	0.14369437
22	0xbd52085e	-0.05127751
23	0x3db2cf7e	0.08730982
24	0x3e44509b	0.19171374
25	0xbe68bc9c	-0.22728199
26	0x3e3059e1	0.17221786
27	0x3aeb8349	0.0017968203
28	0xbccb8472	-0.024843428
29	0x3d5f13b1	0.05446214
30	0x3df65a57	0.1202895
31	0x3af55ca9	0.0018719631
32	0xbe3ae742	-0.1825228
33	0xbd28e565	-0.041234393
34	0xbcd94064	-0.026519962
35	0x3e3005eb	0.17189758
36	0xbdff6b10	-0.124715924
37	0x3de9f17b	0.11423012
38	0x3db934eb	0.090432964
39	0xbe3cae9d	-0.18425985
40	0xbe1f532b	-0.1555907
41	0x3e3c11c8	0.18366158
42	0xbe39f251	-0.18158843
43	0xbdaee389	-0.08539493
44	0xbe1be7f1	-0.15225197
45	0xbe2ef6ff	-0.17086409
46	0xbd536e18	-0.051618665
47	0x3e11d613	0.14241819
48	0xbe04e8cb	-0.12979428
49	0xbe2836ef	-0.16427206
50	0xbdaf4826	-0.08558683
51	0x3e3a4d5c	0.18193573
52	0x3e606f34	0.2191742
53	0xbca86488	-0.02055575
54	0xbce0a24b	-0.027421137
55	0x3e13db66	0.14439163
56	0x3e127fb6	0.1430653
57	0xbe23b5ed	-0.15987368
58	0x3d2f8dc4	0.042859808
59	0xbe35cf5d	-0.17754884
60	0xba3688c1	-0.0006963127
61	0x3e6166f2	0.22011927
62	0x3df9044b	0.12159022
63	0x3e3c10dc	0.18365806
64	0x3e19cf70	0.15020537
65	0xbe0b0216	-0.13575014
66	0x3d62ebac	0.055400535
67	0x3d7c56e5	0.061606307
68	0x3dc56373	0.09638109
69	0x3e15cbd7	0.1462854
70	0x3e536619	0.20644416
71	0x3da05f99	0.07830734
72	0x3c3996be	0.011327444
73	0xbdf2d9d7	-0.11857956
74	0xbde357df	-0.111007445
75	0x3d9c17f1	0.07621754
76	0xbca6f59c	-0.020380788
77	0x3c353fa9	0.011062541
78	0xbde28dd9	-0.110622115
79	0xbdd94372	-0.10608567
80	0xbde8f4d2	-0.11374821
81	0x3d35afb3	0.044357013
82	0x3e3cba94	0.18430549
83	0x3e5ead92	0.217459
84	0x3e18ea23	0.14933066
85	0x3ce9a648	0.028521672
86	0x3e613f83	0.21996884
87	0x3d79b851	0.060966793
88	0xbbffe04f	-0.007808722
89	0xbdefc60c	-0.11707696
90	0xbe4663c7	-0.19374
91	0xbd0043a4	-0.031314507
92	0xbd80af49	-0.06283433
93	0x3e1a4699	0.15065993
94	0xbb6ee4fd	-0.0036452406
95	0x3e55db09	0.20884337
96	0xbe3ef9f8	-0.18650043
97	0x3d5b9826	0.053611897
98	0xbe319df7	-0.17345415
99	0xbe179152	-0.14801529
100	0xbdf364e0	-0.11884475
101	0xbcd71ebd	-0.026259774
102	0xbe1cdf93	-0.15319662
103	0x3db0e6cb	0.0863777
104	0x3cba0433	0.02270708
105	0xbb498574	-0.003074971
106	0xbe5de380	-0.21668816
107	0xbd53ea08	-0.05173686
108	0x3e5f40da	0.21802083
109	0xbe0e7df0	-0.13915229
110	0x3e5a47d8	0.21316469
111	0xb8ac52ea	-8.217043e-05
112	0xbe460cde	-0.19340846
113	0x3b5f5187	0.0034075694
114	0xbad49a6e	-0.001622034
115	0xbe027a85	-0.1274205
116	0xbe53c110	-0.20679116
117	0xbe52360d	-0.20528431
118	0xbd46a4d8	-0.04849705
119	0x3e1031d8	0.14081514
120	0x3e3b124c	0.18268698
121	0xbe3ce3be	-0.18446252
122	0xbda1660a	-0.078807905
123	0xbd831422	-0.064003244
124	0xbe196c80	-0.14982796
125	0xbb7905a0	-0.0037997738
126	0x3dcecd59	0.10097761
127	0xbdb6750d	-0.089090444
128	0xbdee7fd0	-0.11645472
129	0x3e123397	0.14277492
130	0x3d91866d	0.07105718
131	0x3ca0e4d5	0.019640366
132	0xbc8be4ea	-0.017076928
133	0x3d14c64c	0.036321923
134	0xbd1e04aa	-0.038578667
135	0xbd8c30fe	-0.06845282
136	0xbd00b258	-0.03142008
137	0x3c99007b	0.018676987
138	0xbd9b9f32	-0.075987235
139	0x3c3cd134	0.011524487
140	0x3d581a25	0.05275931
141	0x3e41c6c5	0.18923481
142	0x3deccb2c	0.115621895
143	0x3e1cdf5b	0.15319578
144	0xbd154328	-0.036441
145	0xbcdd0fea	-0.026985127
146	0xbe40c886	-0.18826494
147	0xbc77dfe9	-0.015129068
148	0x3de3a30e	0.111150846
149	0xbd365115	-0.04451092
150	0x3d9e3316	0.077245876
151	0x3e4ad26a	0.19806829
152	0xbd21f081	-0.039536003
153	0xbd37797a	-0.044793583
154	0xbdf65279	-0.12027449
155	0xbe0d342b	-0.13789432
156	0xbd22da5d	-0.03975903
157	0xbe47cd52	-0.19511917
158	0x3e3343e4	0.17506367
159	0xbdc6c7e2	-0.09706093
160	0x3e127d5c	0.14305633
161	0xbe19ecd9	-0.15031756
162	0xbcca179f	-0.024669467
163	0xbceed4bf	-0.02915418
164	0x3dde4e52	0.10854782
165	0x3d8aa0b2	0.067689314
166	0xbdae5c1e	-0.08513664
167	0x3e315e4b	0.17321126
168	0x3df3898f	0.118914716
169	0xbd7d83a1	-0.06189311
170	0xbe4db9a8	-0.20090353
171	0xbe5372fe	-0.20649335
172	0x3de83ddf	0.11339926
173	0xbdacee5e	-0.084439024
174	0x3dba9531	0.09110487
175	0x3d898b87	0.06716066
176	0xbaff2c45	-0.0019468149
177	0xbdaf1313	-0.0854856
178	0xbe331086	-0.17486772
179	0x3e1e74ff	0.15474318
180	0xbdbe6b85	-0.092978515
181	0x3e55c092	0.20874241
182	0xbe19a6a7	-0.15004979
183	0x3e63293d	0.221837
184	0x3da3589f	0.079758875
185	0x3dab4464	0.08362654
186	0x3e285bc2	0.16441253
187	0x3e5e2521	0.21693851
188	0x3d8159cb	0.06315955
189	0x3d7f7994	0.062371805
190	0x3e2221c2	0.1583319
191	0x3e44c61c	0.19216198
192	0xba71d9d4	-0.00092258793
193	0x3be369c2	0.0069400975
194	0x3e60a1b6	0.21936688
195	0x3de56c6f	0.11202323
196	0x3de76ca5	0.11300019
197	0x3dc69295	0.09695927
198	0x3e677ad7	0.22605453
199	0x3e289209	0.16461958
200	0xbd48d5ac	-0.0490319
201	0xbd7ac028	-0.06121841
202	0xbd53e60b	-0.051733058
203	0x3e01d6aa	0.12679544
204	0xbe57dee8	-0.21081126
205	0xbe047514	-0.12935287
206	0xbe5ca137	-0.21545874
207	0xbe25a1b1	-0.16174962
208	0x3b8b3687	0.0042484435
209	0x3e537b34	0.20652467
210	0xbdeb6f86	-0.11495881
211	0xbe2481ec	-0.16065186
212	0x3cba7da2	0.022764985
213	0x3e5e3ea6	0.21703586
214	0x3e369aa7	0.17832433
215	0x3d7f8b0f	0.062388476
216	0x3e272783	0.16323666
217	0xbd2ffc3b	-0.042965155
218	0x3df597fb	0.119918786
219	0x3db96bf0	0.090537906
220	0xbb91301a	-0.004430783
221	0x3e4130e3	0.18866305
222	0x3d041f76	0.032256566
223	0xbc4fdb56	-0.012686571
224	0xbe087348	-0.13325226
225	0xbe594a01	-0.21219636
226	0x3b7baf45	0.003840403
227	0x3df6888f	0.12037765
228	0x3d8fb49d	0.07016871
229	0x3c9dbbb3	0.019254541
230	0x3dfdb1d2	0.12387432
231	0x3e174fab	0.14776485
232	0xbe0649d7	-0.13114105
233	0x3e0b7e32	0.13622358
234	0x3d639aef	0.055567678
235	0xbcfa0a06	-0.030522358
236	0xbc852c35	-0.016256431
237	0x3d4e566c	0.050375387
238	0xbe431d50	-0.1905415
239	0x3dde6131	0.108583815
240	0xbe1c15ca	-0.15242687
241	0xbdb6b832	-0.08921851
242	0xbde2a59b	-0.11066743
243	0x3d255604	0.040365234
244	0xbe243006	-0.16033944
245	0x3c31284c	0.01081283
246	0xbe2e0aad	-0.1699626
247	0x3e5a8cb6	0.2134274
248	0xbd17cc94	-0.037060335
249	0xbda6a08a	-0.08136089
250	0x3dc14a35	0.09437982
251	0xbd7e7741	-0.06212545
252	0x3e1d1e6d	0.15343638
253	0x3dce62dc	0.1007745
254	0x3d30d86b	0.043175142
255	0x3e1f6623	0.15566306

_pina_model._model.model.2.bias f4 [20]
0	0x3c609d83	0.013709429
1	0x3e3434f6	0.17598328
2	0xbd860659	-0.065441795
3	0xbddacb0c	-0.10683259
4	0x3e39fd2e	0.18162987
5	0x3d7a9b7e	0.061183445
6	0xba1d0039	-0.0005989108
7	0x3d040618	0.032232374
8	0xbe13a210	-0.1441729
9	0xbde7c5dd	-0.11317036
10	0x3e5c582e	0.21518013
11	0x3dcd49a5	0.10023812
12	0x3e4d4c72	0.20048693
13	0xbe7f07ce	-0.24905321
14	0x3e63e0b2	0.22253683
15	0x3d309c2c	0.043117687
16	0xbe06c813	-0.1316226
17	0xbe34a7fb	-0.17642204
18	0xbdd0dd92	-0.10198511
19	0xbdc443e8	-0.095832646

_pina_model._model.model.4.weight f4 [1, 20]
0	0x3d1d847f	0.038456436
1	0x3c64973f	0.0139520755
2	0xbe714c3c	-0.23564237
3	0x3df77073	0.12081995
4	0x3e00bd45	0.125722
5	0x3dd1d82f	0.10246312
6	0xbdedf9b1	-0.116198905
7	0xbe506b85	-0.20353515
8	0xbd57d045	-0.052688856
9	0x3e7a8bf8	0.24467456
10	0xbda2f7eb	-0.07957443
11	0x3e6b6ac2	0.22989944
12	0x3c045816	0.008077642
13	0xbdffa30a	-0.12482269
14	0x3bf54b82	0.007485808
15	0x3d8afd8a	0.0678664
16	0xbb0cc0a7	-0.0021477134
17	0x3db888e7	0.09010487
18	0x3e87be60	0.26512432
19	0x3e2affe9	0.16699184

d f4 [501]
0	0x3d98964c	0.07450542
1	0x3d842bbb	0.064536534
2	0xbb26e03e	-0.0025463249
3	0xbcbc6845	-0.022998938
4	0xbcf00dda	-0.02930348
5	0xbc8c7f56	-0.017150562
6	0x3d525bf2	0.051357217
7	0x3c421666	0.0118461605
8	0xbd3e4083	-0.046448242
9	0xbd9bf117	-0.076143436
10	0xbcc552c2	-0.024087314
11	0xbd2fb7f3	-0.042900037
12	0x3d224647	0.039617803
13	0xbdc5bf98	-0.09655684
14	0x3c208756	0.009797892
15	0xbcd9d780	-0.026592016
16	0xbd474c00	-0.048656464
17	0xbd67f670	-0.056631505
18	0x3c3d1745	0.011541192
19	0xbcb3acbd	-0.021932954
20	0x3d06e169	0.03292981
21	0xbd086463	-0.03329886
22	0xbcb84aa8	-0.022496536
23	0xbcc3e613	-0.023913419
24	0x3d62ce11	0.0553723
25	0x3d0a5970	0.0337767
26	0xbcddd721	-0.02708012
27	0xbd0409e6	-0.032236002
28	0x3d8e58e9	0.06950552
29	0x3d5c3ea2	0.05377067
30	0x3c8159ba	0.015789855
31	0xbb69721a	-0.0035620988
32	0x3d0ea592	0.03482587
33	0x3c6c4777	0.014421335
34	0xbceaaf4f	-0.028648047
35	0xbd397bfc	-0.045284256
36	0x3d15fb5a	0.03661666
37	0xbcb9e287	-0.022691024
38	0xbd6b37e9	-0.057426367
39	0x3da71e83	0.081601165
40	0x3e06c182	0.13159755
41	0xbcaab014	-0.020835914
42	0xbc9acf7d	-0.018897766
43	0x3cc9fc73	0.02465651
44	0xbe005d05	-0.12535484
45	0xbdb17554	-0.08664957
46	0x3d59eba4	0.05320324
47	0xbd8210f0	-0.06350887
48	0x3a1124ce	0.00055367954
49	0x3d5bbaa4	0.05364479
50	0xbbc5019d	-0.006012155
51	0xbd2ef08f	-0.042709883
52	0x3c91a73e	0.017779943
53	0x3da5d8e2	0.08098008
54	0x3de6d834	0.11271706
55	0xbc4e21a0	-0.012581259
56	0x3cb7846c	0.02240201
57	0x3dcc41a6	0.09973459
58	0x39de4546	0.00042394752
59	0x3d033c69	0.032040033
60	0x3b7cf0d0	0.0038595684
61	0x3a02b21e	0.0004985648
62	0x3b8e50e7	0.0043431404
63	0x3ad63fcc	0.0016345917
64	0xbae0f4ea	-0.0017162834
65	0x39fa30f7	0.00047720197
66	0x3c05c45a	0.00816449
67	0xbb6cfb75	-0.0036160622
68	0x3baac0f8	0.005210992
69	0xbb85399e	-0.0040657064
70	0x3b0140a6	0.0019722371
71	0x3a0ea18b	0.0005440942
72	0x3b9e74dc	0.004835708
73	0x3c07826c	0.008270841
74	0x3b4c8881	0.0031209292
75	0xba1c6b39	-0.0005966905
76	0x3ba2c15d	0.0049668984
77	0xbbf0e6cf	-0.0073517333
78	0x38a81732	8.015185e-05
79	0x3c825134	0.015907861
80	0x3d297604	0.041372314
81	0x386a3154	5.5835888e-05
82	0xbc65af67	-0.01401887
83	0xbc5ab68c	-0.013349187
84	0xbd0b4c38	-0.034008235
85	0xbd17e385	-0.037082214
86	0xbd163ff6	-0.03668209
87	0xbc0c9998	-0.0085815415
88	0xbcb0adc0	-0.021567225
89	0x3cd0859b	0.025454333
90	0xbcb07bb5	-0.021543363
91	0xbd0a67c8	-0.03379038
92	0x3be255db	0.0069072074
93	0xbb80dabd	-0.0039323256
94	0xbaf52bd1	-0.0018705075
95	0x3c51f51e	0.012814788
96	0xbcc2e96d	-0.023792947
97	0x3d41f53b	0.04735301
98	0xbc656c8d	-0.014002931
99	0xbcb98efa	-0.022651184
100	0xbdf8843b	-0.12134596
101	0xbb085fea	-0.0020809122
102	0x3d2a6464	0.041599646
103	0xbb0a80f6	-0.0021133996
104	0x3dd17f04	0.102293044
105	0x3de2f8d3	0.11082616
106	0x3d2e3d40	0.04253888
107	0x3b990f99	0.004671049
108	0x3d29486b	0.04132883
109	0xbd50abb5	-0.050945003
110	0x3c537de1	0.01290843
111	0x3d7fff68	0.062499434
112	0xbc45d5de	-0.012074916
113	0xbcbf5b9b	-0.02335911
114	0xbafe0f30	-0.0019383188
115	0x3b2abb90	0.0026051737
116	0xbc0824cd	-0.008309555
117	0xbdbcc0d5	-0.09216467
118	0x3a6f55d1	0.0009129914
119	0x3b44eda6	0.0030048876
120	0xbbd160ab	-0.0063896975
121	0x3b08e334	0.0020887377
122	0x3c90663e	0.017626878
123	0x3c5d5831	0.013509796
124	0x3c0fc129	0.00877408
125	0x3c84eef0	0.016227216
126	0x3d2cb56f	0.042165216
127	0xbba060bc	-0.004894344
128	0x3cc78738	0.02435647
129	0xbcbd0511	-0.023073705
130	0x3c94b990	0.01815489
131	0x3c95656d	0.01823684
132	0x3c182554	0.0092862435
133	0x3cd533a8	0.026025608
134	0x3c1a8e48	0.009433337
135	0xbc2e2484	-0.010628823
136	0x3cf1eab9	0.02953087
137	0xbd2f3aed	-0.042780805
138	0x3c1b8518	0.009492181
139	0x3d6d6c8e	0.057964854
140	0x3cc36a03	0.023854261
141	0x3b15b532	0.0022843597
142	0x3c13fdf0	0.009032711
143	0x3b3ab420	0.002848871
144	0xbc8054fb	-0.015665522
145	0xbc28e578	-0.010308616
146	0x3c8d14d0	0.017221838
147	0xbc46b577	-0.0121282255
148	0x3c24f0ae	0.010067148
149	0xbbbd69e5	-0.005780446
150	0x3b27ee74	0.0025624307
151	0xbbc7ef38	-0.006101515
152	0x3c7eea04	0.015558723
153	0x3ccf9724	0.025340624
154	0x3bf17d5a	0.0073696794
155	0xba4a710c	-0.0007722534
156	0x3c50f2ca	0.012753198
157	0xbc25fcf2	-0.010131108
158	0xbaae2e56	-0.0013288956
159	0x3d3c0bfb	0.045909863
160	0x3cdd50d8	0.027016088
161	0x3bb4307f	0.0054989452
162	0xb9c0a20a	-0.00036741822
163	0x3b863db8	0.004096713
164	0xbcb3a25a	-0.021928001
165	0xbc9acfc1	-0.018897893
166	0x3a636c6a	0.0008675518
167	0xbc0e4683	-0.0086838035
168	0xbb170d2c	-0.0023048623
169	0x3bc4c595	0.006004999
170	0xbb26b7ff	-0.002543926
171	0xbc3ee15e	-0.011650411
172	0x3bd06144	0.006359251
173	0x3c310a84	0.01080573
174	0x3b2efcdc	0.002670101
175	0xbb95f65b	-0.004576487
176	0x3bc07111	0.0058728536
177	0x3bf09b39	0.0073427227
178	0x3a92b770	0.0011193585
179	0x3cc8a7c8	0.024494067
180	0x3beefa22	0.0072930017
181	0x3ab1b754	0.0013558664
182	0xbcb1a6e6	-0.021686029
183	0xbbf50c3f	-0.0074782665
184	0xbc461e39	-0.012092167
185	0xbca69f15	-0.020339528
186	0xbd2b54c2	-0.04182888
187	0x3c0c5709	0.008565673
188	0xbce6c945	-0.028172145
189	0x3cd66544	0.026171334
190	0xbc70a115	-0.014686842
191	0xbc831d3c	-0.016005151
192	0xbc8422e4	-0.016129918
193	0xbcf60e5e	-0.030036148
194	0xbc4db462	-0.012555214
195	0x3b05168d	0.002030763
196	0xbcbb3404	-0.022851951
197	0x3d375895	0.044762213
198	0xbb1209de	-0.0022283713
199	0xbd6e574a	-0.058188714
200	0xbd3d6b8a	-0.046245135
201	0xbcaa1543	-0.020762092
202	0x3bb6487f	0.0055628414
203	0xbcb939ec	-0.022610627
204	0x3d33b044	0.043869272
205	0x3d1df604	0.038564697
206	0xbbf79bb8	-0.007556405
207	0x3c176a60	0.00924167
208	0x3c1fbef5	0.009750118
209	0xbc7285d4	-0.014802415
210	0xbb91a2ba	-0.0044444473
211	0x3c46afdb	0.012126888
212	0x3ba80788	0.005127851
213	0xbc33192f	-0.010931297
214	0x3b8db0a2	0.004324035
215	0x3d008ec3	0.03138615
216	0xbcea9809	-0.02863695
217	0xbc25c053	-0.010116654
218	0xbcaa40d5	-0.020782867
219	0xbd5f3572	-0.05449433
220	0x3bd96dc9	0.006635402
221	0x3b6371a0	0.0034705177
222	0xbc8ab383	-0.016931301
223	0x3aeec798	0.0018217443
224	0xbc35e4bc	-0.011101898
225	0xbc8660aa	-0.016403515
226	0xbcc7ed15	-0.024405042
227	0x3c06bfc8	0.008224435
228	0xbca55745	-0.020183215
229	0x3c990bf7	0.018682463
230	0xbbb22334	-0.0054363254
231	0xbc0491d8	-0.0080914125
232	0xbc755991	-0.014974968
233	0xbcaaa3b0	-0.020830005
234	0xbc08e7b6	-0.008356025
235	0xbbcbb4f2	-0.0062166387
236	0xbbebd9c2	-0.0071975896
237	0x3ceb4a96	0.028722089
238	0x3ba50f6f	0.00503724
239	0xbd0e1540	-0.034688234
240	0x3d7d700c	0.061874434
241	0x3c0347e9	0.00801275
242	0xbdc5ccc4	-0.096581966
243	0x3d9ecaec	0.07753548
244	0xbda5400d	-0.08068857
245	0xbde5c4f1	-0.11219204
246	0xbba443ee	-0.0050129807
247	0x3dabc572	0.08387269
248	0xbd84521b	-0.06460973
249	0x3d60cac2	0.054880865
250	0x3d8e9627	0.06962233
251	0x3c681802	0.01416588
252	0xbd9eeaad	-0.077596046
253	0xbcb4d66d	-0.022074902
254	0xbcb81159	-0.02246921
255	0xbdbc3691	-0.09190095

old_dirs f4 [501]
0	0xb8229c00	-3.8769096e-05
1	0xb7ed9400	-2.832152e-05
2	0x38624800	5.3949654e-05
3	0x38356800	4.325062e-05
4	0x372da800	1.0350719e-05
5	0x37e43e00	2.7208589e-05
6	0x39033800	0.00012513995
7	0x38f27000	0.00011560321
8	0x38900800	6.867945e-05
9	0x38886c00	6.505102e-05
10	0x3804e800	3.168732e-05
11	0x38243400	3.9149076e-05
12	0x38740000	5.8174133e-05
13	0x382a3000	4.0575862e-05
14	0x3841e000	4.6223402e-05
15	0x3818e800	3.645569e-05
16	0x38938800	7.034838e-05
17	0x38932000	7.015467e-05
18	0x36966000	4.4815242e-06
19	0x36e03000	6.681308e-06
20	0x38726000	5.7786703e-05
21	0x38390800	4.4114888e-05
22	0x380fe800	3.4309924e-05
23	0x37908c00	1.723133e-05
24	0xb881c800	-6.188452e-05
25	0xb882b800	-6.233156e-05
26	0x37e36000	2.7105212e-05
27	0x37e37800	2.7116388e-05
28	0x3816c000	3.59416e-05
29	0x380c2800	3.3415854e-05
30	0xb78e4800	-1.6961247e-05
31	0xb7ce7000	-2.4609268e-05
32	0x36e75000	6.8936497e-06
33	0xb66da000	-3.5408884e-06
34	0x37ae9800	2.0813197e-05
35	0x37afd800	2.0962209e-05
36	0xb8152800	-3.556162e-05
37	0xb83d2000	-4.5090914e-05
38	0x38337800	4.2788684e-05
39	0x38a25800	7.741153e-05
40	0xb881b600	-6.1850995e-05
41	0x38b1e000	8.481741e-05
42	0x3843da00	4.669465e-05
43	0x3969a000	0.00022280216
44	0x39101800	0.00013741851
45	0x38a80800	8.0123544e-05
46	0x38ed5800	0.00011317432
47	0x38a56000	7.8856945e-05
48	0x39244000	0.000156641
49	0xb713a000	-8.799136e-06
50	0x38c3b800	9.332597e-05
51	0x38323000	4.248321e-05
52	0xb8f3f000	-0.000116318464
53	0x387af000	5.9828162e-05
54	0x388f1000	6.8217516e-05
55	0xb827b400	-3.998354e-05
56	0x34000000	1.1920929e-07
57	0x3810b000	3.4496188e-05
58	0xb8b1f000	-8.484721e-05
59	0x39032800	0.00012508035
60	0x37c91000	2.3968518e-05
61	0x362ad000	2.5453046e-06
62	0xb783a800	-1.5694648e-05
63	0xb6a84800	-5.015172e-06
64	0xb7c6c800	-2.3696572e-05
65	0xb7e6b000	-2.7500093e-05
66	0xb7f7d000	-2.9541552e-05
67	0x33904000	6.717164e-08
68	0xb7b2a000	-2.129376e-05
69	0x37b7c000	2.1904707e-05
70	0xb74e3800	-1.2291595e-05
71	0xb7a5f000	-1.9781291e-05
72	0xb6b22000	-5.3085387e-06
73	0xb75ee000	-1.3284385e-05
74	0xb6d82800	-6.4419582e-06
75	0x35248000	6.1281025e-07
76	0xb75a1800	-1.29994005e-05
77	0x381ed000	3.786385e-05
78	0xb608e000	-2.0395964e-06
79	0xb7e64800	-2.7451664e-05
80	0xb826a600	-3.9732084e-05
81	0xb6272800	-2.4908222e-06
82	0x37a3c800	1.9524246e-05
83	0x37302a00	1.0500196e-05
84	0x3816be00	3.5939738e-05
85	0x382b3a00	4.0823594e-05
86	0x38335400	4.2755157e-05
87	0x3681dc00	3.870111e-06
88	0x37ea5a00	2.7936883e-05
89	0xb7ff2600	-3.0416064e-05
90	0x37ac3400	2.0528212e-05
91	0x38095400	3.2741576e-05
92	0x35865800	1.0009389e-06
93	0x375a0000	1.2993813e-05
94	0x36ece400	7.059891e-06
95	0xb6e9a000	-6.9625676e-06
96	0x37bd5800	2.2571534e-05
97	0xb865c000	-5.477667e-05
98	0x37146800	8.845702e-06
99	0x380dc200	3.3797696e-05
100	0xb9106800	-0.00013771653
101	0xb7899800	-1.6402453e-05
102	0x38b3b000	8.568168e-05
103	0x38015000	3.0830503e-05
104	0x390da800	0.00013509393
105	0x39227800	0.00015494227
106	0x39320000	0.00016975403
107	0x369cc000	4.671514e-06
108	0x38fc4000	0.00012028217
109	0xb902f000	-0.00012487173
110	0x389c0800	7.44015e-05
111	0x38f2a000	0.000115692616
112	0x37e68000	2.7477741e-05
113	0x389e5000	7.548928e-05
114	0x38191000	3.6492944e-05
115	0xb6c16000	-5.763024e-06
116	0x38a65800	7.931888e-05
117	0xb9614000	-0.00021481514
118	0x377b3000	1.4971942e-05
119	0x391e6000	0.00015103817
120	0x38c7f000	9.533763e-05
121	0x37391800	1.1032447e-05
122	0xb8838800	-6.271899e-05
123	0xb7990800	-1.8242747e-05
124	0xb8c66800	-9.460747e-05
125	0xb8e65000	-0.00010982156
126	0xb8f4a800	-0.00011666119
127	0x357f7000	9.5157884e-07
128	0xb8b1b800	-8.4742904e-05
129	0x38b73800	8.736551e-05
130	0xb848b000	-4.784763e-05
131	0xb8a35800	-7.788837e-05
132	0xb7bae800	-2.2280961e-05
133	0xb85d9000	-5.2824616e-05
134	0xb7db6800	-2.6155263e-05
135	0x35304000	6.565824e-07
136	0xb8514000	-4.9889088e-05
137	0x391d8000	0.0001502037
138	0xb6e2e000	-6.761402e-06
139	0xb8e1e000	-0.00010770559
140	0x38a1c800	7.714331e-05
141	0x36e48000	6.8098307e-06
142	0xb84b9000	-4.8533082e-05
143	0xb794d800	-1.7743558e-05
144	0xb89d1800	-7.490814e-05
145	0xb8b61000	-8.6814165e-05
146	0xb8c43800	-9.356439e-05
147	0xb58a0000	-1.0281801e-06
148	0xb88ac000	-6.6161156e-05
149	0x388fc000	6.854534e-05
150	0xb8278800	-3.9942563e-05
151	0xb8866000	-6.407499e-05
152	0xb76ac000	-1.399219e-05
153	0xb8270000	-3.9815903e-05
154	0xb7a00800	-1.9077212e-05
155	0x36ab2000	5.0999224e-06
156	0xb834a000	-4.3064356e-05
157	0x38fb7000	0.00011989474
158	0xb719d800	-9.169802e-06
159	0xb8b4a000	-8.612871e-05
160	0x38b2a800	8.518994e-05
161	0x371b4000	9.253621e-06
162	0xb862b800	-5.4053962e-05
163	0xb790a400	-1.7242506e-05
164	0xb8af3800	-8.355081e-05
165	0xb8cac000	-9.6678734e-05
166	0xb8d70000	-0.00010251999
167	0xb5071000	-5.03147e-07
168	0xb89a4800	-7.356703e-05
169	0x389ff000	7.626414e-05
170	0xb8345000	-4.298985e-05
171	0xb8922800	-6.969273e-05
172	0xb7921c00	-1.7417595e-05
173	0xb83ae000	-4.4554472e-05
174	0xb7bae800	-2.2280961e-05
175	0x362b9000	2.5564805e-06
176	0xb83d6800	-4.515797e-05
177	0x390a4800	0.00013187528
178	0xb702e000	-7.800758e-06
179	0xb8c2e800	-9.293854e-05
180	0xb8d36800	-0.000100806355
181	0xb72b4000	-1.0207295e-05
182	0x3885c000	6.377697e-05
183	0x37b0d000	2.1077693e-05
184	0x38cea000	9.852648e-05
185	0x38ef4800	0.00011409819
186	0x38fe0000	0.00012111664
187	0x3530c000	6.5844506e-07
188	0x38b5a000	8.660555e-05
189	0xb8bc3800	-8.9749694e-05
190	0x38557800	5.0894916e-05
191	0x38ad4000	8.261204e-05
192	0x37a5e000	1.977384e-05
193	0x385a4000	5.2034855e-05
194	0x37d90000	2.5868416e-05
195	0xb688b800	-4.0745363e-06
196	0x38619800	5.378574e-05
197	0xb9236800	-0.00015583634
198	0x3726e800	9.948388e-06
199	0x38e75000	0.000110298395
200	0xb8f9b000	-0.00011906028
201	0xb7226000	-9.678304e-06
202	0x389ca000	7.468462e-05
203	0x37eed000	2.8468668e-05
204	0x38f1c000	0.00011527538
205	0x390c2000	0.00013363361
206	0x3917a800	0.00014463067
207	0x35f66000	1.8356368e-06
208	0x38d58800	0.000101819634
209	0xb8dd2000	-0.00010544062
210	0x38821800	6.2033534e-05
211	0x38d03000	9.9271536e-05
212	0x37add000	2.0720065e-05
213	0x38801000	6.106496e-05
214	0x37f2a000	2.8923154e-05
215	0xb719f000	-9.17539e-06
216	0x388d4800	6.736815e-05
217	0xb9421800	-0.00018510222
218	0x377d8000	1.5109777e-05
219	0x390c4800	0.00013378263
220	0xb7c1f000	-2.3119152e-05
221	0xb67fd800	-3.812369e-06
222	0x37957800	1.7818063e-05
223	0x3668a000	3.4663826e-06
224	0x37cca000	2.43932e-05
225	0x37ef9000	2.8558075e-05
226	0x38043800	3.1523407e-05
227	0xb5d3e000	-1.5785918e-06
228	0x37c86800	2.3890287e-05
229	0xb7c9a000	-2.4035573e-05
230	0x374a2000	1.2047589e-05
231	0x37a17000	1.924485e-05
232	0x3713ec00	8.816831e-06
233	0x37903400	1.7190352e-05
234	0x37057800	7.955357e-06
235	0x361d4000	2.3432076e-06
236	0x37501000	1.2401491e-05
237	0xb8286000	-4.014373e-05
238	0xb4ee0000	-4.4330955e-07
239	0x3802c800	3.118068e-05
240	0x39146000	0.00014150143
241	0x37420000	1.1563301e-05
242	0xb8d25000	-0.000100284815
243	0xb7c79800	-2.379343e-05
244	0xb9142800	-0.00014129281
245	0xb92fe000	-0.00016772747
246	0xb9331000	-0.00017076731
247	0x37350000	1.0788441e-05
248	0xb9058800	-0.00012734532
249	0x3907f000	0.0001296401
250	0xb8843800	-6.304681e-05
251	0xb8e9b000	-0.00011143088
252	0xb81a4800	-3.6783516e-05
253	0xb8a0f800	-7.675588e-05
254	0xb8212000	-3.8415194e-05
255	0xb5c10000	-1.437962e-06

old_dirs f4 [501]
0	0xb8cc5800	-9.743869e-05
1	0xb896fa00	-7.1991235e-05
2	0x390bda00	0.00013337284
3	0x38e02400	0.00010687858
4	0x37d07c00	2.4853274e-05
5	0x3886fb00	6.43637e-05
6	0x399dec00	0.00030121207
7	0x39923c00	0.00027891994
8	0x39324000	0.00016999245
9	0x39289e00	0.00016080588
10	0x38a57c00	7.89091e-05
11	0x38ce4200	9.835139e-05
12	0x39130c00	0.00014023483
13	0x38d0bc00	9.9532306e-05
14	0x38ed8000	0.000113248825
15	0x38bcec00	9.008497e-05
16	0x39339400	0.00017125905
17	0x39331600	0.00017078966
18	0x371f3000	9.488314e-06
19	0x37803c00	1.5286729e-05
20	0x3912fa00	0.00014016777
21	0x38e25800	0.00010792911
22	0x38b61000	8.6814165e-05
23	0x383a0100	4.4346787e-05
24	0xb91ca000	-0.00014936924
25	0xb91dac00	-0.00015036762
26	0x387a9c00	5.974993e-05
27	0x387d8800	6.044656e-05
28	0x38ad4000	8.261204e-05
29	0x389e7800	7.556379e-05
30	0xb8360800	-4.3399632e-05
31	0xb882b000	-6.2316656e-05
32	0x3761a000	1.3448298e-05
33	0xb7239800	-9.750947e-06
34	0x38578e00	5.1392242e-05
35	0x3857a800	5.1416457e-05
36	0xb8afb000	-8.377433e-05
37	0xb8dcac00	-0.00010522455
38	0x38d95200	0.0001036264
39	0x3940c400	0.00018383563
40	0xb9246800	-0.00015679002
41	0x395d8800	0.00021126866
42	0x38e5e580	0.000109623186
43	0x3a0d9400	0.0005400777
44	0x39b3c400	0.00034287572
45	0x39544c00	0.00020246208
46	0x398f0000	0.00027275085
47	0x394e3800	0.00019666553
48	0x39c74400	0.00038006902
49	0xb7c5f000	-2.3595989e-05
50	0x396f5000	0.00022822618
51	0x38e34200	0.00010836497
52	0xb993ca00	-0.00028188527
53	0x39048400	0.00012637675
54	0x3923f400	0.00015635788
55	0xb8d58000	-0.00010180473
56	0xb6518000	-3.1217933e-06
57	0x38b68800	8.703768e-05
58	0xb951d400	-0.0002001077
59	0x399d0c00	0.00029954314
60	0x3871e000	5.7667494e-05
61	0x36ca9400	6.0372986e-06
62	0xb81d8400	-3.755465e-05
63	0xb74b5400	-1.2119301e-05
64	0xb8700c00	-5.7231635e-05
65	0xb88b3400	-6.637722e-05
66	0xb895c400	-7.1413815e-05
67	0x34518000	1.9511208e-07
68	0xb8567000	-5.1125884e-05
69	0x385cd400	5.2649528e-05
70	0xb7f72000	-2.9459596e-05
71	0xb847d800	-4.7646463e-05
72	0xb7567800	-1.2783334e-05
73	0xb8056e00	-3.1812117e-05
74	0xb783d600	-1.5716068e-05
75	0x35e47000	1.701992e-06
76	0xb8036200	-3.1324103e-05
77	0x38c03400	9.164959e-05
78	0xb6b0e000	-5.2712858e-06
79	0xb88b5800	-6.644428e-05
80	0xb8d78e00	-0.000102784485
81	0xb6d7e600	-6.434275e-06
82	0x3852d700	5.0268136e-05
83	0x37e3d000	2.7157366e-05
84	0x38c2ee00	9.294972e-05
85	0x38dd5d00	0.00010555424
86	0x38e7b700	0.00011049025
87	0x37294800	1.0089949e-05
88	0x38971200	7.203594e-05
89	0xb8a4a600	-7.851049e-05
90	0x385e7900	5.3041615e-05
91	0x38b19500	8.467771e-05
92	0x3623fc00	2.4435576e-06
93	0x380bdb00	3.3344142e-05
94	0x37992c80	1.8259743e-05
95	0xb7982a00	-1.813937e-05
96	0x3874ca00	5.836226e-05
97	0xb9147a80	-0.00014160015
98	0x37c17f00	2.3066532e-05
99	0x38b6b500	8.71215e-05
100	0xb9aa5c00	-0.00032493472
101	0xb821b000	-3.8549304e-05
102	0x39530800	0.00020125508
103	0x3899f400	7.341057e-05
104	0x39a7d400	0.00032010674
105	0x39c04c00	0.00036677718
106	0x39d38400	0.00040343404
107	0x373b2800	1.1155382e-05
108	0x3994d800	0.00028389692
109	0xb99a9400	-0.00029483438
110	0x39383400	0.00017566979
111	0x398f6c00	0.00027355552
112	0x3888f200	6.5300614e-05
113	0x393b2000	0.0001784563
114	0x38b7b800	8.760393e-05
115	0xb7762800	-1.4672056e-05
116	0x39457000	0.00018829107
117	0xba05d800	-0.0005105734
118	0x381c6800	3.7290156e-05
119	0x39bc7000	0.000359416
120	0x3974fc00	0.0002336353
121	0x37dfd000	2.668053e-05
122	0xb91fe000	-0.00015246868
123	0xb83c9400	-4.496053e-05
124	0xb9739400	-0.0002322942
125	0xb98d6400	-0.00026968122
126	0xb9962c00	-0.00028643012
127	0x360e0200	2.1160813e-06
128	0xb958ac00	-0.0002066344
129	0x395fa400	0.00021328032
130	0xb8f4d800	-0.0001167506
131	0xb9483400	-0.00019092858
132	0xb8628c00	-5.4012984e-05
133	0xb9064c00	-0.00012807548
134	0xb8877200	-6.458536e-05
135	0x363b2800	2.7888454e-06
136	0xb9005c00	-0.00012241304
137	0x39c1a000	0.00036931038
138	0xb7991c00	-1.825206e-05
139	0xb98a7a00	-0.00026412308
140	0x393de000	0.00018107891
141	0x37849400	1.5804544e-05
142	0xb8ee9000	-0.000113755465
143	0xb8300800	-4.196912e-05
144	0xb9394c00	-0.00017671287
145	0xb956a800	-0.00020471215
146	0xb9685000	-0.00022155046
147	0xb615a000	-2.2295862e-06
148	0xb9233800	-0.00015565753
149	0x39291000	0.00016123056
150	0xb8c4ac00	-9.378046e-05
151	0xb91e1400	-0.00015075505
152	0xb80ba800	-3.3296645e-05
153	0xb8c4f400	-9.391457e-05
154	0xb83f6c00	-4.563853e-05
155	0x37513000	1.2468547e-05
156	0xb8d55400	-0.00010172278
157	0x3994b800	0.0002836585
158	0xb7bc8400	-2.2472814e-05
159	0xb9568400	-0.00020457804
160	0x39594000	0.00020718575
161	0x37bb4800	2.2325665e-05
162	0xb9091000	-0.00013071299
163	0xb8304200	-4.2023137e-05
164	0xb9558c00	-0.00020365417
165	0xb9772400	-0.00023569167
166	0xb9831a00	-0.0002500564
167	0xb5a5e800	-1.2360979e-06
168	0xb93b0800	-0.0001783669
169	0x39421800	0.00018510222
170	0xb8da7c00	-0.00010418147
171	0xb931d400	-0.00016959012
172	0xb8312000	-4.222989e-05
173	0xb8e1c800	-0.00010766089
174	0xb865c000	-5.477667e-05
175	0x36e6f800	6.883405e-06
176	0xb8e66c00	-0.00010987371
177	0x39a8cc00	0.0003219545
178	0xb7a88000	-2.0086765e-05
179	0xb96da000	-0.00022661686
180	0xb9823400	-0.00024834275
181	0xb7d24000	-2.5063753e-05
182	0x3923a000	0.00015604496
183	0x38595c00	5.1822513e-05
184	0x397f2000	0.00024330616
185	0x3993c200	0.00028182566
186	0x399ccc00	0.0002990663
187	0x35dd4000	1.648441e-06
188	0x395ef400	0.00021262467
189	0xb9675400	-0.00022061169
190	0x3902e400	0.00012482703
191	0x39556000	0.00020349026
192	0x384bc400	4.858151e-05
193	0x39056000	0.00012719631
194	0x38872600	6.44438e-05
195	0xb7336400	-1.06925145e-05
196	0x390ac800	0.00013235211
197	0xb9c9f800	-0.00038522482
198	0x37d82c00	2.5769696e-05
199	0x398e9a00	0.0002719909
200	0xb994a400	-0.0002835095
201	0xb7b62000	-2.1710992e-05
202	0x3938f000	0.00017637014
203	0x38915800	6.93053e-05
204	0x39902400	0.00027492642
205	0x39a71000	0.00031864643
206	0x39b57000	0.00034606457
207	0x369f7000	4.751608e-06
208	0x397d1000	0.0002413392
209	0xb9833400	-0.0002502501
210	0x391af400	0.00014777482
211	0x39788000	0.00023698807
212	0x38494400	4.7985464e-05
213	0x3916e600	0.00014390796
214	0x3890f800	6.912649e-05
215	0xb7ceec00	-2.466701e-05
216	0x39298800	0.0001616776
217	0xb9e84c00	-0.00044307113
218	0x3823b400	3.9029866e-05
219	0x39a82400	0.0003207028
220	0xb878b000	-5.929172e-05
221	0xb71b7c00	-9.267591e-06
222	0x383a3400	4.4394284e-05
223	0x371c4000	9.313226e-06
224	0x3882a400	6.2294304e-05
225	0x3898a400	7.278472e-05
226	0x38a81c00	8.01608e-05
227	0xb66ef000	-3.5604462e-06
228	0x387b4400	5.9906393e-05
229	0xb87db000	-6.0483813e-05
230	0x38007c00	3.0633062e-05
231	0x384ed000	4.9307942e-05
232	0x37b2c800	2.1312386e-05
233	0x38316200	4.2291358e-05
234	0x37a85c00	2.0070001e-05
235	0x369e8000	4.723668e-06
236	0x3805a000	3.1858683e-05
237	0xb8d65400	-0.000102199614
238	0x343e0000	1.7695129e-07
239	0x38a4b800	7.854402e-05
240	0x39b6a000	0.00034832954
241	0x37f0ec00	2.8720126e-05
242	0xb9801a00	-0.00024433434
243	0xb8781c00	-5.9153885e-05
244	0xb9b6d000	-0.00034868717
245	0xb9d8ac00	-0.0004132688
246	0xb9dd1400	-0.00042167306
247	0x37d18000	2.4974346e-05
248	0xb9a38800	-0.0003119111
249	0x39a6bc00	0.00031802058
250	0xb9230400	-0.00015546381
251	0xb9900400	-0.000274688
252	0xb8bb7c00	-8.939952e-05
253	0xb9442000	-0.00018703938
254	0xb8c83800	-9.547174e-05
255	0xb5f08000	-1.7918646e-06

old_dirs f4 [501]
0	0xb8db9c00	-0.00010471791
1	0xb8a40700	-7.821433e-05
2	0x39123a00	0.00013945252
3	0x38ea5000	0.00011172891
4	0x37d9f800	2.59839e-05
5	0x38899300	6.56005e-05
6	0x39a04800	0.00030571222
7	0x3994c400	0.0002837479
8	0x393a6000	0.00017774105
9	0x3930b800	0.00016853213
10	0x38ae4a00	8.31075e-05
11	0x38dbc800	0.00010479987
12	0x39158c00	0.00014261901
13	0x38d8f000	0.00010344386
14	0x38f4f000	0.0001167953
15	0x38c4c000	9.381771e-05
16	0x39391800	0.00017651916
17	0x3938a400	0.00017608702
18	0x37001000	7.63312e-06
19	0x37707000	1.4331192e-05
20	0x3916ea00	0.00014392287
21	0x38ead000	0.000111967325
22	0x38c42000	9.351969e-05
23	0x384c2580	4.8672315e-05
24	0xb91fc000	-0.00015234947
25	0xb9207800	-0.00015303493
26	0x38666000	5.492568e-05
27	0x386bc000	5.620718e-05
28	0x38a4b000	7.852912e-05
29	0x3893fc00	7.056445e-05
30	0xb844dc00	-4.6934932e-05
31	0xb88bb500	-6.6617504e-05
32	0x373bc000	1.1190772e-05
33	0xb734b800	-1.0771677e-05
34	0x38606800	5.350262e-05
35	0x385fcc00	5.3357333e-05
36	0xb8ae8c00	-8.3230436e-05
37	0xb8d8b400	-0.0001033321
38	0x38deaa00	0.0001061745
39	0x3941c800	0.0001848042
40	0xb9323200	-0.0001699403
41	0x3968d000	0.0002220273
42	0x38e88800	0.00011087954
43	0x3a109000	0.0005514622
44	0x39bdb800	0.0003618598
45	0x39633000	0.00021666288
46	0x39917e00	0.00027750432
47	0x3958b400	0.0002066642
48	0x39cc9000	0.000390172
49	0xb7eee000	-2.8476119e-05
50	0x3977a000	0.0002361536
51	0x38f6c400	0.00011766702
52	0xb996e600	-0.00028781593
53	0x38e61000	0.00010970235
54	0x391b6400	0.00014819205
55	0xb8e4c000	-0.0001090765
56	0xb6b88000	-5.4985285e-06
57	0x38bfd000	9.146333e-05
58	0xb950ac00	-0.00019900501
59	0x399f3e00	0.00030373037
60	0x38747800	5.8285892e-05
61	0x36cba400	6.0689636e-06
62	0xb81eb400	-3.7837774e-05
63	0xb74f1c00	-1.2344681e-05
64	0xb8739800	-5.8077276e-05
65	0xb88d5c00	-6.74054e-05
66	0xb8986c00	-7.2680414e-05
67	0x348d6000	2.6333146e-07
68	0xb858bc00	-5.16735e-05
69	0x385f2c00	5.320832e-05
70	0xb7f93000	-2.9705465e-05
71	0xb84a3800	-4.8212707e-05
72	0xb75a2800	-1.3003126e-05
73	0xb8071800	-3.220886e-05
74	0xb7882200	-1.6228296e-05
75	0x35fc7000	1.8808059e-06
76	0xb8053800	-3.1761825e-05
77	0x38c3a400	9.328872e-05
78	0xb6bcc800	-5.6261197e-06
79	0xb88e1000	-6.774068e-05
80	0xb8ed0b00	-0.000113030896
81	0xb6ed7000	-7.076189e-06
82	0x3866d600	5.5035576e-05
83	0x37fa9200	2.9870309e-05
84	0x38d64f00	0.0001021903
85	0x38f34e00	0.000116016716
86	0x38fe9400	0.00012139231
87	0x373bb600	1.1188444e-05
88	0x38a5a000	7.8976154e-05
89	0xb8b4a980	-8.614641e-05
90	0x38746b00	5.8273785e-05
91	0x38c33f00	9.310059e-05
92	0x36291800	2.5196932e-06
93	0x3818a500	3.6393292e-05
94	0x37a88680	2.0089792e-05
95	0xb7a87200	-2.0080246e-05
96	0x38868c00	6.415695e-05
97	0xb9232700	-0.0001555942
98	0x37d64f00	2.5547575e-05
99	0x38c83400	9.546429e-05
100	0xb9a8d000	-0.0003219843
101	0xb8216000	-3.84748e-05
102	0x39504800	0.00019863248
103	0x389ae800	7.3865056e-05
104	0x39a72800	0.00031882524
105	0x39bf7400	0.00036516786
106	0x39d3c000	0.00040388107
107	0x37400000	1.1444092e-05
108	0x3993e000	0.00028204918
109	0xb9999000	-0.00029289722
110	0x39376800	0.00017490983
111	0x398eb000	0.0002721548
112	0x38892600	6.539747e-05
113	0x393b1c00	0.0001784414
114	0x38bac000	8.904934e-05
115	0xb7821000	-1.5504658e-05
116	0x3945c400	0.000188604
117	0xba05d000	-0.0005104542
118	0x38231000	3.887713e-05
119	0x39bcc800	0.00036007166
120	0x397d4400	0.00024153292
121	0x37e5fc00	2.7416274e-05
122	0xb9242400	-0.0001565367
123	0xb844a000	-4.6879053e-05
124	0xb97c6800	-0.00024071336
125	0xb9927c00	-0.00027939677
126	0xb99bcc00	-0.00029715896
127	0x3606aa00	2.006651e-06
128	0xb95f3000	-0.00021284819
129	0x39669400	0.00021989644
130	0xb8fc7000	-0.00012037158
131	0xb94f1c00	-0.00019751489
132	0xb8686c00	-5.5413693e-05
133	0xb909fe00	-0.0001315996
134	0xb88de000	-6.765127e-05
135	0x36825800	3.8845465e-06
136	0xb904fc00	-0.00012682378
137	0x39c8f400	0.00038328767
138	0xb7aac400	-2.0356849e-05
139	0xb98f6c00	-0.00027355552
140	0x393c2c00	0.00017945468
141	0x3781e000	1.5482306e-05
142	0xb8ec1800	-0.00011257827
143	0xb8311000	-4.221499e-05
144	0xb9387400	-0.00017590821
145	0xb955c000	-0.00020384789
146	0xb9686c00	-0.00022165477
147	0xb609f000	-2.055429e-06
148	0xb9222c00	-0.00015465915
149	0x3927dc00	0.00016008317
150	0xb8c35000	-9.313226e-05
151	0xb91d1c00	-0.00014983118
152	0xb80bd800	-3.3341348e-05
153	0xb8c4a400	-9.376556e-05
154	0xb8422800	-4.6290457e-05
155	0x375ad000	1.3042241e-05
156	0xb8d54400	-0.000101692975
157	0x3994bc00	0.0002836883
158	0xb7c35000	-2.3283064e-05
159	0xb9576c00	-0.00020544231
160	0x395f3400	0.00021286309
161	0x37c03000	2.2910535e-05
162	0xb90c1e00	-0.00013362616
163	0xb835de00	-4.3360516e-05
164	0xb95c0800	-0.00020983815
165	0xb97ea400	-0.00024284422
166	0xb9873e00	-0.000257954
167	0xb5a62000	-1.2377277e-06
168	0xb93fcc00	-0.00018291175
169	0x39472c00	0.0001899451
170	0xb8dfd000	-0.00010672212
171	0xb936c400	-0.00017429888
172	0xb835fa00	-4.3386593e-05
173	0xb8e74c00	-0.000110290945
174	0xb86fb000	-5.7145953e-05
175	0x36feb800	7.5912103e-06
176	0xb8ed1000	-0.00011304021
177	0x39ae3800	0.0003322959
178	0xb7b52000	-2.1591783e-05
179	0xb974fc00	-0.0002336353
180	0xb9877000	-0.00025832653
181	0xb7dba800	-2.6185066e-05
182	0x39294000	0.00016140938
183	0x38621000	5.38975e-05
184	0x39851000	0.00025379658
185	0x399a1400	0.0002938807
186	0x39a39a00	0.00031204522
187	0x35e43000	1.7001294e-06
188	0x39673c00	0.00022052228
189	0xb9703800	-0.00022909045
190	0x3907a400	0.00012935698
191	0x395ddc00	0.00021158159
192	0x3853ec00	5.0526112e-05
193	0x390a2400	0.00013174117
194	0x388ece00	6.809458e-05
195	0xb741fc00	-1.156237e-05
196	0x39105000	0.00013762712
197	0xb9d2d800	-0.00040215254
198	0x37e9ac00	2.7855858e-05
199	0x39948e00	0.00028334558
200	0xb9952800	-0.00028449297
201	0xb7aa3c00	-2.0293519e-05
202	0x3937f400	0.00017543137
203	0x38964000	7.164478e-05
204	0x3990dc00	0.00027629733
205	0x39a7ec00	0.00032028556
206	0x39b71800	0.0003492236
207	0x36af4000	5.222857e-06
208	0x397cb400	0.00024099648
209	0xb9831000	-0.00024998188
210	0x391ba800	0.00014844537
211	0x397a2400	0.00023855269
212	0x38428800	4.6379864e-05
213	0x3915f800	0.00014302135
214	0x38927800	6.984174e-05
215	0xb7eaf400	-2.8008595e-05
216	0x392bfc00	0.00016401708
217	0xb9ea6000	-0.00044703484
218	0x38322400	4.2472035e-05
219	0x39aa1800	0.00032442808
220	0xb8857000	-6.362796e-05
221	0xb720be00	-9.580981e-06
222	0x38436c00	4.6592206e-05
223	0x372e5800	1.0391697e-05
224	0x388bc800	6.6652894e-05
225	0x38a33000	7.7813864e-05
226	0x38b38000	8.559227e-05
227	0xb6675000	-3.4468248e-06
228	0x38848a00	6.319955e-05
229	0xb8861c00	-6.394833e-05
230	0x38090c00	3.267452e-05
231	0x385de000	5.2899122e-05
232	0x37b73000	2.1837652e-05
233	0x3838d600	4.406832e-05
234	0x37b3cc00	2.1433458e-05
235	0x36874000	4.030764e-06
236	0x380fd800	3.4295022e-05
237	0xb8e52800	-0.000109270215
238	0x35aa0000	1.2665987e-06
239	0x38aea800	8.328259e-05
240	0x39bd1800	0.0003606677
241	0x37fde800	3.0267984e-05
242	0xb9832c00	-0.0002501905
243	0xb882fc00	-6.245822e-05
244	0xb9bda800	-0.0003617406
245	0xb9e07000	-0.00042808056
246	0xb9e5d400	-0.00043836236
247	0x37c81000	2.3849308e-05
248	0xb9a88000	-0.00032138824
249	0x39ac2000	0.00032830238
250	0xb929b200	-0.00016183406
251	0xb9958c00	-0.00028523803
252	0xb8bf4000	-9.119511e-05
253	0xb949c800	-0.0001924336
254	0xb8d22c00	-0.00010021776
255	0x33d00000	9.685755e-08

old_dirs f4 [501]
0	0xb8efdc00	-0.00011437386
1	0xb8b51500	-8.634664e-05
2	0x3919be00	0.00014661998
3	0x38f66c00	0.00011750311
4	0x37eb9800	2.8084964e-05
5	0x388f9f00	6.8483874e-05
6	0x39a2fc00	0.00031086802
7	0x3997b000	0.00028932095
8	0x39441000	0.00018697977
9	0x393aac00	0.00017802417
10	0x38b8ae00	8.806214e-05
11	0x38ec7200	0.00011274591
12	0x39189000	0.00014549494
13	0x38e31800	0.00010828674
14	0x38fd0800	0.0001206547
15	0x38cd6000	9.793043e-05
16	0x39400000	0.00018310547
17	0x393fc400	0.00018288195
18	0x36a52000	4.9211085e-06
19	0x3758c800	1.2921169e-05
20	0x391c0000	0.0001487732
21	0x38f5c600	0.00011719391
22	0x38d5fa00	0.000102031976
23	0x38631c80	5.414756e-05
24	0xb923ac00	-0.00015608966
25	0xb923e000	-0.00015628338
26	0x38506400	4.9684197e-05
27	0x38580000	5.1498413e-05
28	0x38986c00	7.2680414e-05
29	0x38864000	6.401539e-05
30	0xb855f400	-5.10104e-05
31	0xb8961700	-7.1568415e-05
32	0x3721e000	9.648502e-06
33	0xb7410800	-1.1505559e-05
34	0x386a4e00	5.586259e-05
35	0x38697800	5.5663288e-05
36	0xb8adb400	-8.2828104e-05
37	0xb8d4a000	-0.0001013875
38	0x38e5b400	0.000109530985
39	0x39442800	0.00018706918
40	0xb9444800	-0.00018718839
41	0x3975b000	0.00023430586
42	0x38f10a00	0.00011493638
43	0x3a13d800	0.00056397915
44	0x39c99000	0.00038444996
45	0x39752400	0.00023378432
46	0x39949600	0.00028340518
47	0x39644800	0.00021770597
48	0x39d34800	0.000402987
49	0xb8171000	-3.6016107e-05
50	0x3980f800	0.00024598837
51	0x3907ad00	0.00012939051
52	0xb99a3200	-0.00029410422
53	0x38bfa000	9.137392e-05
54	0x390f5c00	0.00013671815
55	0xb8f5a000	-0.00011712313
56	0xb6e38000	-6.7800283e-06
57	0x38c7f800	9.535253e-05
58	0xb94fa800	-0.00019803643
59	0x39a29200	0.00031007826
60	0x38769800	5.879253e-05
61	0x36cdc000	6.131828e-06
62	0xb81ff000	-3.813207e-05
63	0xb753b000	-1.2617558e-05
64	0xb8771000	-5.890429e-05
65	0xb88f5c00	-6.835908e-05
66	0xb89b3000	-7.399917e-05
67	0x34c21000	3.6146957e-07
68	0xb85b4000	-5.2273273e-05
69	0x38618800	5.377084e-05
70	0xb7fb2800	-2.9940158e-05
71	0xb84c5c00	-4.872307e-05
72	0xb75eb800	-1.3275072e-05
73	0xb8096200	-3.2754615e-05
74	0xb78d7000	-1.6860664e-05
75	0x36060800	1.9972213e-06
76	0xb8072400	-3.2220036e-05
77	0x38c73400	9.498745e-05
78	0xb6c64800	-5.9092417e-06
79	0xb8910e00	-6.9167465e-05
80	0xb903ba00	-0.00012562424
81	0xb7041400	-7.87247e-06
82	0x387f7c00	6.091222e-05
83	0x380b5500	3.3219345e-05
84	0x38ee1700	0.000113530084
85	0x39071f00	0.00012886152
86	0x390d5480	0.00013478287
87	0x37525a00	1.253793e-05
88	0x38b78c00	8.752197e-05
89	0xb8c85f00	-9.554438e-05
90	0x3887b800	6.471574e-05
91	0x38d8f200	0.000103447586
92	0x362ee000	2.6058406e-06
93	0x38288380	4.017679e-05
94	0x37bb7480	2.2346387e-05
95	0xb7bc5400	-2.2450462e-05
96	0x38958300	7.129274e-05
97	0xb9352c00	-0.00017277896
98	0x37efae00	2.8572045e-05
99	0x38ddb900	0.0001057256
100	0xb9a6e800	-0.0003183484
101	0xb8228400	-3.8746744e-05
102	0x394d2400	0.00019563735
103	0x389cc000	7.4744225e-05
104	0x39a63800	0.0003170371
105	0x39be2c00	0.00036272407
106	0x39d41400	0.00040450692
107	0x3749fc00	1.2039207e-05
108	0x3992e400	0.00028017163
109	0xb9986000	-0.00029063225
110	0x3936d000	0.00017434359
111	0x398dd400	0.00027051568
112	0x38896400	6.5512955e-05
113	0x393be000	0.00017917156
114	0x38befc00	9.106845e-05
115	0xb787e400	-1.6199425e-05
116	0x3946a000	0.00018942356
117	0xba05bc00	-0.00051015615
118	0x38294800	4.0359795e-05
119	0x39bd2400	0.0003607571
120	0x39836e00	0.00025068223
121	0x37ee6800	2.842024e-05
122	0xb9295800	-0.00016149879
123	0xb84e9000	-4.9248338e-05
124	0xb9835400	-0.00025048852
125	0xb9986800	-0.00029069185
126	0xb9a26400	-0.00030973554
127	0x36014e00	1.92679e-06
128	0xb9672800	-0.00022044778
129	0x396ee000	0.00022780895
130	0xb902d400	-0.00012476742
131	0xb9572000	-0.00020515919
132	0xb86fa800	-5.7138503e-05
133	0xb90ede00	-0.00013624877
134	0xb895e200	-7.1469694e-05
135	0x36a48c00	4.903879e-06
136	0xb90a8400	-0.0001320988
137	0x39d17400	0.00039950013
138	0xb7bc6400	-2.2457913e-05
139	0xb9955e00	-0.0002848953
140	0x393b1000	0.0001783967
141	0x377e5000	1.5158206e-05
142	0xb8ea7000	-0.00011178851
143	0xb8340800	-4.2922795e-05
144	0xb9384000	-0.0001757145
145	0xb9559000	-0.00020366907
146	0xb9699c00	-0.00022278726
147	0xb6002000	-1.9092113e-06
148	0xb921b400	-0.00015421212
149	0x39273000	0.00015944242
150	0xb8c2b800	-9.2849135e-05
151	0xb91cc800	-0.00014951825
152	0xb80bd400	-3.3337623e-05
153	0xb8c56000	-9.4115734e-05
154	0xb8468000	-4.7326088e-05
155	0x37678000	1.3798475e-05
156	0xb8d66400	-0.00010222942
157	0x39955000	0.000284791
158	0xb7cb8c00	-2.4264678e-05
159	0xb9596800	-0.00020733476
160	0x39667800	0.00021979213
161	0x37c6e000	2.3707747e-05
162	0xb9101e00	-0.00013744086
163	0xb83d3800	-4.5113266e-05
164	0xb963e800	-0.00021734834
165	0xb983de00	-0.0002515167
166	0xb98c5000	-0.00026762486
167	0xb5a3f000	-1.2214296e-06
168	0xb945e400	-0.0001887232
169	0x394d7800	0.00019595027
170	0xb8e69800	-0.00010995567
171	0xb93cc800	-0.00018003583
172	0xb83c0200	-4.4824556e-05
173	0xb8eef400	-0.00011394173
174	0xb87c8000	-6.020069e-05
175	0x370a9000	8.258969e-06
176	0xb8f54800	-0.000116959214
177	0x39b4cc00	0.00034484267
178	0xb7c20400	-2.3128465e-05
179	0xb97e2400	-0.00024236739
180	0xb98d8800	-0.00026994944
181	0xb7e7b800	-2.7623028e-05
182	0x39301400	0.00016792119
183	0x386cc400	5.6449324e-05
184	0x398b7200	0.00026597083
185	0x39a17600	0.0003079623
186	0x39aba600	0.0003273934
187	0x35e5a000	1.7108396e-06
188	0x39716400	0.00023020804
189	0xb97ab800	-0.00023910403
190	0x390d5600	0.00013478845
191	0x3967e000	0.00022113323
192	0x385de000	5.2899122e-05
193	0x39104800	0.00013759732
194	0x38984c00	7.262081e-05
195	0xb74f9800	-1.2373552e-05
196	0x3916e200	0.00014389306
197	0xb9dd4800	-0.0004220605
198	0x37fb6400	2.9968098e-05
199	0x399ba800	0.00029689074
200	0xb995dc00	-0.00028583407
201	0xb79cbc00	-1.8684193e-05
202	0x39370c00	0.0001745671
203	0x389cec00	7.482618e-05
204	0x3991a800	0.00027781725
205	0x39a8e000	0.0003221035
206	0x39b92c00	0.00035318732
207	0x36c37400	5.824957e-06
208	0x397ca800	0.00024095178
209	0xb9830800	-0.00024992228
210	0x391ce800	0.00014963746
211	0x397c4c00	0.00024060905
212	0x383a3000	4.439056e-05
213	0x39157400	0.0001425296
214	0x3894c400	7.093698e-05
215	0xb805d800	-3.1910837e-05
216	0x392f4400	0.00016714633
217	0xb9ece400	-0.000451833
218	0x38425c00	4.6338886e-05
219	0x39ac9000	0.00032913685
220	0xb88f0800	-6.8202615e-05
221	0xb7279000	-9.987503e-06
222	0x384db000	4.903972e-05
223	0x37422000	1.1570752e-05
224	0x38959400	7.132441e-05
225	0x38ae9000	8.323789e-05
226	0x38c00000	9.1552734e-05
227	0xb6633000	-3.3853576e-06
228	0x388c3000	6.684661e-05
229	0xb88e1800	-6.775558e-05
230	0x38124000	3.4868717e-05
231	0x386de800	5.672127e-05
232	0x37bcea00	2.2520311e-05
233	0x3841d800	4.621595e-05
234	0x37c17000	2.3059547e-05
235	0x36660000	3.427267e-06
236	0x381ad800	3.6917627e-05
237	0xb8f53400	-0.00011692196
238	0x36194000	2.283603e-06
239	0x38b9c000	8.85725e-05
240	0x39c3e000	0.0003736019
241	0x3806b000	3.2112002e-05
242	0xb9864a00	-0.00025613606
243	0xb88bbe00	-6.663427e-05
244	0xb9c4e000	-0.00037550926
245	0xb9e87c00	-0.00044342875
246	0xb9ef5c00	-0.00045654178
247	0x37b9d000	2.2150576e-05
248	0xb9add400	-0.00033155084
249	0x39b1d000	0.00033915043
250	0xb9316c00	-0.00016920269
251	0xb99b7000	-0.0002964735
252	0xb8c28800	-9.275973e-05
253	0xb9505800	-0.00019869208
254	0xb8dd9000	-0.00010564923
255	0x36180000	2.2649765e-06
