tutorials/tutorial 5/lightning_logs/version_141/checkpoints/epoch=49-step=50.ckpt (torch, 185041 bytes, 206 tensors)

_pina_model._model.layers.0.weight f4 [20, 2]
000000 72 1a f0 3e 07 55 10 3f 06 90 ae be 46 c6 28 3f
       0.46895176 0.5637974 -0.34094256 0.6592754
000010 db 3f 18 bf b3 47 22 3f 34 24 0d 3f 3d 9e 0f 3f
       -0.59472436 0.63390654 0.55133367 0.5610083
000020 ae 18 50 be 12 cf 8c 3e 41 37 06 3e 3f 76 22 3f
       -0.20321915 0.27501732 0.13107015 0.6346168
000030 99 b3 5f 3e e4 35 2f 3f 62 b5 7a 3e 7b b5 9d 3c
       0.21845855 0.68441606 0.24483255 0.019251576
000040 91 c1 49 be 65 6d b5 3e 47 37 e4 3e 19 9d 25 3f
       -0.19702746 0.35435024 0.44573423 0.64692837
000050 86 a9 e7 3e 73 0c ec be 70 0a 05 3e de 2b 0f 3f
       0.45246524 -0.46103248 0.12992263 0.5592631
000060 ad 5c 22 bf 15 61 15 3e c5 d5 d9 3e 62 7c 2f bc
       -0.6342266 0.14587815 0.42545906 -0.0107108075
000070 ec 37 05 3f c1 98 59 3e 7c 0b 29 3f 35 f6 e0 be
       0.52038455 0.21249677 0.6603315 -0.4393784
000080 d9 41 ec be 4b 66 81 be da 2c c9 3e d4 9f dc 3e
       -0.46143988 -0.25273356 0.39292032 0.4309069
000090 5e f8 62 3e 91 cc 4b bc 13 26 34 be b2 1f 2c 3e
       0.22165057 -0.012438909 -0.17592649 0.16808966

_pina_model._model.layers.0.bias f4 [20]
000000 32 d6 f3 3e f9 8b f1 3e 25 bc 0d 3e 56 2b 05 3f
       0.47624356 0.47177103 0.13841303 0.5201925
000010 72 40 db be 62 fd a5 be 81 8e 75 be a0 d1 16 be
       -0.42822605 -0.32419878 -0.23980142 -0.14728403
000020 8e 07 e2 bd 4c ac f4 be d0 0b 24 3f 2f f8 f7 3e
       -0.11036597 -0.47787702 0.64080524 0.48431537
000030 9a 91 d9 3e 20 3d 31 3f 1d 8d 1e bf 71 3e 16 be
       0.42493898 0.69233894 -0.6193407 -0.14672257
000040 ee 27 6d 3d b3 a1 ea be f9 4b f1 3e 61 80 15 bf
       0.057899408 -0.45826492 0.47128275 -0.58399016

_pina_model._model.layers.2.weight f4 [2, 20]
000000 b1 00 21 be 74 82 08 3d 2d c8 8a bd 33 18 2f be
       -0.1572292 0.033327535 -0.06776462 -0.17099075
000010 9f df 16 be f0 8f 6b 3e eb 95 29 bd 56 6a 31 bd
       -0.14733742 0.23004127 -0.04140274 -0.0433143
000020 7b 73 b4 3d 55 fe ca bd f8 97 dc 3d 2b 78 da bd
       0.08811089 -0.09911791 0.10771173 -0.106674515
000030 2f 6a 20 3e 0d 2f 7f bd 2f 27 d6 bd d1 c1 72 3d
       0.15665506 -0.06230073 -0.104566924 0.05926687
000040 56 a2 c8 39 2f 69 c6 3e fd b8 ae ba d4 3e 93 bd
       0.00038267922 0.38752124 -0.0013330277 -0.07189718
000050 27 bc d9 3d 89 2d 22 3e 31 69 57 3e 6a 4e 99 3d
       0.1063159 0.15837683 0.21036221 0.074856594
000060 3d 8f 0c 3e a5 6e 36 3e a4 78 3b be 88 36 53 3e
       0.13726516 0.17815645 -0.1830774 0.20626271
000070 aa fb 34 3e 5a ad 20 be 90 f4 7e be b1 eb f9 bd
       0.17674127 -0.15691128 -0.2489798 -0.12203158
000080 71 56 25 3e fe 84 41 3e 50 cb a6 be e0 1d 9d bd
       0.16146256 0.18898389 -0.3257699 -0.07671714
000090 66 9f 25 3e 09 44 52 be 16 74 27 3d 58 a0 61 3e
       0.16174087 -0.20533766 0.040882193 0.22033823

_pina_model._model.layers.2.bias f4 [2]
000000 36 22 bc 3d 28 bc cc 3d
       0.09186213 0.099968255

d f4 [102]
000000 7c 1a a0 3a 30 e3 93 bb 73 35 bc 3c 83 7e 1a 3b
       0.0012214924 -0.004513167 0.022974705 0.0023573942
000010 d9 c0 7d bc bb 44 dc bc d0 78 12 bb bc f6 07 bc
       -0.015487873 -0.026888242 -0.0022349842 -0.008298572
000020 1b 71 16 bd bd 30 cc bb f5 ab 00 3c 3e 65 63 bd
       -0.03672896 -0.006231396 0.007853498 -0.055516474
000030 46 8f 16 bd 0c 93 11 bd d0 32 85 bc 57 52 17 3c
       -0.03675773 -0.035540625 -0.01625958 0.00923594
000040 e5 41 e8 3b ec fb 3c bd 54 a5 8b bd 4a 45 2f bd
       0.0070879334 -0.04613869 -0.06818643 -0.04279069
000050 55 26 d7 3c ee d6 71 3c 67 cd 90 bc d7 2b 3e bd
       0.026263395 0.014760716 -0.017676068 -0.046428528
000060 0d f5 31 3d 17 2c 55 bd f9 57 ef 3b c4 26 25 bb
       0.04344659 -0.052044 0.0073041883 -0.0025200108
000070 16 8a d8 bd 6f d7 90 bd f7 fd 62 3c e3 11 69 3d
       -0.10573213 -0.07072341 0.013854495 0.056901824
000080 d1 cc 7c 3c b1 f3 53 bb 4a f1 c7 3b e7 9e 1e bd
       0.015429691 -0.0032341296 0.006101762 -0.03872576
000090 f3 3f 37 3c a9 c2 4c bc 28 bd db bc 02 d9 97 bb
       0.01118468 -0.0124975825 -0.026823595 -0.0046340236
0000a0 c4 77 53 3c 01 3f 8c bc a5 df 2e bd 7b 3d 47 ba
       0.012906972 -0.017119886 -0.042693753 -0.0007600409
0000b0 cb 16 31 3d dd 92 4b 3e df 85 52 3e 3e 55 a8 3d
       0.043234628 0.19880243 0.2055888 0.08219384
0000c0 59 b2 96 3c f3 d3 85 3e bf 68 17 bd fd 9c 1d bc
       0.01839559 0.26138267 -0.036965128 -0.009619948
0000d0 dd 76 2c be 51 b5 37 bd b9 cf 37 3e bf 19 f0 3d
       -0.16842218 -0.04485065 0.17950334 0.11723661
0000e0 41 82 25 be f9 ca 58 3e 1e 2c 0f bd 8b 6a 42 3d
       -0.16162969 0.21171178 -0.034954183 0.04746489
0000f0 fe 62 2b 3d 98 0c 09 bd ce 26 d3 3b e6 12 5d 3d
       0.041842453 -0.033459276 0.006443835 0.0539731
000100 7f 04 e3 ba 07 a7 77 bd dc 0e 58 bd ad 32 a3 bc
       -0.0017320066 -0.060462024 -0.052748546 -0.019921625
000110 87 d7 3d bc 8e cf b6 bc 30 e7 eb 3a 3b 90 17 3d
       -0.01158703 -0.022315767 0.0017997976 0.037002783
000120 d7 82 4b bc 99 8b 2a 3d 7f 74 6e 3d d1 a4 dd bc
       -0.012421331 0.041637037 0.058216568 -0.02705613
000130 89 05 28 3d 90 b1 33 bd fe ee c3 3c b7 5f c2 3a
       0.041020904 -0.04387051 0.023917671 0.0014829551
000140 0d 0b 90 3d c0 58 38 3d 5c 0f f6 ba 21 65 a7 3d
       0.07033358 0.045006514 -0.0018772888 0.08173586
000150 74 d9 97 3b b3 24 ac bd 11 a3 e1 3c e4 dc 22 bc
       0.0046340767 -0.08405437 0.027543576 -0.00994036
000160 61 64 6e bd d6 dd 6a 3c 5a 32 13 3c 3f 91 8e 3d
       -0.058201198 0.014335116 0.008984173 0.06961297
000170 79 78 aa bd c9 9b 86 3a db 48 88 bc 94 6f da 3c
       -0.083237596 0.0010269816 -0.016636303 0.026664533
000180 af df d0 bc 94 33 6a bd ac ce ef bb e1 94 7b bc
       -0.025497286 -0.057178095 -0.0073183384 -0.01535532
000190 ab 15 f3 bd 00 00 00 00
       -0.11869367 0.0

old_dirs f4 [102]
000000 00 80 aa b8 00 f6 bd 39 00 7e 13 b9 00 38 77 b8
       -8.1300735e-05 0.00036232173 -0.00014065951 -5.8941543e-05
000010 40 00 20 3a 00 ba c8 3a 00 54 98 b8 00 fa c0 39
       0.0006103553 0.0015314221 -7.263571e-05 0.00036807358
000020 80 00 8c 3a 00 bd 24 3b 00 5e 43 ba 00 54 24 ba
       0.0010681301 0.0025137067 -0.0007452667 -0.00062686205
000030 00 e6 a8 39 00 34 41 b9 00 b6 74 3a 80 83 28 3b
       0.0003221482 -0.00018425286 0.00093349814 0.0025713146
000040 00 60 97 39 80 08 aa 3a 00 4b c9 39 00 a0 2c b9
       0.0002887249 0.0012972504 0.00038393587 -0.00016462803
000050 00 9f ac ba 00 7d 63 bb 00 de 34 39 00 df b4 39
       -0.0013169944 -0.0034711957 0.00017248839 0.00034498423
000060 00 50 6b 38 00 30 5b 3a 40 5f 6b 39 00 f7 7a 3a
       5.6102872e-05 0.00083613396 0.0002244683 0.0009573549
000070 00 7d 66 ba 00 99 55 bb e0 d5 0a ba 40 9b 91 ba
       -0.000879243 -0.0032592416 -0.0005296152 -0.001110889
000080 00 03 41 39 80 ad 86 3a 80 4b fe ba 80 07 94 bb
       0.00018407032 0.0010275096 -0.0019401163 -0.0045174956
000090 00 56 bd 38 80 e8 c3 39 80 91 6f 3a 80 4f 1d 3b
       9.028241e-05 0.00037366524 0.00091388077 0.0024003685
0000a0 00 65 2f 3a 80 65 5a ba 00 cb 15 b9 00 ef 53 3a
       0.00066907704 -0.0008331165 -0.0001428537 0.0008084625
0000b0 00 03 d4 3a 00 ef 50 bb 00 3f bb 3a 00 aa 02 3a
       0.001617521 -0.0031880736 0.0014285743 0.00049844384
0000c0 00 e5 90 ba 00 e8 c3 3a 80 8c c9 ba 00 3f 98 3a
       -0.0011054575 0.0014946461 -0.0015376955 0.0011615455
0000d0 00 14 bc ba 00 8e 81 39 40 c5 e0 39 80 85 d1 b9
       -0.0014349222 0.00024710596 0.00042871572 -0.00039963052
0000e0 00 3e f0 b9 00 36 75 bb 00 02 ca 38 00 fc 51 3a
       -0.0004582256 -0.003741622 9.632483e-05 0.0008010268
0000f0 80 4f f2 bb 00 8e e0 bb 00 59 5b bb 00 2e f9 bb
       -0.007394731 -0.006852865 -0.0033469796 -0.0076043606
000100 80 1f 5b 3b 00 f2 6b ba 00 01 0c bb 00 4c 2b 3a
       0.0033435524 -0.00090005994 -0.00213629 0.0006534457
000110 00 ed 24 ba 00 40 fc b8 80 da 9d bb 00 f7 f0 bb
       -0.0006291419 -0.00012028217 -0.004817307 -0.0073536634
000120 00 85 4c bb 80 e1 e7 bb 00 f3 57 3b 00 3c 12 3b
       -0.0031207204 -0.0070764422 0.0032951236 0.0022313595
000130 80 97 04 3b 00 c4 bb 3a 00 44 af bb 00 41 ad 3b
       0.0020231903 0.001432538 -0.0053486824 0.0052872896
000140 00 77 fc 3a 00 4b 23 3b 00 6b 6d 3b 00 ac e2 3a
       0.0019261539 0.002491653 0.0036227107 0.0017293692
000150 00 96 0e 3b 00 eb d0 3b 00 6e c7 3b 80 58 9b 3a
       0.0021756887 0.0063756704 0.006086111 0.0011851937
000160 00 15 4f 3b 00 59 eb 3b 80 36 3f bb 00 51 0c 3b
       0.003159821 0.0071822405 -0.0029176772 0.0021410584
000170 00 82 3f ba 00 50 20 3a 00 f4 76 3b 00 fc 0b bb
       -0.0007305443 0.00061154366 0.0037682056 -0.002135992
000180 00 da 68 bb 00 d4 b1 3b 80 25 0b 3a 00 40 6a 3a
       -0.0035530329 0.0054268837 0.0005308017 0.00089359283
000190 80 f2 2b bc 00 00 00 00
       -0.010494828 0.0

old_dirs f4 [102]
000000 00 d4 c9 b8 00 a0 d4 39 00 b6 30 b9 00 d0 c2 b8
       -9.623915e-05 0.00040555 -0.00016852468 -9.289384e-05
000010 40 bf 34 3a 80 68 e2 3a 00 dc b4 b8 00 0e da 39
       0.00068949535 0.0017273575 -8.624047e-05 0.0004159063
000020 a0 33 a1 3a 00 8b 3c 3b 00 c1 68 ba 00 96 49 ba
       0.0012298711 0.0028769374 -0.0008878857 -0.0007689893
000030 00 38 ce 39 00 fc 33 b9 c0 70 8b 3a 00 7d 3f 3b
       0.00039333105 -0.00017164648 0.001063846 0.0029218793
000040 00 fa a4 39 00 37 bf 3a 00 4e f5 39 00 cc 1b b9
       0.00031466782 0.0014588535 0.00046788156 -0.00014857948
000050 80 e3 c5 ba 00 1b 82 bb 00 6d 51 39 00 2a d9 39
       -0.0015097708 -0.003970504 0.00019972399 0.00041420758
000060 00 f0 3f 38 00 3c 74 3a 20 63 84 39 00 1d 8e 3a
       4.5761466e-05 0.0009316802 0.00025250856 0.0010842383
000070 00 f0 7e ba 00 d2 70 bb c0 6d 1f ba 00 7c a6 ba
       -0.0009725094 -0.0036746264 -0.00060817227 -0.001270175
000080 00 0e 51 39 80 68 97 3a 80 e1 11 bb 80 02 a9 bb
       0.00019937009 0.0011551529 -0.0022259653 -0.0051577687
000090 00 28 d4 38 00 08 df 39 c0 0b 89 3a 80 88 33 3b
       0.00010116398 0.00042539835 0.0010455772 0.0027394593
0000a0 80 44 47 3a 80 fc 76 ba 00 ff 35 b9 00 61 70 3a
       0.0007601455 -0.00094217807 -0.000173565 0.00091697276
0000b0 80 77 f0 3a 80 01 6f bb 80 32 d6 3a 00 26 13 3a
       0.0018346161 -0.00364694 0.0016341954 0.00056132674
0000c0 00 8d a5 ba 00 27 e0 3a 80 ab e4 ba 80 da ab 3a
       -0.0012630522 0.0017101467 -0.001744613 0.0013111383
0000d0 00 5a d5 ba 00 3e 94 39 20 67 05 3a 00 7e ed b9
       -0.0016277432 0.00028274953 0.0005088914 -0.0004529804
0000e0 00 ed 07 ba 00 5e 8a bb c0 34 eb 38 00 48 6e 3a
       -0.0005185157 -0.0042226315 0.00011215499 0.00090897083
0000f0 40 48 0a bc 80 1c 00 bc 00 b3 7a bb c0 1c 0e bc
       -0.008440077 -0.007819295 -0.0038253665 -0.008673847
000100 80 09 78 3b 00 0a 92 ba 80 55 25 bb 00 88 3c 3a
       0.003784746 -0.0011141896 -0.0025227964 0.00071918964
000110 00 84 43 ba 00 74 87 b9 c0 ee b2 bb c0 8e 09 bc
       -0.0007458329 -0.00025835633 -0.00546059 -0.008395851
000120 00 6e 65 bb 40 fc 03 bc 00 57 6f 3b 00 bd 25 3b
       -0.0035008192 -0.008055747 0.0036520362 0.0025289655
000130 80 78 1a 3b 00 6e c8 3a 80 97 c7 bb 80 9c c4 3b
       0.0023570359 0.0015291572 -0.0060910583 0.0060001016
000140 00 9e 0b 3b 00 7c 36 3b 40 43 86 3b 00 3b fa 3a
       0.0021303892 0.0027844906 0.0040973723 0.001909107
000150 00 39 22 3b 00 88 ec 3b 00 c4 e0 3b 00 21 b0 3a
       0.0024753213 0.007218361 0.0068593025 0.0013437569
000160 80 39 6b 3b 00 fd 04 3c 00 02 5a bb 00 06 1c 3b
       0.0035892427 0.0081169605 -0.0033265352 0.0023807287
000170 00 2f 58 ba 80 c2 34 3a 80 c5 8c 3b 00 f2 1e bb
       -0.00082467496 0.0006895438 0.004296005 -0.002425313
000180 00 84 83 bb 80 b7 c9 3b 00 ba 1d 3a 80 48 85 3a
       -0.0040135384 0.006155908 0.0006016791 0.0010168701
000190 80 0e 43 bc 00 00 00 00
       -0.011905313 0.0

old_dirs f4 [102]
000000 00 c4 e0 b8 00 13 e4 39 00 90 48 b9 00 c4 00 b9
       -0.0001071766 0.00043501705 -0.0001912713 -0.00012280047
000010 00 e0 43 3a 00 bb f4 3a 00 ac c9 b8 00 b6 eb 39
       0.0007472038 0.0018671453 -9.6164644e-05 0.00044958293
000020 80 31 b1 3a 00 f1 4d 3b 80 98 83 ba 00 08 68 ba
       0.001351878 0.0031424165 -0.0010039955 -0.000885129
000030 00 d9 ec 39 00 40 21 b9 c0 e9 97 3a 80 fc 4f 3b
       0.00045175105 -0.00015377998 0.0011590049 0.0031736195
000040 00 52 ac 39 80 dc cd 3a 80 f7 0c 3a 00 8c 04 b9
       0.0003286749 0.0015705973 0.00053774565 -0.00012640655
000050 00 8f d8 ba 80 03 8e bb 00 59 68 39 00 fe f5 39
       -0.001652211 -0.0043339133 0.00022158399 0.00046919286
000060 00 c0 03 38 80 76 82 3a 20 c9 8e 39 80 f3 99 3a
       3.1411648e-05 0.0009953529 0.000272342 0.0011745542
000070 00 02 87 ba 80 d9 81 bb 10 e0 2e ba 00 c9 b5 ba
       -0.0010300279 -0.0039626956 -0.0006670961 -0.0013869107
000080 00 ac 59 39 00 03 a3 3a c0 e6 1f bb 80 2d b8 bb
       0.00020758808 0.0012436807 -0.0024399012 -0.0056206584
000090 00 a6 e3 38 00 72 f2 39 40 cd 95 3a 80 af 43 3b
       0.000108551234 0.00046242774 0.0011428967 0.0029859245
0000a0 80 f8 57 3a 00 a4 85 ba 00 69 4e b9 00 23 82 3a
       0.00082386285 -0.001019597 -0.00019684806 0.0009928644
0000b0 c0 5e 02 3b 80 86 82 bb 80 e4 e9 3a 00 7e 1e 3a
       0.0019892901 -0.003983319 0.0017844588 0.0006045997
0000c0 00 9c b4 ba 00 fd f4 3a 00 eb f7 ba 00 9d b9 3a
       -0.0013779402 0.0018691123 -0.001891464 0.001416117
0000d0 00 74 e7 ba 00 be a1 39 c0 d0 16 3a 00 f7 00 ba
       -0.0017658472 0.00030849874 0.0005753152 -0.00049196184
0000e0 40 1d 13 ba 00 60 95 bb 00 c3 01 39 c0 3c 81 3a
       -0.00056119636 -0.004558563 0.00012375042 0.0009860024
0000f0 80 da 16 bc 80 96 0b bc 00 88 88 bb 40 f8 1a bc
       -0.009207368 -0.008519769 -0.004166603 -0.0094586015
000100 00 64 86 3b 00 c5 a9 ba 80 83 39 bb 00 68 46 3a
       0.0041012764 -0.0012952387 -0.002830714 0.0007568598
000110 00 99 5a ba 00 0c d1 b9 c0 2c c2 bb 00 0c 16 bc
       -0.0008338839 -0.00039872527 -0.005925745 -0.009158134
000120 00 f4 75 bb 40 a6 0f bc 00 f3 7d 3b 00 f7 32 3b
       -0.0037529469 -0.008767664 0.0038749576 0.0027307868
000130 00 c0 2b 3b 00 b0 cc 3a 80 47 d9 bb 80 6e d5 3b
       0.002620697 0.0015616417 -0.006630838 0.0065134168
000140 80 59 14 3b 80 a8 43 3b 80 52 91 3b 80 b1 04 3b
       0.0022636354 0.0029855072 0.0044348836 0.00202474
000150 00 54 30 3b 00 19 00 3c 80 8e f2 3b 80 ef be 3a
       0.0026905537 0.00781846 0.007402241 0.0014567226
000160 80 71 7f 3b 00 d5 0f 3c 00 56 6d bb 00 90 26 3b
       0.0038977563 0.0087788105 -0.003621459 0.002541542
000170 00 d2 69 ba 80 25 43 3a 00 76 99 3b 00 92 2c bb
       -0.0008919537 0.00074442476 0.004683256 -0.002633214
000180 80 2c 8e bb 00 e3 da 3b 00 f0 2a 3a 00 f4 90 3a
       -0.004338801 0.0066798925 0.0006520748 0.0011059046
000190 00 a3 53 bc 00 00 00 00
       -0.01291728 0.0

old_dirs f4 [102]
000000 00 5a eb b8 00 96 e8 39 00 1a 56 b9 00 1e 17 b9
       -0.00011222437 0.00044362247 -0.00020418316 -0.00014411658
000010 40 c2 49 3a 80 5d fb 3a 00 30 d3 b8 00 e7 f1 39
       0.0007696487 0.0019177645 -0.00010070205 0.0004613921
000020 20 6e b8 3a 00 1b 55 3b 00 1b 8c ba 00 fc 79 ba
       0.0014070906 0.0032517314 -0.0010689199 -0.0009536147
000030 00 e5 fe 39 00 94 09 b9 80 ef 9c 3a 80 3e 56 3b
       0.00048617274 -0.00013120472 0.0011973232 0.0032691061
000040 00 70 ab 39 80 86 d2 3a 80 f0 17 3a 00 50 d1 b8
       0.00032699108 0.0016061813 0.000579603 -9.980798e-05
000050 00 7d e0 ba 00 dd 92 bb 00 4f 74 39 00 e9 02 3a
       -0.0017127097 -0.0044819117 0.00023299083 0.0004993826
000060 00 c0 84 37 80 91 84 3a 00 60 92 39 80 4f 9e 3a
       1.5825033e-05 0.0010114163 0.00027918816 0.0012078136
000070 00 fb 87 ba 00 e5 84 bb b0 b7 35 ba 00 21 bc ba
       -0.0010374486 -0.0040556192 -0.00069319736 -0.0014353096
000080 00 21 58 39 00 bb a6 3a c0 00 26 bb 80 23 be bb
       0.00020611659 0.0012720525 -0.0025330037 -0.005802572
000090 80 fe e7 38 00 cf f9 39 40 32 9b 3a 00 32 4a 3b
       0.00011062343 0.00047647208 0.0011840537 0.0030852556
0000a0 00 d4 5d 3a 80 4a 89 ba 00 c5 5a b9 00 97 85 3a
       0.00084620714 -0.0010474473 -0.00020863488 0.0010192096
0000b0 00 1c 06 3b c0 19 87 bb 00 fd f1 3a 00 08 22 3a
       0.0020463467 -0.0041229427 0.0018462241 0.00061810017
0000c0 00 c2 ba ba 00 d7 fd 3a 00 ee fe ba 80 51 be 3a
       -0.001424849 0.0019366443 -0.0019449592 0.0014520139
0000d0 80 3c ee ba 80 25 a7 39 20 0d 21 3a 80 0f 05 ba
       -0.0018175989 0.00031880662 0.00061436184 -0.0005075857
0000e0 40 18 17 ba 80 10 99 bb 00 f4 06 39 40 fc 84 3a
       -0.00057638064 -0.0046711564 0.00012870133 0.0010145977
0000f0 80 0c 1c bc 00 30 10 bc 80 de 8c bb 00 43 20 bc
       -0.009524465 -0.008800507 -0.004298985 -0.009781599
000100 00 4a 8a 3b 00 9e b8 ba 00 63 44 bb 00 8c 46 3a
       0.0042202473 -0.0014085174 -0.0029966235 0.0007573962
000110 00 cb 65 ba 00 58 07 ba 80 0d c8 bb 00 2b 1b bc
       -0.0008765906 -0.00051629543 -0.006105125 -0.009470701
000120 00 5e 7a bb 40 50 14 bc 80 1a 80 3b 00 18 37 3b
       -0.0038203 -0.009052336 0.003909409 0.002793789
000130 80 a5 34 3b 00 e2 c6 3a 00 55 e0 bb 80 de db 3b
       0.0027564466 0.0015173554 -0.0068460703 0.0067098737
000140 80 19 16 3b 80 99 47 3b 40 5c 95 3b 00 0e 06 3b
       0.0022903383 0.0030456483 0.004558116 0.0020455122
000150 00 bc 35 3b 80 b4 03 3c 00 a3 f8 3b 00 62 c4 3a
       0.0027730465 0.00803864 0.0075877905 0.001498282
000160 00 8f 83 3b 80 b1 13 3c 80 eb 74 bb 80 44 29 3b
       0.0040148497 0.009014487 -0.0037371814 0.0025828183
000170 00 38 70 ba 00 17 48 3a 00 b7 9e 3b 80 b3 31 bb
       -0.0009163618 0.0007632822 0.0048435926 -0.0027115047
000180 80 f0 91 bb 80 73 e1 3b 00 c3 2f 3a 80 82 95 3a
       -0.0044537187 0.0068802238 0.00067047775 0.001140669
000190 00 e8 59 bc 00 00 00 00
       -0.013299942 0.0

old_dirs f4 [102]
000000 00 f0 e9 b8 00 21 e3 39 00 e4 58 b9 00 88 22 b9
       -0.00011155009 0.000433214 -0.00020684302 -0.00015500188
000010 80 f1 46 3a 00 19 f7 3a 00 f0 d1 b8 00 6e ed 39
       0.0007589087 0.0018852055 -0.000100106 0.0004528612
000020 80 2a b7 3a 80 89 52 3b 00 b2 8d ba 00 9e 7e ba
       0.0013974458 0.0032125413 -0.0010810494 -0.0009712875
000030 80 d1 01 3a 00 f0 e2 b8 80 e6 9a 3a 80 ea 52 3b
       0.00049521774 -0.00010821223 0.0011817962 0.003218323
000040 00 b2 a3 39 00 02 ce 3a 00 1d 1b 3a 00 28 9b b8
       0.00031222403 0.0015717149 0.0005917102 -7.3984265e-05
000050 00 23 de ba 00 fd 90 bb 00 29 75 39 00 22 04 3a
       -0.0016947687 -0.004424691 0.00023380294 0.0005040467
000060 00 00 be 35 80 10 81 3a c0 9e 8f 39 80 aa 9b 3a
       1.4156103e-06 0.0009846836 0.00027393363 0.0011876374
000070 80 37 83 ba 80 12 82 bb 70 42 34 ba 00 ec b9 ba
       -0.0010011047 -0.0039694905 -0.0006876355 -0.0014184713
000080 00 33 4e 39 80 36 a3 3a 00 7e 24 bb 80 6b bb bb
       0.0001966469 0.0012452155 -0.0025099516 -0.005719602
000090 00 3b e2 38 00 da f5 39 00 8e 99 3a 00 90 47 3b
       0.000107875094 0.00046892464 0.0011715293 0.003045082
0000a0 00 a4 59 3a 00 e3 86 ba 00 0b 5b b9 00 09 83 3a
       0.0008302331 -0.001029104 -0.00020889565 0.0009997189
0000b0 40 df 03 3b 80 88 85 bb 80 08 ef 3a 00 6b 1e 3a
       0.002012208 -0.00407511 0.0018236786 0.0006043166
0000c0 80 6d b8 ba 00 2b fb 3a 80 85 fa ba 00 ab ba 3a
       -0.001407072 0.0019162595 -0.0019113272 0.0014241636
0000d0 80 64 ea ba 00 e7 a4 39 00 ae 23 3a 80 57 03 ba
       -0.0017882735 0.00031452626 0.00062438846 -0.0005010292
0000e0 c0 5b 14 ba 80 fc 95 bb 80 84 05 39 00 cb 82 3a
       -0.0005659424 -0.0045772195 0.00012733229 0.0009978712
0000f0 00 38 1a bc 00 40 0e bc 80 b8 8a bb 00 57 1e bc
       -0.0094127655 -0.008682251 -0.00423342 -0.009664297
000100 00 1d 88 3b 80 b1 bd ba 80 bd 45 bb 00 68 3e 3a
       0.0041538477 -0.0014472455 -0.0030172765 0.0007263422
000110 00 48 65 ba 00 84 1c ba c0 19 c5 bb 80 4a 19 bc
       -0.00087463856 -0.0005970597 -0.0060150325 -0.009356141
000120 00 c7 73 bb 80 55 12 bc 00 98 77 3b 00 e3 32 3b
       -0.003719747 -0.008931518 0.0037779808 0.0027295947
000130 00 18 35 3b 00 5e b9 3a 00 56 dd bb 00 87 d8 3b
       0.0027632713 0.0014142394 -0.0067546368 0.00660789
000140 00 b4 11 3b 00 13 43 3b 00 cc 92 3b 00 ef 01 3b
       0.0022232533 0.0029765964 0.004479885 0.0019826293
000150 00 f9 32 3b 00 7b 01 3c 80 dc f3 3b 00 17 c1 3a
       0.002730906 0.007902861 0.007442057 0.0014731586
000160 00 83 81 3b 00 0e 11 3c 00 67 71 bb 80 ea 24 3b
       0.003952384 0.0088534355 -0.0036835074 0.0025164187
000170 00 29 6c ba 00 52 44 3a 00 df 9c 3b 80 eb 2e bb
       -0.0009008795 0.00074890256 0.004787326 -0.0026690662
000180 00 4a 8f bb 80 06 de 3b 80 c6 2c 3a 00 60 93 3a
       -0.004372835 0.006775677 0.0006590858 0.001124382
000190 80 80 56 bc 00 00 00 00
       -0.01309216 0.0

old_dirs f4 [102]
000000 00 d0 e1 b8 00 0f d8 39 00 06 54 b9 00 ba 25 b9
       -0.00010767579 0.00041209906 -0.0002022013 -0.00015804917
000010 40 ae 3e 3a 80 45 ec 3a 00 8c ca b8 00 d0 e2 39
       0.000727389 0.0018026084 -9.6581876e-05 0.0004326105
000020 40 75 b0 3a 80 0d 4a 3b 80 50 8a ba 00 28 7a ba
       0.0013462678 0.00308308 -0.0010552555 -0.00095427036
000030 00 f2 fe 39 00 a0 b7 b8 80 8d 94 3a 80 da 49 3b
       0.0004862696 -8.755922e-05 0.0011333674 0.0030800402
000040 00 08 99 39 80 33 c4 3a 00 8f 18 3a 00 b0 58 b8
       0.00029188395 0.0014968961 0.00058196485 -5.1662326e-05
000050 00 69 d5 ba 40 11 8b bb 00 02 6e 39 00 f3 00 3a
       -0.0016281903 -0.0042439997 0.00022698194 0.00049190223
000060 00 c0 12 b7 00 f7 74 3a 40 14 89 39 80 e6 94 3a
       -8.746982e-06 0.0009344667 0.00026145764 0.0011360198
000070 00 18 77 ba 00 ba 77 bb 50 81 2d ba 00 81 b2 ba
       -0.00094258785 -0.0037800074 -0.00066186953 -0.0013618767
000080 00 5c 40 39 80 88 9b 3a 40 0a 1e bb 80 77 b3 bb
       0.0001834482 0.0011866242 -0.0024114996 -0.005476892
000090 80 99 d6 38 00 2a eb 39 00 8a 93 3a 80 66 3f 3b
       0.00010232907 0.00044853985 0.0011256337 0.0029205382
0000a0 00 b9 4f 3a c0 e4 80 ba 00 0a 54 b9 00 1d 7a 3a
       0.00079239905 -0.0009833798 -0.00020221621 0.00095410645
0000b0 80 2d fc 3a 00 3a 80 bb 00 62 e5 3a 40 b2 16 3a
       0.0019239634 -0.003913164 0.001750052 0.0005748607
0000c0 00 fa b0 ba 80 70 f1 3a 00 64 ef ba 80 24 b2 3a
       -0.001350224 0.0018420368 -0.0018264055 0.00135912
0000d0 80 31 e0 ba 00 26 9e 39 40 e7 20 3a 00 2b fc b9
       -0.0017104596 0.0003016442 0.00061379746 -0.00048097223
0000e0 c0 a3 0d ba 40 f8 8e bb 20 14 00 39 80 2a 7a 3a
       -0.0005403124 -0.00436309 0.00012214528 0.0009543076
0000f0 c0 11 14 bc 80 6a 08 bc 80 e0 84 bb 00 02 18 bc
       -0.009037435 -0.008326173 -0.004055083 -0.009277821
000100 00 46 82 3b 80 96 bb ba 00 98 40 bb 00 b8 32 3a
       0.00397563 -0.001431182 -0.0029387474 0.0006817579
000110 00 b7 5d ba 00 54 27 ba 80 ca bc bb c0 22 13 bc
       -0.000845775 -0.00063830614 -0.0057614446 -0.008980453
000120 00 68 67 bb 00 50 0c bc 00 84 69 3b 00 46 2a 3b
       -0.0035309792 -0.008563995 0.0035631657 0.0025981665
000130 00 c7 2f 3b 00 4e a9 3a 00 32 d4 bb 80 54 cf 3b
       0.0026821494 0.0012916923 -0.006475687 0.006327212
000140 00 eb 09 3b 80 ac 39 3b c0 59 8c 3b 00 ae f5 3a
       0.0021044612 0.0028331578 0.00428316 0.0018743873
000150 00 53 2b 3b 00 a2 f7 3b 80 bc e8 3b 00 9e b8 3a
       0.0026142 0.0075571537 0.007102549 0.0014085174
000160 00 e8 77 3b 80 95 0a 3c 00 3f 67 bb 00 94 1c 3b
       0.0037827492 0.008458495 -0.0035285354 0.0023891926
000170 00 e4 61 ba 80 70 3b 3a 80 b5 96 3b 00 5e 27 bb
       -0.00086170435 0.00071502477 0.004599273 -0.0025538206
000180 00 e1 88 bb 00 a0 d4 3b 80 26 25 3a 80 34 8d 3a
       -0.0041772127 0.0064888 0.00062999874 0.0010773093
000190 80 51 4d bc 00 00 00 00
       -0.012531638 0.0

old_dirs f4 [102]
000000 00 a4 d7 b8 00 1a cb 39 00 82 4b b9 00 bc 24 b9
       -0.00010282546 0.0003873855 -0.00019408017 -0.00015710294
000010 80 52 34 3a 80 11 df 3a 00 6c c1 b8 00 00 d6 39
       0.00068787485 0.0017018765 -9.223074e-05 0.0004081726
000020 00 87 a7 3a 80 51 3f 3b 80 9d 84 ba 00 6c 71 ba
       0.0012781322 0.0029192865 -0.001011774 -0.00092095137
000030 00 d9 f5 39 00 d8 92 b8 00 8d 8c 3a 00 b2 3e 3b
       0.0004689172 -7.002056e-05 0.0010723174 0.0029097795
000040 00 e6 8d 39 80 94 b8 3a 00 40 13 3a 00 60 0c b8
       0.0002706498 0.0014082342 0.0005617142 -3.3468008e-05
000050 00 32 ca ba c0 a0 83 bb 00 09 63 39 00 9b f7 39
       -0.0015426278 -0.0040169656 0.0002165176 0.00047226995
000060 00 c0 7f b7 00 cc 65 3a 80 23 81 39 00 a4 8c 3a
       -1.5243888e-05 0.0008766055 0.00024631247 0.0010730028
000070 00 4b 66 ba 00 01 69 bb e0 9e 24 ba c0 13 a9 ba
       -0.00087849796 -0.0035553575 -0.0006279778 -0.0012899563
000080 00 ce 31 39 00 68 92 3a 80 8e 15 bb 00 92 a9 bb
       0.00016956776 0.001116991 -0.0022820532 -0.0051748753
000090 80 04 c9 38 80 0a de 39 80 d0 8b 3a 80 2b 35 3b
       9.585265e-05 0.00042350963 0.0010666996 0.0027644336
0000a0 00 e0 43 3a 00 37 73 ba 00 40 4a b9 00 da 6b 3a
       0.0007472038 -0.000927791 -0.00019288063 0.0008997023
0000b0 80 0d ee 3a 00 f9 72 bb 80 31 d9 3a c0 9a 0d 3a
       0.0018161982 -0.0037074685 0.0016570538 0.00054017827
0000c0 80 98 a7 ba 80 f1 e4 3a 80 dc e1 ba 80 ea a7 3a
       -0.0012786537 0.0017466992 -0.0017231852 0.0012810975
0000d0 80 a4 d3 ba 80 be 95 39 e0 77 1b 3a 00 e5 ee b9
       -0.0016147047 0.00028561428 0.00059306435 -0.00045565516
0000e0 80 82 05 ba c0 91 86 bb 60 52 f2 38 80 34 6c 3a
       -0.00050929934 -0.00410673 0.00011554803 0.00090105087
0000f0 40 44 0c bc 00 1f 01 bc 00 69 7b bb 40 f7 0f bc
       -0.008561194 -0.007880926 -0.0038362145 -0.008786976
000100 00 26 76 3b 80 ea b5 ba 00 87 38 bb 00 6e 26 3a
       0.003755927 -0.001387909 -0.0028156638 0.0006348789
000110 00 75 53 ba 00 5e 2b ba 00 72 b2 bb c0 57 0b bc
       -0.00080664456 -0.00065371394 -0.0054457188 -0.008504808
000120 00 51 59 bb 00 c3 04 bc 00 00 5a 3b 00 4f 20 3b
       -0.0033159852 -0.008103132 0.003326416 0.002446115
000130 80 dd 27 3b 00 9c 99 3a 00 c1 c8 bb 00 f3 c3 3b
       0.0025614202 0.0011719465 -0.006126523 0.0059798956
000140 80 1a 01 3b 00 96 2e 3b 00 7a 84 3b 00 c6 e5 3a
       0.0019699633 0.00266397 0.004042864 0.0017530322
000150 80 e3 21 3b 00 c8 e9 3b 80 5e db 3b 00 42 ae 3a
       0.002470225 0.0071344376 0.006694615 0.0013294816
000160 80 3b 6a 3b 80 be 02 3c 80 a8 5a bb 80 ef 12 3b
       0.0035741031 0.007979989 -0.0033364594 0.0022420585
000170 00 64 55 ba 80 c6 30 3a 00 df 8e 3b 00 15 1e bb
       -0.00081402063 0.0006743446 0.0043600798 -0.0024121404
000180 00 1f 81 bb 00 05 c9 3b 80 de 1b 3a 00 8e 85 3a
       -0.003940463 0.0061346292 0.0005945936 0.0010189414
000190 00 06 42 bc 00 00 00 00
       -0.011842251 0.0

old_dirs f4 [102]
000000 00 e0 cd b8 00 64 bf 39 00 97 42 b9 00 5c 21 b9
       -9.816885e-05 0.00036504865 -0.00018557534 -0.00015388429
000010 40 b3 2a 3a 80 ed d2 3a 00 a0 b8 b8 00 47 ca 39
       0.00065116957 0.0016092509 -8.803606e-05 0.00038581342
000020 a0 f7 9e 3a 00 3e 35 3b 00 53 7d ba 00 e8 67 ba
       0.0012128241 0.0027655363 -0.0009663552 -0.00088465214
000030 00 00 ec 39 00 60 70 b8 40 13 85 3a 00 58 34 3b
       0.00045013428 -5.7309866e-05 0.0010152832 0.0027518272
000040 00 7c 84 39 00 04 ae 3a 00 6a 0d 3a 00 20 ab b7
       0.0002526939 0.0013276339 0.00053945184 -2.039969e-05
000050 80 9a bf ba 00 4f 79 bb 00 1e 58 39 00 07 ed 39
       -0.0014618188 -0.0038041472 0.00020610541 0.00045209378
000060 00 20 9e b7 00 45 58 3a 00 ae 73 39 00 08 85 3a
       -1.8849969e-05 0.0008250028 0.00023239106 0.0010149479
000070 00 7a 57 ba 00 89 5b bb d0 26 1c ba 40 3c a0 ba
       -0.00082197785 -0.0033498406 -0.0005956711 -0.0012224987
000080 00 5e 25 39 00 20 8a 3a 00 73 0d bb 80 4f a0 bb
       0.00015770644 0.0010538101 -0.0021583438 -0.0048922896
000090 00 a4 bc 38 00 db d1 39 00 88 84 3a 80 9c 2b 3b
       8.995086e-05 0.00040026754 0.0010111332 0.002618581
0000a0 00 02 39 3a 00 cc 65 ba 80 56 40 b9 00 cc 5e 3a
       0.0007057488 -0.0008766055 -0.0001834277 0.00084990263
0000b0 00 02 e1 3a 80 56 66 bb 00 c0 cd 3a 00 4b 05 3a
       0.0017166734 -0.0035146773 0.0015697479 0.0005084723
0000c0 00 d3 9e ba 00 30 d9 3a 80 5d d5 ba 80 8f 9e 3a
       -0.0012117326 0.0016570091 -0.0016278476 0.001209721
0000d0 00 03 c8 ba 00 f2 8d 39 00 d0 15 3a 80 98 e2 b9
       -0.0015259683 0.0002707392 0.00057148933 -0.000432197
0000e0 00 f8 fb b9 00 bb 7d bb a0 1d e5 38 80 4b 5f 3a
       -0.00048059225 -0.0038716197 0.00010925089 0.0008518025
0000f0 80 ef 04 bc 00 a3 f4 bb 00 26 6e bb c0 6f 08 bc
       -0.008113742 -0.00746572 -0.0036338568 -0.0083274245
000100 80 d8 68 3b 80 5e af ba 80 57 30 bb 00 fa 1b 3a
       0.0035529435 -0.0013379604 -0.0026907623 0.00059500337
000110 00 5c 49 ba 00 68 2b ba c0 dc a8 bb 00 0d 04 bc
       -0.00076812506 -0.00065386295 -0.0051532686 -0.00805974
000120 00 b9 4c bb 00 72 fb bb 00 5a 4c 3b 00 4e 17 3b
       -0.0031238198 -0.007673502 0.0031181574 0.0023087263
000130 00 fe 1f 3b 00 98 8c 3a 00 13 be bb 80 63 b9 3b
       0.002441287 0.0010726452 -0.005800605 0.0056576133
000140 00 94 f2 3a 00 91 24 3b 00 73 7a 3b 00 ae d7 3a
       0.0018507242 0.002511084 0.0038215518 0.0016455054
000150 00 21 19 3b 00 04 dd 3b 80 25 cf 3b 00 b2 a4 3a
       0.0023365617 0.0067448616 0.006321609 0.0012565255
000160 80 87 5d 3b 00 19 f7 3b 80 eb 4e bb 80 4e 0a 3b
       0.0033802688 0.007540822 -0.0031573474 0.0021103919
000170 00 d9 49 ba 00 07 27 3a 80 8e 87 3b 00 7e 15 bb
       -0.0007699877 0.00063715875 0.0041368604 -0.0022810698
000180 00 04 74 bb 80 49 be 3b 80 4f 13 3a 00 e7 7c 3a
       -0.003723383 0.0058071017 0.00056194514 0.0009647459
000190 80 92 37 bc 00 00 00 00
       -0.011204362 0.0

old_dirs f4 [102]
000000 00 d4 c4 b8 00 2d b4 39 00 d6 38 b9 00 c6 1c b9
       -9.3854964e-05 0.00034365803 -0.00017627329 -0.0001495108
000010 c0 15 21 3a 00 00 c7 3a 00 98 b0 b8 00 eb be 39
       0.00061449036 0.0015182495 -8.420646e-05 0.00036414713
000020 40 48 96 3a 80 48 2b 3b 00 61 70 ba 00 9e 5d ba
       0.0011465624 0.0026135743 -0.00091697276 -0.0008454025
000030 00 27 e1 39 00 a0 44 b8 00 4e 7b 3a 80 2f 2a 3b
       0.00042944402 -4.6879053e-05 0.0009586513 0.0025968254
000040 00 38 78 39 80 ca a3 3a 80 e1 06 3a 00 80 2c b7
       0.00023671985 0.0012496263 0.00051452965 -1.0281801e-05
000050 40 03 b5 ba 00 91 6b bb 00 46 4c 39 00 fd e1 39
       -0.0013810173 -0.003594458 0.00019481033 0.00043103844
000060 00 00 a4 b7 00 60 4b 3a 80 54 65 39 00 37 7b 3a
       -1.9550323e-05 0.00077581406 0.0002187062 0.0009583086
000070 00 ca 49 ba 00 87 4e bb b0 95 13 ba c0 75 97 ba
       -0.0007697642 -0.0031513572 -0.000562991 -0.0011555478
000080 00 08 1a 39 80 18 82 3a 60 2e 05 bb 80 30 97 bb
       0.00014689565 0.0009925514 -0.002032183 -0.004613936
000090 80 a8 b0 38 00 ee c5 39 80 83 7a 3a 80 30 22 3b
       8.4237196e-05 0.00037752092 0.0009556338 0.0024748147
0000a0 00 90 2e 3a 80 ad 58 ba 80 8d 36 b9 00 3f 52 3a
       0.0006659031 -0.00082655996 -0.00017409585 0.0008020252
0000b0 00 41 d4 3a 80 d3 59 bb 00 71 c2 3a 00 8d fa 39
       0.0016193688 -0.0033237636 0.0014834702 0.0004778877
0000c0 00 2b 96 ba 00 7f cd 3a 00 2f c9 ba 80 7b 95 3a
       -0.0011456907 0.0015678108 -0.001534909 0.0011404604
0000d0 80 93 bc ba 00 57 86 39 60 8c 0f 3a 00 65 d6 b9
       -0.001438722 0.00025623292 0.00054759346 -0.00040892512
0000e0 80 42 ed b9 00 c5 6e bb 20 1e d8 38 80 ac 52 3a
       -0.0004525371 -0.003643334 0.00010305294 0.0008036569
0000f0 80 4e fb bb 00 46 e7 bb 00 58 61 bb 40 f1 00 bc
       -0.00766927 -0.007057905 -0.0034384727 -0.0078700185
000100 80 bb 5b 3b 80 dd a7 ba 00 ac 27 bb 00 c0 12 3a
       0.0033528507 -0.0012807101 -0.0025584698 0.0005598068
000110 00 6e 3f ba 00 c0 27 ba 00 61 9f bb 80 a4 f9 bb
       -0.0007302463 -0.00063991547 -0.004863858 -0.007618487
000120 00 f2 40 bb 00 83 ed bb 00 ba 3f 3b 00 e4 0e 3b
       -0.0029441118 -0.0072482824 0.0029255152 0.002180338
000130 00 af 17 3b 00 70 81 3a 00 81 b3 bb 00 03 af 3b
       0.002314508 0.0009875298 -0.0054780245 0.005340934
000140 00 b8 e3 3a 80 d8 1a 3b 00 41 6c 3b 00 5d ca 3a
       0.0017373562 0.002362758 0.0036049485 0.0015439093
000150 00 8a 10 3b 00 8a d0 3b 00 43 c3 3b 80 58 9b 3a
       0.002205491 0.006364107 0.0059589148 0.0011851937
000160 80 18 51 3b 00 0a e9 3b 80 69 43 bb 00 04 02 3b
       0.0031905472 0.007111788 -0.0029817522 0.001983881
000170 00 95 3e ba 80 8b 1d 3a 80 4f 80 3b 00 12 0d bb
       -0.00072701275 0.0006009862 0.003915727 -0.0021525621
000180 00 26 66 bb 80 bc b3 3b 00 f0 0a 3a 00 ec 6e 3a
       -0.0035117865 0.0054851174 0.0005300045 0.0009114146
000190 80 52 2d bc 00 00 00 00
       -0.010578752 0.0

old_dirs f4 [102]
000000 00 9a bd b8 00 a0 aa 39 00 b2 2f b9 00 22 18 b9
       -9.040907e-05 0.00032544136 -0.0001675561 -0.00014508516
000010 40 9e 18 3a 80 ac bc 3a 00 38 aa b8 00 39 b5 39
       0.0005821921 0.0014394671 -8.1166625e-05 0.0003456548
000020 c0 8f 8e 3a 00 a1 22 3b 00 3d 64 ba 00 2e 54 ba
       0.0010876581 0.0024815202 -0.00087065995 -0.0008094013
000030 00 25 d7 39 00 40 24 b8 80 5e 6e 3a 00 6b 21 3b
       0.00041035563 -3.916025e-05 0.0009093061 0.0024630427
000040 00 08 6b 39 80 09 9b 3a 80 b4 00 3a 00 00 50 b6
       0.00022414327 0.0011828393 0.0004909709 -3.0994415e-06
000050 c0 be ab ba 00 ad 5f bb 00 2c 41 39 80 1a d8 39
       -0.0013103113 -0.0034130216 0.00018422306 0.00041218475
000060 00 40 98 b7 00 77 40 3a 80 d3 58 39 00 73 6e 3a
       -1.8149614e-05 0.0007341951 0.00020678155 0.0009096116
000070 00 6e 3e ba 80 5d 43 bb b0 fe 0b ba 40 d4 8f ba
       -0.0007264316 -0.002981037 -0.00053403806 -0.001097329
000080 00 b4 10 39 00 80 76 3a 80 83 fb ba 00 44 8f bb
       0.00013799965 0.0009403229 -0.001918897 -0.00437212
000090 80 4d a6 38 80 a2 bb 39 00 c5 6d 3a 00 07 1a 3b
       7.929932e-05 0.0003578849 0.0009070188 0.0023502707
0000a0 00 bb 25 3a 00 5d 4d ba 00 27 2e b9 00 a4 47 3a
       0.00063221157 -0.00078339875 -0.00016608462 0.00076156855
0000b0 00 46 c9 3a 00 f8 4e bb 80 a0 b8 3a 80 ca ec 39
       0.0015355945 -0.0031580925 0.0014085919 0.00045164302
0000c0 80 af 8e ba 00 4c c3 3a 00 b6 be ba 80 b5 8d 3a
       -0.0010886043 0.0014899969 -0.001455009 0.0010811538
0000d0 40 a9 b2 ba 00 b1 7f 39 e0 c9 09 3a 80 ce cb b9
       -0.0013630763 0.00024384633 0.0005256217 -0.00038873032
0000e0 00 88 e0 b9 80 e1 61 bb 20 d6 cc 38 00 ce 47 3a
       -0.00042825937 -0.0034466684 9.767362e-05 0.0007621944
0000f0 80 99 ee bb 00 c2 db bb 00 8b 56 bb 00 da f4 bb
       -0.007281482 -0.006706476 -0.003273666 -0.0074722767
000100 80 5b 50 3b 00 af a0 ba 00 c8 1f bb 00 a2 0b 3a
       0.003179282 -0.0012259185 -0.0024380684 0.0005326569
000110 00 f6 36 ba 00 3c 22 ba 40 1e 97 bb 80 10 ed bb
       -0.0006979406 -0.000618875 -0.0046117604 -0.007234633
000120 00 39 37 bb 00 63 e1 bb 00 57 35 3b 00 00 08 3b
       -0.0027957559 -0.006878257 0.0027670264 0.0020751953
000130 00 17 10 3b 00 8c 71 3a 00 53 aa bb 00 04 a6 3b
       0.0021986365 0.0009214282 -0.0051978827 0.005066395
000140 00 2b d7 3a 00 7f 12 3b 80 ff 5f 3b 00 21 bf 3a
       0.0016416013 0.002235353 0.003417939 0.0014581978
000150 00 1f 09 3b 80 c8 c5 3b 00 0b b9 3b 00 48 93 3a
       0.0020923018 0.0060358644 0.0056470633 0.0011236668
000160 80 5a 46 3b 00 f7 dc 3b 00 79 39 bb 00 e8 f5 3a
       0.0030266345 0.006743312 -0.0028300881 0.0018761158
000170 00 df 34 ba 80 6e 15 3a 00 0c 74 3b 80 c3 05 bb
       -0.00068996847 0.00057003647 0.0037238598 -0.0020410717
000180 00 3e 5a bb 00 a4 aa 3b 80 bf 03 3a 00 da 62 3a
       -0.0033301115 0.0052075386 0.0005025789 0.00086537004
000190 80 7b 24 bc 00 00 00 00
       -0.01003921 0.0

old_dirs f4 [102]
000000 00 ac b7 b8 00 61 a2 39 00 33 27 b9 00 a2 13 b9
       -8.7581575e-05 0.00030971318 -0.0001594536 -0.00014079362
000010 c0 1b 11 3a 80 a0 b3 3a 00 0c a5 b8 00 d4 ac 39
       0.0005535446 0.0013704449 -7.870048e-05 0.0003296435
000020 60 a5 87 3a 00 07 1b 3b 00 f0 58 ba 00 9a 4b ba
       0.0010348968 0.0023655295 -0.0008275509 -0.0007766783
000030 00 d8 cd 39 00 b0 0a b8 80 f3 62 3a 00 bb 19 3b
       0.0003926158 -3.3065677e-05 0.00086575 0.0023457408
000040 00 6c 60 39 80 6a 93 3a 00 d9 f5 39 00 00 1c 36
       0.00021402538 0.001124695 0.0004689172 2.3245811e-06
000050 80 87 a3 ba 00 3d 55 bb 00 db 36 39 80 3f cf 39
       -0.0012476295 -0.003253758 0.00017438456 0.00039529428
000060 00 00 81 b7 00 18 37 3a 40 d0 4d 39 00 58 63 3a
       -1.5377998e-05 0.0006984472 0.00019627903 0.0008672476
000070 00 dd 34 ba 00 a8 39 bb d0 34 05 ba 80 1a 89 ba
       -0.00068993866 -0.0028328896 -0.0005081417 -0.0010460168
000080 00 f1 08 39 00 94 6a 3a 00 1c ee ba 00 4d 88 bb
       0.0001305975 0.00089484453 -0.0018166304 -0.0041595697
000090 00 47 9d 38 00 9e b2 39 80 78 62 3a 00 e1 12 3b
       7.499568e-05 0.00034068525 0.0008639172 0.0022411942
0000a0 80 19 1e 3a 00 7a 43 ba 00 d0 26 b9 00 7a 3e 3a
       0.00060310215 -0.0007456839 -0.0001590848 0.0007266104
0000b0 80 ab bf 3a 80 6f 45 bb 00 02 b0 3a 00 d2 e0 39
       0.0014623255 -0.0030126274 0.001342833 0.00042881072
0000c0 80 1f 88 ba 80 59 ba 3a 00 90 b5 ba 00 f1 86 3a
       -0.0010385364 0.0014217347 -0.001385212 0.0010295212
0000d0 c0 f3 a9 ba 00 6e 74 39 60 86 04 3a 00 83 c2 b9
       -0.001296632 0.00023310632 0.0005055424 -0.00037100166
0000e0 00 63 d5 b9 80 a2 56 bb c0 d7 c2 38 00 51 3e 3a
       -0.00040700287 -0.0032750666 9.2908274e-05 0.0007259995
0000f0 00 66 e3 bb 00 b1 d1 bb 00 41 4d bb 00 5a e9 bb
       -0.0069396496 -0.006399274 -0.003131926 -0.0071213245
000100 80 60 46 3b 00 f7 99 ba 80 96 18 bb 00 fc 05 3a
       0.003026992 -0.0011746585 -0.0023283064 0.0005111098
000110 00 a1 2f ba 00 bc 1b ba 00 d7 8f bb 00 03 e2 bb
       -0.0006699711 -0.0005940795 -0.0043896437 -0.0068973303
000120 00 0b 2f bb 80 bb d6 bb 00 99 2c 3b 00 3a 02 3b
       -0.0026709437 -0.0065531135 0.0026336312 0.0019870996
000130 00 26 09 3b 00 c0 63 3a 80 3a a2 bb 80 20 9e 3b
       0.002092719 0.0008687973 -0.0049508214 0.0048256516
000140 00 5d cc 3a 80 37 0b 3b 00 46 55 3b 00 7b b5 3a
       0.0015591681 0.0021242797 0.0032542944 0.0013845861
000150 80 a0 02 3b 80 62 bc 3b 80 22 b0 3b 80 3a 8c 3a
       0.0019932091 0.005749047 0.0053752065 0.0010698587
000160 80 f5 3c 3b 00 6c d2 3b 80 c8 30 bb 00 b3 e9 3a
       0.0028832853 0.006421566 -0.0026974976 0.0017829835
000170 00 68 2c ba 00 64 0e 3a 00 06 69 3b 00 c5 fe ba
       -0.00065767765 0.0005431771 0.0035556555 -0.0019437373
000180 00 df 4f bb 80 b0 a2 3b 00 e7 fa 39 80 4c 58 3a
       -0.0031718612 0.004964888 0.00047855824 0.00082511455
000190 00 bf 1c bc 00 00 00 00
       -0.009567022 0.0

old_dirs f4 [102]
000000 00 ae b2 b8 00 f5 9a 39 00 ee 1e b9 00 0a 0f b9
       -8.5201114e-05 0.00029555708 -0.00015156716 -0.00013641268
000010 40 1b 0a 3a 00 52 ab 3a 00 bc a0 b8 00 41 a5 39
       0.0005268343 0.0013070703 -7.664412e-05 0.0003151968
000020 60 26 81 3a 80 0b 14 3b 00 e4 4d ba 00 5a 43 ba
       0.0009853356 0.0022589862 -0.0007854104 -0.0007452071
000030 00 d5 c4 39 00 a0 ed b7 00 6c 58 3a 00 b7 12 3b
       0.0003754273 -2.8327107e-05 0.00082558393 0.0022386909
000040 00 b0 57 39 80 85 8c 3a 00 6a ea 39 00 00 cc 36
       0.00020569563 0.0010720938 0.00044710934 6.0796738e-06
000050 00 e9 9b ba 80 ad 4b bb 00 c2 2c 39 00 e0 c6 39
       -0.0011895001 -0.0031078756 0.00016475469 0.00037932396
000060 00 40 3d b7 00 bb 2e 3a c0 af 43 39 00 3d 59 3a
       -1.1280179e-05 0.00066654384 0.00018662121 0.0008286983
000070 00 82 2c ba 80 db 30 bb 00 b2 fd b9 00 e9 82 ba
       -0.0006580651 -0.00269863 -0.0004838854 -0.0009987652
000080 00 35 02 39 00 cd 5f 3a 40 6d e1 ba 00 e8 81 bb
       0.0001241751 0.0008537322 -0.0017198697 -0.003964424
000090 80 08 95 38 80 63 aa 39 00 01 58 3a 00 54 0c 3b
       7.106457e-05 0.0003249906 0.0008239895 0.0021412373
0000a0 80 40 17 3a 00 6f 3a ba 80 2e 20 b9 00 45 36 3a
       0.0005769804 -0.0007111877 -0.00015276112 0.0006953031
0000b0 80 ed b6 3a 00 b0 3c bb 80 1b a8 3a 00 f7 d5 39
       0.0013956279 -0.0028791428 0.0012825578 0.00040810555
0000c0 80 1d 82 ba 80 18 b2 3a 80 3b ad ba 80 ce 80 3a
       -0.0009927005 0.0013587624 -0.0013216585 0.0009827167
0000d0 40 f4 a1 ba 00 3d 6a 39 40 d0 fe 39 00 f5 b9 b9
       -0.0012356117 0.00022338703 0.00048601814 -0.0003546849
0000e0 00 2e cb b9 00 64 4c bb 40 ae b9 38 80 a7 35 3a
       -0.0003875345 -0.0031187534 8.853944e-05 0.00069295615
0000f0 00 0f d9 bb 00 82 c8 bb 00 f5 44 bb 80 b9 de bb
       -0.0066241026 -0.006119013 -0.0030053258 -0.0067970157
000100 00 30 3d 3b 80 50 93 ba 00 b7 11 bb 00 76 01 3a
       0.0028867722 -0.0011239201 -0.002223432 0.0004938543
000110 00 03 29 ba 00 f0 13 ba 00 24 89 bb 80 d7 d7 bb
       -0.00064472854 -0.0005643368 -0.0041851997 -0.006586969
000120 00 eb 27 bb 80 e8 cc bb 00 08 25 3b 00 78 fa 3a
       -0.0025622249 -0.006253302 0.002518177 0.0019109249
000130 80 76 02 3b 00 a8 58 3a 80 ca 9a bb 00 e5 96 3b
       0.0019907057 0.000826478 -0.004723847 0.0046049356
000140 00 b3 c2 3a 00 9c 04 3b 80 7b 4b 3b 00 e2 ac 3a
       0.0014854372 0.0020234585 0.0031048954 0.0013189912
000150 00 68 f9 3a 00 d0 b3 3b 00 0c a8 3b 80 cb 85 3a
       0.0019028187 0.005487442 0.0051283836 0.0010207742
000160 80 5b 34 3b 00 d4 c8 3b 00 d8 28 bb 00 a7 de 3a
       0.0027520359 0.006128788 -0.0025763512 0.0016987026
000170 00 b6 24 ba 80 fb 07 3a 00 e7 5e 3b 00 19 f3 ba
       -0.00062832236 0.0005187318 0.0034012198 -0.0018546879
000180 00 6d 46 bb 00 6b 9b 3b 00 74 ef 39 80 a9 4e 3a
       -0.0030277371 0.00474298 0.0004567206 0.0007883534
000190 00 af 15 bc 00 00 00 00
       -0.0091359615 0.0

old_dirs f4 [102]
000000 00 1e ae b8 00 e7 93 39 00 9a 16 b9 00 54 0a b9
       -8.3025545e-05 0.00028210133 -0.00014362484 -0.00013191998
000010 80 4a 03 3a 80 50 a3 3a 00 e0 9c b8 00 03 9e 39
       0.0005008355 0.0012459904 -7.480383e-05 0.00030138344
000020 40 9f 75 3a 80 51 0d 3b 00 d4 42 ba 00 1e 3b ba
       0.00093697384 0.002156347 -0.0007432103 -0.0007137954
000030 00 cd bb 39 00 40 cd b7 00 3f 4e 3a 00 f9 0b 3b
       0.00035820156 -2.4467707e-05 0.0007867664 0.0021358132
000040 00 f0 4f 39 00 ef 85 3a 00 e7 de 39 00 00 16 37
       0.00019830465 0.0010218322 0.00042515248 8.940697e-06
000050 00 8a 94 ba 80 80 42 bb 00 9f 22 39 00 b0 be 39
       -0.0011332631 -0.0029678643 0.00015508756 0.00036370754
000060 00 80 d3 b6 00 c9 26 3a 80 ed 39 39 00 91 4f 3a
       -6.303191e-06 0.0006362349 0.0001773145 0.000791803
000070 00 d4 24 ba 80 7c 28 bb 80 4b f1 b9 00 df 79 ba
       -0.0006287694 -0.0025708973 -0.00046023354 -0.0009531826
000080 00 24 f8 38 00 83 55 3a 40 09 d5 ba 00 8a 77 bb
       0.00011832267 0.00081448257 -0.0016253367 -0.0037771463
000090 00 35 8d 38 00 81 a2 39 80 dc 4d 3a 00 05 06 3b
       6.733276e-05 0.0003099516 0.00078529865 0.0020449758
0000a0 80 c6 10 3a 00 c7 31 ba 80 f0 19 b9 00 7f 2e 3a
       0.0005522743 -0.00067816675 -0.0001468081 0.0006656498
0000b0 00 89 ae 3a 80 41 34 bb 00 7f a0 3a 80 a3 cb 39
       0.0013315976 -0.0027504861 0.001224488 0.00038840994
0000c0 00 ab 78 ba 80 1e aa 3a 00 47 a5 ba 00 e3 75 3a
       -0.000948593 0.001297906 -0.0012609661 0.0009379834
0000d0 00 46 9a ba 00 86 60 39 c0 71 f4 39 00 ad b1 b9
       -0.0011770129 0.00021412224 0.00046624057 -0.00033888966
0000e0 80 69 c1 b9 00 9f 42 bb 20 ec b0 38 00 5d 2d 3a
       -0.00036890432 -0.0029696822 8.436316e-05 0.00066132843
0000f0 00 0f cf bb 80 ab bf bb 00 1a 3d bb 80 75 d4 bb
       -0.006318927 -0.005849302 -0.0028854609 -0.0064837337
000100 00 56 34 3b 80 87 8c ba 00 df 0a bb 00 10 fb 39
       0.002751708 -0.0010721534 -0.0021190047 0.00047886372
000110 00 c1 22 ba 00 16 0b ba 00 a7 82 bb 80 04 ce bb
       -0.0006208569 -0.00053057075 -0.003987193 -0.0062871575
000120 00 4c 21 bb 00 74 c3 bb 00 09 1e 3b 00 44 f1 3a
       -0.002461195 -0.005964756 0.002411425 0.0018407106
000130 00 a0 f7 3a 00 50 4f 3a 00 9d 93 bb 80 ed 8f 3b
       0.0018892288 0.0007908344 -0.0045048 0.004392326
000140 00 8b b9 3a 00 8b fc 3a 80 15 42 3b 00 b9 a4 3a
       0.0014155805 0.00192675 0.0029614866 0.0012567341
000150 00 05 ee 3a 80 96 ab 3b 80 4c a0 3b 00 43 7f 3a
       0.0018159449 0.005236447 0.004891932 0.0009737462
000160 00 1f 2c 3b 00 a3 bf 3b 00 3b 21 bb 00 22 d4 3a
       0.0026263595 0.0058482885 -0.0024601817 0.0016184449
000170 00 4e 1d ba 80 df 01 3a 00 1d 55 3b 00 db e7 ba
       -0.00060006976 0.00049542636 0.0032518506 -0.0017689168
000180 00 67 3d bb 00 6e 94 3b 00 7e e4 39 00 62 45 3a
       -0.0028900504 0.0045297146 0.00043581426 0.0007529557
000190 00 e6 0e bc 00 00 00 00
       -0.008721828 0.0

old_dirs f4 [102]
000000 00 92 ab b8 00 86 8e 39 80 a8 0f b9 00 c2 06 b9
       -8.18111e-05 0.00027184188 -0.00013700314 -0.00012851506
000010 80 a2 fb 39 00 10 9d 3a 00 b8 9a b8 00 87 98 39
       0.00047995523 0.0011982918 -7.377565e-05 0.00029092282
000020 40 6b 6b 3a 80 19 08 3b 00 76 39 ba 00 ac 34 ba
       0.000898052 0.0020767152 -0.00070747733 -0.0006892085
000030 00 6e b4 39 00 40 b3 b7 00 40 46 3a 80 bf 06 3b
       0.00034414232 -2.1368265e-05 0.00075626373 0.002056092
000040 00 0a 4b 39 00 dc 80 3a 00 41 d5 39 00 00 36 37
       0.00019363314 0.000983119 0.00040674955 1.0848045e-05
000050 00 b7 8e ba 80 64 3b bb 80 e9 19 39 00 56 b8 39
       -0.0010888278 -0.0028593838 0.00014678203 0.0003515929
000060 00 00 04 b5 00 ca 20 3a 00 29 32 39 00 22 48 3a
       -4.917383e-07 0.0006133616 0.00016990677 0.0007634461
000070 00 2d 1f ba 00 02 22 bb 20 55 e7 b9 80 8b 70 ba
       -0.0006072074 -0.002472043 -0.00044123176 -0.00091760606
000080 00 0e ef 38 00 9d 4d 3a 00 c7 ca ba 00 ee 6d bb
       0.00011399016 0.0007843524 -0.0015470684 -0.003630519
000090 80 01 87 38 00 64 9c 39 80 d9 45 3a 00 27 01 3b
       6.437581e-05 0.00029829144 0.00075473636 0.0019707084
0000a0 80 f0 0b 3a 00 0d 2b ba 00 67 15 b9 00 b1 28 3a
       0.00053382665 -0.00065250695 -0.00014248118 0.00064350665
0000b0 80 11 a8 3a 80 bd 2d bb 80 9a 9a 3a 00 a0 c3 39
       0.0012822598 -0.0026510656 0.0011795312 0.00037312508
0000c0 00 c7 6f ba 00 f1 a3 3a 00 24 9f ba 00 e5 6c 3a
       -0.000914678 0.0012507737 -0.0012141466 0.0009036809
0000d0 40 41 94 ba 00 40 59 39 00 31 ec 39 00 40 ab b9
       -0.001131095 0.00020718575 0.00045049936 -0.00032663345
0000e0 00 c1 b9 b9 80 01 3b bb 40 15 aa 38 00 f8 26 3a
       -0.00035429746 -0.002853483 8.11019e-05 0.00063693523
0000f0 00 3a c7 bb 00 eb b8 bb 00 5f 37 bb 80 6c cc bb
       -0.006079912 -0.0056432486 -0.0027980208 -0.00623852
000100 00 69 2d 3b 00 ea 86 ba 00 55 05 bb 00 98 f6 39
       0.002646029 -0.0010293126 -0.0020344853 0.00047034025
000110 00 46 1e ba 00 9e 02 ba 80 17 7b bb 80 62 c6 bb
       -0.00060376525 -0.000498265 -0.0038313568 -0.0060542226
000120 00 a2 1c bb 00 0a bc bb 00 04 19 3b 00 00 eb 3a
       -0.002390027 -0.005738497 0.0023348331 0.0017929077
000130 00 a4 ec 3a 00 44 49 3a 00 fe 8d bb 80 83 8a 3b
       0.0018054247 0.00076776743 -0.0043332577 0.004227102
000140 00 89 b2 3a 00 af f2 3a 00 c4 3a 3b 00 8a 9e 3a
       0.0013621151 0.0018515289 0.0028498173 0.001209557
000150 00 3a e5 3a 80 3b a5 3b 80 50 9a 3b 00 b4 75 3a
       0.0017488599 0.0050424933 0.0047093034 0.00093728304
000160 00 bb 25 3b 00 89 b8 3b 00 5c 1b bb 00 0a cc 3a
       0.0025288463 0.005631566 -0.002370596 0.0015566945
000170 00 94 17 ba 00 67 fa 39 00 95 4d 3b 00 2d df ba
       -0.00057822466 0.00047760457 0.0031369328 -0.0017026961
000180 00 71 36 bb 80 09 8f 3b 00 00 dc 39 80 3c 3e 3a
       -0.002783835 0.004365146 0.0004196167 0.000725694
000190 00 a7 09 bc 00 00 00 00
       -0.008401632 0.0

old_dirs f4 [102]
000000 00 ec a8 b8 00 f8 88 39 00 64 08 b9 00 04 03 b9
       -8.054823e-05 0.00026124716 -0.00013007224 -0.00012494624
000010 80 39 f0 39 00 92 96 3a 00 a4 98 b8 00 db 92 39
       0.00045819208 0.0011487603 -7.278472e-05 0.00028010458
000020 40 d1 60 3a 00 b4 02 3b 00 b6 2f ba 00 ea 2d ba
       0.00085761026 0.0019943714 -0.00067028403 -0.0006634295
000030 80 c1 ac 39 00 60 9b b7 00 f9 3d 3a 80 5c 01 3b
       0.00032950565 -1.8522143e-05 0.0007246882 0.0019738972
000040 00 12 46 39 00 3b 77 3a 00 1f cb 39 00 00 52 37
       0.00018889457 0.0009431094 0.00038742274 1.2516975e-05
000050 00 b2 88 ba 80 12 34 bb 00 c9 10 39 00 b5 b1 39
       -0.0010429025 -0.0027476847 0.00013807788 0.00033894926
000060 00 80 bf 36 00 9a 1a 3a 40 26 2a 39 00 75 40 3a
       5.7071447e-06 0.00058975816 0.00016226713 0.0007341653
000070 00 7a 19 ba 00 60 1b bb a0 fd dc b9 80 e1 66 ba
       -0.0005854666 -0.0023708344 -0.00042150635 -0.0008807406
000080 00 de e5 38 00 75 45 3a c0 37 c0 ba 00 10 64 bb
       0.00010960922 0.0007532388 -0.0014665052 -0.0034799576
000090 00 b4 80 38 80 1a 96 39 80 8e 3d 3a 00 39 f8 3a
       6.137043e-05 0.00028629974 0.0007231012 0.0018937886
0000a0 00 f5 06 3a 00 1d 24 ba 00 e6 10 b9 00 b7 22 3a
       0.0005148202 -0.0006260425 -0.00013818592 0.00062070787
0000b0 00 62 a1 3a 80 fa 26 bb 80 83 94 3a 00 6d bb 39
       0.0012312531 -0.00254789 0.0011330694 0.0003574863
0000c0 00 8b 66 ba 80 86 9d 3a 80 d0 98 ba 00 96 63 3a
       -0.00087945163 0.0012018234 -0.0011658818 0.00086817145
0000d0 80 0b 8e ba 00 b6 51 39 40 49 e3 39 80 87 a4 b9
       -0.0010837168 0.00019999593 0.0004335139 -0.00031381473
0000e0 00 e6 b1 b9 00 30 33 bb a0 1a a3 38 80 5c 20 3a
       -0.00033931434 -0.0027341843 7.777405e-05 0.0006117299
0000f0 80 16 bf bb 80 eb b1 bb 00 76 31 bb 00 16 c4 bb
       -0.0058315396 -0.005429685 -0.002707839 -0.005984068
000100 00 37 26 3b 80 04 81 ba 00 13 ff ba 00 18 f2 39
       0.0025362372 -0.000984326 -0.0019460618 0.00046175718
000110 00 ab 19 ba 00 f0 f2 b9 80 86 70 bb 80 75 be bb
       -0.0005861968 -0.0004633665 -0.0036701262 -0.005812347
000120 00 d9 17 bb 00 5d b4 bb 00 ec 13 3b 00 92 e4 3a
       -0.0023170114 -0.0055042505 0.0022571087 0.0017438531
000130 00 29 e1 3a 00 90 43 3a 00 2c 88 bb 00 e5 84 3b
       0.0017178357 0.00074601173 -0.004155636 0.0040556192
000140 00 54 ab 3a 00 75 e8 3a 80 37 33 3b 00 25 98 3a
       0.0013071299 0.0017735064 0.0027346313 0.0011607707
000150 00 27 dc 3a 00 a8 9e 3b 00 21 94 3b 00 da 6b 3a
       0.0016796291 0.0048418045 0.0045205355 0.0008997023
000160 80 25 1f 3b 00 36 b1 3b 00 4e 15 bb 00 a6 c3 3a
       0.0024283826 0.0054080486 -0.0022782087 0.0014926791
000170 00 9f 11 ba 00 b6 f0 39 00 b6 45 3b 00 2e d6 ba
       -0.0005555004 0.00045911968 0.0030168295 -0.0016340613
000180 00 41 2f bb 80 72 89 3b 00 46 d3 39 80 d6 36 3a
       -0.0026741624 0.0041945577 0.0004029721 0.0006974712
000190 00 3a 04 bc 00 00 00 00
       -0.008070469 0.0
