lightning_logs/version_7/checkpoints/epoch=4-step=5.ckpt (torch, 15834 bytes, 15 tensors)

_neural_net._model.model.0.weight f4 [20, 3]
0	0x3db8c482	0.09021856
1	0xbe86af83	-0.2630578
2	0xbed9aa83	-0.42512903
3	0x3df5eb1f	0.120077364
4	0xbf06f68d	-0.52719957
5	0x3e3cd615	0.18441041
6	0x3f02c0a8	0.5107522
7	0xbbc0aa28	-0.005879659
8	0x3dd65f99	0.104674526
9	0xbb953766	-0.004553723
10	0xbd9c96a5	-0.07645921
11	0xbe14cbdf	-0.14530896
12	0x3e605581	0.21907617
13	0xbce7b1f6	-0.0282831
14	0x3d8bced1	0.068265565
15	0x3d1b7295	0.03795107
16	0xbee5d305	-0.44887558
17	0xbea911fe	-0.3302154
18	0xbdaf7ffd	-0.08569334
19	0xbe365560	-0.17806005
20	0xbe4c5626	-0.19954738
21	0x3eae9c2f	0.34103534
22	0xbeeae8c1	-0.45880702
23	0xbe3180bc	-0.17334265
24	0x3ebead43	0.37241563
25	0xbd3542d6	-0.044253193
26	0x3e9624e0	0.29325008
27	0xbe43cb5a	-0.19120541
28	0xbea9360c	-0.33049047
29	0xbdbb206b	-0.091370426
30	0x3f14f3d4	0.5818455
31	0xbf05144b	-0.5198409
32	0x3ebd97f6	0.3703
33	0x3e409148	0.1880542
34	0x3f0f4635	0.559665
35	0xbf04e9c7	-0.51919216
36	0x3ea8e40a	0.3298648
37	0xbeaaffe1	-0.33398345
38	0xbdf266e5	-0.11836032
39	0xbf06aac7	-0.52604336
40	0x3f0ced46	0.5504955
41	0xbe8c021c	-0.2734536
42	0x3e5337f4	0.20626813
43	0x3f12740b	0.5720832
44	0xbdcc2e92	-0.0996982
45	0xbe0f18a9	-0.13974251
46	0x3e9a2184	0.30103695
47	0x3f05b3d8	0.52227545
48	0xbc56aabc	-0.01310223
49	0xbe9aaf50	-0.30211878
50	0x3f04c7e2	0.51867497
51	0x3ee2b090	0.44275331
52	0x3c9c5ca8	0.01908715
53	0xbd96cd2b	-0.073633514
54	0xbcf53a0e	-0.02993491
55	0x3ed31de0	0.4123373
56	0xbee0e8d9	-0.4392765
57	0x3f088b4c	0.5333755
58	0x3f0e78b2	0.55652916
59	0xbeb4a509	-0.35282162

_neural_net._model.model.0.bias f4 [20]
0	0x3c5b1896	0.013372561
1	0x3efda4fe	0.49539942
2	0xbee2630a	-0.44216186
3	0x3dca7e2a	0.09887345
4	0xbed511bd	-0.41615096
5	0x3ed7c2b5	0.42140737
6	0x3e635a71	0.2220247
7	0x3dc4576e	0.095869884
8	0x3e70387f	0.23459052
9	0x3d874eec	0.0660685
10	0xbe914ae1	-0.2837744
11	0xbf0372a3	-0.51346797
12	0xbdfe34fa	-0.12412448
13	0x3eab0fc4	0.33410466
14	0xbd2d6d45	-0.042340536
15	0x3f14b20e	0.5808419
16	0xbecc15c7	-0.39860365
17	0x3e79d62e	0.2439811
18	0xbebadbdd	-0.36495867
19	0x3ec7322b	0.38905463

_neural_net._model.model.2.weight f4 [20, 20]
0	0x3ce5f6ec	0.028071843
1	0x3e438512	0.19093731
2	0x3db987d8	0.09059113
3	0xbd8181ed	-0.063236095
4	0xbe2919d2	-0.16513756
5	0xbdc76b7c	-0.09737298
6	0xbdcfef8e	-0.10153113
7	0xbdb78e68	-0.08962709
8	0xbe53ecbf	-0.2069578
9	0xbdd67ee1	-0.10473419
10	0x3dad2421	0.08454157
11	0x3dab1b56	0.08354823
12	0x3e4cf36c	0.20014733
13	0xbe085e9e	-0.13317344
14	0xbe57e946	-0.2108508
15	0x3de6f542	0.11277248
16	0x3e38e778	0.18057048
17	0x3d211ec9	0.039336
18	0x3e06f158	0.13178003
19	0xbd12924d	-0.035784055
20	0xbe096fe1	-0.13421585
21	0x3e145cb3	0.14488487
22	0xbe2953e0	-0.16535902
23	0xbe195f58	-0.14977777
24	0x3e3c3a54	0.18381625
25	0x3d6bbce7	0.0575532
26	0xbb8fe77b	-0.0043916083
27	0xbe54d926	-0.2078596
28	0xbbb97316	-0.0056594713
29	0x3e197c68	0.14988863
30	0x3e30a4b6	0.17250332
31	0x3d5a812c	0.053345844
32	0x3e3216b7	0.17391478
33	0xbcc10d51	-0.02356592
34	0xbe5351df	-0.206367
35	0xbe4299f3	-0.1900404
36	0xbe4cc6d2	-0.19997719
37	0xbdf9047b	-0.12159058
38	0x3b13ae40	0.002253428
39	0x3e6106bf	0.2197523
40	0x3d80cfa0	0.06289601
41	0x3d178268	0.0369896
42	0x3e35f29b	0.17768328
43	0x3d8b5313	0.068029545
44	0xbe5b63a7	-0.21424733
45	0xbc4ab2ed	-0.012371761
46	0x3e37f111	0.17963053
47	0x3e3ecd82	0.18633083
48	0x3df0f00a	0.11764534
49	0xbd4e763d	-0.05040573
50	0x3e5d8520	0.21632814
51	0xbd831781	-0.064009674
52	0x3d79f825	0.061027665
53	0xbd6a8ebe	-0.057265036
54	0xbe45e520	-0.19325686
55	0xbe4ab192	-0.197943
56	0x3e1b9359	0.15192927
57	0xbd085d4a	-0.033292092
58	0x3c62f35b	0.013851966
59	0x3dea963e	0.11454438
60	0xbe3128bf	-0.173007
61	0xbc84efe5	-0.016227672
62	0xbdb8df85	-0.09027008
63	0x3e277d40	0.16356373
64	0xbe5c58d3	-0.21518259
65	0x3e241dc9	0.16026987
66	0xbd631777	-0.0554423
67	0xbe569283	-0.20954327
68	0x3dfd755d	0.12375901
69	0x3db8d638	0.09025234
70	0xbe49cfe3	-0.19708209
71	0x3ba42f94	0.0050105546
72	0xbe3264c1	-0.17421247
73	0x3c7c1bc2	0.015387477
74	0xbe15dafb	-0.14634316
75	0xbe38ab55	-0.18034108
76	0xbdb7bf93	-0.08972087
77	0xbe07c2e8	-0.13257945
78	0xbe036533	-0.12831573
79	0x3ce33d00	0.027739048
80	0xbd4aff4d	-0.04955988
81	0xbe2015ac	-0.15633267
82	0x3db067d1	0.086135514
83	0x3e124eaf	0.14287828
84	0x3e3c664c	0.18398398
85	0xbd8ae5fe	-0.06782149
86	0x3e01b25b	0.12665693
87	0xbe5cb077	-0.21551691
88	0xbe3ba1e6	-0.18323478
89	0xbdbe1a15	-0.092823185
90	0x3dbda148	0.092592776
91	0xbdb59d33	-0.08867874
92	0x3d16acab	0.036785763
93	0xbe515d21	-0.20445682
94	0x3c53ae89	0.01292003
95	0xbe001827	-0.12509213
96	0xbe1a094a	-0.15042606
97	0x3e43f3d4	0.19135982
98	0xbe47596d	-0.19467707
99	0x3d31e1ff	0.043428417
100	0x3c90ae61	0.017661275
101	0xbe031e26	-0.1280447
102	0x3d127aca	0.035761632
103	0xbe2d8ffd	-0.16949458
104	0xbda05609	-0.0782891
105	0x3d4b4a50	0.049631417
106	0x3dac0810	0.08399975
107	0xbd2a80fd	-0.04162692
108	0x3e59e3a1	0.2127824
109	0xbdca8ccd	-0.09890137
110	0x3e2c4b8f	0.16825698
111	0x3dd3ff31	0.10351408
112	0x3d613ae7	0.054987814
113	0xbd0c7f09	-0.034300838
114	0x3c9bad93	0.019003665
115	0x3c5ea54c	0.0135892145
116	0xbcedfe08	-0.029051796
117	0xbe2f5be1	-0.17124893
118	0xbe1eb910	-0.15500283
119	0x3ca3539c	0.019937329
120	0xbdd9d817	-0.10636919
121	0x3e1bc400	0.15211487
122	0x3e60acb4	0.21940881
123	0x3d93ab84	0.072104484
124	0x3d934717	0.07191294
125	0x3e553b4b	0.208234
126	0x3e5f16e5	0.21786077
127	0xbe26cb14	-0.16288406
128	0xbdd4e20b	-0.10394677
129	0x3cb9b31a	0.02266841
130	0x3def6ef8	0.116910875
131	0x3e15da2f	0.14634012
132	0x3d861db8	0.06548637
133	0x3d749af5	0.05971809
134	0x3e3a66c6	0.18203267
135	0x3e5e9eaf	0.2174022
136	0xbde06208	-0.10956198
137	0x3e334ef8	0.17510593
138	0xbd9faa69	-0.07796175
139	0xbe2d2b99	-0.16911162
140	0x3e044946	0.12918577
141	0xbd71bcd6	-0.05901798
142	0x3e499eb0	0.1968944
143	0x3e16cbf2	0.14726236
144	0x3d2ac907	0.04169562
145	0xbd84851c	-0.06470701
146	0xbde2a016	-0.1106569
147	0x3d9d5b49	0.07683427
148	0x3e1e0a89	0.15433706
149	0xbdedc454	-0.11609712
150	0x3d647e1e	0.055784337
151	0x3c53e8f0	0.012933955
152	0x3ddb02af	0.10693871
153	0xbe21b31d	-0.15790983
154	0xbe1eac6f	-0.15495466
155	0xbde49868	-0.11161882
156	0xbe03c06e	-0.12866375
157	0x3e26889c	0.1626305
158	0xbe1bce33	-0.15215378
159	0x3e156f61	0.14593269
160	0xbd8112d8	-0.06302422
161	0x3e262d4f	0.16228221
162	0x3e3aa495	0.18226846
163	0x3ce2dace	0.027692225
164	0xbe4a2c37	-0.19743429
165	0xbe3a5397	-0.1819595
166	0x3e18fb9e	0.14939734
167	0xbe42ac42	-0.19011024
168	0x3c55a460	0.013039678
169	0x3e429187	0.19000827
170	0xbc618c8c	-0.013766419
171	0xbd2ecbe7	-0.042674925
172	0x3e2e6885	0.17032059
173	0xbe40412c	-0.18774861
174	0xbe27a4f6	-0.16371521
175	0xbe52fb8e	-0.20603773
176	0x3e42b6a6	0.19014987
177	0xbe583b1e	-0.21116301
178	0xbdf68706	-0.120374724
179	0x3d802f43	0.062590145
180	0x3dc8769f	0.0978825
181	0x3d876f0a	0.06612976
182	0x3d414ca5	0.047192235
183	0x3dd5ebe6	0.10445385
184	0x3d5cd465	0.053913493
185	0x3d5e5a0f	0.054285105
186	0xbd31633d	-0.04330753
187	0x3c80cba0	0.015722096
188	0xbe18b3a0	-0.14912271
189	0x3e1afb61	0.15134956
190	0x3df501cf	0.119632356
191	0xbe354529	-0.17702164
192	0xbcba1030	-0.022712797
193	0x3cb5bd79	0.022185074
194	0x3e62d7a3	0.22152571
195	0x3dd5f76c	0.104475826
196	0xbe4f6098	-0.20251691
197	0xbe55ae87	-0.20867358
198	0x3cc764a9	0.02433999
199	0xbdc4ed42	-0.09615566
200	0xbe617ce6	-0.22020301
201	0x3e346c16	0.17619357
202	0x3e031485	0.12800796
203	0x3e03ad92	0.1285918
204	0xbe355303	-0.17707448
205	0xbe12f2e8	-0.14350474
206	0xbe46dffa	-0.19421378
207	0xbc694037	-0.014236501
208	0x3e2b8038	0.1674813
209	0x3de6df65	0.11273078
210	0xbd633f82	-0.055480488
211	0x3e381daa	0.17980066
212	0x3e2b12e0	0.16706419
213	0x3de0a82e	0.10969578
214	0x3c4b3311	0.012402312
215	0xbe5c0376	-0.21485695
216	0x3dfb85d4	0.12281385
217	0xbd0a1532	-0.03371162
218	0x3c112d52	0.008860903
219	0xbe14f350	-0.14545941
220	0xbd3d5595	-0.046224196
221	0x3d5874d4	0.05284579
222	0x3df9f2bf	0.12204503
223	0x3d7099f9	0.05874059
224	0xbe30527f	-0.1721897
225	0xbe559291	-0.20856692
226	0xbe2cb644	-0.16866404
227	0x3e25c729	0.16189255
228	0x3dec0af3	0.11525526
229	0x3e3438ed	0.1759984
230	0xbe65047e	-0.22364995
231	0x3e424ea8	0.18975317
232	0x3e1aa9d8	0.15103853
233	0x3d9fcdb4	0.07802907
234	0xbdb911cd	-0.09036598
235	0x3cf4cb21	0.029882016
236	0x3dbc3a87	0.09190851
237	0x3e2fb57a	0.17159072
238	0x3e67a096	0.22619852
239	0x3dfe0845	0.12403921
240	0x3e005d02	0.1253548
241	0x3e049ea6	0.12951145
242	0x3d2ce815	0.04221352
243	0x3e5d16bf	0.21590708
244	0xbe2140cf	-0.15747379
245	0xbd6d37f9	-0.057914708
246	0xbdeff37a	-0.11716361
247	0x3d4667ee	0.04843896
248	0xbdb79197	-0.08963316
249	0x3dfcc66b	0.12342533
250	0xbe57429b	-0.21021502
251	0x3e52d491	0.205889
252	0xbe2da0fe	-0.16955945
253	0x3bc904fe	0.0061346283
254	0xbe16fa9c	-0.14744037
255	0xbe21eb44	-0.15812403

_neural_net._model.model.2.bias f4 [20]
0	0xbd565987	-0.052331474
1	0x3d743440	0.059620142
2	0xbe4a94d6	-0.19783339
3	0x3da9f69e	0.082989916
4	0xbdb6b33c	-0.08920905
5	0xbe56a353	-0.20960741
6	0x3e24a904	0.160801
7	0xbe26aa9d	-0.16276021
8	0x3df2a9d8	0.118488014
9	0xbe078cb1	-0.13237263
10	0xbe0692e3	-0.1314197
11	0xbd646c03	-0.05576707
12	0xbe059069	-0.1304337
13	0xbd38b59a	-0.045095064
14	0xbe3e7df5	-0.18602736
15	0x3d938ffb	0.072051965
16	0x3d11177f	0.0354228
17	0x3da7009f	0.08154415
18	0x3debdaef	0.11516368
19	0x3de183f9	0.110115

_neural_net._model.model.4.weight f4 [1, 20]
0	0x3cb7355e	0.022364315
1	0x3e127e29	0.14305939
2	0x3e024d68	0.1272484
3	0xbe142aa3	-0.1446939
4	0x3d9263ed	0.071479656
5	0x3c013b03	0.007887605
6	0xbd39ada3	-0.04533161
7	0xbe5ea59a	-0.2174286
8	0xbe0c5537	-0.13704382
9	0x3db85ed3	0.09002461
10	0xbe2671a4	-0.16254288
11	0x3dee8e44	0.11648229
12	0xbdcb3a6d	-0.09923253
13	0x3da172f7	0.07883256
14	0x3e22887b	0.15872376
15	0xbe4e7433	-0.20161514
16	0x3e37d656	0.17952856
17	0xbce3e623	-0.027819699
18	0xbde9c8e7	-0.11415272
19	0x3e3c088c	0.18362635

exp_avg f4 [20, 3]
0	0xbcae3ab0	-0.021268219
1	0xbbd0a026	-0.0063667474
2	0x3d3c9d8c	0.046048686
3	0x3b323c22	0.0027196486
4	0x3b37dd8f	0.0028055643
5	0x3bbd6124	0.0057794023
6	0x3b227624	0.0024789656
7	0x39b10c90	0.0003376943
8	0xbda741a8	-0.0816682
9	0x3ba844b2	0.0051351422
10	0x395a0b28	0.00020794256
11	0xbda1cc53	-0.079003
12	0x3b05320c	0.002032402
13	0xb97b91de	-0.00023991565
14	0x3b8b5da3	0.0042531057
15	0xb97377f0	-0.00023218966
16	0xbb5fa504	-0.0034125457
17	0xbd71c20e	-0.059022956
18	0xba66194e	-0.00087775744
19	0xb9b357ea	-0.00034207042
20	0x3a911ace	0.001107061
21	0x3bcb813a	0.0062104734
22	0x3b6ac78c	0.0035824506
23	0xbc3f3fbe	-0.011672912
24	0x3caba96d	0.020954812
25	0x3c287b25	0.010283266
26	0xbcdc4670	-0.026889056
27	0xbc2f24c1	-0.010689915
28	0xb98952d0	-0.00026192376
29	0x3d65ce5e	0.05610501
30	0xbba6b487	-0.0050874385
31	0xbbdb151e	-0.006685867
32	0x3dba0772	0.09083451
33	0x3c6cfd83	0.014464739
34	0x3c3c6dc2	0.011500778
35	0xbcee19ad	-0.029064978
36	0x3aca90e4	0.0015454558
37	0xbb60072e	-0.0034183967
38	0xbd7b6bda	-0.061382152
39	0xbadb6ec7	-0.0016741388
40	0xbb0eeed0	-0.0021809824
41	0x3ceea33e	0.029130574
42	0x3b906dfa	0.0044076415
43	0x3aab19de	0.0013053974
44	0x3c9fcea7	0.01950772
45	0xbc5fb618	-0.013654254
46	0xbbe99604	-0.007128479
47	0x3b99143d	0.004671602
48	0x3acdf09b	0.0015711965
49	0x3b421511	0.0029614607
50	0x3c9da093	0.019241607
51	0x3b28a7bb	0.002573474
52	0x3b7a49c2	0.0038190936
53	0x3d2c2c31	0.04203433
54	0xbd200436	-0.039066516
55	0xbce4acd1	-0.027914437
56	0x3d833118	0.06405848
57	0x3b99de1e	0.004695668
58	0x3b8dc8cf	0.0043269168
59	0x3c2f85f1	0.010713086

exp_avg_sq f4 [20, 3]
0	0x3790ebbd	1.7275912e-05
1	0x366d0fbf	3.5324917e-06
2	0x39826c3f	0.00024876182
3	0x347dc45e	2.3633899e-07
4	0x34f41ada	4.546808e-07
5	0x3593475e	1.0973124e-06
6	0x3449bd16	1.8788373e-07
7	0x319114de	4.2224277e-09
8	0x39fca263	0.00048186173
9	0x357e6955	9.477565e-07
10	0x3431c598	1.6556294e-07
11	0x39ff57f4	0.0004870292
12	0x344bea65	1.899112e-07
13	0x32a60be7	1.9330356e-08
14	0x3580ed23	9.605759e-07
15	0x342a269f	1.5846534e-07
16	0x34c6008a	3.6880766e-07
17	0x397df84a	0.00024220455
18	0x33f6bced	1.1489633e-07
19	0x32bdbac9	2.2087436e-08
20	0x3417ff30	1.4155808e-07
21	0x35c5b9f6	1.4731766e-06
22	0x35ca0d51	1.5054048e-06
23	0x37bde861	2.2638766e-05
24	0x37905cc8	1.7209342e-05
25	0x37272fee	9.965135e-06
26	0x393c238b	0.00017942318
27	0x367f2415	3.8018964e-06
28	0x34d03ed8	3.8788744e-07
29	0x39a68c06	0.00031766313
30	0x3568b771	8.669368e-07
31	0x36072b1a	2.0141656e-06
32	0x3a1ea862	0.00060523127
33	0x372183c8	9.6270305e-06
34	0x36f4d899	7.296982e-06
35	0x38b40352	8.583687e-05
36	0x339932ec	7.13388e-08
37	0x351fe1f1	5.9560904e-07
38	0x398ffde9	0.00027464263
39	0x33b6318d	8.484049e-08
40	0x349edf67	2.959234e-07
41	0x38791552	5.9386082e-05
42	0x358b1300	1.0361837e-06
43	0x34d0c572	3.888668e-07
44	0x378e4051	1.6957669e-05
45	0x3722f791	9.7135935e-06
46	0x366249a4	3.3719489e-06
47	0x372e42f0	1.0386793e-05
48	0x34803feb	2.3888364e-07
49	0x350abd8e	5.1684844e-07
50	0x37dfde87	2.6687294e-05
51	0x356c73b8	8.8085244e-07
52	0x355ac32e	8.149535e-07
53	0x390d20b8	0.00013458997
54	0x387d5ece	6.0408194e-05
55	0x382e8051	4.1604337e-05
56	0x3a16032f	0.000572252
57	0x35686cf2	8.658527e-07
58	0x3571906d	8.9989663e-07
59	0x369659a8	4.4807857e-06

exp_avg f4 [20]
0	0xbccabbe2	-0.024747793
1	0x3ba014f4	0.0048853103
2	0x3b8b494f	0.0042506824
3	0x3b8da3d9	0.0043225107
4	0x3aa1fdd8	0.0012358977
5	0xbafdd1d3	-0.0019364901
6	0xba5870af	-0.0008256537
7	0x3c0da0ab	0.008644263
8	0x3cd39f5d	0.025832826
9	0xbc20ba0f	-0.009809985
10	0xbc6baea2	-0.014384897
11	0x3ca1ce2a	0.019751627
12	0xbb1af50c	-0.0023644594
13	0xbba2fe44	-0.0049741585
14	0x3b38c748	0.0028194953
15	0xbc8870b6	-0.016655307
16	0x3b767066	0.0037603616
17	0x3b9c0ca9	0.0047622514
18	0xbd522d33	-0.051312637
19	0x3c00fe2e	0.007873101

exp_avg_sq f4 [20]
0	0x3801da79	3.0959465e-05
1	0x35a60863	1.2370405e-06
2	0x35295c14	6.30914e-07
3	0x3543dcb7	7.2964343e-07
4	0x346ef9f0	2.2256404e-07
5	0x35a18174	1.2033111e-06
6	0x338a512b	6.44089e-08
7	0x36963027	4.475954e-06
8	0x3842f0ff	4.647765e-05
9	0x36cfcd07	6.192949e-06
10	0x36d4b8f3	6.3396233e-06
11	0x37a92909	2.0165478e-05
12	0x34c31d8c	3.634308e-07
13	0x3546e015	7.408683e-07
14	0x361c2ebd	2.3273017e-06
15	0x379bfd72	1.859546e-05
16	0x358fd388	1.0715894e-06
17	0x35dabdb2	1.6297474e-06
18	0x390da9aa	0.00013510013
19	0x364d5803	3.059861e-06

exp_avg f4 [20, 20]
0	0xbc2176d2	-0.009854989
1	0x3b7a076a	0.0038151392
2	0x3b0e6a2e	0.0021730768
3	0xbb79f6aa	-0.0038141408
4	0x3aab922c	0.0013089827
5	0xbc144d86	-0.009051686
6	0xbba7dc6a	-0.005122711
7	0xbbaa0ed2	-0.005189755
8	0x3b9608e5	0.004578697
9	0xbb1da511	-0.0024054686
10	0x3c1f0468	0.00970564
11	0xbc30f6fd	-0.010801074
12	0xbb78976a	-0.0037932047
13	0xbbd38d22	-0.0064560333
14	0xbabbdfa7	-0.0014333621
15	0x3bbacedf	0.0057009305
16	0x3c56a560	0.013100952
17	0xba94795b	-0.0011327671
18	0xbc0c1fb5	-0.008552481
19	0xbb812fda	-0.003942472
20	0xbd480c37	-0.048839774
21	0x3c81b1c7	0.015831841
22	0x3c33d5ee	0.010976298
23	0xbca27288	-0.019830003
24	0x3c0a7971	0.008451805
25	0xbd45895e	-0.048226707
26	0xbcd7d5b5	-0.02634702
27	0xbce6fab3	-0.028195715
28	0x3c8cf921	0.017208638
29	0xbc22741d	-0.009915379
30	0x3d522b75	0.051310975
31	0xbd5868c4	-0.052834287
32	0xbca03941	-0.01955855
33	0xbd106449	-0.03525189
34	0xbc2b69ea	-0.010462264
35	0x3cb695ff	0.02228832
36	0x3d94bfc3	0.07263138
37	0xbc2e7b01	-0.010649444
38	0xbd24186f	-0.040062364
39	0xbcdbad3d	-0.026816005
40	0xbd4a416e	-0.049378805
41	0x3c9a1534	0.018808939
42	0x3c25f389	0.010128864
43	0xbc9bae54	-0.019004025
44	0x3bc9a246	0.0061533777
45	0xbd3a758a	-0.04552225
46	0xbcd0fafc	-0.025510304
47	0xbcd97bfd	-0.02654838
48	0x3cba70a5	0.022758791
49	0xbc444799	-0.011979961
50	0x3d3dcb73	0.046336602
51	0xbd5c2dab	-0.05375449
52	0xbc9fbace	-0.019498255
53	0xbcf8c589	-0.03036763
54	0xbbe2dcee	-0.0069233095
55	0x3ce93461	0.028467359
56	0x3d83d082	0.06436254
57	0xbbc20070	-0.0059204623
58	0xbd2e49e4	-0.042550936
59	0xbca00b81	-0.019536735
60	0x3d6338e9	0.055474196
61	0xbca2ef11	-0.019889386
62	0xbc48becf	-0.012252524
63	0x3cb40934	0.021977045
64	0xbc0caa0d	-0.008585465
65	0x3d57a3a3	0.05264629
66	0x3cf01dca	0.02931108
67	0x3cf923ef	0.030412642
68	0xbcbc74ae	-0.023004856
69	0x3c4834e4	0.012219641
70	0xbd651707	-0.055930164
71	0x3d793e24	0.060850278
72	0x3cb072a3	0.021539038
73	0x3d1b3ee9	0.037901793
74	0x3c29b0fe	0.01035714
75	0xbcebef8b	-0.028800746
76	0xbd9f6b6e	-0.077841625
77	0x3c1a2bc3	0.009409848
78	0x3d4175e0	0.047231555
79	0x3cdbbcca	0.02682342
80	0xbcdf7cca	-0.027281184
81	0x3c1dea13	0.009638327
82	0x3bc86317	0.006115328
83	0xbc3253c6	-0.010884231
84	0x3b8f42c7	0.004371974
85	0xbcd6043a	-0.026125062
86	0xbc6d8388	-0.0144966915
87	0xbc7731d9	-0.015087568
88	0x3c32c445	0.010911052
89	0xbbc08622	-0.005875365
90	0x3ce5b228	0.028039053
91	0xbcf525e2	-0.02992529
92	0xbc2e21dc	-0.01062819
93	0xbc9c782e	-0.019100275
94	0xbbae94ec	-0.0053278115
95	0x3c6137d0	0.013746217
96	0x3d1fa235	0.038973052
97	0xbba189d2	-0.0049297595
98	0xbcbd3c55	-0.023100058
99	0xbc5f59b1	-0.013632224
100	0xbb89750e	-0.004194862
101	0x3ac72cba	0.0015195825
102	0x3a823d14	0.0009936416
103	0xbadac8f8	-0.0016691973
104	0x3a39adb6	0.0007083075
105	0xbb81bf39	-0.003959563
106	0xbb121b90	-0.002229426
107	0xbb12e769	-0.0022415763
108	0x3ae92367	0.001778704
109	0xba6f12d0	-0.000911993
110	0x3b8ca810	0.0042924955
111	0xbb97da4f	-0.0046341787
112	0xbacd1d8c	-0.0015649064
113	0xbb40416b	-0.0029335867
114	0xba561fc2	-0.00081681844
115	0x3b0f8d2a	0.0021904209
116	0x3bc11c03	0.005893232
117	0xba3e33b0	-0.0007255627
118	0xbb6d29b0	-0.0036188178
119	0xbb088780	-0.0020832717
120	0x3c8022b5	0.01564155
121	0xbbbff799	-0.0058583734
122	0xbb64d6c6	-0.0034918054
123	0x3bca3ff7	0.006172176
124	0xbb112d15	-0.0022152115
125	0x3c723eab	0.014785449
126	0x3c0718fd	0.008245704
127	0x3c0ba7a7	0.008523858
128	0xbbd7b208	-0.0065825023
129	0x3b6dc0f1	0.0036278332
130	0xbc859ee0	-0.016311109
131	0x3c8c9884	0.017162569
132	0x3bca2bb2	0.0061697597
133	0x3c3434b6	0.010998895
134	0x3b2cb751	0.0026354382
135	0xbc085510	-0.008321062
136	0xbcb4a5c6	-0.022051703
137	0x3b11c183	0.0022240586
138	0x3c5a6536	0.013329795
139	0x3be297f9	0.006915089
140	0x3da64a2c	0.08119616
141	0xbcee52cb	-0.029092213
142	0xbc9de2e5	-0.01927323
143	0x3d058b65	0.03260364
144	0xbc63ae5c	-0.013896551
145	0x3d9ff288	0.07809931
146	0x3d322c23	0.043499123
147	0x3d356266	0.044283293
148	0xbd05e66f	-0.03269046
149	0x3c8d5478	0.017252192
150	0xbdae4adc	-0.08510372
151	0x3db7c40e	0.08972941
152	0x3cfc716b	0.0308158
153	0x3d6f749a	0.05846081
154	0x3c88d5c4	0.016703494
155	0xbd237ce9	-0.039914045
156	0xbdf08f9d	-0.11746142
157	0x3c74c044	0.014938418
158	0x3d8e2942	0.06941463
159	0x3d2b9fab	0.041900318
160	0x3d4c9f73	0.04995675
161	0xbc9bddf0	-0.019026726
162	0xbc4ef991	-0.012632743
163	0x3ca2a55e	0.019854244
164	0xbc065977	-0.008200041
165	0x3d424ba5	0.04743542
166	0x3cdb2241	0.026749732
167	0x3cd74dac	0.026282154
168	0xbcb3a2a2	-0.021928135
169	0x3c3dab8e	0.011576546
170	0xbd57a390	-0.05264622
171	0x3d614b3f	0.0550034
172	0x3c97c1c3	0.01852501
173	0x3d13265e	0.03592526
174	0x3c0fb007	0.0087699955
175	0xbcd46deb	-0.02593132
176	0xbd8ff233	-0.07028618
177	0x3be8ee34	0.007108474
178	0x3d318f5b	0.043349605
179	0x3cbadcf5	0.022810439
180	0xbcea6c5e	-0.028616127
181	0x3c12158d	0.008916271
182	0x3bd6aa14	0.0065510366
183	0xbc401e5b	-0.011725987
184	0x3baa68eb	0.0052004955
185	0xbceb35c9	-0.02871217
186	0xbc7f52d5	-0.015583714
187	0xbc898511	-0.016787084
188	0x3c1c2304	0.009529833
189	0xbbb9603c	-0.005657224
190	0x3cf90941	0.03039992
191	0xbcfbefde	-0.030754026
192	0xbc3cc69c	-0.011521962
193	0xbcabe4ff	-0.020983217
194	0xbbd13407	-0.006384376
195	0x3c4a069a	0.0123306755
196	0x3d316e8b	0.043318313
197	0xbbdbe788	-0.0067109503
198	0xbcbdd66c	-0.023173533
199	0xbc863c90	-0.0163863
200	0x3d6059eb	0.054773252
201	0xbcaa1b13	-0.020764863
202	0xbc4ca765	-0.012491082
203	0x3cb15db4	0.021651126
204	0xbc058652	-0.0081497
205	0x3d530dc6	0.051526807
206	0x3cecb120	0.028893054
207	0x3cf0c746	0.029391896
208	0xbcc046cc	-0.023471259
209	0x3c4bb409	0.01243306
210	0xbd6a6aa4	-0.057230607
211	0x3d78ae61	0.060713176
212	0x3cac9f5c	0.021072082
213	0x3d1f401d	0.038879503
214	0x3c22a48c	0.009926926
215	0xbcee65ef	-0.02910134
216	0xbd9e8340	-0.07739878
217	0x3c0448ed	0.0080740275
218	0x3d41a903	0.047280323
219	0x3cce3b27	0.02517469
220	0xbd202a9a	-0.039103128
221	0x3c5312ae	0.012882872
222	0x3c162b99	0.009165668
223	0xbc83190c	-0.016003154
224	0x3bebdf00	0.0071982145
225	0xbd1f0788	-0.03882554
226	0xbcadf61d	-0.02123552
227	0xbcb7610c	-0.022385143
228	0x3c5ea0ac	0.013588112
229	0xbbf966e6	-0.0076111434
230	0x3d2c39d2	0.04204733
231	0xbd2f849a	-0.042851068
232	0xbc7b4dbb	-0.015338357
233	0xbceecdf5	-0.029150942
234	0xbc142797	-0.009042642
235	0x3c8cd597	0.017191691
236	0x3d72433f	0.059146162
237	0xbc12a97c	-0.008951541
238	0xbd04f749	-0.032462392
239	0xbcb72952	-0.02235857
240	0x3cb27230	0.021782964
241	0xb9400040	-0.0001831064
242	0xbc0bff40	-0.008544743
243	0x3c3d243b	0.011544283
244	0xbc3bd14f	-0.011463477
245	0x3cf4ae96	0.029868405
246	0x3c74e0de	0.014946191
247	0x3c85c35e	0.01632851
248	0x3b7cbaa6	0.00385634
249	0xba8c6b08	-0.001071305
250	0xbd0597e9	-0.032615576
251	0x3cbe1eba	0.023208011
252	0x3bf98d13	0.0076156943
253	0x3cd60f00	0.0261302
254	0x3c719383	0.014744642
255	0x3bc25d68	0.005931545

exp_avg_sq f4 [20, 20]
0	0x3701df06	7.740926e-06
1	0x35b92002	1.379289e-06
2	0x34c74514	3.71169e-07
3	0x3594a503	1.1074884e-06
4	0x341d24d5	1.4635164e-07
5	0x36be2ce1	5.667666e-06
6	0x36047b0c	1.9741155e-06
7	0x35ee6d99	1.7764279e-06
8	0x3616dce9	2.2480328e-06
9	0x34eba4a5	4.3891956e-07
10	0x36da4c01	6.5057543e-06
11	0x3729d72e	1.0123285e-05
12	0x357f9fe2	9.522756e-07
13	0x363d4dff	2.8208594e-06
14	0x3439dc9c	1.7309725e-07
15	0x36699ea5	3.4812049e-06
16	0x37422ae7	1.157329e-05
17	0x33a99a02	7.8976896e-08
18	0x36df6e4d	6.6587586e-06
19	0x359991e8	1.1441853e-06
20	0x3955fe2a	0.00020407946
21	0x3801ad37	3.0917316e-05
22	0x375251bc	1.2536006e-05
23	0x3805d5f2	3.1908923e-05
24	0x36f7f1fa	7.3893434e-06
25	0x392dbdfd	0.00016569342
26	0x386b5e11	5.6115972e-05
27	0x3851dd0f	5.003536e-05
28	0x38452cc0	4.7010137e-05
29	0x3709f1d8	8.222145e-06
30	0x3950cb1b	0.00019912088
31	0x398eb11c	0.00027216307
32	0x37c2efaa	2.3238204e-05
33	0x38c5271b	9.400976e-05
34	0x3726e754	9.948231e-06
35	0x388f98c5	6.847227e-05
36	0x39c272a4	0.00037087977
37	0x36e9b9eb	6.965585e-06
38	0x3934d096	0.00017243842
39	0x386ac886	5.59767e-05
40	0x3945f34a	0.00018878016
41	0x37f68bc3	2.9390567e-05
42	0x36f041be	7.1602108e-06
43	0x37dda03a	2.6419864e-05
44	0x363d10c7	2.817296e-06
45	0x391273fc	0.00013966853
46	0x384629ef	4.7245932e-05
47	0x384770fa	4.7550515e-05
48	0x3859f2a2	5.19628e-05
49	0x373cd3c1	1.1254976e-05
50	0x390ec3f7	0.00013615178
51	0x39732883	0.00023189378
52	0x37db1c5d	2.6120042e-05
53	0x386afa12	5.6022844e-05
54	0x364b2805	3.0272652e-06
55	0x38b6f6e8	8.724426e-05
56	0x3989b385	0.0002626443
57	0x360b5e07	2.0767345e-06
58	0x391f4622	0.00015189548
59	0x37d29a95	2.5105934e-05
60	0x397ff835	0.0002441116
61	0x382780ce	3.993586e-05
62	0x3746d36d	1.1850946e-05
63	0x38188a3a	3.6368358e-05
64	0x36ceaf1b	6.1596634e-06
65	0x3944703f	0.00018733832
66	0x3885b32e	6.375309e-05
67	0x3877c714	5.9074795e-05
68	0x3880da26	6.144149e-05
69	0x373a4ae6	1.1103903e-05
70	0x3960cb57	0.00021438055
71	0x39ab0abb	0.00032623656
72	0x37f90f32	2.9690189e-05
73	0x38cacc94	9.670216e-05
74	0x37173d07	9.01451e-06
75	0x38c8be3d	9.572178e-05
76	0x39d2ce6e	0.00040208123
77	0x36bb0e56	5.574703e-06
78	0x395a8bdc	0.00020842202
79	0x385aac7f	5.21359e-05
80	0x38802ae3	6.111504e-05
81	0x37269a35	9.930275e-06
82	0x365dd0d4	3.305312e-06
83	0x371b459a	9.254925e-06
84	0x35ecaa05	1.7632852e-06
85	0x3847ccf5	4.763618e-05
86	0x37886a2d	1.6261905e-05
87	0x3775a103	1.4640626e-05
88	0x377e7c22	1.5168482e-05
89	0x36356e3d	2.703527e-06
90	0x386c58a4	5.6349338e-05
91	0x38abd57b	8.193679e-05
92	0x36f09371	7.169722e-06
93	0x37d901d2	2.5869263e-05
94	0x36257bb9	2.4658932e-06
95	0x37bffb0a	2.2885873e-05
96	0x38da56fe	0.000104112536
97	0x35cd4bf9	1.5295801e-06
98	0x385b927f	5.2350104e-05
99	0x376b489f	1.4024e-05
100	0x35c3bd88	1.4583793e-06
101	0x34822a9a	2.4245384e-07
102	0x33acbb4a	8.043442e-08
103	0x346c5019	2.2008352e-07
104	0x33322b22	4.1483084e-08
105	0x35971774	1.1257202e-06
106	0x34d0160f	3.875907e-07
107	0x34b7604e	3.4156477e-07
108	0x34c7de9a	3.7228602e-07
109	0x338f0541	6.659912e-08
110	0x35b4a01a	1.3457641e-06
111	0x360368f3	1.958161e-06
112	0x34343454	1.6782843e-07
113	0x35257cdc	6.1648984e-07
114	0x33702f6d	5.5922488e-08
115	0x3515f9a7	5.587012e-07
116	0x36248891	2.4517396e-06
117	0x330cf503	3.2819127e-08
118	0x35a8bc4e	1.2571779e-06
119	0x34ac535e	3.2098154e-07
120	0x37b2321b	2.1242586e-05
121	0x367b0bb0	3.7408718e-06
122	0x35b3d7a9	1.3399305e-06
123	0x36565dd8	3.194311e-06
124	0x3524e6fd	6.1430893e-07
125	0x37889ff7	1.6286953e-05
126	0x36bf443f	5.7001885e-06
127	0x369fb2db	4.759391e-06
128	0x36c4042c	5.841741e-06
129	0x3590aefb	1.0779762e-06
130	0x37ad1661	2.0633628e-05
131	0x37ee5fdc	2.8416449e-05
132	0x361ec888	2.366056e-06
133	0x371ef27a	9.47399e-06
134	0x353f22e5	7.1203823e-07
135	0x370b2240	8.29302e-06
136	0x3815799d	3.563763e-05
137	0x34b81cfd	3.4293762e-07
138	0x379bc692	1.8569906e-05
139	0x368cd1d4	4.1967523e-06
140	0x3a0c573d	0.00053535757
141	0x38b81b33	8.77887e-05
142	0x37f8ef5b	2.9675362e-05
143	0x38aa3db7	8.117727e-05
144	0x3783bbab	1.5703807e-05
145	0x39dadabd	0.00041743173
146	0x3915c6fe	0.00014283878
147	0x39050452	0.00012685478
148	0x390c815e	0.00013399633
149	0x37c78c2d	2.3787923e-05
150	0x3a029af4	0.0004982196
151	0x3a3ca945	0.0007196854
152	0x3881870b	6.176353e-05
153	0x3970d783	0.00022968468
154	0x37b5b8a7	2.1662867e-05
155	0x3952849d	0.00020076563
156	0x3a6ff59b	0.00091537245
157	0x375e383c	1.3245324e-05
158	0x39f16367	0.00046041163
159	0x390118e2	0.00012311668
160	0x395714d8	0.00020511763
161	0x38153c07	3.5580273e-05
162	0x373f4f6c	1.1402979e-05
163	0x37fa37f5	2.982838e-05
164	0x369b5b22	4.629969e-06
165	0x39215fb6	0.00015389812
166	0x38612f19	5.3688043e-05
167	0x384335b5	4.654164e-05
168	0x3879eb27	5.958523e-05
169	0x3745582e	1.1762646e-05
170	0x393c8892	0.00017979954
171	0x398ab9bf	0.00026459803
172	0x37ca0396	2.4081946e-05
173	0x38a6d579	7.955259e-05
174	0x369eacd0	4.728885e-06
175	0x38bb0391	8.917519e-05
176	0x39a5117e	0.00031484285
177	0x361fc4c4	2.380738e-06
178	0x3937cf3b	0.0001752944
179	0x38077da2	3.2303513e-05
180	0x3897ad46	7.232516e-05
181	0x372e5c2c	1.0392669e-05
182	0x369ce2e8	4.6755777e-06
183	0x373fc4b9	1.143029e-05
184	0x363dffd5	2.8312108e-06
185	0x387b30a0	5.988835e-05
186	0x37a95a34	2.0188374e-05
187	0x37970c09	1.8006207e-05
188	0x3787f98e	1.6209462e-05
189	0x36420709	2.8912348e-06
190	0x389504f6	7.105798e-05
191	0x38c6f6f5	9.487375e-05
192	0x370935c8	8.178358e-06
193	0x380d9c44	3.3762553e-05
194	0x3670727d	3.5829428e-06
195	0x37c3ac42	2.3326025e-05
196	0x390bcd32	0.00013332514
197	0x3636145c	2.7131964e-06
198	0x387c065f	6.0087415e-05
199	0x37ae9a1b	2.0814177e-05
200	0x397ca33c	0.00024093402
201	0x3837a67c	4.378565e-05
202	0x375c6047	1.3135438e-05
203	0x3816c050	3.5941892e-05
204	0x36d22019	6.2622244e-06
205	0x393e6e1a	0.00018160828
206	0x38846626	6.313277e-05
207	0x38648d5d	5.449109e-05
208	0x38888faf	6.5117485e-05
209	0x373ce937	1.1259973e-05
210	0x396f4f91	0.00022822457
211	0x39ae23d7	0.0003321457
212	0x37e6bd2a	2.7506223e-05
213	0x38db0e49	0.000104453946
214	0x371a58d1	9.1997945e-06
215	0x38c99d1e	9.613692e-05
216	0x39d3d290	0.00040401937
217	0x3692dd41	4.3768964e-06
218	0x3960d25e	0.00021440673
219	0x384f18ce	4.9375747e-05
220	0x390b537c	0.00013287173
221	0x37a93046	2.0168849e-05
222	0x370d1338	8.40873e-06
223	0x37aee14c	2.0847328e-05
224	0x36a612f5	4.9493924e-06
225	0x38e2f9c2	0.00010823041
226	0x3819fd7b	3.6714115e-05
227	0x38076dd0	3.228878e-05
228	0x38012198	3.0787283e-05
229	0x36b31ce1	5.3379777e-06
230	0x39094be1	0.00013093605
231	0x393a0e1e	0.00017743601
232	0x3778f77d	1.4839575e-05
233	0x38822835	6.206372e-05
234	0x36db8a45	6.5428053e-06
235	0x383a3813	4.439808e-05
236	0x397e51e8	0.0002425384
237	0x369ac425	4.612392e-06
238	0x38ec2d9c	0.00011261852
239	0x381a31bd	3.6762784e-05
240	0x387dda08	6.0522958e-05
241	0x3678d0ba	3.7076375e-06
242	0x37126f9d	8.728265e-06
243	0x375f0286	1.3292423e-05
244	0x37365f28	1.0870201e-05
245	0x389adae1	7.3840616e-05
246	0x37beda85	2.2751521e-05
247	0x379f6157	1.8999604e-05
248	0x36bec3d2	5.6852377e-06
249	0x34dd51e0	4.122403e-07
250	0x38c57aae	9.416543e-05
251	0x38ab4482	8.166676e-05
252	0x36909d3a	4.309838e-06
253	0x386d306e	5.6550307e-05
254	0x377fba13	1.5242508e-05
255	0x36c1cb62	5.775525e-06

exp_avg f4 [20]
0	0x3a5d60ad	0.0008444887
1	0xbb790bc6	-0.0038001402
2	0x3b90f4d5	0.0044237175
3	0x399257f5	0.00027912823
4	0xba1e2e4c	-0.00060341205
5	0xb91589d3	-0.00014261091
6	0xba625640	-0.0008634068
7	0x3b6340db	0.0034676108
8	0xba234116	-0.0006227655
9	0xbb4abb5e	-0.0030934433
10	0xbb008424	-0.0019610012
11	0xbb85b1ff	-0.0040800567
12	0x3ce135e2	0.027491514
13	0xbb72d7de	-0.0037054936
14	0xbd058243	-0.03259493
15	0x3b0c719e	0.0021430026
16	0xbc32d734	-0.010915566
17	0x3b1c6f98	0.0023870226
18	0x3b0b9c66	0.0021302938
19	0xbc1786aa	-0.009248415

exp_avg_sq f4 [20]
0	0x333a673e	4.3400398e-08
1	0x35f775ee	1.8437256e-06
2	0x35be5d76	1.4183304e-06
3	0x3332affd	4.1603915e-08
4	0x33ac7090	8.029849e-08
5	0x30871f0f	9.83137e-10
6	0x330bc7d4	3.2545202e-08
7	0x353b81a9	6.985161e-07
8	0x352cadc3	6.432785e-07
9	0x358609dc	9.986647e-07
10	0x340c4c67	1.3066311e-07
11	0x35b206b0	1.326398e-06
12	0x383af29e	4.457181e-05
13	0x34da2c75	4.063801e-07
14	0x38ae5d7d	8.31438e-05
15	0x35328238	6.649966e-07
16	0x37816005	1.5422711e-05
17	0x34512bbf	1.9480557e-07
18	0x350bccda	5.2079633e-07
19	0x36aeb8bb	5.2071096e-06

exp_avg f4 [1, 20]
0	0x3e3acae4	0.18241459
1	0xbc9e4021	-0.019317688
2	0x3db12640	0.08649874
3	0xbd94a2c6	-0.07257609
4	0x3db731ed	0.089450695
5	0x3dc30793	0.09522929
6	0xbd90718c	-0.07052907
7	0xbd1ab60f	-0.03777128
8	0x3e717055	0.23578008
9	0xbcdc7e7d	-0.026915783
10	0x3da37656	0.07981555
11	0xbe0a72e9	-0.13520397
12	0xbe642241	-0.22278692
13	0xbe522501	-0.20521928
14	0xbdc2f1fe	-0.095188126
15	0x3d0c5802	0.03426362
16	0xbd0d0230	-0.034425914
17	0xbe99a8c7	-0.3001158
18	0xbc4f0a3c	-0.012636717
19	0x3e5627b1	0.20913579

exp_avg_sq f4 [1, 20]
0	0x3b11db65	0.0022256013
1	0x38194978	3.6546466e-05
2	0x3a037d94	0.0005015966
3	0x39d242ce	0.00040104095
4	0x3a18b9d7	0.0005826032
5	0x3a61498b	0.00085940276
6	0x3996bce5	0.00028750967
7	0x38719bef	5.7604102e-05
8	0x3b7b5cb8	0.0038354825
9	0x37fb3af0	2.9948977e-05
10	0x39ea8afd	0.00044735512
11	0x3ac797b5	0.0015227707
12	0x3bb272e7	0.0054458263
13	0x3b63d41d	0.003476388
14	0x3ac281f1	0.0014839751
15	0x38e29f9c	0.00010806249
16	0x39d82a52	0.00041230262
17	0x3bdc7d25	0.0067287856
18	0x3730b85f	1.0533345e-05
19	0x3b5578d5	0.0032573242
