tutorials/tutorial 5/lightning_logs/version_147/checkpoints/epoch=0-step=1.ckpt (torch, 40297 bytes, 44 tensors)

_pina_model._model.layers.0.weight f4 [20, 2]
-0.037713595 -0.3019538 -0.6571735 0.12952101 0.52910143 0.18162534 -0.29463705 -0.6758118
-0.07965972 0.6943554 -0.2364197 -0.7029083 -0.026592035 -0.31518033 -0.2981638 0.41098577
0.44768 0.6038668 -0.41065103 -0.3158679 0.51241046 0.026167836 -0.06959379 0.6186325
0.39501473 -0.16836603 0.37286958 0.5309359 0.081937544 0.3663421 0.23358725 -0.6974024
-0.6816534 0.364383 0.22881709 0.25954768 -0.21701702 -0.44819692 -0.1601418 0.25316828
00000000: 9279 1abd b099 9abe 863c 28bf 28a1 043e
00000010: 3173 073f fefb 393e abda 96be 0102 2dbf
00000020: a324 a3bd 47c1 313f 0118 72be ccf1 33bf
00000030: 8ad7 d9bc 515f a1be eda8 98be ba6c d23e
00000040: 5036 e53e 0497 1a3f da40 d2be 70b9 a1be
00000050: 552d 033f ee5d d63c 3087 8ebd b35e 1e3f
00000060: 5f3f ca3e 2568 2cbe c3e8 be3e 6aeb 073f
00000070: dfce a73d 3191 bb3e 7f31 6f3e f788 32bf
00000080: d680 2ebf 6990 ba3e 074f 6a3e 6fe3 843e
00000090: b639 5ebe 117a e5be 36fc 23be 469f 813e

_pina_model._model.layers.0.bias f4 [20]
-0.4838822 -0.66662973 0.3800549 -0.50241065 0.6838835 0.10176385 0.19559231 -0.09980215
-0.6109453 -0.64382553 -0.19226581 0.48205397 -0.36165392 0.47560742 -0.2722255 -0.42764542
0.11068859 -0.09333473 0.6954965 0.48824894
00000000: 68bf f7be 3fa8 2abf 8e96 c23e fc9d 00bf
00000010: fd12 2f3f 9169 d03d 5a49 483e 1265 ccbd
00000020: e966 1cbf c0d1 24bf 54e1 44be c7cf f63e
00000030: b42a b9be d182 f33e 2461 8bbe 57f4 dabe
00000040: b3b0 e23d 4726 bfbd 0f0c 323f c4fb f93e

_pina_model._model.layers.2.weight f4 [2, 20]
0.015687028 -0.0023693386 0.13311616 -0.056785125 0.19884293 0.012764035 0.07268302 -0.1271081
-0.21181457 -0.20104986 0.13292585 0.21703915 0.05604359 -0.215874 0.12833051 0.17636997
-0.17049938 -0.036929075 -0.04410316 -0.14481905 -0.18596803 0.13535087 0.20550078 0.05101783
0.08255363 0.012237395 -0.0640108 0.20737444 0.0713881 0.027880259 0.02714536 0.009875238
-0.07136216 -0.05067424 0.08973525 0.11543499 0.21430185 0.037565857 -0.14086726 -0.019326182
00000000: 1582 803c e846 1bbb 9a4f 083e 8597 68bd
00000010: 7b9d 4b3e 3e20 513c d6da 943d a028 02be
00000020: ebe5 58be 04e0 4dbe b71d 083e 833f 5e3e
00000030: f78d 653d 130e 5dbe 1369 033e 549a 343e
00000040: 6497 2ebe f142 17bd 84a5 34bd 724b 14be
00000050: 676e 3ebe 6b99 0a3e cc6e 523e 12f8 503d
00000060: e111 a93d 5b7f 483c 1818 83bd f759 543e
00000070: ed33 923d 2465 e43c f25f de3c c0cb 213c
00000080: 5326 92bd cb8f 4fbd 1dc7 b73d 2e69 ec3d
00000090: f271 5b3e a8de 193d 823f 10be f151 9ebc

_pina_model._model.layers.2.bias f4 [2]
-0.13084175 -0.2125364
00000000: 61fb 05be 24a3 59be

d f4 [102]
0.0011030327 -0.010392318 -0.0017925788 -0.0028268269 -0.00754762 0.008327532 0.0032417048 -0.001350441
-0.016343212 0.009503707 -0.002275939 0.002874525 -0.011704389 -0.0019675808 0.011519522 0.0077984445
0.039593622 -0.008135531 0.008986775 -0.0077251503 -0.0052283304 -0.0057590716 -0.021512683 0.008816092
0.0022351537 -0.009736881 0.011721735 -0.008234916 -0.010597375 0.012194686 -0.012145603 0.0042911093
0.005086786 0.00922496 0.009287433 -0.00165627 -0.0061015803 -0.0012153073 0.010394413 0.0040797302
-0.011990219 0.006410391 0.0032597585 -0.0095553575 0.010198525 0.009494506 0.0049225087 0.024295697
-0.03582828 -0.013016332 -0.03312159 0.014683473 -0.030229768 -0.010405844 0.0024364626 -0.020231673
0.0466193 -0.017017154 0.012323423 0.01501191 -0.029563699 0.017984537 -0.012249971 -0.020992812
0.04729962 0.0023895719 0.00010471433 0.052853953 -0.062013987 -0.01546012 -0.071688324 0.04781035
-0.07150667 0.0030828079 0.0021880725 -0.059115972 0.104754195 -0.024663253 0.03227909 0.044015568
0.0017390845 0.0039323093 -0.006834765 -0.013390438 0.016704336 -0.0035969513 0.014492969 -0.012742245
-0.03280895 0.0007431357 -0.0066800597 0.014224792 0.0016667937 0.0021331809 -0.016197357 -0.018555567
-0.0035820217 -0.012501155 0.02605273 -0.0031745408 0.04208722 0.0
00000000: a393 903a 8a44 2abc f7f4 eaba 4942 39bb
00000010: 0752 f7bb 3370 083c c872 543b 4801 b1ba
00000020: 33e2 85bc 70b5 1b3c ec27 15bb 8762 3c3b
00000030: c4c3 3fbc 87f2 00bb 61bc 3c3c 188a ff3b
00000040: ec2c 223d e44a 05bc 443d 133c 4223 fdbb
00000050: 6a52 abbb 98b6 bcbb 5e3b b0bc 5f71 103c
00000060: a87b 123b 7087 1fbc 850c 403c beeb 06bc
00000070: 9da0 2dbc 38cc 473c 5afe 46bc 6f9c 8c3b
00000080: 0eaf a63b 4924 173c 512a 183c 3317 d9ba
00000090: c4ef c7bb f24a 9fba 544d 2a3c 42af 853b
000000a0: a072 44bc 420e d23b aca1 553b 138e 1cbc
000000b0: b717 273c d88e 1b3c ff4c a13b c507 c73c
000000c0: adc0 12bd 7442 55bc 81aa 07bd f392 703c
000000d0: 6ba4 f7bc 467d 2abc 0fad 1f3b e5bc a5bc
000000e0: e1f3 3e3d 8f67 8bbc 2fe8 493c 84f4 753c
000000f0: 922f f2bc 4f54 933c 1ab4 48bc 1ef9 abbc
00000100: 3fbd 413d 5d9a 1c3b 149a db38 637d 583d
00000110: 6102 7ebd 714c 7dbc 54d1 92bd c9d4 433d
00000120: 1772 92bd ef08 4a3b c465 0f3b 9723 72bd
00000130: 5e89 d63d 970a cabc 1437 043d ab49 343d
00000140: fef1 e33a 9ada 803b 2af6 dfbb 9163 5bbc
00000150: 88d7 883c d4ba 6bbb eb73 6d3c d9c4 50bc
00000160: ad62 06bd fece 423a 67e4 dabb 1a0f 693c
00000170: 5178 da3a d6cc 0b3b 52b0 84bc d801 98bc
00000180: 5ac0 6abb a5d1 4cbc 896c d53c f50b 50bb
00000190: a663 2c3d 0000 0000

old_dirs f4 [102]
0.0012984872 0.006598234 -0.0010547638 -0.0037546158 0.0015854836 -0.0026640892 -0.00032313168 -0.0007748306
0.0037029386 0.001961112 0.00036489964 0.00042667985 0.0041974783 0.0074505806 -0.009403229 -0.018788338
-0.008500814 -0.01172924 -0.0020095706 -0.003068447 0.0031875372 0.0024867058 0.004719734 0.0038650036
0.003448397 0.0068325996 -0.0028223991 -0.00350976 0.0018706322 -0.0020210743 0.004618764 0.0022243261
-0.010092139 -0.020035744 -0.0019708276 -0.0039548874 0.0037910938 0.01008749 -0.0036334991 -0.0034530163
-0.0017477274 0.0012252033 0.009488106 0.00020468235 0.007791996 0.0009422302 0.0048737526 -0.008625746
-0.012469292 -0.0052428246 0.009707928 0.009068489 0.0043586493 -0.009520531 0.00976038 0.012368679
-0.011132717 -0.0019899607 -0.0012994558 -0.008841991 -0.04127121 -0.049266815 0.042141914 -0.053354263
0.054224014 -0.02411604 0.001737833 -0.002067566 -0.0066375732 -0.05353546 0.0036478043 0.045583725
-0.01789856 0.051376343 -0.0040283203 -0.041324615 -0.0011386871 0.010126114 0.025274277 0.03551674
0.013967037 0.0026123524 -0.01417017 0.018476486 -0.016477108 0.04086685 0.023303032 -0.021790504
-0.05227852 0.011613369 -0.014498711 -0.021066666 0.0017375946 -0.017615318 -0.02822113 0.02423191
-0.008688927 -0.023165703 0.035848618 -0.010135174 0.07230377 0.0
00000000: 0032 aa3a 0036 d83b 0040 8aba 0010 76bb
00000010: 00d0 cf3a 0098 2ebb 006a a9b9 001e 4bba
00000020: 00ad 723b 0086 003b 0050 bf39 00b4 df39
00000030: 008b 893b 0024 f43b 0010 1abc 00ea 99bc
00000040: 0047 0bbc 002c 40bc 00b3 03bb 0018 49bb
00000050: 00e6 503b 00f8 223b 00a8 9a3b 004c 7d3b
00000060: 80fe 613b 00e4 df3b 00f8 38bb 0004 66bb
00000070: 0030 f53a 0074 04bb 0059 973b 00c6 113b
00000080: 8059 25bc 0022 a4bc 0029 01bb 0098 81bb
00000090: 0074 783b 0046 253c 0020 6ebb 004c 62bb
000000a0: 0014 e5ba 0097 a03a 0074 1b3c 00a0 5639
000000b0: 0054 ff3b 0000 773a 00b4 9f3b 0053 0dbc
000000c0: 004c 4cbc 00cc abbb 000e 1f3c 0094 143c
000000d0: 00d3 8e3b 00fc 1bbc 00ea 1f3c 00a6 4a3c
000000e0: 0066 36bc 006a 02bb 8052 aaba 00de 10bc
000000f0: 000c 29bd 00cc 49bd 009d 2c3d 008a 5abd
00000100: 001a 5e3d 008f c5bc 00c8 e33a 0080 07bb
00000110: 0080 d9bb 0048 5bbd 0010 6f3b 00b6 3a3d
00000120: 00a0 92bc 0070 523d 0000 84bb 0044 29bd
00000130: 0040 95ba 00e8 253c 000c cf3c 007a 113d
00000140: 00d6 643c 0034 2b3b 002a 68bc 005c 973c
00000150: 00fb 86bc 0064 273d 00e6 be3c 0082 b2bc
00000160: 0022 56bd 0046 3e3c 008c 6dbc 0094 acbc
00000170: 00c0 e33a 004e 90bc 0030 e7bc 0082 c63c
00000180: 005c 0ebc 00c6 bdbc 00d6 123d 000e 26bc
00000190: 0014 943d 0000 0000

old_dirs f4 [102]
0.00069481134 0.0034189224 -0.0005643368 -0.0020787716 0.00042712688 -0.0013916492 -0.000112488866 -0.000426054
0.0014964342 0.0009251833 0.00016082823 0.0001462996 0.0018527508 0.003764391 -0.004235029 -0.009590149
-0.003604412 -0.005791664 -0.0007773042 -0.0016474724 0.0009977818 0.0012581348 0.0018683672 0.0018647909
0.0014569759 0.0035016537 -0.0011109114 -0.0018048286 0.00033259392 -0.0011885166 0.0017268658 0.0010193586
-0.004440427 -0.010264397 -0.0009178519 -0.001969099 0.0021824837 0.005255699 -0.0013126135 -0.0016587973
-0.00088763237 0.0005041659 0.00537014 2.7418137e-06 0.0040421486 0.00032913685 0.0024681091 -0.0045785904
-0.0060973167 -0.0030488968 0.0053782463 0.0047073364 0.002415061 -0.005177498 0.0051002502 0.006422043
-0.0061178207 -0.00087726116 -0.00072439015 -0.004585743 -0.020917892 -0.02400589 0.020030975 -0.02654457
0.02776146 -0.010797024 0.0013697147 -0.00017309189 -0.006034851 -0.026603699 -0.00048828125 0.023248672
-0.010746002 0.025405884 -0.0029029846 -0.02149582 0.00203228 0.0039057732 0.014354706 0.018659592
0.0072259903 0.0013995171 -0.007548809 0.009745598 -0.008483887 0.021305084 0.012001038 -0.011195183
-0.02702713 0.0061769485 -0.0075645447 -0.010855675 0.0008659363 -0.009310722 -0.014591217 0.012375832
-0.004418373 -0.011993408 0.01843071 -0.0051727295 0.03729248 0.0
00000000: 0024 363a 0010 603b 00f0 13ba 003c 08bb
00000010: 00f0 df39 0068 b6ba 00e8 ebb8 0060 dfb9
00000020: 0024 c43a 0088 723a 00a4 2839 0068 1939
00000030: 00d8 f23a 00b4 763b 00c6 8abb 0020 1dbc
00000040: 0038 6cbb 00c8 bdbb 00c4 4bba 00f0 d7ba
00000050: 00c8 823a 00e8 a43a 00e4 f43a 006c f43a
00000060: 00f8 be3a 007c 653b 009c 91ba 0090 ecba
00000070: 0060 ae39 00c8 9bba 0058 e23a 009c 853a
00000080: 0081 91bb 002c 28bc 009c 70ba 000c 01bb
00000090: 0008 0f3b 0038 ac3b 000c acba 006c d9ba
000000a0: 00b0 68ba 002a 043a 00f8 af3b 0000 3836
000000b0: 0074 843b 0090 ac39 00c0 213b 0008 96bb
000000c0: 00cc c7bb 00d0 47bb 003c b03b 0040 9a3b
000000d0: 0046 1e3b 00a8 a9bb 0020 a73b 0070 d23b
000000e0: 0078 c8bb 00f8 65ba 00e5 3dba 0044 96bb
000000f0: 005c abbc 00a8 c4bc 0018 a43c 0074 d9bc
00000100: 006c e33c 00e6 30bc 0088 b33a 0080 35b9
00000110: 00c0 c5bb 00f0 d9bc 0000 00ba 0074 be3c
00000120: 0010 30bc 0020 d03c 0040 3ebb 0018 b0bc
00000130: 0030 053b 00f8 7f3b 0030 6b3c 00dc 983c
00000140: 00c8 ec3b 0070 b73a 005c f7bb 00ac 1f3c
00000150: 0000 0bbc 0088 ae3c 00a0 443c 006c 37bc
00000160: 0068 ddbc 0068 ca3b 00e0 f7bb 00dc 31bc
00000170: 0000 633a 008c 18bc 0010 6fbc 00c4 4a3c
00000180: 00c8 90bb 0080 44bc 00fc 963c 0080 a9bb
00000190: 00c0 183d 0000 0000

old_dirs f4 [102]
0.0007571578 0.0036315918 -0.00061517954 -0.002332449 9.36985e-05 -0.0014863014 -6.864965e-05 -0.00047329068
0.0012019277 0.0009018183 0.00014340878 9.0420246e-05 0.0016729832 0.0039157867 -0.003915429 -0.010066032
-0.0030943155 -0.005899906 -0.0005840063 -0.0018062592 0.0004618168 0.00131464 0.001457572 0.0018572807
0.0012460053 0.0036907196 -0.00085902214 -0.0019099712 -0.00022697449 -0.0013892651 0.001221776 0.0009689331
-0.003996253 -0.010804176 -0.0008802414 -0.0020201206 0.002518177 0.005616665 -0.0008727312 -0.0016475916
-0.0009226799 0.00041365623 0.0061149597 -8.517504e-05 0.0042915344 0.00021958351 0.0025749207 -0.0049726963
-0.006151676 -0.0035424232 0.006035328 0.004998207 0.002714157 -0.0057258606 0.0054512024 0.006842613
-0.0068302155 -0.00079393387 -0.0008146912 -0.0048806667 -0.021812439 -0.024116516 0.01964283 -0.02720642
0.0291996 -0.009946346 0.0018744469 0.0006465912 -0.008760452 -0.027225494 -0.0026836395 0.024374008
-0.012763977 0.02589798 -0.0038208961 -0.02293396 0.004552841 0.0029377937 0.016397476 0.020069122
0.0076594353 0.001529932 -0.0082063675 0.010509491 -0.008957386 0.022731781 0.012684822 -0.011809349
-0.028669357 0.0067014694 -0.008082867 -0.011469841 0.0008883476 -0.010052681 -0.015467644 0.012984276
-0.004623413 -0.012735367 0.019460678 -0.0054249763 0.039466858 0.0
00000000: 007c 463a 0000 6e3b 0044 21ba 00dc 18bb
00000010: 0080 c438 00d0 c2ba 00f8 8fb8 0024 f8b9
00000020: 008a 9d3a 0068 6c3a 0060 1639 00a0 bd38
00000030: 0048 db3a 0050 803b 004d 80bb 00ec 24bc
00000040: 00ca 4abb 0054 c1bb 0018 19ba 00c0 ecba
00000050: 0020 f239 0050 ac3a 000c bf3a 0070 f33a
00000060: 0051 a33a 00e0 713b 0030 61ba 0058 faba
00000070: 0000 6eb9 0018 b6ba 0024 a03a 0000 7e3a
00000080: 00f3 82bb 0004 31bc 00c0 66ba 0064 04bb
00000090: 0008 253b 000c b83b 00c8 64ba 00f4 d7ba
000000a0: 00e0 71ba 00e0 d839 0060 c83b 00a0 b2b8
000000b0: 00a0 8c3b 0040 6639 00c0 283b 00f2 a2bb
000000c0: 0094 c9bb 0028 68bb 00c4 c53b 00c8 a33b
000000d0: 00e0 313b 00a0 bbbb 00a0 b23b 0038 e03b
000000e0: 00d0 dfbb 0020 50ba 0091 55ba 00ee 9fbb
000000f0: 00b0 b2bc 0090 c5bc 00ea a03c 00e0 debc
00000100: 0034 ef3c 00f6 22bc 00b0 f53a 0080 293a
00000110: 0088 0fbc 0008 dfbc 00e0 2fbb 00ac c73c
00000120: 0020 51bc 0028 d43c 0068 7abb 00e0 bbbc
00000130: 0030 953b 0088 403b 0054 863c 0068 a43c
00000140: 00fc fa3b 0088 c83a 0074 06bc 0030 2c3c
00000150: 00c2 12bc 0038 ba3c 00d4 4f3c 007c 41bc
00000160: 00dc eabc 0098 db3b 006e 04bc 00ec 3bbc
00000170: 00e0 683a 00b4 24bc 006c 7dbc 00bc 543c
00000180: 0080 97bb 00a8 50bc 006c 9f3c 00c4 b1bb
00000190: 00a8 213d 0000 0000

old_dirs f4 [102]
0.0007891059 0.003707409 -0.000641644 -0.0024938583 -0.00022089481 -0.0015172958 -2.4944544e-05 -0.0004995167
0.0008866191 0.0008533001 0.00012047589 3.823638e-05 0.001447916 0.003932953 -0.0034843683 -0.010187149
-0.0025091171 -0.0058107376 -0.00038313866 -0.0018954277 -5.6028366e-05 0.0013301373 0.0010236502 0.0017901659
0.0010046661 0.0037498474 -0.0005927086 -0.0019488335 -0.0007419586 -0.0015301704 0.0007060766 0.0008968115
-0.0034445524 -0.010968208 -0.00081437826 -0.0020020008 0.002748251 0.005774498 -0.00042903423 -0.0015871525
-0.00092077255 0.00031226873 0.0066099167 -0.00015765429 0.0043752193 0.0001269579 0.002594471 -0.0051875114
-0.006002426 -0.0038833618 0.006456375 0.005095482 0.0029102564 -0.00605011 0.0055937767 0.0070199966
-0.0072836876 -0.00069236755 -0.0008700341 -0.0049984455 -0.021924973 -0.023418427 0.018630981 -0.026943207
0.029594421 -0.008847237 0.0022742748 0.0013947487 -0.011001587 -0.026927948 -0.004641533 0.02463913
-0.014230728 0.025512695 -0.0045437813 -0.023546219 0.0067653656 0.0019416809 0.017751694 0.020730972
0.007812977 0.001601696 -0.0085430145 0.010857582 -0.009088039 0.0233078 0.0129003525 -0.0119924545
-0.029254913 0.0069675446 -0.008304596 -0.011659622 0.00087594986 -0.010404587 -0.015779495 0.013110161
-0.004650116 -0.013004303 0.019781113 -0.005482197 0.04021454 0.0
00000000: 00dc 4e3a 00f8 723b 0034 28ba 0070 23bb
00000010: 00a0 67b9 00e0 c6ba 0040 d1b7 00f2 02ba
00000020: 006c 683a 00b0 5f3a 00a8 fc38 0060 2038
00000030: 00c8 bd3a 00e0 803b 005a 64bb 00e8 26bc
00000040: 0070 24bb 0068 bebb 00e0 c8b9 0070 f8ba
00000050: 0000 6bb8 0058 ae3a 002c 863a 00a4 ea3a
00000060: 00af 833a 00c0 753b 0060 1bba 0070 ffba
00000070: 0080 42ba 0090 c8ba 0018 393a 0018 6b3a
00000080: 00be 61bb 00b4 33bc 007c 55ba 0034 03bb
00000090: 001c 343b 0038 bd3b 00f0 e0b9 0008 d0ba
000000a0: 0060 71ba 00b8 a339 0098 d83b 0050 25b9
000000b0: 005e 8f3b 0020 0539 0008 2a3b 00fc a9bb
000000c0: 00b0 c4bb 0080 7ebb 0090 d33b 00f8 a63b
000000d0: 00ba 3e3b 0040 c6bb 004c b73b 0008 e63b
000000e0: 00ac eebb 0080 35ba 0013 64ba 00ca a3bb
000000f0: 009c b3bc 00d8 bfbc 00a0 983c 00b8 dcbc
00000100: 0070 f23c 00f4 10bc 000c 153b 00d0 b63a
00000110: 0040 34bc 0098 dcbc 0018 98bb 00d8 c93c
00000120: 0028 69bc 0000 d13c 00e4 94bb 00e4 c0bc
00000130: 00b0 dd3b 0080 fe3a 006c 913c 00d4 a93c
00000140: 0002 003c 00f0 d13a 00f8 0bbc 00e4 313c
00000150: 00e6 14bc 00f0 be3c 005c 533c 007c 44bc
00000160: 00a8 efbc 0050 e43b 0010 08bc 0008 3fbc
00000170: 00a0 653a 0078 2abc 0044 81bc 00cc 563c
00000180: 0060 98bb 0010 55bc 000c a23c 00a4 b3bb
00000190: 00b8 243d 0000 0000

old_dirs f4 [102]
0.00080156326 0.0037078857 -0.00065279007 -0.0025897026 -0.0004887581 -0.0015096664 1.3798475e-05 -0.0005104542
0.00059592724 0.0007992983 9.647012e-05 -4.0233135e-06 0.0012248158 0.0038821697 -0.0030457973 -0.010124207
-0.0019545555 -0.0056405067 -0.00020205975 -0.0019419193 -0.0005041361 0.0013284683 0.00062930584 0.0017027855
0.00077706575 0.0037391186 -0.0003504753 -0.0019519329 -0.0011713505 -0.0016252995 0.00024461746 0.0008291006
-0.0029058456 -0.010928154 -0.0007416904 -0.0019516945 0.0028982162 0.005812645 -3.552437e-05 -0.0015119314
-0.00089788437 0.00021570921 0.0069150925 -0.00020951033 0.00435853 6.389618e-05 0.0025715828 -0.0052917004
-0.0057725906 -0.004106045 0.0067095757 0.0050759315 0.0030343533 -0.0062274933 0.005609989 0.007057667
-0.007563114 -0.0005943775 -0.00090023875 -0.00501585 -0.0216465 -0.02240944 0.017432213 -0.026254654
0.029426575 -0.0077648163 0.0025696754 0.0020227432 -0.012714386 -0.026184082 -0.0062408447 0.024442673
-0.015245438 0.024730682 -0.005076885 -0.023658752 0.008551598 0.0010652542 0.01859665 0.020936966
0.0078029633 0.0016341209 -0.008680344 0.010957718 -0.009030819 0.02337265 0.01286602 -0.01193428
-0.029247284 0.007071495 -0.008349419 -0.011600494 0.00085020065 -0.010515213 -0.01575756 0.012976646
-0.004594326 -0.01300621 0.01971817 -0.005431175 0.040145874 0.0
00000000: 0020 523a 0000 733b 0020 2bba 00b8 29bb
00000010: 0020 00ba 00e0 c5ba 0080 6737 00d0 05ba
00000020: 0038 1c3a 0088 513a 0050 ca38 0000 87b6
00000030: 008a a03a 006c 7e3b 009c 47bb 00e0 25bc
00000040: 0018 00bb 00d4 b8bb 00e0 53b9 0088 feba
00000050: 0028 04ba 0020 ae3a 00f8 243a 0030 df3a
00000060: 00b4 4b3a 000c 753b 00c0 b7b9 00d8 ffba
00000070: 0088 99ba 0008 d5ba 0040 8039 0058 593a
00000080: 0070 3ebb 000c 33bc 006e 42ba 00d0 ffba
00000090: 00f0 3d3b 0078 be3b 0000 15b8 002c c6ba
000000a0: 0060 6bba 0030 6239 0098 e23b 00b0 5bb9
000000b0: 00d2 8e3b 0000 8638 0088 283b 0066 adbb
000000c0: 0028 bdbb 008c 86bb 00dc db3b 0054 a63b
000000d0: 00dc 463b 0010 ccbb 00d4 b73b 0044 e73b
000000e0: 00d4 f7bb 00d0 1bba 00fe 6bba 005c a4bb
000000f0: 0054 b1bc 0094 b7bc 00ce 8e3c 0014 d7bc
00000100: 0010 f13c 0070 febb 0068 283b 0090 043b
00000110: 0050 50bc 0080 d6bc 0080 ccbb 003c c83c
00000120: 00c8 79bc 0098 ca3c 005c a6bb 00d0 c1bc
00000130: 001c 0c3c 00a0 8b3a 0058 983c 0084 ab3c
00000140: 00b0 ff3b 0030 d63a 0038 0ebc 0088 333c
00000150: 00f6 13bc 0078 bf3c 00cc 523c 0088 43bc
00000160: 0098 efbc 00b8 e73b 00cc 08bc 0010 3ebc
00000170: 00e0 5e3a 0048 2cbc 0016 81bc 009c 543c
00000180: 008c 96bb 0018 55bc 0088 a13c 00f8 b1bb
00000190: 0070 243d 0000 0000

old_dirs f4 [102]
0.00080257654 0.0036697388 -0.0006543994 -0.0026459694 -0.0007004738 -0.0014817715 4.5865774e-05 -0.0005119443
0.0003529191 0.0007506609 7.355213e-05 -3.4064054e-05 0.0010300875 0.0038113594 -0.0026575327 -0.009985924
-0.001478076 -0.0054569244 -5.197525e-05 -0.0019631386 -0.00086438656 0.0013228655 0.00030243397 0.0016180277
0.0005825758 0.00370121 -0.00014984608 -0.0019404888 -0.0015075207 -0.0016815662 -0.00013768673 0.0007754564
-0.0024358034 -0.010808945 -0.0006739497 -0.0018928051 0.002991438 0.00579834 0.00028717518 -0.0014423132
-0.000865221 0.00013130903 0.0070934296 -0.00024062395 0.0042927265 3.361702e-05 0.0025343895 -0.005339384
-0.0055360794 -0.0042438507 0.0068588257 0.0049991608 0.003114462 -0.0063118935 0.0055599213 0.007033825
-0.007733822 -0.00051259995 -0.00091318786 -0.0049870014 -0.021217346 -0.021368027 0.016313553 -0.025447845
0.029018402 -0.006845951 0.0027694702 0.0025177002 -0.01395607 -0.025352478 -0.0074625015 0.024066925
-0.015922546 0.02388382 -0.005449772 -0.02355194 0.00992012 0.0003581047 0.019094467 0.020915985
0.0077142715 0.0016458035 -0.008699417 0.010912895 -0.008882046 0.023166656 0.012710571 -0.0117788315
-0.028966904 0.007083893 -0.008302689 -0.01143074 0.0008163452 -0.0104904175 -0.015595436 0.012738228
-0.0045084953 -0.012885094 0.019479752 -0.005343437 0.039718628 0.0
00000000: 0064 523a 0080 703b 008c 2bba 0068 2dbb
00000010: 00a0 37ba 0038 c2ba 0060 4038 0034 06ba
00000020: 0008 b939 00c8 443a 0040 9a38 00e0 0eb8
00000030: 0004 873a 00c8 793b 002a 2ebb 009c 23bc
00000040: 00bc c1ba 00d0 b2bb 0000 5ab8 00a8 00bb
00000050: 0098 62ba 0064 ad3a 0090 9e39 0014 d43a
00000060: 00b8 183a 0090 723b 0020 1db9 0058 feba
00000070: 0098 c5ba 0068 dcba 0060 10b9 0048 4b3a
00000080: 00a2 1fbb 0018 31bc 00ac 30ba 0018 f8ba
00000090: 000c 443b 0000 be3b 0090 9639 000c bdba
000000a0: 00d0 62ba 00b0 0939 0070 e83b 0050 7cb9
000000b0: 00aa 8c3b 0000 0d38 0018 263b 00f6 aebb
000000c0: 0068 b5bb 0010 8bbb 00c0 e03b 00d0 a33b
000000d0: 001c 4c3b 00d4 cebb 0030 b63b 007c e63b
000000e0: 006c fdbb 0060 06ba 0063 6fba 006a a3bb
000000f0: 00d0 adbc 000c afbc 00a4 853c 0078 d0bc
00000100: 00b8 ed3c 0054 e0bb 0080 353b 0000 253b
00000110: 00a8 64bc 00b0 cfbc 0088 f4bb 0028 c53c
00000120: 0070 82bc 00a8 c33c 0094 b2bb 00f0 c0bc
00000130: 0088 223c 00c0 bb39 006c 9c3c 0058 ab3c
00000140: 00c8 fc3b 00b8 d73a 0088 0ebc 00cc 323c
00000150: 0086 11bc 00c8 bd3c 0040 503c 00fc 40bc
00000160: 004c edbc 0020 e83b 0008 08bc 0048 3bbc
00000170: 0000 563a 00e0 2bbc 0084 7fbc 00b4 503c
00000180: 00bc 93bb 001c 53bc 0094 9f3c 0018 afbb
00000190: 00b0 223d 0000 0000

old_dirs f4 [102]
0.0007972121 0.0036227703 -0.0006518364 -0.0026769638 -0.00086021423 -0.0014481544 7.109344e-05 -0.0005072057
0.00016242266 0.0007138252 5.285442e-05 -5.3167343e-05 0.0008725524 0.0037431717 -0.0023417473 -0.009848595
-0.0010956526 -0.005297661 6.5267086e-05 -0.0019731522 -0.00113976 0.0013217926 4.6491623e-05 0.0015484095
0.0004274547 0.0036616325 8.46386e-06 -0.0019285679 -0.0017576218 -0.0017185211 -0.00043606758 0.0007431507
-0.0020589828 -0.010680199 -0.00061672926 -0.0018401146 0.0030493736 0.0057640076 0.00053858757 -0.001388073
-0.00082945824 6.172061e-05 0.007194519 -0.00025367737 0.004209757 3.2544136e-05 0.0025000572 -0.0053663254
-0.0053343773 -0.0043268204 0.0069494247 0.0049009323 0.0031700134 -0.006351948 0.005486965 0.006995201
-0.00785017 -0.0004490614 -0.0009162426 -0.004947424 -0.020792007 -0.020477295 0.015368462 -0.024734497
0.028591156 -0.0061335564 0.002898693 0.0028953552 -0.014809608 -0.024589539 -0.008358955 0.023687363
-0.016376495 0.02312851 -0.005697727 -0.023378372 0.010932922 -0.0001707077 0.019374847 0.020811081
0.007604599 0.0016467571 -0.00867033 0.010810852 -0.008714676 0.022890091 0.012532234 -0.011592865
-0.028612137 0.0070552826 -0.008235455 -0.011232376 0.0007839203 -0.010414124 -0.015384674 0.012475014
-0.0044112206 -0.012728691 0.01922226 -0.0052452087 0.039215088 0.0
00000000: 00fc 503a 006c 6d3b 00e0 2aba 0070 2fbb
00000010: 0080 61ba 00d0 bdba 0018 9538 00f6 04ba
00000020: 0050 2a39 0020 3b3a 00b0 5d38 0000 5fb8
00000030: 00bc 643a 0050 753b 0078 19bb 005c 21bc
00000040: 009c 8fba 0098 adbb 00e0 8838 0050 01bb
00000050: 0064 95ba 0040 ad3a 0000 4338 00f4 ca3a
00000060: 001c e039 00f8 6f3b 0000 0e37 00c8 fcba
00000070: 0060 e6ba 0040 e1ba 00a0 e4b9 00d0 423a
00000080: 00f0 06bb 00fc 2ebc 00ac 21ba 0030 f1ba
00000090: 00d8 473b 00e0 bc3b 0030 0d3a 00f0 b5ba
000000a0: 0070 59ba 0070 8138 00c0 eb3b 0000 85b9
000000b0: 00f2 893b 0080 0838 00d8 233b 00d8 afbb
000000c0: 00cc aebb 00c8 8dbb 00b8 e33b 0098 a03b
000000d0: 00c0 4f3b 0024 d0bb 00cc b33b 0038 e53b
000000e0: 009e 00bc 0070 ebb9 0030 70ba 001e a2bb
000000f0: 0054 aabc 00c0 a7bc 00cc 7b3c 00a0 cabc
00000100: 0038 ea3c 00fc c8bb 00f8 3d3b 00c0 3d3b
00000110: 00a4 72bc 0070 c9bc 00f4 08bc 000c c23c
00000120: 0028 86bc 0078 bd3c 00b4 babb 0084 bfbc
00000130: 0020 333c 0000 33b9 00b8 9e3c 007c aa3c
00000140: 0030 f93b 00d8 d73a 000e 0ebc 0020 313c
00000150: 00c8 0ebc 0084 bb3c 0054 4d3c 00f0 3dbc
00000160: 0064 eabc 0030 e73b 00ee 06bc 0008 38bc
00000170: 0080 4d3a 00a0 2abc 0010 7cbc 0064 4c3c
00000180: 008c 90bb 008c 50bc 0078 9d3c 00e0 abbb
00000190: 00a0 203d 0000 0000

old_dirs f4 [102]
0.000790298 0.0035793781 -0.00064843893 -0.0026979446 -0.0009762049 -0.0014090538 9.033084e-05 -0.0004994869
1.859665e-05 0.0006891489 3.4734607e-05 -6.252527e-05 0.00075119734 0.0036945343 -0.0020996332 -0.009742737
-0.0008045435 -0.005180359 0.00015252829 -0.0019795895 -0.0013436079 0.0013303757 -0.0001450777 0.0014958382
0.0003092289 0.0036325455 0.00012767315 -0.0019216537 -0.0019381046 -0.0017402172 -0.00066185 0.0007288456
-0.0017729998 -0.0105896 -0.00057145953 -0.0017977953 0.0030856133 0.005739212 0.0007274151 -0.0013519526
-0.00079488754 5.811453e-06 0.007250309 -0.00025260448 0.004127264 5.555153e-05 0.0024774075 -0.005391121
-0.0051789284 -0.0043754578 0.007009983 0.004802704 0.0032145977 -0.0063705444 0.005411625 0.006966114
-0.0079422 -0.0004043579 -0.0009133965 -0.004913807 -0.0204525 -0.019769669 0.0146512985 -0.0241642
0.028242111 -0.0056295395 0.0029745102 0.0031738281 -0.015381813 -0.023996353 -0.008987427 0.02336502
-0.016670227 0.022541046 -0.0058574677 -0.023229599 0.011646271 -0.0005440712 0.019525528 0.020698547
0.007507801 0.0016450882 -0.008625507 0.0107011795 -0.008554935 0.022613525 0.012374878 -0.011435509
-0.028308868 0.007012844 -0.008169174 -0.011051178 0.00075387955 -0.010322571 -0.015194893 0.012248993
-0.004330635 -0.012586594 0.01899147 -0.0051641464 0.038764954 0.0
00000000: 002c 4f3a 0094 6a3b 00fc 29ba 00d0 30bb
00000010: 00e8 7fba 00b0 b8ba 0070 bd38 00f0 02ba
00000020: 0000 9c37 00a8 343a 00b0 1138 0020 83b8
00000030: 00ec 443a 0020 723b 009a 09bb 00a0 1fbc
00000040: 00e8 52ba 00c0 a9bb 00f0 1f39 00bc 01bb
00000050: 001c b0ba 0060 ae3a 0020 18b9 0010 c43a
00000060: 0020 a239 0010 6e3b 00e0 0539 00e0 fbba
00000070: 0008 feba 0018 e4ba 0080 2dba 0010 3f3a
00000080: 0064 e8ba 0080 2dbc 00ce 15ba 00a4 ebba
00000090: 0038 4a3b 0010 bc3b 00b0 3e3a 0034 b1ba
000000a0: 0060 50ba 0000 c336 0094 ed3b 0070 84b9
000000b0: 003e 873b 0000 6938 005c 223b 00a8 b0bb
000000c0: 00b4 a9bb 0060 8fbb 00b4 e53b 0060 9d3b
000000d0: 00ac 523b 00c0 d0bb 0054 b13b 0044 e43b
000000e0: 0020 02bc 0000 d4b9 0071 6fba 0004 a1bb
000000f0: 008c a7bc 00f4 a1bc 000c 703c 00f4 c5bc
00000100: 005c e73c 0078 b8bb 00f0 423b 0000 503b
00000110: 0004 7cbc 0094 c4bc 0040 13bc 0068 bf3c
00000120: 0090 88bc 00a8 b83c 00f0 bfbb 004c bebc
00000130: 00d0 3e3c 00a0 0eba 00f4 9f3c 0090 a93c
00000140: 0004 f63b 00a0 d73a 0052 0dbc 0054 2f3c
00000150: 002a 0cbc 0040 b93c 00c0 4a3c 005c 3bbc
00000160: 00e8 e7bc 00cc e53b 00d8 05bc 0010 35bc
00000170: 00a0 453a 0020 29bc 00f4 78bc 00b0 483c
00000180: 00e8 8dbb 0038 4ebc 0094 9b3c 0038 a9bb
00000190: 00c8 1e3d 0000 0000

old_dirs f4 [102]
0.00078344345 0.0035452843 -0.0006445646 -0.0027139187 -0.0010607243 -0.0013728142 0.00010509789 -0.0004903674
-8.791685e-05 0.0006747246 1.8775463e-05 -6.496906e-05 0.0006606579 0.0036640167 -0.0019197464 -0.009680748
-0.00058472157 -0.0051031113 0.00021785498 -0.0019860268 -0.0014932156 0.0013459921 -0.00028431416 0.0014605522
0.00022116303 0.0036189556 0.00021612644 -0.0019211769 -0.0020668507 -0.0017559528 -0.00083088875 0.00073063374
-0.0015608072 -0.010540009 -0.0005365908 -0.001767993 0.0031113625 0.0057263374 0.00086832047 -0.001332283
-0.00076270103 -3.838539e-05 0.007285118 -0.0002413392 0.0040555 9.572506e-05 0.0024673939 -0.0054256916
-0.005071163 -0.0044054985 0.0070619583 0.004714966 0.003255844 -0.006386757 0.0053453445 0.0069589615
-0.008030891 -0.00037407875 -0.00090810657 -0.0048952103 -0.020210266 -0.0192585 0.014148712 -0.023759842
0.027999878 -0.0052952766 0.0030140877 0.0033769608 -0.015764236 -0.023557663 -0.009425163 0.023162842
-0.016887665 0.022123337 -0.005962372 -0.023124695 0.012160301 -0.00079774857 0.019622803 0.020620346
0.0074295998 0.0016422272 -0.008583069 0.01060009 -0.008426189 0.022390366 0.012262344 -0.011315346
-0.02807045 0.0069789886 -0.008122921 -0.0109062195 0.000729084 -0.010242462 -0.015053749 0.012070656
-0.0042700768 -0.012479782 0.018835068 -0.005104542 0.038455963 0.0
00000000: 0060 4d3a 0058 683b 00f8 28ba 00dc 31bb
00000010: 0008 8bba 00f0 b3ba 0068 dc38 008c 00ba
00000020: 0060 b8b8 00e0 303a 0080 9d37 0040 88b8
00000030: 0030 2d3a 0020 703b 00a0 fbba 009c 1ebc
00000040: 0048 19ba 0038 a7bb 0070 6439 0028 02bb
00000050: 00b8 c3ba 006c b03a 0010 95b9 0070 bf3a
00000060: 00e8 6739 002c 6d3b 00a0 6239 00d0 fbba
00000070: 0074 07bb 0028 e6ba 00d0 59ba 0088 3f3a
00000080: 0094 ccba 00b0 2cbc 00aa 0cba 00bc e7ba
00000090: 00e8 4b3b 00a4 bb3b 00a0 633a 00a0 aeba
000000a0: 00f0 47ba 0000 21b8 00b8 ee3b 0010 7db9
000000b0: 00e4 843b 00c0 c838 00b4 213b 00ca b1bb
000000c0: 002c a6bb 005c 90bb 0068 e73b 0080 9a3b
000000d0: 0060 553b 0048 d1bb 0028 af3b 0008 e43b
000000e0: 0094 03bc 0020 c4b9 000e 6eba 0068 a0bb
000000f0: 0090 a5bc 00c4 9dbc 00d0 673c 00a4 c2bc
00000100: 0060 e53c 0084 adbb 0088 453b 0050 5d3b
00000110: 0024 81bc 00fc c0bc 006c 1abc 00c0 bd3c
00000120: 0058 8abc 003c b53c 0060 c3bb 0070 bdbc
00000130: 003c 473c 0020 51ba 00c0 a03c 00ec a83c
00000140: 0074 f33b 0040 d73a 00a0 0cbc 00ac 2d3c
00000150: 000e 0abc 006c b73c 00e8 483c 0064 39bc
00000160: 00f4 e5bc 00b0 e43b 0016 05bc 00b0 32bc
00000170: 0020 3f3a 00d0 27bc 00a4 76bc 00c4 453c
00000180: 00ec 8bbb 0078 4cbc 004c 9a3c 0044 a7bb
00000190: 0084 1d3d 0000 0000

old_dirs f4 [102]
0.00077694654 0.0035214424 -0.00064110756 -0.0027270317 -0.001119256 -0.0013399124 0.00011625886 -0.00048071146
-0.00016564131 0.0006688833 4.723668e-06 -6.222725e-05 0.0005930066 0.0036506653 -0.0017871857 -0.00965786
-0.00042009354 -0.0050592422 0.00026530027 -0.0019946098 -0.0016028881 0.0013694763 -0.00038731098 0.0014389753
0.00015595555 0.0036189556 0.00028157234 -0.0019288063 -0.002158165 -0.0017659664 -0.00095808506 0.0007441044
-0.0014079809 -0.010530472 -0.00051009655 -0.0017483234 0.0031297207 0.005728245 0.000972867 -0.0013254881
-0.00073325634 -7.352233e-05 0.0073070526 -0.00022286177 0.0039930344 0.00014734268 0.0024676323 -0.005469322
-0.005001545 -0.004424095 0.0071105957 0.0046391487 0.003296256 -0.006403923 0.0052890778 0.0069713593
-0.008119583 -0.00035464764 -0.00090146065 -0.004889965 -0.020044327 -0.018903732 0.013785362 -0.023508072
0.027849197 -0.0050911903 0.0030331612 0.0035238266 -0.016002655 -0.023277283 -0.00972271 0.023036957
-0.01704216 0.021852493 -0.0060253143 -0.02309227 0.012517929 -0.0009589195 0.019685745 0.020578384
0.0073742867 0.0016441345 -0.00854969 0.010515213 -0.008320808 0.022212982 0.012183189 -0.011229515
-0.027927399 0.006948948 -0.008094311 -0.010788918 0.0007071495 -0.010178566 -0.014949799 0.011940002
-0.004221916 -0.012411118 0.018730164 -0.0050644875 0.0382576 0.0
00000000: 00ac 4b3a 00c8 663b 0010 28ba 00b8 32bb
00000010: 00b4 92ba 00a0 afba 00d0 f338 0008 fcb9
00000020: 00b0 2db9 0058 2f3a 0080 9e36 0080 82b8
00000030: 0074 1b3a 0040 6f3b 0040 eaba 003c 1ebc
00000040: 0040 dcb9 00c8 a5bb 0018 8b39 00b8 02bb
00000050: 0018 d2ba 0080 b33a 0010 cbb9 009c bc3a
00000060: 0088 2339 002c 6d3b 00a0 9339 00d0 fcba
00000070: 0070 0dbb 0078 e7ba 0028 7bba 0010 433a
00000080: 008c b8ba 0088 2cbc 00b8 05ba 0028 e5ba
00000090: 001c 4d3b 00b4 bb3b 0008 7f3a 00bc adba
000000a0: 0038 40ba 0030 9ab8 0070 ef3b 00b0 69b9
000000b0: 00d8 823b 0080 1a39 00b8 213b 0038 b3bb
000000c0: 00e4 a3bb 00f8 90bb 0000 e93b 0004 983b
000000d0: 0006 583b 00d8 d1bb 0050 ad3b 0070 e43b
000000e0: 0008 05bc 00f0 b9b9 0050 6cba 003c a0bb
000000f0: 0034 a4bc 00dc 9abc 00dc 613c 0094 c0bc
00000100: 0024 e43c 00d4 a6bb 00c8 463b 00f0 663b
00000110: 0018 83bc 00b0 bebc 004c 1fbc 00b8 bc3c
00000120: 009c 8bbc 0004 b33c 0070 c5bb 002c bdbc
00000130: 0018 4d3c 0060 7bba 0044 a13c 0094 a83c
00000140: 00a4 f13b 0080 d73a 0014 0cbc 0048 2c3c
00000150: 0054 08bc 00f8 b53c 009c 473c 00fc 37bc
00000160: 00c8 e4bc 00b4 e33b 009e 04bc 00c4 30bc
00000170: 0060 393a 00c4 26bc 00f0 74bc 00a0 433c
00000180: 0058 8abb 0058 4bbc 0070 993c 00f4 a5bb
00000190: 00b4 1c3d 0000 0000

old_dirs f4 [102]
0.0007711053 0.0035076141 -0.0006392002 -0.0027413368 -0.0011633635 -0.0013110638 0.00012525916 -0.0004709661
-0.00022429228 0.0006688833 -7.8082085e-06 -5.64754e-05 0.0005426407 0.0036520958 -0.0016901493 -0.00966835
-0.00029420853 -0.0050401688 0.00030064583 -0.0020041466 -0.0016857386 0.0013977289 -0.0004632473 0.0014275312
0.0001065135 0.0036306381 0.00033152103 -0.0019407272 -0.0022249222 -0.0017781258 -0.001055479 0.0007658005
-0.001294136 -0.010557175 -0.0004899502 -0.0017364025 0.00314641 0.00574255 0.0010539293 -0.0013278723
-0.00070536137 -0.00010186434 0.0073251724 -0.00020003319 0.0039401054 0.00020581484 0.0024766922 -0.0055220127
-0.00496006 -0.0044374466 0.0071611404 0.0045757294 0.0033376217 -0.006424904 0.0052433014 0.006998539
-0.008213997 -0.0003426075 -0.0008942336 -0.004896641 -0.019952774 -0.018672943 0.013559341 -0.023347855
0.027795792 -0.004972458 0.0030369759 0.003631115 -0.016161919 -0.023094177 -0.009925842 0.022985458
-0.017168045 0.021684647 -0.0060687065 -0.023103714 0.012784004 -0.0010585785 0.019737244 0.020578384
0.0073332787 0.0016450882 -0.00853157 0.0104494095 -0.008239746 0.022089005 0.012137413 -0.01117897
-0.027853012 0.0069332123 -0.008088112 -0.010707855 0.00068855286 -0.010128975 -0.014888763 0.011845589
-0.004183769 -0.012366295 0.018688202 -0.0050382614 0.038154602 0.0
00000000: 0024 4a3a 00e0 653b 0090 27ba 00a8 33bb
00000010: 007c 98ba 00d8 abba 0058 0339 00ec f6b9
00000020: 0030 6bb9 0058 2f3a 0000 03b7 00e0 6cb8
00000030: 0040 0e3a 0058 6f3b 0088 ddba 0068 1ebc
00000040: 0040 9ab9 0028 a5bb 00a0 9d39 0058 03bb
00000050: 00f4 dcba 0034 b73a 00e0 f2b9 001c bb3a
00000060: 0060 df38 00f0 6d3b 00d0 ad39 0060 feba
00000070: 00d0 11bb 0010 e9ba 0058 8aba 00c0 483a
00000080: 00a0 a9ba 00f8 2cbc 0070 00ba 0098 e3ba
00000090: 0034 4e3b 002c bc3b 0024 8a3a 000c aeba
000000a0: 00e8 38ba 00a0 d5b8 0008 f03b 00c0 51b9
000000b0: 001c 813b 00d0 5739 0050 223b 00f2 b4bb
000000c0: 0088 a2bb 0068 91bb 00a8 ea3b 00f0 953b
000000d0: 00bc 5a3b 0088 d2bb 00d0 ab3b 0054 e53b
000000e0: 0094 06bc 00a0 b3b9 006b 6aba 0074 a0bb
000000f0: 0074 a3bc 00f8 98bc 0028 5e3c 0044 bfbc
00000100: 00b4 e33c 00f0 a2bb 0008 473b 00f8 6d3b
00000110: 0066 84bc 0030 bdbc 00a0 22bc 004c bc3c
00000120: 00a4 8cbc 00a4 b13c 00dc c6bb 0044 bdbc
00000130: 0074 513c 00c0 8aba 00b0 a13c 0094 a83c
00000140: 004c f03b 00a0 d73a 00c8 0bbc 0034 2b3c
00000150: 0000 07bc 00f4 b43c 00dc 463c 0028 37bc
00000160: 002c e4bc 0030 e33b 0084 04bc 0070 2fbc
00000170: 0080 343a 00f4 25bc 00f0 73bc 0014 423c
00000180: 0018 89bb 009c 4abc 0018 993c 0018 a5bb
00000190: 0048 1c3d 0000 0000

old_dirs f4 [102]
0.00076699257 0.0035016537 -0.0006374121 -0.0027558804 -0.0011954308 -0.0012843609 0.00013232231 -0.00046154857
-0.00026911497 0.0006734133 -1.9192696e-05 -4.851818e-05 0.0005052686 0.003663063 -0.0016198158 -0.0097026825
-0.00019824505 -0.00504303 0.00032758713 -0.0020170212 -0.0017483234 0.0014315844 -0.0005198717 0.0014233589
6.9856644e-05 0.0036513805 0.00036919117 -0.0019574165 -0.00227499 -0.0017867088 -0.0011320114 0.00079250336
-0.0012116432 -0.010607719 -0.0004749596 -0.0017309189 0.003162384 0.005768776 0.0011161566 -0.0013380051
-0.0006799698 -0.00012522936 0.0073418617 -0.00017440319 0.0038983822 0.00026774406 0.0024914742 -0.0055851936
-0.0049409866 -0.004448414 0.0072159767 0.0045223236 0.0033810139 -0.0064501762 0.005207062 0.007042885
-0.00831604 -0.00033593178 -0.0008869022 -0.00491333 -0.019924164 -0.018526077 0.013420105 -0.023284912
0.027797699 -0.004928112 0.0030322075 0.0037121773 -0.016263008 -0.023008347 -0.010064125 0.02299118
-0.017276764 0.02161026 -0.0060954094 -0.023153305 0.012970924 -0.0011143684 0.019784927 0.020605087
0.0073137283 0.0016493797 -0.0085196495 0.010400772 -0.008177757 0.022006989 0.012121201 -0.01115036
-0.027835846 0.0069265366 -0.008093357 -0.010649681 0.00066947937 -0.010097504 -0.01485157 0.0117845535
-0.0041589737 -0.012355804 0.018680573 -0.005030632 0.038146973 0.0
00000000: 0010 493a 007c 653b 0018 27ba 009c 34bb
00000010: 00b0 9cba 0058 a8ba 00c0 0a39 00fc f1b9
00000020: 0018 8db9 0088 303a 0000 a1b7 0080 4bb8
00000030: 0074 043a 0010 703b 0050 d4ba 00f8 1ebc
00000040: 00e0 4fb9 0040 a5bb 00c0 ab39 0030 04bb
00000050: 0028 e5ba 00a4 bb3a 0048 08ba 0090 ba3a
00000060: 0080 9238 004c 6f3b 0090 c139 0048 00bb
00000070: 0018 15bb 0030 eaba 0060 94ba 00c0 4f3a
00000080: 00d0 9eba 00cc 2dbc 0004 f9b9 00e0 e2ba
00000090: 0040 4f3b 0008 bd3b 004c 923a 0060 afba
000000a0: 0040 32ba 0050 03b9 0094 f03b 00e0 36b9
000000b0: 007c 7f3b 0060 8c39 0048 233b 0004 b7bb
000000c0: 00e8 a1bb 00c4 91bb 0074 ec3b 0030 943b
000000d0: 0094 5d3b 005c d3bb 00a0 aa3b 00c8 e63b
000000e0: 0040 08bc 0020 b0b9 007f 68ba 0000 a1bb
000000f0: 0038 a3bc 00c4 97bc 00e0 5b3c 00c0 bebc
00000100: 00b8 e33c 007c a1bb 00b8 463b 0048 733b
00000110: 003a 85bc 007c bcbc 00e4 24bc 0058 bc3c
00000120: 0088 8dbc 0008 b13c 00bc c7bb 00ac bdbc
00000130: 0084 543c 0010 92ba 0014 a23c 00cc a83c
00000140: 00a8 ef3b 0030 d83a 0096 0bbc 0068 2a3c
00000150: 00fc 05bc 0048 b43c 0098 463c 00b0 36bc
00000160: 0008 e4bc 00f8 e23b 009a 04bc 007c 2ebc
00000170: 0080 2f3a 0070 25bc 0054 73bc 0014 413c
00000180: 0048 88bb 0070 4abc 0008 993c 00d8 a4bb
00000190: 0040 1c3d 0000 0000

old_dirs f4 [102]
0.00076276064 0.0035009384 -0.0006363988 -0.0027694702 -0.0012204647 -0.0012602806 0.00013846159 -0.00045242906
-0.00030452013 0.00068080425 -2.9698014e-05 -3.9488077e-05 0.00047540665 0.003680706 -0.0015649796 -0.009756088
-0.00011944771 -0.0050549507 0.00034952164 -0.002029419 -0.0017998219 0.0014669895 -0.0005661249 0.001423955
3.951788e-05 0.0036776066 0.0004005432 -0.0019757748 -0.0023140907 -0.0017979145 -0.0011947155 0.00082206726
-0.0011489391 -0.010676384 -0.00046265125 -0.0017285347 0.0031764507 0.0057992935 0.0011690855 -0.0013508797
-0.0006555319 -0.00014474988 0.0073566437 -0.0001475811 0.0038616657 0.00033074617 0.0025105476 -0.0056521893
-0.004934311 -0.0044574738 0.0072722435 0.0044755936 0.0034246445 -0.0064783096 0.005174637 0.007092476
-0.008418083 -0.00033199787 -0.00087955594 -0.0049357414 -0.019918442 -0.018445969 0.013335228 -0.023269653
0.027849197 -0.0049142838 0.0030241013 0.003771782 -0.01633358 -0.0229702 -0.010164261 0.023033142
-0.01736641 0.021591187 -0.0061187744 -0.023237228 0.0131139755 -0.0011458397 0.019834518 0.020652771
0.0073013306 0.0016541481 -0.0085167885 0.0103673935 -0.008133411 0.02195549 0.012121201 -0.011136055
-0.027856827 0.006921768 -0.008112907 -0.010612488 0.0006518364 -0.010076523 -0.014836311 0.011746407
-0.004143238 -0.012354851 0.018693924 -0.005025387 0.038181305 0.0
00000000: 00f4 473a 0070 653b 00d4 26ba 0080 35bb
00000010: 00f8 9fba 0030 a5ba 0030 1139 0034 edb9
00000020: 00a8 9fb9 0078 323a 0020 f9b7 00a0 25b8
00000030: 0040 f939 0038 713b 0020 cdba 00d8 1fbc
00000040: 0080 fab8 00a4 a5bb 0040 b739 0000 05bb
00000050: 00e8 ebba 0048 c03a 0068 14ba 00a4 ba3a
00000060: 00c0 2538 0004 713b 0000 d239 007c 01bb
00000070: 00a8 17bb 00a8 ebba 0098 9cba 0080 573a
00000080: 0098 96ba 00ec 2ebc 0090 f2b9 0090 e2ba
00000090: 002c 503b 0008 be3b 003c 993a 0010 b1ba
000000a0: 00d8 2bba 00c8 17b9 0010 f13b 00c0 1ab9
000000b0: 0014 7d3b 0068 ad39 0088 243b 0036 b9bb
000000c0: 00b0 a1bb 0010 92bb 004c ee3b 00a8 923b
000000d0: 0070 603b 0048 d4bb 0090 a93b 0068 e83b
000000e0: 00ec 09bc 0010 aeb9 0092 66ba 00bc a1bb
000000f0: 002c a3bc 001c 97bc 007c 5a3c 00a0 bebc
00000100: 0024 e43c 0008 a1bb 0030 463b 0030 773b
00000110: 00ce 85bc 002c bcbc 0088 26bc 00b0 bc3c
00000120: 0044 8ebc 00e0 b03c 0080 c8bb 005c bebc
00000130: 00dc 563c 0030 96ba 007c a23c 0030 a93c
00000140: 0040 ef3b 00d0 d83a 008a 0bbc 00dc 293c
00000150: 0042 05bc 00dc b33c 0098 463c 0074 36bc
00000160: 0034 e4bc 00d0 e23b 00ec 04bc 00e0 2dbc
00000170: 00e0 2a3a 0018 25bc 0014 73bc 0074 403c
00000180: 00c4 87bb 006c 4abc 0024 993c 00ac a4bb
00000190: 0064 1c3d 0000 0000

old_dirs f4 [102]
0.000759542 0.0035037994 -0.00063586235 -0.0027840137 -0.0012419224 -0.0012402534 0.00014385581 -0.00044357777
-0.0003350973 0.0006890297 -3.9711595e-05 -2.9742718e-05 0.00045013428 0.0037031174 -0.0015215874 -0.009819031
-5.1617622e-05 -0.0050730705 0.00036799908 -0.0020434856 -0.0018442869 0.0015046597 -0.0006041527 0.0014277697
1.4722347e-05 0.003708601 0.00042712688 -0.0019955635 -0.0023479462 -0.0018117428 -0.0012516975 0.0008530617
-0.0010960102 -0.0107584 -0.00045242906 -0.0017287731 0.003191471 0.0058345795 0.0012140274 -0.0013680458
-0.00063180923 -0.00016158819 0.007372856 -0.00011986494 0.0038306713 0.00039356947 0.00253129 -0.0057229996
-0.0049357414 -0.004466057 0.0073313713 0.0044350624 0.0034689903 -0.006509304 0.005147934 0.0071496964
-0.008527279 -0.00032937527 -0.00087194145 -0.0049631596 -0.019943237 -0.018388748 0.013286591 -0.023283005
0.027923584 -0.004921913 0.0030152798 0.003815651 -0.016385078 -0.022960663 -0.010234833 0.023097992
-0.017461777 0.021593094 -0.0061383247 -0.023321152 0.0132312775 -0.0011563301 0.019889832 0.020713806
0.007297039 0.0016613007 -0.008519173 0.01033783 -0.008096695 0.021923065 0.012127876 -0.011129379
-0.027898788 0.0069265366 -0.008138657 -0.010579109 0.00063467026 -0.010061264 -0.014836311 0.011721611
-0.0041236877 -0.012371063 0.018726349 -0.005028248 0.03826523 0.0
00000000: 001c 473a 00a0 653b 00b0 26ba 0074 36bb
00000010: 00c8 a2ba 0090 a2ba 00d8 1639 0090 e8b9
00000020: 00b0 afb9 00a0 343a 0090 26b8 0080 f9b7
00000030: 0000 ec39 00b0 723b 0070 c7ba 00e0 20bc
00000040: 0080 58b8 003c a6bb 00f0 c039 00ec 05bb
00000050: 00bc f1ba 0038 c53a 0060 1eba 0024 bb3a
00000060: 0000 7737 000c 733b 00f0 df39 00c8 02bb
00000070: 00e0 19bb 0078 edba 0010 a4ba 00a0 5f3a
00000080: 00a8 8fba 0044 30bc 0034 edb9 0098 e2ba
00000090: 0028 513b 0030 bf3b 0020 9f3a 0050 b3ba
000000a0: 00a0 25ba 0070 29b9 0098 f13b 0060 fbb8
000000b0: 000c 7b3b 0058 ce39 00e4 253b 0088 bbbb
000000c0: 00bc a1bb 0058 92bb 003c f03b 0054 913b
000000d0: 0058 633b 004c d5bb 00b0 a83b 0048 ea3b
000000e0: 00b6 0bbc 00b0 acb9 0093 64ba 00a2 a2bb
000000f0: 0060 a3bc 00a4 96bc 00b0 593c 00bc bebc
00000100: 00c0 e43c 0048 a1bb 009c 453b 0010 7a3b
00000110: 003a 86bc 0018 bcbc 00b0 27bc 0038 bd3c
00000120: 000c 8fbc 00e4 b03c 0024 c9bb 000c bfbc
00000130: 00c8 583c 0090 97ba 00f0 a23c 00b0 a93c
00000140: 001c ef3b 00c0 d93a 0094 0bbc 0060 293c
00000150: 00a8 04bc 0098 b33c 00b4 463c 0058 36bc
00000160: 008c e4bc 00f8 e23b 0058 05bc 0054 2dbc
00000170: 0060 263a 00d8 24bc 0014 73bc 000c 403c
00000180: 0020 87bb 00b0 4abc 0068 993c 00c4 a4bb
00000190: 00bc 1c3d 0000 0000

old_dirs f4 [102]
0.0007568598 0.0035116673 -0.00063562393 -0.0027987957 -0.0012596846 -0.0012192726 0.00014865398 -0.0004349947
-0.00036078691 0.00069892406 -4.889071e-05 -1.963973e-05 0.0004297495 0.0037293434 -0.0014861822 -0.009895325
6.3180923e-06 -0.0051002502 0.00038343668 -0.002057314 -0.0018830299 0.001544714 -0.00063598156 0.001434207
-6.109476e-06 0.003743887 0.00044977665 -0.0020179749 -0.00237751 -0.0018258095 -0.0013002157 0.0008852482
-0.001054883 -0.010848999 -0.0004440844 -0.0017311573 0.0032072067 0.005876541 0.0012540817 -0.0013850927
-0.0006092787 -0.0001757741 0.0073900223 -9.2089176e-05 0.0038044453 0.00045531988 0.0025544167 -0.0057992935
-0.0049448013 -0.004473686 0.00739336 0.0044002533 0.003514409 -0.006544113 0.005124092 0.007209778
-0.008638859 -0.00032782555 -0.00086419284 -0.004993677 -0.019987106 -0.018383026 0.013262749 -0.023330688
0.02802658 -0.0049524307 0.0030059814 0.0038490295 -0.016429901 -0.022996902 -0.010286331 0.0231781
-0.017536163 0.021629333 -0.0061564445 -0.023433685 0.013317108 -0.001159668 0.019945145 0.020786285
0.0073013306 0.0016667843 -0.008528709 0.010316849 -0.008066654 0.021915436 0.012150764 -0.011138916
-0.027973175 0.0069332123 -0.008170128 -0.010568619 0.00062179565 -0.010055542 -0.014849663 0.011710167
-0.0041103363 -0.012388229 0.018779755 -0.005036354 0.038368225 0.0
00000000: 0068 463a 0024 663b 00a0 26ba 006c 37bb
00000010: 001c a5ba 00d0 9fba 00e0 1b39 0010 e4b9
00000020: 0028 bdb9 0038 373a 0010 4db8 00c0 a4b7
00000030: 0050 e139 0068 743b 00cc c2ba 0020 22bc
00000040: 0000 d436 0020 a7bb 0008 c939 00d4 06bb
00000050: 00d0 f6ba 0078 ca3a 00b8 26ba 00fc bb3a
00000060: 0000 cdb6 005c 753b 00d0 eb39 0040 04bb
00000070: 00d0 1bbb 0050 efba 006c aaba 0010 683a
00000080: 0044 8aba 00c0 31bc 00d4 e8b9 00e8 e2ba
00000090: 0030 523b 0090 c03b 0060 a43a 008c b5ba
000000a0: 00b8 1fba 0050 38b9 0028 f23b 0020 c1b8
000000b0: 0054 793b 00b8 ee39 0068 273b 0008 bebb
000000c0: 0008 a2bb 0098 92bb 0044 f23b 0030 903b
000000d0: 0052 663b 0070 d6bb 00e8 a73b 0040 ec3b
000000e0: 008a 0dbc 00e0 abb9 008b 62ba 00a2 a3bb
000000f0: 00bc a3bc 0098 96bc 004c 593c 0020 bfbc
00000100: 0098 e53c 0048 a2bb 0000 453b 0040 7c3b
00000110: 0098 86bc 0064 bcbc 0088 28bc 00e0 bd3c
00000120: 00a8 8fbc 0030 b13c 00bc c9bb 00f8 bfbc
00000130: 0030 5a3c 0000 98ba 0064 a33c 0048 aa3c
00000140: 0040 ef3b 0078 da3a 00bc 0bbc 0008 293c
00000150: 002a 04bc 0088 b33c 0014 473c 0080 36bc
00000160: 0028 e5bc 0030 e33b 00dc 05bc 0028 2dbc
00000170: 0000 233a 00c0 24bc 004c 73bc 00dc 3f3c
00000180: 00b0 86bb 00f8 4abc 00d8 993c 0008 a5bb
00000190: 0028 1d3d 0000 0000

old_dirs f4 [102]
0.0007548332 0.0035216808 -0.00063586235 -0.002814293 -0.0012764931 -0.0012021065 0.00015302002 -0.00042685866
-0.00038552284 0.00071012974 -5.7935715e-05 -9.5665455e-06 0.00041145086 0.0037574768 -0.0014556646 -0.009976387
6.03199e-05 -0.0051288605 0.00039839745 -0.0020723343 -0.0019191504 0.0015860796 -0.0006674528 0.0014418364
-2.527237e-05 0.0037806034 0.00047171116 -0.0020403862 -0.0024061203 -0.0018424988 -0.0013463497 0.0009174347
-0.0010179281 -0.010951042 -0.00043684244 -0.0017347336 0.003222704 0.005918503 0.0012916327 -0.0014044046
-0.00058698654 -0.00018852949 0.007405758 -6.4492226e-05 0.0037817955 0.00051546097 0.0025782585 -0.0058791637
-0.004957676 -0.0044837 0.007458687 0.004369259 0.0035607815 -0.006579399 0.0051021576 0.007276058
-0.008755207 -0.00032639503 -0.00085659325 -0.0050275326 -0.02003479 -0.018383026 0.013263702 -0.023393631
0.028141022 -0.0049796104 0.0029993057 0.003873825 -0.016465187 -0.023042679 -0.010331154 0.023277283
-0.017623901 0.02168274 -0.006177902 -0.023548126 0.013399124 -0.0011539459 0.020015717 0.020870209
0.0073075294 0.0016756058 -0.008538723 0.01031208 -0.008047581 0.02192688 0.01217556 -0.011148453
-0.028055191 0.0069446564 -0.008208752 -0.010560989 0.0006017685 -0.010055542 -0.014868736 0.011712074
-0.0040946007 -0.012426376 0.018835068 -0.005048752 0.03850937 0.0
00000000: 00e0 453a 00cc 663b 00b0 26ba 0070 38bb
00000010: 0050 a7ba 0090 9dba 0074 2039 00cc dfb9
00000020: 0020 cab9 0028 3a3a 0000 73b8 0080 20b7
00000030: 00b8 d739 0040 763b 00cc beba 0074 23bc
00000040: 0000 7d38 0010 a8bb 00e0 d039 00d0 07bb
00000050: 008c fbba 00e4 cf3a 00f8 2eba 00fc bc3a
00000060: 0000 d4b7 00c4 773b 0050 f739 00b8 05bb
00000070: 00b0 1dbb 0080 f1ba 0078 b0ba 0080 703a
00000080: 006c 85ba 006c 33bc 0008 e5b9 0060 e3ba
00000090: 0034 533b 00f0 c13b 004c a93a 0014 b8ba
000000a0: 00e0 19ba 00b0 45b9 00ac f23b 0040 87b8
000000b0: 00d8 773b 0020 073a 00f8 283b 00a6 c0bb
000000c0: 0074 a2bb 00ec 92bb 0068 f43b 002c 8f3b
000000d0: 005c 693b 0098 d7bb 0030 a73b 006c ee3b
000000e0: 0072 0fbc 0020 abb9 008d 60ba 00be a4bb
000000f0: 0020 a4bc 0098 96bc 0050 593c 00a4 bfbc
00000100: 0088 e63c 002c a3bb 0090 443b 00e0 7d3b
00000110: 00e2 86bc 00c4 bcbc 0044 29bc 00b0 be3c
00000120: 0060 90bc 00a0 b13c 0070 cabb 00e8 c0bc
00000130: 0088 5b3c 0040 97ba 00f8 a33c 00f8 aa3c
00000140: 0074 ef3b 00a0 db3a 00e6 0bbc 00f4 283c
00000150: 00da 03bc 00a0 b33c 007c 473c 00a8 36bc
00000160: 00d4 e5bc 0090 e33b 007e 06bc 0008 2dbc
00000170: 00c0 1d3a 00c0 24bc 009c 73bc 00e4 3f3c
00000180: 002c 86bb 0098 4bbc 004c 9a3c 0070 a5bb
00000190: 00bc 1d3d 0000 0000

old_dirs f4 [102]
0.0007529259 0.0035340786 -0.0006366372 -0.00282979 -0.001291275 -0.0011880398 0.00015749037 -0.00041887164
-0.00040715933 0.0007208586 -6.6399574e-05 5.662441e-07 0.0003951788 0.0037884712 -0.0014297962 -0.01006794
0.00010788441 -0.0051603317 0.00041121244 -0.0020873547 -0.0019518137 0.0016280413 -0.0006941557 0.001450777
-4.181266e-05 0.0038220882 0.0004912615 -0.0020644665 -0.0024309158 -0.0018596649 -0.001388669 0.00095009804
-0.0009870529 -0.011060715 -0.00043076277 -0.0017390251 0.0032401085 0.0059657097 0.0013272762 -0.0014246702
-0.0005649328 -0.00019940734 0.0074238777 -3.71933e-05 0.0037634373 0.00057440996 0.0026032925 -0.005961418
-0.0049738884 -0.0044937134 0.007525921 0.004343033 0.0036078691 -0.006618023 0.005083561 0.007343769
-0.0088739395 -0.00032496452 -0.00084888935 -0.005063057 -0.020103455 -0.0184021 0.013273239 -0.023475647
0.028268814 -0.0050239563 0.0029928684 0.003891945 -0.016503334 -0.023097992 -0.010362625 0.023387909
-0.017707825 0.021759033 -0.006198883 -0.023670197 0.013465881 -0.0011439323 0.020078659 0.020957947
0.007320404 0.0016849041 -0.0085577965 0.010304451 -0.008034229 0.021938324 0.012215614 -0.011165619
-0.028154373 0.0069594383 -0.008252144 -0.010559082 0.0005865097 -0.010063171 -0.014891624 0.011717796
-0.0040836334 -0.012461662 0.01889801 -0.005063057 0.038658142 0.0
00000000: 0060 453a 009c 673b 00e4 26ba 0074 39bb
00000010: 0040 a9ba 00b8 9bba 0024 2539 009c dbb9
00000020: 0078 d5b9 00f8 3c3a 0040 8bb8 0000 1835
00000030: 0030 cf39 0048 783b 0068 bbba 00f4 24bc
00000040: 0040 e238 0018 a9bb 0098 d739 00cc 08bb
00000050: 00d4 ffba 0064 d53a 00f8 35ba 0028 be3a
00000060: 0060 2fb8 007c 7a3b 00c8 003a 004c 07bb
00000070: 0050 1fbb 00c0 f3ba 0004 b6ba 0010 793a
00000080: 0060 81ba 0038 35bc 00d8 e1b9 00f0 e3ba
00000090: 0058 543b 007c c33b 00f8 ad3a 00bc baba
000000a0: 0018 14ba 0018 51b9 0044 f33b 0000 1cb8
000000b0: 00a4 763b 0094 163a 009c 2a3b 0058 c3bb
000000c0: 00fc a2bb 0040 93bb 009c f63b 0050 8e3b
000000d0: 0072 6c3b 00dc d8bb 0094 a63b 00a4 f03b
000000e0: 0064 11bc 0060 aab9 0088 5eba 00e8 a5bb
000000f0: 00b0 a4bc 00c0 96bc 0078 593c 0050 c0bc
00000100: 0094 e73c 00a0 a4bb 0024 443b 0010 7f3b
00000110: 0032 87bc 0038 bdbc 00c8 29bc 0098 bf3c
00000120: 0010 91bc 0040 b23c 0020 cbbb 00e8 c1bc
00000130: 00a0 5c3c 00f0 95ba 007c a43c 00b0 ab3c
00000140: 00e0 ef3b 00d8 dc3a 0036 0cbc 00d4 283c
00000150: 00a2 03bc 00b8 b33c 0024 483c 00f0 36bc
00000160: 00a4 e6bc 000c e43b 0034 07bc 0000 2dbc
00000170: 00c0 193a 00e0 24bc 00fc 73bc 00fc 3f3c
00000180: 00d0 85bb 002c 4cbc 00d0 9a3c 00e8 a5bb
00000190: 0058 1e3d 0000 0000
