tutorials/tutorial 5/lightning_logs/version_110/checkpoints/epoch=1-step=2.ckpt (torch, 211701 bytes, 86 tensors)

_pina_model._model.layers.0.weight f4 [20, 2]
00000000: 3ded c5be c3d2 98be b519 19bf 86bb 22be
00000010: 372f 31bf d8c2 253f 5ea8 c9bd b5af ebbe
00000020: 0f90 10bf 0a4c 81be ed38 913e 2269 a63e
00000030: 6535 b9bd 73ed 263c 4d5a 0d3f 1842 31bc
00000040: 5598 38be 37ce 01bf 380d 1c3f 1e1f 813e
00000050: 9f21 74be 5af3 f33d 6cd8 e53c efb6 1abe
00000060: 29c3 8ebe 5e7e e1bd 5693 2d3e 2624 2c3f
00000070: b013 0fbf ef0d 31bf 5770 b73d 6890 2b3f
00000080: ac70 2a3f dce0 d73e 1352 4ebd 6767 d93e
00000090: 2618 fdbe 40bd 813e 12de d1be e803 edbe
-0.3865756 -0.29848298 -0.5980485 -0.15891847 -0.6921267 0.6475043 -0.098465666 -0.4603249
-0.56469816 -0.25253326 0.28363743 0.32502085 -0.09043387 0.010188448 0.55215913 -0.010818981
-0.1802686 -0.50705284 0.6095767 0.25219053 -0.2384095 0.1191165 0.0280573 -0.15108846
-0.2788327 -0.11010431 0.16950735 0.6724266 -0.55889416 -0.69161886 0.08956974 0.6701722
0.66578174 0.42163742 -0.05037124 0.42461702 -0.49432486 0.253397 -0.4098974 -0.46292043

_pina_model._model.layers.0.bias f4 [20]
00000000: 5e7b 1abf 029d 0a3f 1f4d cabe 948b a33e
00000010: c06b 1c3f eee2 84be a00c 7b3e 5e0c df3e
00000020: 74cb 8fbe df5a 143f 2304 a7be 9c04 19bf
00000030: 45b4 113f 84ff d5be 4d54 a3bd ddc1 14be
00000040: a306 1e3f d739 1ebd 73b0 973a d5e9 c8bc
-0.60344493 0.54145825 -0.39511964 0.31942427 0.61101913 -0.25954384 0.24516535 0.43564123
-0.2808491 0.5795116 -0.32620344 -0.5977266 0.56915694 -0.41796505 -0.079750635 -0.14527078
0.61728877 -0.03862938 0.0011572972 -0.024525562

_pina_model._model.layers.2.weight f4 [20, 20]
00000000: d844 c53b 41cd 5bbe 7c68 33be cd46 4c3e
00000010: 9df6 713d 655f 413e ef23 873d 4c08 ee3d
00000020: e840 4cbe 9412 5d3e 3f35 03be 075a aebd
00000030: 38d1 67bd a9dc 193e ec3b 223e 7a4f 31be
00000040: 13d3 fd3d 399a f9bb de83 ffbd e4db f7bd
00000050: 2b01 3f3e da6e e7bd 760d 30be 2fa7 cd3b
00000060: fc6c ee3d 033e 133e 24ad 3ebe 8312 adbd
00000070: cde5 0e3e 1c54 f53d aa7a 4a3d 18d3 093e
00000080: c8a9 933d a8ce 4fbe 59d8 193e 9cd4 ef3d
00000090: 399b 88bd 5c7e 093e 1898 2cbe de3b 143e
000000a0: 6377 393e d08c c3bd e861 7b3c 1132 e9bd
000000b0: 2e10 09be d1e3 903b 1577 153d 0ccc 233e
000000c0: b6d6 bc3d 8e3c 4fbe c9c0 b33d efa4 b0bd
000000d0: 1752 1abe b1d5 523e c21f 9f3d b6df c63d
000000e0: 17fb 33be c231 0bbe 5bea 1fbd 94a0 77bd
000000f0: 8dba 90bd 5d8f 133e b31c 11be 8e50 55bc
00000100: 5ee8 e33d 8fec a63d dcd2 28be deec c33c
00000110: a852 623e b871 d9bd 9e77 f8bd 7a70 37be
00000120: 85f9 8c3d bd40 613e 019b 8b3d d733 3d3e
00000130: 7d00 0ebe 02d0 2f3e 1284 0ebe 9d04 7ebc
00000140: 03b0 1ebd 990f 59be 0f19 a23c e0fa 1b3e
00000150: bcc1 193e df35 d6bd 59a7 21be c27e 0b3e
00000160: ab5d d53d 91ae b9bd db1e c13d 2488 bc3c
00000170: 9022 063d 8617 dc3d cdf4 1cbe 13a8 bfbd
00000180: dd9c 59be 852f 19be 9537 a0bd 5996 bd3d
00000190: e79d 36be 167e 51be fd58 4c3e 6600 143e
000001a0: 679c 6f3d 8bb9 fcbc 0983 4a3e d25f 2dbe
000001b0: 521e ec3d d3a2 a2bd 205a 213e ebcf babd
000001c0: cb91 573e c7f8 df3c 6d4d 16bc 82d9 c3ba
000001d0: 1071 313e 0356 123e 8d89 2fbe d49c 3e3e
000001e0: 5ae2 003c 9f83 c9bd 9808 b13c 30a7 9dbd
000001f0: 3bf2 4e3c 4c0f 1ebe 486e b9bd 9a08 ee3d
00000200: 4b88 2ebe 787f 85bd 777b 423c 02c5 3abe
00000210: af65 453d 698d 1b3c 9b98 46be d0d4 183e
00000220: 0734 8f3d 6a37 013e e934 853d ca08 203e
00000230: 7a78 133d 69a1 fa3d 41d2 f93c d94f be3d
00000240: ad76 4ebe 58f6 a73c 27ca 14be c25d 583e
00000250: 2aab 0d3e 1cfa 873d c38b f1bd 6e4d 52be
00000260: 75b0 3c3e 6ef2 a73c 2344 c13d fc39 c83d
00000270: 404a 15be a60a 43be 2c8d 6eba 54a3 313e
00000280: 7b9c 93bd fdfa 533e 4700 303e 51ad 2d3e
00000290: cacf 4a3e d22b 493e b0fa 19be b6a0 133e
000002a0: 3982 df3d 6ca0 f23d 6b74 b33d c28a f73d
000002b0: 724c ed3d 82e4 573e 6806 d8bd ef68 f23d
000002c0: 305c 4fbd c832 3cbe 00bf 1c3e 6ed2 30be
000002d0: 7f2c 31be e880 d7bd f186 5c3e ff3f 0ebe
000002e0: e27a 453d 2589 3ebe 4420 9abd 714e a13d
000002f0: fee2 9f3d af4d f1bd a44a bdbd 73bc 533e
00000300: 9c4d 2ebe 09c4 debd 0b58 523e cf3d 0b3e
00000310: be65 2e3d f62b 933d c339 a6bc 6081 9abd
00000320: 4e41 5e3e fb6a 67bd 81e8 723d c420 5b3e
00000330: aee2 d03d e021 e03d dff2 e53d 5309 2fbe
00000340: 69df 79bd 12c2 01be f2c8 5dbe 795c 49be
00000350: 0cc1 4bbe 7c32 61bc d184 a8bd 6f98 1d3e
00000360: ea59 153e 7332 2d3e f34f 333e 0f23 59bd
00000370: 2e9a 2c3d 0de4 21be f66f 8bb9 2d50 653d
00000380: b9a2 2c3e fba8 543c 0d83 3a3c 83e6 28be
00000390: 3f75 a3bd 06f1 33be 9332 163e 306c 443c
000003a0: 8d47 03be 17af f43d dc4c f23c 753f 8ebc
000003b0: 392c 343e b489 ed3d e2f7 b5bc a72a 363e
000003c0: 2c43 64be de6a 573e d381 223e 9681 4ebe
000003d0: 1e00 483e 5d17 3cbe eef3 31bc b34a 533e
000003e0: 42c4 c1bd 7e8d 4b3d 9af5 6a3d 8e3d 60be
000003f0: afe4 ff3d c969 373d 1939 66bd 7ab2 4ebc
0.0060201697 -0.21465017 -0.17520326 0.19948883 0.05907308 0.18884046 0.06598651 0.11622676
-0.19946635 0.21589118 -0.1281328 -0.08513265 -0.05659601 0.15025581 0.15843171 -0.17315474
0.12393775 -0.0076172617 -0.124763235 -0.12102488 0.1865279 -0.1130044 -0.17192635 0.0062760334
0.11641881 0.14379124 -0.18620735 -0.084507965 0.1395485 0.11978933 0.049433388 0.13459432
0.072101176 -0.20293677 0.15023936 0.11710474 -0.06670231 0.13427109 -0.16854894 0.14475963
0.18111949 -0.09548342 0.015343167 -0.113865025 -0.13385078 0.004421689 0.03649052 0.15995806
0.0922064 -0.20237944 0.08777005 -0.086252086 -0.15070377 0.2058933 0.07769729 0.09710638
-0.17576252 -0.135932 -0.03904186 -0.060455874 -0.07066832 0.14410158 -0.14171104 -0.013019694
0.11128305 0.08150589 -0.16486686 0.023916658 0.22101843 -0.10617393 -0.1213219 -0.17914
0.068835296 0.21997352 0.06816674 0.18476807 -0.13867374 0.17169192 -0.13917568 -0.01550403
-0.038742077 -0.21197356 0.01978734 0.1523242 0.1501531 -0.10459494 -0.15786494 0.13622573
0.10418256 -0.09066499 0.09429713 0.023014136 0.032747805 0.10746674 -0.15327759 -0.093582295
-0.21251245 -0.14959534 -0.078231014 0.09257192 -0.17833672 -0.20458254 0.19955821 0.14453277
0.058498766 -0.030850193 0.19776548 -0.16931084 0.11529221 -0.079412125 0.15757036 -0.091216885
0.2105171 0.027340306 -0.009173733 -0.0014942142 0.17328286 0.14290623 -0.17142315 0.18614513
0.007866466 -0.09839558 0.021610543 -0.07697904 0.012630994 -0.15435523 -0.090542376 0.11622734
-0.17044179 -0.06518453 0.011870257 -0.18239215 0.048192676 0.009494164 -0.19394152 0.14924932
0.06992345 0.12618795 0.065042324 0.15628353 0.036003567 0.12237818 0.030495765 0.092925735
-0.20162459 0.020503208 -0.1453024 0.21129516 0.13834825 0.066395015 -0.117942356 -0.2053735
0.18426688 0.020501342 0.09436824 0.09776685 -0.14579105 -0.19047031 -0.0009100016 0.17347461
-0.07207581 0.20701213 0.17187606 0.16960646 0.19805828 0.19645622 -0.15037036 0.14416775
0.1091351 0.11847004 0.08762439 0.12087013 0.115868464 0.21083263 -0.10548097 0.11836421
-0.050625026 -0.18378747 0.15307236 -0.17267773 -0.1730213 -0.10522634 0.21535851 -0.138916
0.048212893 -0.18607004 -0.075256854 0.0787629 0.07806967 -0.11782395 -0.09242752 0.20677356
-0.17021793 -0.108772345 0.20541398 0.13597797 0.042577498 0.07186119 -0.020291215 -0.075442076
0.217046 -0.05649851 0.059303764 0.21399218 0.10199486 0.10943961 0.112279646 -0.170934
-0.061004076 -0.12671688 -0.21658686 -0.19664182 -0.1989786 -0.013744947 -0.08228458 0.1539018
0.1458508 0.16913776 0.17510967 -0.05301195 0.042139225 -0.1580965 -0.00026595563 0.055984665
0.16858949 0.012979741 0.011383784 -0.16494183 -0.07981347 -0.17572412 0.1466773 0.011988685
-0.12820263 0.11947458 0.029577665 -0.017364243 0.17594995 0.115985304 -0.022212926 0.17789708
-0.22291249 0.2103686 0.15869837 -0.2016662 0.19531295 -0.18368287 -0.01086138 0.20633964
-0.09461261 0.049695484 0.05736313 -0.21898481 0.1249479 0.04477862 -0.056206796 -0.012615794

_pina_model._model.layers.2.bias f4 [20]
00000000: cf7a 633e e15b f63d 8c26 ec3d ace5 003e
00000010: 77b3 023e 7a48 35be 964c 1d3d 4434 643e
00000020: fa4b 0c3e bc95 4ebe cc54 bf3d 92a7 583d
00000030: 4e1f 66bd 48bf f1bd 8248 87bd 7246 5e3e
00000040: c899 433e 2986 933d 8258 5d3e 4720 613e
0.22214817 0.12029243 0.1153079 0.12587613 0.12763773 -0.17703429 0.038403116 0.22285563
0.13700858 -0.20174307 0.093423456 0.052894183 -0.0561822 -0.11804062 -0.06605627 0.2170656
0.19101632 0.072033234 0.21615794 0.21984969

_pina_model._model.layers.4.weight f4 [2, 20]
00000000: 36f7 b2bd 1593 693d 9f34 cabd 8676 1fbe
00000010: ca02 0d3d add5 62be c4b9 b1bd 1ecd 423e
00000020: fc20 343e 920e ac3d 6bf4 d4bd 6546 2cbe
00000030: 77e6 5c3e 328d 0b3c 24aa 0f3e e25b 94bd
00000040: bb90 603c 8d1a 523d 881f 113d 507a 463e
00000050: 818c 02be fea7 03be e0bb 6cbc 87c6 1d3d
00000060: 305a 5cbd 4c2f 1d3e 2258 963d 15d1 2f3e
00000070: e948 01be 8b37 953d 9742 223e f424 cebb
00000080: 7b5e 503a a338 3d3e 4308 b13d 2371 a73d
00000090: 996a 1dbe a474 023e a03c 1bbe 0f81 dcbd
-0.08738558 0.057025034 -0.09873318 -0.15572557 0.034426488 -0.22151823 -0.0867801 0.19023558
0.17590708 0.084012166 -0.103981815 -0.16823728 0.2157229 0.00851755 0.14029747 -0.07244088
0.013706381 0.051294852 0.03543046 0.19382596 -0.1274891 -0.12857053 -0.01444909 0.03851941
-0.053796947 0.15350074 0.07341029 0.17169602 -0.1262547 0.072859846 0.15845715 -0.0062910262
0.0007948649 0.18478636 0.08644154 0.08175876 -0.15372695 0.12739807 -0.15159845 -0.107668035

_pina_model._model.layers.4.bias f4 [2]
00000000: 1fe0 03be 20f8 ce3b
-0.12878464 0.0063162

d f4 [522]
00000000: 9e42 123c 4f1f 8d3b 1f0d 5dbd bed2 74bd
00000010: ee08 d4ba 5b4b 853c 1f64 7bbc 740e 85bc
00000020: 9749 10bd cde1 e2bc e7e2 313c 0617 3b3c
00000030: 92f8 0dbd 3c4f 47bc 4ef0 04bd e444 4abc
00000040: eb60 77bb fc81 dfba ffa6 a8bb fdc7 403c
00000050: d2e2 4cbc a14b b4bb 07b0 adba 652e dcbb
00000060: dbae 2ebc f73c fabc 6345 0c3c a132 7b3c
00000070: 8b44 6ebc e063 e6bc 0fb5 97bc 928b a1bc
00000080: aba0 023d 23c1 483c fcb8 abbc adbb c8bb
00000090: b90f 15bd 04d2 c2bc 6199 2fbc ff7e b3bc
000000a0: 966e 43bc a05a 3cbd dccc 433c 39c2 99bb
000000b0: acd2 293d 47bc 273c 1a87 81bb 07e1 93bb
000000c0: 8e69 18bc 7754 a53b 578c 8b3b 918b 933b
000000d0: 0977 09bc 7ff3 f3ba 5f9c 4fbd 04d7 bcbc
000000e0: 118c 2dbc fa3f 853b 059c 61bb b3a7 a0bc
000000f0: 761d 8abc ec89 a6bc 8eb5 92bb 6cb4 86bc
00000100: 9300 92bc 14e3 a13c 5af4 ddba 4223 8b3c
00000110: ca72 adbc e18e b93c 6e13 8ebb 5e15 40bb
00000120: 44b9 f3bb 14a1 e03c d336 43bd bb41 c63c
00000130: d1d3 d33c 8bcd 393c 03d9 18bc e1e0 0bbd
00000140: 36bc 79bb f31f c3bc 978e a6bb 52d4 33bc
00000150: 2da4 c8bc 5f29 713c c6db 75bb b827 8d3b
00000160: a700 08bc e07c 173b 7816 8cbb 6cb9 013a
00000170: a711 41bc dfd7 943c 6abe 3cbc 2037 3b3c
00000180: 53a5 e33a 56bf 863b 02da 33bc 6ef9 5fbc
00000190: 1ad1 c0bc bed5 3cbd 7d4e 2a3a 4c5e 1fbd
000001a0: deb4 51bd 351b 263d 8eef f9b9 6bcd d13c
000001b0: cf26 f8bc 2608 cf3c 0559 12bc 74a3 46bc
000001c0: 6f15 abbc 328e 623d 2fb2 18bd 6497 373d
000001d0: f527 c03c afbd e83c d341 48bc 305e 2bbd
000001e0: 0747 1ebb ce1d 95ba 9748 303b 2790 c9bb
000001f0: 52db 3b3a 85da a63b 32c8 8e3a 2591 b23b
00000200: 5c2f 3bbb 5c48 083c 8f2b 5c3b 45ec 3d3b
00000210: 359d 09bb a674 0d3c d3d4 91bc 5c02 f13b
00000220: c9da 1b3c a365 bc3b 0465 023b 4653 35bc
00000230: b74e f9ba 143f dd39 e245 b9bb c263 663b
00000240: bd17 8c3a daca bcba c36f d7b8 a7df 903a
00000250: da7f c1ba 85f7 c03a bfb1 16bb 5f48 11ba
00000260: 9db1 a23a 587a 43bb c8c5 77bb bacf eeba
00000270: 0ec8 0f3b 3db8 45bb fc0c 56bb 4724 b6ba
00000280: a3cf f1b8 cc0f 823c e52e 193c 0bd6 9d39
00000290: be87 a33c b89d 9ebb 40ff 773b f38c 3f3b
000002a0: fbbe 483b f310 093c f625 f23b 5502 233b
000002b0: 91cb e23b ed07 5ebb 457c 39bc 5398 3fba
000002c0: ea38 253c 6692 843b 7f4b 383c 9134 20bb
000002d0: a370 be3a 2112 863c 5694 24ba ecba 0e3c
000002e0: b463 983c c4d2 22bc e9aa 203b 01ad 20ba
000002f0: 5896 9d3b fccf 033b 3a50 433b 2064 e13a
00000300: 44d1 023c 0b59 51bc bbca d8ba fcad 00bc
00000310: b6da 633b e3a9 82bb 1f85 af3b 0177 9c3b
00000320: 9156 013c 00d4 b5bd 5d49 093c 35b2 4abd
00000330: 7e0c ccbd 3839 4b3d 196e 73bc 3f50 adba
00000340: d512 9fbb 6913 b8bc 84af 05bc 3791 37bb
00000350: 2fe6 42bd 4867 6e3d 6c91 433d 6a09 003d
00000360: 9b6d 13bd 43af b93c cd13 c0bc ac50 09bb
00000370: eaf0 903b 5653 aa3c da5b b2bb b89d aa3c
00000380: 9bb1 be3c fb99 9abc ca24 1139 5aff 16bc
00000390: 1974 f43b dc5a fabb 967b 74ba f640 6d3a
000003a0: 1273 503c 966f d7bc ff84 253c 862e a6bc
000003b0: 38be b6bb 850b 7ebc 4869 d23a cbb7 743c
000003c0: 46ef 55bc 844a 26bd 2c25 2d3b aabf eabc
000003d0: fba2 3abd c7e2 ec3c 7bc9 30bb 75c6 513c
000003e0: d213 8fbc 9a77 fb3b dcf7 1abc 8464 57bc
000003f0: fd2a 89bc 9753 153d 3a0f ea3a 9c5c db3c
0.008927016 0.004306711 -0.05396759 -0.059771292 -0.0016176978 0.016271284 -0.015343695 -0.016242243
-0.03522643 -0.02769556 0.01085732 0.011419063 -0.034660883 -0.012164887 -0.032455735 -0.012345526
-0.0037746977 -0.0017052288 -0.0051468606 0.011766431 -0.01250525 -0.0055021797 -0.0013251313 -0.006719398
-0.010661806 -0.030546648 0.008561465 0.015331895 -0.014542709 -0.028123796 -0.018518953 -0.019719873
0.031891506 0.012253079 -0.02096223 -0.0061258883 -0.036391947 -0.023781784 -0.010717721 -0.021911142
-0.011928221 -0.045984864 0.011950698 -0.0046923426 0.041460678 0.01023776 -0.003952873 -0.0045129093
-0.00930251 0.0050454694 0.004258673 0.0045027216 -0.008390197 -0.0018611996 -0.050686236 -0.023051746
-0.010592476 0.0040664645 -0.003442527 -0.019611215 -0.016859751 -0.020329438 -0.0044772094 -0.016443454
-0.01782254 0.0197616 -0.0016933784 0.016984586 -0.0211729 0.022651138 -0.0043358123 -0.002930961
-0.007437857 0.027420558 -0.047659706 0.024201265 0.025857838 0.011340509 -0.009329083 -0.034150008
-0.0038106567 -0.023818946 -0.005082916 -0.010975914 -0.024492348 0.014719336 -0.0037515028 0.0043077134
-0.008300937 0.0023115203 -0.0042751394 0.00049485895 -0.011783994 0.018169342 -0.011520008 0.011426717
0.0017367996 0.0041121645 -0.01097727 -0.0136703085 -0.023537207 -0.046102278 0.0006496681 -0.038908288
-0.05119788 0.04055329 -0.00047671463 0.025610646 -0.030291943 0.02527244 -0.008932357 -0.012123931
-0.020884244 0.05531139 -0.037279304 0.04482211 0.023456553 0.02841076 -0.012222725 -0.04183787
-0.0024151222 -0.001137668 0.0026898736 -0.0061512175 0.0007166165 0.0050919675 0.0010893403 0.0054494315
-0.0028562164 0.008318033 0.00335953 0.002897994 -0.0020998244 0.008633768 -0.017801678 0.0073550176
0.009512612 0.0057494207 0.0019896636 -0.011067217 -0.0019020651 0.00042199402 -0.0056540826 0.0035154675
0.0010688227 -0.0014403716 -0.00010272816 0.0011052982 -0.0014762834 0.0014722204 -0.0022994129 -0.0005542095
0.0012412552 -0.0029827561 -0.0037807096 -0.0018219866 0.002193931 -0.003016963 -0.0032661548 -0.001389631
-0.00011530451 0.015876673 0.009349559 0.00030104848 0.019962188 -0.004840579 0.003784135 0.00292283
0.0030631411 0.008365857 0.007389779 0.0024873216 0.0069212397 -0.0033879236 -0.011321132 -0.000730877
0.01008437 0.0040457724 0.011248468 -0.0024445395 0.0014529418 0.016366066 -0.00062782073 0.008711558
0.01860223 -0.009937946 0.0024515933 -0.0006129295 0.004809182 0.0020112982 0.0029802457 0.0017195977
0.007984463 -0.012777577 -0.001653991 -0.007853981 0.0034767813 -0.003987537 0.0053564454 0.0047749286
0.007894174 -0.088783264 0.008379308 -0.049486358 -0.0996332 0.049615115 -0.014857792 -0.0013222768
-0.00485454 -0.022470193 -0.008159522 -0.0028010139 -0.0475828 0.058203965 0.047746107 0.031258978
-0.0359932 0.02266658 -0.023446942 -0.0020952625 0.0044232504 0.02079169 -0.0054430785 0.02082716
0.023278048 -0.018872252 0.00013841983 -0.009216154 0.007460129 -0.007640226 -0.0009326277 0.00090505125
0.012722747 -0.026298326 0.0101025095 -0.020285856 -0.005576875 -0.015505676 0.0016053105 0.014936398
-0.0130575355 -0.040598407 0.0026419861 -0.028655846 -0.045565587 0.02891673 -0.002697556 0.0128036635
-0.017465506 0.0076741697 -0.009458508 -0.013146523 -0.016744131 0.03645667 0.0017857321 0.026777558

old_dirs f4 [522]
00000000: 004f 49b9 00cd 2ab9 005b 003b 8014 443a
00000010: 005a b93a 00b3 013b 002e c0b8 0060 473a
00000020: 40bd 99b9 8009 04ba 0071 2cba 80ce 92ba
00000030: 006e b4ba 008c 5439 c014 3e3a 007c 7f39
00000040: 0070 4839 c0dd 97b9 7206 8239 8054 e7b9
00000050: 0089 2fb9 002d 6eb9 007e 8bb9 0050 99ba
00000060: 0066 de3a 005e ff39 0076 72ba 50dd 0eb9
00000070: 00f0 a4b8 00e0 4839 0008 8139 0062 473a
00000080: 0080 b5b8 005a 6f39 00be c4ba 00bd 4fba
00000090: 00ba c83a 0038 8e3a 8066 8eb9 407c 063a
000000a0: 008f ed39 0000 a6b6 002a c5b8 00e0 81b6
000000b0: 00c4 1439 00f6 8639 00a8 c9b8 00be 53ba
000000c0: 0056 4239 00bc 34b8 004b 7338 0062 6939
000000d0: 00cd cd39 00f8 4339 00e6 383a 000a 4bba
000000e0: 80d0 d939 0030 0b39 00ce b4b9 003a 44b9
000000f0: 0090 96b8 0018 663a 00c8 d3b9 8012 403a
00000100: 8044 813a 8035 33ba 8098 3c39 0060 4837
00000110: 80a4 7239 0084 8938 0072 08b9 000a 46b9
00000120: 00ce 173a 8016 85ba 0045 de39 00c4 3bba
00000130: 005c d738 0051 d9b9 0046 a038 a065 063a
00000140: 0068 f7b7 005b 2a39 009f 76ba 0062 263a
00000150: 003b 9f39 009b cdb9 00fd 9b37 0073 4d39
00000160: a02f 9439 00dc af38 00a4 8cb9 00a8 da36
00000170: 002d 3d39 0005 61ba 8013 9c39 802d 3eba
00000180: 00b0 7f38 80cb 0dba 0047 edb9 60fc a539
00000190: 80dc 013a 0069 8b3a 008e fd39 002d 0e3a
000001a0: 00bf 8d3a 007a 40ba 0057 ba38 009b 1fba
000001b0: 0054 113a 8023 11ba 00d1 a839 002f 3d39
000001c0: 0064 e639 0098 55ba 001f 593a 008e 2dba
000001d0: 805b 08ba 0079 9cb9 006d 183a 00db 583a
000001e0: 80e3 ae39 0002 aa3a 00c7 7c3a 00bb b339
000001f0: 0079 a43a 00cb 32ba 001a 4439 00b2 22ba
00000200: 0021 a639 809c e2b9 004c ce39 0004 cab7
00000210: 00bc 1b3a 0013 0fba 00ab 2d3a 0054 b3b9
00000220: b8f6 bcb9 004b 60b7 0041 723a 0048 373a
00000230: 0064 a136 00ac 53b8 0087 ecb9 00ca 7439
00000240: 0000 1d37 00a6 e5b8 0002 a6b7 0076 ca38
00000250: c002 0339 00b6 c537 00ef 00b9 804f 2138
00000260: 0004 8d36 002b a4b9 60c1 e538 0011 97b9
00000270: 0098 8d36 00ef 73b9 0073 87b9 802e d538
00000280: 8067 1739 0009 a33a 003a f33a 001d 8eb9
00000290: 00cd 8b3a 0048 9fb9 0030 8039 8069 2cba
000002a0: 00be 01b9 60b0 9cb9 00ed 133a 000a 69b9
000002b0: 0052 113a 004e 9b39 8042 6f39 00ad e639
000002c0: 004d 43b9 00ff 173a 0052 b63a 8023 9639
000002d0: 0081 f938 00c1 c539 004a 3c3a 804a 1bb9
000002e0: 007a 9f39 00f4 8fb8 0093 7438 0085 97b9
000002f0: 0058 8fb7 8044 38b9 004c 7f39 c008 8db7
00000300: 008e 0939 806c 3539 00f5 c338 0026 4839
00000310: 805a 13b9 00f9 6a39 803d 043a 008b d438
00000320: 0042 97ba 00fc 32bb 0002 07b9 00c1 02bb
00000330: 00ba 3fbb 00d2 0f3b 008e 7cb9 005a a43a
00000340: 003f d6ba 80b9 a33a 00b7 f7b9 0082 dcb9
00000350: 00d1 a4ba 00f1 3d3b 8055 1abb 0003 1c3b
00000360: 60e0 9c3a 0040 aa3a 00ac 6dba 8018 1abb
00000370: 002c e9b9 0058 81ba 0088 caba 80c3 1a39
00000380: 00bc 5dba 0010 ad39 00c4 eab8 00c3 4b3a
00000390: 0084 41b9 80f2 143a 0079 1bba 00aa aab8
000003a0: 005b abb9 8043 f2b8 0085 fcb9 e038 25b9
000003b0: 0076 033a 0028 afb9 00a4 94ba 006a f5b9
000003c0: 00e6 c6b9 001e 84ba 605b 0cb8 00cd 3eba
000003d0: 007b 8dba 0052 513a 006b d4b8 0043 df39
000003e0: 0026 14ba 00cf d939 006f 1fb9 00fc f3b8
000003f0: 0036 fcb9 0065 8a3a 8035 5bba 002c 603a
-0.00019198284 -0.00016288832 0.001958549 0.00074798614 0.0014141202 0.001979053 -9.1638416e-05 0.00076055527
-0.00029323436 -0.0005036816 -0.00065781176 -0.0011200458 -0.0013765693 0.0002027005 0.0007251017 0.00024364889
0.0001911521 -0.0002896618 0.00024800334 -0.0004412271 -0.00016740337 -0.00022714213 -0.00026606023 -0.0011696815
0.0016967654 0.00048707426 -0.0009249151 -0.0001362462 -7.864833e-05 0.00019156933 0.00024610758 0.00076058507
-8.6545944e-05 0.00022826344 -0.0015010238 -0.00079245865 0.0015314221 0.001085043 -0.0002716072 0.0005130209
0.00045310706 -4.9471855e-06 -9.401515e-05 -3.8705766e-06 0.00014187396 0.00025741756 -9.615719e-05 -0.00080773234
0.00018533319 -4.3090433e-05 5.8005564e-05 0.0002225712 0.00039253384 0.00018689036 0.00070533156 -0.00077453256
0.0004154481 0.00013273954 -0.00034485757 -0.00018713623 -7.1793795e-05 0.000877738 -0.00040394068 0.00073269755
0.0009862334 -0.000683628 0.00017985888 1.1943281e-05 0.000231402 6.557256e-05 -0.00013012439 -0.00018886477
0.0005790889 -0.00101538 0.0004239455 -0.000716269 0.00010269135 -0.00041449815 7.642433e-05 0.00051268376
-2.9493123e-05 0.00016246364 -0.0009407848 0.00063470006 0.00030370802 -0.0003921613 1.8595252e-05 0.00019593164
0.00028264243 8.3856285e-05 -0.0002682507 6.516464e-06 0.00018041208 -0.0008583814 0.00029769167 -0.0007254705
6.096065e-05 -0.0005409047 -0.00045257062 0.00031659286 0.00049538165 0.0010636151 0.0004836172 0.00054235756
0.0010814369 -0.0007342398 8.885376e-05 -0.00060884655 0.0005543828 -0.0005536601 0.00032199174 0.00018041953
0.00043943524 -0.0008147955 0.00082825124 -0.0006620586 -0.0005201623 -0.0002984479 0.0005814582 0.00082723796
0.00033357367 0.0012970567 0.00096426904 0.00034280866 0.0012548268 -0.00068204105 0.00018701702 -0.00062063336
0.00031686574 -0.0004322268 0.00039348006 -2.408214e-05 0.0005940795 -0.00054578483 0.0006624907 -0.00034204125
-0.00036041974 -1.3368903e-05 0.0009241253 0.0006991625 4.8098154e-06 -5.0466508e-05 -0.0004511401 0.00023344904
9.357929e-06 -0.00010950491 -1.9789673e-05 9.65409e-05 0.00012494158 2.356898e-05 -0.00012296066 3.845943e-05
4.202593e-06 -0.00031312555 0.0001095559 -0.0002881363 4.2198226e-06 -0.0002326332 -0.00025834888 0.00010165293
0.00014439039 0.0012438595 0.0018556714 -0.00027105957 0.0010665953 -0.00030380487 0.00024449825 -0.0006577
-0.00012373179 -0.00029886048 0.0005642921 -0.00022224337 0.000554353 0.00029622018 0.0002281759 0.00043997914
-0.00018625334 0.0005798191 0.0013909936 0.0002863668 0.00011897273 0.00037718564 0.0007182658 -0.00014809705
0.0003041774 -6.86422e-05 5.8311038e-05 -0.00028900057 -1.7087907e-05 -0.00017573126 0.00024347007 -1.6812584e-05
0.00013118237 0.00017301925 9.3439594e-05 0.00019087642 -0.00014052726 0.00022408739 0.00050445646 0.000101348385
-0.0011540055 -0.0027310848 -0.00012875348 -0.0019951463 -0.0029255152 0.0021945238 -0.00024085492 0.0012539029
-0.001634568 0.0012491196 -0.00047247857 -0.00042058527 -0.0012574494 0.0028982759 -0.0023549497 0.00238055
0.0011968724 0.0012989044 -0.00090664625 -0.0023513138 -0.00044474006 -0.0009868145 -0.0015451908 0.00014759414
-0.0008458495 0.00033009052 -0.00011194497 0.0007772893 -0.00018455088 0.0005681887 -0.0005930811 -8.137897e-05
-0.00032683462 -0.00011552032 -0.00048164278 -0.00015756814 0.0005014837 -0.00033408403 -0.001134038 -0.00046809018
-0.00037936866 -0.0010079741 -3.34637e-05 -0.0007278472 -0.0010794103 0.0007984936 -0.00010128878 0.00042583793
-0.00056514144 0.00041543692 -0.00015204772 -0.000116340816 -0.0004810542 0.0010558665 -0.0008362159 0.00085514784

old_dirs f4 [522]
00000000: 0080 39b8 0098 19b8 001a 053a 0048 4a39
00000010: 00a4 bf39 0084 063a 00b0 c8b7 00a4 4f39
00000020: 5035 89b8 00c6 01b9 00c6 2fb9 0090 96b9
00000030: 00d8 bab9 000c 5e38 0006 3839 00e8 6838
00000040: 0040 5438 8065 93b8 903d 7d38 00ba e9b8
00000050: 0080 2fb8 008c 77b8 0060 8fb8 00b4 9db9
00000060: 00e0 eb39 0054 0b39 00a4 78b9 c05a 12b8
00000070: 0000 d2b6 00b0 7b38 00e0 5738 0007 3f39
00000080: 00a0 9db7 0098 7538 0070 c9b9 00f0 53b9
00000090: 0094 cf39 00e4 9239 00da 8eb8 000f 0839
000000a0: 006c f638 0040 72b7 0038 e9b7 00e0 92b6
000000b0: 0090 2838 00bc 9138 00fc c9b7 002c 5db9
000000c0: 0040 5538 0028 51b7 0038 6f37 00f0 7338
000000d0: 0070 d438 0090 5338 0048 4239 00d8 5ab9
000000e0: 00a5 d838 00d8 1f38 00d0 c4b8 00b8 45b8
000000f0: 0050 adb7 00dc 6a39 00a8 dcb8 0032 4439
00000100: 0016 8439 003c 36b9 00ce 3f38 0000 ab36
00000110: 0096 6b38 0060 a737 006c 0db8 0004 4ab8
00000120: 005a 1b39 006c 87b9 0008 d138 00b4 3cb9
00000130: 0090 fe37 00bc ddb8 008c 9937 80c8 0439
00000140: 0070 20b7 0056 3a38 0024 7fb9 0008 2d39
00000150: 00a0 aa38 0030 d6b8 00b4 b236 0008 5538
00000160: 00eb 9238 00b8 c637 007c 91b8 00c0 6c35
00000170: 00b8 4a38 00c8 68b9 0074 9338 00a0 41b9
00000180: 0080 9e37 002e 12b9 0098 f3b8 80fe a538
00000190: 00e6 0739 00a8 9539 00e0 0339 00b4 1939
000001a0: 00ac 9839 000c 4eb9 00a0 c637 003c 27b9
000001b0: 0040 1939 0062 16b9 0090 b238 00b8 4a38
000001c0: 00a8 f938 00b0 65b9 00dc 5e39 0060 39b9
000001d0: 0018 0cb9 00b4 a9b8 0004 2139 00a0 6339
000001e0: 004c ae38 00b0 b139 0044 8239 006c bc38
000001f0: 0028 ac39 00c8 39b9 0000 4d38 00a8 24b9
00000200: 0010 a838 00fd dfb8 0068 d438 0050 edb6
00000210: 0020 2439 0050 15b9 00e8 2b39 00ac b9b8
00000220: 6072 b7b8 0062 7eb6 00c8 7a39 0032 3a39
00000230: 00d0 8535 00a0 58b7 007c f4b8 0034 7d38
00000240: 00f8 3436 0048 edb7 007c aab6 001c ce37
00000250: 00d7 0338 0088 ce36 0008 05b8 009a 2537
00000260: 0078 9d35 0020 a9b8 8019 e037 00d4 99b8
00000270: 0020 c235 0040 7bb8 00d0 8bb8 00ae d637
00000280: 0090 0c38 0028 a939 00cc fa39 00e0 93b8
00000290: 00f4 9039 00e4 a2b8 006c 8538 008c 2cb9
000002a0: 00c0 0bb8 00a2 95b8 0094 1739 0030 77b8
000002b0: 0018 1839 00e8 a038 0044 6138 0048 ed38
000002c0: 0040 31b8 0080 1d39 0018 bc39 0031 9438
000002d0: 009c fe37 009c c838 0054 4239 0030 25b8
000002e0: 0094 a038 00f0 89b7 00c4 7737 0074 99b8
000002f0: 0058 8bb6 00b4 3ab8 0038 8338 0003 90b6
00000300: 00e8 0a38 003c 4038 00a8 cb37 0082 4d38
00000310: 003c 16b8 0014 7438 00c6 0739 0014 d637
00000320: 0076 98b9 00fc 39ba 0014 fdb7 007c 07ba
00000330: 0074 47ba 0094 143a 00cc 83b8 00cc a639
00000340: 007c d9b9 000c a439 0020 fdb8 00c4 dfb8
00000350: 00ac acb9 002c 443a 001b 1aba 00e0 1f3a
00000360: 00bc 9b39 00ac af39 00c4 74b9 00a6 1cba
00000370: 0064 f2b8 000c 8ab9 0028 d2b9 0032 0e38
00000380: 0090 6eb9 0010 bd38 00e0 f8b7 009c 5239
00000390: 0038 55b8 00e0 1839 0008 22b9 0000 b7b7
000003a0: 00c0 bab8 008a c4b7 00fe 02b9 00e1 11b8
000003b0: 0068 0639 0094 afb8 0024 9bb9 00cc 01b9
000003c0: 00e0 c8b8 0044 88b9 0070 0ab7 0048 44b9
000003d0: 0024 92b9 00e0 5639 0094 d9b7 00c4 e238
000003e0: 0010 16b9 007e da38 0008 24b8 0070 fbb7
000003f0: 00b0 02b9 00f4 8d39 0038 5ab9 0080 6439
-4.4226646e-05 -3.6619604e-05 0.00050774217 0.00019291043 0.00036552548 0.0005131364 -2.3923814e-05 0.00019802153
-6.542599e-05 -0.0001237616 -0.00016763061 -0.00028717518 -0.00035637617 5.29401e-05 0.00017549843 5.5529177e-05
5.0604343e-05 -7.028412e-05 6.0377235e-05 -0.00011144951 -4.184246e-05 -5.9019774e-05 -6.836653e-05 -0.00030079484
0.00044989586 0.00013287365 -0.00023712218 -3.489363e-05 -6.2584877e-06 6.0006976e-05 5.146861e-05 0.00018217787
-1.8790364e-05 5.8554113e-05 -0.00038421154 -0.00020211935 0.00039592385 0.00028017163 -6.811693e-05 0.00012975559
0.00011750311 -1.4439225e-05 -2.7801841e-05 -4.377216e-06 4.018843e-05 6.9491565e-05 -2.4078414e-05 -0.00021092594
5.0842762e-05 -1.2466684e-05 1.4258549e-05 5.8159232e-05 0.000101298094 5.044043e-05 0.00018528104 -0.00020870566
0.00010330416 3.810972e-05 -9.384751e-05 -4.7139823e-05 -2.066046e-05 0.00022397935 -0.0001052171 0.00018710643
0.00025193393 -0.00017379224 4.57298e-05 5.096197e-06 5.6168064e-05 1.9952655e-05 -3.3717602e-05 -4.816428e-05
0.0001481548 -0.00025829673 9.967387e-05 -0.00017996132 3.0346215e-05 -0.00010573119 1.8304214e-05 0.00012663193
-9.56282e-06 4.442595e-05 -0.00024332106 0.00016501546 8.136034e-05 -0.00010213256 5.325768e-06 5.0790608e-05
7.005595e-05 2.3689121e-05 -6.9372356e-05 8.819625e-07 4.8331916e-05 -0.0002219975 7.031113e-05 -0.00018465519
1.8894672e-05 -0.00013940781 -0.00011615455 7.9152174e-05 0.00012960285 0.00028544664 0.0001257658 0.00014658272
0.0002911985 -0.00019650161 2.3677945e-05 -0.00015948713 0.00014615059 -0.00014341623 8.5145235e-05 4.8331916e-05
0.00011904538 -0.00021904707 0.00021253526 -0.00017678738 -0.00013360381 -8.0920756e-05 0.00015355647 0.00021708012
8.311123e-05 0.000338912 0.00024846196 8.984655e-05 0.000328362 -0.0001771748 4.887581e-05 -0.00015702844
8.0138445e-05 -0.000106805936 0.00010128319 -7.0724636e-06 0.0001565218 -0.0001423955 0.00016394258 -8.853525e-05
-8.747424e-05 -3.7905993e-06 0.00023916364 0.00017756969 9.969808e-07 -1.2911856e-05 -0.000116579235 6.036833e-05
2.6966445e-06 -2.828613e-05 -5.0808303e-06 2.4570152e-05 3.143307e-05 6.155111e-06 -3.171712e-05 9.870622e-06
1.1732336e-06 -8.0645084e-05 2.6714755e-05 -7.3350966e-05 1.446344e-06 -5.9902668e-05 -6.6667795e-05 2.5591813e-05
3.351271e-05 0.00032263994 0.00047835708 -7.0512295e-05 0.00027647614 -7.76723e-05 6.362051e-05 -0.00016455352
-3.3318996e-05 -7.1350485e-05 0.00014455616 -5.8934093e-05 0.0001450479 7.672608e-05 5.370751e-05 0.00011314452
-4.2259693e-05 0.0001502037 0.00035876036 7.066317e-05 3.0351803e-05 9.5658004e-05 0.00018532574 -3.938377e-05
7.656962e-05 -1.6443431e-05 1.4767982e-05 -7.317215e-05 -4.1527674e-06 -4.4513494e-05 6.2569976e-05 -4.2918837e-06
3.311783e-05 4.5832247e-05 2.4277717e-05 4.899688e-05 -3.5818666e-05 5.819276e-05 0.00012948364 2.5520101e-05
-0.00029079616 -0.0007094741 -3.0169263e-05 -0.0005168319 -0.0007608533 0.00056678057 -6.284565e-05 0.0003181398
-0.00041481853 0.00031289458 -0.000120699406 -0.000106699765 -0.00032934546 0.0007483363 -0.0005878657 0.0006098747
0.00029703975 0.0003350675 -0.00023342669 -0.00059756637 -0.00011558086 -0.00026330352 -0.00040084124 3.3902004e-05
-0.00022751093 9.0152025e-05 -2.9668212e-05 0.00020085275 -5.083531e-05 0.00014579296 -0.00015452504 -2.18153e-05
-8.904934e-05 -2.3429282e-05 -0.00012492388 -3.478024e-05 0.00012817979 -8.3722174e-05 -0.00029590726 -0.00012378395
-9.5784664e-05 -0.00025990605 -8.251518e-06 -0.00018718839 -0.00027874112 0.00020492077 -2.5937334e-05 0.000108130276
-0.00014311075 0.000104185194 -3.9108098e-05 -2.9973686e-05 -0.00012463331 0.0002707541 -0.00020810962 0.00021791458

old_dirs f4 [522]
00000000: 0098 33b8 0034 10b8 00ca 123a 000e 5e39
00000010: 00d8 d239 005c 143a 0078 deb7 001c 6639
00000020: 6025 7fb8 0092 07b9 00b0 3eb9 003c a4b9
00000030: 00c8 cdb9 0074 7638 00e0 3c39 0080 5e38
00000040: 0008 6f38 00e7 97b8 28d3 8238 0028 fbb8
00000050: 0070 3ab8 00da 88b8 00a2 9cb8 0098 acb9
00000060: 00e4 043a 0018 2139 008e 87b9 c0ba 1fb8
00000070: 0000 0b37 0028 a238 00e0 3638 000d 4239
00000080: 0070 8db7 0008 8638 005c dbb9 00f4 65b9
00000090: 0044 e439 0046 a139 0072 98b8 006e 1239
000000a0: 00ec 0739 0020 fbb7 0010 10b8 00a0 0db7
000000b0: 0010 4938 00f0 a638 004c d7b7 00a8 75b9
000000c0: 00c0 7738 00c0 7db7 008c 7937 0084 8738
000000d0: 0070 e938 0078 7238 0000 5939 0028 7ab9
000000e0: 001c e538 00d0 4038 0000 e3b8 0014 54b8
000000f0: 0050 d1b7 0014 7f39 006c f4b8 005e 5539
00000100: 00a8 8f39 0036 45b9 007c 4f38 0080 0237
00000110: 000c 7338 0070 d337 00e0 1bb8 0038 5bb8
00000120: 0032 2939 009c 92b9 00ac cf38 00d0 49b9
00000130: 00c0 1c38 00aa f0b8 00a0 9b37 0077 0b39
00000140: 0090 53b7 0070 5838 006e 8cb9 003c 3f39
00000150: 0028 c238 0050 edb8 0014 d736 00dc 6a38
00000160: 00bf 9a38 0078 ec37 00fc 9fb8 0000 ee33
00000170: 00c4 6638 0002 80b9 0024 9338 00a4 51b9
00000180: 00c0 ca37 004e 20b9 0006 05b9 8079 b038
00000190: 0042 1739 0074 aa39 0010 1239 0040 3039
000001a0: 0084 ae39 004c 6ab9 00a0 e037 0058 3ab9
000001b0: 00ce 2b39 00d0 25b9 00cc c838 00a4 6638
000001c0: 0074 0f39 001e 83b9 0064 7339 004c 52b9
000001d0: 0026 19b9 004c c3b8 00dc 3439 0010 7e39
000001e0: 0094 b838 005c c539 00d8 8e39 0010 d238
000001f0: 0094 bf39 005c 4db9 00d0 6338 003c 31b9
00000200: 00e4 b438 0065 ebb8 00a4 e838 0078 11b7
00000210: 00d8 3739 00c0 25b9 00c3 3439 00b8 ccb8
00000220: 6004 bdb8 800f 99b6 0020 8a39 0054 4939
00000230: 00e0 5f35 0004 6bb7 0082 06b9 0058 8b38
00000240: 0068 5636 008a 02b8 0050 bab6 0044 df37
00000250: 000d 0d38 0010 e536 0000 12b8 00ca 3437
00000260: 0018 b935 0020 b9b8 0012 e837 0074 a6b8
00000270: 0030 0536 00b4 89b8 006c 99b8 00e4 e537
00000280: 00ad 0938 0060 ba39 00a6 093a 0098 a3b8
00000290: 00ec 9f39 0008 b1b8 00a8 9338 009e 37b9
000002a0: 0018 20b8 0068 97b8 0054 2539 003c 8bb8
000002b0: 0060 2939 0078 b138 0070 6038 009c 0139
000002c0: 0070 28b8 0088 2d39 0070 ce39 0053 9b38
000002d0: 0026 0a38 00a4 d838 0044 5539 0086 3ab8
000002e0: 0048 ac38 0034 8cb7 009e 8537 0066 a5b8
000002f0: 0030 8fb6 0010 49b8 0078 8f38 0023 9cb6
00000300: 0054 1538 0032 5838 0048 e137 00b0 6038
00000310: 00e4 22b8 00d6 8638 0044 1439 0038 e537
00000320: 007e a3b9 007c 4dba 00a8 fbb7 0050 15ba
00000330: 00c0 5cba 0048 233a 0044 92b8 0026 b439
00000340: 00ec eab9 00d2 ae39 0080 09b9 00c8 f1b8
00000350: 005c c0b9 0088 573a 009a 23ba 0048 2e3a
00000360: 8061 a439 00dc c039 0010 86b9 0076 29ba
00000370: 00f0 05b9 005c 9cb9 00cc e7b9 006c 0938
00000380: 0020 88b9 008c da38 00f0 0bb8 0048 6739
00000390: 0048 78b8 0004 2739 009c 33b9 00d8 cfb7
000003a0: 00a8 d7b8 000e 9fb7 0096 10b9 805d 05b8
000003b0: 0030 1239 0038 bbb8 002c acb9 00f4 11b9
000003c0: 00b8 d7b8 007c 95b9 002b 10b7 00b8 56b9
000003d0: 0084 a0b9 00ac 6a39 0008 edb7 00d8 f438
000003e0: 00c2 21b9 00f6 e838 0058 33b8 00b8 09b8
000003f0: 0000 10b9 00e8 9a39 00cc 66b9 00c0 7739
-4.2818487e-05 -3.4380704e-05 0.00055995584 0.00021176785 0.00040215254 0.0005659461 -2.6520342e-05 0.0002194494
-6.0831546e-05 -0.00012928993 -0.00018185377 -0.0003132522 -0.0003924966 5.8759004e-05 0.00018012524 5.3048134e-05
5.698949e-05 -7.243268e-05 6.238214e-05 -0.00011976063 -4.4450164e-05 -6.525591e-05 -7.4688345e-05 -0.00032919645
0.0005069375 0.00015363097 -0.00025855005 -3.808248e-05 8.285046e-06 7.7322125e-05 4.3600798e-05 0.00018506125
-1.6860664e-05 6.391108e-05 -0.0004183948 -0.00021930039 0.00043538213 0.00030760467 -7.269159e-05 0.00013964623
0.0001296252 -2.9936433e-05 -3.4347177e-05 -8.441508e-06 4.7937036e-05 7.9602e-05 -2.5665388e-05 -0.00023427606
5.9068203e-05 -1.5124679e-05 1.4874153e-05 6.4618886e-05 0.000111311674 5.7809055e-05 0.00020694733 -0.00023856759
0.00010924786 4.5970082e-05 -0.000108242035 -5.0563365e-05 -2.4951994e-05 0.00024326146 -0.00011654943 0.0002034828
0.00027400255 -0.000188075 4.946813e-05 7.778406e-06 5.794689e-05 2.5205314e-05 -3.7163496e-05 -5.2265823e-05
0.00016135722 -0.0002796352 9.902567e-05 -0.0001924634 3.7372112e-05 -0.00011475757 1.8551946e-05 0.00013300404
-1.2610108e-05 5.160272e-05 -0.00026784837 0.00018237531 9.2580914e-05 -0.00011315942 6.4098276e-06 5.599484e-05
7.378869e-05 2.8189272e-05 -7.6286495e-05 1.10827386e-07 5.5018812e-05 -0.00024415553 7.016212e-05 -0.00019992888
2.4169683e-05 -0.00015287846 -0.00012686104 8.414965e-05 0.00014425069 0.00032511353 0.00013929605 0.0001680851
0.00033286214 -0.00022344291 2.6777387e-05 -0.00017771125 0.00016384572 -0.00015813112 9.574741e-05 5.498901e-05
0.00013680756 -0.0002500862 0.00023211539 -0.00020055473 -0.00014605373 -9.312481e-05 0.00017248094 0.00024229288
8.801371e-05 0.00037643313 0.00027245283 0.000100165606 0.00036540627 -0.00019584596 5.4314733e-05 -0.00016902387
8.625537e-05 -0.00011224486 0.000110931695 -8.670613e-06 0.00017532706 -0.00015807152 0.00017238781 -9.761751e-05
-9.013037e-05 -4.5615598e-06 0.00026345253 0.00019200146 8.3399937e-07 -1.4008023e-05 -0.00012827665 6.644428e-05
3.194902e-06 -3.1122938e-05 -5.552545e-06 2.6615337e-05 3.3629127e-05 6.8265945e-06 -3.4809113e-05 1.0775868e-05
1.3790559e-06 -8.827448e-05 2.7664937e-05 -7.9371035e-05 1.9846484e-06 -6.566197e-05 -7.315725e-05 2.7405098e-05
3.2824464e-05 0.0003554821 0.0005250871 -7.800758e-05 0.00030502677 -8.441508e-05 7.040799e-05 -0.000175111
-3.8169324e-05 -7.2196126e-05 0.00015766919 -6.6392124e-05 0.00016152859 8.4623694e-05 5.351007e-05 0.00012360513
-4.015863e-05 0.0001654923 0.00039374828 7.406436e-05 3.2937154e-05 0.0001033023 0.00020338595 -4.4470653e-05
8.21501e-05 -1.6713515e-05 1.592841e-05 -7.886812e-05 -4.26732e-06 -4.7937036e-05 6.841123e-05 -4.653237e-06
3.56026e-05 5.154498e-05 2.6855618e-05 5.3569674e-05 -3.883615e-05 6.4294785e-05 0.00014139712 2.7325004e-05
-0.0003118366 -0.0007838607 -2.9999763e-05 -0.000569582 -0.0008420944 0.00062286854 -6.9744885e-05 0.00034360588
-0.00044807792 0.00033344328 -0.00013113022 -0.000115290284 -0.0003668964 0.00082218647 -0.00062409043 0.0006648302
0.0003135316 0.00036785007 -0.00025570393 -0.0006464422 -0.00012773275 -0.00029823184 -0.00044211745 3.2763928e-05
-0.00025963783 0.00010421127 -3.33637e-05 0.00022056699 -5.9194863e-05 0.00015927851 -0.00017128885 -2.4776906e-05
-0.00010283291 -1.8960796e-05 -0.0001378879 -3.179675e-05 0.00013941526 -8.927286e-05 -0.0003283918 -0.00013919175
-0.000102862716 -0.00028511882 -8.593081e-06 -0.00020477176 -0.00030615926 0.00022380054 -2.8256327e-05 0.0001167506
-0.00015426427 0.00011108443 -4.2758882e-05 -3.283471e-05 -0.0001373291 0.00029546022 -0.00022010505 0.00023627281

old_dirs f4 [522]
00000000: 00fc 26b8 00a8 00b8 00cc 1d3a 00a2 6d39
00000010: 000c e239 0084 1f3a 0048 f1b7 007c 7839
00000020: 8032 60b8 00ca 09b9 009c 49b9 00b6 aeb9
00000030: 00ec dcb9 0086 8538 0060 3c39 0000 4b38
00000040: 0000 8338 0008 98b8 6874 8338 007e 03b9
00000050: 00c8 40b8 006e 93b8 00c4 a6b8 0010 b8b9
00000060: 00d0 113a 0000 3539 0028 90b9 40fc 29b8
00000070: 0080 d037 00d0 c638 0090 0a38 000d 3f39
00000080: 0040 6bb7 0094 8e38 00ec e8b9 0050 73b9
00000090: 00dc f439 00c6 ac39 0074 9eb8 00ac 1939
000000a0: 0024 1239 0080 44b8 0024 2bb8 00f0 57b7
000000b0: 00e0 6738 0004 ba38 00c8 dfb7 00ea 84b9
000000c0: 00c8 8b38 0078 94b7 0020 7d37 00c4 9238
000000d0: 00f0 f938 0010 8738 0034 6c39 0020 8bb9
000000e0: 00f8 eb38 00b8 6038 0070 feb8 0084 5db8
000000f0: 00b0 f3b7 000a 8739 0002 04b9 0010 6239
00000100: 004a 9839 0016 50b9 00d0 5a38 0050 3137
00000110: 005c 7338 0030 ff37 00a8 27b8 00e4 67b8
00000120: 0096 3339 00b2 9ab9 0038 c738 003c 52b9
00000130: 0010 3a38 00ba feb8 0008 9937 808e 0e39
00000140: 0020 84b7 00aa 7338 00ae 96b9 0010 4e39
00000150: 0000 d738 0020 00b9 005c fa36 00cc 7c38
00000160: 80bb 9e38 005c 0838 0098 abb8 0080 58b5
00000170: 007c 7f38 003e 89b9 00d2 8d38 005a 5db9
00000180: 0060 f737 005a 2bb9 00ac 0db9 00d2 b638
00000190: 0010 2439 00fc bc39 0088 1d39 0088 4439
000001a0: 00fc c139 0098 81b9 003c f737 004c 4ab9
000001b0: 00ac 3b39 0036 32b9 00d8 db38 0070 7f38
000001c0: 0040 2039 008e 91b9 0094 8139 0030 68b9
000001d0: 0040 23b9 007c dab8 00d4 4539 0024 8a39
000001e0: 00b0 be38 00a4 d539 00b6 9839 0034 e438
000001f0: 00b8 cf39 0048 5db9 00bc 7638 0000 3ab9
00000200: 00ca bd38 00da f0b8 0074 f838 0090 2bb7
00000210: 008c 4839 0060 33b9 0033 3939 00c8 dbb8
00000220: 0049 bdb8 80c5 b1b6 0046 9439 0024 5439
00000230: 0000 1f35 002c 7ab7 002e 10b9 0060 9538
00000240: 0058 7736 00c0 0bb8 0088 c6b6 00d4 eb37
00000250: 0021 1338 00b8 f836 0044 1cb8 009a 4037
00000260: 0050 d035 00b8 c5b8 80b9 e937 00b6 afb8
00000270: 0080 2a36 0018 93b8 0040 a4b8 00a4 ef37
00000280: 00a5 0138 007c c839 002e 133a 0078 b0b8
00000290: 00e8 ab39 00dc bbb8 003c 9f38 0054 3eb9
000002a0: 00b8 31b8 006b 94b8 00cc 2f39 00aa 98b8
000002b0: 0090 3739 0018 bf38 002c 5838 0030 0a39
000002c0: 00f4 18b8 0070 3a39 00d4 dc39 00b8 9e38
000002d0: 0050 1238 0004 e438 0044 6439 00fc 4cb8
000002e0: 0024 b438 0094 8ab7 0076 8c37 00c6 adb8
000002f0: 0010 8fb6 0034 53b8 00f8 9838 0017 a5b6
00000300: 0068 1c38 00ea 6c38 00fc f237 0046 6f38
00000310: 004c 2cb8 0026 9138 00ea 1d39 0054 ef37
00000320: 00d8 aab9 0044 5dba 00d4 efb7 006c 20ba
00000330: 0004 6eba 00ec 2e3a 0014 9eb8 0096 bd39
00000340: 0044 f7b9 0086 b539 00b2 11b9 006c feb8
00000350: 00b0 d0b9 00d4 663a 003e 29ba 003c 393a
00000360: 80f6 a839 0054 ce39 002c 8fb9 00a8 32ba
00000370: 005a 10b9 0080 acb9 006c f9b9 00d0 fe37
00000380: 0020 97b9 00a8 f538 0070 19b8 00d0 7739
00000390: 008c 8cb8 00d2 3139 0004 42b9 0040 e6b7
000003a0: 00e8 f1b8 00b8 5bb7 00a8 1bb9 00e5 e5b7
000003b0: 0010 1b39 0064 c2b8 002c bab9 00da 1fb9
000003c0: 00cc e1b8 00d0 9fb9 802b 12b7 00f8 64b9
000003d0: 00dc abb9 00c8 7939 00dc fbb7 00e6 0039
000003e0: 00de 29b9 0016 f238 0038 3fb8 0020 13b8
000003f0: 00a8 1ab9 00c4 a439 00de 6db9 00e6 8239
-3.9812177e-05 -3.067404e-05 0.0006019473 0.00022662431 0.0004311502 0.0006085038 -2.8762966e-05 0.00023697317
-5.3452794e-05 -0.00013140589 -0.00019226968 -0.00033323467 -0.00042137504 6.366894e-05 0.0001796484 4.839897e-05
6.246567e-05 -7.249415e-05 6.268249e-05 -0.00012540072 -4.596263e-05 -7.029995e-05 -7.952005e-05 -0.00035107136
0.00055623055 0.00017261505 -0.00027495623 -4.0527666e-05 2.4855137e-05 9.480119e-05 3.3035874e-05 0.00018220022
-1.4021993e-05 6.798655e-05 -0.00044426322 -0.00023204088 0.0004670322 0.00032953918 -7.555634e-05 0.00014655292
0.00013937056 -4.684925e-05 -4.0803105e-05 -1.2870878e-05 5.5283308e-05 8.869916e-05 -2.6676804e-05 -0.00025351346
6.6652894e-05 -1.7698854e-05 1.5087426e-05 6.99833e-05 0.00011917949 6.440282e-05 0.00022526085 -0.00026535988
0.00011251867 5.3577125e-05 -0.000121325254 -5.281344e-05 -2.9049814e-05 0.00025756657 -0.00012589246 0.00021559
0.00029046834 -0.00019844621 5.2168965e-05 1.0568649e-05 5.8021396e-05 3.042072e-05 -3.9972365e-05 -5.5287033e-05
0.0001712665 -0.0002950579 9.49949e-05 -0.00020049512 4.4360757e-05 -0.00012146309 1.8242747e-05 0.0001359526
-1.5750527e-05 5.809404e-05 -0.0002873987 0.00019651651 0.00010251999 -0.00012218952 7.461291e-06 6.027147e-05
7.568952e-05 3.251061e-05 -8.1822276e-05 -8.0652535e-07 6.091222e-05 -0.0002617687 6.7625195e-05 -0.0002110973
2.9489398e-05 -0.00016341358 -0.00013510883 8.717552e-05 0.00015646219 0.0003604591 0.0001502335 0.0001874268
0.00036999583 -0.00024718046 2.9472634e-05 -0.00019292533 0.00017897785 -0.0001699552 0.00010482967 6.0901046e-05
0.00015282631 -0.00027762353 0.00024715066 -0.00022143126 -0.00015568733 -0.00010418147 0.0001886636 0.00026348233
9.0926886e-05 0.00040748715 0.000291273 0.00010881573 0.00039619207 -0.00021103024 5.882606e-05 -0.00017738342
9.049848e-05 -0.000114846975 0.00011847168 -1.0225922e-05 0.0001912564 -0.00017106533 0.00017661974 -0.00010479987
-9.0258196e-05 -5.298003e-06 0.00028280914 0.00020231307 5.9232116e-07 -1.4911406e-05 -0.00013750046 7.122755e-05
3.685709e-06 -3.3318996e-05 -5.9166923e-06 2.8112903e-05 3.5078265e-05 7.4123964e-06 -3.725663e-05 1.1479948e-05
1.5520491e-06 -9.427965e-05 2.7862145e-05 -8.3785504e-05 2.540648e-06 -7.0139766e-05 -7.83205e-05 2.8567389e-05
3.0909665e-05 0.0003823936 0.00056144595 -8.414686e-05 0.00032788515 -8.957833e-05 7.592887e-05 -0.00018151104
-4.2371452e-05 -7.07712e-05 0.00016765296 -7.27959e-05 0.00017505884 9.11206e-05 5.153939e-05 0.00013178587
-3.6466867e-05 0.00017780066 0.00042119622 7.5683e-05 3.488362e-05 0.00010872632 0.00021769106 -4.8872083e-05
8.5897744e-05 -1.65198e-05 1.6744249e-05 -8.286163e-05 -4.2635947e-06 -5.035475e-05 7.2941184e-05 -4.9200607e-06
3.7290156e-05 5.6484714e-05 2.8965995e-05 5.7047233e-05 -4.1078776e-05 6.921217e-05 0.00015059859 2.8530136e-05
-0.0003258586 -0.0008440614 -2.858974e-05 -0.0006119609 -0.00090795755 0.000667274 -7.5377524e-05 0.00036160648
-0.00047162175 0.00034622848 -0.00013894588 -0.000121317804 -0.00039803982 0.0008805394 -0.0006456077 0.00070661306
0.00032227114 0.00039353967 -0.00027307868 -0.0006815195 -0.00013766438 -0.00032901764 -0.00047573447 3.0376017e-05
-0.00028824806 0.00011713803 -3.658235e-05 0.00023633242 -6.701797e-05 0.00016958266 -0.00018502772 -2.7447939e-05
-0.00011534989 -1.3096258e-05 -0.00014844537 -2.7405564e-05 0.00014787912 -9.269267e-05 -0.00035509467 -0.00015244633
-0.00010766834 -0.00030481815 -8.712406e-06 -0.00021836162 -0.00032779574 0.00023820996 -3.0023977e-05 0.00012292713
-0.00016199797 0.00011543557 -4.5590103e-05 -3.5077333e-05 -0.0001474917 0.0003142655 -0.00022684783 0.00024966896

old_dirs f4 [522]
00000000: 00a4 14b8 00b0 d7b7 0010 263a 000e 7939
00000010: 004c ed39 00f8 273a 00a8 ffb7 0058 8339
00000020: c04c 38b8 00ba 08b9 0098 50b9 00ee b5b9
00000030: 0018 e8b9 0086 8d38 00f0 3639 0020 3038
00000040: 0088 8c38 001d 94b8 90d2 8038 00c2 06b9
00000050: 00fc 42b8 007a 9bb8 0098 adb8 0028 c0b9
00000060: 0084 1c3a 00a0 4639 0020 96b9 8026 31b8
00000070: 0020 3338 00e8 ea38 00e0 aa37 0095 3639
00000080: 0020 32b7 0078 9438 0020 f2b9 00f4 7bb9
00000090: 0084 003a 0014 b539 0028 a1b8 00c5 1d39
000000a0: 00cc 1939 0020 87b8 0030 45b8 00b0 92b7
000000b0: 0028 8238 00a0 ca38 00b8 e3b7 00c2 8cb9
000000c0: 00e8 9938 00b4 a8b7 005c 7a37 0094 9b38
000000d0: 0016 0339 0024 9338 0098 7b39 0034 97b9
000000e0: 00a4 ed38 0088 7e38 0048 0bb9 006c 62b8
000000f0: 0048 0ab8 00fe 8b39 0084 0bb9 00ae 6a39
00000100: 0012 9e39 00ea 56b9 00f2 6138 0060 6137
00000110: 00ea 6d38 00d8 1438 002c 30b8 0024 70b8
00000120: 00b0 3a39 00ea 9fb9 00c8 b838 0074 56b9
00000130: 00e8 5538 00fa 03b9 0050 9237 0079 0e39
00000140: 0080 9eb7 00f9 8538 0044 9eb9 0060 5939
00000150: 00b8 e838 0066 07b9 00c0 0d37 001e 8538
00000160: 80ff 9e38 0050 1938 0040 b4b8 0040 f7b5
00000170: 0060 8a38 0012 90b9 0046 8438 00b2 64b9
00000180: 00d8 1138 005c 33b9 00b8 13b9 801a b938
00000190: 0034 2e39 00d4 cc39 0070 2639 0038 5639
000001a0: 00d4 d239 0036 8cb9 000a 0538 0004 57b9
000001b0: 0090 4839 0082 3bb9 0088 eb38 0060 8a38
000001c0: 00e8 2e39 000c 9eb9 0018 8739 00c0 7ab9
000001d0: 005a 2ab9 00d8 eeb8 00b0 5339 000a 9339
000001e0: 0072 c038 0094 e239 00d0 9f39 00a0 f238
000001f0: 0090 dc39 006c 69b9 00be 8238 0010 3fb9
00000200: 00e8 c238 00b3 f0b8 00e0 0139 0038 44b7
00000210: 0024 5639 0000 3eb9 006a 3939 002c e7b8
00000220: 40c9 b8b8 00e7 c9b6 00e4 9b39 00d8 5a39
00000230: 0000 a534 0044 82b7 0058 17b9 00d6 9c38
00000240: 0078 8a36 009e 12b8 0010 cfb6 0008 f437
00000250: 00d4 1538 00f8 0337 00c4 23b8 0070 4837
00000260: 0098 e335 008c ceb8 0021 e537 0076 b5b8
00000270: 0020 5136 00ca 99b8 0014 acb8 0076 f437
00000280: 000c eb37 00fc d239 0026 1a3a 0090 bab8
00000290: 00ec b439 00d4 c2b8 0004 a838 000a 41b9
000002a0: 0028 41b8 0086 8db8 000c 3739 00ca a3b8
000002b0: 00c4 4239 0038 c938 0008 4a38 003e 1039
000002c0: 0014 04b8 00fc 4339 0058 e739 004e 9e38
000002d0: 00b0 1738 0010 eb38 0034 6f39 0070 5cb8
000002e0: 001c b838 00dc 84b7 006e 9037 00b4 b2b8
000002f0: 0030 89b6 003e 59b8 00b0 9f38 0097 aab6
00000300: 007c 2038 008a 7d38 007a 0038 0030 7938
00000310: 0064 32b8 00f4 9838 008e 2439 00c0 f437
00000320: 00b6 aeb9 0028 69ba 00a0 ddb7 0094 28ba
00000330: 0038 7bba 006c 373a 001c a7b8 0060 c339
00000340: 00c8 feb9 0067 b839 0016 17b9 0020 03b9
00000350: 0090 ddb9 00f8 713a 0030 2bba 00a4 403a
00000360: 00c8 a939 002c d839 009c 95b9 0064 38ba
00000370: 0056 18b9 000c bab9 004a 03ba 0040 e237
00000380: 00fc a3b9 00e0 0639 0080 24b8 00f6 8139
00000390: 0050 9bb8 007a 3939 0038 4db9 00e0 f9b7
000003a0: 007a 04b9 0060 d1b6 0006 24b9 0091 b5b7
000003b0: 000e 2139 0094 c5b8 0018 c5b9 0048 2bb9
000003c0: 0030 e7b8 0058 a7b9 0019 12b7 0020 6fb9
000003d0: 001c b4b9 0024 8239 00ec 02b8 00ce 0439
000003e0: 0094 2eb9 000e f638 00a4 47b8 00b8 19b8
000003f0: 009c 22b9 0094 ab39 0096 6fb9 0068 8739
-3.5438687e-05 -2.5711954e-05 0.00063347816 0.00023751706 0.00045260787 0.00064074993 -3.04766e-05 0.00025051832
-4.3940498e-05 -0.00013039261 -0.0001989305 -0.00034700334 -0.0004426837 6.7483634e-05 0.0001744628 4.1991472e-05
6.701052e-05 -7.0625916e-05 6.142736e-05 -0.00012851506 -4.6487898e-05 -7.4137e-05 -8.277595e-05 -0.00036650896
0.0005970597 0.00018942356 -0.0002863407 -4.2235944e-05 4.2706728e-05 0.00011201203 2.0369887e-05 0.0001741238
-1.0617077e-05 7.079542e-05 -0.0004618168 -0.00024028122 0.0004902482 0.0003453791 -7.684529e-05 0.00015046075
0.00014667213 -6.443262e-05 -4.7013164e-05 -1.7486513e-05 6.206334e-05 9.661913e-05 -2.714619e-05 -0.00026847422
7.338822e-05 -2.011098e-05 1.4922582e-05 7.418543e-05 0.00012501329 7.016212e-05 0.0002399385 -0.00028839707
0.00011331588 6.068498e-05 -0.00013282895 -5.398318e-05 -3.296882e-05 0.0002670139 -0.00013305247 0.00022380799
0.0003014952 -0.00020495802 5.386956e-05 1.3433397e-05 5.6723133e-05 3.5487115e-05 -4.2002648e-05 -5.7253987e-05
0.00017803907 -0.00030501187 8.8110566e-05 -0.00020451844 5.0999224e-05 -0.00012586266 1.744181e-05 0.00013587251
-1.8894672e-05 6.388314e-05 -0.00030186772 0.00020730495 0.00011096895 -0.00012912601 8.448958e-06 6.347522e-05
7.581618e-05 3.655255e-05 -8.59499e-05 -1.842156e-06 6.598234e-05 -0.0002747923 6.307289e-05 -0.00021810085
3.477186e-05 -0.00017105043 -0.00014087558 8.8264234e-05 0.00016613305 0.00039067864 0.00015872717 0.00020429492
0.00040212274 -0.00026743114 3.1718984e-05 -0.00020505488 0.0001912713 -0.00017882138 0.00011231005 6.598234e-05
0.0001668036 -0.0003014505 0.00025767088 -0.00023913383 -0.00016245991 -0.000113889575 0.00020188093 0.00028045475
9.1765076e-05 0.00043216348 0.00030481815 0.000115692616 0.00042068958 -0.00022260845 6.234273e-05 -0.0001822114
9.293854e-05 -0.00011477433 0.00012385845 -1.1695549e-05 0.00020422041 -0.00018119812 0.00017682463 -0.00011023134
-8.8112894e-05 -6.0171587e-06 0.00029733777 0.00020870566 3.0733645e-07 -1.5528873e-05 -0.00014433265 7.47852e-05
4.1266903e-06 -3.495626e-05 -6.1709434e-06 2.9090792e-05 3.572181e-05 7.8659505e-06 -3.9044768e-05 1.1947006e-05
1.6957056e-06 -9.8489225e-05 2.7314294e-05 -8.652732e-05 3.1162053e-06 -7.333234e-05 -8.2053244e-05 2.9142015e-05
2.8019771e-05 0.00040242076 0.0005880296 -8.895993e-05 0.0003450811 -9.290129e-05 8.011609e-05 -0.0001840964
-4.605204e-05 -6.7483634e-05 0.0001745671 -7.810071e-05 0.00018574297 9.594858e-05 4.8168004e-05 0.00013756007
-3.148988e-05 0.00018690526 0.00044125319 7.548556e-05 3.616512e-05 0.000112086535 0.00022812188 -5.2556396e-05
8.779019e-05 -1.5838072e-05 1.721736e-05 -8.521229e-05 -4.088506e-06 -5.1794574e-05 7.6144934e-05 -5.0839735e-06
3.8262457e-05 6.0448423e-05 3.06312e-05 5.941093e-05 -4.253164e-05 7.293373e-05 0.00015693158 2.9176474e-05
-0.00033323467 -0.0008894205 -2.6419759e-05 -0.0006430745 -0.0009583235 0.0006996989 -7.968396e-05 0.00037264824
-0.00048595667 0.00035171956 -0.00014408678 -0.00012505054 -0.00042259693 0.0009230375 -0.0006530285 0.00073486567
0.00032383204 0.00041231513 -0.00028535724 -0.0007033944 -0.00014527887 -0.00035485625 -0.000500828 2.6971102e-05
-0.00031277537 0.00012862682 -3.9219856e-05 0.00024788082 -7.405877e-05 0.00017688423 -0.00019571185 -2.9787421e-05
-0.0001263395 -6.2398612e-06 -0.00015642494 -2.1644402e-05 0.00015359372 -9.421259e-05 -0.0003759265 -0.00016334653
-0.00011023879 -0.00031918287 -8.708099e-06 -0.00022804737 -0.00034353137 0.00024822354 -3.1214207e-05 0.00012665242
-0.00016649067 0.00011732802 -4.7598034e-05 -3.6649406e-05 -0.00015507638 0.0003272593 -0.00022848696 0.00025826693
