tutorials/tutorial 5/lightning_logs/version_24/checkpoints/epoch=4-step=5.ckpt (torch, 518805 bytes, 206 tensors)

_pina_model._model.model.0.weight f4 [20, 2]
-0.1698117 -0.13201846 -0.15119621 -0.65990055 0.40953958 -0.5992515 -0.5788832 0.3857545
0.12461901 -0.31382895 -0.36353785 -0.09160595 0.7244051 0.022420567 -0.39733598 -0.14679226
0.07512041 -0.54931337 0.09370104 0.5751174 0.34918317 0.5925253 0.3059459 -0.27028155
0.3904998 -0.30172467 -0.36387867 0.28016633 -0.17244563 -0.13386643 0.0011137263 -0.6104235
0.62313396 0.56357026 -0.6966652 -0.45670015 -0.27263042 0.55349195 0.38869888 0.02956255
00000000: 1ee3 2dbe d92f 07be 2ed3 1abe 3eef 28bf
00000010: 2caf d13e 8c68 19bf b031 14bf 9d81 c53e
00000020: 4038 ff3d 30ae a0be a221 babe e69b bbbd
00000030: 9d72 393f 56ab b73c 9f6f cbbe b650 16be
00000040: bbd8 993d cd9f 0cbf 55e6 bf3d e53a 133f
00000050: 23c8 b23e bdaf 173f f1a4 9c3e 5862 8abe
00000060: 97ef c73e a87b 9abe 4e4e babe f671 8f3e
00000070: 9695 30be 4814 09be 74fa 913a b744 1cbf
00000080: b585 1f3f 2446 103f a758 32bf 9ad4 e9be
00000090: 3796 8bbe a6b1 0d3f 8a03 c73e 292d f23c

_pina_model._model.model.0.bias f4 [20]
-0.28833887 -0.5231358 0.116274446 -0.29919782 -0.31134224 -0.61125225 0.52284086 -0.531723
-0.6055187 -0.062018745 0.34434456 0.5644321 -0.06613379 -0.46403304 -0.30130693 0.43199
-0.37288103 -0.18017809 0.68679667 -0.35940412
00000000: 27a1 93be 3aec 05bf 4c21 ee3d 7530 99be
00000010: 4068 9fbe 077b 1cbf e6d8 053f 001f 08bf
00000020: 4603 1bbf 5e07 7ebd ee4d b03e 9f7e 103f
00000030: 2771 87bd bd95 edbe e744 9abe cb2d dd3e
00000040: 43ea bebe 9b80 38be e8d1 2f3f d103 b8be

_pina_model._model.model.2.weight f4 [20, 20]
-0.021008564 0.1485517 -0.21061477 -0.0072038057 0.1396794 -0.12796356 -0.11455828 -0.09597492
0.0068665342 -0.05129859 0.17285477 -0.06543197 -0.09553995 -0.21754178 -0.17497256 0.030361427
0.15007436 -0.14205205 -0.13134852 0.059812736 0.19052282 -0.12285426 -0.061038107 0.00856014
0.16021408 -0.20436457 0.062291745 -0.16820206 0.19634694 0.21090992 0.1447018 -0.21943147
-0.20240182 -0.1741788 0.046455678 0.13706265 -0.07144849 -0.13651961 0.10451183 -0.12852466
0.09723176 -0.14764121 -0.15207855 0.050421793 0.16141501 -0.21897389 -0.017504403 -0.17562239
0.17588136 -0.042582095 0.18453556 0.0700129 -0.11228062 -0.16395028 -0.10362547 0.08944952
-0.0844739 0.00015499585 0.16611248 0.21426141 0.17309928 0.00079169084 0.18140252 0.08469205
0.14927547 -0.09008138 -0.17851873 -0.027119577 -0.14216879 -0.20510349 0.06951136 -0.1988764
-0.025144894 0.13517833 0.20993158 0.2017588 -0.031997528 0.04957297 -0.10576478 -0.020289306
0.036845334 0.22093529 0.19783711 0.01577671 -0.03401438 0.107784376 -0.19138296 0.0066559697
0.19528432 -0.2114249 -0.07995578 0.13393907 -0.10448314 0.17458338 -0.21061562 -0.08818967
-0.11583801 0.11421079 -0.020851461 0.031563297 0.11232409 -0.012116267 -0.19105302 -0.19901882
-0.097177275 0.16658875 0.20039806 -0.005596369 -0.037180588 0.064354 -0.08129439 0.14500411
-0.048220903 0.21202528 0.14159414 0.22329043 -0.04908283 -0.032953195 -0.15266138 -0.014389221
0.18754564 0.025473027 0.18097372 0.1894712 -0.13215077 0.14226006 0.10423295 0.022407573
-0.18413402 -0.2121639 -0.22116144 -0.037591156 -0.08036652 -0.15672621 -0.073496945 -0.1578648
-0.07959604 -0.071663335 0.0230434 0.21568708 -0.03924939 -0.025475666 0.16145413 0.1150176
0.10417393 0.08591956 -0.16776559 -0.1397937 0.0899201 0.21373095 0.20898505 -0.21623333
0.13544382 -0.17534415 0.15082057 -0.18387583 -0.009456157 -0.091074705 0.16033998 0.12605351
-0.078915834 0.1193692 -0.11136133 0.20705003 0.13808686 -0.13026768 0.10658628 -0.09811987
-0.1145549 0.19073184 -0.12703209 -0.1568758 -0.15386723 0.12871172 0.21649091 -0.068814084
0.18186091 -0.15081412 0.009687005 0.0751374 -0.05642431 0.030840246 0.1226728 -0.102769144
-0.15113157 -0.022405136 -0.21157463 0.09131287 -0.14927402 -0.13084184 -0.17146166 0.05779867
0.14348169 -0.1786996 0.09421321 -0.15761437 -0.14559568 0.0050943806 0.058095023 0.15581886
-0.13210452 -0.0021538178 -0.0843296 0.013183329 -0.17601368 -0.14788212 0.06322239 -0.120604314
-0.03473414 -0.043885764 0.006798734 -0.0429241 0.0386075 0.14822032 0.19542536 -0.05236896
0.10022818 -0.031052953 0.19667363 0.09901505 0.13782896 0.091283515 -0.07928844 -0.011130939
0.20000239 0.1334906 0.2107075 0.22157045 -0.15810119 -0.12344423 -0.17932604 -0.117924735
0.15959103 0.037892666 0.12203353 0.006898351 -0.18750319 -0.1417058 -0.15345506 0.03924777
-0.17774624 0.19617385 0.1947418 0.13907045 0.019911002 -0.05789241 0.10655708 0.13777791
-0.012087777 -0.09767877 -0.18176235 0.040458146 0.0962917 -0.10004323 0.20659901 -0.1779855
00000000: 271a acbc f01d 183e 66ab 57be e70d ecbb
00000010: 1e08 0f3e e108 03be 889d eabd 808e c4bd
00000020: aa00 e13b 781e 52bd d700 313e 3201 86bd
00000030: 73aa c3bd 46c3 5ebe 022c 33be 87b8 f83c
00000040: 18ad 193e 1876 11be 3a80 06be 33fe 743d
00000050: 6a18 433e 049b fbbd 1803 7abd d43f 0c3c
00000060: 290f 243e f244 51be a125 7f3d 293d 2cbe
00000070: 2c0f 493e c5f8 573e b52c 143e a5b2 60be
00000080: 6c42 4fbe ed5b 32be 4f48 3e3d 275a 0c3e
00000090: 9653 92bd cccb 0bbe 4c0a d63d f89b 03be
000000a0: 7221 c73d 422f 17be 7bba 1bbe 1587 4e3d
000000b0: fa49 253e b13a 60be 6565 8fbc 5bd6 33be
000000c0: 3e1a 343e 906a 2ebd e4f6 3c3e ec62 8f3d
000000d0: 62f3 e5bd 95e2 27be 9739 d4bd 4f31 b73d
000000e0: a700 adbd 6286 2239 6419 2a3e 5867 5b3e
000000f0: f040 313e 7989 4f3a 95c1 393e 0773 ad3d
00000100: abdb 183e 967c b8bd 9dcd 36be e029 debc
00000110: b294 11be a606 52be f95b 8e3d 41a6 4bbe
00000120: aafc cdbc 306c 0a3e 4ef8 563e dc99 4e3e
00000130: d70f 03bd 070d 4b3d 349b d8bd c235 a6bc
00000140: 22eb 163d dc3c 623e d095 4a3e 293e 813c
00000150: aa52 0bbd 0ebe dc3d e5f9 43be 521a da3b
00000160: 9df8 473e c57f 58be dbbf a3bd 5327 093e
00000170: 42fb d5bd fcc5 323e 9fab 57be c99c b4bd
00000180: 7b3c edbd 59e7 e93d afd0 aabc 8448 013d
00000190: 2c0a e63d 4f83 46bc 67a3 43be 97cb 4bbe
000001a0: e104 c7bd 3e96 2a3e 2635 4d3e bf61 b7bb
000001b0: ac4a 18bd 08cc 833d ac7d a6bd f57b 143e
000001c0: 4883 45bd 281d 593e 0efe 103e 3fa6 643e
000001d0: 140b 49bd eef9 06bd 4453 1cbe c4c0 6bbc
000001e0: f70b 403e cfac d03c 2d51 393e bd04 423e
000001f0: 8852 07be 9fac 113e 1678 d53d 1690 b73c
00000200: a18d 3cbe 7e41 59be 2578 62be 2ff9 19bd
00000210: 3497 a4bd d67c 20be 9185 96bd 4fa7 21be
00000220: 4003 a3bd 3ac4 92bd 83c5 bc3c 13dd 5c3e
00000230: f8c3 20bd 58b2 d0bc 3b54 253e 598e eb3d
00000240: 2459 d53d 98f6 af3d beca 2bbe 1426 0fbe
00000250: 0828 b83d 49dc 5a3e 2d00 563e 456c 5dbe
00000260: c9b1 0a3e 6b8d 33be b570 1a3e f249 3cbe
00000270: ffed 1abc 6085 babd 2a30 243e 2c14 013e
00000280: a09e a1bd d777 f43d 6911 e4bd ec04 543e
00000290: a466 0d3e e464 05be e849 da3d 12f3 c8bd
000002a0: c29b eabd 354f 433e b314 02be 0da4 20be
000002b0: 5f8f 1dbe 01cd 033e cbaf 5d3e 66ee 8cbd
000002c0: bf39 3a3e 046f 1abe 3eb6 1e3c a3e1 993d
000002d0: 2d1d 67bd afa4 fc3c e13b fb3d a178 d2bd
000002e0: 3cc2 1abe fa8a b7bc 05a7 58be 3e02 bb3d
000002f0: 4adb 18be 67fb 05be a593 2fbe 4cbe 6c3d
00000300: ddec 123e 07fd 36be dbf2 c03d a965 21be
00000310: 0917 15be c3ee a63b 0cf5 6d3d fb8e 1f3e
00000320: 6846 07be 1127 0dbb ffb4 acbd e4fe 573c
00000330: ee3c 34be 696e 17be be7a 813d 65ff f6bd
00000340: 6345 0ebd 8fc1 33bd eac7 de3b 2ed1 2fbd
00000350: e622 1e3d 11c7 173e 961d 483e d680 56bd
00000360: 6f44 cd3d c362 febc d064 493e 67c8 ca3d
00000370: 0923 0d3e daf2 ba3d fa61 a2bd 8b5e 36bc
00000380: 6dcd 4c3e c3b1 083e b5c3 573e 5de3 623e
00000390: 47e5 21be 54d0 fcbd 3fa1 37be 8682 f1bd
000003a0: d56b 233e 5735 1b3d b7ec f93d 900b e23b
000003b0: d600 40be 531b 11be 5323 1dbe 45c2 203d
000003c0: 1c03 36be cce1 483e 656a 473e 7c68 0e3e
000003d0: 661c a33c 9720 6dbd 993a da3d a715 0d3e
000003e0: d00b 46bc cf0b c8bd e91f 3abe 71b7 253d
000003f0: 9534 c53d 77e3 ccbd b18e 533e d541 36be

_pina_model._model.model.2.bias f4 [20]
0.07524044 0.016570821 0.07580394 -0.14540465 0.058066197 0.034245092 -0.109064214 0.03336806
0.0019484247 -0.03765218 -0.22193554 -0.10253299 0.17067933 0.10900816 -0.081581645 0.18589272
0.07149912 0.14756073 0.17655952 0.21552947
00000000: a917 9a3d 88bf 873c 193f 9b3d f5e4 14be
00000010: d2d6 6d3d 9544 0c3d 0f5d dfbd f2ac 083d
00000020: 4962 ff3a 2c39 1abd 1243 63be d1fc d1bd
00000030: 90c6 2e3e ac3f df3d 4714 a7bd a95a 3e3e
00000040: 216e 923d 291a 173e 05cc 343e c2b3 5c3e

_pina_model._model.model.4.weight f4 [2, 20]
0.07717973 0.034768194 -0.13395628 -0.01960832 0.044565327 -0.044973142 0.034209665 0.17672601
-0.07626752 -0.08594155 0.16265349 -0.14050493 -0.17212865 -0.18320766 0.21633448 0.15883273
0.18753478 0.08478279 -0.12821132 0.11872563 -0.068289205 -0.24047197 -0.10262485 -0.016665712
-0.04722803 -0.20424587 0.23098333 -0.23443851 -0.013358263 0.1897284 -0.07883655 -0.025399
-0.105681285 -0.2156737 -0.014821296 0.20806448 -0.23441017 -0.08889798 0.07791543 0.03898775
00000000: 6810 9e3d 1869 0e3d d62b 09be a1a1 a0bc
00000010: 228a 363d c235 38bd 6f1f 0c3d aaf7 343e
00000020: 2532 9cbd 2002 b0bd a38e 263e 86e0 0fbe
00000030: 7e42 30be ca9a 3bbe c986 5d3e 0ca5 223e
00000040: 1e09 403e 99a2 ad3d d449 03be 6c26 f33d
00000050: 36db 8bbd 493e 76be fa2c d2bd 8886 88bc
00000060: 2e72 41bd d425 51be e586 6c3e a610 70be
00000070: 9edc 5abc 2948 423e 0f75 a1bd 9011 d0bc
00000080: 6e6f d8bd 91d9 5cbe 05d5 72bc db0e 553e
00000090: 3809 70be 2510 b6bd 2092 9f3d 9eb1 1f3d

_pina_model._model.model.4.bias f4 [2]
-0.06673578 0.15503527
00000000: c5ac 88bd 91c1 1e3e

d f4 [522]
-0.057421863 -0.0066979784 0.0103972675 -0.003846129 0.009990993 -0.049895715 -0.024599789 0.031239135
-0.1248535 0.07245091 -0.04098376 -0.019494645 0.1821684 -0.036639836 0.031054227 -0.0010988459
-0.07647776 0.07237614 -0.00766354 0.099705055 0.036379796 0.10973923 0.07279357 -0.042130258
0.0062170867 -0.010308621 -0.013954198 -0.010087491 -0.04680998 0.018690407 -0.023569431 -0.056057516
0.15139152 0.14772154 0.034505073 0.027634872 -0.053765472 0.051261656 0.043769848 0.0418533
-0.09331721 0.030670004 -0.09935199 -0.0271065 -0.075592235 -0.004629637 -0.07792665 -0.05716155
-0.04772575 0.055787567 -0.023838557 0.010676104 0.0020706875 -0.015669823 -0.07833695 -0.006710102
0.20752746 0.0016492147 -0.0098338425 0.053456094 -0.013502496 -0.024944684 0.0048069693 -0.009018683
-0.013193162 -0.027783947 0.022265835 -0.025264736 -0.025730638 -0.001032636 0.017981183 0.022359375
-0.0030533215 -0.018213175 -0.01437892 0.014141616 -0.019624313 -0.011370461 0.027504822 -0.015854537
0.07845519 0.049315747 -0.036271255 0.04536718 0.040222198 0.10447018 -0.064391404 0.09893323
0.05638794 -0.017038122 -0.046683993 -0.077889584 -0.040259384 0.07063838 0.07927202 0.0021007687
-0.048964985 0.0314291 -0.023551675 -0.032685257 0.009731284 -0.031943273 -0.012907243 -0.023373745
-0.0011365826 0.007592449 0.03527357 0.002766943 -0.01540606 0.029663108 0.040904682 -0.004554883
-0.009772533 0.00025996947 0.009784664 -0.005271051 0.046200003 -0.06144368 0.029935898 -0.0034918045
0.01349219 0.014943451 -0.008076205 0.0100092655 0.009565365 0.022762487 -0.016145026 0.020873223
0.016672986 0.0021329892 -0.011053636 -0.01920196 -0.0032027003 0.016528867 0.013971379 -0.010848419
0.0079836445 0.0063831513 -0.014121078 0.0055703092 -0.00545729 -0.0020860764 0.013406799 -0.004418285
-0.0025464229 -0.014762543 0.0047182343 -0.010943551 -0.0065845926 -0.017924638 -0.004664071 0.016753297
0.0019033339 -0.013176736 -0.00590916 0.023228174 -0.03520748 0.014491105 0.007799822 -0.01428129
0.068621725 0.023706459 -0.01620613 0.004786109 0.036015105 0.08416736 -0.022916822 0.07772642
0.03826722 -0.011912792 -0.017520335 -0.052470233 -0.028283352 0.043627694 0.06923323 0.022907862
-0.02623786 -0.0098787695 -0.003722131 -0.03162173 -0.047611874 0.0069070915 0.018342134 0.0044928505
-0.018161593 -0.051179983 -0.0043389257 -0.046351552 -0.008662913 -0.0018704695 -0.010236944 0.030733056
0.029338637 -0.025460228 -0.04763847 -0.02044458 0.01627041 0.031820647 -0.023890158 0.035332277
0.036352955 0.02139336 0.0049530636 0.015508194 0.020106925 0.034453463 -0.025662074 0.036170237
0.020165306 -0.03706472 -0.03115653 -0.017144397 -0.01710538 0.017933108 0.035637975 0.036705133
-0.085390404 0.032433208 -0.00107465 -0.03955001 -0.02295023 -0.06448257 -0.0074930396 -0.03686044
-0.027700689 -0.04079727 0.06502827 -0.042312577 -0.054196656 0.03342917 0.065354005 0.03206419
-0.007751999 -0.030606572 -0.023522446 0.005895898 0.040099896 -0.07394011 0.060852278 -0.012062216
-0.04042519 -0.015113463 0.009913792 -0.014118689 -0.01896107 -0.045007907 0.02120966 -0.0434359
-0.019259606 0.017854517 0.01845372 0.028481988 0.022512864 -0.026289677 -0.040258575 -0.020774694
00000000: 3033 6bbd b77a dbbb 4d59 2a3c 560f 7cbb
00000010: 43b1 233c 735f 4cbd 7f85 c9bc 37e9 ff3c
00000020: 31b3 ffbd 2561 943d 96de 27bd 3cb3 9fbc
00000030: 5a8a 3a3e a713 16bd 6f65 fe3c 2607 90ba
00000040: 5fa0 9cbd f139 943d 6f1e fbbb 2a32 cc3d
00000050: fb02 153d f6be e03d cc14 953d c790 2cbd
00000060: b4b8 cb3b 7ee5 28bc 26a0 64bc 0146 25bc
00000070: d2bb 3fbd a01c 993c ae14 c1bc 919c 65bd
00000080: 6106 1b3e 5144 173e 3155 0d3d 8762 e23c
00000090: 2f39 5cbd bef7 513d 0348 333d 5e6e 2b3d
000000a0: 181d bfbd a93f fb3c 0e79 cbbd 730e debc
000000b0: 1ad0 9abd 36b4 97bb 0298 9fbd 3b22 6abd
000000c0: 137c 43bd 8181 643d 1449 c3bc d3ea 2e3c
000000d0: 5fb4 073b 005e 80bc 1f6f a0bd 6ae0 dbbb
000000e0: 1482 543e 762a d83a 201e 21bc c7f4 5a3d
000000f0: 9339 5dbc cb58 ccbc c883 9d3b 19c3 13bc
00000100: 2228 58bc 299b e3bc d766 b63c fef7 cebc
00000110: 0fc9 d2bc 8459 87ba 464d 933c 022b b73c
00000120: 3c1a 48bb cc33 95bc 9095 6bbc 3db2 673c
00000130: 2bc3 a0bc 2c4b 3abc cb51 e13c 60e1 81bc
00000140: 1dad a03d 4fff 493d 2b91 14bd f0d2 393d
00000150: 08c0 243d 76f4 d53d a4df 83bd 819d ca3d
00000160: 0af7 663d 8893 8bbc b737 3fbd 9384 9fbd
00000170: 06e7 24bd dbaa 903d 5e59 a23d 0dad 093b
00000180: 828f 48bd cdbb 003d 71ef c0bc fae0 05bd
00000190: f76f 1f3c f3d6 02bd e778 53bc 4c7a bfbc
000001a0: 62f9 94ba 14ca f83b 057b 103d 9a55 353b
000001b0: b369 7cbc 0c00 f33c ab8b 273d 2141 95bb
000001c0: f91c 20bc 834c 8839 db4f 203c c8b8 acbb
000001d0: 373c 3d3d 5eac 7bbd 213c f53c c2d6 64bb
000001e0: 590e 5d3c 60d5 743c 0f52 04bc e7fd 233c
000001f0: 0cb8 1c3c 6578 ba3c 9342 84bc 52fe aa3c
00000200: c995 883c 9fc9 0b3b 4f1a 35bc 6e4d 9dbc
00000210: 65e4 51bb 8c67 873c 36e8 643c 91bd 31bc
00000220: d5cd 023c c129 d13b 185c 67bc 2487 b63b
00000230: 11d3 b2bb 8eb6 08bb 31a8 5b3c 43c7 90bb
00000240: e3e1 26bb 98de 71bc 6b9b 9a3b 944c 33bc
00000250: 91c3 d7bb b1d6 92bc 10d5 98bb 363e 893c
00000260: 4a79 f93a 3de3 57bc a0a1 c1bb 0349 be3c
00000270: b835 10bd 1a6c 6d3c a695 ff3b 12fc 69bc
00000280: 8c89 8c3d 0c34 c23c b8c2 84bc cbd4 9c3b
00000290: 9384 133d f05f ac3d 0fbc bbbc 072f 9f3d
000002a0: 17be 1c3d df2d 43bc ce86 8fbc 07eb 56bd
000002b0: 7db2 e7bc f4b2 323d 27ca 8d3d 45a9 bb3c
000002c0: c8f0 d6bc 90da 21bc ffee 73bb ca85 01bd
000002d0: ab04 43bd e254 e23b 3e42 963c c338 933b
000002e0: 9fc7 94bc 1aa2 51bd 8c2d 8ebb 20db 3dbd
000002f0: e4ee 0dbc 8b2a f5ba dbb8 27bc e4c3 fb3c
00000300: 9557 f03c f891 d0bc 8e20 43bd 647b a7bc
00000310: 8649 853c 5e56 023d 4bb5 c3bc 94b8 103d
00000320: d6e6 143d 2141 af3c 4f4d a23b 1516 7e3c
00000330: 47b7 a43c 131f 0d3d 4539 d2bc 3e27 143d
00000340: b631 a53c 2dd1 17bd fb3b ffbc 6872 8cbc
00000350: 9520 8cbc 74e8 923c 20f9 113d 1f58 163d
00000360: 2ae1 aebd afd8 043d 45db 8cba 31ff 21bd
00000370: 1f02 bcbc 700f 84bd 2c88 f5bb f9fa 16bd
00000380: 8eec e2bc 0a1b 27bd 8b2d 853d f44f 2dbd
00000390: 50fd 5dbd 06ed 083d 52d8 853d bd55 033d
000003a0: 7b04 febb a2ba fabc 25b2 c0bc 6132 c13b
000003b0: ca3f 243d ea6d 97bd 3d40 793d 9aa0 45bc
000003c0: e294 25bd 759e 77bc 756d 223c 1352 67bc
000003d0: 3f54 9bbc 365a 38bd e2bf ad3c d8e9 31bd
000003e0: 52c6 9dbc a343 923c 412c 973c 0f53 e93c
000003f0: e66c b83c 735d d7bc 2de6 24bd b12f aabc

old_dirs f4 [522]
2.0358711e-06 2.7967617e-06 1.48182735e-05 9.849668e-06 2.3938715e-05 2.2975728e-05 1.0984018e-05 1.38394535e-05
-2.9318035e-05 -2.9500574e-05 1.2099743e-05 1.5042722e-05 -1.6849488e-05 -2.425164e-05 1.1436641e-05 1.3101846e-05
-4.3541193e-05 -3.2592565e-05 -4.390627e-05 -3.656745e-05 -2.3826957e-05 -1.8760562e-05 6.709248e-06 5.127862e-06
-1.6031787e-05 -2.059713e-05 1.5115365e-05 2.4270266e-05 -1.5655532e-05 -1.5631318e-05 -2.1880493e-05 -2.4080276e-05
-3.382191e-05 -3.3065677e-05 8.728355e-06 1.0415912e-05 -3.3035874e-05 -2.001226e-05 8.027069e-06 6.6859648e-06
4.905276e-06 3.091991e-05 4.5254827e-05 2.379343e-05 -5.789101e-05 3.0320138e-05 -4.5508146e-05 3.0066818e-05
-8.161366e-05 -8.419901e-05 -5.313009e-05 1.1499971e-05 -3.4295022e-05 3.773719e-05 -2.9668212e-05 -4.287809e-05
-6.972626e-05 2.5848858e-05 -5.5119395e-05 1.4999881e-05 2.6889145e-05 4.7251582e-05 -1.5796395e-06 2.3325905e-05
2.4344772e-05 4.5392662e-05 -4.5921654e-05 4.3913722e-05 4.415959e-05 -1.7190352e-05 -4.319474e-05 -3.3959746e-05
8.4565545e-07 3.0066818e-05 2.7745962e-05 -7.4426644e-06 -1.225248e-05 4.0337443e-05 -4.370883e-05 9.625219e-06
4.836172e-05 8.5778534e-05 -4.662201e-06 4.420057e-05 4.342571e-05 8.235872e-05 -8.446723e-05 7.9639256e-05
7.9765916e-05 -2.9984862e-05 -7.849187e-05 -6.251782e-05 8.298084e-07 5.5663288e-05 4.9866736e-05 -1.5733764e-05
-2.0882115e-05 7.3865056e-05 -7.9512596e-05 1.7902814e-05 2.0476058e-05 3.62508e-05 -1.4025718e-06 1.8021092e-05
1.852028e-05 3.4712255e-05 -3.5488978e-05 3.353879e-05 3.3717602e-05 -1.29677355e-05 -3.3240765e-05 -2.6091933e-05
7.0943497e-07 2.3121014e-05 2.1120533e-05 -5.8803707e-06 -9.0627e-06 3.097579e-05 -3.3684075e-05 7.4757263e-06
-4.0718587e-06 -6.1197206e-06 1.128763e-06 -3.4160912e-06 -3.2759272e-06 -6.9040107e-06 6.2643085e-06 -6.5155327e-06
-5.9548765e-06 1.4542602e-06 5.3842086e-06 5.4135453e-06 3.9930455e-07 -4.7229696e-06 -4.2273896e-06 1.8123537e-06
6.9104135e-07 -4.5308843e-06 5.629612e-06 -1.3798708e-06 8.087605e-06 1.5081838e-05 -4.04194e-07 7.5623393e-06
7.553026e-06 1.3908371e-05 -1.4662743e-05 1.3502315e-05 1.3925135e-05 -5.4202974e-06 -1.3820827e-05 -1.052767e-05
5.190959e-07 9.406358e-06 8.320436e-06 -2.7446076e-06 -3.5371631e-06 1.31987035e-05 -1.4130026e-05 3.4179538e-06
4.2282045e-05 7.597357e-05 -2.1853484e-06 3.787875e-05 3.856793e-05 7.160753e-05 -7.403642e-05 6.9476664e-05
7.043779e-05 -2.8215349e-05 -6.98939e-05 -5.3606927e-05 1.6205013e-06 4.773587e-05 4.3593347e-05 -1.1571683e-05
-2.066046e-05 6.621331e-05 -7.030368e-05 1.5214086e-05 -5.32642e-05 -9.524077e-05 3.853813e-06 -4.7955662e-05
-4.845485e-05 -9.0651214e-05 9.313971e-05 -8.769333e-05 -8.8609755e-05 3.3844262e-05 8.715689e-05 6.841868e-05
-1.8775463e-06 -6.080419e-05 -5.493313e-05 1.6520731e-05 2.3268163e-05 -8.1934035e-05 8.85725e-05 -2.0187348e-05
6.620586e-05 0.000117614865 -4.4098124e-06 5.890429e-05 6.003678e-05 0.000112220645 -0.00011467934 0.00010867417
0.00010950863 -4.249811e-05 -0.00010764599 -8.432567e-05 2.0150328e-06 7.494539e-05 6.828457e-05 -1.9492581e-05
-3.014505e-05 0.0001013428 -0.00010883808 2.4238601e-05 3.607478e-06 6.9038942e-06 -4.917383e-07 3.787689e-06
3.3676624e-06 6.299466e-06 -6.9625676e-06 6.12624e-06 6.334856e-06 -2.2700988e-06 -6.3842162e-06 -4.9304217e-06
1.5622936e-07 4.440546e-06 3.7364662e-06 -1.4947727e-06 -1.5115365e-06 6.267801e-06 -6.4708292e-06 1.5550759e-06
-4.915148e-05 -8.703768e-05 4.4056214e-06 -4.4751912e-05 -4.4085085e-05 -8.34167e-05 8.557737e-05 -8.0786645e-05
-8.087605e-05 3.1098723e-05 7.981807e-05 6.3069165e-05 -7.029157e-07 -5.622208e-05 -5.07012e-05 1.5044585e-05
00000000: 00a0 0836 00b0 3b36 009c 7837 0040 2537
00000010: 00d0 c837 00bc c037 0048 3837 0030 6837
00000020: 00f0 f5b7 0078 f7b7 0000 4b37 0060 7c37
00000030: 0058 8db7 0070 cbb7 00e0 3f37 00d0 5b37
00000040: 00a0 36b8 00b4 08b8 0028 38b8 0060 19b8
00000050: 00e0 c7b7 0060 9db7 0020 e136 0010 ac36
00000060: 007c 86b7 00c8 acb7 0098 7d37 0098 cb37
00000070: 0054 83b7 0020 83b7 008c b7b7 0000 cab7
00000080: 00dc 0db8 00b0 0ab8 0070 1237 00c0 2e37
00000090: 0090 0ab8 00e0 a7b7 00ac 0637 0058 e036
000000a0: 0098 a436 00b0 0138 00d0 3d38 0098 c737
000000b0: 00d0 72b8 0058 fe37 00e0 3eb8 0038 fc37
000000c0: 0028 abb8 0094 b0b8 00d8 5eb8 00f0 4037
000000d0: 00d8 0fb8 0048 1e38 00e0 f8b7 00d8 33b8
000000e0: 003a 92b8 00d6 d837 0030 67b8 00a8 7b37
000000f0: 0090 e137 0030 4638 0004 d4b5 00ac c337
00000100: 0038 cc37 0064 3e38 009c 40b8 0030 3838
00000110: 0038 3938 0034 90b7 002c 35b8 0070 0eb8
00000120: 0001 6335 0038 fc37 00c0 e837 00bc f9b6
00000130: 0090 4db7 0030 2938 0054 37b8 007c 2137
00000140: 00d8 4a38 00e4 b338 0070 9cb6 0064 3938
00000150: 0024 3638 00b8 ac38 0024 b1b8 0004 a738
00000160: 0048 a738 0088 fbb7 009c a4b8 001c 83b8
00000170: 00c0 5e35 0078 6938 0028 5138 00fc 83b7
00000180: 002c afb7 00e8 9a38 00c0 a6b8 002e 9637
00000190: 00c4 ab37 000c 1838 0040 bcb5 002c 9737
000001a0: 005c 9b37 0098 1138 00da 14b8 00ac 0c38
000001b0: 006c 0d38 0090 59b7 006c 0bb8 00e0 dab7
000001c0: 0070 3e35 00f4 c137 002c b137 0050 c5b6
000001d0: 000c 18b7 00ec 0138 0048 0db8 00d8 fa36
000001e0: 00a1 88b6 0058 cdb6 0080 9735 0040 65b6
000001f0: 00d8 5bb6 00a9 e7b6 0032 d236 00a0 dab6
00000200: 00d0 c7b6 0030 c335 00aa b436 00a6 b536
00000210: 0060 d634 007a 9eb6 00d9 8db6 0040 f335
00000220: 0080 3935 0008 98b6 00e6 bc36 0034 b9b5
00000230: 00b0 0737 0008 7d37 0000 d9b4 00c0 fd36
00000240: 0070 fd36 0058 6937 0000 76b7 0088 6237
00000250: 00a0 6937 00e0 b5b6 00e0 67b7 00a0 30b7
00000260: 0058 0b35 00d0 1d37 0098 0b37 0030 38b6
00000270: 0060 6db6 0070 5d37 0010 6db7 0060 6536
00000280: 0058 3138 0054 9f38 00a8 12b6 00e0 1e38
00000290: 00c4 2138 002c 9638 0044 9bb8 00b4 9138
000002a0: 00b8 9338 00b0 ecb7 0094 92b8 00d8 60b8
000002b0: 0080 d935 0038 4838 00d8 3638 0024 42b7
000002c0: 0050 adb7 00dc 8a38 0070 93b8 0040 7f37
000002d0: 0068 5fb8 00bc c7b8 0050 8136 0024 49b8
000002e0: 003c 4bb8 001c beb8 0054 c338 00e8 b7b8
000002f0: 00d4 b9b8 00f4 0d38 00c8 b638 007c 8f38
00000300: 0000 fcb5 0008 7fb8 0068 66b8 0096 8a37
00000310: 0030 c337 00d4 abb8 00c0 b938 0058 a9b7
00000320: 00d8 8a38 00a8 f638 00f8 93b6 0010 7738
00000330: 00d0 7b38 0058 eb38 0080 f0b8 00e8 e338
00000340: 00a8 e538 0040 32b8 00c0 e1b8 00d8 b0b8
00000350: 003a 0736 002c 9d38 0034 8f38 0084 a3b7
00000360: 00e0 fcb7 0088 d438 0040 e4b8 0054 cb37
00000370: 0018 7236 00a8 e736 0000 04b5 0030 7e36
00000380: 0000 6236 0060 d336 00a0 e9b6 0090 cd36
00000390: 0090 d436 0058 18b6 0038 d6b6 0070 a5b6
000003a0: 00c0 2734 0000 9536 00c0 7a36 00a0 c8b5
000003b0: 00e0 cab5 0050 d236 0020 d9b6 00b8 d035
000003c0: 0028 4eb8 0088 b6b8 00d4 9336 00b4 3bb8
000003d0: 00e8 38b8 00f0 aeb8 0078 b338 006c a9b8
000003e0: 009c a9b8 0070 0238 0064 a738 0044 8438
000003f0: 00b0 3cb5 00d0 6bb8 00a8 54b8 0068 7c37

old_dirs f4 [522]
3.4160912e-06 4.444737e-06 1.8624589e-05 1.4219433e-05 3.1072646e-05 3.0472875e-05 1.45584345e-05 1.6938895e-05
-3.848225e-05 -3.7647784e-05 1.5657395e-05 1.9890256e-05 -2.2541732e-05 -3.1210482e-05 1.5242025e-05 1.7572194e-05
-5.6743622e-05 -4.1980296e-05 -5.7246536e-05 -4.8987567e-05 -3.113784e-05 -2.5074929e-05 9.011477e-06 5.753711e-06
-2.1073967e-05 -2.6518479e-05 1.975149e-05 3.2253563e-05 -2.018921e-05 -1.9982457e-05 -2.7418137e-05 -3.0335039e-05
-4.5627356e-05 -4.4617802e-05 1.3317913e-05 1.5109777e-05 -4.2747706e-05 -2.6339665e-05 9.630341e-06 8.116476e-06
7.60518e-06 3.7888065e-05 5.9027225e-05 3.0130148e-05 -7.607043e-05 4.0326267e-05 -5.853176e-05 3.870763e-05
-0.00010650605 -0.00010962039 -6.8984926e-05 1.3212673e-05 -4.4822693e-05 4.9583614e-05 -3.836304e-05 -5.458668e-05
-9.249896e-05 3.084354e-05 -7.1547925e-05 1.8503517e-05 3.511086e-05 6.183237e-05 -2.0235893e-06 3.0396506e-05
3.1804666e-05 5.9280545e-05 -6.0033053e-05 5.7373196e-05 5.773455e-05 -2.2565946e-05 -5.6549907e-05 -4.427135e-05
1.1573284e-06 3.918633e-05 3.6228448e-05 -9.414274e-06 -1.604855e-05 5.2936375e-05 -5.7142228e-05 1.2477394e-05
6.247312e-05 0.00011111051 -6.0033053e-06 5.7008117e-05 5.612895e-05 0.00010661036 -0.00010936707 0.00010304153
0.000103354454 -3.870204e-05 -0.00010167062 -8.0898404e-05 1.293607e-06 7.1942806e-05 6.441772e-05 -2.024509e-05
-2.6538968e-05 9.5553696e-05 -0.00010319054 2.3373403e-05 2.7505681e-05 4.8197806e-05 -2.1173619e-06 2.38996e-05
2.4706125e-05 4.6752393e-05 -4.7381967e-05 4.497543e-05 4.4986606e-05 -1.6854145e-05 -4.415773e-05 -3.5241246e-05
9.0897083e-07 3.1059608e-05 2.8373674e-05 -8.176081e-06 -1.1467375e-05 4.0438026e-05 -4.503876e-05 1.0225922e-05
-5.3643016e-06 -8.241739e-06 1.2917444e-06 -4.5020133e-06 -4.392932e-06 -9.029987e-06 8.332543e-06 -8.586794e-06
-7.950468e-06 2.2226013e-06 7.3134433e-06 6.993534e-06 4.589092e-07 -6.1263563e-06 -5.5694254e-06 2.0903535e-06
1.326669e-06 -6.374903e-06 7.4990094e-06 -1.6976846e-06 1.1153519e-05 2.0127743e-05 -1.3075769e-06 1.0349788e-05
1.0145828e-05 1.9373372e-05 -1.983717e-05 1.8607825e-05 1.8807128e-05 -6.354414e-06 -1.8201768e-05 -1.4942139e-05
4.5192428e-07 1.3241544e-05 1.1481345e-05 -4.662201e-06 -3.3006072e-06 1.6819686e-05 -1.9084662e-05 5.034264e-06
5.4441392e-05 9.799749e-05 -3.0719675e-06 4.8860908e-05 4.9598515e-05 9.2454255e-05 -9.5658004e-05 8.960068e-05
9.083748e-05 -3.599003e-05 -9.012222e-05 -6.939471e-05 2.1643937e-06 6.1668456e-05 5.6117773e-05 -1.52383e-05
-2.5931746e-05 8.510798e-05 -9.0926886e-05 1.993496e-05 -6.9618225e-05 -0.00012428313 5.329959e-06 -6.2420964e-05
-6.316975e-05 -0.00011871755 0.000121705234 -0.00011468679 -0.00011572987 4.3720007e-05 0.00011369586 8.973479e-05
-2.4768524e-06 -7.95275e-05 -7.1808696e-05 2.1755695e-05 2.954714e-05 -0.000106304884 0.00011583418 -2.6611611e-05
8.549541e-05 0.00015242398 -5.6263525e-06 7.607788e-05 7.763505e-05 0.0001450628 -0.00014850497 0.00014053285
0.00014190376 -5.5119395e-05 -0.00013957918 -0.00010894239 2.8247014e-06 9.6708536e-05 8.817017e-05 -2.4690293e-05
-3.8824975e-05 0.00013166666 -0.00014103949 3.132224e-05 5.264301e-06 9.9679455e-06 -6.479677e-07 5.410984e-06
4.886184e-06 9.183772e-06 -1.006946e-05 8.889474e-06 9.170733e-06 -3.3052638e-06 -9.241514e-06 -7.1795657e-06
2.4877954e-07 6.41495e-06 5.4519624e-06 -2.1425076e-06 -2.287794e-06 8.875504e-06 -9.3933195e-06 2.274057e-06
-6.335229e-05 -0.00011266023 5.572103e-06 -5.7697296e-05 -5.6914985e-05 -0.00010765344 0.000110685825 -0.00010428578
-0.000104643404 4.028529e-05 0.00010333955 8.133799e-05 -1.1275988e-06 -7.2434545e-05 -6.532669e-05 1.90977e-05
00000000: 0040 6536 0024 9536 003c 9c37 0090 6e37
00000010: 0054 0238 00a0 ff37 0040 7437 0018 8e37
00000020: 0068 21b8 00e8 1db8 0058 8337 00da a637
00000030: 0018 bdb7 00e8 02b8 00b8 7f37 0068 9337
00000040: 0000 6eb8 0014 30b8 001c 70b8 0078 4db8
00000050: 009a 02b8 0058 d2b7 0030 1737 0010 c136
00000060: 00c8 b0b7 0074 deb7 00b0 a537 0048 0738
00000070: 005c a9b7 00a0 a7b7 0000 e6b7 0078 feb7
00000080: 0060 3fb8 0024 3bb8 0070 5f37 0080 7d37
00000090: 004c 33b8 00f4 dcb7 0092 2137 002c 0837
000000a0: 0030 ff36 00ea 1e38 0094 7738 00c0 fc37
000000b0: 0088 9fb8 0024 2938 0080 75b8 005a 2238
000000c0: 005c dfb8 00e4 e5b8 00ac 90b8 00ac 5d37
000000d0: 0000 3cb8 00f8 4f38 00e8 20b8 00f4 64b8
000000e0: 00fc c1b8 005e 0138 000c 96b8 0038 9b37
000000f0: 0044 1338 00ac 8138 00cd 07b6 00fc fe37
00000100: 0066 0538 00a4 7838 00cc 7bb8 00a4 7038
00000110: 0028 7238 004c bdb7 0030 6db8 00b0 39b8
00000120: 8055 9b35 005c 2438 00f4 1738 00f2 1db7
00000130: 00a0 86b7 0008 5e38 00ac 6fb8 0056 5137
00000140: 0004 8338 0004 e938 0070 c9b6 001c 6f38
00000150: 006c 6b38 0094 df38 005c e5b8 0018 d838
00000160: 00c0 d838 0054 22b8 0038 d5b8 00a8 a9b8
00000170: 00a0 ad35 00e0 9638 0018 8738 00d4 a9b7
00000180: 00a0 deb7 0064 c838 0068 d8b8 0012 c437
00000190: 00bc e637 0028 4a38 0018 0eb6 007c c837
000001a0: 0040 cf37 0018 4438 00bc 46b8 00a4 3c38
000001b0: 00b0 3c38 0062 8db7 0036 39b8 00d0 13b8
000001c0: 0000 7435 0046 0238 0004 ee37 002c 09b7
000001d0: 0064 40b7 009c 2938 00e8 3cb8 0090 2b37
000001e0: 00ff b3b6 0046 0ab7 0060 ad35 0010 97b6
000001f0: 0067 93b6 807f 17b7 00cc 0b37 0010 10b7
00000200: 0063 05b7 0028 1536 0066 f536 00aa ea36
00000210: 0060 f634 0091 cdb6 00e1 bab6 0048 0c36
00000220: 0010 b235 00e8 d5b6 00a0 fb36 00dc e3b5
00000230: 0020 3b37 00d8 a837 0080 afb5 00a4 2d37
00000240: 0038 2a37 0084 a237 0068 a6b7 0018 9c37
00000250: 00c4 9d37 0038 d5b6 00b0 98b7 00b0 7ab7
00000260: 00a0 f234 0028 5e37 00a0 4037 0070 9cb6
00000270: 0080 5db6 0018 8d37 0018 a0b7 00ec a836
00000280: 0058 6438 0084 cd38 0028 4eb6 00f0 4c38
00000290: 0008 5038 00e4 c138 009c c8b8 00e8 bb38
000002a0: 0080 be38 00f4 16b8 0000 bdb8 0088 91b8
000002b0: 0040 1136 0054 8138 0060 6b38 00a8 7fb7
000002c0: 0088 d9b7 007c b238 00b0 beb8 003a a737
000002d0: 0000 92b8 0052 02b9 00d8 b236 00e8 82b8
000002e0: 007a 84b8 00f8 f8b8 003c ff38 0084 f0b8
000002f0: 00b4 f2b8 0060 3738 0070 ee38 0030 bc38
00000300: 0038 26b6 00c8 a6b8 0098 96b8 0080 b637
00000310: 00dc f737 00f0 deb8 00ec f238 003c dfb7
00000320: 004c b338 00d4 1f39 00ca bcb6 008c 9f38
00000330: 00d0 a238 001c 1839 00b8 1bb9 005c 1339
00000340: 00cc 1439 0030 67b8 005c 12b9 0078 e4b8
00000350: 0090 3d36 00d0 ca38 00e8 b838 001e cfb7
00000360: 00d8 22b8 0010 0a39 00e4 13b9 0060 0338
00000370: 00a4 b036 003c 2737 00f0 2db5 0090 b536
00000380: 00f4 a336 0014 1a37 00f0 28b7 0024 1537
00000390: 00dc 1937 00d0 5db6 000c 1bb7 00e8 f0b6
000003a0: 0090 8534 0040 d736 00f0 b636 00c8 0fb6
000003b0: 0088 19b6 00e8 1437 0098 1db7 009c 1836
000003c0: 00dc 84b8 0044 ecb8 00f8 ba36 0000 72b8
000003d0: 00b8 6eb8 00c4 e1b8 0020 e838 00b4 dab8
000003e0: 0074 dbb8 00f8 2838 00b8 d838 0094 aa38
000003f0: 0058 97b5 00e8 97b8 0000 89b8 0034 a037

old_dirs f4 [522]
4.549511e-06 5.6209974e-06 1.8726103e-05 1.6283244e-05 3.1925738e-05 3.2028183e-05 1.5274622e-05 1.6381964e-05
-3.966689e-05 -3.773719e-05 1.6003847e-05 2.0760112e-05 -2.3834407e-05 -3.170967e-05 1.6367063e-05 1.8939376e-05
-5.8747828e-05 -4.2948872e-05 -5.9198588e-05 -5.2034855e-05 -3.2225624e-05 -2.6544556e-05 9.953976e-06 5.5152923e-06
-2.1863729e-05 -2.6924536e-05 2.057571e-05 3.3993274e-05 -2.0278618e-05 -1.9919127e-05 -2.7025118e-05 -3.0070543e-05
-4.862994e-05 -4.7557056e-05 1.6063452e-05 1.7523766e-05 -4.388392e-05 -2.758205e-05 9.03476e-06 7.715076e-06
9.510666e-06 3.6995858e-05 6.09383e-05 3.0204654e-05 -7.852912e-05 4.2255968e-05 -5.939603e-05 4.001893e-05
-0.00011032075 -0.000113114715 -7.0914626e-05 1.2773089e-05 -4.6160072e-05 5.1744282e-05 -3.8690865e-05 -5.468726e-05
-9.68948e-05 2.9657036e-05 -7.367879e-05 1.7939135e-05 3.65898e-05 6.4611435e-05 -2.0705338e-06 3.1635165e-05
3.318116e-05 6.1802566e-05 -6.265193e-05 5.9857965e-05 6.031245e-05 -2.3648143e-05 -5.9105456e-05 -4.6093017e-05
1.2607634e-06 4.076585e-05 3.7759542e-05 -9.509036e-06 -1.6758218e-05 5.5473298e-05 -5.96568e-05 1.2920238e-05
6.390363e-05 0.00011407584 -6.1076134e-06 5.827099e-05 5.750358e-05 0.00010930747 -0.0001122579 0.00010556728
0.00010609627 -3.9584935e-05 -0.000104397535 -8.293986e-05 1.5720725e-06 7.3611736e-05 6.5900385e-05 -2.0623207e-05
-2.6699156e-05 9.7990036e-05 -0.00010612607 2.4198554e-05 2.8813258e-05 4.999712e-05 -2.423767e-06 2.4717301e-05
2.5691465e-05 4.908815e-05 -4.9330294e-05 4.702434e-05 4.683435e-05 -1.7122366e-05 -4.5752153e-05 -3.7092716e-05
9.117648e-07 3.251992e-05 2.9731542e-05 -8.805655e-06 -1.1346303e-05 4.1212887e-05 -4.696101e-05 1.0883436e-05
-5.6871213e-06 -8.952804e-06 1.1452939e-06 -4.7851354e-06 -4.7476497e-06 -9.50566e-06 8.943025e-06 -9.110896e-06
-8.560019e-06 2.7022325e-06 8.019386e-06 7.2666444e-06 4.0407758e-07 -6.3938787e-06 -5.9038866e-06 1.8938445e-06
1.8733554e-06 -7.23172e-06 8.062692e-06 -1.6755657e-06 1.2150034e-05 2.1291897e-05 -2.1685846e-06 1.1201017e-05
1.0795891e-05 2.1312386e-05 -2.1247193e-05 2.0278618e-05 2.0120293e-05 -5.8203004e-06 -1.8989667e-05 -1.6704202e-05
2.3760367e-07 1.4701858e-05 1.2520701e-05 -5.953945e-06 -2.018176e-06 1.6968697e-05 -2.0403415e-05 5.813781e-06
5.529821e-05 9.968877e-05 -3.3648685e-06 4.9732625e-05 5.032122e-05 9.422749e-05 -9.755045e-05 9.121001e-05
9.248406e-05 -3.6254525e-05 -9.173155e-05 -7.085502e-05 2.2952445e-06 6.2815845e-05 5.7004392e-05 -1.58092e-05
-2.5665388e-05 8.6307526e-05 -9.278953e-05 2.061855e-05 -7.18832e-05 -0.00012811273 5.785376e-06 -6.422028e-05
-6.505102e-05 -0.00012280047 0.00012565404 -0.00011844933 -0.000119417906 4.4621527e-05 0.00011718273 9.289384e-05
-2.5960617e-06 -8.214265e-05 -7.4125826e-05 2.2607855e-05 2.9629096e-05 -0.00010897219 0.000119671226 -2.7725473e-05
8.7976456e-05 0.00015747547 -5.738111e-06 7.82907e-05 8.003414e-05 0.00014947355 -0.00015327334 0.00014485419
0.00014650822 -5.697459e-05 -0.00014419854 -0.00011212379 3.140478e-06 9.946525e-05 9.074062e-05 -2.4931505e-05
-3.972277e-05 0.00013637543 -0.00014573336 3.228709e-05 5.8282167e-06 1.0941178e-05 -6.367918e-07 5.874783e-06
5.3881668e-06 1.0167249e-05 -1.1073425e-05 9.796582e-06 1.0089017e-05 -3.6633573e-06 -1.0170974e-05 -7.933006e-06
3.0267984e-07 7.0370734e-06 6.041955e-06 -2.3222528e-06 -2.6237685e-06 9.57679e-06 -1.0371208e-05 2.5224872e-06
-6.492436e-05 -0.00011598319 5.606562e-06 -5.916506e-05 -5.846098e-05 -0.00011051446 0.00011385977 -0.000107087195
-0.00010767579 4.1514635e-05 0.000106446445 8.34167e-05 -1.3939571e-06 -7.421523e-05 -6.695837e-05 1.9281171e-05
00000000: 00a8 9836 009c bc36 0016 9d37 0098 8837
00000010: 00e8 0538 0056 0638 0022 8037 006c 8937
00000020: 0060 26b8 0048 1eb8 0040 8637 0026 ae37
00000030: 00f0 c7b7 0000 05b8 004c 8937 00e0 9e37
00000040: 0068 76b8 0024 34b8 004c 78b8 0040 5ab8
00000050: 002a 07b8 00ac deb7 0000 2737 0010 b936
00000060: 0068 b7b7 00dc e1b7 009a ac37 0094 0e38
00000070: 001c aab7 0018 a7b7 00b4 e2b7 0040 fcb7
00000080: 00f8 4bb8 0078 47b8 00c0 8637 0000 9337
00000090: 0010 38b8 0060 e7b7 0094 1737 0070 0137
000000a0: 0090 1f37 002c 1b38 0098 7f38 0060 fd37
000000b0: 00b0 a4b8 003c 3138 0020 79b8 00da 2738
000000c0: 005c e7b8 0038 edb8 00b8 94b8 004c 5637
000000d0: 009c 41b8 0008 5938 0048 22b8 0060 65b8
000000e0: 0034 cbb8 00c8 f837 0084 9ab8 007c 9637
000000f0: 0078 1938 0080 8738 80f3 0ab6 00b0 0438
00000100: 002c 0b38 009c 8138 0064 83b8 0010 7b38
00000110: 00f8 7c38 0060 c6b7 00e8 77b8 0054 41b8
00000120: 8037 a935 00fc 2a38 0060 1e38 0089 1fb7
00000130: 0094 8cb7 00ac 6838 0038 7ab8 00c4 5837
00000140: 0004 8638 003c ef38 00f0 ccb6 0068 7438
00000150: 0030 7138 003c e538 006c ebb8 0064 dd38
00000160: 0080 de38 0008 26b8 00f0 dab8 00f0 adb8
00000170: 0000 d335 0060 9a38 0034 8a38 0000 adb7
00000180: 00f8 dfb7 0080 cd38 0090 deb8 00fe ca37
00000190: 00b4 f137 00b4 5138 00a8 22b6 0058 cf37
000001a0: 0084 d737 00e4 4d38 00e8 4eb8 003c 4538
000001b0: 0070 4438 00a2 8fb7 00e6 3fb8 0094 1bb8
000001c0: 00c0 7435 0066 0838 0068 f937 00bc 13b7
000001d0: 005c 3eb7 00dc 2c38 00f8 44b8 0098 3637
000001e0: 00d4 beb6 0034 16b7 00b8 9935 0090 a0b6
000001f0: 004e 9fb6 807a 1fb7 000a 1637 00db 18b7
00000200: 009d 0fb7 0058 3536 008b 0637 00d4 f336
00000210: 00f0 d834 008b d6b6 001a c6b6 0030 fe35
00000220: 0070 fb35 00a8 f2b6 0045 0737 00e4 e0b5
00000230: 00d8 4b37 009c b237 0088 11b6 00ec 3b37
00000240: 0020 3537 00c8 b237 003c b2b7 001c aa37
00000250: 00c8 a837 004c c3b6 004c 9fb7 0020 8cb7
00000260: 0020 7f34 00a8 7637 0010 5237 00c8 c7b6
00000270: 0070 07b6 0058 8e37 0028 abb7 0014 c336
00000280: 00f0 6738 0010 d138 00d0 61b6 0098 5038
00000290: 0010 5338 009c c538 0094 ccb8 0048 bf38
000002a0: 00f4 c138 0010 18b8 0060 c0b8 0098 94b8
000002b0: 0008 1a36 00bc 8338 0018 6f38 009e 84b7
000002c0: 004c d7b7 0000 b538 0098 c2b8 00f6 ac37
000002d0: 00c0 96b8 0056 06b9 0020 c236 00ae 86b8
000002e0: 006c 88b8 00c4 00b9 00c2 0339 0068 f8b8
000002f0: 0070 fab8 0028 3b38 00c0 f538 00d0 c238
00000300: 0038 2eb6 0044 acb8 0074 9bb8 00a6 bd37
00000310: 008c f837 0088 e4b8 00f8 fa38 0094 e8b7
00000320: 0080 b838 0020 2539 008a c0b6 0030 a438
00000330: 00d8 a738 00bc 1c39 00b8 20b9 00e4 1739
00000340: 00a0 1939 00f8 6eb8 0034 17b9 0024 ebb8
00000350: 00c1 5236 0098 d038 004c be38 0024 d1b7
00000360: 009c 26b8 0000 0f39 00d0 18b9 006c 0738
00000370: 0090 c336 0090 3737 00f0 2ab5 0020 c536
00000380: 00cc b436 0094 2a37 00c8 39b7 005c 2437
00000390: 0044 2937 00d8 75b6 00a4 2ab7 0018 05b7
000003a0: 0080 a234 0020 ec36 00bc ca36 00d8 1bb6
000003b0: 0014 30b6 00ac 2037 0000 2eb7 0048 2936
000003c0: 0028 88b8 003c f3b8 0020 bc36 0028 78b8
000003d0: 0034 75b8 00c4 e7b8 00c8 ee38 0094 e0b8
000003e0: 00d0 e1b8 0020 2e38 003c df38 00f0 ae38
000003f0: 0018 bbb5 00a4 9bb8 006c 8cb8 00be a137

old_dirs f4 [522]
5.78491e-06 6.8540685e-06 1.8765219e-05 1.841411e-05 3.27155e-05 3.356673e-05 1.5996397e-05 1.5737489e-05
-4.069507e-05 -3.771484e-05 1.6320497e-05 2.160389e-05 -2.5141984e-05 -3.2112002e-05 1.750514e-05 2.034381e-05
-6.058812e-05 -4.381314e-05 -6.105006e-05 -5.5069104e-05 -3.3276156e-05 -2.8023496e-05 1.0900199e-05 5.2507967e-06
-2.2595748e-05 -2.7239323e-05 2.138596e-05 3.5703182e-05 -2.028048e-05 -1.978688e-05 -2.649799e-05 -2.9679388e-05
-5.1680952e-05 -5.053729e-05 1.8868595e-05 1.9978732e-05 -4.4938177e-05 -2.8802082e-05 8.32323e-06 7.232651e-06
1.1580065e-05 3.5936013e-05 6.276183e-05 3.0182302e-05 -8.075684e-05 4.4140965e-05 -6.005168e-05 4.1352585e-05
-0.000113897026 -0.00011643767 -7.272512e-05 1.2283213e-05 -4.7378242e-05 5.3845346e-05 -3.8824975e-05 -5.458668e-05
-0.00010126829 2.8377399e-05 -7.5683e-05 1.722388e-05 3.806874e-05 6.7386776e-05 -2.1255983e-06 3.287755e-05
3.454648e-05 6.433204e-05 -6.528944e-05 6.233528e-05 6.2868e-05 -2.4728477e-05 -6.1661005e-05 -4.7907233e-05
1.3646786e-06 4.234165e-05 3.9290637e-05 -9.608688e-06 -1.7462298e-05 5.802512e-05 -6.217137e-05 1.3364013e-05
6.5110624e-05 0.00011669099 -6.164424e-06 5.93476e-05 5.8677047e-05 0.00011163205 -0.000114791095 0.0001078099
0.00010854006 -4.0359795e-05 -0.00010678172 -8.46982e-05 1.8756837e-06 7.50646e-05 6.715953e-05 -2.097711e-05
-2.6728958e-05 0.0001001358 -0.000108763576 2.4995767e-05 3.0057505e-05 5.1684678e-05 -2.7189963e-06 2.5456771e-05
2.6628375e-05 5.1330775e-05 -5.11799e-05 4.8980117e-05 4.8547983e-05 -1.7344952e-05 -4.724413e-05 -3.8858503e-05
9.117648e-07 3.389269e-05 3.1014904e-05 -9.415671e-06 -1.1200085e-05 4.1853637e-05 -4.8801303e-05 1.15269795e-05
-6.025657e-06 -9.695301e-06 9.993091e-07 -5.0847884e-06 -5.117734e-06 -1.0007061e-05 9.5816795e-06 -9.662937e-06
-9.19844e-06 3.2000244e-06 8.752802e-06 7.5595453e-06 3.4831464e-07 -6.6796783e-06 -6.25581e-06 1.699198e-06
2.432149e-06 -8.119736e-06 8.6536165e-06 -1.6571721e-06 1.3142824e-05 2.2426248e-05 -3.053341e-06 1.2051314e-05
1.1434779e-05 2.3249537e-05 -2.263859e-05 2.1945685e-05 2.1412969e-05 -5.24614e-06 -1.9747764e-05 -1.847744e-05
1.2456439e-08 1.6171485e-05 1.3552606e-05 -7.28108e-06 -6.724149e-07 1.7065555e-05 -2.1705404e-05 6.6091307e-06
5.596131e-05 0.00010116398 -3.6284328e-06 5.0429255e-05 5.089119e-05 9.5665455e-05 -9.9129975e-05 9.249151e-05
9.384006e-05 -3.639236e-05 -9.30354e-05 -7.2062016e-05 2.4382025e-06 6.377697e-05 5.7682395e-05 -1.6346574e-05
-2.5298446e-05 8.723885e-05 -9.440631e-05 2.1276996e-05 -7.393956e-05 -0.00013165921 6.2286854e-06 -6.5885484e-05
-6.6779554e-05 -0.00012665242 0.00012934208 -0.00012199581 -0.00012286752 4.5415014e-05 0.00012037903 9.588152e-05
-2.7213246e-06 -8.455664e-05 -7.6279044e-05 2.3446977e-05 2.9606745e-05 -0.00011143088 0.00012329221 -2.8820708e-05
9.0278685e-05 0.00016228855 -5.8410224e-06 8.0391765e-05 8.223951e-05 0.00015358627 -0.0001578033 0.0001489222
0.00015088916 -5.8718026e-05 -0.00014863908 -0.00011512637 3.4616096e-06 0.00010204315 9.313226e-05 -2.5165267e-05
-4.055351e-05 0.00014086068 -0.000150159 3.3227727e-05 6.458722e-06 1.2003817e-05 -6.053597e-07 6.3590705e-06
5.947426e-06 1.1236407e-05 -1.21593475e-05 1.0791235e-05 1.1094846e-05 -4.0782616e-06 -1.1192635e-05 -8.740462e-06
3.6659185e-07 7.708557e-06 6.6887587e-06 -2.482906e-06 -3.0200463e-06 1.035165e-05 -1.143571e-05 2.7832575e-06
-6.634742e-05 -0.000119149685 5.628448e-06 -6.052479e-05 -5.986169e-05 -0.000113129616 0.00011686981 -0.000109665096
-0.000110536814 4.2662024e-05 0.00010935962 8.53464e-05 -1.6638078e-06 -7.586181e-05 -6.844103e-05 1.944974e-05
00000000: 001c c236 00fc e536 006a 9d37 0078 9a37
00000010: 0038 0938 00ca 0c38 0030 8637 0004 8437
00000020: 00b0 2ab8 0030 1eb8 00e8 8837 003a b537
00000030: 00e8 d2b7 00b0 06b8 00d8 9237 00a8 aa37
00000040: 0020 7eb8 00c4 37b8 0008 80b8 00fa 66b8
00000050: 0092 0bb8 0014 ebb7 00e0 3637 0030 b036
00000060: 008c bdb7 0080 e4b7 0066 b337 00c0 1538
00000070: 0020 aab7 00fc a5b7 0048 deb7 00f8 f8b7
00000080: 00c4 58b8 00f8 53b8 0048 9e37 0098 a737
00000090: 007c 3cb8 009c f1b7 00a4 0b37 00b0 f236
000000a0: 0048 4237 00ba 1638 009f 8338 0030 fd37
000000b0: 005c a9b8 0024 3938 00e0 7bb8 0072 2d38
000000c0: 00dc eeb8 0030 f4b8 0084 98b8 0014 4e37
000000d0: 00b8 46b8 00d8 6138 00d8 22b8 00f4 64b8
000000e0: 0060 d4b8 000c ee37 00b8 9eb8 007c 9037
000000f0: 00ac 1f38 0052 8d38 80a5 0eb6 00e6 0938
00000100: 00e6 1038 00ea 8638 00ec 88b8 00ba 8238
00000110: 00d8 8338 0070 cfb7 0050 81b8 00f0 48b8
00000120: 002a b735 0098 3138 00cc 2438 0035 21b7
00000130: 007c 92b7 0060 7338 0062 82b8 0036 6037
00000140: 008c 8838 00b8 f438 00d8 ceb6 00ec 7838
00000150: 001c 7638 001c ea38 00bc f0b8 0018 e238
00000160: 00a0 e338 0048 29b8 00f0 dfb8 00a0 b1b8
00000170: 00c0 fb35 006c 9d38 00d8 8c38 00f8 afb7
00000180: 0038 e0b7 0000 d238 0018 e4b8 00ae d137
00000190: 0024 fc37 00c8 5838 0078 36b6 008c d537
000001a0: 0060 df37 004c 5738 00aa 56b8 0070 4d38
000001b0: 00a0 4b38 0080 91b7 0028 46b8 00fc 22b8
000001c0: 00c0 7435 0028 0e38 0016 0238 00f8 1db7
000001d0: 00e8 3bb7 008c 2f38 00b0 4cb8 0064 4137
000001e0: 0030 cab6 00a9 22b7 0020 8635 009e aab6
000001f0: 00b9 abb6 00e4 27b7 00c1 2037 001e 22b7
00000200: 0053 1ab7 00c0 5636 00d9 1237 00a8 fd36
00000210: 0000 bb34 0022 e0b6 00e9 d1b6 0010 e435
00000220: 0038 2336 003a 08b7 002f 1137 006c deb5
00000230: 0080 5c37 0020 bc37 00e8 4cb6 0030 4a37
00000240: 00d8 3f37 0008 c337 00e8 bdb7 0018 b837
00000250: 00a0 b337 0008 b0b6 00a8 a5b7 0000 9bb7
00000260: 0000 5632 00a8 8737 0060 6337 0050 f4b6
00000270: 0080 34b5 0028 8f37 0014 b6b7 00c4 dd36
00000280: 00b8 6a38 0028 d438 0080 73b6 0084 5338
00000290: 0074 5538 00a0 c838 00e4 cfb8 00f8 c138
000002a0: 00cc c438 00a4 18b8 001c c3b8 0020 97b8
000002b0: 00a0 2336 00c0 8538 00f0 7138 0020 89b7
000002c0: 0038 d4b7 00f4 b638 00fc c5b8 007c b237
000002d0: 0010 9bb8 000e 0ab9 0000 d136 002c 8ab8
000002e0: 000c 8cb8 00ce 04b9 00a0 0739 00d8 ffb8
000002f0: 00d6 00b9 007c 3e38 0074 fc38 0014 c938
00000300: 00a0 36b6 0054 b1b8 00f8 9fb8 00b0 c437
00000310: 005c f837 00b0 e9b8 0048 0139 00c4 f1b7
00000320: 0054 bd38 002c 2a39 00fe c3b6 0098 a838
00000330: 0078 ac38 000c 2139 0078 25b9 0028 1c39
00000340: 0038 1e39 0048 76b8 00dc 1bb9 0070 f1b8
00000350: 004e 6836 0000 d638 0050 c338 001a d3b7
00000360: 0018 2ab8 00b4 1339 0074 1db9 005e 0b38
00000370: 00b8 d836 0064 4937 0080 22b5 0060 d536
00000380: 0090 c736 0084 3c37 0000 4cb7 000c 3537
00000390: 0024 3a37 00d8 88b6 00c8 3bb7 00a4 12b7
000003a0: 00d0 c434 0054 0137 0070 e036 00a0 26b6
000003b0: 00ac 4ab6 00ac 2d37 00dc 3fb7 00c8 3a36
000003c0: 0024 8bb8 00e0 f9b8 00dc bc36 00dc 7db8
000003d0: 0014 7bb8 0040 edb8 0018 f538 00fc e5b8
000003e0: 00d0 e7b8 00f0 3238 0058 e538 00fc b238
000003f0: 0050 dfb5 0018 9fb8 0088 8fb8 0028 a337

old_dirs f4 [522]
7.1334653e-06 8.164439e-06 1.87587e-05 2.0587817e-05 3.3471733e-05 3.5155565e-05 1.6722828e-05 1.5027821e-05
-4.1648746e-05 -3.7636608e-05 1.662597e-05 2.2461638e-05 -2.6503578e-05 -3.247708e-05 1.868233e-05 2.1789223e-05
-6.237626e-05 -4.466623e-05 -6.290153e-05 -5.817227e-05 -3.430061e-05 -2.9489398e-05 1.1831522e-05 4.9676746e-06
-2.3307279e-05 -2.749823e-05 2.2212975e-05 3.7422404e-05 -2.0183623e-05 -1.9613653e-05 -2.5862828e-05 -2.91951e-05
-5.484e-05 -5.362928e-05 2.175197e-05 2.2497028e-05 -4.594028e-05 -3.0001625e-05 7.5083226e-06 6.671995e-06
1.3848767e-05 3.4725294e-05 6.456114e-05 3.0113384e-05 -8.280575e-05 4.601851e-05 -6.058812e-05 4.2745844e-05
-0.00011732429 -0.000119775534 -7.4490905e-05 1.1757016e-05 -4.8529357e-05 5.595386e-05 -3.8795173e-05 -5.4307282e-05
-0.00010571256 2.7031638e-05 -7.76276e-05 1.6370788e-05 3.958121e-05 7.0258975e-05 -2.1879678e-06 3.4155324e-05
3.5956502e-05 6.693974e-05 -6.7994e-05 6.490201e-05 6.550923e-05 -2.5842339e-05 -6.4302236e-05 -4.9773604e-05
1.4642865e-06 4.39547e-05 4.087761e-05 -9.710668e-06 -1.8183142e-05 6.0640275e-05 -6.4752996e-05 1.3825484e-05
6.6153705e-05 0.00011909753 -6.2035397e-06 6.0282648e-05 5.9731305e-05 0.00011373311 -0.000117085874 0.000109776855
0.00011073798 -4.104525e-05 -0.00010896474 -8.626282e-05 2.199784e-06 7.630885e-05 6.823242e-05 -2.128072e-05
-2.666004e-05 0.000102087855 -0.00011122227 2.5784597e-05 3.12645e-05 5.3331256e-05 -2.9979274e-06 2.6155263e-05
2.7529895e-05 5.352497e-05 -5.2979216e-05 5.0887465e-05 5.024299e-05 -1.7558224e-05 -4.8698857e-05 -4.0587038e-05
9.2037953e-07 3.5241246e-05 3.2268465e-05 -1.0001473e-05 -1.1056662e-05 4.2438507e-05 -5.0596893e-05 1.2172386e-05
-6.384682e-06 -1.0473188e-05 8.584466e-07 -5.4049306e-06 -5.5066776e-06 -1.0541524e-05 1.0254793e-05 -1.0246877e-05
-9.8717865e-06 3.7052669e-06 9.517884e-06 7.877126e-06 2.9418152e-07 -6.988179e-06 -6.6276407e-06 1.5120022e-06
2.9937364e-06 -9.040348e-06 9.274576e-06 -1.6447157e-06 1.414679e-05 2.35755e-05 -3.9599836e-06 1.2910925e-05
1.207646e-05 2.5225803e-05 -2.4043024e-05 2.3629516e-05 2.2718683e-05 -4.645437e-06 -2.0509586e-05 -2.0282343e-05
-2.1676533e-07 1.7657876e-05 1.4599413e-05 -8.638948e-06 7.1153045e-07 1.7154962e-05 -2.3029745e-05 7.425435e-06
5.64456e-05 0.00010241568 -3.8677827e-06 5.103275e-05 5.134195e-05 9.691715e-05 -0.00010052323 9.357929e-05
9.49949e-05 -3.6485493e-05 -9.419769e-05 -7.31498e-05 2.595596e-06 6.453693e-05 5.8218837e-05 -1.6855076e-05
-2.4877489e-05 8.803606e-05 -9.586662e-05 2.1917745e-05 -7.5921416e-05 -0.00013516098 6.658025e-06 -6.743148e-05
-6.842613e-05 -0.00013035536 0.00013290346 -0.00012535602 -0.00012614578 4.61787e-05 0.00012350827 9.8757446e-05
-2.854038e-06 -8.688867e-05 -7.8342855e-05 2.4252571e-05 2.952665e-05 -0.00011374056 0.00012682378 -2.9914081e-05
9.247661e-05 0.00016701221 -5.961163e-06 8.2455575e-05 8.443743e-05 0.00015762448 -0.00016225874 0.00015293062
0.0001552105 -6.0416758e-05 -0.00015291572 -0.00011803955 3.7744176e-06 0.000104531646 9.5419586e-05 -2.5383197e-05
-4.127249e-05 0.00014528632 -0.00015448034 3.4170225e-05 7.1590766e-06 1.3187528e-05 -5.431939e-07 6.868504e-06
6.574206e-06 1.2425706e-05 -1.3342127e-05 1.1897646e-05 1.2213364e-05 -4.560221e-06 -1.2318604e-05 -9.622425e-06
4.4325134e-07 8.428469e-06 7.4203126e-06 -2.617482e-06 -3.4922268e-06 1.1207536e-05 -1.2606382e-05 3.0566007e-06
-6.7681074e-05 -0.00012219697 5.6470744e-06 -6.1858445e-05 -6.1225146e-05 -0.00011566281 0.00011973828 -0.00011214614
-0.00011330098 4.3783337e-05 0.000112205744 8.717179e-05 -1.943903e-06 -7.740408e-05 -6.983429e-05 1.9595027e-05
00000000: 005c ef36 00fa 0837 005c 9d37 00b4 ac37
00000010: 0064 0c38 0074 1338 0048 8c37 0020 7c37
00000020: 00b0 2eb8 00dc 1db8 0078 8b37 006c bc37
00000030: 0054 deb7 0038 08b8 00b8 9c37 00c8 b637
00000040: 00d0 82b8 0058 3bb8 00ea 83b8 00fe 73b8
00000050: 00de 0fb8 0060 f7b7 0080 4637 00b0 a636
00000060: 0084 c3b7 00ac e6b7 0056 ba37 00f6 1c38
00000070: 0050 a9b7 0088 a4b7 00f4 d8b7 00e8 f4b7
00000080: 0004 66b8 00f0 60b8 0078 b637 00b8 bc37
00000090: 00b0 40b8 00ac fbb7 00f0 fb36 00e0 df36
000000a0: 0058 6837 00a6 1138 0065 8738 009c fc37
000000b0: 00a8 adb8 0004 4138 0020 7eb8 004a 3338
000000c0: 000c f6b8 0030 fbb8 0038 9cb8 0040 4537
000000d0: 008c 4bb8 00b0 6a38 00b8 22b8 00c8 63b8
000000e0: 00b2 ddb8 00c2 e237 00cc a2b8 0054 8937
000000f0: 0004 2638 0058 9338 00d5 12b6 0042 0f38
00000100: 00d0 1638 0062 8c38 0098 8eb8 001c 8838
00000110: 0062 8938 00c8 d8b7 00da 86b8 00c4 50b8
00000120: 8088 c435 005c 3838 0074 2b38 00eb 22b7
00000130: 0088 98b7 0058 7e38 00cc 87b8 00f4 6737
00000140: 00bc 8a38 00c4 f938 0028 d0b6 00d8 7c38
00000150: 0088 7a38 0084 ee38 008c f5b8 0038 e638
00000160: 003c e838 0028 2cb8 0084 e4b8 00e8 b4b8
00000170: 00a0 1336 0008 a038 0018 8f38 0084 b2b7
00000180: 00a4 dfb7 0018 d638 0040 e9b8 004c d837
00000190: 0022 0338 00b0 5f38 0030 49b6 0068 db37
000001a0: 00f0 e637 0080 6038 0036 5eb8 0070 5538
000001b0: 00bc 5238 004a 93b7 0042 4cb8 003c 2ab8
000001c0: 0010 7735 00d0 1338 0058 0738 00cc 27b7
000001d0: 0080 39b7 0000 3238 0038 54b8 0038 4c37
000001e0: 003c d6b6 00b6 2fb7 0070 6635 005c b5b6
000001f0: 00c6 b8b6 80db 30b7 000c 2c37 00ea 2bb7
00000200: 009f 25b7 00a8 7836 00af 1f37 0028 0437
00000210: 00f0 9d34 007c eab6 0063 deb6 00f0 ca35
00000220: 00e8 4836 00ac 17b7 009a 1b37 00c0 dcb5
00000230: 0058 6d37 00c4 c537 00e0 84b6 009c 5837
00000240: 009c 4a37 009c d337 00b0 c9b7 0038 c637
00000250: 0094 be37 00e0 9bb6 000c acb7 0024 aab7
00000260: 00c0 68b4 0020 9437 00f0 7437 00f0 10b7
00000270: 0000 3f35 00e8 8f37 0030 c1b7 0028 f936
00000280: 00c0 6c38 00c8 d638 00c8 81b6 000c 5638
00000290: 0058 5738 0040 cb38 00d0 d2b8 0040 c438
000002a0: 0038 c738 0008 19b8 008c c5b8 0068 99b8
000002b0: 0030 2e36 0058 8738 0030 7438 0064 8db7
000002c0: 00b0 d0b7 00a0 b838 000c c9b8 00dc b737
000002d0: 0038 9fb8 00ba 0db9 0068 df36 006a 8db8
000002e0: 0080 8fb8 00b0 08b9 005c 0b39 0072 03b9
000002f0: 0046 04b9 00b0 4138 0082 0139 001c cf38
00000300: 0088 3fb6 0038 b6b8 004c a4b8 0072 cb37
00000310: 00b0 f737 0088 eeb8 00fc 0439 00f0 fab7
00000320: 00f0 c138 0020 2f39 0006 c8b6 00ec ac38
00000330: 0014 b138 0048 2539 0024 2ab9 005c 2039
00000340: 00c0 2239 0068 7db8 0058 20b9 008c f7b8
00000350: 004c 7d36 0038 db38 001c c838 00ee d4b7
00000360: 001c 2db8 0058 1839 00fc 21b9 0052 0f38
00000370: 0038 f036 0040 5d37 00d0 11b5 0078 e636
00000380: 0098 dc36 0078 5037 00d8 5fb7 009c 4737
00000390: 00e8 4c37 0004 99b6 00ac 4eb7 0070 21b7
000003a0: 00f8 ed34 0068 0d37 00fc f836 00a8 2fb6
000003b0: 005c 6ab6 0008 3c37 0080 53b7 0020 4d36
000003c0: 00f0 8db8 0022 00b9 007c bd36 00ba 81b8
000003d0: 0066 80b8 0090 f2b8 001c fb38 0030 ebb8
000003e0: 009c edb8 00a4 3738 0050 eb38 00d0 b638
000003f0: 0074 02b6 0054 a2b8 0074 92b8 0060 a437
