tutorials/tutorial 5/lightning_logs/version_31/checkpoints/epoch=999-step=1000.ckpt (torch, 523917 bytes, 208 tensors)

_pina_model._model.model.0.weight f4 [20, 2]
0	0xbf1b1afd	-0.60588056
1	0xbf202051	-0.6254931
2	0x3f50f7c3	0.81628054
3	0xbef39004	-0.47570813
4	0x3f840673	1.0314468
5	0xbf5e07e6	-0.867308
6	0x3ebc5b5d	0.36788455
7	0x3f53d3c5	0.8274501
8	0xbf017c86	-0.5058063
9	0xbece5852	-0.40301758
10	0x3e0e38af	0.1388881
11	0x3eaf6be0	0.3426199
12	0xbfad0052	-1.3515723
13	0x3f880a2e	1.0628107
14	0xbe547364	-0.20747143
15	0xbeb772fb	-0.3582991
16	0x3db4ddaf	0.08831345
17	0xbe0a041c	-0.1347813
18	0x3f049c53	0.5180103
19	0x3db7a47c	0.0896692
20	0xbc673f1e	-0.014114169
21	0xbf219ccb	-0.6312987
22	0xbe8269c2	-0.25471312
23	0xbe83da44	-0.2575246
24	0xbe9b961f	-0.3038797
25	0x3ecf22ce	0.4045624
26	0xbf3040f7	-0.6884913
27	0xbeb1e101	-0.34741977
28	0xbeea9ff6	-0.45825166
29	0x3e056dff	0.13030241
30	0xbeb40a6a	-0.35164195
31	0xbe4367e3	-0.19082598
32	0x3f3326a7	0.69980854
33	0x3f05440c	0.52056956
34	0xbe3c3468	-0.18379366
35	0x3efd1b6e	0.4943499
36	0xbeecfcf4	-0.46286738
37	0xbe445224	-0.19171959
38	0xbdfbc628	-0.12293655
39	0x3f10b9bf	0.56533426

_pina_model._model.model.0.bias f4 [20]
0	0x3d19848e	0.03747993
1	0x3f514aa9	0.8175455
2	0xbe990665	-0.2988769
3	0xbef12e7d	-0.4710578
4	0xbe2d4b53	-0.16923265
5	0xbf234dd0	-0.6379061
6	0xbdfb3452	-0.12265839
7	0x3f0b2327	0.54350513
8	0x3ee83b4f	0.4535775
9	0x3ea77d53	0.32712802
10	0x3f37b8bc	0.7176626
11	0x3e883799	0.26604918
12	0x3ee7fa4d	0.45308152
13	0x3f1717ee	0.5902089
14	0x3e1c2132	0.15247038
15	0x3da5d8d5	0.08097998
16	0x3f1884a6	0.59577405
17	0xbf1dc2ae	-0.6162518
18	0xbdf905a2	-0.121592775
19	0xbe9c89fd	-0.30574027

_pina_model._model.model.2.weight f4 [20, 20]
0	0xbcf19327	-0.029489113
1	0xbee3c016	-0.44482487
2	0xbe7438c4	-0.2384978
3	0x3e1ced97	0.15325008
4	0xbe0014c2	-0.12507918
5	0xbd78c101	-0.060730938
6	0xbe1eedb7	-0.15520369
7	0x3d54434a	0.051821984
8	0x3d26d778	0.04073283
9	0xbe0caaa0	-0.13736963
10	0xbe087ce6	-0.13328895
11	0x3e113f85	0.14184387
12	0xbdfdefee	-0.123992786
13	0x3d541e51	0.051786724
14	0x3e1a0840	0.1504221
15	0xbd4505aa	-0.048101105
16	0xbe8548c6	-0.26032084
17	0x3e5fb9c4	0.21848208
18	0x3da0998f	0.07841789
19	0x3d520f8d	0.05128436
20	0x3d8c0667	0.06837159
21	0x3c812a75	0.015767315
22	0xbdad4c39	-0.08461804
23	0x3df9d3ae	0.12198578
24	0xbe5eb794	-0.21749717
25	0x3e227c6b	0.15867774
26	0x3c87e6e1	0.016589584
27	0x3e32714c	0.17426032
28	0x3e3aa136	0.1822556
29	0x3e224b1c	0.15848964
30	0xbd0930a0	-0.033493638
31	0x3dc461ca	0.09588964
32	0xbe8917b0	-0.26775885
33	0x3e2d267a	0.16909209
34	0xbe785e1f	-0.24254654
35	0xbe0b382b	-0.13595645
36	0xbda41c5a	-0.0801322
37	0xbd381bba	-0.044948317
38	0x3d612e5d	0.054975856
39	0xbe6b0ea8	-0.2295481
40	0x3dcd6fbe	0.10031079
41	0x3eb0928c	0.34486806
42	0x3e191c14	0.14952117
43	0x3d989429	0.07450134
44	0x3ba300df	0.004974469
45	0x3c915f25	0.017745564
46	0x3de9809c	0.114014834
47	0xbdd16677	-0.10224622
48	0xbd8ffa7a	-0.070301965
49	0x3d1684a7	0.0367476
50	0xbcc03d80	-0.023466825
51	0x3cee20fe	0.029068466
52	0x3ea1e644	0.3162099
53	0xbd5bcd6c	-0.053662702
54	0x3d622758	0.055213302
55	0x3e1a1890	0.15048432
56	0xbe6c35aa	-0.23067346
57	0xbd352a56	-0.044229828
58	0x3e36ea6c	0.17862862
59	0x3d44f02d	0.048080612
60	0x3d8e6f0e	0.06954776
61	0x3cfe84ac	0.031069122
62	0xbe1225ec	-0.14272279
63	0xbe0ed24a	-0.13947406
64	0xbd2e451b	-0.042546373
65	0x3d9035fd	0.070415474
66	0xbc0cdb91	-0.008597271
67	0xbdea41fe	-0.11438368
68	0xbde79106	-0.11306958
69	0x3d036cd0	0.032086194
70	0x3cfce3fe	0.030870434
71	0x3e217c0e	0.1576998
72	0xbe435848	-0.19076645
73	0xbe22160b	-0.15828721
74	0xbd464153	-0.04840214
75	0x3ded472f	0.11585843
76	0xbb8057e8	-0.0039167292
77	0xbe06f534	-0.13179475
78	0x3e2417fa	0.16024771
79	0x3dcf9d7a	0.10137458
80	0x3d244552	0.04010517
81	0xbe17d748	-0.14828217
82	0xbe290a70	-0.16507888
83	0x3d1761a4	0.03695835
84	0x3da705f5	0.08155433
85	0xbe525928	-0.20541823
86	0xbe5e2e5e	-0.21697375
87	0x3d1e283c	0.03861259
88	0xbe1bd3f6	-0.15217575
89	0xbe3b41cf	-0.18286823
90	0x3d905076	0.07046597
91	0xbd390200	-0.045167923
92	0xbe33281d	-0.17495771
93	0x3cd2ecdf	0.025747715
94	0xbd4134fd	-0.047169674
95	0xbd4071ff	-0.046983715
96	0x3e5a2058	0.213014
97	0x3cf4ae57	0.029868288
98	0x3e023e27	0.12719022
99	0xbd9a519c	-0.07535097
100	0xbd851537	-0.06498187
101	0x3cc5cbb1	0.02414498
102	0xbd180343	-0.037112486
103	0xbd653348	-0.05595711
104	0xbe16d7df	-0.14730786
105	0x3dc2fa2d	0.095203735
106	0x3eb0a3c8	0.34499955
107	0x3d742b46	0.05961158
108	0xbe3a24a5	-0.18178041
109	0xbdf153c6	-0.11783557
110	0x3d2dc269	0.042421732
111	0xbdbc4066	-0.091919705
112	0x3da34939	0.079729505
113	0xbd496ff1	-0.04917902
114	0x3e7774ad	0.24165602
115	0x3c966c04	0.018362053
116	0xbe656c81	-0.22404672
117	0xbd824d9e	-0.063624606
118	0x3df9840c	0.12183389
119	0xbe3de18c	-0.1854307
120	0x3bdfa5ee	0.0068252003
121	0x3dd91dc0	0.106013775
122	0x3dfa6e0a	0.122280195
123	0x3d35b738	0.044364184
124	0xbd6a41e2	-0.057191737
125	0x3e587ffc	0.21142572
126	0xbe40afb2	-0.18817022
127	0xbe37fcd7	-0.17967544
128	0xbdf0dd3f	-0.11760949
129	0xbe3be90d	-0.1835062
130	0xbe2b06f0	-0.16701865
131	0x3e28a770	0.16470122
132	0x3e2c58e4	0.16830784
133	0xbe7a05a5	-0.24416216
134	0xbd4fc1ed	-0.05072205
135	0xbe4797a5	-0.19491442
136	0xbd00d64b	-0.031454366
137	0xbd3ac52c	-0.045598194
138	0x3d664cf6	0.05622574
139	0x3c173236	0.00922828
140	0xbe8e5f83	-0.27807245
141	0x3e292d5e	0.16521212
142	0xbecb5da3	-0.39719877
143	0x3e6f18c5	0.23349293
144	0x3dff4d77	0.12465947
145	0x3de52365	0.111883916
146	0x3d1257e8	0.035728365
147	0xbd9dcf4f	-0.077055566
148	0xbc030d96	-0.007998845
149	0x3dc6313f	0.09677362
150	0xbda5a583	-0.080882095
151	0xbe415a24	-0.18882042
152	0x3dc3f6be	0.09568547
153	0x3b2dec55	0.002653857
154	0x3d663578	0.056203336
155	0xbe50cecb	-0.20391385
156	0xbd92104a	-0.07132013
157	0x3e4f64e5	0.20253332
158	0xbe7e11cf	-0.24811481
159	0x3e40604b	0.18786733
160	0xbe43d0fb	-0.19122688
161	0x3e2f3ae9	0.17112316
162	0x3e5d2d01	0.21599199
163	0x3d8daf2c	0.06918177
164	0xbda7b18a	-0.0818816
165	0xbd5fb7f9	-0.05461881
166	0x3db942c1	0.090459354
167	0x3e33ed41	0.17570974
168	0xbda77dc1	-0.081782825
169	0x3dc8eaa0	0.09810376
170	0x3e4836e5	0.1955219
171	0xbe32f8c5	-0.1747771
172	0x3c853700	0.016261578
173	0xbe0f3188	-0.13983738
174	0x3d6997f7	0.05702969
175	0xbd8d6e9c	-0.06905863
176	0xbd72babd	-0.05926012
177	0x3e09b55d	0.13448091
178	0x3de3d937	0.11125415
179	0x3d612773	0.054969262
180	0x3dddaba5	0.10823754
181	0xbeb63162	-0.3558455
182	0xbe10d86c	-0.14145058
183	0xbe1bc537	-0.1521195
184	0xbe0b6204	-0.13611609
185	0xbc341d8f	-0.010993375
186	0xbe0a5e36	-0.13512501
187	0xbca058b8	-0.019573554
188	0x3e0d658f	0.13808273
189	0xbe31855f	-0.17336033
190	0x3d713451	0.058887783
191	0x3d8c217c	0.06842324
192	0xbea836df	-0.32854363
193	0xbe3bc8c1	-0.183383
194	0xbd7ae6af	-0.061255153
195	0xbd82dbad	-0.06389556
196	0x3e916d96	0.2840392
197	0xbdfd32a9	-0.12363178
198	0xbd0a904c	-0.03382902
199	0x3dcba1d9	0.09942979
200	0x3d67c339	0.056582663
201	0xbe422b5d	-0.18961854
202	0xbd6af6d2	-0.057364292
203	0xbe389bf6	-0.18028244
204	0x3c2cabc3	0.010538998
205	0x3d4e70e1	0.05040062
206	0xbcf68880	-0.030094385
207	0x3e2ab156	0.16669211
208	0x3e283b4b	0.16428868
209	0xbdbb18b8	-0.09135574
210	0x3e374ca0	0.17900324
211	0xbe1c0980	-0.15237999
212	0xbe286e45	-0.16448314
213	0xbdcb0707	-0.0991345
214	0x3e10f3c3	0.14155488
215	0x3dce21db	0.10065051
216	0xbda449e8	-0.08021909
217	0x3e3d5117	0.18487965
218	0xbe1788c8	-0.14798272
219	0xbe349939	-0.17636575
220	0x3d9cb703	0.07652094
221	0xbd487c1a	-0.048946477
222	0xbd9f9a5b	-0.07793113
223	0x3e00424d	0.12525292
224	0xbe8ba44a	-0.2727378
225	0x3db40b60	0.08791232
226	0xbb7c2d4e	-0.0038479152
227	0x3d4b1424	0.049579754
228	0x3cd41991	0.025891097
229	0x3e6a701d	0.2289433
230	0xbda4fe4c	-0.08056316
231	0xbd657fe5	-0.056030173
232	0x3d076d96	0.033063494
233	0xbe22565c	-0.15853256
234	0x3d3406a2	0.043951638
235	0xbd948cae	-0.07253395
236	0xbdd286e7	-0.10279637
237	0xbe67f5af	-0.22652315
238	0xbcda23ce	-0.026628401
239	0x3c21bf2a	0.009872237
240	0x3de17ba1	0.110099085
241	0xbd553468	-0.05205193
242	0x3db81401	0.089881904
243	0xbb86abac	-0.0041098204
244	0xbd8088fd	-0.062761284
245	0xbb24d9e4	-0.0025154287
246	0xbe882485	-0.26590362
247	0x3e1f1e9a	0.15539017
248	0x3e4e7eff	0.20165633
249	0x3d04ad6d	0.032391954
250	0xbc0342fd	-0.008011577
251	0xbe37b2b4	-0.17939264
252	0x3df93439	0.12168164
253	0xbdfab02f	-0.122406356
254	0xbe3081e7	-0.17237054
255	0xbd0cac8d	-0.034344245

_pina_model._model.model.2.bias f4 [20]
0	0xbe55e532	-0.20888212
1	0xbe337cae	-0.1752803
2	0xbdafdc8f	-0.0858699
3	0xbcd05889	-0.025432842
4	0xbd8c2972	-0.068438426
5	0xbe060e56	-0.13091406
6	0xbcf46f22	-0.029838149
7	0x3e7a3760	0.24435186
8	0x3e3d57dc	0.18490547
9	0x3c937eae	0.018004742
10	0x3e365981	0.1780758
11	0xbd11be59	-0.03558192
12	0x3c9a0494	0.018801011
13	0xbe1d9c3d	-0.15391631
14	0xbe8ebc2f	-0.27877948
15	0xbd3c81a3	-0.04602207
16	0x3d82c856	0.06385867
17	0x3dc589fa	0.096454576
18	0x3e0dc820	0.13845873
19	0xbd225557	-0.039632168

_pina_model._model.model.4.weight f4 [2, 20]
0	0xbea8acf8	-0.32944465
1	0xbe6b45a5	-0.22975786
2	0x3e8a035f	0.26955697
3	0x3d17b087	0.037033584
4	0xbe6ddd27	-0.23228894
5	0x3dcf5b2c	0.101248115
6	0x3d80c2c4	0.062871486
7	0xbe8201d4	-0.2539202
8	0x3e2fa117	0.17151295
9	0xbeed2fc8	-0.46325517
10	0xbe1169d7	-0.14200531
11	0xbe59d0a2	-0.21270993
12	0xbe2f4b75	-0.17118628
13	0x3dfe9809	0.12431342
14	0x3ec0eeb6	0.37682122
15	0x3e055ac8	0.13022912
16	0x3e5f3987	0.21799289
17	0xbe660380	-0.22462273
18	0x3e27779c	0.16354221
19	0xbedfd0bf	-0.43713948
20	0xbe5fca40	-0.21854496
21	0xbe521340	-0.20515156
22	0x3ef89f6e	0.48559135
23	0xbe7b1a58	-0.24521768
24	0xbe13ca77	-0.14432703
25	0x3ea42e90	0.32066774
26	0x3e037415	0.1283725
27	0xbd21bb3a	-0.039485194
28	0x3d2e607d	0.042572487
29	0xbea945ab	-0.33060965
30	0x3d9db02c	0.07699618
31	0xbd608d29	-0.05482212
32	0xbd843eb3	-0.064572714
33	0x3d489354	0.048968628
34	0x3e81ccfc	0.25351703
35	0x3ddc60f4	0.1076068
36	0x3d8df848	0.069321215
37	0xbe9a5bfb	-0.301483
38	0xbe34d41c	-0.17659038
39	0xbe86faef	-0.26363322

_pina_model._model.model.4.bias f4 [2]
0	0x3d891058	0.066925704
1	0xbc767354	-0.015042145

d f4 [522]
0	0xba3c5307	-0.0007184003
1	0x39916672	0.00027732883
2	0x3a4fafbc	0.000792261
3	0x396f9ae1	0.00022850513
4	0xb94129d2	-0.00018421494
5	0x3af3e5c6	0.0018607907
6	0xb9d3296e	-0.00040275924
7	0xb952fd26	-0.00020121466
8	0x391b7cbd	0.0001482842
9	0x38ffd5c6	0.00012199166
10	0x35bfa260	1.4277866e-06
11	0xb7d8bc3f	-2.5836865e-05
12	0xba4276cd	-0.00074182154
13	0xbb41ba82	-0.002956063
14	0xb6e449ac	-6.803506e-06
15	0xb72fd6fd	-1.0480869e-05
16	0xb7340562	-1.0730089e-05
17	0xb8c09a64	-9.184031e-05
18	0x39577e4d	0.00020551049
19	0xb967763f	-0.00022073927
20	0x399f0d2d	0.0003033666
21	0x39990ad9	0.00029190516
22	0xb90e5856	-0.00013575083
23	0x392bc0c0	0.00016379636
24	0xb9d71217	-0.00041021474
25	0xb9f2cfbc	-0.0004631261
26	0xb9c3a16e	-0.00037313573
27	0xb7877b82	-1.6150767e-05
28	0x3a240ff0	0.00062584784
29	0x3a66b386	0.0008800555
30	0x39310c9e	0.00016884736
31	0x39c774c3	0.00038043232
32	0x39aa058c	0.0003242906
33	0x3a08bf64	0.00052165077
34	0x392ad099	0.00016290172
35	0x395e172f	0.00021180206
36	0x397582e3	0.0002341378
37	0x398ea5bb	0.0002720783
38	0xb91322cd	-0.00014031977
39	0xb966fb2e	-0.00022028081
40	0x37520907	1.2519077e-05
41	0x39eba12c	0.00044942775
42	0xbaa9bf8e	-0.0012950765
43	0xb9b1ab59	-0.00033887735
44	0x38901e2c	6.872075e-05
45	0xb93fbcb6	-0.0001828548
46	0x3ab8972e	0.0014083141
47	0x374e8af9	1.2310914e-05
48	0xb98b79d2	-0.0002660291
49	0x37ee617c	2.8417206e-05
50	0x395a436f	0.00020815221
51	0xb8e497ae	-0.0001090014
52	0x3a2e19b0	0.0006641401
53	0xb927201b	-0.00015938321
54	0x3a017301	0.00049380964
55	0x3943511a	0.00018626862
56	0x3a25f02b	0.00063300383
57	0xb7af9b4e	-2.0933945e-05
58	0xb852a3a2	-5.0220297e-05
59	0xb99abcfe	-0.0002951398
60	0x39d39da1	0.000403625
61	0xba3527a2	-0.0006910508
62	0xb8dd4797	-0.00010551436
63	0xb80b1717	-3.3161687e-05
64	0x39485567	0.00019105301
65	0x391bf7c2	0.00014874249
66	0x3a5c91d8	0.00084140664
67	0xb9310192	-0.0001688062
68	0xb935b621	-0.00017329353
69	0xb988525b	-0.000260013
70	0xb9a90e39	-0.0003224479
71	0xb73ae1e5	-1.1139059e-05
72	0xb99dd4a6	-0.0003010381
73	0x38783f32	5.9186663e-05
74	0xb96067cb	-0.0002140097
75	0x38c436be	9.356205e-05
76	0xb81b811e	-3.707513e-05
77	0x395f5eca	0.00021302249
78	0x396697fe	0.00021991131
79	0x391f1a3a	0.00015173192
80	0x394a9360	0.00019319123
81	0xb9e72621	-0.00044088162
82	0x390606ca	0.00012781765
83	0x3964f248	0.00021834031
84	0x38a6274c	7.9228164e-05
85	0x390a54f8	0.00013192359
86	0xba4bc1bf	-0.0007772706
87	0xb9185075	-0.00014525822
88	0xb8d0c3d1	-9.9546865e-05
89	0xb92216c3	-0.00015458003
90	0xb914fc29	-0.00014208317
91	0xb8dc2d59	-0.00010498864
92	0xba15abd2	-0.0005709502
93	0xb87005f6	-5.722601e-05
94	0xb9bbf95f	-0.00035853215
95	0xb853bd1a	-5.0482435e-05
96	0x3746912f	1.1835523e-05
97	0x3878810f	5.9248003e-05
98	0x388595a3	6.369806e-05
99	0x374fd364	1.238738e-05
100	0xb9d0f8fa	-0.00039858354
101	0x3a1011fe	0.0005495845
102	0x39ccad24	0.00039038912
103	0xb8ef9cd0	-0.00011425617
104	0xb85eacf8	-5.3090014e-05
105	0x38dbe892	0.00010486053
106	0x39e289cc	0.00043208746
107	0xb6f7609c	-7.3724204e-06
108	0xb9262546	-0.00015844879
109	0x38fad169	0.00011959935
110	0x393e5109	0.0001815
111	0xb7c85dc0	-2.3885514e-05
112	0x39a9597a	0.00032300857
113	0xb99de272	-0.00030114088
114	0x399f7b1a	0.0003041856
115	0xb725ba09	-9.878081e-06
116	0xb9b8beca	-0.00035237364
117	0x3715d121	8.929784e-06
118	0xb8a5c22a	-7.903979e-05
119	0xb8a9e3fc	-8.1010134e-05
120	0xb797bf30	-1.8089631e-05
121	0xb98521b3	-0.00025392845
122	0xb9b3fa29	-0.00034327924
123	0x388f84a8	6.8434805e-05
124	0xb811f45e	-3.479828e-05
125	0xb81f17c8	-3.7930702e-05
126	0x3915422e	0.00014234401
127	0x3780efe4	1.5370497e-05
128	0x388c2d00	6.684102e-05
129	0xb7ea8136	-2.7955142e-05
130	0xb90b25b2	-0.00013270116
131	0x3721b574	9.638596e-06
132	0x384f7383	4.9460225e-05
133	0x388117fc	6.155667e-05
134	0x3874ac26	5.833446e-05
135	0xb613afd8	-2.2007061e-06
136	0x39044d27	0.00012617242
137	0x38c14454	9.215684e-05
138	0x3711cd74	8.690509e-06
139	0x38bfeddb	9.151894e-05
140	0x399c2fea	0.00029790337
141	0xb802380d	-3.1046617e-05
142	0xb93131aa	-0.00016898537
143	0x38b6fa45	8.7250526e-05
144	0x3890442a	6.8791516e-05
145	0x382c2970	4.1046587e-05
146	0x39039504	0.00012548646
147	0xb8c26911	-9.270211e-05
148	0x387290ef	5.7832276e-05
149	0xb5d90bd0	-1.6171198e-06
150	0xb916cd80	-0.0001438167
151	0xb813220a	-3.5079232e-05
152	0xb8f425f9	-0.000116418996
153	0x38bb1f0a	8.922636e-05
154	0xb93d5fac	-0.00018060085
155	0xb75f9fe2	-1.3329061e-05
156	0x390ffcbe	0.00013731697
157	0xb6558cf0	-3.182151e-06
158	0x3812c127	3.4989e-05
159	0x38cf7b77	9.893526e-05
160	0xba5d828c	-0.0008449934
161	0x39aba822	0.0003274093
162	0x39b11fe2	0.00033783825
163	0x3a031476	0.00050003023
164	0xb9f89441	-0.00047412704
165	0x39ad061d	0.00033001686
166	0x3a315858	0.00067651784
167	0xb9bf4269	-0.00036479838
168	0xb8f641c6	-0.00011742445
169	0x39be41e6	0.00036288722
170	0xb99e1501	-0.00030151758
171	0xb9bc424a	-0.00035907543
172	0x38735dbc	5.802301e-05
173	0xba4e8703	-0.00078783947
174	0xb9aa4a0b	-0.00032480093
175	0xb9d4b2e4	-0.00040569075
176	0x38d988a0	0.00010372815
177	0x392aeb7a	0.00016300185
178	0xb9fa42b1	-0.00047733405
179	0x39268426	0.00015880223
180	0x391238f1	0.00013944857
181	0xb655da9a	-3.1866716e-06
182	0x391924ec	0.00014604972
183	0xb92eadac	-0.00016658631
184	0x38d3210c	0.000100674195
185	0x382adffa	4.0739753e-05
186	0x39632f23	0.00021665967
187	0xb7b075c4	-2.1035674e-05
188	0xb848f537	-4.791209e-05
189	0xb8672d82	-5.5117074e-05
190	0x3653bd00	3.1551463e-06
191	0x37ecae29	2.8214492e-05
192	0xb5e68b2b	-1.7176839e-06
193	0xb766bb94	-1.3752742e-05
194	0x387c8b60	6.0211285e-05
195	0x38228564	3.874804e-05
196	0xb914203d	-0.0001412639
197	0x380eab13	3.4014764e-05
198	0x3870cc23	5.7410576e-05
199	0xb82b51b4	-4.084567e-05
200	0xb9403db6	-0.00018333536
201	0xb93a75ba	-0.00017782199
202	0xb9820842	-0.00024801685
203	0x3a0f0944	0.0005456398
204	0xb85d0353	-5.2693602e-05
205	0x397157e7	0.00023016297
206	0x38443552	4.67797e-05
207	0xb97476c2	-0.00023313894
208	0xb95f28cc	-0.00021282135
209	0xb715e280	-8.933828e-06
210	0xb9607084	-0.0002140422
211	0xb90ae49c	-0.00013245869
212	0x39223860	0.00015470525
213	0xb8d2de7f	-0.000100550234
214	0x3918eaf7	0.00014583381
215	0xb793d9c9	-1.762518e-05
216	0x38f13e4d	0.0001150338
217	0x396e6ce5	0.00022738015
218	0x380e754a	3.3964672e-05
219	0x397ce2da	0.00024117102
220	0xb94aab02	-0.00019327927
221	0xb8c24fad	-9.265482e-05
222	0xb84e66fa	-4.921013e-05
223	0x3887c6f1	6.474357e-05
224	0x379ed7a9	1.8935492e-05
225	0x3911bba6	0.00013898182
226	0xb8723d06	-5.775413e-05
227	0xb87d4462	-6.0383587e-05
228	0xb92870e0	-0.00016063778
229	0xb8f1b916	-0.000115262505
230	0xb8cbc436	-9.7163414e-05
231	0xb82b31c8	-4.081594e-05
232	0x38d6dbae	0.00010245234
233	0xb85ffa52	-5.3400472e-05
234	0x395eaf82	0.00021236952
235	0x381294a6	3.4947552e-05
236	0xb96ae3eb	-0.00022400885
237	0x39540152	0.00020218387
238	0x38510f25	4.9843587e-05
239	0x38c2da98	9.291357e-05
240	0x3a01c8db	0.0004950889
241	0xb9dc21e6	-0.00041986926
242	0xb991eb52	-0.00027831882
243	0x39925f33	0.0002791822
244	0x38c8d769	9.5768664e-05
245	0x38a75e06	7.980694e-05
246	0xb99cbd90	-0.00029895874
247	0xb92f0876	-0.00016692452
248	0x386b76a8	5.6138873e-05
249	0xb8ef4ebd	-0.00011411074
250	0xb992f3a7	-0.00028028825
251	0xb8fc7c3c	-0.00012039437
252	0xb9e890ec	-0.00044358463
253	0x39434c0a	0.00018624976
254	0xba0158d5	-0.00049341965
255	0xb86356a2	-5.42017e-05

old_dirs f4 [522]
0	0x321ce000	9.131327e-09
1	0xb3ae6c00	-8.1221515e-08
2	0x34cf2800	3.8585858e-07
3	0x3402d000	1.2182863e-07
4	0xb589e400	-1.0273652e-06
5	0x34ce2800	3.8399594e-07
6	0xb2ed0800	-2.759407e-08
7	0xb3a79600	-7.803828e-08
8	0x332fa000	4.0890882e-08
9	0xb1bb8000	-5.456968e-09
10	0x329cc800	1.825174e-08
11	0x33a23100	7.552626e-08
12	0xb494c000	-2.7706847e-07
13	0x352d6400	6.459304e-07
14	0x3125a000	2.410161e-09
15	0xb438e300	-1.7218917e-07
16	0xb31c4800	-3.6387064e-08
17	0xb3d5aa00	-9.949508e-08
18	0x33304200	4.103822e-08
19	0xb1894000	-3.9945007e-09
20	0x31f6b000	7.179551e-09
21	0xb30d8200	-3.2947355e-08
22	0xb2fbb000	-2.9300281e-08
23	0x33db9900	1.0225813e-07
24	0xb476dc00	-2.2990571e-07
25	0x34848200	2.4681503e-07
26	0xb329b400	-3.9512088e-08
27	0xb1c50000	-5.7334546e-09
28	0xb2ec3200	-2.7496753e-08
29	0x34256400	1.5403202e-07
30	0xb2825800	-1.517401e-08
31	0x32f13000	2.807792e-08
32	0xb07e4000	-9.249561e-10
33	0x3307a000	3.1577656e-08
34	0x31761000	3.5806806e-09
35	0x32243800	9.558789e-09
36	0xb1fc6000	-7.345079e-09
37	0x32277000	9.746145e-09
38	0x3285a000	1.5555997e-08
39	0x3336b800	4.2542524e-08
40	0xb26ca000	-1.3773388e-08
41	0x3492b600	2.7327042e-07
42	0xb5778000	-9.2200935e-07
43	0x31b68000	5.311449e-09
44	0xb276f000	-1.4373654e-08
45	0x33464800	4.616595e-08
46	0x34eea800	4.445319e-07
47	0xb35a1000	-5.0771632e-08
48	0xb2932800	-1.7131242e-08
49	0x319a6000	4.492904e-09
50	0xb2620000	-1.3154931e-08
51	0xb270f000	-1.4024408e-08
52	0xb308c400	-3.184323e-08
53	0xb324e400	-3.839159e-08
54	0x33675000	5.385664e-08
55	0xb3456400	-4.5958586e-08
56	0xb0b2c000	-1.3005774e-09
57	0x33007500	2.9908733e-08
58	0xb3213400	-3.7533027e-08
59	0x3352d400	4.9087248e-08
60	0x33690e00	5.4262273e-08
61	0xb4232c00	-1.5196565e-07
62	0x34667200	2.1461892e-07
63	0xb3887800	-6.3548214e-08
64	0x33437a80	4.551339e-08
65	0xb2c53c00	-2.2961103e-08
66	0xb492ae00	-2.732122e-07
67	0x3303e400	3.070818e-08
68	0xb1e02a00	-6.524033e-09
69	0xb3705800	-5.595939e-08
70	0x32a89400	1.9625077e-08
71	0x3302f300	3.048899e-08
72	0xb2e37400	-2.6479029e-08
73	0x33834b00	6.113805e-08
74	0x32ff2c00	2.9705916e-08
75	0x3321d000	3.767491e-08
76	0xb3152800	-3.4728146e-08
77	0x3260e800	1.3091267e-08
78	0x3354f300	4.9581104e-08
79	0xb28a9000	-1.6130798e-08
80	0x33260400	3.8653525e-08
81	0xb3146600	-3.4551704e-08
82	0x345d5600	2.0613516e-07
83	0xb3a53400	-7.69287e-08
84	0x32bc9400	2.1953383e-08
85	0xb2f75c00	-2.8796421e-08
86	0xb4c35600	-3.6384154e-07
87	0x33049d80	3.087689e-08
88	0x3225aa00	9.642918e-09
89	0xb2492000	-1.1707016e-08
90	0x3369d700	5.444508e-08
91	0x32b430e0	2.0976984e-08
92	0xb36b3000	-5.4758857e-08
93	0x32a26700	1.8906121e-08
94	0xb2a37600	-1.9029358e-08
95	0x32604200	1.3053523e-08
96	0xb26ba800	-1.3716999e-08
97	0xb314a080	-3.460491e-08
98	0x326dfc00	1.3852514e-08
99	0xb3866180	-6.2575964e-08
100	0xb3228000	-3.783498e-08
101	0x331b9400	3.6223355e-08
102	0xb4d07c00	-3.883324e-07
103	0x34039580	1.2254714e-07
104	0xb1934000	-4.285539e-09
105	0x339a1900	7.175731e-08
106	0x353f6c00	7.1310205e-07
107	0xb393cb00	-6.8821464e-08
108	0xb326bc80	-3.8821327e-08
109	0xb246ec00	-1.1578777e-08
110	0xb3f6f600	-1.1500015e-07
111	0xb3204300	-3.731384e-08
112	0x33c44e00	9.141149e-08
113	0xb312f200	-3.421337e-08
114	0x33324c00	4.1512976e-08
115	0xb223f400	-9.543328e-09
116	0xb2d07000	-2.4265319e-08
117	0x33aedd80	8.142797e-08
118	0x31280000	2.4447218e-09
119	0x34010200	1.2014789e-07
120	0xb2866000	-1.5643309e-08
121	0x3316e900	3.513651e-08
122	0x341f2a00	1.4823308e-07
123	0xb2ec7400	-2.7526767e-08
124	0xb300d000	-2.9991497e-08
125	0xb3197f00	-3.5738594e-08
126	0xb486a700	-2.5080953e-07
127	0x32f59c00	2.8592694e-08
128	0x33071d80	3.1458967e-08
129	0x33285b00	3.9198312e-08
130	0x33606e00	5.225411e-08
131	0x32028400	7.597009e-09
132	0xb2f34400	-2.8319846e-08
133	0xb1c19800	-5.6343197e-09
134	0xb305e600	-3.117566e-08
135	0xb2773e00	-1.4391389e-08
136	0x33402100	4.4733497e-08
137	0xb34f3600	-4.8245056e-08
138	0xb303df00	-3.070363e-08
139	0xb3653200	-5.3363692e-08
140	0x32693000	1.3573299e-08
141	0xb2951c00	-1.7358616e-08
142	0x34472400	1.8546416e-07
143	0xb3869000	-6.266055e-08
144	0xb1e5c000	-6.686605e-09
145	0xb32ac880	-3.9763563e-08
146	0xb4c66e00	-3.696041e-07
147	0x3317aa00	3.531204e-08
148	0x32ecd200	2.7569513e-08
149	0x32634000	1.3227691e-08
150	0x337cac00	5.8829755e-08
151	0x3282ba00	1.5218575e-08
152	0xb331ff00	-4.1442945e-08
153	0x32703c00	1.3983481e-08
154	0xb2f7c000	-2.8841896e-08
155	0xb111a000	-2.1191227e-09
156	0x32e1e800	2.6298949e-08
157	0xb34a9280	-4.716503e-08
158	0xb2163400	-8.742973e-09
159	0xb376d400	-5.746915e-08
160	0xb3370200	-4.2609827e-08
161	0x339f3000	7.4127456e-08
162	0xb485cd80	-2.49227e-07
163	0x338cc700	6.555456e-08
164	0xb301c700	-3.0216142e-08
165	0x31e89000	6.7684596e-09
166	0x34abea00	3.202149e-07
167	0xb26e2000	-1.3860699e-08
168	0x3220e800	9.365976e-09
169	0x32d09800	2.4283509e-08
170	0xb2c6c800	-2.3141183e-08
171	0xb2828100	-1.5192654e-08
172	0x33abb900	7.996459e-08
173	0xb22d6000	-1.0091753e-08
174	0x32bc3800	2.1911546e-08
175	0xb26e9600	-1.3887529e-08
176	0x3315ae00	3.4850018e-08
177	0x318d0000	4.10364e-09
178	0xb2a81000	-1.956505e-08
179	0x33674400	5.3845724e-08
180	0xb2861c00	-1.5612386e-08
181	0xb1c59000	-5.7498255e-09
182	0xb3e96800	-1.08688255e-07
183	0x33377000	4.270987e-08
184	0xb0cea000	-1.5033947e-09
185	0x32d3b600	2.4646397e-08
186	0x34449500	1.8308128e-07
187	0xb2c64c00	-2.3084795e-08
188	0xb28a0800	-1.6068952e-08
189	0xb2015600	-7.528342e-09
190	0xb32bfd00	-4.0044142e-08
191	0xb2545300	-1.2358896e-08
192	0x32e47c00	2.6599082e-08
193	0xb27b7c00	-1.4638317e-08
194	0x32866000	1.5643309e-08
195	0xb11dca00	-2.296133e-09
196	0xb2317000	-1.0328222e-08
197	0x330b3e00	3.2419848e-08
198	0x31207800	2.3351276e-09
199	0x332dea00	4.0492523e-08
200	0xb32cdc00	-4.024696e-08
201	0x34098400	1.280714e-07
202	0x338ac000	6.4610504e-08
203	0xb3914c00	-6.765913e-08
204	0xb3978200	-7.055132e-08
205	0xb3d91200	-1.0108124e-07
206	0xb4a79b00	-3.121895e-07
207	0x33b2bc00	8.322968e-08
208	0x33bea300	8.877214e-08
209	0x33b91900	8.619281e-08
210	0x34056e00	1.2426608e-07
211	0x33000800	2.98096e-08
212	0x33738400	5.66979e-08
213	0x3384d400	6.1852916e-08
214	0xb27db000	-1.4766556e-08
215	0xb2879000	-1.5781552e-08
216	0x34125900	1.3629688e-07
217	0xb3f9dc00	-1.1634984e-07
218	0xb36dc600	-5.5360942e-08
219	0xb38bb100	-6.504888e-08
220	0xb2c02800	-2.2369932e-08
221	0x331e5400	3.686364e-08
222	0xb3d7ca00	-1.0048461e-07
223	0x3333ac00	4.183312e-08
224	0xb284e000	-1.5468686e-08
225	0x32727000	1.411172e-08
226	0x342c7800	1.6062404e-07
227	0xb2900c00	-1.6769263e-08
228	0xb0d57000	-1.5529622e-09
229	0x3279f000	1.4548277e-08
230	0xb2d0b000	-2.4294422e-08
231	0xb2624400	-1.3170393e-08
232	0x32cd6500	2.391107e-08
233	0xb2af9c00	-2.0443622e-08
234	0x3164d000	3.32966e-09
235	0xb2468500	-1.1555358e-08
236	0x32203000	9.32414e-09
237	0x323b4800	1.09012035e-08
238	0xb26e6e00	-1.3878434e-08
239	0x32d1f800	2.444358e-08
240	0x338ce800	6.5614586e-08
241	0xb3a7c000	-7.811468e-08
242	0x34cb6c00	3.7890277e-07
243	0xb419a500	-1.4309262e-07
244	0x330e2400	3.3094693e-08
245	0xb38a8c80	-6.4516826e-08
246	0xb5419300	-7.2112016e-07
247	0x338d9080	6.5921085e-08
248	0x32dc0d00	2.5617283e-08
249	0xb2a47000	-1.9143044e-08
250	0x33ec1c00	1.09946996e-07
251	0x333140c0	4.1269914e-08
252	0xb3db1300	-1.0201438e-07
253	0x33412c00	4.4976332e-08
254	0xb3158e00	-3.4820914e-08
255	0x32c44c00	2.2851964e-08

old_dirs f4 [522]
0	0xb374f400	-5.7032594e-08
1	0x3492d800	2.735178e-07
2	0xb4a85200	-3.13521e-07
3	0xb588d100	-1.0193617e-06
4	0x35b52400	1.3496028e-06
5	0xb5bb6d00	-1.3964309e-06
6	0xb2770800	-1.4379111e-08
7	0x34de6200	4.1422027e-07
8	0xb15ec000	-3.2414391e-09
9	0xb4b71e00	-3.4108234e-07
10	0xb3caf200	-9.4503775e-08
11	0xb4d34d00	-3.9357838e-07
12	0x33f8c000	1.15833245e-07
13	0xb6104080	-2.1495216e-06
14	0x34090800	1.276203e-07
15	0x358125e0	9.622272e-07
16	0x33a6c500	7.7658115e-08
17	0x3548d2c0	7.481249e-07
18	0xb2357800	-1.05628715e-08
19	0xb49ba680	-2.8992145e-07
20	0x3403ed80	1.2286728e-07
21	0x34ca3e80	3.7670907e-07
22	0x33110200	3.3762262e-08
23	0xb4cda8c0	-3.8307007e-07
24	0x3426cc00	1.553417e-07
25	0xb56d6d00	-8.8447996e-07
26	0x330d9400	3.2963726e-08
27	0xb2de7e00	-2.59015e-08
28	0x33e6a500	1.0740223e-07
29	0xb528ac40	-6.2835534e-07
30	0x33a3f000	7.633935e-08
31	0xb4781d00	-2.310735e-07
32	0xb3197f00	-3.5738594e-08
33	0x332bcc00	3.9999577e-08
34	0xb33d3c80	-4.4060016e-08
35	0x336c7800	5.505717e-08
36	0x33ad0400	8.056668e-08
37	0xb42c4000	-1.6042031e-07
38	0xb34c3200	-4.7542926e-08
39	0xb49371c0	-2.7463648e-07
40	0xb33fb000	-4.4630724e-08
41	0xb58c8880	-1.047054e-06
42	0x35ad9800	1.2933742e-06
43	0x342d5400	1.614244e-07
44	0xb4388a00	-1.718654e-07
45	0xb49f7f00	-2.9708463e-07
46	0xb584dc00	-9.898795e-07
47	0x34f57a00	4.5723573e-07
48	0x34bde400	3.5369885e-07
49	0xb3f54400	-1.1421071e-07
50	0x348b8100	2.5984627e-07
51	0xb37ed400	-5.9331796e-08
52	0x34963480	2.7977876e-07
53	0x3417c700	1.4135367e-07
54	0xb3db7000	-1.0218355e-07
55	0x33341600	4.1929525e-08
56	0xb3121e00	-3.402056e-08
57	0xb3a05e80	-7.46777e-08
58	0x33176800	3.5252015e-08
59	0xb45fa800	-2.0829611e-07
60	0xb4d6a680	-3.998175e-07
61	0x345f4800	2.0794687e-07
62	0xb5464200	-7.385679e-07
63	0x34f49280	4.5555134e-07
64	0xb4b42470	-3.3554124e-07
65	0xb39f7e80	-7.427025e-08
66	0x3554b100	7.9233723e-07
67	0x31d3f800	6.1691026e-09
68	0x3417a560	1.4123134e-07
69	0x347aa380	2.3342545e-07
70	0xb38aaa00	-6.4570486e-08
71	0xb39e81c0	-7.38105e-08
72	0x34cc7900	3.8086e-07
73	0xb2ade000	-2.0241714e-08
74	0x33bb8900	8.732786e-08
75	0xb40db8c0	-1.319886e-07
76	0x34e10540	4.1913336e-07
77	0xb2c0cc00	-2.244451e-08
78	0xb465a540	-2.1387405e-07
79	0x34849300	2.4693873e-07
80	0xb4842400	-2.461311e-07
81	0xb3223e00	-3.7774953e-08
82	0xb53f4f00	-7.1268005e-07
83	0x34ef4280	4.4565604e-07
84	0xb43d8000	-1.7648563e-07
85	0x3390e800	6.747723e-08
86	0x3589a780	1.0256044e-06
87	0xb3dd4ec0	-1.0305439e-07
88	0x3246b000	1.1565135e-08
89	0x33a63d80	7.741164e-08
90	0xb47158c0	-2.2477161e-07
91	0xb3da9268	-1.0178047e-07
92	0x345f1400	2.077577e-07
93	0xb3d51900	-9.923133e-08
94	0x33ae8140	8.126017e-08
95	0xb3ca9e80	-9.435189e-08
96	0x342e0a00	1.6208651e-07
97	0x34154dc0	1.3904992e-07
98	0xb3df7700	-1.0405893e-07
99	0x34990000	2.849847e-07
100	0x3495dc00	2.7913484e-07
101	0x34aaaf80	3.179266e-07
102	0x35a3fb80	1.2217643e-06
103	0xb54efa80	-7.7105506e-07
104	0x340e6100	1.3260069e-07
105	0xb486de40	-2.5121153e-07
106	0xb5fe5d00	-1.8951541e-06
107	0x3492e480	2.7360875e-07
108	0x340778c0	1.2616783e-07
109	0x335a3c00	5.081165e-08
110	0x350c9180	5.2365795e-07
111	0x344a5300	1.8842911e-07
112	0xb452d400	-1.9634899e-07
113	0x3461dd80	2.1035339e-07
114	0xb4262000	-1.5471596e-07
115	0x33de2b80	1.0345593e-07
116	0xb23f8000	-1.1146767e-08
117	0xb4d54840	-3.972691e-07
118	0x333ff800	4.4696208e-08
119	0xb50e79a0	-5.307611e-07
120	0x33e67600	1.0731674e-07
121	0xb4bcb6c0	-3.5150697e-07
122	0xb4684200	-2.1630694e-07
123	0x342bbb80	1.5993828e-07
124	0x34337900	1.6714694e-07
125	0x34634a00	2.1167943e-07
126	0x35108800	5.3842086e-07
127	0xb4392b80	-1.7245293e-07
128	0xb44f4420	-1.9303161e-07
129	0xb4688360	-2.1654478e-07
130	0xb490d3c0	-2.6976159e-07
131	0xb37bf8c0	-5.866673e-08
132	0xb41b7b80	-1.4480429e-07
133	0xb3df8400	-1.04082574e-07
134	0x3335dd00	4.2343345e-08
135	0x33305800	4.105823e-08
136	0xb4a57360	-3.081759e-07
137	0x348de6c0	2.643119e-07
138	0x3415e3c0	1.3959561e-07
139	0x34245b80	1.5306978e-07
140	0xb4980b80	-2.8320574e-07
141	0xb23ad800	-1.0875738e-08
142	0xb5409b00	-7.175113e-07
143	0x34faf180	4.6741843e-07
144	0xb46cc900	-2.2052336e-07
145	0x336d0200	5.518268e-08
146	0x35884e80	1.0155636e-06
147	0xb3d7f420	-1.0056124e-07
148	0x33263700	3.869991e-08
149	0x3400c200	1.1991506e-07
150	0xb471c100	-2.2515087e-07
151	0xb3f3a640	-1.134581e-07
152	0x347200c0	2.2538279e-07
153	0xb3fa3380	-1.16509e-07
154	0x338a4900	6.4394044e-08
155	0xb4015180	-1.2043711e-07
156	0x346c2400	2.199231e-07
157	0x3404faa0	1.2384635e-07
158	0xb4186700	-1.4193574e-07
159	0x349cdb00	2.9216608e-07
160	0x34539480	1.970493e-07
161	0x33b76000	8.539064e-08
162	0x35405360	7.16469e-07
163	0xb4da47c0	-4.065787e-07
164	0x33f7ae80	1.1533575e-07
165	0xb3c6dd00	-9.260293e-08
166	0xb5873580	-1.0073854e-06
167	0x33e9be00	1.0884469e-07
168	0x33216a00	3.758214e-08
169	0xb272b800	-1.4128091e-08
170	0x347e2c00	2.36716e-07
171	0x33b214c0	8.292545e-08
172	0xb43c44c0	-1.7533876e-07
173	0x3370f800	5.610491e-08
174	0xb3e23700	-1.05339495e-07
175	0x33688d80	5.4145403e-08
176	0xb3b4b600	-8.415009e-08
177	0xb43c1600	-1.7516868e-07
178	0x33511000	4.8676156e-08
179	0xb49658c0	-2.800425e-07
180	0x3310e400	3.3734977e-08
181	0x3409e900	1.2843884e-07
182	0x34a4af00	3.067471e-07
183	0xb43ec200	-1.7765706e-07
184	0xb0dec000	-1.6207196e-09
185	0xb3a91100	-7.872768e-08
186	0xb50c5780	-5.2281393e-07
187	0x33a5f080	7.727158e-08
188	0x335fc280	5.209813e-08
189	0x334ec680	4.8143647e-08
190	0x341f7100	1.4849138e-07
191	0x33392e00	4.3115506e-08
192	0xb2f2d800	-2.8270733e-08
193	0x332fa280	4.0893156e-08
194	0xb351b400	-4.8825314e-08
195	0x3227d580	9.769224e-09
196	0x33300000	4.0978193e-08
197	0xb4043500	-1.2312739e-07
198	0xb29a6e00	-1.7977982e-08
199	0xb414d580	-1.3861245e-07
200	0x3372d800	5.6541467e-08
201	0xb49bf180	-2.9046714e-07
202	0xb4a00200	-2.9803778e-07
203	0x34461a00	1.8449646e-07
204	0x33ba7800	8.683128e-08
205	0x3432d400	1.6654667e-07
206	0x352cc780	6.4365304e-07
207	0xb420bc00	-1.4969555e-07
208	0xb3fe5b00	-1.18443495e-07
209	0xb40d0700	-1.3134195e-07
210	0xb4912d80	-2.704146e-07
211	0xb392e600	-6.8404916e-08
212	0xb336b000	-4.2535248e-08
213	0xb3cc1000	-9.5024006e-08
214	0x335bb000	5.1149982e-08
215	0x31400000	2.7939677e-09
216	0xb4444e00	-1.8282299e-07
217	0x347ad100	2.3359098e-07
218	0x339fef00	7.447488e-08
219	0x344d1a80	1.9101753e-07
220	0x344ca000	1.9057188e-07
221	0xb3e26500	-1.0542317e-07
222	0x34cb5780	3.787536e-07
223	0xb465b100	-2.1391679e-07
224	0x34384200	1.7160346e-07
225	0x33358d00	4.2270585e-08
226	0xb4f53a00	-4.5677007e-07
227	0xb1e6b800	-6.7147994e-09
228	0xb3ac8700	-8.0339305e-08
229	0xb408f4e0	-1.2755072e-07
230	0x33206700	3.734658e-08
231	0x3318f240	3.5610583e-08
232	0xb448d7e0	-1.8704986e-07
233	0x31fb5000	7.3141564e-09
234	0xb330cb80	-4.1163275e-08
235	0x3394c360	6.9273256e-08
236	0xb46bd180	-2.1962296e-07
237	0x32423c00	1.1305929e-08
238	0x33f4c980	1.1398788e-07
239	0xb4037a00	-1.2244709e-07
240	0xb5145800	-5.5262353e-07
241	0x30890000	9.968062e-10
242	0xb5c0f100	-1.4375255e-06
243	0x3573e000	9.0850517e-07
244	0xb4e27e00	-4.2187457e-07
245	0x33bffc80	8.94006e-08
246	0x36069b00	2.0057778e-06
247	0xb43d2d80	-1.761855e-07
248	0x33a4f1c0	7.680819e-08
249	0x34706380	2.238794e-07
250	0xb4da2a00	-4.0636223e-07
251	0xb45c6020	-2.0524067e-07
252	0x34f43e80	4.5494016e-07
253	0xb452a400	-1.9617437e-07
254	0x341cc100	1.4598845e-07
255	0xb46a3dc0	-2.1815413e-07

old_dirs f4 [522]
0	0x33446c00	4.573303e-08
1	0xb414ba00	-1.385124e-07
2	0x34ae7200	3.2492972e-07
3	0x353a3a00	6.93748e-07
4	0xb5a96800	-1.2621749e-06
5	0x3525e600	6.1801984e-07
6	0xb2be4c00	-2.2153472e-08
7	0xb43bb400	-1.7481216e-07
8	0x3347c400	4.651156e-08
9	0x33d05000	9.700307e-08
10	0x33a5a400	7.713243e-08
11	0x3473b600	2.269735e-07
12	0xb4c98800	-3.753812e-07
13	0x35845e00	9.862124e-07
14	0xb4124b00	-1.3624594e-07
15	0xb50a0580	-5.141701e-07
16	0xb412b180	-1.3661884e-07
17	0xb4e27180	-4.2178362e-07
18	0x331fea00	3.7232894e-08
19	0x33f2a600	1.12991984e-07
20	0xb3810500	-6.00794e-08
21	0xb43c9980	-1.7564707e-07
22	0x3293b400	1.7194907e-08
23	0x34528500	1.9606159e-07
24	0xb30d6000	-3.2916432e-08
25	0x34f5b680	4.5767592e-07
26	0xb3207400	-3.7358404e-08
27	0x31c64800	5.770744e-09
28	0xaffd0000	-4.6020432e-10
29	0x34bba340	3.4950244e-07
30	0xb24ed000	-1.2038072e-08
31	0x33d4d200	9.910218e-08
32	0x3310d900	3.3724973e-08
33	0x330b7000	3.2465323e-08
34	0x32cda300	2.3939265e-08
35	0xb24e2400	-1.1998964e-08
36	0xb2f87400	-2.892375e-08
37	0x33535000	4.9200025e-08
38	0x33865900	6.25605e-08
39	0x33f3d300	1.135395e-07
40	0xb3523000	-4.893809e-08
41	0x35589f00	8.0697646e-07
42	0xb5bb2000	-1.3941899e-06
43	0xb346a000	-4.6245987e-08
44	0x341b3e00	1.4458055e-07
45	0x3435d000	1.6932609e-07
46	0x35004800	4.778849e-07
47	0xb4a26900	-3.025125e-07
48	0xb4a74300	-3.1154923e-07
49	0x33f76400	1.1520024e-07
50	0xb402d400	-1.2184319e-07
51	0x3352f000	4.9112714e-08
52	0x3438b400	1.7201819e-07
53	0xb3928e00	-6.8244844e-08
54	0x342ea000	1.626322e-07
55	0x324f7800	1.2076271e-08
56	0xb3b09200	-8.222196e-08
57	0x335a3700	5.0807103e-08
58	0xb1dbc000	-6.3955667e-09
59	0x340a2800	1.2866803e-07
60	0x34580880	2.011966e-07
61	0xb485b000	-2.4901237e-07
62	0x34fea800	4.7433423e-07
63	0xb45b5100	-2.0425432e-07
64	0x34524d80	1.9585968e-07
65	0x33344500	4.197227e-08
66	0xb5173c00	-5.6339195e-07
67	0x30800000	9.313226e-10
68	0xb3dd3600	-1.0300937e-07
69	0xb440db80	-1.7961247e-07
70	0x32df4400	2.599154e-08
71	0x334f4f80	4.8268248e-08
72	0xb4704cc0	-2.2379663e-07
73	0x333afa00	4.3533873e-08
74	0xb2afb800	-2.0456355e-08
75	0x33c62b80	9.228006e-08
76	0xb4848980	-2.468696e-07
77	0x333eca00	4.442154e-08
78	0x34224600	1.5112892e-07
79	0xb3e88200	-1.0826989e-07
80	0x3412ca00	1.3670797e-07
81	0xb3c2e700	-9.0758476e-08
82	0x34b16200	3.3040124e-07
83	0xb44d0100	-1.9092477e-07
84	0x34079400	1.2626697e-07
85	0x30e60000	1.6734703e-09
86	0xb51aa700	-5.761249e-07
87	0x32e9fb00	2.7238912e-08
88	0xb3725000	-5.6417775e-08
89	0xb3dc8000	-1.02678314e-07
90	0x33a1d200	7.5353455e-08
91	0x334cb4f0	4.7662013e-08
92	0xb42b4100	-1.5949263e-07
93	0x33584a00	5.035872e-08
94	0xb2e0cf00	-2.6171165e-08
95	0x338d4f80	6.580285e-08
96	0xb41bd100	-1.4511534e-07
97	0xb2934900	-1.7146249e-08
98	0x33c9dc80	9.3999006e-08
99	0xb4037700	-1.2243618e-07
100	0xb4186000	-1.4191028e-07
101	0x32c84800	2.3315806e-08
102	0xb522d400	-6.0658203e-07
103	0x34a90ac0	3.1486525e-07
104	0xb3eb0a00	-1.0944859e-07
105	0x339f0600	7.405106e-08
106	0x359a5c00	1.150067e-06
107	0xb3da8e00	-1.0177246e-07
108	0x328b7000	1.6232661e-08
109	0x338f1200	6.6622306e-08
110	0xb4629c00	-2.1104643e-07
111	0xb3bc3680	-8.764346e-08
112	0x346a9100	2.1845699e-07
113	0xb3d6cb00	-1.0002077e-07
114	0x3390aa00	6.7364454e-08
115	0xb39d4f80	-7.325343e-08
116	0x33c29b00	9.062023e-08
117	0x340040e0	1.194453e-07
118	0xb3a4a100	-7.666131e-08
119	0x348444e0	2.463703e-07
120	0xb38f3100	-6.6678695e-08
121	0x342d2840	1.6126523e-07
122	0x34484700	1.8652281e-07
123	0xb3869c80	-6.2683284e-08
124	0xb3c52500	-9.1802576e-08
125	0xb3d8ee00	-1.0101576e-07
126	0xb4db2200	-4.0816667e-07
127	0x33b03380	8.2050065e-08
128	0x33bd1300	8.8044544e-08
129	0x33ef4340	1.11415375e-07
130	0x3416ba80	1.4037687e-07
131	0x32d42980	2.469892e-08
132	0x323b9800	1.0919393e-08
133	0x32e30300	2.6427642e-08
134	0xb34b0700	-4.7270987e-08
135	0xb300ca80	-2.9986495e-08
136	0x3420c300	1.4972102e-07
137	0xb40eb400	-1.3290264e-07
138	0xb3ab4a80	-7.9763595e-08
139	0xb3dd9100	-1.031749e-07
140	0x33fc6800	1.1753582e-07
141	0xb3cdc500	-9.5818905e-08
142	0x34a27500	3.025998e-07
143	0xb435bb80	-1.692515e-07
144	0x33e7c400	1.0792428e-07
145	0x31aee400	5.089987e-09
146	0xb5183b80	-5.6710996e-07
147	0x32ae7c80	2.0312882e-08
148	0xb35c3800	-5.1273673e-08
149	0xb3c48400	-9.150972e-08
150	0x33875900	6.3026164e-08
151	0x3322da80	3.791729e-08
152	0xb423e0c0	-1.5262322e-07
153	0x33299500	3.9483893e-08
154	0xb30cac00	-3.2752723e-08
155	0x3363ee00	5.3069016e-08
156	0xb4057500	-1.2429155e-07
157	0xb259ce00	-1.2677901e-08
158	0x33acea00	8.0519385e-08
159	0xb3e64700	-1.07231244e-07
160	0xb354da00	-4.9558366e-08
161	0x302c0000	6.2573235e-10
162	0xb4dcacc0	-4.1103885e-07
163	0x341b5980	1.446806e-07
164	0xb310b500	-3.369223e-08
165	0x32e94800	2.7157512e-08
166	0x35233000	6.079208e-07
167	0xb323ae00	-3.8109647e-08
168	0x31a20000	4.7148205e-09
169	0x32181000	8.851202e-09
170	0xb3d00400	-9.6864824e-08
171	0xb2fac200	-2.9192051e-08
172	0x34151940	1.3885892e-07
173	0xb23b0800	-1.0886652e-08
174	0x33954900	6.951632e-08
175	0xb281c300	-1.5106252e-08
176	0x330d4200	3.2889147e-08
177	0x33873c00	6.297341e-08
178	0xb2545800	-1.2360033e-08
179	0x3412b580	1.3663339e-07
180	0xb3203c00	-3.7307473e-08
181	0xb2c99200	-2.3465873e-08
182	0xb41f0000	-1.4808029e-07
183	0x33cc8580	9.523774e-08
184	0xb2ad4a00	-2.0173502e-08
185	0x3324ce00	3.837158e-08
186	0x3498a200	2.8430077e-07
187	0xb3368d00	-4.2503416e-08
188	0xb25e6c00	-1.2946657e-08
189	0x315d1800	3.2173375e-09
190	0xb3a34480	-7.602739e-08
191	0xb3020540	-3.027276e-08
192	0x33391c00	4.3099135e-08
193	0xb33e7080	-4.434014e-08
194	0x328a2c00	1.6085323e-08
195	0xb2a40080	-1.909234e-08
196	0x30df8000	1.6261765e-09
197	0x33627000	5.272159e-08
198	0xb25f8800	-1.3011231e-08
199	0x339f3d00	7.41511e-08
200	0xb334c800	-4.2091415e-08
201	0x34044f00	1.2322198e-07
202	0x33ae0800	8.1039616e-08
203	0xb3af6000	-8.166535e-08
204	0xb376e000	-5.7480065e-08
205	0xb3b6d000	-8.5128704e-08
206	0xb4e4b300	-4.259855e-07
207	0x33a16200	7.514973e-08
208	0x33880300	6.333539e-08
209	0x338bd800	6.511982e-08
210	0x3406df00	1.256085e-07
211	0x33056400	3.1057425e-08
212	0x333fa000	4.4616172e-08
213	0x3395f000	6.982009e-08
214	0xb2547000	-1.236549e-08
215	0xb1c70000	-5.7916623e-09
216	0x33f98c00	1.1620432e-07
217	0xb3e31400	-1.0574149e-07
218	0xb32a0400	-3.9584847e-08
219	0xb3962e00	-6.993287e-08
220	0xb3bf0300	-8.894676e-08
221	0x33e6fb00	1.0755866e-07
222	0xb44a5380	-1.8843093e-07
223	0x33c24e00	9.048017e-08
224	0xb3c65580	-9.235646e-08
225	0xb30b0a00	-3.2372554e-08
226	0x348ec500	2.6592897e-07
227	0x32359200	1.0568783e-08
228	0x337c1800	5.869515e-08
229	0x33bc5680	8.7701665e-08
230	0xb1b2b000	-5.2004907e-09
231	0xb28c6880	-1.6345666e-08
232	0x33ed5540	1.10516794e-07
233	0xb22e8800	-1.0159056e-08
234	0x32850100	1.5483693e-08
235	0xb32cef40	-4.0264467e-08
236	0x34036180	1.2235796e-07
237	0xb2e4be00	-2.6629095e-08
238	0xb3983900	-7.08842e-08
239	0x334a9100	4.7163667e-08
240	0x349dde00	2.9405055e-07
241	0xb481ae00	-2.4154724e-07
242	0x3528d800	6.28992e-07
243	0xb4c9a100	-3.755631e-07
244	0x3494b800	2.7701026e-07
245	0x32c9dc00	2.3499524e-08
246	0xb596f980	-1.1248485e-06
247	0x332ce200	4.0252417e-08
248	0xb4118dc0	-1.3555746e-07
249	0xb4805d00	-2.3909524e-07
250	0x34064f00	1.2508463e-07
251	0x33c850a0	9.327891e-08
252	0xb4b4eb00	-3.3698598e-07
253	0x33df1c00	1.038934e-07
254	0xb337b400	-4.2771717e-08
255	0x34189640	1.4210764e-07

old_dirs f4 [522]
0	0xb3957c00	-6.960909e-08
1	0x3431ba00	1.6552076e-07
2	0xb3add000	-8.093775e-08
3	0xb582ca80	-9.74469e-07
4	0x3593b000	1.1003576e-06
5	0xb553a200	-7.8839366e-07
6	0xb2ccd000	-2.3843313e-08
7	0x349f0c80	2.9625153e-07
8	0x32888000	1.5890691e-08
9	0xb48d8800	-2.636225e-07
10	0xb3b5ac00	-8.459756e-08
11	0xb4b28d40	-3.3257857e-07
12	0x34046800	1.2331293e-07
13	0xb5cf5100	-1.5446276e-06
14	0x340bde00	1.3026147e-07
15	0x354e0400	7.67468e-07
16	0x339b8300	7.241579e-08
17	0x35261760	6.1873834e-07
18	0x32cf4400	2.4128894e-08
19	0xb482c800	-2.4359906e-07
20	0x33f1e300	1.1263728e-07
21	0x34ab2c40	3.1883428e-07
22	0xafba0000	-3.3833203e-10
23	0xb48c0080	-2.6077396e-07
24	0xb2b14000	-2.0634616e-08
25	0xb516f140	-5.623042e-07
26	0x3311e400	3.3967808e-08
27	0xb0c84000	-1.4570105e-09
28	0x33c4f480	9.1714355e-08
29	0xb4fa7280	-4.6649438e-07
30	0x3375e800	5.725451e-08
31	0xb4345200	-1.6793638e-07
32	0xb334c900	-4.2092324e-08
33	0x330d6c00	3.2927346e-08
34	0xb36b0b80	-5.472566e-08
35	0x3330d300	4.1170097e-08
36	0x3394e380	6.933169e-08
37	0xb3fa6400	-1.1659722e-07
38	0xb351d600	-4.8856236e-08
39	0xb4675700	-2.1545202e-07
40	0xb2938000	-1.717126e-08
41	0xb577aa00	-9.2262053e-07
42	0x358c6000	1.0458753e-06
43	0x3412bd00	1.3666067e-07
44	0xb4546200	-1.9779691e-07
45	0xb4873300	-2.5182817e-07
46	0xb523bc00	-6.099581e-07
47	0x34d9de00	4.0580926e-07
48	0x34c75280	3.7126665e-07
49	0xb401b800	-1.2081e-07
50	0x34653200	2.1345477e-07
51	0xb3a2f600	-7.58846e-08
52	0x33f0c200	1.1211159e-07
53	0x340b6900	1.2983583e-07
54	0xb3ccd000	-9.537325e-08
55	0xb2792800	-1.45028025e-08
56	0x32e7c000	2.697925e-08
57	0xb388af00	-6.364826e-08
58	0xb22ca000	-1.00480975e-08
59	0xb4306380	-1.6427475e-07
60	0xb4a74740	-3.1158015e-07
61	0x340fba00	1.3385579e-07
62	0xb521da80	-6.0295133e-07
63	0x34bb09c0	3.4838558e-07
64	0xb494f060	-2.7742044e-07
65	0xb3bb5580	-8.7234184e-08
66	0x35310400	6.594346e-07
67	0x32ef1000	2.7830538e-08
68	0x34144800	1.3809768e-07
69	0x344fcd00	1.9352956e-07
70	0xb3543600	-4.940921e-08
71	0xb347eb00	-4.654703e-08
72	0x34bb2500	3.4858385e-07
73	0x32dc8000	2.5669578e-08
74	0x33da1a00	1.01561454e-07
75	0xb3d3f700	-9.870382e-08
76	0x34c61200	3.689347e-07
77	0xb29cf800	-1.8273568e-08
78	0xb437c480	-1.711469e-07
79	0x3465a600	2.1387677e-07
80	0xb43fcc00	-1.7862476e-07
81	0xb2b38400	-2.089837e-08
82	0xb508a080	-5.0897506e-07
83	0x34a75bc0	3.117293e-07
84	0xb41eff80	-1.4807847e-07
85	0x32c26c00	2.2633685e-08
86	0x354d6c80	7.652634e-07
87	0xb374ea80	-5.7023954e-08
88	0x332e2d80	4.0553914e-08
89	0x33b0fd00	8.241659e-08
90	0xb42153c0	-1.5024762e-07
91	0xb397ca98	-7.068337e-08
92	0x3433ba00	1.673834e-07
93	0xb384df80	-6.1873834e-08
94	0x337ed400	5.9331796e-08
95	0xb3a67f00	-7.7530785e-08
96	0x3428a400	1.5705882e-07
97	0x33ade840	8.098186e-08
98	0xb3c9c900	-9.3963536e-08
99	0x345910c0	2.0215793e-07
100	0x34393200	1.7247658e-07
101	0x34928380	2.7290298e-07
102	0x35703300	8.948118e-07
103	0xb50fc760	-5.356178e-07
104	0x33d4ba00	9.9058525e-08
105	0xb4263700	-1.5479964e-07
106	0xb5c30b00	-1.4531834e-06
107	0x34405500	1.7912316e-07
108	0x337bbb40	5.8610794e-08
109	0x32e2e400	2.6413545e-08
110	0x34cdeb00	3.835521e-07
111	0x340a54a0	1.2883038e-07
112	0xb4296500	-1.5776095e-07
113	0x3406c700	1.2552118e-07
114	0xb40ad500	-1.292974e-07
115	0x33a18780	7.521794e-08
116	0xb310e600	-3.3736796e-08
117	0xb49946f0	-2.8550085e-07
118	0x331cd600	3.6516212e-08
119	0xb4d23ce0	-3.915984e-07
120	0x3403af80	1.2264172e-07
121	0xb4ac3080	-3.2072785e-07
122	0xb4310b00	-1.6488411e-07
123	0x33d9ae80	1.0136591e-07
124	0x342bbf80	1.5995283e-07
125	0x3437b700	1.7109778e-07
126	0x34eda700	4.4266199e-07
127	0xb411fec0	-1.3596855e-07
128	0xb42cc180	-1.6089143e-07
129	0xb451c640	-1.9536765e-07
130	0xb4704600	-2.2377208e-07
131	0xb326fd40	-3.8880216e-08
132	0xb408d000	-1.2741657e-07
133	0xb38dd340	-6.60425e-08
134	0x33463600	4.614958e-08
135	0x3348ea80	4.6779405e-08
136	0xb492ea40	-2.7365058e-07
137	0x34717b00	2.2489621e-07
138	0x340e2300	1.3237513e-07
139	0x34028800	1.215667e-07
140	0xb4640d00	-2.1238884e-07
141	0x3275d800	1.430999e-08
142	0xb507dd00	-5.0613016e-07
143	0x34acc040	3.2177377e-07
144	0xb44cf500	-1.9088111e-07
145	0x311d9000	2.2928361e-09
146	0x3546fb80	7.412673e-07
147	0xb347f400	-4.6555215e-08
148	0x3399a700	7.154995e-08
149	0x34074340	1.259732e-07
150	0xb413b2c0	-1.3755471e-07
151	0xb3a5b1c0	-7.715744e-08
152	0x34449fc0	1.8312039e-07
153	0xb398fd80	-7.124163e-08
154	0x3332b200	4.1605745e-08
155	0xb3d84180	-1.0070198e-07
156	0x34692000	2.1711458e-07
157	0x33706480	5.597076e-08
158	0xb40c0ec0	-1.3043882e-07
159	0x34564bc0	1.9957861e-07
160	0x3400a680	1.1981501e-07
161	0x33ec7000	1.1009979e-07
162	0x35153240	5.557995e-07
163	0xb49ab8c0	-2.881916e-07
164	0x339ca700	7.294693e-08
165	0xb3879c00	-6.3148036e-08
166	0xb557cb00	-8.0389145e-07
167	0x339fe300	7.4453055e-08
168	0x32d1c000	2.4418114e-08
169	0x31236000	2.3774192e-09
170	0x344ebc00	1.9253639e-07
171	0x33645780	5.3164968e-08
172	0xb419a140	-1.4307898e-07
173	0x32621800	1.3160388e-08
174	0xb3de9d00	-1.0366239e-07
175	0x32f6f600	2.8750037e-08
176	0xb3788800	-5.786569e-08
177	0xb41f8600	-1.4856778e-07
178	0x32c26c00	2.2633685e-08
179	0xb4709000	-2.2404129e-07
180	0x321e8000	9.225914e-09
181	0x33eb2280	1.0949316e-07
182	0x346ea000	2.2223685e-07
183	0xb3fe6a00	-1.1847078e-07
184	0xb205b000	-7.781637e-09
185	0xb3699700	-5.4386874e-08
186	0xb4d98100	-4.051326e-07
187	0x3366f300	5.3772055e-08
188	0x3312f300	3.421428e-08
189	0x33258980	3.854211e-08
190	0x33ef9500	1.1156408e-07
191	0x32f90100	2.898787e-08
192	0xb28ddc00	-1.6514605e-08
193	0x32c02200	2.2367203e-08
194	0xb3275600	-3.8960934e-08
195	0x319e0500	4.5989736e-09
196	0x330e8400	3.3182005e-08
197	0xb3c61380	-9.2236405e-08
198	0xb2934200	-1.7143066e-08
199	0xb3d8c500	-1.0094118e-07
200	0x33656c00	5.3416443e-08
201	0xb4185200	-1.4185935e-07
202	0xb41be800	-1.4519901e-07
203	0x33820000	6.053597e-08
204	0x33390800	4.3080945e-08
205	0x336e3c00	5.5468263e-08
206	0x34c89c00	3.7366408e-07
207	0xb360e000	-5.235779e-08
208	0xb3017a00	-3.014611e-08
209	0xb35b9000	-5.1120878e-08
210	0xb3f65a00	-1.14716386e-07
211	0xb2d04800	-2.4247129e-08
212	0xb2e5c000	-2.674642e-08
213	0xb3025800	-3.034802e-08
214	0x32b14800	2.0638254e-08
215	0x2ed80000	9.822543e-11
216	0xb3a12200	-7.503331e-08
217	0x33c8ae00	9.344876e-08
218	0x33055800	3.104651e-08
219	0x33a82e00	7.831477e-08
220	0x34207180	1.4942452e-07
221	0xb3d68800	-9.98989e-08
222	0x3493fea0	2.7566148e-07
223	0xb41bfd00	-1.4527541e-07
224	0x341f14c0	1.4815578e-07
225	0x337fc600	5.9551894e-08
226	0xb4b18500	-3.306559e-07
227	0xb2e57c00	-2.6715497e-08
228	0xb3bc4300	-8.7666194e-08
229	0xb400b8a0	-1.1988095e-07
230	0x31a63800	4.8376023e-09
231	0x32a60780	1.9328354e-08
232	0xb42bb0d0	-1.598994e-07
233	0xb24e5200	-1.2009423e-08
234	0xb30b4d00	-3.243349e-08
235	0x3372a900	5.649872e-08
236	0xb45ab600	-2.0369043e-07
237	0x330dd200	3.3020115e-08
238	0x33d8f340	1.0102531e-07
239	0xb3b15b80	-8.2588485e-08
240	0xb4e1cb00	-4.2057218e-07
241	0x332b1000	3.9828592e-08
242	0xb589ce00	-1.0267249e-06
243	0x352b6900	6.385526e-07
244	0xb4c58600	-3.6791607e-07
245	0xb1812000	-3.758032e-09
246	0x35c68900	1.4792022e-06
247	0xb3af2f00	-8.157622e-08
248	0x34131400	1.3697718e-07
249	0x347eb280	2.3720531e-07
250	0xb487c300	-2.528759e-07
251	0xb4190860	-1.4252282e-07
252	0x34c99640	3.754849e-07
253	0xb4018600	-1.206281e-07
254	0x33d8b700	1.0091571e-07
255	0xb4470400	-1.8534774e-07
