tutorials/tutorial 5/lightning_logs/version_177/checkpoints/epoch=4999-step=5000.ckpt (torch, 523981 bytes, 208 tensors)

_pina_model._model.layers.0.weight f4 [20, 2]
00000000: 0ca9 133f 4d89 313f 3279 8bbe 46a9 393f
00000010: e2f4 82be 1683 0c3e a209 15bf 76f3 c93e
00000020: 37fb 0c3f 6898 e8be 76a3 4d3f fe1d 753e
00000030: 7824 0d3f d528 453e a352 8f3e 2bf6 06be
00000040: 1241 0a3f ec6f 403e 0b6a 8fbe ac04 613e
00000050: 3e2c b9be f077 f5bd d1bf 66be 5a3e cc3e
00000060: dd5e 30bf 41e9 9bbe bf2d c1be d47b acbe
00000070: c05f 943e 8216 6dbf f6f0 1a3f 2258 09bf
00000080: 1991 103f 579d 4f3e ec55 f6bd 7204 b43e
00000090: 57a0 fcba 6b2c 2c3f 4328 413e efb2 8abe
0.5767982 0.6935013 -0.27240902 0.72523916 -0.25577456 0.1372188 -0.58217824 0.39443558
0.55070823 -0.45428777 0.80327547 0.23937222 0.5513377 0.19253857 0.27992734 -0.13179843
0.5400554 0.18792695 -0.28010592 0.21974438 -0.36166567 -0.11985767 -0.2253411 0.3989132
-0.6889475 -0.30451396 -0.37730214 -0.33688223 0.289793 -0.9261247 0.6052393 -0.53650105
0.564714 0.20274864 -0.12028107 0.35159642 -0.0019273859 0.67255276 0.18863015 -0.2708964

_pina_model._model.layers.0.bias f4 [20]
00000000: bd57 413e 815d 35be 788e 683e a6ef 293f
00000010: 9108 f03e 2492 19bf a48c cd3e b863 893d
00000020: 9dbf b73e 2aa5 efbe 35e1 34bf a08b 9abe
00000030: 38d5 17bf e96a 473f 4356 2a3f 8791 8b3e
00000040: 2901 c939 8766 08be 7053 d63e 9204 03bf
0.18881126 -0.1771145 0.22710598 0.663813 0.46881536 -0.5998862 0.40146363 0.06708473
0.35888377 -0.46805698 -0.7065614 -0.3018465 -0.5930972 0.77897507 0.66537875 0.27259466
0.00038338572 -0.13320361 0.41860533 -0.5117885

_pina_model._model.layers.2.weight f4 [20, 20]
00000000: 71f4 a93c 3b4d 3abe 37a4 ae3d ad1c 8fbd
00000010: 6c38 863c 7fd4 063d 2a63 703e b1ad 08be
00000020: c573 adbd 5cc3 f9bd 5106 323e 43a4 ee3d
00000030: e2d3 263e 22b1 60be 625a 2cbe d68b 38be
00000040: f805 d7bd 279c e53d 83cc 963d ed6e 373e
00000050: 0584 d4bd 4281 c4bd b693 0c3e 1db6 b23c
00000060: d2ca 913e ee03 cb3c 0067 133e 4eb3 24be
00000070: 0fc5 ddbd 3136 6d3d 5566 693d 54f8 a1bd
00000080: 5252 353e d9ce 0a3e 3821 6cbe cb9d d9bc
00000090: dd4f 873e e875 4fbd f4ff 01be 8578 68be
000000a0: f51f 14be 8ec3 113e 1b85 f6bc dade afbd
000000b0: b028 5b3e ea40 5ebe fa07 80be 2238 c7bd
000000c0: 1245 8abe 1741 54be 5f85 6d3e 6161 94bd
000000d0: 21ba 0b3e eba5 b9bd afbe d2be f081 d93b
000000e0: c4e7 f83b 8451 71be 2bee 65bd f4b5 19be
000000f0: 8c50 4f3e 491c 503c 2ca2 913d b835 393c
00000100: ec4a 92be b3a2 04bf 70f5 acbc a4b9 63be
00000110: 0cc7 863e dc0f 78bd 9c2f af3d f91b 1d3e
00000120: b90a ccbe c2cf a83e 4681 18bd 275b 9fbe
00000130: ced4 67be 2a2c 0fbe 5b33 943e 3ef0 41be
00000140: 28ce dbbc 8139 3abe 957f d83d 8f2f 9dbe
00000150: bdaf d3bd fef2 07be ea2d aebc 58b0 2b3e
00000160: 4ef1 b83d 65cb 19be cd0f 163e 2a6f edbd
00000170: 3608 bc3d 6d1f 0bbe d2cd 6d3e 8451 72be
00000180: 920b f6bc f8bf 103d 3ef9 603d 8866 8cbd
00000190: 69a9 293e 040c 2b3e bdeb 9dbd e037 e5be
000001a0: 603c 813c d7b6 65bd a763 11be 07bc a63e
000001b0: 2934 6a3d 4502 4abe 3db8 c1bd 21b2 0abc
000001c0: 767c 3b3e bd6f 8abe 364d 43be ba41 65be
000001d0: 015d 70be a03a af3d 1098 973e 0aa6 34be
000001e0: 7c87 9b3e d14a 263d 8eb8 2d3e f503 6f3e
000001f0: aabb 963d 6ca0 183e 3ac9 1e3e 25d6 42be
00000200: 3c4d 20bd 46c7 f33d 18c1 97bd 8b04 e3bc
00000210: b3db b63c e0da e23e 6fe4 63bd b38f 92bd
00000220: 57f0 d53d 2409 b63c e7b6 033d 40f7 e1ba
00000230: 545d a9be 86f5 843c a426 503e 3043 153e
00000240: 2afd aebc d7e6 dcbd f0d6 29be d74b 5dbe
00000250: 144f e0bd 1753 e23d 4ee7 3c3e 4759 323e
00000260: ceae e2bd 2ddb 7ebe 04cd 07be 1fd3 273e
00000270: 99d1 5d3c ee1c 173c b69c 3e3c f3de a5bd
00000280: 028b a4bd 4fd6 383e 190a 79bc 6d55 ec3d
00000290: 750a a0be e8db 083e 8938 5d3e 07fc cc3c
000002a0: 3cbf 09be a835 4cbe 971f 81be bdc9 793e
000002b0: cfee d63c 6662 a13e 4335 9f3d 2fa0 89bd
000002c0: 00a5 e93c 456b d5bd aa89 28be dee0 90be
000002d0: 30cd 803e fb9b 54be 7344 df3c 1d59 efbc
000002e0: 0bda 11be 8124 55be 6ae1 9cbd 1024 cfbb
000002f0: 5615 d8bc 0865 2d3e bd58 1fbe 6a90 17be
00000300: 428f 40be 38b9 f73d 9921 8b3c 0120 8fbe
00000310: af0c 383e e317 24be 0c6a 393e 6a9f 3c3d
00000320: d04f 1a3e 5bd0 ebbd ef41 4c3e a77b 36bd
00000330: 5e67 b6bc 61cb 8a3d cf07 efbc 830a 90bc
00000340: 4666 55bd 0783 3dbe 26ba 8f3d 97c7 2cbe
00000350: 63c6 d53d 98c5 623e 9a45 483e 2588 64be
00000360: 218d 60be 2fd4 d03d 9470 363e 698e 8bbe
00000370: 8148 91bd 5827 41bd b841 863d dfed a43d
00000380: a55e babd 850f 44bd b2f8 f8bd 6eb6 363e
00000390: 8730 7f3e 379d 22bd 42b1 d1bd ac0d 09bb
000003a0: e098 81be 1523 68be d520 0b3d f21a 5bbe
000003b0: 7c4f 79bd bcdb a93d 619e c5bd 929c 1dbe
000003c0: fc47 993d 941e 09be 60bc 96bd f5ac eabd
000003d0: f027 2dbe 4278 6c3e f3e6 87bc ca06 903d
000003e0: 5a26 9b3a 1e97 08bb 8546 1d3e a158 b03d
000003f0: f223 98be b4f2 ba3d 7aa7 ba3e 1ccc 223e
0.020746442 -0.18193524 0.08527415 -0.06987891 0.016384326 0.032917496 0.23475328 -0.13347508
-0.08469347 -0.12195465 0.17385222 0.11652424 0.16291764 -0.21942571 -0.16831353 -0.18022093
-0.10499185 0.11211424 0.07363226 0.17913409 -0.10376743 -0.095949665 0.13728222 0.021815354
0.28475052 0.024782147 0.1439476 -0.16084024 -0.108286016 0.05791301 0.056982357 -0.07908693
0.17707184 0.13555469 -0.23059547 -0.0265645 0.26428118 -0.050649554 -0.12695295 -0.22702225
-0.14465316 0.14234754 -0.030092767 -0.085874274 0.2140224 -0.2170445 -0.25006086 -0.09727503
-0.2700582 -0.20727955 0.23195408 -0.07245136 0.13645221 -0.090648495 -0.41161105 0.006637804
0.007595988 -0.23566252 -0.056135338 -0.15010816 0.2024557 0.012702056 0.0711101 0.011304311
-0.28572786 -0.5181076 -0.021113127 -0.22238785 0.26323736 -0.060562 0.08554003 0.15342702
-0.3985193 0.32971007 -0.03723266 -0.3112423 -0.22639772 -0.13981691 0.2894543 -0.18939301
-0.026831701 -0.18185998 0.10571209 -0.30700347 -0.10336254 -0.13276288 -0.021262128 0.16766489
0.090304 -0.15018995 0.14654465 -0.115934685 0.091812536 -0.13586207 0.23223045 -0.23663908
-0.030034814 0.035339326 0.054925196 -0.06855494 0.16568531 0.16703802 -0.07710979 -0.44769192
0.01577586 -0.056082573 -0.1419817 0.32565328 0.05717865 -0.19727428 -0.09458969 -0.008465321
0.18309197 -0.27038375 -0.19072422 -0.22388354 -0.23472978 0.08556104 0.29608202 -0.17641464
0.30376804 0.040598694 0.16964933 0.23341353 0.07360013 0.14904946 0.1550645 -0.19027002
-0.039136156 0.11903243 -0.074098766 -0.027712127 0.022321558 0.44307613 -0.055637773 -0.07156315
0.10446232 0.022221155 0.03215685 -0.0017239824 -0.33079016 0.016230356 0.2032724 0.14576411
-0.021360952 -0.10786217 -0.16585898 -0.21610962 -0.10952583 0.110510044 0.1844761 0.17416869
-0.110684976 -0.24888296 -0.13261801 0.1638913 0.0135387415 0.009223206 0.0116340425 -0.08099165
-0.08034326 0.18050502 -0.015200161 0.11539731 -0.31257978 0.13365138 0.21603598 0.02502252
-0.13451856 -0.19942343 -0.25219414 0.24393363 0.02623692 0.31520385 0.07773831 -0.06720006
0.028521061 -0.10420851 -0.16458765 -0.2829656 0.25156546 -0.20762627 0.027254319 -0.029217297
-0.14243333 -0.20814706 -0.07660182 -0.0063214377 -0.026377361 0.16933072 -0.15561195 -0.14801183
-0.18804649 0.120958745 0.016983794 -0.27954105 0.17973588 -0.16024737 0.1810686 0.046050467
0.15069509 -0.1151435 0.19947027 -0.044551518 -0.022266086 0.06777073 -0.029178528 -0.017583137
-0.05209949 -0.18507014 0.07017927 -0.16873012 0.1043823 0.22145689 0.19557801 -0.2231756
-0.21928836 0.10196721 0.17816383 -0.27257088 -0.07093907 -0.04715666 0.065555036 0.08053183
-0.09100083 -0.047866363 -0.1215681 0.17843029 0.24920855 -0.039700713 -0.10238887 -0.002091269
-0.25311947 -0.22669633 0.033966858 -0.21396998 -0.060866818 0.08293864 -0.09649349 -0.15391758
0.07484433 -0.13390571 -0.073601484 -0.1145877 -0.16909766 0.2309275 -0.016589617 0.07032545
0.0011836991 -0.0020842026 0.15358932 0.086106546 -0.29714924 0.09128323 0.364559 0.15898174

_pina_model._model.layers.2.bias f4 [20]
00000000: 364f 3abc 7b11 2a3d 04ab 133e dd52 023d
00000010: e524 883c 2245 27be c939 04be a65c 38be
00000020: f2fd ab3e 9365 a53e d491 8e3e e5c8 6a3e
00000030: cffd 523e 6c79 e6bc e533 f9bd fba2 bf3d
00000040: 44ab 32be aca9 6abd e6b6 ce3a 28a7 e93c
-0.011371424 0.041520577 0.14420706 0.031817306 0.016619155 -0.16334966 -0.12912668 -0.18004093
0.33592182 0.32304057 0.27845633 0.22928198 0.20604633 -0.02813407 -0.12168101 0.09357258
-0.17448145 -0.057290718 0.0015771061 0.02852209

_pina_model._model.layers.4.weight f4 [2, 20]
00000000: de61 613e 62bb 3fbe 0350 1cbf 053b a7bd
00000010: bde6 23bd 82a9 d5bd e6e5 12bb a3bf f9bc
00000020: 119f 783e f290 143e ab7e 8cbd 76cc f73d
00000030: bf03 ca3e 4648 033f dd99 9bbc d2ab f13d
00000040: 43f5 5c3e a750 c83e 7b38 c1be e84a a9be
00000050: 4447 93bc f487 82be c3a7 4c3c ed28 f83e
00000060: ff04 a73e 5a95 6c3f 3cf0 6cbf b17b c6bd
00000070: 72d1 3bbe 9d79 92be c4ac a53e 8ca0 1ebd
00000080: 591e c3b9 4765 b43d f34e 5bbe e0bf 62be
00000090: bf83 2e3e 387b 51be b863 433e a3bc 0c3e
0.2200999 -0.18723825 -0.6105959 -0.08165554 -0.04001497 -0.10432722 -0.0022414862 -0.030486887
0.24279429 0.14508417 -0.068600975 0.12099545 0.39455983 0.51282156 -0.018994266 0.1180035
0.21577935 0.39124033 -0.37738404 -0.3306496 -0.017978318 -0.2549435 0.012491169 0.48468724
0.32621 0.9241539 -0.9255407 -0.09691561 -0.18341616 -0.2860841 0.32358372 -0.03872733
-0.0003721591 0.088083796 -0.21416835 -0.22143507 0.17042445 -0.2045716 0.19081008 0.13743834

_pina_model._model.layers.4.bias f4 [2]
00000000: 895d 813d c8df 813e
0.063166685 0.25366044

d f4 [522]
00000000: 007e 4a34 00a0 81b3 208d 25b6 c0e6 7d35
00000010: 005a 06b5 0c36 aa35 8406 f836 a1d5 8536
00000020: 004d 6fb5 004a 9eb3 0069 cd33 80b7 0935
00000030: 80eb f4b4 b072 cbb5 c0bb 94b4 2035 21b4
00000040: 964b beb5 00dc 7435 7b84 c635 00f0 c6b3
00000050: 0010 4ab1 4017 3fb5 00d2 07b3 40ea dcb5
00000060: ce25 d635 607b 1a35 e02b 9ab5 007e f8b4
00000070: e084 1636 d025 5636 002a 8132 14d8 05b5
00000080: 007b 5bb4 7cf7 89b6 c828 cd35 0051 ffb5
00000090: 60d0 3736 009a 2135 80e7 c9b3 f039 5135
000000a0: 0080 e6b1 c048 7534 e0be 1735 2049 9936
000000b0: 0027 b935 80df 89b5 e081 1135 206f c134
000000c0: 0000 7830 c056 0ab5 c07f 07b5 e04c 4fb5
000000d0: 80bd acb5 0000 94ae b029 d236 00c8 0835
000000e0: 4052 21b5 a0f9 01b5 0085 d8b5 2041 c7b5
000000f0: e072 8cb5 802e 0db5 0000 63b2 a00c 07b5
00000100: 005c 79b5 a045 1835 e897 9ab5 500c 1eb5
00000110: 7cf8 8bb5 e010 7935 a450 a035 c0dd e734
00000120: 4802 c135 d0c0 15b5 c8f5 4235 602c 90b4
00000130: 30c5 62b5 c01a 0634 0038 23b5 cc63 b634
00000140: e0a6 49b5 3072 9335 482d f2b3 40fe b234
00000150: 800a bc34 30d1 b5b5 4487 1135 53e0 cb34
00000160: e052 e834 d634 31b5 9034 3ab5 e097 19b4
00000170: 50c2 65b5 305f 2635 00f5 22b5 8083 65b4
00000180: 80d7 5734 8085 2bb3 003b acb3 4067 31b4
00000190: 00a4 1435 4041 a735 a06e 48b5 80ae 6fb5
000001a0: 408b a435 b0e0 f9b5 d082 f735 607f 7935
000001b0: e036 cc35 20bf 9ab5 d07e a7b5 405b 68b5
000001c0: c865 20b6 80d4 f835 4030 35b6 004e b833
000001d0: 28cf 9635 e053 84b5 a014 06b6 409c 4f35
000001e0: a0e1 c2b5 00b9 e835 20b4 8c35 e05b 2b36
000001f0: b6c0 1db6 1054 1ab6 c0a2 ffb5 1c26 fdb5
00000200: 4018 f0b5 c834 e135 40d1 b235 603e ca35
00000210: d008 0436 1042 c135 5038 31b6 806b 8db6
00000220: 00ef 1ab6 c00e 0935 c02d 2cb5 00a4 f1b3
00000230: 80f0 2635 e0c9 47b5 00cc 04b4 00be e9b4
00000240: 9018 89b4 407b 1db5 0074 fab4 f0fb 9db4
00000250: 4029 fbb4 4c43 c834 80be ef34 6097 5eb4
00000260: 00e9 1235 a85c 2e35 800d 0c35 8024 afb4
00000270: c004 abb4 e030 e9b4 802e 92b4 a08f 0435
00000280: 6e15 9236 b012 26b5 00fd 01b4 0057 25b5
00000290: 4006 ac34 002c a635 10ca c435 8042 b734
000002a0: 60df c835 0085 2db4 001b 83b5 406f adb4
000002b0: e041 d5b5 0090 68b2 c07f 7135 0054 25b4
000002c0: 0057 cb35 a026 d3b4 c046 8435 401d 5e34
000002d0: 002a 1eb5 7475 0936 0087 5534 80be d935
000002e0: d0c9 6635 50ef 8fb5 8853 0136 8075 bb34
000002f0: 482d dd35 80cb 94b5 e08d dcb5 804b c134
00000300: b8fc 2fb6 00ec 5634 0064 fbb3 6029 2c35
00000310: e09c 8135 002f 4735 c0cc a235 d061 b7b5
00000320: 00c7 b334 c0a8 af33 50cf 1334 20d6 8c34
00000330: 5029 0134 9c48 cdb4 8011 f134 c084 5634
00000340: 4007 d634 88b5 c4b4 2890 12b5 e0cf 18b4
00000350: 10a4 39b5 b007 0a35 4091 7b34 847a 94b3
00000360: 00bb 8e34 003f ec32 60e6 c934 60f0 bfb4
00000370: a089 3635 00ac 14b5 c01c 5f35 a03e d935
00000380: c013 1735 e0b9 16b5 0077 8834 60d0 98b4
00000390: e00d 5634 c063 7bb4 0009 16b5 0067 a1b3
000003a0: 8049 25b5 00d8 9535 4062 4435 2035 9635
000003b0: 0099 be32 80e6 d534 d8d8 be35 7000 a8b5
000003c0: 4047 a435 1029 0135 40d8 7e34 0043 be34
000003d0: c0fe 0a34 502a 4635 c07e 7035 00b2 d333
000003e0: e06a 6b35 c0ef 59b4 404a 35b5 680b ab34
000003f0: b0dd 99b5 8045 f6b4 805c 01b4 0025 0a35
1.8858555e-07 -6.0361344e-08 -2.4669062e-06 9.458563e-07 -5.004986e-07 1.2681717e-06 7.3917345e-06 3.9885786e-06
-8.914649e-07 -7.370909e-08 9.565156e-08 5.1303505e-07 -4.561989e-07 -1.5158057e-06 -2.7703754e-07 -1.501362e-07
-1.4178102e-06 9.1217225e-07 1.4790706e-06 -9.263749e-08 -2.9403964e-09 -7.118688e-07 -3.162313e-08 -1.6459453e-06
1.5955245e-06 5.7549005e-07 -1.1486663e-06 -4.6285277e-07 2.2429085e-06 3.1910495e-06 1.5036676e-08 -4.9860796e-07
-2.0440712e-07 -4.111729e-06 1.5285559e-06 -1.9022555e-06 2.7390415e-06 6.0201273e-07 -9.4019015e-08 7.794288e-07
-6.708433e-09 2.284387e-07 5.6529643e-07 4.568268e-06 1.3794925e-06 -1.0272342e-06 5.42057e-07 3.6029905e-07
9.0221874e-10 -5.1535244e-07 -5.047732e-07 -7.7225377e-07 -1.287015e-06 -6.730261e-11 6.2633408e-06 5.0954986e-07
-6.0096863e-07 -4.8419497e-07 -1.6131962e-06 -1.4845609e-06 -1.0464246e-06 -5.259426e-07 -1.3213139e-08 -5.030979e-07
-9.2893606e-07 5.672573e-07 -1.1518105e-06 -5.8877504e-07 -1.0428626e-06 9.2784285e-07 1.1944398e-06 4.3188447e-07
1.4380284e-06 -5.5787405e-07 7.262829e-07 -2.6854377e-07 -8.4478506e-07 1.2489454e-07 -6.080372e-07 3.3972753e-07
-7.512117e-07 1.0985586e-06 -1.127724e-07 3.3340075e-07 3.5025369e-07 -1.3546432e-06 5.4213547e-07 3.7974914e-07
4.3273667e-07 -6.6014525e-07 -6.936689e-07 -1.4304487e-07 -8.559191e-07 6.1978335e-07 -6.0706225e-07 -2.1375126e-07
2.0101834e-07 -3.9935458e-08 -8.020106e-08 -1.6521972e-07 5.537295e-07 1.246146e-06 -7.4666787e-07 -8.928837e-07
1.2259479e-06 -1.8617338e-06 1.8441006e-06 9.2945083e-07 1.5215155e-06 -1.1529519e-06 -1.2479377e-06 -8.655952e-07
-2.3901102e-06 1.8539286e-06 -2.6999187e-06 8.582356e-08 1.1236161e-06 -9.859177e-07 -1.9979561e-06 7.7340883e-07
-1.4519792e-06 1.7339189e-06 1.0483236e-06 2.5534464e-06 -2.3506996e-06 -2.299672e-06 -1.9046347e-06 -1.886106e-06
-1.7888451e-06 1.6779168e-06 1.3322933e-06 1.5068326e-06 1.9674662e-06 1.4398847e-06 -2.6407834e-06 -4.214642e-06
-2.3086905e-06 5.105794e-07 -6.414157e-07 -1.12522685e-07 6.218979e-07 -7.4427044e-07 -1.2367673e-07 -4.3537875e-07
-2.553611e-07 -5.866641e-07 -4.665053e-07 -2.9426838e-07 -4.6782407e-07 3.7301868e-07 4.4655826e-07 -2.0730431e-07
5.47283e-07 6.4954884e-07 5.217371e-07 -3.2622847e-07 -3.1854688e-07 -4.3435193e-07 -2.7228452e-07 4.9382834e-07
4.353634e-06 -6.1867013e-07 -1.2106102e-07 -6.159389e-07 3.2042044e-07 1.238077e-06 1.4661946e-06 3.413479e-07
1.4966172e-06 -1.6160266e-07 -9.768119e-07 -3.2304706e-07 -1.5888909e-06 -1.3536919e-08 8.9965397e-07 -1.5397382e-07
1.5149999e-06 -3.9329916e-07 9.855357e-07 2.0686002e-07 -5.8920705e-07 2.0482958e-06 1.9886284e-07 1.6223203e-06
8.597535e-07 -1.0723979e-06 1.927112e-06 3.4916957e-07 1.6478962e-06 -1.1086086e-06 -1.6432568e-06 3.6003985e-07
-2.6224134e-06 2.001616e-07 -1.1706288e-07 6.41352e-07 9.656906e-07 7.420167e-07 1.2129531e-06 -1.366303e-06
3.348614e-07 8.179768e-08 1.3765862e-07 2.6232829e-07 1.202909e-07 -3.8237056e-07 4.490248e-07 1.9978597e-07
3.986588e-07 -3.6639926e-07 -5.4599013e-07 -1.4231728e-07 -6.9156613e-07 5.1420193e-07 2.3429038e-07 -6.9140725e-08
2.6585622e-07 2.7502665e-08 3.7606787e-07 -3.5751418e-07 6.8000554e-07 -5.538459e-07 8.311581e-07 1.6185986e-06
5.6280624e-07 -5.614984e-07 2.5418558e-07 -2.846382e-07 1.9935351e-07 -2.3412485e-07 -5.589245e-07 -7.515882e-08
-6.1574247e-07 1.1164229e-06 7.315866e-07 1.1191332e-06 2.2188487e-08 3.9842053e-07 1.4219213e-06 -1.2517103e-06
1.2239689e-06 4.8116e-07 2.3734265e-07 3.5439007e-07 1.2944929e-07 7.382232e-07 8.959141e-07 9.857831e-08
8.7699846e-07 -2.029692e-07 -6.75358e-07 3.185953e-07 -1.1463908e-06 -4.5871639e-07 -1.2047713e-07 5.146285e-07

old_dirs f4 [522]
00000000: 0000 60b3 0050 d2b5 0038 27b6 005c 21b5
00000010: 00d0 bf35 00b6 4136 00a0 90b5 0032 3837
00000020: 0048 7eb6 c062 0f37 0000 0536 0044 c536
00000030: 0080 9ab5 0004 0437 0000 9a33 00d9 b0b7
00000040: 00e8 0936 00d8 00b7 00c0 0335 007a 8937
00000050: 0028 14b5 0000 c5b3 0000 3e36 00aa 4c36
00000060: 0004 47b5 0060 06b4 0090 10b6 0058 af37
00000070: 8029 9f36 003b d5b6 00d0 97b5 8036 3037
00000080: 0040 48b6 0009 9d37 006c 5036 00b1 cab6
00000090: 0060 4035 00b2 61b6 00c0 35b4 0052 7936
000000a0: 00e0 3933 0020 0434 00c8 e634 00a0 94b5
000000b0: 0036 0137 0060 94b5 000e 8e35 0048 0db7
000000c0: 0058 34b6 001a db36 00b0 9135 0028 ff34
000000d0: 0050 6e35 0026 0737 00f6 f0b6 00a8 b936
000000e0: 00c0 8436 0040 93b6 00b0 4436 0080 cdb3
000000f0: 008e f234 0053 d1b5 00d2 8eb5 0076 14b6
00000100: 0023 ba35 007b 2b36 0014 3835 803a 8235
00000110: 00ee 4335 0028 19b5 0080 94b3 007f 7db5
00000120: 00ba d1b4 00da 83b5 0013 9935 007c 0136
00000130: 0078 b835 00cf 4bb5 00d8 66b5 00a1 8e35
00000140: 0046 8336 00b6 0f37 0041 7136 002e f636
00000150: 004c aab6 00e0 4db6 0090 b335 002c 2eb6
00000160: 0030 a135 0060 bf35 00d0 1cb6 00c2 9f36
00000170: 0048 1bb6 0030 8334 00f8 19b7 0050 f4b6
00000180: 0040 1bb4 005e 9636 00c7 c836 00a3 a5b6
00000190: 0066 4535 006b 9b36 005c 6c36 00d1 fa36
000001a0: 00b0 41b6 003d f1b6 0080 26b3 0018 1eb6
000001b0: 00c0 7eb4 00c0 bd34 0076 04b6 00f8 1436
000001c0: 00fc a1b5 00a8 7f36 00c0 45b6 00de a4b6
000001d0: 80d2 35b6 0005 1336 0025 8d36 00ad 94b6
000001e0: 00d0 f4b5 00f9 abb6 0058 73b5 00d0 eab5
000001f0: 0040 5636 00d4 01b6 0080 89b4 0014 9135
00000200: 0080 a4b4 00c0 d8b5 0000 ebb3 00e0 56b6
00000210: 0000 b033 00d8 3a36 00c0 ee36 00f8 8236
00000220: 00f0 7fb5 00e4 39b6 0088 0eb6 0090 a235
00000230: 007e 96b6 009c e9b6 00d8 18b6 00ca 96b6
00000240: 00e0 7e36 0020 9cb4 00a8 08b6 00c8 c935
00000250: 0050 04b6 00f0 84b5 00b0 1336 0074 82b6
00000260: 0018 2e36 0010 ac35 0048 0d37 0030 b236
00000270: 00d0 ceb5 00e0 7ab6 00bc a3b6 008e 6d36
00000280: 00cf 9ab7 0040 bbb7 0080 0eb7 0008 94b7
00000290: 0088 1837 0000 7234 001c 31b7 00d0 8336
000002a0: 0090 29b7 0000 b6b3 0008 4637 004c 37b7
000002b0: 0018 6037 00b0 8e35 002c cc37 00c0 7c37
000002c0: 0000 eab6 00f4 43b7 20f3 a4b7 00a4 7437
000002d0: 00a8 0f37 007c 8f37 00f2 ba36 007c 3737
000002e0: 0038 2eb7 0080 24b5 00e0 4536 0074 92b6
000002f0: 0050 3d36 0000 7036 0060 69b6 0038 2837
00000300: 0058 87b6 0058 5fb6 001c afb7 0010 69b7
00000310: 0020 0536 001c 1a37 00b2 3037 00bc 03b7
00000320: 0093 e235 0012 0d36 00cc 8435 0056 0a36
00000330: 0000 66b5 00d0 22b5 008c 8635 00b0 f5b4
00000340: 00ac 7d35 0000 adb3 0084 acb5 00c0 8335
00000350: 00b6 b6b5 0030 b034 00f0 0bb6 0020 cbb5
00000360: 00e0 e934 00b8 9135 8080 0736 00e9 d8b5
00000370: 00f6 1c36 00d8 4f35 0080 0eb4 00e0 acb4
00000380: 0060 bb34 00f0 2236 0068 e635 0050 0b35
00000390: 00b8 e635 00d8 0fb5 00e0 acb5 00c0 6134
000003a0: 0080 e6b5 004e 89b5 0000 c0b5 00c0 6d34
000003b0: 0054 0636 0070 f834 00c4 a335 00d8 04b5
000003c0: 00a0 4e36 00fc 6536 0038 8035 00f8 0236
000003d0: 0070 b0b5 0090 ab35 0038 f035 0060 cab4
000003e0: 0080 eb35 0000 9e33 00c8 e0b5 00b8 e935
000003f0: 00d0 08b6 0004 87b5 0064 8eb6 0008 0bb6
-5.2154064e-08 -1.5669502e-06 -2.4917535e-06 -6.011105e-07 1.4291145e-06 2.886518e-06 -1.0775402e-06 1.0978896e-05
-3.789086e-06 8.546456e-06 1.9818544e-06 5.8789738e-06 -1.1511147e-06 7.868744e-06 7.171184e-08 -2.1081883e-05
2.0549633e-06 -7.679686e-06 4.90807e-07 1.6388483e-05 -5.5192504e-07 -9.1735274e-08 2.8312206e-06 3.0497322e-06
-7.41391e-07 -1.2514647e-07 -2.1541491e-06 2.0902604e-05 4.7434005e-06 -6.354763e-06 -1.1310913e-06 1.0503107e-05
-2.9839575e-06 1.872005e-05 3.105728e-06 -6.0406746e-06 7.166527e-07 -3.3631222e-06 -1.6926788e-07 3.7151622e-06
4.3277396e-08 1.23051e-07 4.2986358e-07 -1.1073425e-06 7.701572e-06 -1.1054799e-06 1.0583899e-06 -8.421019e-06
-2.6873313e-06 6.5297354e-06 1.0854565e-06 4.7526555e-07 8.8778324e-07 8.055475e-06 -7.1811955e-06 5.5329874e-06
3.9562583e-06 -4.388392e-06 2.9308721e-06 -9.5693395e-08 4.517933e-07 -1.559587e-06 -1.0640942e-06 -2.2122404e-06
1.3868266e-06 2.555258e-06 6.8574445e-07 9.70278e-07 7.2989496e-07 -5.705515e-07 -6.91507e-08 -9.4434654e-07
-3.9064616e-07 -9.823707e-07 1.1404918e-06 1.9294675e-06 1.3743993e-06 -7.592462e-07 -8.5996e-07 1.0626682e-06
3.9122533e-06 8.565839e-06 3.5949633e-06 7.3367264e-06 -5.0752424e-06 -3.0677766e-06 1.3378449e-06 -2.5953632e-06
1.2009405e-06 1.4258549e-06 -2.3366883e-06 4.761154e-06 -2.313871e-06 2.4435576e-07 -9.177253e-06 -7.28108e-06
-1.4458783e-07 4.4812914e-06 5.983631e-06 -4.936359e-06 7.353665e-07 4.6318164e-06 3.5220291e-06 7.4749114e-06
-2.8861687e-06 -7.189461e-06 -3.8766302e-08 -2.3557805e-06 -2.3725443e-07 3.5343692e-07 -1.9738218e-06 2.2198074e-06
-1.2068776e-06 3.809575e-06 -2.9467046e-06 -4.913425e-06 -2.709363e-06 2.1907617e-06 4.206435e-06 -4.4308836e-06
-1.8239953e-06 -5.1251845e-06 -9.065261e-07 -1.7494895e-06 3.1925738e-06 -1.9345898e-06 -2.561137e-07 1.0809163e-06
-3.0640513e-07 -1.6149133e-06 -1.094304e-07 -3.201887e-06 8.195639e-08 2.7841888e-06 7.1153045e-06 3.903173e-06
-9.534415e-07 -2.7699862e-06 -2.1238811e-06 1.211185e-06 -4.4850167e-06 -6.962102e-06 -2.2775494e-06 -4.4938643e-06
3.7979335e-06 -2.9080547e-07 -2.0363368e-06 1.5033875e-06 -1.97161e-06 -9.904616e-07 2.2007152e-06 -3.887806e-06
2.594199e-06 1.2819655e-06 8.421019e-06 5.3104013e-06 -1.5408732e-06 -3.7383288e-06 -4.8796646e-06 3.5398407e-06
-1.8454622e-05 -2.232194e-05 -8.493662e-06 -1.76467e-05 9.091571e-06 2.2538006e-07 -1.0556541e-05 3.9283186e-06
-1.0106713e-05 -8.4750354e-08 1.1803582e-05 -1.0925345e-05 1.3357028e-05 1.0631047e-06 2.4339184e-05 1.5065074e-05
-6.9737434e-06 -1.1679716e-05 -1.9663537e-05 1.4581718e-05 8.56258e-06 1.710467e-05 5.5714045e-06 1.0936521e-05
-1.0384247e-05 -6.1281025e-07 2.9485673e-06 -4.3646432e-06 2.820976e-06 3.5762787e-06 -3.4775585e-06 1.0026619e-05
-4.033558e-06 -3.3280812e-06 -2.0874664e-05 -1.38916075e-05 1.983717e-06 9.185635e-06 1.0531861e-05 -7.851981e-06
1.6881095e-06 2.1021115e-06 9.894138e-07 2.061366e-06 -8.5681677e-07 -6.065238e-07 1.0024523e-06 -4.5762863e-07
9.450014e-07 -8.05594e-08 -1.2853416e-06 9.81614e-07 -1.3613026e-06 3.281748e-07 -2.0852312e-06 -1.5133992e-06
4.3562613e-07 1.0856893e-06 2.0191364e-06 -1.6161066e-06 2.3389002e-06 7.742783e-07 -1.3271347e-07 -3.2200478e-07
3.4901313e-07 2.427958e-06 1.7166603e-06 5.189795e-07 1.7189886e-06 -5.358597e-07 -1.2880191e-06 2.1024607e-07
-1.7173588e-06 -1.0229996e-06 -1.4305115e-06 2.2142194e-07 2.001645e-06 4.627509e-07 1.220149e-06 -4.9488153e-07
3.0789524e-06 3.4270342e-06 9.553041e-07 1.9515865e-06 -1.3145618e-06 1.2782402e-06 1.7897692e-06 -3.769528e-07
1.7546117e-06 7.357448e-08 -1.6747508e-06 1.7413404e-06 -2.0386651e-06 -1.0059448e-06 -4.2435713e-06 -2.071727e-06

old_dirs f4 [522]
00000000: 00c0 46b4 004a 1836 0070 0eb5 00d8 9335
00000010: 0000 c032 80c9 abb6 0038 94b6 003d cfb7
00000020: 00b4 72b6 60ec 6fb7 0028 50b6 0020 59b7
00000030: 0000 ba33 00e4 60b7 0060 c936 8099 2638
00000040: 0000 02b5 00e4 5637 00c8 c0b6 007c 02b8
00000050: 00c0 2334 0080 ec34 0020 6f35 0099 b0b6
00000060: 00c0 2035 0058 0335 000c 23b7 c07b 31b8
00000070: 808a f736 001f 5a37 0078 deb6 e074 b2b7
00000080: 0040 ccb5 00c2 0bb8 006c 3736 0040 3e37
00000090: 0068 0fb6 80ac c136 00a0 a6b5 80a5 04b7
000000a0: 001c 3ab5 00f8 0eb5 00e0 7eb5 0080 93b6
000000b0: 00f2 37b7 0038 47b6 00e4 5cb6 00ae 9737
000000c0: 0086 9a36 000b 79b7 00b8 91b5 00b8 13b5
000000d0: 00e0 09b5 00b3 abb7 00f7 3037 00ba 43b7
000000e0: 00ac 30b7 0060 0437 00bc 88b6 0098 f4b5
000000f0: 0087 f935 8099 b135 000c 3135 0010 df35
00000100: 0036 5f35 0018 9734 8050 db35 005c 8e34
00000110: 006f d435 800f 94b5 801a 0db6 0020 bf32
00000120: 005f 02b6 0040 1c33 0040 e4b4 0054 8934
00000130: 00d0 8435 0069 2a35 80c3 3336 0088 f8b5
00000140: 0003 48b7 00b8 5eb7 00c3 9fb6 00cf 33b7
00000150: 0058 2a36 0098 0eb6 00cc 0bb7 0000 8d35
00000160: 0052 07b7 00e0 ff35 0084 1a37 00ca b5b6
00000170: 00fe 2637 0000 dd35 0014 6237 00b0 d736
00000180: 00e4 cbb6 0016 e5b6 00fd 62b7 8047 2337
00000190: 201c c2b6 00b7 a4b6 003c 40b6 0072 deb6
000001a0: 001c 8bb5 00a0 c135 002b 9eb6 0020 2833
000001b0: 008f 96b6 00b0 3936 00ac d536 00f0 64b5
000001c0: 004a c936 0078 d0b5 00d8 2636 00f4 9c35
000001d0: 80d1 10b6 00eb 1eb6 8013 0ab7 00fc d036
000001e0: 00cc ea36 0053 2937 0048 1a36 0000 bd36
000001f0: 00c0 31b6 00e8 9436 00b0 9e36 0030 46b5
00000200: 00e8 9c36 0000 a233 00b4 8db6 00d4 a236
00000210: 00c0 aab6 006c 8bb6 0082 47b7 0068 a3b6
00000220: 00fa a036 c034 b036 00a0 f636 00a4 a4b6
00000230: 0024 1e37 00a6 4e37 00d8 8236 00d6 0d37
00000240: 00e8 8fb6 00c4 1a36 00a4 ca36 0018 d1b5
00000250: 0094 c436 0000 92b3 00bc cfb6 000c c836
00000260: 00a8 efb6 0074 23b6 0058 6eb7 00b8 f8b6
00000270: 00b4 a336 00b8 d736 8060 2837 0088 f3b6
00000280: 80e6 2038 00f0 2738 0046 7137 0013 0738
00000290: 00e0 14b7 00a0 e536 0002 dd37 00e0 66b6
000002a0: 00b0 d537 0030 aeb6 0052 e9b7 0006 8e37
000002b0: 00f1 03b8 0030 7cb6 00e8 31b8 002c aeb7
000002c0: 00f2 a537 0082 ac37 a065 2638 80d1 f0b7
000002d0: 00d0 b6b7 00ae f3b7 002d 18b7 00bb a6b7
000002e0: 0020 1e37 00f8 c6b6 00d8 6eb7 0068 6536
000002f0: 0064 68b7 0080 0335 0060 7737 000c 68b7
00000300: 0040 8c37 00ac d536 00ca 0a38 005c 8c37
00000310: 00f8 41b7 0058 7eb7 0010 c9b7 80ca 9037
00000320: 000d 6db6 00d6 65b6 0076 beb5 00af 52b6
00000330: 00a0 2635 0040 37b4 002a 27b6 0050 9d34
00000340: 00c4 20b6 00e8 3735 003e 3b36 00e0 b2b5
00000350: 00c8 4c36 0040 d5b3 00e2 6236 00d8 eb35
00000360: 00ec deb5 0050 eab5 80ba 7eb6 8042 3d36
00000370: 00cc c8b5 00fe 48b6 0094 45b5 0026 b9b5
00000380: 00c8 1036 0030 13b5 00a0 29b5 00e0 4435
00000390: 0090 27b5 0090 71b5 00e0 a134 00c4 04b6
000003a0: 0080 4535 00e8 6035 00b8 9636 00a0 3736
000003b0: 00d0 53b5 00bc d5b5 00c4 83b5 0048 5f35
000003c0: 0022 bcb6 002f e1b6 00d0 0fb6 00d5 9eb6
000003d0: 0058 1036 0050 bfb5 009c 77b6 0020 4d35
000003e0: 0078 70b6 0040 5734 00a4 7536 00bc 56b6
000003f0: 00da 9136 0018 9d35 00ac 0237 005e 8436
-1.8510036e-07 2.2692839e-06 -5.3062104e-07 1.1015218e-06 2.2351742e-08 -5.119655e-06 -4.417263e-06 -2.4704728e-05
-3.6165584e-06 -1.4300545e-05 -3.1017698e-06 -1.29416585e-05 8.6613e-08 -1.3404526e-05 6.0014427e-06 3.9720442e-05
-4.8428774e-07 1.2808479e-05 -5.745329e-06 -3.11099e-05 1.5250407e-07 4.4051558e-07 8.9081004e-07 -5.2630203e-06
5.988404e-07 4.892936e-07 -9.718351e-06 -4.231534e-05 7.377297e-06 1.300103e-05 -6.6300854e-06 -2.1273678e-05
-1.5217811e-06 -3.332086e-05 2.733199e-06 1.1339784e-05 -2.1369196e-06 5.77193e-06 -1.241453e-06 -7.906347e-06
-6.9331145e-07 -5.326001e-07 -9.4948336e-07 -4.3958426e-06 -1.0963995e-05 -2.9685907e-06 -3.2915268e-06 1.8081628e-05
4.6051573e-06 -1.4844118e-05 -1.0856893e-06 -5.502952e-07 -5.136244e-07 -2.0468142e-05 1.0547927e-05 -1.1666212e-05
-1.0530464e-05 7.890165e-06 -4.075002e-06 -1.8223654e-06 1.8591236e-06 1.3232202e-06 6.59551e-07 1.6619451e-06
8.3152554e-07 2.8143404e-07 1.63402e-06 2.65165e-07 1.5827536e-06 -1.103137e-06 -2.1026062e-06 2.2249878e-08
-1.9426807e-06 3.6379788e-08 -4.2514876e-07 2.5579357e-07 9.895302e-07 6.348273e-07 2.6786875e-06 -1.8517021e-06
-1.1921627e-05 -1.3275072e-05 -4.7612702e-06 -1.0717427e-05 2.5383197e-06 -2.1248125e-06 -8.332543e-06 1.0505319e-06
-8.065719e-06 1.9064173e-06 9.209849e-06 -5.4177362e-06 9.95351e-06 1.6465783e-06 1.3475306e-05 6.4279884e-06
-6.076414e-06 -6.827293e-06 -1.3529556e-05 9.7322045e-06 -5.7849247e-06 -4.908885e-06 -2.8645154e-06 -6.629387e-06
-1.0364456e-06 1.4426187e-06 -4.713773e-06 3.9144652e-08 -4.4869957e-06 2.7669594e-06 6.367918e-06 -8.5285865e-07
5.9988815e-06 -1.5532132e-06 2.4861656e-06 1.1693919e-06 -2.1579617e-06 -2.3680623e-06 -8.229981e-06 6.2282197e-06
6.997492e-06 1.009251e-05 2.2989698e-06 5.632639e-06 -2.6486814e-06 4.437752e-06 4.729256e-06 -7.3830597e-07
4.6761706e-06 7.543713e-08 -4.223082e-06 4.8526563e-06 -5.0887465e-06 -4.1550957e-06 -1.1891592e-05 -4.8698857e-06
4.7974754e-06 5.2513496e-06 7.3499978e-06 -4.906673e-06 9.425916e-06 1.2317207e-05 3.8994476e-06 8.454081e-06
-4.2887405e-06 2.3061875e-06 6.0391612e-06 -1.5578698e-06 5.8584847e-06 -6.798655e-08 -6.190967e-06 5.9618615e-06
-7.142313e-06 -2.4356414e-06 -1.4206395e-05 -7.4123964e-06 4.8787333e-06 6.4289197e-06 1.00360485e-05 -7.257797e-06
3.8361643e-05 4.003942e-05 1.43810175e-05 3.2204203e-05 -8.8736415e-06 6.8433583e-06 2.6346184e-05 -3.4403056e-06
2.5473535e-05 -5.191192e-06 -2.7813949e-05 1.6930513e-05 -3.1457283e-05 -3.7578866e-06 -4.2416155e-05 -2.0762905e-05
1.9782223e-05 2.0564534e-05 3.967213e-05 -2.8707786e-05 -2.1792948e-05 -2.9048882e-05 -9.070383e-06 -1.987582e-05
9.4249845e-06 -5.929731e-06 -1.4236197e-05 3.4184195e-06 -1.3851561e-05 4.898757e-07 1.4744699e-05 -1.3831072e-05
1.6719103e-05 6.367918e-06 3.308989e-05 1.6732141e-05 -1.1561438e-05 -1.5160069e-05 -2.3968518e-05 1.7260434e-05
-3.532332e-06 -3.4248224e-06 -1.4190446e-06 -3.1394302e-06 6.207265e-07 -1.7066486e-07 -2.4909386e-06 2.9301737e-07
-2.3955945e-06 6.8510417e-07 2.790126e-06 -1.3327226e-06 3.0514784e-06 -9.930227e-08 3.3808174e-06 1.7571729e-06
-1.6608974e-06 -1.7457642e-06 -3.7957507e-06 2.8201903e-06 -1.4960533e-06 -2.995017e-06 -7.360359e-07 -1.3794634e-06
2.1574087e-06 -5.4831617e-07 -6.3190237e-07 7.334165e-07 -6.2421896e-07 -8.9989044e-07 3.0151568e-07 -1.978362e-06
7.3574483e-07 8.3784107e-07 4.491769e-06 2.7362257e-06 -7.8906305e-07 -1.5924452e-06 -9.817304e-07 8.317875e-07
-5.6067947e-06 -6.710994e-06 -2.1429732e-06 -4.7335634e-06 2.1508895e-06 -1.4253892e-06 -3.6896672e-06 7.641502e-07
-3.5832636e-06 2.0046718e-07 3.6603305e-06 -3.1997915e-06 4.3467153e-06 1.1704396e-06 7.788651e-06 3.9448496e-06

old_dirs f4 [522]
00000000: 0000 0133 0088 a2b5 0020 d7b4 00c0 39b5
00000010: 0000 2d34 00a1 1436 0000 6e34 008a 1b37
00000020: 0000 6432 c0dc c536 00e0 4b35 0002 ae36
00000030: 0080 9eb4 0034 c036 00c0 c8b5 001e 84b7
00000040: 00a0 0635 00ee b4b6 0020 c935 00f4 4e37
00000050: 0000 f032 0050 6eb4 0040 1635 0088 1f36
00000060: 0010 aeb4 0030 99b4 0000 f035 409e 8737
00000070: 00c0 91b3 00ee 86b6 0080 c235 4012 0637
00000080: 0000 81b4 00d0 6b37 0080 b1b3 005f 8cb6
00000090: 00c0 7c35 0095 3bb6 0000 1f34 001e 5036
000000a0: 0040 81b2 0000 a5b3 00d0 3d34 0000 f634
000000b0: 00a0 9036 0000 b7b3 0040 7735 00e0 d7b6
000000c0: 00d0 cfb5 009a b136 00c0 2435 0038 ca34
000000d0: 0040 3234 0014 f636 0066 8bb6 0064 8d36
000000e0: 00d8 6736 009e 44b6 00f0 0d36 00a0 d734
000000f0: 00cb 05b5 00a8 0bb5 00dc c4b4 0018 5db5
00000100: 00e0 3a33 0000 0e35 00ca bcb4 001c e233
00000110: 0054 afb4 0050 6834 00f0 1b35 0028 fdb3
00000120: 0003 0d35 0050 d2b4 0020 2134 00ec a434
00000130: 00c0 96b2 00c2 76b4 0086 57b5 0020 2f35
00000140: 0064 9436 0028 b536 001e 0936 00e0 9336
00000150: 00d0 feb5 0000 f8b1 00b0 2f36 0020 69b5
00000160: 0030 2936 0000 f9b3 00f0 46b6 00f4 2936
00000170: 0018 5cb6 0030 b2b4 00b0 bcb6 0008 62b6
00000180: 0020 ea35 005c 3c36 009a a436 00a8 71b6
00000190: 8026 f035 003e 0136 0062 b535 00fc 4736
000001a0: 00b0 9bb4 007c edb5 000a b535 0088 dab4
000001b0: 0088 a735 00a0 3db5 00e6 0bb6 00b8 0d35
000001c0: 0042 03b6 0058 bb35 0058 88b5 00dc a4b5
000001d0: 0000 2934 0074 6c35 00b0 3736 00f2 1bb6
000001e0: 0020 13b6 00d4 89b6 0078 70b5 00c8 06b6
000001f0: 00a0 f635 0030 d0b5 00e0 81b5 0000 3235
00000200: 0020 82b5 0060 40b5 00e0 4535 00a0 17b6
00000210: 00a0 8135 0000 f335 00cc b136 00b8 2d36
00000220: 0068 a6b5 002d 11b6 0018 20b6 0090 ca35
00000230: 0088 7ab6 00b8 aab6 00c0 d6b5 0050 60b6
00000240: 0078 1736 00c0 4db5 0070 04b6 0090 6c35
00000250: 0060 00b6 0040 e2b4 00c0 0436 0020 34b6
00000260: 0010 1f36 0090 9335 00c0 cb36 0020 6436
00000270: 00c0 dcb5 0048 36b6 008e 80b6 0006 3636
00000280: 00d4 7eb7 008c 87b7 0040 c5b6 0054 57b7
00000290: 0060 9f36 00e0 00b6 0010 1fb7 0010 0736
000002a0: 00c0 19b7 0080 8b35 007c 2737 00d0 f5b6
000002b0: 0040 4137 0010 b435 00b8 9037 0078 1a37
000002c0: 0090 ebb6 0000 0db7 0044 80b7 00a5 3837
000002d0: 00c8 0637 0050 4937 0020 7536 008e 0037
000002e0: 00d0 b9b6 00e0 ec35 00e8 8636 0090 13b6
000002f0: 00d0 8336 0000 b335 00c0 87b6 0070 d836
00000300: 00a8 a1b6 0020 44b6 00d0 71b7 0038 08b7
00000310: 0050 6836 00b4 d636 00b2 0f37 00be cab6
00000320: 00b2 b535 00c8 bb35 00d4 1e35 00a0 aa35
00000330: 0040 d5b4 0000 55b3 0020 6d35 0010 4fb4
00000340: 006c 6335 0080 2cb4 00ea 85b5 00b0 2135
00000350: 003a 94b5 0060 8d33 0008 bdb5 00d0 5bb5
00000360: 00f8 1635 0048 4235 00b2 c035 0062 91b5
00000370: 0070 6d35 00ea a935 0090 8634 0090 fc34
00000380: 00d0 3eb5 0070 3c35 0040 cd34 00e0 65b4
00000390: 0060 d234 00e0 a534 0080 5db4 0080 5535
000003a0: 0000 cdb4 0094 2eb5 000c 00b6 00a0 78b5
000003b0: 00f0 1035 0054 4035 00e0 3035 0058 d3b4
000003c0: 0000 1536 0026 3b36 00f0 6035 0028 f435
000003d0: 0070 8db5 0068 3f35 0078 a935 00c0 d5b4
000003e0: 0020 a535 0040 0e34 00c0 a1b5 00c8 be35
000003f0: 00b0 c4b5 0018 39b5 0030 60b6 0068 e2b5
3.0035153e-08 -1.2109522e-06 -4.0070154e-07 -6.919727e-07 1.611188e-07 2.2147433e-06 2.2165477e-07 9.270851e-06
1.3271347e-08 5.896756e-06 7.5949356e-07 5.185837e-06 -2.9522926e-07 5.7280995e-06 -1.495704e-06 -1.5749596e-05
5.015172e-07 -5.392125e-06 1.498498e-06 1.23353675e-05 2.7939677e-08 -2.2194581e-07 5.5972487e-07 2.3772009e-06
-3.2421667e-07 -2.8533395e-07 1.7881393e-06 1.6166945e-05 -6.787013e-08 -4.021218e-06 1.4491379e-06 7.991272e-06
-2.4028122e-07 1.405552e-05 -8.265488e-08 -4.1833846e-06 9.415671e-07 -2.79519e-06 1.4808029e-07 3.1011878e-06
-1.504668e-08 -7.683411e-08 1.7677667e-07 4.582107e-07 4.310161e-06 -8.5216016e-08 9.21078e-07 -6.4335763e-06
-1.5483238e-06 5.292939e-06 6.137416e-07 3.7666177e-07 1.6600825e-07 7.3336996e-06 -4.154397e-06 4.213769e-06
3.454741e-06 -2.9298244e-06 2.1150336e-06 4.0163286e-07 -4.9841765e-07 -5.202601e-07 -3.6667916e-07 -8.236384e-07
4.3510227e-08 5.289912e-07 -3.5164703e-07 1.0529038e-07 -3.2657408e-07 2.1635788e-07 5.8091246e-07 -1.17885065e-07
5.253096e-07 -3.9173756e-07 1.5005935e-07 3.0719093e-07 -1.754961e-08 -2.2981112e-07 -8.0288737e-07 6.5239146e-07
4.4223852e-06 5.398877e-06 2.0432053e-06 4.4070184e-06 -1.8985011e-06 -7.21775e-09 2.6179478e-06 -8.684583e-07
2.5210902e-06 -1.1594966e-07 -2.9643998e-06 2.532499e-06 -3.2796524e-06 -3.3190008e-07 -5.6233257e-06 -3.368128e-06
1.7443672e-06 2.8067734e-06 4.905509e-06 -3.6009587e-06 1.7892598e-06 1.9258587e-06 1.3514073e-06 2.9799994e-06
-2.8999057e-07 -1.7693965e-06 1.3488461e-06 -4.0704617e-07 1.2482051e-06 -7.064082e-07 -2.0846492e-06 5.279435e-07
-1.9558938e-06 1.3958197e-06 -1.0158401e-06 -1.2282981e-06 1.5739352e-07 8.8085653e-07 2.737157e-06 -2.3237662e-06
-2.1923333e-06 -4.107598e-06 -8.958159e-07 -2.0083971e-06 1.8374994e-06 -1.5511177e-06 -9.676442e-07 6.631017e-07
-9.695068e-07 -7.166527e-07 7.371418e-07 -2.2593886e-06 9.657815e-07 1.8104911e-06 5.29876e-06 2.588611e-06
-1.2398232e-06 -2.1632877e-06 -2.3855828e-06 1.5092082e-06 -3.7332065e-06 -5.087815e-06 -1.6000122e-06 -3.3425167e-06
2.2570603e-06 -7.664785e-07 -1.9734725e-06 8.81264e-07 -1.9129366e-06 -4.2142347e-07 1.9781291e-06 -2.6840717e-06
2.370216e-06 1.0994263e-06 6.072223e-06 3.3993274e-06 -1.6447157e-06 -2.7162023e-06 -3.8312282e-06 2.7123606e-06
-1.518894e-05 -1.6158447e-05 -5.878508e-06 -1.2834556e-05 4.749745e-06 -1.9203871e-06 -9.480864e-06 2.012588e-06
-9.164214e-06 1.039356e-06 9.982847e-06 -7.3257834e-06 1.1518598e-05 1.3415702e-06 1.725182e-05 9.207055e-06
-7.0203096e-06 -8.404255e-06 -1.5290454e-05 1.1005672e-05 8.0335885e-06 1.199916e-05 3.6526471e-06 7.6624565e-06
-5.537644e-06 1.7648563e-06 4.0205196e-06 -2.1988526e-06 3.9283186e-06 1.3336539e-06 -4.0456653e-06 6.45034e-06
-4.8177317e-06 -2.9224902e-06 -1.4413148e-05 -8.11927e-06 3.461726e-06 6.3986517e-06 8.564908e-06 -6.042188e-06
1.3537356e-06 1.3990793e-06 5.916809e-07 1.2712553e-06 -3.9720908e-07 -4.9592927e-08 8.8335946e-07 -1.9284198e-07
8.472125e-07 -1.6065314e-07 -9.977375e-07 6.023329e-07 -1.104374e-06 6.5832864e-08 -1.4083926e-06 -8.188654e-07
5.624024e-07 7.2375406e-07 1.435692e-06 -1.0831864e-06 8.845236e-07 1.2659584e-06 2.506422e-07 4.7043432e-07
-7.1083196e-07 7.019844e-07 3.8230792e-07 -2.1408778e-07 3.9185397e-07 3.0896626e-07 -2.0628795e-07 7.953495e-07
-3.8184226e-07 -6.503542e-07 -1.9080471e-06 -9.262003e-07 5.3993426e-07 7.164781e-07 6.589107e-07 -3.936584e-07
2.220273e-06 2.788729e-06 8.379575e-07 1.8191058e-06 -1.0537915e-06 7.1304385e-07 1.2626406e-06 -3.981404e-07
1.2302771e-06 1.3248064e-07 -1.2051314e-06 1.4214311e-06 -1.4654361e-06 -6.8952795e-07 -3.340654e-06 -1.686858e-06

old_dirs f4 [522]
00000000: 0040 67b5 000f 9236 0020 a734 00b6 2336
00000010: 0020 3435 c097 1ab7 0000 6736 804e 1ab8
00000020: 00a0 28b5 402b bcb7 0040 5fb5 00b7 a9b7
00000030: 0060 5636 0031 ccb7 00e0 c735 00f3 8d38
00000040: 00a4 85b6 003e be37 00a0 4bb6 00b9 5db8
00000050: 0000 61b4 000e 2835 0060 1235 00b7 30b7
00000060: 0034 ad35 0098 a635 00f0 a0b6 9074 91b8
00000070: 807b c436 80c7 a237 0094 97b6 6065 0db8
00000080: 00a0 be36 80cf 74b8 00f0 6d35 40bb 9a37
00000090: 00f8 f3b6 c028 1d37 0010 6835 c0fb 4db7
000000a0: 00a8 beb5 0070 62b5 00a4 29b5 0010 4236
000000b0: 00df 92b7 0040 1a35 8067 8ab6 00ec dd37
000000c0: 0040 da36 007e b7b7 0083 3ab6 005a 88b5
000000d0: 0060 26b5 000b f2b7 8023 9037 0046 8bb7
000000e0: 006a 62b7 80b4 5837 0060 3cb7 0040 ceb4
000000f0: 80c3 0e36 c067 1136 0017 bb35 0063 5c36
00000100: 0070 1c35 0024 a8b5 8044 ef35 008c ecb3
00000110: 803c e135 00d3 a9b5 00cf 38b6 00a8 9334
00000120: c0e4 1fb6 00a4 7235 00c8 1db5 000c e3b4
00000130: 0022 0135 c03d 8835 001d 8136 00cc 44b6
00000140: 80cd 8cb7 8081 c8b7 80d0 14b7 0008 9eb7
00000150: 000a 1a37 00a0 5435 0092 26b7 00e8 8b36
00000160: 00ae 1fb7 0080 15b4 00b4 4437 00d3 40b7
00000170: 0066 5337 00d4 0a36 004e d637 000c 8337
00000180: 00ac d0b6 00a6 50b7 006f acb7 00b4 8037
00000190: 80ca 04b7 8019 0cb7 00fa beb6 0040 56b7
000001a0: 0000 3832 00f9 d936 00af cdb6 005e b435
000001b0: 005b bfb6 000c 7036 00c6 1e37 005a 04b6
000001c0: 80b4 1037 0082 a1b6 0000 8636 0082 8536
000001d0: 00ca 94b5 0016 85b6 c07d 58b7 00aa 3037
000001e0: 005c ba36 805f 9037 0066 5d36 00b0 e536
000001f0: 002a 2ab7 00e2 a436 00a0 b535 0018 70b6
00000200: 00c0 c235 00c8 a536 0080 7db4 00b0 3137
00000210: 0080 8db5 00ec 0fb7 00fe bfb7 0001 55b7
00000220: 00fc 4f36 0035 1b37 0080 ec36 0074 97b6
00000230: 003b 6137 00e0 bc37 0044 ec36 00fd 6e37
00000240: 00fc 42b7 0078 c735 007c e236 0006 98b6
00000250: 00ec da36 00c8 4336 00f0 ecb6 00cc 4f37
00000260: 00a8 0cb7 0038 9cb6 0051 e5b7 00b3 8bb7
00000270: 0080 b236 0061 4837 00f1 7d37 80de 3ab7
00000280: 00d4 7438 0079 9738 004e db37 80c6 6838
00000290: 00ac e1b7 0070 5036 00dc 1438 0038 3cb7
000002a0: 0042 0f38 0080 6ab5 00b3 21b8 005f 1138
000002b0: 0059 38b8 00dc cbb6 006a a7b8 00c4 43b8
000002c0: 00b2 d137 0097 1d38 0074 8338 00ee 41b8
000002d0: 000a f0b7 005e 5db8 00cc 87b7 00a7 09b8
000002e0: 0074 e837 00d8 53b6 009c 66b7 00ca 3737
000002f0: 0010 5fb7 0030 02b7 00a8 7637 001c f6b7
00000300: 00b8 8f37 0074 4b37 0034 8638 0040 2438
00000310: 009c 36b7 0027 ebb7 00cf 0fb8 00d1 d337
00000320: 40ac bbb6 00e0 d1b6 0068 32b6 80be bdb6
00000330: 00d0 0536 00e8 1b35 0016 72b6 00ee 8035
00000340: 0046 67b6 00d0 1f35 006e 8d36 00a4 38b6
00000350: 0064 9a36 007c c5b4 0047 d636 00d6 8436
00000360: 0008 10b6 009c 57b6 00a1 d1b6 c0e8 9f36
00000370: 0044 19b6 800a b9b6 0028 8db5 0052 ddb5
00000380: 000a 9736 0008 d3b5 0070 02b5 000c bf35
00000390: 0010 09b5 000a 12b6 0030 8ab4 00b1 82b6
000003a0: 0020 f534 0077 1f36 006a 1137 00ca b036
000003b0: 0020 a1b5 00d0 4ab6 006c b4b5 0000 8035
000003c0: 00ea 03b7 0006 4bb7 0079 75b6 0099 fbb6
000003d0: 0008 ca36 0040 cbb5 0024 8cb6 00b6 1636
000003e0: 00da 87b6 0070 beb5 0064 8836 004e deb6
000003f0: 006a a936 001a 3036 00e6 7a37 001d 1337
-8.614734e-07 4.3528853e-06 3.1129457e-07 2.439483e-06 6.710179e-07 -9.214447e-06 3.4421682e-06 -3.678957e-05
-6.281771e-07 -2.2431486e-05 -8.3167106e-07 -2.0231586e-05 3.1944364e-06 -2.4341512e-05 1.4891848e-06 6.768666e-05
-3.982801e-06 2.2678636e-05 -3.034249e-06 -5.28628e-05 -2.0954758e-07 6.260525e-07 5.4528937e-07 -1.05330255e-05
1.2904638e-06 1.2412202e-06 -4.7963113e-06 -6.93585e-05 5.8556325e-06 1.9404804e-05 -4.51738e-06 -3.3711432e-05
5.6810677e-06 -5.8367383e-05 8.8638626e-07 1.8445426e-05 -7.2708353e-06 9.367417e-06 8.645002e-07 -1.2277567e-05
-1.4204998e-06 -8.435454e-07 -6.319606e-07 2.8917566e-06 -1.7508399e-05 5.7462603e-07 -4.1247695e-06 2.6455149e-05
6.504357e-06 -2.1873973e-05 -2.7792412e-06 -1.0158983e-06 -6.197952e-07 -2.885377e-05 1.7182669e-05 -1.6602688e-05
-1.349533e-05 1.2916629e-05 -1.1228025e-05 -3.8417056e-07 2.1273445e-06 2.1667074e-06 1.393928e-06 3.284018e-06
5.827751e-07 -1.2527453e-06 1.7826824e-06 -1.1015072e-07 1.6781414e-06 -1.265289e-06 -2.7538626e-06 2.750312e-07
-2.3825996e-06 9.0390677e-07 -5.8778096e-07 -4.2290776e-07 4.810572e-07 1.0150761e-06 3.8478756e-06 -2.932502e-06
-1.6784994e-05 -2.3902161e-05 -8.870033e-06 -1.8838793e-05 9.181444e-06 7.9208985e-07 -9.928364e-06 4.169531e-06
-9.517651e-06 -1.3923272e-07 1.172442e-05 -1.1493219e-05 1.2600329e-05 2.0687003e-06 2.554711e-05 1.5622005e-05
-6.2189065e-06 -1.2436416e-05 -2.0555686e-05 1.5342608e-05 -7.914961e-06 -8.350587e-06 -5.691545e-06 -1.2770295e-05
1.071021e-08 6.4960914e-06 -6.1298488e-06 1.3438403e-06 -5.7028374e-06 3.5769772e-06 9.463634e-06 -1.972192e-06
8.625095e-06 -4.813308e-06 3.993511e-06 3.978843e-06 -1.1085649e-06 -3.96627e-06 -1.2903882e-05 1.0529999e-05
5.553942e-06 1.7210608e-05 3.2990938e-06 6.845221e-06 -1.01425685e-05 4.9138907e-06 1.3532117e-06 -3.5776757e-06
1.4510006e-06 4.9406663e-06 -2.3609027e-07 1.0591e-05 -1.0542572e-06 -8.578412e-06 -2.2887252e-05 -1.2696022e-05
3.0992087e-06 9.25106e-06 7.0482492e-06 -4.513655e-06 1.3424782e-05 2.2515655e-05 7.0412643e-06 1.4244812e-05
-1.1621974e-05 1.486158e-06 6.7497604e-06 -4.5306515e-06 6.5243803e-06 2.917368e-06 -7.0612878e-06 1.2385659e-05
-8.383766e-06 -4.6556816e-06 -2.7336646e-05 -1.6653445e-05 5.3197145e-06 1.19435135e-05 1.5136087e-05 -1.1138269e-05
5.8371574e-05 7.222779e-05 2.6143156e-05 5.5497978e-05 -2.6902184e-05 3.1059608e-06 3.549084e-05 -1.1218712e-05
3.4155324e-05 -8.735806e-07 -3.8552098e-05 3.465917e-05 -4.3951906e-05 -6.075483e-06 -7.9829246e-05 -4.6674162e-05
2.499763e-05 3.7572347e-05 6.2681735e-05 -4.623644e-05 -2.8614886e-05 -5.277805e-05 -1.6188249e-05 -3.2818876e-05
2.7710572e-05 -3.1567179e-06 -1.374539e-05 1.0954682e-05 -1.3295561e-05 -7.75978e-06 1.4701858e-05 -2.9338524e-05
1.713261e-05 1.2126751e-05 6.399304e-05 3.916025e-05 -1.0884367e-05 -2.8032344e-05 -3.428664e-05 2.5250483e-05
-5.593087e-06 -6.2547624e-06 -2.6584603e-06 -5.654816e-06 1.9939616e-06 5.8079604e-07 -3.6073616e-06 9.60601e-07
-3.4462428e-06 5.9534796e-07 4.214933e-06 -2.7513597e-06 4.601199e-06 -3.678433e-07 6.3859625e-06 3.9588194e-06
-2.1462329e-06 -3.21283e-06 -6.2474282e-06 4.765665e-06 -2.2838358e-06 -5.514652e-06 -1.051696e-06 -1.6489648e-06
4.501315e-06 -1.5723053e-06 -4.8591755e-07 1.4234101e-06 -5.105976e-07 -2.1761516e-06 -2.5739428e-07 -3.8949074e-06
4.565809e-07 2.3762113e-06 8.6673535e-06 5.2687246e-06 -1.2004748e-06 -3.0221418e-06 -1.3442477e-06 9.536743e-07
-7.862691e-06 -1.210114e-05 -3.6578276e-06 -7.4981945e-06 6.0210004e-06 -1.5143305e-06 -4.176516e-06 2.245768e-06
-4.048692e-06 -1.4188699e-06 4.0647574e-06 -6.625196e-06 5.0489325e-06 2.6241178e-06 1.4954712e-05 8.768635e-06
