tutorials/tutorial 5/lightning_logs/version_149/checkpoints/epoch=0-step=1.ckpt (torch, 40297 bytes, 44 tensors)

_pina_model._model.layers.0.weight f4 [20, 2]
0	0x3f15c7c3	0.5850794
1	0x3edb57bd	0.42840376
2	0x3f1bdb7d	0.6088179
3	0x3e5917e7	0.21200524
4	0xbf03630b	-0.51323
5	0xbe9c7393	-0.30556926
6	0xbf08595b	-0.53261346
7	0xbf2e04e4	-0.6797621
8	0xbeb029d3	-0.3440691
9	0x3e36a9dc	0.17838234
10	0xbef01ab4	-0.46895373
11	0xbef5a2d4	-0.4797579
12	0xbed3e80f	-0.41387984
13	0xbf2ee92c	-0.6832454
14	0xbe119657	-0.14217506
15	0x3ee4a8d9	0.4466007
16	0xbf0d8a93	-0.5528957
17	0xbef1e59c	-0.4724549
18	0x3f12663a	0.57187235
19	0xbebadc8d	-0.36496392
20	0xbc8d100a	-0.017219562
21	0xbf0ee024	-0.5581076
22	0xbeefdf66	-0.46850127
23	0x3d3ccc68	0.046093374
24	0xbf1b4c4c	-0.60663295
25	0xbe53341b	-0.20625345
26	0xbe347b93	-0.17625265
27	0xbebedd60	-0.3727827
28	0x3f1e2153	0.617696
29	0xbeb8cca3	-0.36093625
30	0x3f2b59ac	0.66933703
31	0xbdf825a2	-0.12116553
32	0x3ebe4182	0.37159353
33	0x3db0d1f3	0.08633795
34	0x3eed9f4f	0.46410605
35	0xbf00c82b	-0.5030543
36	0xbe6a9a3e	-0.22910401
37	0xbe62948b	-0.22126977
38	0x3efa65d6	0.4890582
39	0xbee9f150	-0.4569192

_pina_model._model.layers.0.bias f4 [20]
0	0x3ee25c8f	0.44211242
1	0xbeb6e3c2	-0.3572064
2	0x3f2db492	0.67853653
3	0x3f28ccc7	0.65937465
4	0x3df05738	0.11735386
5	0xbe82532a	-0.25454074
6	0xbe6e741c	-0.2328648
7	0xbe8857da	-0.26629525
8	0xbeaccf4b	-0.33751902
9	0x3de9ec5a	0.114220336
10	0xbe1fa0c1	-0.15588666
11	0x3f00c2c9	0.5029722
12	0x3ece9801	0.40350345
13	0x3c8cd0aa	0.017189343
14	0xbe9a50d0	-0.3013978
15	0x3eca1550	0.39469385
16	0x3e52db26	0.20591411
17	0xbd943eb6	-0.07238524
18	0x3cc0a4e6	0.02351613
19	0xbde497bb	-0.11161753

_pina_model._model.layers.2.weight f4 [2, 20]
0	0x3e443454	0.19160587
1	0x3c45bbed	0.012068731
2	0xbdeb7418	-0.114967525
3	0xbdd20db8	-0.10256523
4	0x3e452a81	0.19254495
5	0x3df51c2c	0.11968264
6	0x3e3dfeba	0.18554202
7	0x3e5b571e	0.21419951
8	0xbe21dbfc	-0.15806574
9	0x3d7ff884	0.062492862
10	0xbd4d61a1	-0.050141934
11	0x3e0d0977	0.13773142
12	0x3d35dc7d	0.044399727
13	0x3e1897f5	0.14901717
14	0x3d7e9b71	0.06215996
15	0x3e0dcc9d	0.13847585
16	0xbdad2bfc	-0.08455655
17	0x3e2c6057	0.16833626
18	0xbe5a7253	-0.21332674
19	0x3d734c38	0.05939886
20	0xbd3895b3	-0.04506464
21	0x3e259331	0.1616943
22	0xbc73f992	-0.014891045
23	0xbe4c0da3	-0.19927077
24	0xbdb7c4ad	-0.0897306
25	0xbd0da302	-0.034579284
26	0x3d503618	0.050832838
27	0x3d002e0d	0.031293917
28	0xbe13e6ae	-0.14443466
29	0xbdaa1b01	-0.08305932
30	0xbe1d84a2	-0.15382627
31	0x3d273cb6	0.040829383
32	0x3dee9d91	0.11651147
33	0x3d5e2e82	0.054243572
34	0x3d85fb5b	0.06542083
35	0x3e2f1247	0.17096816
36	0x3e45f07b	0.19330017
37	0x3d1db848	0.038505822
38	0x3da802d3	0.08203664
39	0x3d336a41	0.043802503

_pina_model._model.layers.2.bias f4 [2]
0	0x3d7b21c0	0.061311483
1	0x3d15f2d8	0.036608547

d f4 [102]
0	0xbab7d394	-0.0014024847
1	0x3bd365f4	0.0064513627
2	0x3cffdc64	0.03123302
3	0xba0308fd	-0.0004998593
4	0xbd15708f	-0.036484297
5	0xbc3c012a	-0.011474887
6	0xbd1ac9e4	-0.037790194
7	0x3aef3916	0.0018251266
8	0xbcc97ae7	-0.024594737
9	0xbba30905	-0.0049754404
10	0xbc0a5428	-0.008442916
11	0x3ada3219	0.001664701
12	0xbc0242c4	-0.0079504885
13	0x3b1421d3	0.0022603169
14	0xbbabad89	-0.005239193
15	0xba5a45cd	-0.0008326441
16	0xb9ac0dad	-0.00032816586
17	0xbb74790a	-0.003730359
18	0x3c2f1a16	0.010687372
19	0xbb720a54	-0.0036932426
20	0xba0f0aed	-0.0005456645
21	0x3a1b5dce	0.0005926759
22	0xbd0f5e06	-0.035001777
23	0xbc7f1d06	-0.015570885
24	0xbd3d66e6	-0.04624071
25	0xbcc20fac	-0.023689114
26	0xbcb20434	-0.02173052
27	0xbc3290d1	-0.010898785
28	0x3c9a5cdf	0.018843113
29	0xb9c8196c	-0.00038165913
30	0xbb169858	-0.0022978988
31	0xbbbfdc66	-0.005855131
32	0x3c1de2c0	0.009636581
33	0xbbbc0022	-0.0057373205
34	0x3963e553	0.00021733837
35	0xbc1991f4	-0.009373177
36	0xbbb0df53	-0.005397716
37	0xbbbc6da1	-0.0057503735
38	0x3c19c33a	0.009384925
39	0xbb8f9a7a	-0.0043824287
40	0x3966f996	0.00022027487
41	0xbd0852bf	-0.033282038
42	0x3c27c7a3	0.010240468
43	0x3d129e3e	0.035795443
44	0x3c8a309e	0.016868886
45	0x3ccbf5c2	0.02489746
46	0x3d0e69dd	0.034768928
47	0x3b357ffd	0.0027694695
48	0xb9236bc2	-0.00015585034
49	0xbc80aa0c	-0.015706085
50	0x3b00bb19	0.001964277
51	0x3c3e37b3	0.011609959
52	0x3cd9030a	0.026490707
53	0x3cc38e8e	0.023871686
54	0xbc56243e	-0.013070164
55	0xbc0310f2	-0.007999646
56	0xbc81a3ae	-0.015825119
57	0xbbae8237	-0.0053255814
58	0x3b2ca286	0.0026341989
59	0xbc18ef98	-0.009334467
60	0x3b8809f0	0.0041515753
61	0xbd542310	-0.05179125
62	0x3d4914f4	0.049092248
63	0x3d832100	0.064027786
64	0x3cf27833	0.029598331
65	0x3ca10c86	0.019659292
66	0x3cae0b4f	0.021245627
67	0xba6f8f97	-0.0009138523
68	0xbb07c1c8	-0.0020714868
69	0xbcaa86e1	-0.020816268
70	0x3b13ae80	0.002253443
71	0x3d28ceb1	0.04121274
72	0x3d6a0011	0.05712897
73	0x3cf9d1b3	0.0304955
74	0xbcc14d04	-0.023596294
75	0xbc54061f	-0.0129409125
76	0xbc9d8a84	-0.019231088
77	0xbb2365f2	-0.002493259
78	0x3c0a7d0f	0.008452668
79	0xbc487e2a	-0.012237111
80	0xbc449904	-0.011999372
81	0xbc67e1d3	-0.014152962
82	0x3c8754b9	0.016519891
83	0x3d138259	0.03601298
84	0x3b8eb8d1	0.004355528
85	0x3cba5801	0.022747042
86	0x3d008282	0.031374462
87	0xbba113dc	-0.0049156975
88	0x3c6292c2	0.013828935
89	0x3ab71510	0.0013968069
90	0x3c8330b2	0.01601443
91	0x3c3b679f	0.011438279
92	0x3cf78431	0.030214401
93	0x3cb76c14	0.022390403
94	0x3a3a34fa	0.0007103231
95	0x39d3a9cd	0.00040371568
96	0xbb8c2fbf	-0.0042781527
97	0x3c1d6102	0.009605648
98	0x3c236d0c	0.009974729
99	0x3ba9b332	0.0051788324
100	0x3cba9bae	0.022779312
101	0x00000000	0.0

old_dirs f4 [102]
0	0xba02d000	-0.0004990101
1	0x3b0f5e00	0.0021876097
2	0xbb4e0e00	-0.003144145
3	0xbbbb1600	-0.0057094097
4	0x3b38d000	0.002820015
5	0x3a20f800	0.00061404705
6	0x3ba5ac00	0.0050559044
7	0x3bb97000	0.0056591034
8	0xba48a000	-0.00076532364
9	0x3b92e000	0.0044822693
10	0xb9bdc000	-0.0003619194
11	0x3aef7000	0.0018267632
12	0xba141800	-0.0005649328
13	0x3aeea800	0.0018208027
14	0xbb4c8800	-0.0031208992
15	0x3a27d800	0.0006402731
16	0x3a1ff800	0.00061023235
17	0xba1fc000	-0.0006093979
18	0x37420000	1.1563301e-05
19	0x3b617a00	0.0034404993
20	0x3a9c6400	0.0011931658
21	0x3b09f000	0.0021047592
22	0xbaa56000	-0.0012617111
23	0xb9e2a000	-0.00043225288
24	0xba7bd800	-0.00096070766
25	0xbb546800	-0.0032410622
26	0xbad9d800	-0.0016620159
27	0x39ecc000	0.0004515648
28	0xbb0e2e00	-0.0021694899
29	0xbacd2c00	-0.0015653372
30	0xbb0b2000	-0.002122879
31	0xbb1e0400	-0.002411127
32	0xba92e980	-0.0011208504
33	0xbbc7c400	-0.006096363
34	0xbb319c00	-0.002710104
35	0x39840000	0.00025177002
36	0x3adf3000	0.0017027855
37	0xbb903e00	-0.004401922
38	0xbad36400	-0.0016127825
39	0xba364000	-0.0006952286
40	0x3ba58400	0.005051136
41	0x3aa0f700	0.0012280643
42	0xbb31d000	-0.0027132034
43	0xbb79e700	-0.0038132071
44	0x3bbf5a00	0.0058395863
45	0x3b527000	0.0032110214
46	0x3bd8fc00	0.0066218376
47	0x3becb000	0.0072231293
48	0xbbf84800	-0.0075769424
49	0x3b29d000	0.0025911331
50	0xbb6d3800	-0.0036196709
51	0x3b36da00	0.0027900934
52	0x3a0c9400	0.000536263
53	0x3bb1a400	0.0054211617
54	0x3b144000	0.0022621155
55	0x3bbb6a00	0.0057194233
56	0xbaf28800	-0.0018503666
57	0x3bb89000	0.0056324005
58	0xbbf63800	-0.007514
59	0x3b1ab000	0.002360344
60	0x3c6c1e00	0.014411449
61	0xbc8c4c00	-0.017126083
62	0x3cc7d000	0.024391174
63	0x3cb17c00	0.021665573
64	0x3c189000	0.009311676
65	0xbc217400	-0.009854317
66	0xbc403400	-0.011731148
67	0xbb71a400	-0.0036871433
68	0xbc3f7800	-0.011686325
69	0xbbc50800	-0.0060129166
70	0xbc21a400	-0.009865761
71	0x3cac4800	0.021030426
72	0x3c975c00	0.018476486
73	0xbaa2d800	-0.0012423992
74	0xbc9f9000	-0.019477844
75	0x3bc4d800	0.0060071945
76	0x3b881000	0.004152298
77	0xbc489c00	-0.012244225
78	0x3ae20000	0.0017242432
79	0xbc590400	-0.013245583
80	0xbc25b000	-0.010112762
81	0xbc754000	-0.014968872
82	0x3c7d8400	0.015473366
83	0x3cee6800	0.029102325
84	0xbaece000	-0.0018072128
85	0x3c587000	0.013210297
86	0x3c747c00	0.014922142
87	0xbc599000	-0.013278961
88	0x3c459c00	0.012061119
89	0x3bb12400	0.005405903
90	0x3c6a8000	0.014312744
91	0x3b6faa00	0.0036569834
92	0x3c6adc00	0.014334679
93	0x3c5b3800	0.013380051
94	0x3b770000	0.003768921
95	0xbb3a3000	-0.0028409958
96	0xbbd5cc00	-0.006524563
97	0x3c250e00	0.010074139
98	0x3c220400	0.009888649
99	0x3c0ab000	0.008464813
100	0x3d0bd800	0.03414154
101	0x00000000	0.0

old_dirs f4 [102]
0	0xbaa6aa00	-0.0012715459
1	0x3abcb400	0.0014396906
2	0xbb381400	-0.0028088093
3	0xbb545400	-0.00323987
4	0x3b8fc200	0.0043871403
5	0x3ab4b000	0.0013785362
6	0x3bcbf800	0.0062246323
7	0x3b8c1000	0.0042743683
8	0xbb8a3c00	-0.0042185783
9	0x3a2e0800	0.00066387653
10	0xba7f7800	-0.00097453594
11	0x3a758000	0.0009365082
12	0xbaf58000	-0.0018730164
13	0x3a566800	0.00081789494
14	0xbbc37000	-0.005964279
15	0xba877400	-0.0010334253
16	0x3af7d400	0.0018907785
17	0xb9934000	-0.0002808571
18	0xbabb0a00	-0.0014269948
19	0x3aa79800	0.0012786388
20	0x3affe000	0.0019521713
21	0x3aab7800	0.0013082027
22	0xbb4a7c00	-0.0030896664
23	0xba957c00	-0.0011404753
24	0xba8de400	-0.0010825396
25	0xbb001400	-0.001954317
26	0xbb63dc00	-0.0034768581
27	0xb9fa3000	-0.0004771948
28	0xbb30b400	-0.0026962757
29	0xba938800	-0.0011255741
30	0xbb32d000	-0.0027284622
31	0xbabc1400	-0.0014349222
32	0x39425c00	0.00018535554
33	0xbb3e2c00	-0.0029017925
34	0xbba37000	-0.0049877167
35	0xba82e000	-0.000998497
36	0x3ba3a400	0.0049939156
37	0xba8b0000	-0.0010604858
38	0xbb136c00	-0.0022494793
39	0xba2d5800	-0.00066125393
40	0x3b8dbc00	0.00432539
41	0x3a06c900	0.00051416457
42	0xba266800	-0.00063478947
43	0xba468800	-0.0007573366
44	0x3b0ee800	0.0021805763
45	0x3b088400	0.0020830631
46	0x3b8ab800	0.0042333603
47	0x3b4e2800	0.0031456947
48	0xbbb55800	-0.005534172
49	0x3ad4e000	0.0016241074
50	0xbae7a000	-0.0017671585
51	0x39a1e000	0.00030875206
52	0xba308a00	-0.0006734431
53	0x3b1fb000	0.0024366379
54	0x3a8ad000	0.0010590553
55	0x3b8cdc00	0.004298687
56	0xba8a4800	-0.0010550022
57	0x3b228c00	0.0024802685
58	0xbb850c00	-0.0040602684
59	0x3a9ed800	0.0012118816
60	0xba9d3000	-0.0011992455
61	0xbcb0b800	-0.021572113
62	0x3cb8dc00	0.022565842
63	0x3cc7ec00	0.024404526
64	0x3c27a800	0.010232925
65	0x3b7ed800	0.003888607
66	0x3b281000	0.0025644302
67	0xbab78800	-0.0014002323
68	0x3b50f000	0.0031881332
69	0xbc486c00	-0.01223278
70	0xba8dd800	-0.0010821819
71	0x3c939800	0.018016815
72	0x3cb49800	0.022045135
73	0x3ba54800	0.0050439835
74	0xbc9c8000	-0.019104004
75	0xbbdf5000	-0.0068149567
76	0xbbb0a000	-0.0053901672
77	0xbc493400	-0.012280464
78	0x3be6f000	0.007047653
79	0xbc5bb800	-0.013410568
80	0xbbca5000	-0.0061740875
81	0xbbec4000	-0.007209778
82	0x3bcb9000	0.0062122345
83	0x3c62f000	0.013851166
84	0xba599000	-0.0008299351
85	0x3bf55000	0.0074863434
86	0x3c0a3000	0.008434296
87	0xbbbe4000	-0.0058059692
88	0x3becb000	0.0072231293
89	0x3b1ddc00	0.002408743
90	0x3bd64000	0.006538391
91	0x3aae1c00	0.0013283491
92	0x3bd77800	0.0065755844
93	0x3bc92400	0.0061383247
94	0x3aab8000	0.0013084412
95	0xbae2b000	-0.0017294884
96	0xbb57d800	-0.0032935143
97	0x3b813c00	0.00394392
98	0x3b976800	0.004620552
99	0x3b5a0000	0.003326416
100	0x3c70f000	0.014705658
101	0x00000000	0.0

old_dirs f4 [102]
0	0xba575000	-0.000821352
1	0x3add3800	0.0016877651
2	0xbb368e00	-0.0027855635
3	0xbb895600	-0.00419116
4	0x3b5c5400	0.0033619404
5	0x3a750800	0.00093472004
6	0x3bae0000	0.0053100586
7	0x3b99c800	0.0046930313
8	0xbb178c00	-0.0023124218
9	0x3b1d1400	0.002396822
10	0xba1f6800	-0.0006080866
11	0x3aa95000	0.0012917519
12	0xba923c00	-0.0011156797
13	0x3a9fb400	0.0012184381
14	0xbb8aec00	-0.004239559
15	0xb951c000	-0.00020003319
16	0x3a986000	0.001162529
17	0xb9c90000	-0.00038337708
18	0xba27fc00	-0.00064080954
19	0x3b102800	0.0021996498
20	0x3ac32800	0.001488924
21	0x3ad5f400	0.0016323328
22	0xbb048000	-0.0020217896
23	0xba421800	-0.0007404089
24	0xba75f000	-0.0009381771
25	0xbb1ef400	-0.0024254322
26	0xbb1af400	-0.002364397
27	0xb7d60000	-2.5510788e-05
28	0xbb12b400	-0.002238512
29	0xbaa50c00	-0.0012592077
30	0xbb140400	-0.0022585392
31	0xbaed7400	-0.0018116236
32	0xb9ec1200	-0.0004502684
33	0xbb89e800	-0.0042085648
34	0xbb684800	-0.0035443306
35	0xb9bbc800	-0.0003581643
36	0x3b4bac00	0.0031077862
37	0xbb266800	-0.0025391579
38	0xbae7d000	-0.001768589
39	0xba275000	-0.00063824654
40	0x3b8fb400	0.0043854713
41	0x3a569100	0.0008185059
42	0xbace3000	-0.0015730858
43	0xbb0bff00	-0.0021361709
44	0x3b764c00	0.003758192
45	0x3b205400	0.002446413
46	0x3ba52000	0.005039215
47	0x3b9f3600	0.004858732
48	0xbbc91800	-0.006136894
49	0x3b002600	0.00195539
50	0xbb268800	-0.0025410652
51	0x3abf7400	0.0014606714
52	0xb88f5000	-6.8336725e-05
53	0x3b6ef400	0.0036461353
54	0x3ac9aa00	0.0015385747
55	0x3b991a00	0.004672289
56	0xbab0fc00	-0.0013502836
57	0x3b770000	0.003768921
58	0xbbb15800	-0.0054121017
59	0x3ad7d400	0.0016466379
60	0x3bcb5c00	0.0062060356
61	0xbc937c00	-0.018003464
62	0x3cb36c00	0.021902084
63	0x3cb02400	0.021501541
64	0x3c148400	0.009064674
65	0xbb392800	-0.0028252602
66	0xbb8d6000	-0.0043144226
67	0xbb1f6000	-0.0024318695
68	0xbb835000	-0.0040073395
69	0xbc09cc00	-0.008410454
70	0xbba6cc00	-0.0050902367
71	0x3c950800	0.018192291
72	0x3c9a7c00	0.018857956
73	0x3ae82800	0.0017712116
74	0xbc92e000	-0.017929077
75	0xb9978000	-0.00028896332
76	0xba0a0000	-0.0005264282
77	0xbc3a1c00	-0.011359215
78	0x3b856800	0.0040712357
79	0xbc4a5800	-0.012350082
80	0xbbfaf400	-0.0076584816
81	0xbc29dc00	-0.0103673935
82	0x3c25a400	0.010109901
83	0x3ca4d000	0.020118713
84	0xbaa44800	-0.0012533665
85	0x3c1f6800	0.009729385
86	0x3c343000	0.010997772
87	0xbc127600	-0.008939266
88	0x3c149000	0.009067535
89	0x3b6fb400	0.0036575794
90	0x3c20d400	0.00981617
91	0x3b175800	0.0023093224
92	0x3c1fc000	0.009750366
93	0x3c15c600	0.009141445
94	0x3b1d6400	0.0024015903
95	0xbb0c7800	-0.002143383
96	0xbb96a800	-0.004597664
97	0x3bd7ac00	0.0065817833
98	0x3bdea800	0.0067949295
99	0x3bb59c00	0.0055422783
100	0x3cbb8000	0.022888184
101	0x00000000	0.0

old_dirs f4 [102]
0	0xba91b000	-0.0011115074
1	0x3ac05000	0.0014672279
2	0xbb33be00	-0.0027426481
3	0xbb615800	-0.0034384727
4	0x3b830800	0.0039987564
5	0x3aa13000	0.001229763
6	0x3bc06c00	0.0058722496
7	0x3b8e7000	0.0043468475
8	0xbb6a8400	-0.0035784245
9	0x3a92c000	0.0011196136
10	0xba5a9800	-0.000833869
11	0x3a84dc00	0.0010136366
12	0xbad14800	-0.0015966892
13	0x3a6a5000	0.00089383125
14	0xbbaf3400	-0.005346775
15	0xba510800	-0.00079739094
16	0x3ad70800	0.0016405582
17	0xb98c4000	-0.00026750565
18	0xba978000	-0.0011558533
19	0x3ac45800	0.0014979839
20	0x3aec0400	0.0018006563
21	0x3ab8ac00	0.0014089346
22	0xbb31c000	-0.0027122498
23	0xba844400	-0.0010091066
24	0xba82fc00	-0.0009993315
25	0xbb055800	-0.0020346642
26	0xbb47f000	-0.0030508041
27	0xb9ba6000	-0.0003554821
28	0xbb21e400	-0.002470255
29	0xba955400	-0.0011392832
30	0xbb25b000	-0.0025281906
31	0xbac75000	-0.0015206337
32	0xb7120000	-8.702278e-06
33	0xbb51cc00	-0.0032012463
34	0xbb90ce00	-0.0044190884
35	0xba53e000	-0.000808239
36	0x3b8e1a00	0.0043365955
37	0xbabb7400	-0.0014301538
38	0xbb04ce00	-0.0020264387
39	0xba290c00	-0.00064486265
40	0x3b8b2000	0.004245758
41	0x3a1b6b00	0.0005928725
42	0xba690800	-0.0008889437
43	0xba932e00	-0.0011228919
44	0x3b28d000	0.0025758743
45	0x3b0a1800	0.0021071434
46	0x3b8da800	0.0043230057
47	0x3b695800	0.003560543
48	0xbbb6f000	-0.0055828094
49	0x3ada2400	0.0016642809
50	0xbb00d000	-0.0019655228
51	0x3a25d000	0.0006325245
52	0xba022c00	-0.0004965663
53	0x3b300c00	0.0026862621
54	0x3a972c00	0.0011533499
55	0x3b8cbe00	0.0042951107
56	0xba90b000	-0.001103878
57	0x3b349800	0.002755642
58	0xbb8e5c00	-0.0043444633
59	0x3aa7d400	0.001280427
60	0x3a6e0000	0.00090789795
61	0xbca3e800	-0.020008087
62	0x3cb2cc00	0.02182579
63	0x3cbc8800	0.023014069
64	0x3c1d6400	0.009606361
65	0x3afaa000	0.001912117
66	0x3a17c000	0.0005788803
67	0xbae03c00	-0.0017107725
68	0x3a8f4000	0.0010929108
69	0xbc309400	-0.010777473
70	0xbb0c0800	-0.0021367073
71	0x3c902800	0.017597198
72	0x3ca89000	0.020576477
73	0x3b838c00	0.004014492
74	0xbc956800	-0.018238068
75	0xbb9c0c00	-0.0047621727
76	0xbb7da800	-0.0038704872
77	0xbc3eb400	-0.011639595
78	0x3bc5c400	0.006035328
79	0xbc502800	-0.012704849
80	0xbbd4bc00	-0.006492138
81	0xbc01c000	-0.0079193115
82	0x3be94800	0.007119179
83	0x3c7ae000	0.015312195
84	0xba79e000	-0.0009531975
85	0x3c02f000	0.007991791
86	0x3c141400	0.0090379715
87	0xbbd70c00	-0.00656271
88	0x3bfa0000	0.0076293945
89	0x3b315400	0.0027058125
90	0x3bf17000	0.007368088
91	0x3aca8000	0.0015449524
92	0x3bee7000	0.007276535
93	0x3be06400	0.0068478584
94	0x3ad37000	0.0016131401
95	0xbaed9000	-0.001812458
96	0xbb6b2800	-0.0035881996
97	0x3b973400	0.004614353
98	0x3ba82000	0.005130768
99	0x3b7f5000	0.0038957596
100	0x3c88c800	0.01669693
101	0x00000000	0.0

old_dirs f4 [102]
0	0xba719c00	-0.0009216666
1	0x3ad0c000	0.0015926361
2	0xbb353000	-0.0027647018
3	0xbb7fc800	-0.0039029121
4	0x3b6b0c00	0.0035865307
5	0x3a896400	0.0010482073
6	0x3bb59400	0.0055413246
7	0x3b968c00	0.004594326
8	0xbb353000	-0.0027647018
9	0x3af99000	0.0019040108
10	0xba310800	-0.0006753206
11	0x3a9b1000	0.001183033
12	0xbaa69000	-0.001270771
13	0x3a8d5c00	0.0010784864
14	0xbb97ec00	-0.0046362877
15	0xb9e5d000	-0.00043833256
16	0x3aae9800	0.0013320446
17	0xb9a24000	-0.00030946732
18	0xba55a800	-0.0008150339
19	0x3afc2800	0.0019237995
20	0x3ad41c00	0.0016182661
21	0x3acec800	0.0015776157
22	0xbb144800	-0.0022625923
23	0xba5ca000	-0.0008416176
24	0xba761000	-0.00093865395
25	0xbb144000	-0.0022621155
26	0xbb28fc00	-0.002578497
27	0xb9284000	-0.0001604557
28	0xbb15ca00	-0.0022855997
29	0xba9eec00	-0.0012124777
30	0xbb19bc00	-0.0023458004
31	0xbadfcc00	-0.0017074347
32	0xb99ac800	-0.0002952218
33	0xbb7a4c00	-0.0038192272
34	0xbb79d400	-0.0038120747
35	0xba0c0400	-0.0005341172
36	0x3b680c00	0.0035407543
37	0xbb09b000	-0.0021009445
38	0xbaef6400	-0.0018264055
39	0xba289800	-0.0006431341
40	0x3b8d8400	0.004318714
41	0x3a415800	0.0007375479
42	0xbaacc200	-0.0013180375
43	0xbae58c00	-0.0017513037
44	0x3b58d800	0.003308773
45	0x3b15c000	0.0022850037
46	0x3b9ab000	0.004720688
47	0x3b8f0a00	0.0043652058
48	0xbbc1bc00	-0.005912304
49	0x3aef9000	0.0018277168
50	0xbb192400	-0.0023367405
51	0x3a979000	0.0011563301
52	0xb9755800	-0.00023397803
53	0x3b54c000	0.0032463074
54	0x3ab46200	0.0013762116
55	0x3b93be00	0.0045087337
56	0xbaa33000	-0.0012450218
57	0x3b5bd000	0.0033540726
58	0xbba3a400	-0.0049939156
59	0x3ac25800	0.0014827251
60	0x3b8a9400	0.0042290688
61	0xbc987c00	-0.018613815
62	0x3cb24000	0.021759033
63	0x3cb3ec00	0.02196312
64	0x3c165000	0.009174347
65	0xba8ca000	-0.0010728836
66	0xbb234000	-0.0024909973
67	0xbb102800	-0.0021996498
68	0xbb0a6000	-0.002111435
69	0xbc162c00	-0.009165764
70	0xbb813000	-0.0039424896
71	0x3c924800	0.017856598
72	0x3c9ea800	0.019367218
73	0x3b2a2000	0.0025959015
74	0xbc929800	-0.017894745
75	0xbaf7c000	-0.0018901825
76	0xbae30000	-0.0017318726
77	0xbc39c800	-0.011339188
78	0x3b9c3000	0.0047664642
79	0xbc4a6800	-0.012353897
80	0xbbed2800	-0.0072374344
81	0xbc1a3800	-0.0094127655
82	0x3c123400	0.008923531
83	0x3c95b800	0.018276215
84	0xba97b000	-0.0011572838
85	0x3c150000	0.009094238
86	0x3c28b400	0.010296822
87	0xbc039e00	-0.008033276
88	0x3c0c0800	0.008546829
89	0x3b57cc00	0.003292799
90	0x3c124400	0.008927345
91	0x3b027400	0.0019905567
92	0x3c0f8c00	0.008761406
93	0x3c076800	0.008264542
94	0x3b0b4800	0.0021252632
95	0xbb044c00	-0.00201869
96	0xbb89f400	-0.0042099953
97	0x3bbfb400	0.005850315
98	0x3bc9c000	0.0061569214
99	0x3ba1a400	0.0049328804
100	0x3ca85400	0.020547867
101	0x00000000	0.0

old_dirs f4 [102]
0	0xba89c800	-0.0010511875
1	0x3ac47000	0.0014986992
2	0xbb34b400	-0.0027573109
3	0xbb6b0800	-0.0035862923
4	0x3b7e4400	0.0038797855
5	0x3a9b4c00	0.0011848211
6	0x3bbea800	0.005818367
7	0x3b927800	0.0044698715
8	0xbb59f000	-0.0033254623
9	0x3ab0a800	0.0013477802
10	0xba4abc00	-0.00077337027
11	0x3a8b7c00	0.0010641813
12	0xbac22000	-0.0014810562
13	0x3a757000	0.00093626976
14	0xbba85800	-0.0051374435
15	0xba38f000	-0.0007054806
16	0x3aca9800	0.0015456676
17	0xb983a000	-0.00025105476
18	0xba887000	-0.0010409355
19	0x3ad45000	0.0016198158
20	0x3ae75000	0.0017647743
21	0x3ac3bc00	0.0014933348
22	0xbb288000	-0.002571106
23	0xba7c2000	-0.00096178055
24	0xba7c0800	-0.0009614229
25	0xbb093000	-0.0020933151
26	0xbb3cb000	-0.0028791428
27	0xb9a1d000	-0.00030863285
28	0xbb1c5e00	-0.002385974
29	0xba989800	-0.0011641979
30	0xbb21e800	-0.0024704933
31	0xbad02c00	-0.0015882254
32	0xb8dc5000	-0.00010505319
33	0xbb5e1800	-0.0033888817
34	0xbb898600	-0.0041968822
35	0xba410000	-0.0007362366
36	0x3b85fa00	0.00408864
37	0xbad3e400	-0.0016165972
38	0xbafde800	-0.001937151
39	0xba2a5c00	-0.00064986944
40	0x3b8be000	0.0042686462
41	0x3a28ce00	0.0006439388
42	0xba860e00	-0.0010227561
43	0xbaac0c00	-0.0013126135
44	0x3b377800	0.002799511
45	0x3b0bf000	0.0021352768
46	0x3b908400	0.004410267
47	0x3b79a800	0.003809452
48	0xbbba6000	-0.0056877136
49	0x3adf5400	0.0017038584
50	0xbb095000	-0.0020952225
51	0x3a512000	0.00079774857
52	0xb9df0000	-0.00042533875
53	0x3b392400	0.0028250217
54	0x3a9e5000	0.0012078285
55	0x3b8ebe00	0.004356146
56	0xba951000	-0.0011372566
57	0x3b3ee800	0.0029129982
58	0xbb94c800	-0.0045404434
59	0x3aad2000	0.0013208389
60	0x3afaf000	0.0019145012
61	0xbca00c00	-0.019536972
62	0x3cb27800	0.021785736
63	0x3cb9dc00	0.022687912
64	0x3c1a7c00	0.009428978
65	0x3a823000	0.0009932518
66	0xb9bc0000	-0.00035858154
67	0xbaf89c00	-0.001896739
68	0x38fc0000	0.000120162964
69	0xbc274000	-0.01020813
70	0xbb2db400	-0.0026504993
71	0x3c908800	0.017642975
72	0x3ca53000	0.02016449
73	0x3b6af400	0.0035851002
74	0xbc93f800	-0.018062592
75	0xbb7c1800	-0.0038466454
76	0xbb51a800	-0.0031991005
77	0xbc3bf800	-0.011472702
78	0x3bb8c800	0.0056390762
79	0xbc4d3800	-0.0125255585
80	0xbbdd8000	-0.0067596436
81	0xbc090800	-0.008363724
82	0x3bf9d800	0.007624626
83	0x3c84e800	0.016223907
84	0xba87c000	-0.0010356903
85	0x3c092800	0.008371353
86	0x3c1b8000	0.009490967
87	0xbbe60800	-0.0070199966
88	0x3c025800	0.007955551
89	0x3b3d1c00	0.00288558
90	0x3c015400	0.007893562
91	0x3ad8c000	0.0016536713
92	0x3bfbf800	0.007689476
93	0x3beec000	0.007286072
94	0x3aeb2800	0.0017940998
95	0xbaf67800	-0.0018804073
96	0xbb77d800	-0.0037817955
97	0x3ba43c00	0.0050120354
98	0x3bb27800	0.005446434
99	0x3b8abc00	0.004233837
100	0x3c92b400	0.017908096
101	0x00000000	0.0

old_dirs f4 [102]
0	0xba7dac00	-0.0009676814
1	0x3acc1400	0.0015569925
2	0xbb35fa00	-0.002776742
3	0xbb795000	-0.0038042068
4	0x3b730000	0.0037078857
5	0x3a919400	0.001110673
6	0x3bbab400	0.005697727
7	0x3b96d400	0.004602909
8	0xbb428800	-0.0029683113
9	0x3aded800	0.0017001629
10	0xba37d400	-0.00070124865
11	0x3a95a000	0.0011415482
12	0xbaaef000	-0.0013346672
13	0x3a853400	0.0010162592
14	0xbb9e5c00	-0.0048327446
15	0xba0ff800	-0.0005491972
16	0x3ab8e000	0.0014104843
17	0xb9896000	-0.00026202202
18	0xba694c00	-0.00088995695
19	0x3aed9c00	0.0018128157
20	0x3addc800	0.0016920567
21	0x3acf2400	0.0015803576
22	0xbb1ba800	-0.002375126
23	0xba68f000	-0.00088858604
24	0xba738800	-0.000928998
25	0xbb0fbc00	-0.0021932125
26	0xbb2ed400	-0.0026676655
27	0xb96c2000	-0.00022518635
28	0xbb16e200	-0.002302289
29	0xba9d7c00	-0.0012015104
30	0xbb1cf000	-0.0023946762
31	0xbadbf800	-0.0016782284
32	0xb9780c00	-0.00023655593
33	0xbb70cc00	-0.0036742687
34	0xbb80b400	-0.0039277077
35	0xba221c00	-0.0006183982
36	0x3b752c00	0.003741026
37	0xbafb1800	-0.0019156933
38	0xbaf1fc00	-0.0018461943
39	0xba2b0c00	-0.00065249205
40	0x3b8d4200	0.0043108463
41	0x3a3af900	0.0007132441
42	0xba9f8c00	-0.001217246
43	0xbad15000	-0.0015969276
44	0x3b4d5400	0.0031330585
45	0x3b111400	0.0022137165
46	0x3b966c00	0.0045905113
47	0x3b88f400	0.0041794777
48	0xbbbf8c00	-0.0058455467
49	0x3ae94800	0.0017797947
50	0xbb14b400	-0.0022690296
51	0x3a87b800	0.0010354519
52	0xb9a32800	-0.00031119585
53	0x3b497000	0.0030736923
54	0x3aab4c00	0.0013068914
55	0x3b923400	0.0044617653
56	0xba9d5000	-0.0012001991
57	0x3b507800	0.0031809807
58	0xbb9e9800	-0.004839897
59	0x3ab8b400	0.001409173
60	0x3b5f2000	0.0034046173
61	0xbc9b3400	-0.018945694
62	0x3cb29800	0.021800995
63	0x3cb66800	0.022266388
64	0x3c177400	0.009243965
65	0xb9b10000	-0.0003376007
66	0xbae39000	-0.0017361641
67	0xbb0b6600	-0.0021270514
68	0xbaabc000	-0.0013103485
69	0xbc1ba000	-0.009498596
70	0xbb62a800	-0.0034585
71	0x3c91c800	0.017795563
72	0x3ca10000	0.01965332
73	0x3b41c400	0.0029566288
74	0xbc930000	-0.017944336
75	0xbb275800	-0.002553463
76	0xbb130800	-0.0022435188
77	0xbc3a0800	-0.011354446
78	0x3ba67c00	0.0050807
79	0xbc4af000	-0.012386322
80	0xbbe93400	-0.0071167946
81	0xbc143800	-0.009046555
82	0x3c0a3c00	0.008437157
83	0x3c901c00	0.017591476
84	0xba94d800	-0.0011355877
85	0x3c11b800	0.008893967
86	0x3c255000	0.010089874
87	0xbbfc2c00	-0.007695675
88	0x3c099400	0.008397102
89	0x3b4ec800	0.0031552315
90	0x3c0d3c00	0.008620262
91	0x3af25000	0.0018486977
92	0x3c08f400	0.008358955
93	0x3c020c00	0.007937431
94	0x3b054800	0.0020337105
95	0xbb01c400	-0.0019800663
96	0xbb855e00	-0.0040700436
97	0x3bb6d800	0.0055799484
98	0x3bc1f400	0.0059189796
99	0x3b9a8000	0.004714966
100	0x3ca13c00	0.01968193
101	0x00000000	0.0

old_dirs f4 [102]
0	0xba867000	-0.0010256767
1	0x3ac6c000	0.0015163422
2	0xbb364e00	-0.0027817488
3	0xbb70b400	-0.0036728382
4	0x3b7c3c00	0.0038487911
5	0x3a9a7000	0.0011782646
6	0x3bbf8400	0.005844593
7	0x3b95b800	0.0045690536
8	0xbb532400	-0.0032217503
9	0x3abeb400	0.0014549494
10	0xba42c800	-0.0007430315
11	0x3a8ee800	0.0010902882
12	0xbabb0800	-0.0014269352
13	0x3a796000	0.00095129013
14	0xbba61000	-0.0050678253
15	0xba30b000	-0.0006740093
16	0x3ac59c00	0.0015076399
17	0xb9708000	-0.00022935867
18	0xba81e000	-0.0009908676
19	0x3adc0400	0.001678586
20	0x3ae75000	0.0017647743
21	0x3acb7800	0.0015523434
22	0xbb24e400	-0.0025160313
23	0xba772800	-0.0009428263
24	0xba74a800	-0.0009332895
25	0xbb0a9c00	-0.0021150112
26	0xbb376800	-0.0027985573
27	0xb999e000	-0.00029349327
28	0xbb19ac00	-0.0023448467
29	0xba9b2400	-0.001183629
30	0xbb20e000	-0.0024547577
31	0xbad57000	-0.0016283989
32	0xb921c400	-0.00015427172
33	0xbb64a800	-0.0034890175
34	0xbb864200	-0.0040972233
35	0xba3af000	-0.00071310997
36	0x3b82d400	0.0039925575
37	0xbaded000	-0.0016999245
38	0xbaf80c00	-0.0018924475
39	0xba2c9800	-0.0006583929
40	0x3b8cbe00	0.0042951107
41	0x3a314100	0.00067617
42	0xba8e9c00	-0.0010880232
43	0xbab84600	-0.0014058948
44	0x3b3ecc00	0.0029113293
45	0x3b0c8c00	0.0021445751
46	0x3b91e400	0.0044522285
47	0x3b811e00	0.003940344
48	0xbbbc9000	-0.005754471
49	0x3ae25c00	0.001726985
50	0xbb0e1400	-0.0021679401
51	0x3a669000	0.00087952614
52	0xb9d16800	-0.00039941072
53	0x3b3cdc00	0.0028817654
54	0x3aa15600	0.0012308955
55	0x3b904600	0.004402876
56	0xba96e400	-0.0011512041
57	0x3b438800	0.00298357
58	0xbb983c00	-0.0046458244
59	0x3aaef400	0.0013347864
60	0x3b1bf000	0.0023794174
61	0xbc9ebc00	-0.019376755
62	0x3cb2f000	0.021842957
63	0x3cb95c00	0.022626877
64	0x3c197400	0.009366035
65	0x3a176000	0.0005774498
66	0xba506000	-0.00079488754
67	0xbb035400	-0.0020039082
68	0xb9a80000	-0.00032043457
69	0xbc234000	-0.009963989
70	0xbb3d1c00	-0.00288558
71	0x3c913000	0.017723083
72	0x3ca41c00	0.020032883
73	0x3b5eb800	0.0033984184
74	0xbc93d000	-0.018043518
75	0xbb606800	-0.0034241676
76	0xbb3d9000	-0.0028924942
77	0xbc3b3000	-0.011425018
78	0x3bb36c00	0.005475521
79	0xbc4c5800	-0.012472153
80	0xbbe2fc00	-0.0069270134
81	0xbc0cc400	-0.008591652
82	0x3c00c400	0.00785923
83	0x3c88d400	0.016702652
84	0xba8ed800	-0.0010898113
85	0x3c0cd800	0.00859642
86	0x3c1ff000	0.00976181
87	0xbbede800	-0.0072603226
88	0x3c05a400	0.008156776
89	0x3b438800	0.00298357
90	0x3c062c00	0.008189201
91	0x3addcc00	0.0016921759
92	0x3c012800	0.007883072
93	0x3bf65000	0.007516861
94	0x3af8d800	0.0018985271
95	0xbafc3800	-0.0019242764
96	0xbb7ecc00	-0.0038878918
97	0x3bab1000	0.005220413
98	0x3bb7e800	0.0056123734
99	0x3b90cc00	0.00441885
100	0x3c980000	0.018554688
101	0x00000000	0.0

old_dirs f4 [102]
0	0xba81ac00	-0.0009893179
1	0x3aca4800	0.0015432835
2	0xbb376c00	-0.0027987957
3	0xbb77a000	-0.0037784576
4	0x3b77ec00	0.0037829876
5	0x3a971a00	0.0011528134
6	0x3bbe7800	0.005812645
7	0x3b984800	0.004647255
8	0xbb48e400	-0.0030653477
9	0x3ad3b000	0.0016150475
10	0xba3a0800	-0.0007096529
11	0x3a939800	0.001126051
12	0xbab25000	-0.0013604164
13	0x3a812000	0.0009851456
14	0xbba1f000	-0.0049419403
15	0xba1f0800	-0.0006066561
16	0x3abdfc00	0.0014494658
17	0xb970c000	-0.00022959709
18	0xba725400	-0.00092440844
19	0x3ae77800	0.0017659664
20	0x3ae3e000	0.0017385483
21	0x3ad1e000	0.0016012192
22	0xbb1f5400	-0.0024311543
23	0xba6e8800	-0.0009099245
24	0xba6f1800	-0.0009120703
25	0xbb0d5800	-0.0021567345
26	0xbb310c00	-0.002701521
27	0xb9879000	-0.00025856495
28	0xbb171200	-0.00230515
29	0xba9dc800	-0.0012037754
30	0xbb1ef000	-0.0024251938
31	0xbadb3000	-0.0016722679
32	0xb9622800	-0.0002156794
33	0xbb6d4c00	-0.003620863
34	0xbb824c00	-0.003976345
35	0xba2e1400	-0.00066405535
36	0x3b7bf800	0.003844738
37	0xbaf01c00	-0.0018318892
38	0xbaf26400	-0.0018492937
39	0xba2dd400	-0.0006631017
40	0x3b8d8200	0.0043184757
41	0x3a3a9700	0.00071178377
42	0xba9a2c00	-0.0011762381
43	0xbac96e00	-0.0015367866
44	0x3b48c400	0.0030634403
45	0x3b0eb000	0.0021772385
46	0x3b947400	0.00453043
47	0x3b86bc00	0.004111767
48	0xbbbf2000	-0.005832672
49	0x3ae71800	0.0017631054
50	0xbb139400	-0.0022518635
51	0x3a819400	0.0009886026
52	0xb9b85000	-0.0003515482
53	0x3b43d800	0.0029883385
54	0x3aa6fa00	0.0012739301
55	0x3b921200	0.004457712
56	0xba9a7000	-0.0011782646
57	0x3b4b5400	0.003102541
58	0xbb9cd800	-0.0047864914
59	0x3ab3d000	0.0013718605
60	0x3b47e000	0.0030498505
61	0xbc9cb800	-0.019130707
62	0x3cb34800	0.021884918
63	0x3cb80400	0.022462845
64	0x3c183000	0.009288788
65	0xb7e00000	-2.670288e-05
66	0xbab97000	-0.0014147758
67	0xbb0a9000	-0.002114296
68	0xba7b8000	-0.00095939636
69	0xbc1e0800	-0.009645462
70	0xbb54b000	-0.0032453537
71	0x3c91e400	0.017808914
72	0x3ca27400	0.019830704
73	0x3b4c6800	0.0031189919
74	0xbc938000	-0.018005371
75	0xbb3a8000	-0.0028457642
76	0xbb21b800	-0.0024676323
77	0xbc3a6c00	-0.011378288
78	0x3bab7400	0.005232334
79	0xbc4b7800	-0.012418747
80	0xbbe8f000	-0.0071086884
81	0xbc11f400	-0.008908272
82	0x3c06b000	0.008220673
83	0x3c8e1000	0.017341614
84	0xba95d800	-0.0011432171
85	0x3c111800	0.00885582
86	0x3c24d000	0.010059357
87	0xbbf83800	-0.007575035
88	0x3c095000	0.00838089
89	0x3b4bd000	0.003109932
90	0x3c0be000	0.0085372925
91	0x3ae87400	0.0017734766
92	0x3c061400	0.008183479
93	0x3c001e00	0.007819653
94	0x3b043000	0.0020170212
95	0xbb014000	-0.0019721985
96	0xbb83d800	-0.004023552
97	0x3bb3f800	0.0054922104
98	0x3bbf1c00	0.0058321953
99	0x3b983800	0.0046453476
100	0x3c9edc00	0.019392014
101	0x00000000	0.0

old_dirs f4 [102]
0	0xba854a00	-0.0010169148
1	0x3ac80c00	0.0015262365
2	0xbb380c00	-0.0028083324
3	0xbb743400	-0.003726244
4	0x3b7ccc00	0.0038573742
5	0x3a9c2200	0.0011911988
6	0x3bc16400	0.0059018135
7	0x3b985400	0.0046486855
8	0xbb509800	-0.003182888
9	0x3ac55000	0.0015053749
10	0xba3ed800	-0.00072801113
11	0x3a90a000	0.0011034012
12	0xbab79400	-0.00140059
13	0x3a79f800	0.0009535551
14	0xbba5c000	-0.0050582886
15	0xba2f1800	-0.00066792965
16	0x3ac40000	0.0014953613
17	0xb95a8000	-0.00020837784
18	0xba7ed000	-0.00097203255
19	0x3adf8800	0.0017054081
20	0x3ae91400	0.001778245
21	0x3ad14c00	0.0015968084
22	0xbb23b800	-0.0024981499
23	0xba74e800	-0.0009342432
24	0xba6df000	-0.00090765953
25	0xbb0aac00	-0.002115965
26	0xbb34d000	-0.0027589798
27	0xb9992000	-0.00029206276
28	0xbb182a00	-0.0023218393
29	0xba9d2000	-0.0011987686
30	0xbb20fc00	-0.0024564266
31	0xbad8e400	-0.0016547441
32	0xb93db400	-0.000180915
33	0xbb681800	-0.0035414696
34	0xbb84ce00	-0.0040528774
35	0xba3a5800	-0.000710845
36	0x3b81f600	0.003966093
37	0xbae31400	-0.0017324686
38	0xbaf4d400	-0.0018678904
39	0xba2f5800	-0.0006688833
40	0x3b8d6400	0.0043148994
41	0x3a376700	0.0006996244
42	0xba929400	-0.0011183023
43	0xbabe7800	-0.0014531612
44	0x3b425000	0.0029649734
45	0x3b0c7000	0.0021429062
46	0x3b926800	0.004467964
47	0x3b835c00	0.00400877
48	0xbbbde400	-0.005795002
49	0x3ae44000	0.0017414093
50	0xbb10dc00	-0.0022103786
51	0x3a714800	0.0009204149
52	0xb9cee800	-0.00039464235
53	0x3b3dd400	0.0028965473
54	0x3aa24600	0.0012380481
55	0x3b916e00	0.004438162
56	0xba975000	-0.0011544228
57	0x3b455000	0.0030107498
58	0xbb9a1c00	-0.004703045
59	0x3aaf0800	0.0013353825
60	0x3b297800	0.002585888
61	0xbc9e8000	-0.019348145
62	0x3cb3b000	0.02193451
63	0x3cb99400	0.02265358
64	0x3c193000	0.009349823
65	0x39cdc000	0.00039243698
66	0xba825000	-0.0009942055
67	0xbb074c00	-0.0020644665
68	0xba04c000	-0.00050640106
69	0xbc218c00	-0.009860039
70	0xbb438800	-0.00298357
71	0x3c91d400	0.017801285
72	0x3ca3fc00	0.020017624
73	0x3b59a000	0.003320694
74	0xbc940000	-0.018066406
75	0xbb53c800	-0.0032315254
76	0xbb34e800	-0.0027604103
77	0xbc3b1400	-0.011418343
78	0x3bb17800	0.0054159164
79	0xbc4c5000	-0.012470245
80	0xbbe6c800	-0.007042885
81	0xbc0eac00	-0.008708
82	0x3c025400	0.0079545975
83	0x3c8af000	0.016960144
84	0xba93e800	-0.0011284351
85	0x3c0f3800	0.008741379
86	0x3c22c400	0.009934425
87	0xbbf22000	-0.0073890686
88	0x3c07e000	0.008293152
89	0x3b470000	0.003036499
90	0x3c08f800	0.008359909
91	0x3ade6800	0.001696825
92	0x3c026c00	0.0079603195
93	0x3bfa5800	0.007639885
94	0x3b00b000	0.0019636154
95	0xbaff8800	-0.0019495487
96	0xbb815c00	-0.003947735
97	0x3baf0000	0.005340576
98	0x3bbad000	0.005701065
99	0x3b943000	0.0045223236
100	0x3c9af400	0.018915176
101	0x00000000	0.0

old_dirs f4 [102]
0	0xba833400	-0.0010010004
1	0x3ac9bc00	0.0015391111
2	0xbb391600	-0.0028241873
3	0xbb77c400	-0.0037806034
4	0x3b7b9000	0.0038385391
5	0x3a9bbc00	0.001188159
6	0x3bc1a400	0.005909443
7	0x3b9a1400	0.004702091
8	0xbb4c6c00	-0.0031192303
9	0x3acef000	0.0015788078
10	0xba3aa000	-0.0007119179
11	0x3a92c000	0.0011196136
12	0xbab3a400	-0.0013705492
13	0x3a7d7000	0.00096678734
14	0xbba43c00	-0.0050120354
15	0xba27e800	-0.0006405115
16	0x3ac0e000	0.0014715195
17	0xb9538000	-0.00020170212
18	0xba776400	-0.00094372034
19	0x3ae4ac00	0.001744628
20	0x3ae85800	0.0017726421
21	0x3ad52000	0.0016260147
22	0xbb216c00	-0.0024631023
23	0xba70f800	-0.00091922283
24	0xba698800	-0.000890851
25	0xbb0b7800	-0.0021281242
26	0xbb31dc00	-0.0027139187
27	0xb991c000	-0.00027799606
28	0xbb16e200	-0.002302289
29	0xba9ebc00	-0.0012110472
30	0xbb206400	-0.0024473667
31	0xbadbd800	-0.0016772747
32	0xb95c7c00	-0.00021027029
33	0xbb6c4800	-0.0036053658
34	0xbb830a00	-0.003998995
35	0xba35b400	-0.0006931424
36	0x3b800200	0.0039064884
37	0xbaea8400	-0.0017892122
38	0xbaf20000	-0.0018463135
39	0xba30b800	-0.00067412853
40	0x3b8ddc00	0.0043292046
41	0x3a3cc700	0.0007201284
42	0xba97cc00	-0.0011581182
43	0xbac68c00	-0.0015147924
44	0x3b46f000	0.0030355453
45	0x3b0d3c00	0.0021550655
46	0x3b937800	0.004500389
47	0x3b861000	0.004091263
48	0xbbbf3000	-0.0058345795
49	0x3ae6b000	0.001760006
50	0xbb139800	-0.002252102
51	0x3a7e9800	0.0009711981
52	0xb9c56400	-0.00037649274
53	0x3b409800	0.0029387474
54	0x3aa49a00	0.0012558103
55	0x3b928000	0.004470825
56	0xba98ac00	-0.001164794
57	0x3b48ac00	0.0030620098
58	0xbb9c5800	-0.0047712326
59	0x3ab0dc00	0.00134933
60	0x3b3cc800	0.0028805733
61	0xbc9db800	-0.019252777
62	0x3cb40000	0.021972656
63	0x3cb93c00	0.022611618
64	0x3c18b400	0.009320259
65	0x39010000	0.00012302399
66	0xbaa79000	-0.0012784004
67	0xbb0ad400	-0.002118349
68	0xba4ec000	-0.00078868866
69	0xbc1f5800	-0.009725571
70	0xbb4e0c00	-0.0031440258
71	0x3c925800	0.017864227
72	0x3ca36800	0.019947052
73	0x3b517000	0.0031957626
74	0xbc941800	-0.01807785
75	0xbb433800	-0.0029788017
76	0xbb28b000	-0.002573967
77	0xbc3ae000	-0.011405945
78	0x3bae1400	0.005312443
79	0xbc4c1000	-0.012454987
80	0xbbe9ec00	-0.007138729
81	0xbc111400	-0.008854866
82	0x3c04ec00	0.008112907
83	0x3c8d6000	0.01725769
84	0xba981000	-0.0011601448
85	0x3c116c00	0.008875847
86	0x3c256000	0.010093689
87	0xbbf73000	-0.007543564
88	0x3c09d800	0.008413315
89	0x3b4b0800	0.003098011
90	0x3c0bec00	0.0085401535
91	0x3ae24c00	0.0017265081
92	0x3c048c00	0.008090019
93	0x3bff1000	0.00778389
94	0x3b04cc00	0.0020263195
95	0xbb019400	-0.0019772053
96	0xbb838e00	-0.0040147305
97	0x3bb34800	0.0054712296
98	0x3bbe4000	0.0058059692
99	0x3b97fc00	0.004638195
100	0x3c9e5400	0.019327164
101	0x00000000	0.0

old_dirs f4 [102]
0	0xba84f600	-0.0010144114
1	0x3ac8f400	0.0015331507
2	0xbb39f200	-0.0028373003
3	0xbb76c400	-0.0037653446
4	0x3b7e9000	0.0038843155
5	0x3a9f1800	0.001213789
6	0x3bc3b800	0.0059728622
7	0x3b9aac00	0.004720211
8	0xbb500000	-0.0031738281
9	0x3ac8e400	0.0015326738
10	0xba3c7400	-0.0007188916
11	0x3a919800	0.0011107922
12	0xbab5d000	-0.0013871193
13	0x3a794000	0.0009508133
14	0xbba65400	-0.0050759315
15	0xba2fd800	-0.0006707907
16	0x3ac3d400	0.00149405
17	0xb9454000	-0.00018811226
18	0xba7d9400	-0.0009673238
19	0x3ae17000	0.0017199516
20	0x3aeb7800	0.001796484
21	0x3ad5f400	0.0016323328
22	0xbb23a000	-0.0024967194
23	0xba737800	-0.0009287596
24	0xba670000	-0.00088119507
25	0xbb09f800	-0.002105236
26	0xbb335400	-0.00273633
27	0xb99a9000	-0.00029480457
28	0xbb174800	-0.0023083687
29	0xba9ef400	-0.0012127161
30	0xbb21a400	-0.0024664402
31	0xbadb1400	-0.0016714334
32	0xb94e0800	-0.00019648671
33	0xbb6a4400	-0.0035746098
34	0xbb842c00	-0.0040335655
35	0xba3c5000	-0.0007183552
36	0x3b821400	0.0039696693
37	0xbae4a800	-0.0017445087
38	0xbaf2f400	-0.0018535852
39	0xba322800	-0.00067961216
40	0x3b8df200	0.004331827
41	0x3a3cb700	0.00071989
42	0xba948000	-0.0011329651
43	0xbac21000	-0.0014805794
44	0x3b444000	0.0029945374
45	0x3b0c2400	0.0021383762
46	0x3b928400	0.004471302
47	0x3b84c600	0.0040519238
48	0xbbbed000	-0.0058231354
49	0x3ae5dc00	0.0017536879
50	0xbb12b000	-0.0022382736
51	0x3a774800	0.0009433031
52	0xb9d11800	-0.00039881468
53	0x3b3d9400	0.0028927326
54	0x3aa25e00	0.0012387633
55	0x3b928200	0.0044710636
56	0xba972800	-0.0011532307
57	0x3b45e800	0.0030198097
58	0xbb9b5400	-0.004740238
59	0x3aae7c00	0.0013312101
60	0x3b2f7000	0.0026769638
61	0xbc9eb000	-0.019371033
62	0x3cb47800	0.022029877
63	0x3cba2800	0.022724152
64	0x3c195000	0.009357452
65	0x399d4000	0.00029993057
66	0xba8f3000	-0.0010924339
67	0xbb09c800	-0.002102375
68	0xba198000	-0.00058555603
69	0xbc20ec00	-0.009821892
70	0xbb469800	-0.0030303001
71	0x3c928800	0.017887115
72	0x3ca44400	0.020051956
73	0x3b575000	0.003285408
74	0xbc947400	-0.01812172
75	0xbb4e7000	-0.0031499863
76	0xbb314800	-0.0027050972
77	0xbc3b6800	-0.01143837
78	0x3bb0fc00	0.0054011345
79	0xbc4cb000	-0.012493134
80	0xbbe9b000	-0.0071315765
81	0xbc0fc800	-0.008775711
82	0x3c02f200	0.007992268
83	0x3c8c3000	0.017112732
84	0xba983800	-0.0011613369
85	0x3c10f000	0.008846283
86	0x3c24d800	0.010061264
87	0xbbf4d000	-0.0074710846
88	0x3c099000	0.008396149
89	0x3b495c00	0.0030725002
90	0x3c0af800	0.008481979
91	0x3add1400	0.0016866922
92	0x3c02f000	0.007991791
93	0x3bfcd400	0.007715702
94	0x3b03ec00	0.002012968
95	0xbb012c00	-0.0019710064
96	0xbb82ac00	-0.003987789
97	0x3bb18000	0.00541687
98	0x3bbc8400	0.0057530403
99	0x3b968c00	0.004594326
100	0x3c9cf800	0.019161224
101	0x00000000	0.0

old_dirs f4 [102]
0	0xba844000	-0.0010089874
1	0x3ac9e400	0.0015403032
2	0xbb3b0c00	-0.0028541088
3	0xbb78dc00	-0.0037972927
4	0x3b7edc00	0.0038888454
5	0x3aa04600	0.0012227893
6	0x3bc4a000	0.006000519
7	0x3b9c1800	0.004763603
8	0xbb4e7c00	-0.0031507015
9	0x3acd8000	0.0015678406
10	0xba3a7c00	-0.00071138144
11	0x3a929400	0.0011183023
12	0xbab42800	-0.0013744831
13	0x3a7a5000	0.0009548664
14	0xbba61000	-0.0050678253
15	0xba2dc000	-0.00066280365
16	0x3ac2d400	0.0014864206
17	0xb93c4000	-0.00017952919
18	0xba7b2000	-0.00095796585
19	0x3ae3b800	0.0017373562
20	0x3aec0800	0.0018007755
21	0x3ad8a400	0.0016528368
22	0xbb22f000	-0.002486229
23	0xba719000	-0.0009214878
24	0xba630800	-0.0008660555
25	0xbb09d000	-0.0021028519
26	0xbb320000	-0.0027160645
27	0xb998b000	-0.0002912283
28	0xbb16a800	-0.002298832
29	0xbaa02c00	-0.0012220144
30	0xbb21b400	-0.0024673939
31	0xbadce800	-0.0016853809
32	0xb95dbc00	-0.00021146238
33	0xbb6c6400	-0.0036070347
34	0xbb838400	-0.0040135384
35	0xba3b7c00	-0.00071519613
36	0x3b819000	0.0039539337
37	0xbae7c800	-0.0017683506
38	0xbaf18800	-0.0018427372
39	0xba33c000	-0.00068569183
40	0x3b8e4000	0.0043411255
41	0x3a407300	0.0007341355
42	0xba96b800	-0.0011498928
43	0xbac60000	-0.0015106201
44	0x3b466000	0.0030269623
45	0x3b0c5000	0.0021409988
46	0x3b92fc00	0.004485607
47	0x3b862000	0.00409317
48	0xbbbf9400	-0.0058465004
49	0x3ae75c00	0.001765132
50	0xbb142000	-0.0022602081
51	0x3a7dc000	0.00096797943
52	0xb9ced400	-0.00039449334
53	0x3b3e7000	0.0029058456
54	0x3aa33200	0.0012450814
55	0x3b934000	0.0044937134
56	0xba979400	-0.0011564493
57	0x3b474800	0.0030407906
58	0xbb9c7c00	-0.004775524
59	0x3aaefc00	0.0013350248
60	0x3b37b000	0.0028028488
61	0xbc9e9800	-0.019359589
62	0x3cb4e800	0.022083282
63	0x3cba4800	0.02273941
64	0x3c194400	0.009354591
65	0x39450000	0.00018787384
66	0xbaa0e000	-0.0012273788
67	0xbb0b9400	-0.0021297932
68	0xba36c000	-0.0006971359
69	0xbc202c00	-0.009776115
70	0xbb4b1800	-0.0030989647
71	0x3c92f000	0.017936707
72	0x3ca43800	0.020046234
73	0x3b53c000	0.0032310486
74	0xbc94c000	-0.018157959
75	0xbb473000	-0.00303936
76	0xbb2be800	-0.0026230812
77	0xbc3ba000	-0.011451721
78	0x3bafc000	0.0053634644
79	0xbc4ce000	-0.012504578
80	0xbbebac00	-0.007192135
81	0xbc10f800	-0.00884819
82	0x3c03f600	0.008054256
83	0x3c8d6800	0.017261505
84	0xba9af000	-0.0011820793
85	0x3c123c00	0.008925438
86	0x3c267800	0.010160446
87	0xbbf76800	-0.0075502396
88	0x3c0ac800	0.008470535
89	0x3b4b7800	0.0031046867
90	0x3c0c8c00	0.0085783005
91	0x3addcc00	0.0016921759
92	0x3c03b800	0.0080394745
93	0x3bff4000	0.007789612
94	0x3b063c00	0.002048254
95	0xbb025000	-0.001988411
96	0xbb83da00	-0.0040237904
97	0x3bb3cc00	0.005486965
98	0x3bbe4800	0.005806923
99	0x3b98a000	0.0046577454
100	0x3c9eb800	0.019374847
101	0x00000000	0.0

old_dirs f4 [102]
0	0xba850600	-0.0010148883
1	0x3ac9b800	0.0015389919
2	0xbb3bf400	-0.002867937
3	0xbb791000	-0.0038003922
4	0x3b808400	0.0039219856
5	0x3aa31600	0.001244247
6	0x3bc64c00	0.0060515404
7	0x3b9cfc00	0.004790783
8	0xbb506400	-0.0031797886
9	0x3acb4c00	0.0015510321
10	0xba3b2800	-0.00071394444
11	0x3a920800	0.00111413
12	0xbab4f800	-0.001380682
13	0x3a77d000	0.00094532967
14	0xbba75c00	-0.005107403
15	0xba31d000	-0.00067830086
16	0x3ac45000	0.0014977455
17	0xb930c000	-0.00016856194
18	0xba7e7c00	-0.00097078085
19	0x3ae26400	0.0017272234
20	0x3aee2400	0.0018168688
21	0x3ad9f400	0.0016628504
22	0xbb241c00	-0.0025041103
23	0xba724800	-0.0009242296
24	0xba5fb800	-0.0008534193
25	0xbb08a400	-0.0020849705
26	0xbb328800	-0.0027241707
27	0xb99d3000	-0.00029981136
28	0xbb16ba00	-0.0022999048
29	0xbaa0d000	-0.001226902
30	0xbb229000	-0.002480507
31	0xbadcf400	-0.0016857386
32	0xb9599400	-0.00020749867
33	0xbb6bd800	-0.00359869
34	0xbb840200	-0.0040285587
35	0xba3f6c00	-0.0007302165
36	0x3b82c000	0.0039901733
37	0xbae4e400	-0.0017462969
38	0xbaf1c000	-0.0018444061
39	0xba357000	-0.00069212914
40	0x3b8e6800	0.004345894
41	0x3a41db00	0.0007394999
42	0xba953600	-0.0011383891
43	0xbac49800	-0.0014998913
44	0x3b455800	0.0030112267
45	0x3b0bb400	0.0021317005
46	0x3b928000	0.004470825
47	0x3b85c200	0.0040819645
48	0xbbbf7800	-0.0058431625
49	0x3ae77000	0.001765728
50	0xbb140000	-0.0022583008
51	0x3a7b4000	0.0009584427
52	0xb9d5ac00	-0.00040754676
53	0x3b3cc000	0.0028800964
54	0x3aa20e00	0.0012363791
55	0x3b938600	0.004502058
56	0xba96ac00	-0.0011495352
57	0x3b45f800	0.0030207634
58	0xbb9c4000	-0.0047683716
59	0x3aada800	0.001324892
60	0x3b323000	0.0027189255
61	0xbc9f2400	-0.019426346
62	0x3cb55400	0.02213478
63	0x3cbaf000	0.022819519
64	0x3c19a400	0.00937748
65	0x39894000	0.0002617836
66	0xba96e000	-0.0011510849
67	0xbb0b7c00	-0.0021283627
68	0xba200000	-0.00061035156
69	0xbc20f400	-0.009823799
70	0xbb47d400	-0.0030491352
71	0x3c934400	0.01797676
72	0x3ca4c800	0.020114899
73	0x3b562c00	0.0032680035
74	0xbc952400	-0.018205643
75	0xbb4c5000	-0.0031175613
76	0xbb2fd000	-0.0026826859
77	0xbc3c0800	-0.011476517
78	0x3bb14000	0.0054092407
79	0xbc4d6000	-0.012535095
80	0xbbec3400	-0.0072083473
81	0xbc108000	-0.00881958
82	0x3c030400	0.007996559
83	0x3c8d0000	0.017211914
84	0xba9c0800	-0.001190424
85	0x3c126000	0.008934021
86	0x3c26a400	0.010170937
87	0xbbf6dc00	-0.0075335503
88	0x3c0b0800	0.008485794
89	0x3b4b3c00	0.0031011105
90	0x3c0c7c00	0.008574486
91	0x3adab400	0.0016685724
92	0x3c02f800	0.007993698
93	0x3bfe9800	0.0077695847
94	0x3b06b000	0.0020551682
95	0xbb025c00	-0.0019891262
96	0xbb83b800	-0.0040197372
97	0x3bb36400	0.0054745674
98	0x3bbdc000	0.0057907104
99	0x3b985000	0.0046482086
100	0x3c9e7800	0.01934433
101	0x00000000	0.0

old_dirs f4 [102]
0	0xba84fc00	-0.0010145903
1	0x3aca5c00	0.0015438795
2	0xbb3d2200	-0.0028859377
3	0xbb7a7000	-0.003821373
4	0x3b810e00	0.0039384365
5	0x3aa51c00	0.0012596846
6	0x3bc78c00	0.0060896873
7	0x3b9e3000	0.0048274994
8	0xbb501800	-0.0031752586
9	0x3acd9c00	0.001568675
10	0xba3a4000	-0.00071048737
11	0x3a928800	0.0011179447
12	0xbab45000	-0.0013756752
13	0x3a77b800	0.00094497204
14	0xbba7b400	-0.005117893
15	0xba31d800	-0.00067842007
16	0x3ac45000	0.0014977455
17	0xb9284000	-0.0001604557
18	0xba7e8c00	-0.00097101927
19	0x3ae36c00	0.0017350912
20	0x3aef3000	0.0018248558
21	0x3adc0000	0.0016784668
22	0xbb244000	-0.002506256
23	0xba70f000	-0.0009191036
24	0xba5bc000	-0.0008382797
25	0xbb080400	-0.0020754337
26	0xbb31e000	-0.002714157
27	0xb99d2000	-0.00029969215
28	0xbb166e00	-0.0022953749
29	0xbaa1d400	-0.0012346506
30	0xbb22fc00	-0.0024869442
31	0xbade0c00	-0.0016940832
32	0xb9623000	-0.00021570921
33	0xbb6d1400	-0.003617525
34	0xbb83dc00	-0.004024029
35	0xba407400	-0.0007341504
36	0x3b82ec00	0.0039954185
37	0xbae5ec00	-0.0017541647
38	0xbaf11800	-0.0018393993
39	0xba370000	-0.0006980896
40	0x3b8ea600	0.004353285
41	0x3a44e500	0.00075109303
42	0xba960400	-0.0011445284
43	0xbac68e00	-0.001514852
44	0x3b465800	0.0030264854
45	0x3b0bb000	0.002131462
46	0x3b92b000	0.0044765472
47	0x3b868600	0.0041053295
48	0xbbbff000	-0.0058574677
49	0x3ae89400	0.0017744303
50	0xbb14d000	-0.0022706985
51	0x3a7e6000	0.0009703636
52	0xb9d6d400	-0.00040975213
53	0x3b3cac00	0.0028789043
54	0x3aa23200	0.001237452
55	0x3b942c00	0.004521847
56	0xba96a000	-0.0011491776
57	0x3b467400	0.0030281544
58	0xbb9ce800	-0.0047883987
59	0x3aad9800	0.0013244152
60	0x3b34b000	0.0027570724
61	0xbc9f5c00	-0.019453049
62	0x3cb5d400	0.022195816
63	0x3cbb4400	0.022859573
64	0x3c19e000	0.009391785
65	0x39610000	0.00021457672
66	0xba9e7000	-0.0012087822
67	0xbb0c4e00	-0.0021408796
68	0xba28c000	-0.00064373016
69	0xbc20e400	-0.009819984
70	0xbb49e800	-0.0030808449
71	0x3c93b800	0.018032074
72	0x3ca50c00	0.020147324
73	0x3b54c800	0.0032467842
74	0xbc958800	-0.018253326
75	0xbb49d000	-0.0030794144
76	0xbb2e0000	-0.0026550293
77	0xbc3c8000	-0.011505127
78	0x3bb10c00	0.005403042
79	0xbc4dd400	-0.012562752
80	0xbbedac00	-0.00725317
81	0xbc112400	-0.008858681
82	0x3c036200	0.0080189705
83	0x3c8dac00	0.01729393
84	0xba9e5800	-0.0012080669
85	0x3c133800	0.008985519
86	0x3c27b000	0.010234833
87	0xbbf83400	-0.0075745583
88	0x3c0be000	0.0085372925
89	0x3b4c9800	0.0031218529
90	0x3c0d7800	0.008634567
91	0x3ada0c00	0.0016635656
92	0x3c033400	0.008008003
93	0x3bffe400	0.007809162
94	0x3b083000	0.0020780563
95	0xbb030400	-0.0019991398
96	0xbb846400	-0.0040402412
97	0x3bb4b800	0.0055150986
98	0x3bbeb400	0.0058197975
99	0x3b99a000	0.004688263
100	0x3c9f8400	0.019472122
101	0x00000000	0.0

old_dirs f4 [102]
0	0xba856800	-0.0010178089
1	0x3acaac00	0.0015462637
2	0xbb3e3600	-0.0029023886
3	0xbb7b4400	-0.0038340092
4	0x3b81f800	0.0039663315
5	0x3aa7d400	0.001280427
6	0x3bc91800	0.006136894
7	0x3b9f5000	0.0048618317
8	0xbb511c00	-0.0031907558
9	0x3acd9400	0.0015684366
10	0xba3a5800	-0.000710845
11	0x3a928000	0.0011177063
12	0xbab47c00	-0.0013769865
13	0x3a766000	0.00093984604
14	0xbba8a400	-0.0051465034
15	0xba341800	-0.00068700314
16	0x3ac53800	0.0015046597
17	0xb91dc000	-0.00015044212
18	0xba805e00	-0.0009793639
19	0x3ae32c00	0.0017331839
20	0x3af0e000	0.0018377304
21	0x3add9000	0.0016903877
22	0xbb24f800	-0.0025172234
23	0xba70c000	-0.00091838837
24	0xba57d000	-0.00082325935
25	0xbb070400	-0.002060175
26	0xbb31ec00	-0.0027148724
27	0xb99fc000	-0.00030469894
28	0xbb165a00	-0.0022941828
29	0xbaa2cc00	-0.0012420416
30	0xbb23b400	-0.0024979115
31	0xbadea000	-0.001698494
32	0xb9630400	-0.00021649897
33	0xbb6d4400	-0.0036203861
34	0xbb841c00	-0.004031658
35	0xba432400	-0.0007444024
36	0x3b83b800	0.0040197372
37	0xbae4f800	-0.0017468929
38	0xbaf11400	-0.0018392801
39	0xba38d800	-0.00070512295
40	0x3b8ed600	0.004359007
41	0x3a472e00	0.0007598102
42	0xba957c00	-0.0011404753
43	0xbac6b000	-0.0015158653
44	0x3b463800	0.003024578
45	0x3b0b5c00	0.0021264553
46	0x3b928800	0.004471779
47	0x3b86ae00	0.004110098
48	0xbbc01c00	-0.005862713
49	0x3ae94400	0.0017796755
50	0xbb151c00	-0.0022752285
51	0x3a7e9000	0.0009710789
52	0xb9db1000	-0.00041782856
53	0x3b3bcc00	0.002865553
54	0x3aa1aa00	0.0012333989
55	0x3b94a800	0.0045366287
56	0xba962400	-0.0011454821
57	0x3b45f400	0.003020525
58	0xbb9d2000	-0.0047950745
59	0x3aace400	0.0013190508
60	0x3b333000	0.0027341843
61	0xbc9fd000	-0.019508362
62	0x3cb64c00	0.022253036
63	0x3cbbd000	0.02292633
64	0x3c1a2800	0.009408951
65	0x39778000	0.0002360344
66	0xba9ce000	-0.0011968613
67	0xbb0ca200	-0.0021458864
68	0xba208000	-0.0006122589
69	0xbc215000	-0.009845734
70	0xbb490800	-0.0030674934
71	0x3c941c00	0.018079758
72	0x3ca57800	0.020198822
73	0x3b557c00	0.003257513
74	0xbc95f800	-0.018306732
75	0xbb4b8000	-0.0031051636
76	0xbb2f6800	-0.002676487
77	0xbc3cf800	-0.011533737
78	0x3bb1d800	0.0054273605
79	0xbc4e6000	-0.01259613
80	0xbbeea400	-0.007282734
81	0xbc113400	-0.008862495
82	0x3c02f800	0.007993698
83	0x3c8dbc00	0.01730156
84	0xbaa00000	-0.0012207031
85	0x3c13b000	0.00901413
86	0x3c283c00	0.010268211
87	0xbbf8a400	-0.0075879097
88	0x3c0c7400	0.008572578
89	0x3b4cdc00	0.003125906
90	0x3c0ddc00	0.008658409
91	0x3ad7fc00	0.00164783
92	0x3c02e400	0.00798893
93	0x3c001600	0.007817745
94	0x3b090c00	0.0020911694
95	0xbb037c00	-0.0020062923
96	0xbb84a800	-0.0040483475
97	0x3bb53800	0.0055303574
98	0x3bbed800	0.005824089
99	0x3b99fc00	0.00469923
100	0x3c9fe000	0.019515991
101	0x00000000	0.0
