tutorials/tutorial7/tmp_poisson_inverse/lightning_logs/version_15/checkpoints/epoch=1999-step=4000.ckpt (torch, 17224 bytes, 15 tensors)

_neural_net._model.model.0.weight f4 [20, 2]
00000000: c80b 0d3f 19d2 b7be e80a 1dbf f647 15be
00000010: b913 a23e c707 dc3e 6521 edbe c7ea 673f
00000020: d9fa 023f 6beb f2be a48f 1d3f 35bd 5e3f
00000030: 5684 d13e 281a 043f b377 31be 0a33 423f
00000040: 556b b9be f353 1e3f a880 ba3e ab56 98bc
00000050: 944f 4f3f 6608 04bf fbe7 08bf 2df6 c3be
00000060: 3a59 d5be 9145 b5be 2fce 453f f22c 15bf
00000070: 68e7 603f 3a88 6ebd b17c b73e d1ce 87be
00000080: 2615 ff3e 706c 9d3e a7fe 223f 05f7 013f
00000090: ec4a 913e 60e0 513f 37b9 af3e a8d4 923e
0.550961 -0.3590248 -0.61344767 -0.14578232 0.31655672 0.42974684 -0.4631454 0.90592617
0.51164013 -0.47445235 0.61547303 0.87007457 0.40921277 0.5160241 -0.17330818 0.7585913
-0.362147 0.61846846 0.36426282 -0.018596014 0.809808 -0.51575315 -0.53478974 -0.38273755
-0.41669637 -0.35404637 0.77267736 -0.58271706 0.878531 -0.058235385 0.3583732 -0.26524976
0.49820822 0.30746794 0.6366982 0.50767547 0.28377473 0.81982994 0.34320995 0.2867787

_neural_net._model.model.0.bias f4 [20]
00000000: 4e86 a43e c950 a23d f72f 5b3e b126 a23e
00000010: d16d 9abe aa38 903e ab15 cbbe 9e7a 14bf
00000020: aa9c 06bf 0eda 99be cea1 64be 54d7 303f
00000030: 172d fe3e 3c99 be3e f2cd bf3d 9964 2c3f
00000040: 1b0d b6be 4e77 4d3f 929b 25be f657 13be
0.32133716 0.07925565 0.21405016 0.31670144 -0.30161908 0.2816823 -0.3966497 -0.579996
-0.525828 -0.30049175 -0.22327349 0.69078565 0.49643776 0.37226284 0.09365453 0.67341
-0.35556874 0.8026017 -0.16172627 -0.14389023

_neural_net._model.model.2.weight f4 [20, 20]
00000000: e180 b93d a616 443d fef8 833c fc06 90bc
00000010: c856 9d3e 764e 4c3d af41 e63d e064 9bbd
00000020: 0139 02bd 599a fc3d 23ce cabc 33c0 43be
00000030: a5ef 7b3c 8858 b3bd 84a3 41be c4b5 133d
00000040: 7749 a0bd f584 58be 6507 733e ea26 4cbe
00000050: d3ee 04be b7e6 c8bd a91b 0cbe 409c 1ebe
00000060: c48f 9a3e 04d7 a33d c78e bcbd 619a b53d
00000070: 904d 3bbd e229 23be a2d9 983d 28f3 093e
00000080: ef94 83be d56b 0f3d c889 593e b26c c8bd
00000090: 78f6 263e a74d 8e3d 35f2 813c 017a 363d
000000a0: 17b8 afbc 2864 043e ec1b 343e c3fb adbd
000000b0: 5322 58be 08ae 7a3c 7974 f73d 8ed3 ccbd
000000c0: 5022 e43d 5cc0 883d 3816 ad3d 8f74 6c3e
000000d0: 1de3 6f3e ffed 693e 82e1 893e 56fb 41be
000000e0: b540 c7bc d22d 243e 056c 86bd 548c 833c
000000f0: 5327 56bd ee1c bf3c 46ab e73d 8c16 d9bd
00000100: 13cc 0fbc 7d34 8cbd cf24 813b dbac 25be
00000110: 509c ce3d 4749 13be bed9 de3d c1ed 183c
00000120: e6e9 333c 49f1 a43d 008f fb3d 193a 9b3b
00000130: 0bb6 473d dbca 293e eb8a 613d 2937 423d
00000140: a9f2 02be 185e 713e 9db4 2e3e b70c 7abe
00000150: 12f0 fc3d bcd4 d6bd b58d 05be e67a c2bc
00000160: f5eb f53d da99 2ebe 08e0 ae3d b617 51be
00000170: ffa3 3ebe 5e3a 6dbd 528e 373e 121c e7bd
00000180: a431 213e eaec 943b b769 c73d 6831 63bd
00000190: 6847 3c3e 4697 ce3d 7926 07be 31f5 e63c
000001a0: ade0 e33d b798 4abe 8a78 aa3b d9c4 e3bc
000001b0: 363d 103e a4f9 183e 5cd9 d1bc 916e 153e
000001c0: 8ff2 d43d 2759 23be 090c febc 1073 a03d
000001d0: 4528 06bc 4072 e23d 1994 c93a 4822 2c3e
000001e0: 7532 e8bc cda4 02bd c9f5 f03d 75be adbd
000001f0: 4ac8 b93d cf6e 5fbe 0544 3d3d a392 7cbe
00000200: 7e4a b03d bac4 383e 1f0e 91bc a82a c43b
00000210: 8577 2cbe f2ff 923d e20b 483d 3328 273e
00000220: 5018 3abe cd74 1dbd 03f6 89bd 7ab1 6e3d
00000230: b832 3a3d f2b8 a93d 1d9e d7bd a3c3 2dbe
00000240: f2d8 223d e546 5d3d 10bf 46be 44f9 06be
00000250: 70e0 523b e8c4 61bd a851 d33d 3e01 eabd
00000260: bb87 1abe 91f6 38be 1976 87bd b55c 043e
00000270: a926 223e bbff 5dbe 90d8 4ebd 329d d33d
00000280: 8979 8b3d 19db 353e 1e91 2a3e f780 a9bc
00000290: 041e 57be 8969 4a3d 87b1 08be 0e96 2ebe
000002a0: 5250 293e 4109 b6bd e3b4 523e 385e 963d
000002b0: 4a8e c6bd c5be f4bd 0855 4ebe 8fcf 3a3e
000002c0: ff6e ae3d 7e19 d93d 3df2 d2bc 12d0 5abe
000002d0: a877 fe3d 7f22 7a3d 0350 003e 2d3c dc3d
000002e0: 3bf8 52be 9d4b 303e 8b1b 95bc 55e0 c33d
000002f0: 8fae 4fbe 2626 2fbe e71f 4bbe b670 08be
00000300: 7856 24bd f78b 0b3e 93c6 b9bd 6518 88bd
00000310: 423c 4abe 4edb 973c 67f4 653e 4346 05be
00000320: 4f44 863d d88b bb3d ba85 5cbe 207c 96be
00000330: 72d7 273e e94e 86bd 42e4 6cbd cbca 02be
00000340: 94d6 8e3d a629 6bbc 6748 84bd 54d6 363e
00000350: 857d e83c f3d9 ff3d 22ee 93be 3b7b 013e
00000360: 978d cebb df4b 63be 069d 3dbe 5c18 9abe
00000370: cf43 7ebc c1ed c43c 8b3e 05bd 5220 12bc
00000380: 1d7a d5bd 8f76 013d 6362 22bd 232d 753e
00000390: f6de 0abe bebc 28be 4535 68bc 99d6 f23c
000003a0: 7d82 9c3d 4123 7d3d 4e03 f2bd ae07 39be
000003b0: 3bec e2bc 4e19 393e 64e9 36be 6869 bfbd
000003c0: 55f3 423e bc55 863e 9a29 0abe b7ee 1c3e
000003d0: a110 bebe a586 4cbe ceb3 fabd fd6c 4bbe
000003e0: 4147 a9be 3109 2f3b 1e77 47bf d159 703d
000003f0: 5f75 ae3a feed 5b3e 9578 43be 79b9 253e
0.09057785 0.04787316 0.01610994 -0.017581455 0.3073027 0.049879514 0.11242997 -0.075876
-0.031792644 0.12334127 -0.024756497 -0.19116287 0.01537696 -0.0875712 -0.18910033 0.036062017
-0.07826512 -0.21144469 0.2373329 -0.1993672 -0.12981729 -0.0980963 -0.13682427 -0.15489292
0.3018781 0.07999995 -0.0920692 0.08867336 -0.045728266 -0.15933946 0.07463385 0.13471663
-0.25699565 0.035014946 0.21243966 -0.09786357 0.16304958 0.06948405 0.015862564 0.044549946
-0.021450086 0.12928832 0.17588776 -0.08495285 -0.21106844 0.015300281 0.12082762 -0.10001288
0.11139357 0.06677315 0.084515035 0.23091339 0.2342648 0.22844695 0.2692986 -0.18943533
-0.024322847 0.16033104 -0.06563572 0.016058125 -0.052283596 0.023329224 0.11311965 -0.106000036
-0.008776682 -0.06845949 0.0039411555 -0.1617922 0.10088408 -0.14383422 0.10881375 0.009334029
0.010981059 0.08053834 0.122831345 0.0047371504 0.048757594 0.1658129 0.055064123 0.047415886
-0.1278788 0.2357105 0.17061086 -0.24418913 0.12350477 -0.104897946 -0.13042338 -0.023740243
0.12007896 -0.17050877 0.08538824 -0.20419201 -0.18617247 -0.05791699 0.17925385 -0.11284651
0.15741593 0.004544844 0.097369604 -0.05546704 0.18386614 0.10087447 -0.1319827 0.028193088
0.11126838 -0.19784819 0.0052023577 -0.027803825 0.1408585 0.1493898 -0.02561634 0.14592959
0.10397827 -0.15951978 -0.031011598 0.078344464 -0.008188312 0.11056948 0.001537922 0.16809952
-0.028344372 -0.031895448 0.1176563 -0.084835924 0.09071405 -0.21819614 0.046207447 -0.24665312
0.08607958 0.18043795 -0.017706929 0.0059865303 -0.16842468 0.07177724 0.048839457 0.16323929
-0.18173337 -0.038441468 -0.06736376 0.058274724 0.045458525 0.08287229 -0.105282046 -0.1696916
0.039757676 0.05402269 -0.19408822 -0.13181025 0.0032177232 -0.055119425 0.10318309 -0.11426018
-0.1509084 -0.18062808 -0.06614322 0.1292599 0.1583506 -0.21679585 -0.0504995 0.10332717
0.0681029 0.1775936 0.1665692 -0.020691378 -0.21007544 0.049417052 -0.13348971 -0.17049429
0.16534546 -0.08888484 0.20576815 0.073421896 -0.09695108 -0.11950449 -0.20149624 0.1824324
0.085172646 0.106005654 -0.025750274 -0.21368435 0.12425166 0.061068054 0.12530522 0.10753665
-0.20602505 0.17216344 -0.01820161 0.09564272 -0.20281433 -0.17104396 -0.19836389 -0.13324246
-0.040121526 0.13627611 -0.09071078 -0.06645278 -0.19749549 0.01853719 0.22456513 -0.13015084
0.065559976 0.091575325 -0.21535388 -0.29391575 0.1639078 -0.0655802 -0.05783487 -0.12772672
0.06974521 -0.0143531915 -0.06459122 0.17855197 0.028380165 0.124927424 -0.28892618 0.12644665
-0.0063035 -0.22196911 -0.18516931 -0.3009671 -0.0155190965 0.024039151 -0.03253035 -0.008918839
-0.10423682 0.031607207 -0.03964461 0.23943 -0.13561615 -0.1647825 -0.014172857 0.029643344
0.07642076 0.0618012 -0.118170366 -0.18069336 -0.027700534 0.18076059 -0.17862469 -0.093462765
0.19038136 0.26237285 -0.13492432 0.15325437 -0.37122062 -0.19973238 -0.12241326 -0.19865794
-0.33062175 0.002670836 -0.77916133 0.058679406 0.0013310126 0.21477506 -0.19088967 0.16184033

_neural_net._model.model.2.bias f4 [20]
00000000: 05d5 15be 2a6b 4c3e dc2f 0abe be04 45be
00000010: 105d 1a3c f9be aa3d b80e 883d 3b7e 673c
00000020: cf67 14be 50a7 d53d 0b07 ccbd 427c 51be
00000030: 9195 e23d 95ad aabc a54c 823c 22ba 723e
00000040: d0c7 903b 276f 3b3e f5c7 083d 3626 50be
-0.14632042 0.19962755 -0.1349482 -0.1924009 0.009421602 0.083372064 0.066434324 0.014129217
-0.14492725 0.10432303 -0.09962281 -0.20457557 0.11063684 -0.020834723 0.015905688 0.23703817
0.0044183508 0.1830412 0.03339382 -0.20327076

_neural_net._model.model.4.weight f4 [1, 20]
00000000: c828 a43d 279c 3f3d 0f9d 22be a831 833d
00000010: 599d c83d fcb5 2b3d c36f b8bd 6039 103d
00000020: 2516 20be 9dac 52be 139d 613e 851b 3d3d
00000030: efb1 f0bd 0bfc b0bc b97b 29be 676f 9d3d
00000040: ae8e 1a3e 8358 9bbd fe6a 8dbd d346 a6bd
0.08015591 0.046779778 -0.15880226 0.064059556 0.09795637 0.0419216 -0.09005692 0.035210967
-0.15633447 -0.20573659 0.22032575 0.046168823 -0.11752688 -0.021604558 -0.16551103 0.07687264
0.1509349 -0.07585242 -0.06905173 -0.081189774

exp_avg f4 [20, 2]
00000000: 11c5 49b8 2a0d 8ab8 4a61 36b8 68a2 0ab8
00000010: 4b25 9fb8 f7bf 35b8 7533 81b8 78a8 afb8
00000020: 2777 7e39 a677 9638 0f12 1c38 f9c1 35b7
00000030: 6021 4838 b8df 8b38 60e0 cab7 5c6c b7b7
00000040: d49a ee38 4d9e 4739 82ac 0fb6 2456 e336
00000050: 49af 7cb7 c3bc ea38 24ae b9b7 ada8 4837
00000060: 27f6 1eb8 4570 beb7 4ad2 e4b8 82db e7b8
00000070: f6d7 acb8 bd2d 87b8 b9d1 5cb8 f69d 4438
00000080: e5a7 d638 dc98 b838 106a 0639 ff81 4138
00000090: cbf5 f737 fc06 e2b7 d91c 8eb8 6a66 edb7
-4.8105667e-05 -6.582805e-05 -4.348279e-05 -3.3053017e-05 -7.588657e-05 -4.3332544e-05 -6.160784e-05 -8.37603e-05
0.00024267715 7.1748436e-05 3.7210117e-05 -1.08336035e-05 4.77148e-05 6.669707e-05 -2.418476e-05 -2.1865759e-05
0.00011377563 0.0001903709 -2.1409073e-06 6.7751553e-06 -1.5061182e-05 0.00011193149 -2.213481e-05 1.1960202e-05
-3.7899383e-05 -2.2702045e-05 -0.000109110566 -0.00011055825 -8.241825e-05 -6.445821e-05 -5.2647407e-05 4.6877154e-05
0.00010235588 8.802276e-05 0.00012818747 4.6135854e-05 2.955915e-05 -2.6944552e-05 -6.776461e-05 -2.8300292e-05

exp_avg_sq f4 [20, 2]
00000000: 2510 0837 f43e 2a37 f658 a035 26c5 0e36
00000010: 7ffc 4437 1480 7337 e10c d635 1560 f435
00000020: 0f5b b437 4e7b 1f38 b331 4d35 442d 1335
00000030: c5d0 e235 e2b5 ae35 657b 8c34 a9ba b734
00000040: 6aed e336 77dc d936 0808 1335 94b7 4835
00000050: b107 3736 95f2 b636 e01a 9535 a1d8 8035
00000060: 29b1 b535 7e6c ae35 6f93 0137 0d0b 0a37
00000070: 09af a235 7de1 9335 6814 2c36 f5ec 4c36
00000080: d115 a936 fb3d 0b37 c75c d836 73b5 0e37
00000090: 2ac2 0434 b590 b834 d229 0936 3936 f435
8.109991e-06 1.0147447e-05 1.194682e-06 2.1274404e-06 1.1741299e-05 1.4513749e-05 1.5947991e-06 1.820738e-06
2.1500075e-05 3.802339e-05 7.6440773e-07 5.482764e-07 1.6899072e-06 1.3016945e-06 2.6166813e-07 3.422222e-07
6.792766e-06 6.4927694e-06 5.4773454e-07 7.477295e-07 2.7273602e-06 5.452263e-06 1.1109187e-06 9.59979e-07
1.3537111e-06 1.2995586e-06 7.723326e-06 8.228014e-06 1.2120883e-06 1.1017979e-06 2.5641875e-06 3.0536296e-06
5.0391322e-06 8.299477e-06 6.4481023e-06 8.5061065e-06 1.2364094e-07 3.437796e-07 2.0438933e-06 1.8195198e-06

exp_avg f4 [20]
00000000: 1bf1 acb6 f454 b0b8 e0a8 2d39 4fc7 5338
00000010: 8e06 f3b7 614b c138 bca0 cf38 c679 2738
00000020: 1221 3438 f173 1437 3845 cf37 7900 dab8
00000030: af6c 7bb8 a483 d237 b85a d338 fe00 21b8
00000040: 1130 4638 7493 c937 184e dd38 ded7 ea38
-5.154068e-06 -8.408158e-05 0.00016561477 5.049194e-05 -2.897091e-05 9.2169976e-05 9.900468e-05 3.9929313e-05
4.2946143e-05 8.848482e-06 2.4708555e-05 -0.00010395138 -5.9944283e-05 2.509525e-05 0.00010078162 -3.8386315e-05
4.7251644e-05 2.402973e-05 0.00010552647 0.00011198198

exp_avg_sq f4 [20]
00000000: 0a1d 4535 5530 e334 7652 d636 f693 3435
00000010: 4901 cc35 8ff9 5d35 8ac6 2c34 a247 d534
00000020: e15c d434 42fb 6335 7cbe 0a34 fda6 8735
00000030: d30b 0435 fcf0 8334 a83b 9c35 d158 0c35
00000040: 4ff3 aa35 886b 3337 31c6 ed34 4d06 9635
7.3430476e-07 4.231721e-07 6.3872967e-06 6.7270537e-07 1.5199558e-06 8.269207e-07 1.6090976e-07 3.972646e-07
3.9555655e-07 8.492972e-07 1.292155e-07 1.0106884e-06 4.919104e-07 2.457599e-07 1.1640268e-06 5.228331e-07
1.2736799e-06 1.0694268e-05 4.4288893e-07 1.1177705e-06

exp_avg f4 [20, 20]
00000000: 19d9 8936 7f68 fbb7 07c1 0538 86ef 9737
00000010: 4913 38b7 3aa1 0c38 05c0 1f38 dd12 4a38
00000020: ba7a 8037 bd5d e536 b35f 7f37 b768 a3b7
00000030: 1fbc c2b7 a1dd e4b6 2193 0638 6d3f b335
00000040: 0492 0238 a3d9 0938 5082 6038 3edc d837
00000050: b752 ec35 fd33 b4b7 1d5a a737 db20 c037
00000060: a0e6 3eb6 266c ed37 8d60 2038 0bea 0e38
00000070: b57c 8237 97f4 6f37 ad6e 6636 c991 ebb7
00000080: 1cc1 e8b7 67eb d9b6 be37 ac37 81e9 4fb6
00000090: 7e3f f237 fc86 bd36 b65d 3f38 8616 bc37
000000a0: 5a13 56b7 e3a9 9b38 3b98 95b8 f513 88b8
000000b0: a8ec e537 155f 83b8 f3c9 ceb8 d6b1 f9b8
000000c0: 0ffd 4cb8 e96a 04b8 20c8 ebb7 3b51 8238
000000d0: bbb6 8d38 ce10 1337 2798 a4b8 2c50 8935
000000e0: c5c8 aab8 fe90 64b8 0626 fbb8 1998 8bb8
000000f0: 996e 6c36 7a9a f0b7 4b43 e037 4c69 0938
00000100: 6287 2cb7 6a53 0438 ea31 3338 b77f 5038
00000110: ca27 c437 8fe7 7337 1b9c 1137 b9d3 f5b7
00000120: 1557 fdb7 e1a3 b7b6 f21c e837 f492 f9b5
00000130: 4817 1338 0c3d 5b37 b59e 5b38 08d8 e637
00000140: 1886 4c37 abe2 20b8 ce6e 2538 cd72 0738
00000150: e57c 26b7 9190 4f38 4c3c 6d38 56e1 8438
00000160: badd ad37 ce0b 9337 be2c 9237 00ee 0eb8
00000170: f10c 18b8 a0c7 12b7 6937 1f38 9621 0137
00000180: a978 3d38 7a70 c937 1407 9d38 e6a3 1538
00000190: 7904 7d36 9186 beb7 950a ae37 dd19 9737
000001a0: fc19 a7b6 9743 ff37 b6e1 0838 e208 0b38
000001b0: 6058 5837 3fb1 3037 5427 fb36 3437 b9b7
000001c0: f6f9 beb7 7e25 59b6 2d73 be37 7339 15b5
000001d0: a981 de37 3769 2c37 55a5 2738 2ed1 ab37
000001e0: a3d9 cbb6 9dad 4c38 86a8 47b8 1b6b 0fb8
000001f0: bbe7 4c37 27ee 83b8 de2f 84b8 5dac 84b8
00000200: ccf9 cab7 de2b cbb7 d126 a0b6 6b3a 4838
00000210: 9aaf 4838 5fcf f836 c153 42b8 fecc 5eb7
00000220: 21e3 68b8 339a 05b8 cc68 aeb8 89fe 39b8
00000230: f7c3 c935 ad47 83b7 5f33 5737 124a 4437
00000240: 5b56 87b2 c20e 7337 9399 b137 0054 dc37
00000250: edc6 3937 08d6 2037 7265 0e37 cb5a 91b7
00000260: 3485 8ab7 cca7 aeb6 8536 6b37 9565 1db5
00000270: edb6 a137 72bb bc36 ece5 ed37 997c 6d37
00000280: 7112 68b7 a759 8d38 4542 9bb8 9487 4ab8
00000290: bcac 5937 dce4 d5b8 b0a8 d5b8 7904 dfb8
000002a0: bcb1 1ab8 9847 fdb7 4d69 feb7 67a5 8238
000002b0: 922f 8b38 10d5 f636 0f2c 8db8 27fa 2ab5
000002c0: 65da a8b8 c2d0 5db8 3956 13b9 5b5f 88b8
000002d0: d67a 0d38 43c6 a838 d4cf 82b8 094d c5b8
000002e0: f0d8 1e37 0b4b beb8 d3a6 06b9 89a1 43b9
000002f0: 04a2 cdb8 9675 3db8 ae85 cdb7 2c88 ef38
00000300: e3f7 dc38 9165 bc38 9c7e 76b8 6502 0838
00000310: 8174 ebb8 3581 83b7 0a96 3bb9 7f89 a5b8
00000320: 8a6b ffb7 e451 39b9 7ce7 2538 79d3 7a37
00000330: fdde 8b38 7090 9b38 3446 7139 298f 3139
00000340: 4ccd f738 9233 fe38 3342 cc38 fb50 8eb9
00000350: 868b 67b9 7b33 d3b7 38f5 0b39 be33 03b9
00000360: d281 7839 b085 4eb9 c796 3639 a89c 0939
00000370: 456a a036 a19f c1b7 ac29 b837 a380 df36
00000380: 45bb 6d36 4285 e937 8b70 1538 12fe e337
00000390: 6f65 0537 9343 7337 0a1b 4637 3403 dfb7
000003a0: ac7d d9b7 83cf 5cb6 7a32 b537 ac26 2036
000003b0: c3a2 f437 ce25 4b37 aae9 3238 42e0 bc37
000003c0: 1be2 ecb7 80be ed37 75c4 bfb8 5dcb 3eb8
000003d0: fe7e 3938 4878 28b9 3132 02b8 530e 97b6
000003e0: ac37 c636 ba8d 4f37 9dc5 2438 72c2 02b8
000003f0: dec2 06b7 389d 99b7 0e75 f9b7 4d92 3cb8
4.1081917e-06 -2.9970191e-05 3.188944e-05 1.811214e-05 -1.0971745e-05 3.3528755e-05 3.8087386e-05 4.817812e-05
1.5315938e-05 6.8356444e-06 1.5221466e-05 -1.9479876e-05 -2.3214203e-05 -6.8207305e-06 3.2085114e-05 1.3354999e-06
3.1130403e-05 3.2866035e-05 5.3527125e-05 2.5851765e-05 1.7607443e-06 -2.1481881e-05 1.9949914e-05 2.2903483e-05
-2.8446448e-06 2.8302962e-05 3.8236893e-05 3.4073408e-05 1.5555279e-05 1.4302458e-05 3.4337093e-06 -2.808207e-05
-2.7746479e-05 -6.4945084e-06 2.0529955e-05 -3.098132e-06 2.8878214e-05 5.648353e-06 4.5625224e-05 2.2421835e-05
-1.27599e-05 7.42262e-05 -7.133229e-05 -6.488703e-05 2.7409129e-05 -6.264277e-05 -9.8604614e-05 -0.0001190637
-4.887307e-05 -3.157082e-05 -2.8107374e-05 6.2140134e-05 6.75744e-05 8.765795e-06 -7.84847e-05 1.0230629e-06
-8.143628e-05 -5.449447e-05 -0.00011975695 -6.656367e-05 3.5231117e-06 -2.8682163e-05 2.6734217e-05 3.276141e-05
-1.028352e-05 3.1548938e-05 4.272341e-05 4.9710008e-05 2.3383549e-05 1.4537843e-05 8.67902e-06 -2.9304867e-05
-3.0200501e-05 -5.472903e-06 2.7670034e-05 -1.8594715e-06 3.5069213e-05 1.3067631e-05 5.2361476e-05 2.7518734e-05
1.2190569e-05 -3.8358074e-05 3.944226e-05 3.2293425e-05 -9.92345e-06 4.9487284e-05 5.656136e-05 6.3362226e-05
2.0726457e-05 1.7529263e-05 1.7425391e-05 -3.4077093e-05 -3.6251677e-05 -8.748757e-06 3.796016e-05 7.696819e-06
4.5173485e-05 2.4013443e-05 7.487662e-05 3.567701e-05 3.7702541e-06 -2.2712427e-05 2.0747344e-05 1.8012646e-05
-4.980013e-06 3.0429843e-05 3.2635136e-05 3.3148455e-05 1.289518e-05 1.0531686e-05 7.4849613e-06 -2.2079425e-05
-2.2766162e-05 -3.2357343e-06 2.2703398e-05 -5.5590425e-07 2.652484e-05 1.0276496e-05 3.996988e-05 2.0482195e-05
-6.0752077e-06 4.879908e-05 -4.7602247e-05 -3.4193607e-05 1.22133015e-05 -6.290926e-05 -6.3031664e-05 -6.326356e-05
-2.4196597e-05 -2.4219913e-05 -4.7728904e-06 4.773812e-05 4.7847258e-05 7.415117e-06 -4.6331206e-05 -1.327996e-05
-5.552464e-05 -3.185328e-05 -8.3164865e-05 -4.434449e-05 1.50327e-06 -1.5649794e-05 1.2826959e-05 1.1699756e-05
-1.5755338e-08 1.4487365e-05 2.1171558e-05 2.626516e-05 1.1073175e-05 9.586576e-06 8.487479e-06 -1.7327626e-05
-1.651291e-05 -5.205138e-06 1.4019785e-05 -5.863488e-07 1.9277877e-05 5.624658e-06 2.8359667e-05 1.4155311e-05
-1.3832571e-05 6.740103e-05 -7.4033196e-05 -4.828682e-05 1.2974426e-05 -0.0001019926 -0.00010188052 -0.00010634302
-3.688199e-05 -3.0193289e-05 -3.0328194e-05 6.229692e-05 6.636897e-05 7.356175e-06 -6.7316105e-05 -6.3693955e-07
-8.0515434e-05 -5.2884927e-05 -0.00014051133 -6.502747e-05 3.373142e-05 8.0477934e-05 -6.237594e-05 -9.408041e-05
9.468044e-06 -9.073884e-05 -0.00012841383 -0.00018656826 -9.8053395e-05 -4.5170622e-05 -2.4500154e-05 0.00011421772
0.0001053659 8.983457e-05 -5.8768885e-05 3.2427157e-05 -0.00011227374 -1.5676584e-05 -0.00017889604 -7.893424e-05
-3.0448446e-05 -0.00017673481 3.9554652e-05 1.49503985e-05 6.669571e-05 7.4178795e-05 0.00023009704 0.00016933367
0.00011816117 0.000121212695 9.7398086e-05 -0.00027144686 -0.00022081853 -2.5177133e-05 0.00013347424 -0.00012512409
0.00023699485 -0.00019695493 0.00017413041 0.00013123697 4.780743e-06 -2.3081726e-05 2.1953914e-05 6.660893e-06
3.5424757e-06 2.7837817e-05 3.5629182e-05 2.717882e-05 7.951035e-06 1.4499662e-05 1.1808015e-05 -2.6585163e-05
-2.5926936e-05 -3.2903342e-06 2.1600386e-05 2.3864368e-06 2.9162858e-05 1.2108545e-05 4.2656124e-05 2.2515775e-05
-2.823868e-05 2.834131e-05 -9.144183e-05 -4.5488927e-05 4.4225708e-05 -0.00016066537 -3.104116e-05 -4.5018182e-06
5.907341e-06 1.237116e-05 3.928469e-05 -3.1175507e-05 -8.032393e-06 -1.8312232e-05 -2.9737621e-05 -4.4958946e-05

exp_avg_sq f4 [20, 20]
00000000: 3d44 3b34 fc17 4d36 7252 3036 355f 2c35
00000010: 816e 5b33 bcf0 d236 f68b 9e36 31f4 ad35
00000020: 79bc 4435 c61a 4c35 c017 9034 dc0f 3b36
00000030: cdc4 4a36 bd46 1a34 922a ec35 7e39 8234
00000040: 0f40 7f36 ae94 2936 a8f9 8d36 7ba3 f335
00000050: b737 7333 eb46 8c35 dec5 8135 e76e b034
00000060: f990 e731 e125 1936 e0a8 e335 ac4f 1535
00000070: a9ba b634 66fc 7434 c600 4233 4ee6 7935
00000080: 422d 8a35 27b6 ac33 16ad 1535 5619 1234
00000090: 05b8 ae35 f90f 7b35 0214 d035 8c53 2835
000000a0: 6f80 8335 d800 8e37 1191 7937 ccdc 7a36
000000b0: 79e5 0334 e6e6 1438 5718 d537 1184 cc36
000000c0: af81 6036 3697 6a36 e8ec 9835 4980 5e37
000000d0: c368 7d37 1c37 0335 a10b 1f37 695c a335
000000e0: 9e96 a537 2008 7f37 6315 bc37 6731 2137
000000f0: 0750 c434 5ead b135 93cf a635 33fb ed34
00000100: 11b2 ce33 c7a0 3b36 b021 1336 a90c c035
00000110: 62f1 8a35 60e6 e834 1e1a fb33 ba71 e035
00000120: d02f d535 dd5b 6035 06ef 8a35 1ed7 8735
00000130: 03c5 ef35 b613 b035 a70e 1536 ebd8 6335
00000140: e386 0f34 cae3 2236 c4da 1836 a40a 4e35
00000150: 5aa7 cf32 3301 ac36 9ec4 8236 30d7 9435
00000160: 2a6d 0f35 7041 0935 b182 0d34 0eed 1836
00000170: 3613 2036 9efc 0034 9c7e c235 bff4 5934
00000180: f1e4 4636 9649 0d36 9179 8436 1b1d d635
00000190: ccdb 0a34 088d 8935 2346 7b35 ee53 9434
000001a0: 6e5d 0133 0738 0f36 3550 d235 70c8 1335
000001b0: cc9c b934 29a5 7634 a4f5 9c33 4b56 7435
000001c0: 02ed 8135 f4c6 5d34 4a09 2e35 b582 9634
000001d0: 28e3 a235 b9da 8335 0846 c735 2a91 2235
000001e0: 2910 7235 2ef9 0737 5cd3 e536 dc6b d235
000001f0: 8f51 3734 2dc9 8837 4fcd 3f37 6251 4d36
00000200: 6a56 ff35 882d e335 8dc5 3a35 769f c836
00000210: 8e1e e536 5416 9035 7d24 a636 b073 cd35
00000220: d60b 1837 6f47 fc36 a0db 2437 14f7 8e36
00000230: 259b b333 877c c735 4c3c 9f35 d0a1 7034
00000240: da5c 1633 2542 4536 903d 1336 fdfb 0935
00000250: a7bb a034 b39e c934 9762 2e34 a039 ab35
00000260: 8ba0 bf35 ce59 e532 d368 5835 97db 9633
00000270: 3427 f635 446d 9c35 4523 f035 7cff 5935
00000280: 1cb4 b435 3aa3 8d37 5d75 7d37 98cf 8c36
00000290: c247 8634 fc6d 1438 a357 d737 4257 f436
000002a0: 0c59 9036 a5d1 7336 6d3d 9535 5aca 6a37
000002b0: c84e 8237 a093 cd35 a82b 2337 b812 2836
000002c0: c77e a737 9d27 8237 9677 c237 7c42 2337
000002d0: 9a80 c235 5e10 a037 0501 8137 0689 6c36
000002e0: 0ee5 3b35 817c 1d38 a638 0238 89bf 3c37
000002f0: 6138 ec36 2965 c936 859d 1036 9d38 b537
00000300: bbd2 b837 0786 0f36 5832 3637 bb55 4936
00000310: 7046 db37 df4f 6537 3bf9 e337 ce41 4637
00000320: cbe2 a435 426c 4a37 60cf f636 0cf4 4035
00000330: 8a8f e235 94bb aa37 9047 af37 dd31 3237
00000340: 25a5 f436 357d cd36 1c76 5136 9df3 a437
00000350: c389 9b37 b3a5 1836 5a2c da36 ffbd 7636
00000360: 03af a837 8cd4 b836 bdbd 8337 8efc f836
00000370: 3129 3d34 4730 8a35 4212 7435 aff4 9734
00000380: 0183 5533 ba6c 1536 847b e335 7519 7335
00000390: 20bd 2a35 8976 ad34 bffa be33 30ca 9e35
000003a0: e235 9f35 550d cb34 4140 3035 9ae4 0835
000003b0: 27a4 b935 a6c6 7d35 52b6 cf35 58f9 2535
000003c0: 8b2e e833 96a0 0d36 5768 3e36 c97d 0736
000003d0: c64e 9b34 a21d cd36 50e7 8436 9823 9d35
000003e0: 1adf 4f35 1e67 6e34 49b6 1c33 5037 b935
000003f0: 18c4 f235 03c1 5a34 1170 8a35 f8ed d334
1.7440557e-07 3.0561341e-06 2.6274033e-06 6.421354e-07 5.1090414e-08 6.286513e-06 4.7250605e-06 1.2960573e-06
7.3289954e-07 7.603488e-07 2.683937e-07 2.7874403e-06 3.0214899e-06 1.4368102e-07 1.759576e-06 2.4256218e-07
3.8035248e-06 2.5269505e-06 4.2311913e-06 1.815249e-06 5.662852e-08 1.0451453e-06 9.668836e-07 3.2863247e-07
6.7394663e-09 2.2820825e-06 1.6961967e-06 5.5622763e-07 3.4035955e-07 2.2816093e-07 4.516985e-08 9.3094866e-07
1.0294973e-06 8.0425075e-08 5.57587e-07 1.3606527e-07 1.3017567e-06 9.352803e-07 1.5503031e-06 6.2706454e-07
9.79764e-07 1.6928112e-05 1.4875332e-05 3.7381424e-06 1.2283807e-07 3.550099e-05 2.5402913e-05 6.0950483e-06
3.3454087e-06 3.4956734e-06 1.1393831e-06 1.32621e-05 1.5104367e-05 4.88815e-07 9.479846e-06 1.2171341e-06
1.973967e-05 1.5201076e-05 2.2421305e-05 9.60785e-06 3.6566072e-07 1.3237984e-06 1.2428376e-06 4.4327462e-07
9.6250126e-08 2.7958756e-06 2.1924316e-06 1.4308799e-06 1.0352053e-06 4.3380987e-07 1.1692849e-07 1.6722399e-06
1.5883652e-06 8.358018e-07 1.0351366e-06 1.0120891e-06 1.7864226e-06 1.3118758e-06 2.221126e-06 8.4879747e-07
1.3366984e-07 2.4272472e-06 2.2777103e-06 7.6756464e-07 2.4174074e-08 5.126139e-06 3.897191e-06 1.1089487e-06
5.3430506e-07 5.11317e-07 1.3179194e-07 2.278775e-06 2.385304e-06 1.201283e-07 1.4490975e-06 2.0298738e-07
2.963756e-06 2.105347e-06 3.9480587e-06 1.5952713e-06 1.2932213e-07 1.0248341e-06 9.360685e-07 2.7628215e-07
3.0120127e-08 2.1341273e-06 1.5669563e-06 5.505344e-07 3.457302e-07 2.297062e-07 7.308998e-08 9.1022656e-07
9.680227e-07 2.0654608e-07 6.483357e-07 2.803478e-07 1.2136052e-06 9.823917e-07 1.4847037e-06 6.0560944e-07
9.017554e-07 8.104644e-06 6.8493373e-06 1.567761e-06 1.7072874e-07 1.6306143e-05 1.1432289e-05 3.0594751e-06
1.902413e-06 1.6926069e-06 6.9577874e-07 5.979028e-06 6.828289e-06 1.0735334e-06 4.9514333e-06 1.530736e-06
9.062662e-06 7.518501e-06 9.826297e-06 4.2606935e-06 8.363558e-08 1.4862898e-06 1.1863972e-06 2.2410609e-07
3.5009045e-08 2.9393789e-06 2.194054e-06 5.140317e-07 2.9938857e-07 3.7554636e-07 1.624088e-07 1.2757264e-06
1.4277333e-06 2.6699947e-08 8.061881e-07 7.0248625e-08 1.8339838e-06 1.1654706e-06 1.7891658e-06 8.121058e-07
1.3463464e-06 1.6884518e-05 1.5107301e-05 4.1964922e-06 2.5011656e-07 3.538838e-05 2.5670806e-05 7.281925e-06
4.301901e-06 3.633185e-06 1.1119242e-06 1.39946005e-05 1.5533893e-05 1.5316655e-06 9.725722e-06 2.5044847e-06
1.9966987e-05 1.5515654e-05 2.3182289e-05 9.731037e-06 1.4491554e-06 1.9081108e-05 1.5378473e-05 3.5246499e-06
6.9996247e-07 3.754767e-05 3.1047173e-05 1.12502685e-05 7.0399115e-06 6.0020434e-06 2.154936e-06 2.1603244e-05
2.2032638e-05 2.1386675e-06 1.0859767e-05 3.0001236e-06 2.6139634e-05 1.366806e-05 2.7176566e-05 1.1817041e-05
1.2284958e-06 1.2065344e-05 7.355513e-06 7.188071e-07 1.6880088e-06 2.0352927e-05 2.089495e-05 1.06212365e-05
7.290992e-06 6.124052e-06 3.1212176e-06 1.9663765e-05 1.854159e-05 2.2746215e-06 6.5020695e-06 3.6767449e-06
2.0108657e-05 5.508371e-06 1.570477e-05 7.420377e-06 1.7616982e-07 1.0295852e-06 9.092365e-07 2.8303972e-07
4.9712074e-08 2.2266017e-06 1.6948766e-06 9.05616e-07 6.360515e-07 3.2310007e-07 8.893175e-08 1.1830762e-06
1.1862105e-06 3.7821397e-07 6.565861e-07 5.0996607e-07 1.3831349e-06 9.4538916e-07 1.5475764e-06 6.183013e-07
1.0811808e-07 2.110411e-06 2.837294e-06 2.0189784e-06 2.8928315e-07 6.112926e-06 3.960835e-06 1.1707771e-06
7.7438165e-07 2.2202991e-07 3.6487368e-08 1.3799672e-06 1.8087476e-06 2.037305e-07 1.0314417e-06 3.9474958e-07

exp_avg f4 [20]
00000000: a62e c1b6 de6f 74b7 9b63 0a38 7212 54b7
00000010: 10e7 e4b6 bb27 33b7 93a4 6036 bfc5 5bb7
00000020: dc55 0438 be7d d838 0c95 74b9 61d6 32b7
00000030: 7b9e deb8 d7a8 1b37 c357 aeb8 261e 65b8
00000040: ef4a e2b7 3edf 8b38 5e4d d736 1a65 eb37
-5.757279e-06 -1.4569579e-05 3.299453e-05 -1.2640479e-05 -6.8218287e-06 -1.0678482e-05 3.3474396e-06 -1.3099459e-05
3.1551215e-05 0.00010323104 -0.00023325178 -1.0659541e-05 -0.00010615304 9.278031e-06 -8.3133134e-05 -5.4625933e-05
-2.6976193e-05 6.6696186e-05 6.416506e-06 2.8061262e-05

exp_avg_sq f4 [20]
00000000: 2d03 3535 034b cf34 15ee fb35 27be 6036
00000010: f733 ef34 7cd6 5735 6008 7e36 a7b9 0134
00000020: f6f1 d936 7ee3 2c37 8050 8237 3125 ea35
00000030: 60ba af35 e37c 8035 6ce9 9c35 109d c534
00000040: 3ab9 b436 ab94 8c35 6059 e035 9033 9534
6.7432376e-07 3.8611333e-07 1.8770248e-06 3.3489284e-06 4.4555028e-07 8.040586e-07 3.7853824e-06 1.2081601e-07
6.495272e-06 1.0304966e-05 1.5534693e-05 1.7445183e-06 1.3092758e-06 9.57309e-07 1.169084e-06 3.6808387e-07
5.3859812e-06 1.0474081e-06 1.6715312e-06 2.779093e-07

exp_avg f4 [1, 20]
00000000: b0b9 bf37 1c14 0e39 29a5 a4b5 ff19 8c38
00000010: 2d60 d838 613a 59b9 8ece 85b9 b8d8 3eb9
00000020: d634 3db9 a384 f138 59e8 6cba d8cd 41b9
00000030: 0f4b 5fba 581f fdb8 0ccf 21ba 60f5 e2b9
00000040: b478 c938 e6a3 fd39 9e91 1eb9 c0e8 b1b8
2.2855442e-05 0.00013549667 -1.226702e-06 6.6805624e-05 0.00010317597 -0.0002071648 -0.00025521632 -0.00018200546
-0.00018044128 0.00011516481 -0.0009037308 -0.00018482597 -0.00085179595 -0.00012069818 -0.0006172515 -0.00043288898
9.6069096e-05 0.00048378034 -0.00015122301 -8.483371e-05

exp_avg_sq f4 [1, 20]
00000000: 3b46 ff37 3741 1a39 dce1 d136 5ed7 ef37
00000010: 2471 a837 036c c438 b0f6 1838 2242 a538
00000020: fd70 2138 58d5 9a38 b717 1c3a 8b4f f238
00000030: 0247 9e3a 0d0f a337 9797 873a 724e 9839
00000040: 7252 0439 b885 fb39 8124 f037 50ff be38
3.0431072e-05 0.00014710879 6.254979e-06 2.8591308e-05 2.0079846e-05 9.366127e-05 3.646937e-05 7.880131e-05
3.849062e-05 7.3830306e-05 0.00059544615 0.00011554275 0.0012075605 1.9438123e-05 0.001034486 0.00029050146
0.00012619214 0.0004797408 2.8627228e-05 9.107462e-05
