ciao/lightning_logs/version_4/checkpoints/epoch=999-step=1000.ckpt (torch, 10906 bytes, 15 tensors)

_neural_net._model.model.0.weight f4 [10, 1]
000000 5e 85 9c 3e fb d0 a9 3d 3a 3f 8b 3d 6a 55 4b 3e
       0.305705 0.08291813 0.06799169 0.19856802
000010 44 df 91 3e 1b c3 4d 3f 85 81 9f 3e 40 02 1a be
       0.2849065 0.8037583 0.31153503 -0.15039921
000020 e6 40 f3 be 85 96 94 3f
       -0.4751045 1.1608435

_neural_net._model.model.0.bias f4 [10]
000000 77 61 0c 3e 88 2b 9b 3f f1 77 b0 bf 68 ee 97 bf
       0.13709055 1.212266 -1.3786603 -1.1869631
000010 af 30 04 3f 0f b1 33 bf 88 f3 6e 3e 8a d1 c7 be
       0.51636785 -0.70192045 0.23335087 -0.39027053
000020 7d 4f 04 3e 51 20 ab bf
       0.12920947 -1.3369237

_neural_net._model.model.2.weight f4 [10, 10]
000000 d1 24 1d be 4f a8 84 be 0e 88 18 be c8 6a a1 3e
       -0.15346076 -0.2590966 -0.1489565 0.3152678
000010 17 13 b8 bd 91 d2 bc be 45 3f 12 3e 6d fb 2c 3e
       -0.08988016 -0.368794 0.14281948 0.16892786
000020 e4 66 1b 3e ff ff 97 be cd b0 0d be 96 43 0e bd
       0.15175968 -0.29687497 -0.13836975 -0.034732424
000030 43 43 c7 3e d6 3a ac 3e 2c 7a 3b 3d 76 97 d4 3d
       0.38918504 0.33638638 0.04577081 0.103804514
000040 2f 50 4f bd 78 7a 8e 3e 51 96 b2 3e 67 24 81 be
       -0.05061358 0.2782781 0.34880307 -0.25223085
000050 5f 97 55 be bf 71 ad be 6d 1b 28 3e cf 64 6d 3e
       -0.20858525 -0.33875844 0.16416712 0.23182987
000060 db 88 f3 be 3a aa db be 72 70 9b 3d 39 d7 fc 3d
       -0.4756535 -0.4290331 0.075898066 0.12345738
000070 a7 69 4f 3d e0 1d 6b 3e 5b 4e 5e 3d dd 2b 39 3e
       0.050637867 0.22960615 0.054273944 0.18083139
000080 12 ff de be 4e 6b e0 be b3 9d 4f 3d e7 1e b9 3e
       -0.43553978 -0.43831867 0.050687503 0.3615639
000090 11 23 b5 bd a0 e5 c6 bd 2b 34 f8 be 73 8b 56 bd
       -0.08844579 -0.09711766 -0.484773 -0.052379083
0000a0 ed 81 05 bf 2c 74 ef 3d 6b 03 7a be bb 04 0f 3e
       -0.52151376 0.1169208 -0.24415366 0.13966648
0000b0 96 cd cb 3d 11 be fd be 53 be 33 3d 1b e3 d9 3d
       0.09951322 -0.49559072 0.04388268 0.1063902
0000c0 c1 5e fc 3e f3 1e f3 be 9d c8 ae 3e c7 48 ae 3e
       0.49291041 -0.4748455 0.3413743 0.340399
0000d0 54 34 04 bf 7f 02 6c be d0 fb 3f bd 35 f4 25 3e
       -0.51642346 -0.23047827 -0.046871006 0.16206439
0000e0 05 91 49 3e 72 51 dc be cd b7 a6 be e4 09 04 be
       0.19684227 -0.43030888 -0.32562104 -0.12894398
0000f0 e9 35 27 3e c0 41 9c 3e f9 25 ce be ad 35 3d 3e
       0.16329159 0.30518913 -0.40263346 0.18477507
000100 ca 11 e5 3e 63 65 f0 bc 11 bc bd bd 99 7a 15 be
       0.44740134 -0.02934522 -0.092643864 -0.14597549
000110 2e 3e dc be 8a 5e 61 3d 2d 1a 72 be 3c 77 d6 3d
       -0.4301619 0.0550218 -0.23642798 0.10471961
000120 3b 8a 80 be 4d 5e 28 be 98 ad 84 bd 09 3e 8f bf
       -0.2510546 -0.16442223 -0.06478423 -1.1190807
000130 91 23 a1 be 2e 4c 9a bd b4 02 51 3f 8b f7 e6 be
       -0.31472448 -0.07534061 0.8164475 -0.45110735
000140 fe 6d 98 be f0 6f 64 bd 27 f3 31 3e b8 29 9f 3e
       -0.29771417 -0.055770814 0.17377912 0.31086516
000150 f7 88 b1 3d 42 80 52 be ba ff bf be 33 43 9f 3e
       0.08668702 -0.20556739 -0.3749979 0.31105956
000160 0d d2 95 bd 4d 0c 60 be 01 12 01 3e e3 13 aa 3d
       -0.07315455 -0.21879692 0.12604524 0.08304574
000170 8c 55 c1 3e 91 4d 87 bc a2 d1 bf be ab ea 28 3d
       0.3776058 -0.016516479 -0.37464625 0.04123942
000180 78 72 bf be b2 29 e6 3e 68 f3 cb 3e 24 55 c7 be
       -0.3739202 0.44953686 0.39834142 -0.38932145

_neural_net._model.model.2.bias f4 [10]
000000 b5 4c 14 be bd c1 c6 be 59 50 28 be ac 21 07 3d
       -0.14482386 -0.38819686 -0.164369 0.032991096
000010 65 68 4b bc 0e 13 ca 3e ac 06 b9 3e b7 b6 bf 3e
       -0.012415026 0.39467663 0.36137903 0.37444088
000020 a3 ba 10 be 10 a6 e6 bd
       -0.14133696 -0.11262143

_neural_net._model.model.4.weight f4 [1, 10]
000000 bb 67 9b be 74 34 0b bf 74 ee ec be 1e 1c 04 3f
       -0.30352578 -0.5437691 -0.46275675 0.51605403
000010 1d aa e0 be 21 39 79 3e 03 02 e5 3e 7a 32 42 bf
       -0.43879786 0.24338199 0.44728097 -0.7585827
000020 28 8c 33 bf 0c da df be
       -0.70135736 -0.43721044

exp_avg f4 [10, 1]
000000 70 94 71 ba f7 ca 47 b9 0b 80 3c 39 75 79 24 3a
       -0.00092155393 -0.00019053729 0.00017976777 0.0006274202
000010 d3 51 c0 b9 0a c9 cb b9 7a b7 fc b9 70 49 8c 3a
       -0.00036682058 -0.00038868963 -0.00048201886 0.0010703038
000020 ed 20 6e 3a 96 e9 b5 ba
       0.0009083886 -0.0013878818

exp_avg_sq f4 [10, 1]
000000 ae 95 6b 38 06 be 3c 37 0f d6 d7 36 ac c6 80 3a
       5.6167766e-05 1.12499165e-05 6.432419e-06 0.0009824834
000010 10 17 7f 37 e9 8d 99 38 32 ed c5 37 bd 3f 95 38
       1.5204554e-05 7.322041e-05 2.3594683e-05 7.116746e-05
000020 e4 c0 90 38 cc a5 00 3a
       6.902384e-05 0.0004907518

exp_avg f4 [10]
000000 0b 0e 09 3a bf cc 79 b9 bd e1 c8 39 2d d9 1b 3a
       0.0005228228 -0.00023822764 0.0003831516 0.00059451425
000010 96 f6 53 b8 b8 1c ca 3b 86 6f 62 3a 11 d4 4f 3a
       -5.053597e-05 0.0061679743 0.0008637834 0.00079280237
000020 d4 e8 54 bb 78 22 2d 3b
       -0.003248741 0.002641825

exp_avg_sq f4 [10]
000000 b6 82 be 39 ba 8f 49 37 d4 a9 03 38 58 49 50 3a
       0.0003633701 1.2013998e-05 3.1391e-05 0.00079454994
000010 79 15 b3 38 6e 63 95 3a 6a 26 0c 3a f4 0b 84 39
       8.539385e-05 0.001139743 0.00053463003 0.00025185908
000020 85 cc d3 39 a9 10 eb 38
       0.00040397435 0.000112087764

exp_avg f4 [10, 10]
000000 3d e8 bb 39 0c 66 08 3a 01 45 04 ba f0 ad d4 b9
       0.0003584045 0.00052031945 -0.0005045683 -0.00040565385
000010 45 b2 f1 39 2d ef c9 39 ad fe cf 39 9d e9 b3 b9
       0.00046099923 0.00038515907 0.00039671865 -0.00034315596
000020 55 12 cb b9 da 7a 98 39 b7 2a a2 39 09 6e ee 39
       -0.00038732836 0.0002908323 0.00030930873 0.0004547688
000030 1b 5b e7 b9 3e 6d b9 b9 0b a0 d0 39 c1 ce c5 39
       -0.00044127632 -0.00035367341 0.00039792093 0.00037728812
000040 b1 2d b3 39 38 81 9c b9 2f 2c b0 b9 92 71 b9 39
       0.00034175583 -0.00029850914 -0.00033602255 0.00035370566
000050 7a a6 a5 39 4b 86 f4 39 9e 55 ed b9 4f 43 be b9
       0.00031595287 0.00046639363 -0.00045267952 -0.00036289773
000060 1e 6e d5 39 2f a7 d2 39 65 0a b7 39 ae 4b a0 b9
       0.0004070857 0.00040178883 0.00034912225 -0.00030573964
000070 bd 8c b3 b9 10 ec db 39 64 f3 b8 b9 ad ef 00 ba
       -0.000342464 0.00041946815 -0.00035276555 -0.0004918527
000080 a8 a5 f8 39 97 e7 c3 39 b1 49 e6 b9 4d 86 02 ba
       0.0004742567 0.00037365846 -0.00043923923 -0.0004979119
000090 3e 23 ca b9 ed 2b ad 39 95 50 d1 39 ef 5f 02 ba
       -0.000385547 0.0003302986 0.00039923625 -0.00049734017
0000a0 46 00 c3 38 cc a6 e8 b7 59 7b 59 38 0c 1a e0 38
       9.2983755e-05 -2.7734226e-05 5.1851708e-05 0.00010686004
0000b0 d9 c9 ee 37 c1 4d 96 39 53 1f 99 38 ea 58 1c b8
       2.8465804e-05 0.0002866816 7.301443e-05 -3.7276106e-05
0000c0 00 a3 14 b9 99 b3 71 3a fe 74 4c b8 3b 9d a3 b8
       -0.00014175102 0.00092201825 -4.8746348e-05 -7.801732e-05
0000d0 f9 fe 9f 38 4d a4 81 38 07 7f 88 b8 95 fa 80 b8
       7.629203e-05 6.181803e-05 -6.508646e-05 -6.15019e-05
0000e0 12 e9 63 b8 49 96 4f 38 96 49 56 38 93 35 8a b8
       -5.433808e-05 4.949261e-05 5.1090108e-05 -6.590332e-05
0000f0 2b 4b 68 b9 59 09 b0 b9 f9 41 ab 39 fe 86 89 39
       -0.00022153246 -0.000335763 0.00032664815 0.00026231253
000100 fc 13 97 b9 8b 0c 94 b9 40 92 80 b9 02 4e 64 39
       -0.00028815854 -0.00028238105 -0.00024523027 0.00021772835
000110 a2 2f 7a 39 c2 82 96 b9 39 50 98 39 a8 c0 06 bb
       0.00023859603 -0.00028707652 0.0002905147 -0.002056161
000120 f0 d4 15 3b ac bd 1f 3b be 86 63 ba 48 2b 88 3b
       0.0022862516 0.0024374528 -0.0008679441 0.00415555
000130 2a 83 01 b8 48 b4 23 3a d0 79 b2 ba 68 e2 01 3c
       -3.0878153e-05 0.00062448205 -0.0013616625 0.007927515
000140 a9 c7 1f 3a 89 97 60 3a 5d e4 58 ba a5 15 2c ba
       0.00060951203 0.00085675024 -0.0008273775 -0.00065645046
000150 5f c0 48 3a fb 9f 4c 3a 42 56 2f 3a d3 33 16 ba
       0.000765806 0.00078058214 0.00066885736 -0.00057297683
000160 d0 8f 32 ba b4 22 35 3a 96 00 86 39 71 20 b3 39
       -0.0006811591 0.0006909773 0.00025558908 0.0003416571
000170 66 03 ac b9 0b 56 86 b9 5c f1 a2 39 6e 3a c0 39
       -0.00032808929 -0.0002562258 0.00031078875 0.00036664627
000180 82 87 91 39 00 74 74 b9 02 62 9d b9 e7 cf 8d 39
       0.00027757516 -0.00023312867 -0.00030018395 0.00027048515

exp_avg_sq f4 [10, 10]
000000 b2 a4 95 37 b4 cd 37 39 5a 04 6d 39 a9 7b 6c 39
       1.7838876e-05 0.0001752887 0.00022603702 0.00022552781
000010 90 20 81 38 05 dc 0e 37 55 8f 57 38 67 82 6b 37
       6.1572646e-05 8.515087e-06 5.1393483e-05 1.4037453e-05
000020 cd 71 19 37 78 3d 17 39 fb b0 10 39 cc 76 b5 3a
       9.146007e-06 0.00014423381 0.0001379884 0.0013844608
000030 16 aa ec 3a 50 5a ea 3a 0a 1e f9 39 1a 31 6a 38
       0.0018056061 0.0017879698 0.00047515362 5.5835677e-05
000040 44 d3 d6 39 4c b5 de 38 f7 27 88 38 4e c6 86 3a
       0.00040974666 0.00010619554 6.4924294e-05 0.0010282488
000050 67 3c 41 39 f3 a5 9a 3a be 03 cd 3a 84 04 b9 3a
       0.00018428416 0.0011798724 0.0015641374 0.0014115726
000060 84 e9 cf 39 d3 d5 24 39 b1 61 f1 39 32 a8 b7 38
       0.000396561 0.00015719915 0.00046039888 8.757449e-05
000070 a6 03 01 39 7a 2b 58 3a ee 86 a2 38 72 99 14 3a
       0.00012303758 0.00082462246 7.7498946e-05 0.0005668617
000080 a6 80 43 3a 2f f0 32 3a 72 8b 44 39 ed 3f 8c 38
       0.000745783 0.0006825951 0.00018743964 6.687627e-05
000090 78 24 4a 39 7b 54 3a 38 f5 28 51 38 56 d1 cf 39
       0.00019277807 4.4424534e-05 4.9867627e-05 0.00039638084
0000a0 2d 1c 12 39 8e c8 8d 3a d5 25 ba 3a 22 45 b9 3a
       0.00013934141 0.0010817216 0.0014201949 0.0014134983
0000b0 f8 d4 c2 39 a2 04 22 39 c2 5a ba 39 b1 62 ac 38
       0.00037161238 0.0001545125 0.00035544304 8.219982e-05
0000c0 bb 89 bd 38 14 9b a7 3a 52 31 29 36 dc fe ac 37
       9.0378766e-05 0.0012787306 2.521167e-06 2.0622676e-05
0000d0 4a a6 e3 37 2b c9 c7 37 77 9b de 36 9f 89 c8 35
       2.7137943e-05 2.3816325e-05 6.634214e-06 1.4941214e-06
0000e0 a3 9e d6 36 92 74 e1 35 fe b2 b9 35 a5 35 49 37
       6.3961647e-06 1.6797733e-06 1.3835668e-06 1.1993024e-05
0000f0 cc 66 00 38 5e 21 70 39 8e 22 9e 39 a2 0b 93 39
       3.0613315e-05 0.00022900614 0.00030161854 0.00028046692
000100 6f ec 9c 38 2c a2 e7 37 ae 48 9f 38 e5 c2 99 37
       7.482699e-05 2.7612863e-05 7.5952485e-05 1.8329776e-05
000110 45 95 a7 37 15 74 33 39 7c fe 58 38 8b b9 12 3a
       1.997746e-05 0.00017114014 5.173542e-05 0.0005597106
000120 35 65 40 3a 96 62 54 3a aa 4b 3d 39 ec b5 b4 39
       0.00073393 0.00081018487 0.00018052632 0.00034467818
000130 f0 2b 1b 39 1a 18 36 38 f9 d4 52 38 0e 49 f4 3a
       0.0001479832 4.3414628e-05 5.0266248e-05 0.0018637495
000140 04 7b 02 39 91 f0 90 3a 48 f5 bd 3a 50 75 b7 3a
       0.00012443593 0.0011058023 0.0014492655 0.0013996754
000150 df 95 c1 39 7d 63 ba 38 81 42 ae 39 ce 84 b5 38
       0.0003692349 8.887702e-05 0.00033237415 8.6554894e-05
000160 b3 d7 97 38 c9 4b 62 3a 16 65 9e 36 c5 a7 52 38
       7.240418e-05 0.00086325087 4.720535e-06 5.022415e-05
000170 58 0c 84 38 42 c3 80 38 e0 8a 94 37 6d e0 0f 36
       6.29655e-05 6.139885e-05 1.7707644e-05 2.1439294e-06
000180 01 9f 65 37 61 65 9d 36 9a 18 18 36 90 a4 28 38
       1.3686485e-05 4.6907667e-06 2.2664085e-06 4.0207582e-05

exp_avg f4 [10]
000000 72 a3 1b 3a cf 21 08 3a 35 a3 0b 3a c4 c2 12 ba
       0.0005937136 0.0005193026 0.0005326749 -0.00055984803
000010 7d 17 3f b8 bc bc bb b8 62 5f c9 b9 4e 9c 25 bb
       -4.5559824e-05 -8.9520094e-05 -0.00038408773 -0.0025270167
000020 c6 c7 7f 3a ec 6e cb 39
       0.00097572466 0.0003880182

exp_avg_sq f4 [10]
000000 ad b5 d7 39 ea 4f 57 3b 14 82 35 3b 30 95 ac 3a
       0.00041143355 0.003285403 0.002769594 0.001316702
000010 e4 63 28 3b e3 3d 47 38 a3 8e 0b 3a af 20 aa 3a
       0.0025694305 4.7502934e-05 0.0005323684 0.0012979711
000020 9d 82 2a 3b b4 35 eb 38
       0.0026017793 0.00011215676

exp_avg f4 [1, 10]
000000 f8 b8 9a 3b fe 9c aa 3b 1f f6 a6 3b 8f 60 a8 bb
       0.004721757 0.005206703 0.005095258 -0.005138464
000010 f1 b2 8e 3b dd d8 b4 bb ee 1d ac bb 2c 6e f9 3b
       0.0043548276 -0.005519016 -0.0052525913 0.0076120105
000020 7c 23 a3 3b 90 82 ab 3b
       0.0049785953 0.00523407

exp_avg_sq f4 [1, 10]
000000 f7 9c f5 3a 2b 2a 77 3c 49 5a 08 3c 5f 76 1c 3b
       0.0018738796 0.015085737 0.008322307 0.0023874266
000010 32 e4 c1 3b 9e 9b 88 3c ee 0f 8f 3b 5a 22 f0 3a
       0.0059170956 0.016675767 0.0043659126 0.0018320784
000020 81 43 eb 3a 51 23 e2 39
       0.0017949195 0.00043132392
