lightning_logs/version_1/checkpoints/epoch=4-step=5.ckpt (torch, 15514 bytes, 15 tensors)

_neural_net._model.model.0.weight f4 [20, 2]
00000000: be32 a4be 9b8e d33e 22fb fe3d 6215 073f
00000010: 01ac eb3d 3e51 173f fee2 debe 224b 993e
00000020: ae90 733d a25f eebe bbbd 1bbf 1e73 0c3f
00000030: 89af 9bbe a74e 2c3c 301b 073f 8b9a fdbe
00000040: b03b 9a3e 2b85 be3e b9ee d3be db80 e13d
00000050: f8c1 ff3d 6b86 17bf f68d 2f3f 4adc 1c3e
00000060: 881e df3e 958a 03be 06c9 503b 0995 26bf
00000070: 8a1c e03e 046e 943d 04cd 923e e149 263f
00000080: 5a99 5e3e 2a10 77be 22ad ed3e f4c4 233f
00000090: 37b1 ebbe b189 16bf 14a5 003e c24d 763c
-0.32069963 0.41319737 0.124502435 0.52767 0.115074165 0.5910834 -0.43532556 0.29940134
0.05946415 -0.46557337 -0.6083638 0.54863155 -0.3040736 0.010516799 0.5277586 -0.4953197
0.30123663 0.37210974 -0.41393068 0.11010905 0.124881685 -0.5918948 0.6857599 0.15318409
0.4357798 -0.12845834 0.00318581 -0.6507116 0.43771774 0.07247546 0.2867204 0.6495648
0.21738186 -0.2412726 0.46421152 0.639724 -0.46033642 -0.5880385 0.12562972 0.015033187

_neural_net._model.model.0.bias f4 [20]
00000000: 80f2 00bf 1398 f03e fef0 2cbf 81ce 13be
00000010: 6ae8 063f 1a46 ea3e efb9 8dbc 52a1 373e
00000020: 7e85 1bbd 5703 09bf cd95 103e b9a7 adbd
00000030: 357b 51ba f836 a43e 5965 eb3e 9987 0e3f
00000040: ee7e d23e fa63 803d 7f49 3dbe bab6 efbe
-0.50370026 0.46991023 -0.67555225 -0.14434244 0.52698386 0.45756608 -0.017300574 0.17932633
-0.037969105 -0.5352072 0.14119644 -0.08479256 -0.00079910766 0.32073188 0.4597576 0.55675656
0.41112465 0.06269069 -0.18485068 -0.46819097

_neural_net._model.model.2.weight f4 [20, 20]
00000000: 9bd6 b93d 2d5e 4f3e bc35 893d e16a 45be
00000010: 694f 38be c20d 02be afd2 103d f3e5 e43d
00000020: 4c3a 523e 407c fc3d 7ed6 363e 6cc0 83bd
00000030: 1e42 0e3e 3a2f 95bd 8af0 4cbe 967f 263e
00000040: ecb4 58be 18c6 273e 823d b93c b3c4 8cbd
00000050: 871f c23d e337 523e a31e 0b3e 9489 273e
00000060: f3c9 42bc 6604 573e 3b95 52be db77 20be
00000070: 18f8 f83d 32ac 103e 5d38 133e f037 4c3e
00000080: ae7a 4c3e 8e58 09be d1e8 3dbd b8b7 5d3d
00000090: b02c 343e 2f73 13bd e155 623e 0269 a1bd
000000a0: 24ce 403e d223 2abe c05c 5bbe cc84 fb3c
000000b0: f22b 2dbe 26e2 d0bd 47d4 b83d 4e0f e93d
000000c0: 65be 963d 7527 383e 93a4 1ebe 4db8 11bd
000000d0: 71cc 273e 1af9 1f3e 1f89 ca3d 2ae6 883c
000000e0: c689 5abd c430 aa3d 17d0 303e d31f 00be
000000f0: 609b 50bd 2b1b 5ebe d4af e43d a4bb 93ba
00000100: 2ab8 07be b0c3 353e 491e 1bbd 6a5c e23c
00000110: 22d1 1abe 0f5d 47be 8337 833d 8012 eb3d
00000120: 6647 843d 991e 793d 063d 573e 26df c0bd
00000130: 38ea 03bc e83a 1f3e 86d9 9f3d 0418 c4bd
00000140: 8d8d 313e fb5f 22be cfd6 4dbe 57c5 3a3e
00000150: 846c 9f3c c662 ccbd a3b9 2fbe 62b7 553e
00000160: 6643 3ebe b762 183c a388 44be 2189 d0bc
00000170: 2153 49be 75ca 87bd e14e 4dbe ab35 cf3d
00000180: 0323 54be 0763 00be eece 5dbe afce 9cbd
00000190: 4295 143e 6418 843d 9ed2 adbd aa9a d33d
000001a0: 79a3 5c3e 5932 14be e265 4dbe 045d c3bc
000001b0: 7009 793d 9ca4 103e ffd1 ecbd b758 23be
000001c0: 459f 34be 9879 40be 139d bc3d cc24 c33d
000001d0: c1ba 30bd 5a08 ec3d dd40 493e 9710 adbd
000001e0: 9786 32bd 1b47 203e 0f65 3dbc f752 d03b
000001f0: ed19 1e3e 4e12 cb3d 150e 473e 1962 593e
00000200: 6162 69be b7e5 b9bd a0d8 153e 1ce4 8cbc
00000210: 32b2 d9bc 4d19 153d a3be 663d a780 413e
00000220: ae0b b03d e73f 0fbd 2de4 013e 32bc 21bd
00000230: 3a07 1d3d ec23 efbd d01f 49be 06ba d6bd
00000240: 4aa0 5c3e 1d73 08bc efd3 bf3d 20ef aabd
00000250: 97d3 5bbe 7040 91bd f83d f2bd 7e0d b5bc
00000260: 7d8c 08be 1da1 05be cb51 1b3e ee82 013e
00000270: 353b 59be 3393 15be fdc4 153e f0a0 d03d
00000280: 2f7e 6e3d 9cfe 233d d565 31bd 99f1 13bc
00000290: 92ba edbd ba21 3d3d 8001 99bd fd99 06be
000002a0: 7497 813d 55d9 2d3e cb51 6e3d 7634 743d
000002b0: d87f 653d 5320 19be 1985 4e3e f7ec b4bd
000002c0: 31c4 4f3e 32ad d43d 220e 023e 9d60 03bd
000002d0: 9277 873c 018d 16be 0e98 5cbe 3c98 283e
000002e0: 2100 3f3d a825 0d3e bb0a dcbd 6a05 573e
000002f0: b14f 5bbe e9c5 bf3d c58f 61bd 0a30 1fbd
00000300: b6c9 4cbe 75fd 073e dc51 83b9 604f 07be
00000310: 21ea aabc 257d 18be 4b46 053d e3bc 373e
00000320: b933 083e f098 3c3e 9787 c73d 1a7d 4cbe
00000330: 1140 38bd 6f35 f5bc 4b6f 3bbe b2e5 ebbd
00000340: de08 0f3e 6fcb 2cbe 8864 cd3c 9bff df3d
00000350: b159 6e3d aea9 1b3e 63f3 2cbe 4dff d7bc
00000360: 8a5c 16be 44a6 50be a1d0 dcbd 3ea0 e03d
00000370: fd31 133d 8f54 66bc e0eb c5bc e696 613e
00000380: e150 dbbb 068c 16be 8cc8 e33d 7b0c 13be
00000390: be6d d8bd 9c22 053d 8242 8dbd 5594 4bbe
000003a0: 020f 4d3e a67c 25bd 66fa 1abe 130b a33d
000003b0: 12d2 103e 3be2 293e 5e76 173e 7333 0cbe
000003c0: de6b 72bb 3b54 4e3e 5569 2e3e 2c3e cfbd
000003d0: b84a 14bd e7b2 d33d 1e28 55be 592a 023e
000003e0: 393a 1f3e f4c7 55bd 3116 433d f7d6 5abd
000003f0: 2300 103e 2a46 693e 39c4 383d a995 63be
0.09074136 0.20250769 0.06699702 -0.19279052 -0.17999043 -0.1270056 0.035357174 0.11176672
0.20530051 0.12328386 0.1785526 -0.06433186 0.13892409 -0.072843984 -0.20013633 0.16259608
-0.21162766 0.1638416 0.022612337 -0.06873455 0.094786696 0.20529132 0.13585906 0.16361076
-0.011888969 0.20997772 -0.2056474 -0.15670721 0.12156695 0.14128187 0.1437697 0.19943213
0.19968674 -0.13412687 -0.04636461 0.054130286 0.17595172 -0.03599852 0.22103073 -0.07881357
0.18828636 -0.16615227 -0.214221 0.03070297 -0.16911295 -0.101993844 0.09024864 0.11379872
0.073605336 0.17983802 -0.15492468 -0.035576154 0.16386582 0.15622368 0.09889435 0.016711313
-0.053354047 0.083100826 0.1726688 -0.1251214 -0.050929427 -0.21690051 0.11166349 -0.0011271131
-0.13253847 0.1775043 -0.03787068 0.027631957 -0.1511884 -0.19469093 0.064070724 0.11478138
0.06458931 0.060820196 0.21019372 -0.09417562 -0.008051448 0.15549815 0.07805161 -0.09574893
0.17339154 -0.15856926 -0.20101474 0.18239342 0.019460924 -0.09979777 -0.17160659 0.20870736
-0.18580398 0.009300879 -0.19192748 -0.025456013 -0.19660617 -0.066304125 -0.20049621 0.10117658
-0.20716481 -0.12537776 -0.21660969 -0.07656609 0.14510062 0.06449965 -0.08487438 0.10332234
0.21546735 -0.14472331 -0.20058396 -0.023848064 0.060800016 0.14125293 -0.11563491 -0.15951811
-0.17638882 -0.18796384 0.09209647 0.09528503 -0.043146852 0.115250304 0.1965365 -0.0845043
-0.043585386 0.15652125 -0.011559739 0.0063575464 0.15439577 0.09915601 0.19438966 0.21228828
-0.22791435 -0.09077018 0.14633417 -0.017198615 -0.026574228 0.03640108 0.05633415 0.18896733
0.08595978 -0.03497305 0.12684698 -0.039486118 0.03833697 -0.116767734 -0.19641042 -0.104847
0.2154552 -0.008328226 0.09366595 -0.08346391 -0.21467434 -0.070923686 -0.11828226 -0.02210116
-0.13334842 -0.13049741 0.1516792 0.12647602 -0.21213992 -0.14606933 0.14625926 0.101869464
0.058225807 0.040037736 -0.043310005 -0.009029769 -0.11607851 0.046174742 -0.07470989 -0.1314468
0.063277155 0.16977437 0.058183473 0.059620343 0.056030124 -0.14953737 0.2016796 -0.0883426
0.20289685 0.10384597 0.12700704 -0.03207456 0.016536508 -0.14702226 -0.2154238 0.16464323
0.046630982 0.13783896 -0.10744234 0.20998159 -0.21417119 0.0936392 -0.05506875 -0.038864173
-0.19998822 0.1328028 -0.00025047257 -0.13213873 -0.020863594 -0.14891489 0.03253774 0.17943148
0.1330098 0.18417716 0.097426586 -0.19969597 -0.044982973 -0.029932706 -0.18304174 -0.1151842
0.13968226 -0.16874479 0.025072351 0.10937425 0.058191005 0.15201446 -0.1688972 -0.026366854
-0.14683738 -0.20375925 -0.1078198 0.10968064 0.035936344 -0.014058246 -0.024160326 0.2203022
-0.006692991 -0.14701852 0.11122236 -0.1436023 -0.10567807 0.03250371 -0.06897451 -0.19880803
0.20025256 -0.040402077 -0.15134582 0.079610966 0.14142635 0.16590206 0.14791247 -0.13691501
-0.0036990563 0.20149319 0.17032368 -0.1011928 -0.03620407 0.10336857 -0.20816085 0.12711467
0.15549554 -0.052192643 0.047628585 -0.053427663 0.14062552 0.22780672 0.045109008 -0.2222506

_neural_net._model.model.2.bias f4 [20]
00000000: 8a46 43be 1015 013d dc62 c73d 5514 2c3d
00000010: 4e0f 1ebe 4418 3abe 2929 11be 64b0 30be
00000020: 0a75 593e 4a2a 413e b8a2 9e3b 7273 0abe
00000030: 6f90 d63d ceb0 d13b 8b21 613e f38a cdbd
00000040: f99e 333d 7ed5 853c 3f5f 4b3e 4a13 0e3e
-0.19069877 0.031514227 0.09735653 0.042011578 -0.15435526 -0.18173319 -0.14175858 -0.17254788
0.21236053 0.18863788 0.004841175 -0.13520601 0.10476767 0.0063992506 0.21985452 -0.10036268
0.04385278 0.016337153 0.19860552 0.13874546

_neural_net._model.model.4.weight f4 [1, 20]
00000000: 9f55 5cbe 7a45 92bd b9ad 87bc 6da9 2d3e
00000010: 7a07 f4bd 1090 123d 804d 26be f489 66be
00000020: d061 ef3d 75e4 52bc 849b adbd ef2a 59bd
00000030: 33f1 babd 1de3 21bd d812 c13d dc27 1dbe
00000040: ea5b 08bc 2a2b 37be b23d 2c3e ac23 1b3e
-0.21517037 -0.07142158 -0.01656233 0.16959162 -0.119154885 0.03578192 -0.16240501 -0.22513562
0.11688578 -0.012871851 -0.08476928 -0.05301946 -0.09128036 -0.039523233 0.09427422 -0.15347236
-0.008322695 -0.1788756 0.1682041 0.15150326

exp_avg f4 [20, 2]
00000000: ccb7 0d3d c267 a23d 8c9b 383d 5ad0 493d
00000010: f1db c2bd a2f6 32be c2a4 bfbc a31d 53bd
00000020: 529a 763d 9ce8 e53d 6575 bdbb 7789 82bb
00000030: d32e debc 8895 47bd baaf 923d 61f5 1b3e
00000040: a969 163c 769b 783c 036b 8cbb 451d b5bc
00000050: b234 67bc ad32 94bc f4bc f1bc 967a 8fbd
00000060: 64b6 803c 3294 b03c a514 d5bc 0564 10bd
00000070: 1b4c 80bc beb5 fdbc d7a4 5f3d 7948 703d
00000080: e7fb 2fbd e5bc aabd f2a9 97bc 0722 e3bc
00000090: a6ef 5dbc f311 bbbc 8c84 d13b ba80 803c
0.03459911 0.079299465 0.045070216 0.049270965 -0.09514607 -0.17476895 -0.023393992 -0.051541936
0.060205765 0.11226007 -0.005781817 -0.0039836722 -0.027121937 -0.04872659 0.071624234 0.15230323
0.009180465 0.0151737835 -0.0042852177 -0.022108683 -0.014111685 -0.01809057 -0.029509045 -0.07005803
0.01571197 0.02155504 -0.02601082 -0.035251636 -0.01566129 -0.03097045 0.054600563 0.058662865
-0.042964842 -0.0833681 -0.018513653 -0.027726186 -0.013545906 -0.022835707 0.0063939746 0.015686382

exp_avg_sq f4 [20, 2]
00000000: 0eaf 1338 30c0 4139 e0c6 7f38 6afd 9838
00000010: d305 8e39 e77e 6f3a 3f02 8d37 ead5 ab38
00000020: f0c3 e438 48ad c639 bb11 9635 3fac 1a35
00000030: 9f5e bc37 0016 9838 9598 2039 db17 363a
00000040: 043e 3536 880a fc36 4fce 2735 1214 8337
00000050: 62ad cf36 ad95 2837 fdbc d637 f833 1739
00000060: 2813 0037 a4b9 7637 c88c ad37 50a3 1e38
00000070: d2e9 f036 2dc3 ea37 fe90 ba38 ee61 d738
00000080: 7e0b 6438 b479 5639 8c9c 2937 25dc bd37
00000090: e4cc bc36 6141 8637 b847 a735 9305 f136
3.5210564e-05 0.0001847751 6.0981954e-05 7.295127e-05 0.0002708869 0.00091360364 1.6809556e-05 8.19376e-05
0.000109083834 0.00037894608 1.1181031e-06 5.762012e-07 2.2455408e-05 7.2520226e-05 0.0001531563 0.0006946304
2.70072e-06 7.5114112e-06 6.2512567e-07 1.5625763e-05 6.189265e-06 1.0048429e-05 2.5598792e-05 0.00014419842
7.633855e-06 1.4705965e-05 2.0688763e-05 3.7822232e-05 7.1797776e-06 2.798586e-05 8.896178e-05 0.0001027024
5.437014e-05 0.00020453968 1.0109634e-05 2.2633069e-05 5.626689e-06 1.600449e-05 1.2463343e-06 7.1830086e-06

exp_avg f4 [20]
00000000: 5d35 e53d 24b2 ea3d d586 80be db99 94bd
00000010: 09b9 2a3e 8dce 2ebc 0779 b5bd 584e 673e
00000020: 9b48 e73c 2874 03bd b957 36bd 5a9f e8bd
00000030: 401b 103d 903c 89bd fa24 56bd 46cf 2f3e
00000040: 223f 03be 8146 89bd 5c41 56bd 863b d63c
0.11191819 0.11459759 -0.2510287 -0.07255908 0.16672148 -0.010669363 -0.08860975 0.2258848
0.028232863 -0.032093197 -0.044517253 -0.11358519 0.035182238 -0.067010045 -0.052281357 0.17168912
-0.12817052 -0.06702901 -0.052308425 0.02615143

exp_avg_sq f4 [20]
00000000: e0ea c039 842b cf39 9ff5 f63a 4be6 2a39
00000010: 26c8 5a3a 3ef8 7d36 3894 7b39 4b16 c83a
00000020: c214 df37 cbe4 0938 a6b3 7d38 f680 c639
00000030: 0213 2538 42ac 0f39 9046 a738 9cb7 663a
00000040: e768 fd39 0e7d 0a39 a882 b038 20a7 a737
0.0003679609 0.00039514538 0.0018841511 0.00016298254 0.00083458645 3.7844434e-06 0.00023992441 0.0015265433
2.6593338e-05 3.2876425e-05 6.048721e-05 0.00037861586 3.9356768e-05 0.00013701714 7.976324e-05 0.00088011636
0.0004833408 0.00013207292 8.4166706e-05 1.9985775e-05

exp_avg f4 [20, 20]
00000000: 61af 0dbe 0ca6 8d3e b4d0 cbbd cd29 5ebd
00000010: 02fb d33d 0c79 313e ea37 6abd 2a85 013d
00000020: bd9d fb3d f878 69be cab1 88bd a612 cf3d
00000030: 4369 263d 3075 05bd c80e 743e 2621 a13e
00000040: bd4e 0a3e e417 593e 0aec 76be 005a 22be
00000050: a0d6 49bd 673b bf3d 888a 19bd 90d3 a1bc
00000060: 7c9a 1b3d 50af 6c3d 324b 9ebc 11ff 533c
00000070: dc5d 233d cacf a0bd 356f a1bc 6eab 073d
00000080: 8946 673c ca1f f2bb 8fac a63d d84e da3d
00000090: 0262 423d afec 8e3d 4c93 a4bd 746a 60bd
000000a0: ea86 18bc d303 953c 3a6a e4bb 5618 6cbb
000000b0: d6a6 e83b c27e 3c3c 100b 71bb 65f1 0e3b
000000c0: 4ea4 003c b623 77bc d49d 87bb da23 d23b
000000d0: a51f 2a3b e0c2 e8ba 21b4 803c 4fcf a93c
000000e0: 36f9 133c ded6 603c 48b3 80bc da7e 2dbc
000000f0: 7e7f e33d 1b97 62be be66 aa3d 7996 2b3d
00000100: 8687 adbd 1358 11be 55f3 333d 8db0 c3bc
00000110: dee3 c3bd 3069 3a3e 6546 563d d1f6 9cbd
00000120: 900d f7bc e54b c13c af6e 42be 9af1 80be
00000130: 04d0 ddbd a8f7 2abe 6f91 433e db94 033e
00000140: f34e 8cbd 194c 0f3e a421 58bd 380e c4bc
00000150: d5d7 583d 925c be3d 5c2d d6bc 5ab4 423c
00000160: 640c 733d 41bf e8bd 0863 0cbd a749 393d
00000170: d5fd 873c de0d 7ebc 5219 f33d c3d9 223e
00000180: 03dd 893d e8c4 d53d 6827 f5bd fec3 a7bd
00000190: 7c48 c63c 6ea4 4cbd 2d53 943c 391d 0d3c
000001a0: 1cfd 96bc c2d0 06bd 7c6e 1c3c 8d01 8bbb
000001b0: 4b1b b1bc add9 253d 3f95 4e3c 5df7 88bc
000001c0: b752 cabb fed3 c83b ed97 2dbd 185e 68bd
000001d0: 884a c3bc 3d66 1abd ee43 303d 1b02 ed3c
000001e0: f59e d3bd cc7e 5c3e d5e4 97bd ed2a 1bbd
000001f0: f9d3 9d3d c4fd 0e3e 6a2a 2ebd 97ed 993c
00000200: f6d8 c33d 0c82 32be c01e 65bd c7ff 9a3d
00000210: 96dd e73c 94dd efbc 5267 3b3e 2131 7a3e
00000220: 8aef d03d ddff 283e 56c1 3fbe 5cf1 fbbd
00000230: 6f6c 0fbe a839 8d3e 1aa4 e0bd d72f 51bd
00000240: 53f6 df3d d803 383e bbd7 57bd b46c ed3c
00000250: bf4e ec3d 3ace 68be d7e5 7fbd c3f5 b73d
00000260: 0e67 0f3d 89c9 cabc b5fb 713e 2bd8 a03e
00000270: 0797 0b3e 41bc 503e f6b0 70be 9ce3 26be
00000280: 3c32 983d f859 11be 2171 673d ca20 f13c
00000290: 1e62 6abd c486 b5bd c740 ee3c 90e2 9abc
000002a0: 5381 78bd 1a6e f33d 9054 fa3c 7e0e 4dbd
000002b0: 1f10 acbc 7ebe 413c 1c93 fcbd 2fdf 25be
000002c0: 7fc7 92bd 8ead d9bd cc53 fa3d 7e4b aa3d
000002d0: 3ddc d1bb 5311 4a3c 7a7a a5bb 4130 1cbb
000002e0: 2d96 a43b 1082 013c 3357 1cbb 0600 bc3a
000002f0: c57e a73b 0227 28bc 7814 2dbb 6127 843b
00000300: cac2 d43a 501e 76ba dc6f 2e3c 3f63 663c
00000310: cf7e cb3b d651 143c 028f 2bbc f3d5 f0bb
00000320: d5c6 6dbd 2643 eb3d 69ea 30bd 08d2 b6bc
00000330: 3ae4 343d 8648 953d dcdd bdbc d0c0 563c
00000340: 825a 4c3d 0f3f c2bd 5209 dcbc 63a0 253d
00000350: a1bc 843c 92fb 45bc 8a7e ca3d 1cec 053e
00000360: a56e 673d e3e4 b13d 256e cbbd 9d5e 88bd
00000370: 7432 fcbc 6dc9 813d 5af3 c0bc afdf 2ebc
00000380: a01d c23c 0cf8 2c3d 4779 41bc 2676 a83b
00000390: 8e12 dd3c 7627 52bd 734f 81bc a52b a83c
000003a0: 50e1 f33b 0c98 f0bb 7cc5 5b3d 146b 933d
000003b0: 0c4d f83c 1224 423d 304c 5ebd 848d 17bd
000003c0: d64d 55bd 7069 e23d 846b 2bbd 2221 82bc
000003d0: c72f 283d b441 9e3d 3648 99bc 1d74 b73b
000003e0: f364 3a3d 1446 b4bd da86 e9bc 10a5 023d
000003f0: 94f4 263c 5042 54bc 4ca8 bc3d 305a 003e
-0.13836433 0.27665746 -0.09951916 -0.054239083 0.1035061 0.17331332 -0.05718223 0.031621136
0.122859456 -0.22800052 -0.066745356 0.10110979 0.04062773 -0.03258246 0.23833764 0.31470603
0.13506599 0.2120052 -0.2411348 -0.15854645 -0.049276948 0.09337502 -0.03748563 -0.019754201
0.037989125 0.05778438 -0.019322965 0.012939231 0.039884433 -0.078521326 -0.019706348 0.033122472
0.014115938 -0.0073890435 0.08138382 0.106595695 0.04745675 0.069787376 -0.08035907 -0.05478902
-0.00930951 0.0181903 -0.006970671 -0.0036025248 0.0070999665 0.011504831 -0.0036780275 0.0021811363
0.007851673 -0.015084198 -0.0041386876 0.0064129652 0.0025958803 -0.0017758273 0.015710892 0.020728735
0.0090315845 0.013723103 -0.015710488 -0.010589326 0.111083016 -0.22127955 0.08320378 0.04189155
-0.08473115 -0.14193754 0.04393323 -0.023887897 -0.095649466 0.18204188 0.052313227 -0.07664264
-0.030157834 0.02359576 -0.18987535 -0.25184327 -0.108306915 -0.16696036 0.19098447 0.12849753
-0.06850996 0.13993873 -0.052766457 -0.023932561 0.05294021 0.09295 -0.026144676 0.0118838195
0.05933799 -0.11364604 -0.03427413 0.045236256 0.016600529 -0.015506236 0.11870064 0.15903382
0.06731608 0.104379475 -0.11970407 -0.081916794 0.024204485 -0.0499615 0.018106068 0.008612924
-0.018431239 -0.03291393 0.009547826 -0.004242128 -0.02161946 0.040490795 0.012608825 -0.016719515
-0.006174411 0.006128787 -0.042381216 -0.05673036 -0.02383925 -0.03769516 0.043033533 0.028931668
-0.10333053 0.21532744 -0.07416693 -0.037882734 0.07706446 0.13963991 -0.042520918 0.01879005
0.095628664 -0.17432421 -0.05593753 0.07568317 0.028303903 -0.029280461 0.18301132 0.24432804
0.102019385 0.16503854 -0.18726096 -0.12301895 -0.14006208 0.2758305 -0.109688 -0.051071014
0.109356545 0.17970216 -0.05269597 0.028982498 0.11538457 -0.22734919 -0.06247505 0.08982422
0.03501039 -0.024754303 0.23631175 0.31414923 0.13631831 0.20384313 -0.23505005 -0.16297764
0.074314564 -0.14194477 0.056504373 0.02943458 -0.057222478 -0.08863595 0.029083623 -0.018906862
-0.06067021 0.118862346 0.0305579 -0.05006265 -0.02100378 0.011825202 -0.123327464 -0.16198419
-0.07166957 -0.10628806 0.12223014 0.0831518 -0.0064044283 0.012333232 -0.0050500007 -0.0023832473
0.005022785 0.0079045445 -0.0023855686 0.0014343269 0.0051115477 -0.010263206 -0.0026409905 0.0040330146
0.0016232368 -0.0009388672 0.010646787 0.014061748 0.006210185 0.009052714 -0.010471107 -0.0073497235
-0.05805095 0.11487417 -0.0431923 -0.022316948 0.044162966 0.072892234 -0.02317708 0.0131074935
0.049891002 -0.09484684 -0.026859913 0.04043616 0.016203227 -0.012083905 0.09887417 0.1307835
0.056502003 0.08686235 -0.09933118 -0.06658671 -0.030785777 0.06337247 -0.023553539 -0.0106734475
0.023695767 0.042228743 -0.0118087 0.0051410375 0.026986387 -0.051307164 -0.015784955 0.020528624
0.007442631 -0.007342344 0.053655133 0.07198158 0.030310176 0.04739768 -0.054271877 -0.037000194
-0.052076183 0.11055267 -0.04185058 -0.01588494 0.04106119 0.077273756 -0.01871119 0.0055985586
0.04550643 -0.08802429 -0.028506685 0.031895697 0.010190148 -0.012955263 0.092117876 0.12534404

exp_avg_sq f4 [20, 20]
00000000: 95de 143a 7927 153b a2f6 9a39 d262 b838
00000010: 258b a739 b6c1 693a ebe2 cc38 b6af fb37
00000020: 029c eb39 e2b0 ca3a 705b 0b39 6dc1 9e39
00000030: 623f 4f38 824f 0538 be11 dd3a fbf5 403b
00000040: a6d5 0d3a 2edc ae3a de9b e23a 3485 433a
00000050: 2e0a 9838 3ac0 8839 da0d 3138 8d42 4537
00000060: 4ac7 3538 81f6 d038 3696 3c37 5d26 aa36
00000070: 66e8 4738 208d 4139 ae6f 4337 1c23 0938
00000080: 16ec c936 d2df dc35 3a77 4f39 ee2e b239
00000090: 29f5 8c38 b375 1839 b293 4a39 13e0 bb38
000000a0: 54a2 2936 0e0c 2237 d279 be35 6cbf cb34
000000b0: 6a9e c535 4992 8136 fc6e d434 8f8c 1534
000000c0: b0b3 f135 aae1 de36 5575 0635 ecfc a035
000000d0: 42d9 5334 a6de c633 27a7 f136 e869 5237
000000e0: 4ea7 1f36 1061 b836 a2c5 f136 6b7f 5b36
000000f0: 36e4 bf39 aecb be3a 974e 5839 365e 5c38
00000100: c85d 6039 33a6 1c3a 713f 7238 7b3f 9037
00000110: bee4 8e39 a233 813a 1939 ab38 91ad 3639
00000120: 2038 e537 823e 8c37 c84c 8c3a d617 f73a
00000130: 3761 b639 78f2 583a 772b 8e3a 615c 003a
00000140: a00f 1239 0db2 183a 0205 ae38 3f30 9037
00000150: c040 af38 8366 8639 dde1 ab37 d1dc 8f36
00000160: e72d dc38 7a8b c939 260e 1338 efd5 7e38
00000170: 517b 0b37 6e7b f236 3974 db39 102c 453a
00000180: 65fb 0c39 92b3 a939 f48d df39 73c0 5039
00000190: e953 9337 fd96 9d38 5304 2637 d491 1636
000001a0: e2fc 2b37 4a9a 0838 453d 3936 4d8a 1235
000001b0: 0e8b 6c37 8409 4f38 2595 a136 6068 0c37
000001c0: 4240 9b35 0fe3 9935 a54d 6238 581e cb38
000001d0: f0ed 8e37 640d 3338 8cd9 6938 30c2 d237
000001e0: 3c62 a639 2950 b53a e25d 2c39 9157 3438
000001f0: df19 3a39 c04c 183a b975 6338 b4ed 3137
00000200: 5457 8f39 8aaf 6d3a c6e6 c438 b781 3239
00000210: eaf6 c937 5853 d937 16bc 823a cd5f e93a
00000220: 0235 a239 22b8 543a 3628 893a e910 ec39
00000230: a4ba 183a 277b 143b 680c bc39 1712 a438
00000240: 6406 bb39 447a 7b3a dbb8 ae38 94a2 d437
00000250: c471 d039 34d6 c93a b5f7 f438 917a 7b39
00000260: 8806 1b38 09c9 9b37 14a9 d93a b28e 403b
00000270: f8a6 103a a200 a23a 32c1 d73a 7bc5 4e3a
00000280: 38a2 2b39 5d00 1d3a 433f c738 34fb d837
00000290: a366 cc38 476e 7439 5716 d437 125d 3337
000002a0: 6efb e538 bb38 dc39 4c3d ea37 36ce 9b38
000002b0: 99b0 5d37 934f 8e36 68ac ec39 cf68 4c3a
000002c0: 70a0 1f39 2ed6 af39 8fe8 e839 fcf3 5639
000002d0: bf59 a035 8eae 9436 036d 4735 cdc7 3134
000002e0: 1a4b 4535 2145 f435 552c 3234 99da 8033
000002f0: e460 4c35 7eec 4d36 345d 5a34 f25a fe34
00000300: 4c1e a533 6c1d de32 c994 5d36 4b46 c136
00000310: 77c5 9635 7733 2036 9e5b 5636 082e d335
00000320: c890 d238 77c6 ce39 e29a 6a38 7ae2 7a37
00000330: 372b 7538 4342 2639 065d 8737 b492 ad36
00000340: a83f 9c38 1500 8d39 8cbb b537 afff 4b38
00000350: 8f89 0437 fb11 9436 f7e9 9839 19f9 053a
00000360: bf76 c738 2cfc 6b39 079a 9a39 f39b 0a39
00000370: 7bc6 ea37 b129 f938 4ff7 8937 6ffe 6336
00000380: 0cae 8b37 5ccf 5c38 2e58 8b36 b818 5635
00000390: fe14 b537 4f6b a338 e8f5 f736 65cc 5037
000003a0: 3daf de35 10a3 d735 d76b b238 40b4 2039
000003b0: 7b86 e337 d038 8b38 c3cb b638 3182 2938
000003c0: 0c1c a938 c437 bf39 95e0 5b38 2099 fd36
000003d0: 9c8c 5338 9cba 3a39 4813 3037 2c15 7d35
000003e0: 28c1 8138 f077 7239 7960 cc37 96ff fc37
000003f0: 9a49 5136 3ac7 a936 7c80 8439 d9be f539
0.0005678919 0.0022759123 0.00029556925 8.7922104e-05 0.00031956393 0.000891711 9.769745e-05 3.0003353e-05
0.00044938928 0.0015464092 0.00013290136 0.00030280222 4.9411676e-05 3.178372e-05 0.001686625 0.002944349
0.0005410559 0.0013340765 0.0017288884 0.00074585085 7.249821e-05 0.0002608316 4.221299e-05 1.175761e-05
4.3339365e-05 9.964128e-05 1.1240647e-05 5.070861e-06 4.7661735e-05 0.00018458487 1.1648908e-05 3.2696043e-05
6.017751e-06 1.6456418e-06 0.00019785474 0.0003398577 6.721385e-05 0.00014539696 0.00019319242 8.958592e-05
2.527745e-06 9.658759e-06 1.4191558e-06 3.7950974e-07 1.4723748e-06 3.8615294e-06 3.956883e-07 1.3927841e-07
1.8008195e-06 6.6423863e-06 5.008963e-07 1.1994539e-06 1.9729944e-07 9.260593e-08 7.201819e-06 1.2541634e-05
2.379023e-06 5.494927e-06 7.205367e-06 3.270771e-06 0.0003660039 0.0014556551 0.00020628642 5.2539828e-05
0.00021397241 0.00059756933 5.775638e-05 1.7195698e-05 0.00027254777 0.0009857307 8.164551e-05 0.00017421531
2.7325063e-05 1.6718408e-05 0.0010704035 0.0018851708 0.00034786176 0.0008275877 0.0010846694 0.0004896578
0.00013929466 0.00058248715 8.297899e-05 1.7188604e-05 8.356711e-05 0.0002563485 2.0489964e-05 4.2874385e-06
0.000104989675 0.00038441626 3.5060708e-05 6.075756e-05 8.3137575e-06 7.226531e-06 0.00041857528 0.00075215194
0.00013445092 0.00032367982 0.00042639638 0.00019908119 1.756284e-05 7.514467e-05 9.895378e-06 2.2436625e-06
1.0251273e-05 3.256862e-05 2.7602812e-06 5.459049e-07 1.4099072e-05 4.9361508e-05 4.8155366e-06 8.368952e-06
1.1567101e-06 1.1465471e-06 5.395491e-05 9.685446e-05 1.7038517e-05 4.2689397e-05 5.5754135e-05 2.5124376e-05
0.00031735178 0.0013833094 0.00016438172 4.2996897e-05 0.0001774798 0.00058097765 5.4230655e-05 1.0605367e-05
0.0002734015 0.000906699 9.388993e-05 0.00017023725 2.4076046e-05 2.5907226e-05 0.0009974267 0.001780504
0.00030938542 0.0008114596 0.0010464254 0.00045026027 0.00058261515 0.0022656412 0.00035867398 7.823499e-05
0.0003567218 0.0009593109 8.3313986e-05 2.5348076e-05 0.00039757614 0.001539892 0.00011680966 0.00023982885
3.6960962e-05 1.8571054e-05 0.0016606175 0.0029381928 0.00055180443 0.0012359808 0.0016460775 0.0007887703
0.00016368262 0.0005989129 9.500843e-05 2.5866182e-05 9.7465956e-05 0.00023310735 2.5282772e-05 1.0690901e-05
0.00010966403 0.00042003937 2.7923517e-05 7.429386e-05 1.3213744e-05 4.2411934e-06 0.0004514188 0.00077976
0.00015223189 0.00033538177 0.00044423758 0.00020499522 1.1947049e-06 4.4310646e-06 7.429191e-07 1.6557097e-07
7.3497506e-07 1.8199536e-06 1.659367e-07 6.000227e-08 7.6136917e-07 3.0685037e-06 2.0336739e-07 4.7377358e-07
7.688922e-08 2.5857581e-08 3.301817e-06 5.7600314e-06 1.1233341e-06 2.3871814e-06 3.1941813e-06 1.5734122e-06
0.00010040548 0.0003943925 5.5934193e-05 1.4953892e-05 5.84528e-05 0.00015855678 1.6136572e-05 5.1728803e-06
7.4505166e-05 0.00026893677 2.1664215e-05 4.8637095e-05 7.899841e-06 4.412837e-06 0.00029166017 0.0005110666
9.5111776e-05 0.00022505288 0.00029487928 0.00013218801 2.7987398e-05 0.00011881011 1.6446835e-05 3.3973736e-06
1.6651138e-05 5.2645206e-05 4.1527883e-06 7.9757183e-07 2.1586657e-05 7.7924335e-05 7.389801e-06 1.2445355e-05
1.659129e-06 1.6066206e-06 8.507788e-05 0.00015325937 2.7123131e-05 6.638619e-05 8.71639e-05 4.041399e-05
8.063772e-05 0.00036471908 5.2422827e-05 7.5578137e-06 5.0437273e-05 0.0001780786 1.0494907e-05 9.4280654e-07
6.1871775e-05 0.00023123599 2.4363619e-05 3.0159757e-05 3.1186269e-06 5.0597855e-06 0.0002527273 0.00046872234

exp_avg f4 [20]
00000000: fdce d53e 5425 133e f72e e33c 291c acbe
00000010: 06d7 593e 2288 9abd 4637 a53e 1fd2 d83e
00000020: 741b 5fbe 7264 9c3c 12bf 323e 3cd1 c43d
00000030: 5242 2c3e bf25 9c3d d54a 3cbe 3386 9a3e
00000040: 40a3 ae3c ac01 a93e b036 a8be f0d8 96be
0.41759482 0.14369708 0.027732356 -0.33615234 0.21273431 -0.075454965 0.32268733 0.4234781
-0.21787816 0.019090865 0.174557 0.09610221 0.16822174 0.07624387 -0.18387921 0.3018051
0.021318078 0.33009088 -0.32854223 -0.29462385

exp_avg_sq f4 [20]
00000000: c8d7 a93b 77dd 213a 0348 bc37 4705 5c3b
00000010: 4952 b03a 7e92 3339 746b 4b3b d8d8 ae3b
00000020: 90ce b83a 331d 3237 0496 6e3a c92c 8f39
00000030: d73e 5d3a 84df 3639 b741 843a 2edd 313b
00000040: 997a 6e37 6260 543b a031 523b 2f86 293b
0.005183194 0.00061746634 2.244488e-05 0.0033572481 0.0013452257 0.00017125343 0.003103939 0.0053359084
0.0014099646 1.0616425e-05 0.00091013336 0.00027308453 0.0008439845 0.00017440139 0.0010090385 0.002713989
1.421445e-05 0.0032406081 0.0032073036 0.0025867333

exp_avg f4 [1, 20]
00000000: a3ea 993e 82bb abbe 3168 5f3e a636 68be
00000010: 447a 253f f8c9 b43e 57b5 96be 3dff f43e
00000020: 7800 00bf af7f a53e 902f 093a 9ae0 f03e
00000030: 64b2 27bf 2e12 30bf be5b d93e 9a09 eabe
00000040: 1c15 f9be d8aa 27bf 3927 90be d969 bd3e
0.30061826 -0.33541495 0.2181709 -0.22677097 0.6463969 0.3531034 -0.29435226 0.4785098
-0.50000715 0.32323977 0.00052332226 0.47046357 -0.6550658 -0.6877774 0.42452806 -0.4571045
-0.48648918 -0.6549506 -0.28154925 0.36994818

exp_avg_sq f4 [1, 20]
00000000: f426 2d3b 7dba 5f3b 1a0d b63a 9471 c43a
00000010: b7bf 493c 207b 773b 9211 2d3b c99d dc3b
00000020: a9ef f03b 47d2 483b e106 bc37 a494 d53b
00000030: 254d 533c 43cd 683c 4bfc b23b 620d cf3b
00000040: ac1f ea3b 1edf 533c 97d2 173b 5409 883b
0.0026420923 0.0034138255 0.0013889403 0.0014987462 0.012313775 0.0037762597 0.0026408178 0.0067326766
0.0073527885 0.0030642913 2.241455e-05 0.0065179635 0.012896811 0.014209094 0.0054622046 0.006318734
0.007144889 0.012931613 0.0023166293 0.0041515026
