tutorials/tutorial 5/lightning_logs/version_139/checkpoints/epoch=299-step=300.ckpt (torch, 185041 bytes, 206 tensors)

_pina_model._model.layers.0.weight f4 [20, 2]
0	0xbecee85c	-0.4041165
1	0x3f22a782	0.63536847
2	0xbe5da478	-0.21644771
3	0xbe70c2ff	-0.23511885
4	0xbf23ce67	-0.6398682
5	0xbee4b717	-0.44670936
6	0xbe9805a3	-0.296918
7	0xbf0007c5	-0.50011855
8	0xbe8da8f0	-0.27667952
9	0x3ddf4621	0.10902048
10	0xbd683ab7	-0.05669662
11	0x3eb2b3ac	0.34902704
12	0xbda55dcf	-0.08074533
13	0x3ed592e9	0.41713646
14	0x3f2f1a97	0.6839995
15	0xbf04d7e0	-0.518919
16	0xbe01c778	-0.12673748
17	0x3d395fbf	0.045257326
18	0x3ea97539	0.33097246
19	0xbd9eeb13	-0.077596806
20	0xbf251ef2	-0.64500344
21	0xbdf694e6	-0.12040119
22	0xbe6e4b88	-0.23271
23	0xbbe791e7	-0.0070669535
24	0x3e91558a	0.28385574
25	0x3d0e13f7	0.03468701
26	0x3c5d6c52	0.013514595
27	0x3e8ed53e	0.27897066
28	0xbf27e12d	-0.65577966
29	0x3f0503ae	0.5195874
30	0x3ed985d2	0.4248491
31	0xbe8dc81e	-0.2769174
32	0x3dabbda1	0.08385778
33	0xbdbc6563	-0.091990255
34	0xbe92e486	-0.28689975
35	0x3ede5376	0.4342305
36	0xbd611431	-0.054950897
37	0xbeb07964	-0.34467614
38	0x3d8f52ab	0.069981895
39	0xbcade57b	-0.021227589

_pina_model._model.layers.0.bias f4 [20]
0	0x3ee25251	0.44203427
1	0xbea53759	-0.3226879
2	0xbefde60b	-0.4958957
3	0xbf23b1f5	-0.63943416
4	0x3e24e51c	0.16103023
5	0xbe680af5	-0.2266043
6	0x3ec77935	0.3895966
7	0x3e1e3c6d	0.15452738
8	0x3f386802	0.72033703
9	0x3e26d869	0.16293491
10	0x3f3739f1	0.71572787
11	0xbe8bb5c4	-0.27287114
12	0xbe935d7d	-0.28782263
13	0x3f0a56b0	0.54038525
14	0x3ef1d2c0	0.47231102
15	0x3eb3d8cc	0.3512634
16	0xbe236a3c	-0.15958494
17	0x3e240fb0	0.1602161
18	0xbe4a207b	-0.19738953
19	0x3f410ac4	0.7540705

_pina_model._model.layers.2.weight f4 [2, 20]
0	0x3e517c22	0.20457509
1	0xbdb14455	-0.086556114
2	0xbe592ff9	-0.21209706
3	0xbd1cb6d0	-0.03826028
4	0xbe24c781	-0.1609173
5	0xbdac1e18	-0.084041774
6	0xbd92e552	-0.07172646
7	0xbd220068	-0.03955117
8	0xbe1a4382	-0.15064815
9	0xbe39695a	-0.18106595
10	0xbe8f4d0e	-0.27988476
11	0x3e7dfb92	0.24802998
12	0xbe720721	-0.23635532
13	0xbe227706	-0.15865716
14	0x3da74737	0.0816788
15	0xbdb5ed47	-0.08883148
16	0xbda9ae57	-0.08285206
17	0xba26e342	-0.00063662615
18	0x3df563c2	0.11981918
19	0x3ec26ce4	0.37973702
20	0xbe82b0dd	-0.2552556
21	0x3d1e6e1a	0.03867922
22	0x3ddaa0f3	0.1067523
23	0x3d73e529	0.059544716
24	0x3dda862c	0.106701225
25	0x3dc6ee3b	0.097134076
26	0x3d62b561	0.055348758
27	0xbc8af4f1	-0.0169625
28	0xbe37d14f	-0.17950939
29	0xbd322c44	-0.043499246
30	0xbd5dffce	-0.054199032
31	0xbd1c9062	-0.03822363
32	0x3d5b9978	0.053613156
33	0xbe476caa	-0.19475046
34	0xbe0ed29c	-0.13947529
35	0x3e128f5e	0.14312503
36	0xbc8ad761	-0.016948404
37	0x3e7807ad	0.24221678
38	0xbd7dae5b	-0.061933856
39	0x3ed5ad17	0.4173362

_pina_model._model.layers.2.bias f4 [2]
0	0xbe1343a3	-0.1438127
1	0xbd51c5cc	-0.051214024

d f4 [102]
0	0xbad12532	-0.001595652
1	0xba23beb5	-0.0006246374
2	0x395f6fae	0.00021308541
3	0x394a74f4	0.0001930779
4	0x39dac920	0.0004173005
5	0x3a9f8a05	0.001217187
6	0x399c1d8e	0.0002977666
7	0xb8070b4c	-3.219703e-05
8	0xb90ac570	-0.00013234257
9	0xb99ecce0	-0.00030288752
10	0x39d1eb46	0.0004003888
11	0x39627f5c	0.00021600485
12	0xb87a2484	-5.9638653e-05
13	0xb7f77628	-2.9499715e-05
14	0x3a40d310	0.00073556695
15	0x3abaaf6d	0.0014242955
16	0xba2f3ca6	-0.00066847575
17	0xb8fef84a	-0.00012157911
18	0xb987336a	-0.00025787513
19	0xb9abc700	-0.00032763928
20	0x3a6f6325	0.00091319
21	0xb9ca97ec	-0.00038641633
22	0x39832173	0.0002501119
23	0x39cefdad	0.00039480385
24	0x3a56dc9a	0.00081963243
25	0xb9fd76e7	-0.0004834451
26	0x382db074	4.141075e-05
27	0xb9cf209f	-0.0003950642
28	0x3971ff76	0.00023078718
29	0x3a241fa8	0.00062608207
30	0x3842acb8	4.641406e-05
31	0x39b8a2e7	0.00035216587
32	0x3a33e683	0.0006862657
33	0x3992f276	0.00028027938
34	0xb9daabec	-0.00041708292
35	0x39be7845	0.00036329232
36	0x3845881e	4.709523e-05
37	0x393abd62	0.00017808893
38	0x3a696488	0.0008903225
39	0xba61f1d0	-0.0008619102
40	0xba0380d0	-0.0005016448
41	0xba0adf5c	-0.00052975654
42	0x3a27bf81	0.0006399081
43	0x3819cf86	3.6671314e-05
44	0xba566e0a	-0.0008179849
45	0xba26450e	-0.00063426874
46	0x3979c4f2	0.00023819858
47	0x3aca990c	0.0015456988
48	0x39543970	0.00020239293
49	0xb8d1f522	-0.00010011556
50	0xba79ce2e	-0.00095293194
51	0x39db68c5	0.00041848994
52	0x398f8a48	0.00027378113
53	0xb8f5de3f	-0.00011723907
54	0xb9d5970b	-0.00040739062
55	0xb9b263ed	-0.00034025256
56	0xba69350d	-0.000889615
57	0x39bb6089	0.00035739344
58	0xb8937fae	-7.0332884e-05
59	0x3a8950cc	0.001047635
60	0x3a182e9e	0.00058052863
61	0x390290e4	0.00012451742
62	0x3962ef79	0.0002164225
63	0x39cdc592	0.00039247848
64	0x398410ca	0.0002518951
65	0x3a5ac1b9	0.0008344907
66	0xb7e50444	-2.7300914e-05
67	0xb9327d68	-0.0001702212
68	0xb9b115d6	-0.0003377634
69	0xb8c73920	-9.4997e-05
70	0xb97b9c02	-0.00023995343
71	0xb993cc96	-0.00028190453
72	0xbaa08931	-0.0012247917
73	0x39928706	0.0002794789
74	0xbaa95f10	-0.0012922008
75	0x3996cc3d	0.000287624
76	0x3a09b838	0.0005253586
77	0xba02d3f7	-0.00049906917
78	0xb9958bbc	-0.00028523605
79	0xbac5735a	-0.0015064285
80	0xb9fd6726	-0.00048332772
81	0x3a17b352	0.00057869137
82	0xb808d474	-3.262279e-05
83	0xb94c49fc	-0.00019482517
84	0x3955f8ba	0.00020405921
85	0xb87f4538	-6.0861203e-05
86	0xb9230bb9	-0.00015549258
87	0xbb06f191	-0.0020590762
88	0xb9d30237	-0.00040246706
89	0xba5d5daf	-0.0008444441
90	0x3a8bda5f	0.0010669938
91	0x3a317aa3	0.00067702885
92	0xba8e9892	-0.001087921
93	0xb9ad7e5a	-0.0003309127
94	0xb99cdd9e	-0.00029919756
95	0xb9d98d06	-0.00041494536
96	0x3a20f3ed	0.00061398634
97	0xb992e193	-0.00028015356
98	0x39b6051f	0.0003471756
99	0xb89b7610	-7.412967e-05
100	0x3a1b0522	0.00059135456
101	0x00000000	0.0

old_dirs f4 [102]
0	0xb5f23a00	-1.8047285e-06
1	0xb5e0b700	-1.674256e-06
2	0x346fb400	2.2324093e-07
3	0x35a32e00	1.2157834e-06
4	0xb5b4d400	-1.3472745e-06
5	0x35ea7500	1.746841e-06
6	0xb4006d00	-1.1960583e-07
7	0x34d29a00	3.9227598e-07
8	0x360a9b00	2.0653824e-06
9	0x369d6e28	4.6917885e-06
10	0x359ddbd0	1.1761385e-06
11	0x365de040	3.3062097e-06
12	0x34e0dc00	4.1883322e-07
13	0x3586eda0	1.0052936e-06
14	0x34272100	1.5565092e-07
15	0x353c5100	7.015333e-07
16	0xb4296800	-1.5777186e-07
17	0xb5ac96e0	-1.2858909e-06
18	0x34d2c600	3.9259612e-07
19	0x35dad540	1.630433e-06
20	0x367a0c00	3.7259888e-06
21	0x35f61700	1.8335122e-06
22	0xb587f700	-1.013017e-06
23	0xb68290d8	-3.891164e-06
24	0x360cce80	2.0981824e-06
25	0x3696c810	4.4936387e-06
26	0x33f00800	1.1177326e-07
27	0xb41c1200	-1.453518e-07
28	0xb5d4a900	-1.5844416e-06
29	0xb6133400	-2.1934975e-06
30	0x35b30c40	1.3340104e-06
31	0x369ac548	4.612524e-06
32	0x34c40e00	3.651803e-07
33	0x353ec180	7.1062095e-07
34	0x35a29c80	1.2115488e-06
35	0x3635d980	2.7097703e-06
36	0xb530e600	-6.5899803e-07
37	0xb608c340	-2.037923e-06
38	0x351eb200	5.911861e-07
39	0x36234240	2.4327455e-06
40	0xb58ea000	-1.0626391e-06
41	0x35b8bb80	1.3763638e-06
42	0x35ff0280	1.8999708e-06
43	0x3384a000	6.175833e-08
44	0x366ca800	3.526453e-06
45	0x35f97980	1.8587307e-06
46	0x3556e880	8.0059544e-07
47	0x35190200	5.699985e-07
48	0x36151400	2.2214372e-06
49	0x36810480	3.8450235e-06
50	0x369a9900	4.607369e-06
51	0xb6a9f200	-5.064765e-06
52	0x36a04980	4.776928e-06
53	0x365e4e80	3.312627e-06
54	0xb534ce00	-6.7354995e-07
55	0x3607fa80	2.0262378e-06
56	0x36054100	1.985638e-06
57	0xb5bf0d80	-1.4234538e-06
58	0xb607b840	-2.0223815e-06
59	0xb6bf3d00	-5.699345e-06
60	0xb771e940	-1.4419027e-05
61	0x37344c00	1.0746531e-05
62	0x37774560	1.47385e-05
63	0x37941320	1.765188e-05
64	0xb67bd400	-3.7525315e-06
65	0x34fdad40	4.7250978e-07
66	0xb758f920	-1.2932607e-05
67	0x360be380	2.0845036e-06
68	0xb7727f80	-1.445401e-05
69	0xb692b300	-4.3719774e-06
70	0xb6e89c00	-6.9322996e-06
71	0x36fcbc00	7.5320713e-06
72	0x3696df00	4.496309e-06
73	0xb7739620	-1.4518882e-05
74	0xb73fb800	-1.1427328e-05
75	0xb6c1e320	-5.778289e-06
76	0x369480c0	4.425732e-06
77	0xb704ed60	-7.923081e-06
78	0x371b6610	9.262483e-06
79	0xb77769f0	-1.4747013e-05
80	0x36a8dba0	5.032358e-06
81	0xb6a2cc68	-4.8517722e-06
82	0xb6952ac8	-4.4455264e-06
83	0xb683bd0c	-3.926112e-06
84	0x349e1480	2.944471e-07
85	0x37008ae0	7.661729e-06
86	0x36b0c2ae	5.2678724e-06
87	0xb6db9380	-6.54388e-06
88	0xb28d7700	-1.6468675e-08
89	0x355d1e00	8.237257e-07
90	0xb6fef8f0	-7.59877e-06
91	0xb5f16f50	-1.7988295e-06
92	0x3650d180	3.111636e-06
93	0x36759f98	3.660074e-06
94	0x365f3d80	3.3265387e-06
95	0xb6477dc0	-2.9726507e-06
96	0xb5cbc150	-1.518094e-06
97	0x36c911a0	5.9923186e-06
98	0xb6d412d8	-6.320286e-06
99	0xb3b3d0c0	-8.3733084e-08
100	0xb7c7e900	-2.3831148e-05
101	0x00000000	0.0

old_dirs f4 [102]
0	0xb6099600	-2.0501902e-06
1	0x345b1000	2.0401785e-07
2	0x34e50600	4.265894e-07
3	0xb3b6f600	-8.5197826e-08
4	0xb4957800	-2.7840724e-07
5	0x34b9f000	3.4633558e-07
6	0x3386f600	6.2846084e-08
7	0x342c4c00	1.6046397e-07
8	0x35d56f00	1.5902042e-06
9	0x33f2f400	1.13133865e-07
10	0x3525afe0	6.172322e-07
11	0xb48c6000	-2.614688e-07
12	0x35080700	5.0674134e-07
13	0xb219d000	-8.953066e-09
14	0x340b6500	1.2982127e-07
15	0xb32a4800	-3.9646693e-08
16	0x3593d500	1.1014345e-06
17	0x34549200	1.9797153e-07
18	0x35aa5200	1.2689852e-06
19	0x33841c00	6.151822e-08
20	0x368c7700	4.1861786e-06
21	0x3568a200	8.6662476e-07
22	0xb5d12f00	-1.5585392e-06
23	0x3406e400	1.2562668e-07
24	0x36075480	2.0165753e-06
25	0x332e2000	4.0541636e-08
26	0x35898d80	1.0248477e-06
27	0xb36ac000	-5.4656994e-08
28	0xb58fa000	-1.0700896e-06
29	0xb3658000	-5.3434633e-08
30	0x34cc0680	3.800269e-07
31	0xb47ba100	-2.3434768e-07
32	0x355bc800	8.1874896e-07
33	0x33d94e00	1.0119038e-07
34	0xb2e4e000	-2.6644557e-08
35	0xb5330000	-6.6682696e-07
36	0xb566e900	-8.6020736e-07
37	0x33c66800	9.239011e-08
38	0xb61e4900	-2.3586326e-06
39	0xb4e56200	-4.2725878e-07
40	0xb5510d00	-7.7877485e-07
41	0xb44dca00	-1.91656e-07
42	0xb55ae000	-8.153729e-07
43	0xb408f000	-1.2753299e-07
44	0xb4464000	-1.846347e-07
45	0xb3aea800	-8.1330654e-08
46	0x32432000	1.135777e-08
47	0xb4601e00	-2.087254e-07
48	0x32bb8000	2.1827873e-08
49	0xb51c0a00	-5.812908e-07
50	0x35597800	8.101342e-07
51	0x3535a800	6.7672227e-07
52	0xb415a000	-1.3934914e-07
53	0xb4728800	-2.2587483e-07
54	0xb39ac000	-7.2061084e-08
55	0xb4b71000	-3.4098048e-07
56	0xb3bf3000	-8.902862e-08
57	0x3485a800	2.4895417e-07
58	0x33e39800	1.059816e-07
59	0x34b44800	3.358e-07
60	0x36506200	3.1051459e-06
61	0x35934b80	1.0974327e-06
62	0x35ab7300	1.2773962e-06
63	0x3521e400	6.030896e-07
64	0x3637b200	2.7372735e-06
65	0x333aa800	4.3459295e-08
66	0x35807f00	9.573705e-07
67	0xb6877560	-4.0369778e-06
68	0x35c61e00	1.4760881e-06
69	0xb6261080	-2.4745532e-06
70	0x37054200	7.942785e-06
71	0x35c4ee00	1.4672405e-06
72	0xb63cd600	-2.8138747e-06
73	0x34ecb000	4.4086482e-07
74	0x36c19800	5.7695433e-06
75	0xb6196ee0	-2.2863314e-06
76	0xb5564e00	-7.983472e-07
77	0x3618ec00	2.2787135e-06
78	0x3486f000	2.5134068e-07
79	0x3515e700	5.5842975e-07
80	0xb4d7bc00	-4.018366e-07
81	0x34950a00	2.776069e-07
82	0x3484fc80	2.4770634e-07
83	0xb28f2400	-1.6663762e-08
84	0xb28a2000	-1.6079866e-08
85	0xb5187d00	-5.680631e-07
86	0xb4392d80	-1.724602e-07
87	0x3559b400	8.1100734e-07
88	0x311bf800	2.269644e-09
89	0xb38dd800	-6.605114e-08
90	0x34b6fc00	3.4083496e-07
91	0x340d8e00	1.3183308e-07
92	0xb4169d00	-1.4026955e-07
93	0xb3d83500	-1.00679244e-07
94	0xb503bc00	-4.907488e-07
95	0x3496f300	2.8116483e-07
96	0x3399de00	7.164999e-08
97	0xb506f700	-5.027832e-07
98	0x349d5780	2.9307193e-07
99	0x32aceb80	2.0130528e-08
100	0x359ab000	1.1525117e-06
101	0x00000000	0.0

old_dirs f4 [102]
0	0xb63c1d00	-2.8031063e-06
1	0xb679d520	-3.7227946e-06
2	0x35234480	6.082191e-07
3	0x3609e9f0	2.055076e-06
4	0xb5bf8d00	-1.4271645e-06
5	0x3624f100	2.4578185e-06
6	0xb40af200	-1.294029e-07
7	0x35172180	5.630063e-07
8	0x3676ed80	3.67951e-06
9	0x3701cec8	7.737144e-06
10	0x36188598	2.2727527e-06
11	0x36be6760	5.6744757e-06
12	0x35548400	7.916824e-07
13	0x35ef40e0	1.7825769e-06
14	0x34e15000	4.1967724e-07
15	0x359fe9c0	1.1914453e-06
16	0xb4254c00	-1.5394471e-07
17	0xb6130770	-2.1909036e-06
18	0x359b5a00	1.1574593e-06
19	0x36311870	2.638928e-06
20	0x36b36800	5.346723e-06
21	0x36435480	2.910645e-06
22	0xb62090c0	-2.3926113e-06
23	0xb6d73490	-6.4136184e-06
24	0x3682cd80	3.8982253e-06
25	0x36fafae0	7.4797863e-06
26	0x35034500	4.890171e-07
27	0xb4aa1b80	-3.1684976e-07
28	0xb630b480	-2.6331109e-06
29	0xb6880880	-4.0541054e-06
30	0x362906c0	2.5186891e-06
31	0x36fc6528	7.5219614e-06
32	0x35504b00	7.759518e-07
33	0x3598cf50	1.1385218e-06
34	0x36061e60	1.9985237e-06
35	0x36b222c0	5.308859e-06
36	0xb5b99580	-1.3827084e-06
37	0xb66bd130	-3.5139492e-06
38	0x350c3600	5.2232645e-07
39	0x368abe80	4.1348976e-06
40	0xb5d42e80	-1.5808764e-06
41	0x3617c340	2.2614404e-06
42	0x363edae0	2.8439608e-06
43	0x33b2e400	8.330244e-08
44	0x36c88f00	5.977112e-06
45	0x3653b4c0	3.154666e-06
46	0x35b24500	1.3282115e-06
47	0x358ee540	1.0646545e-06
48	0x367a4b80	3.729685e-06
49	0x36d8b200	6.4580236e-06
50	0x37068600	8.018222e-06
51	0xb70d5b80	-8.425559e-06
52	0x37075c40	8.068106e-06
53	0x36ba0200	5.543465e-06
54	0xb5bcc800	-1.4065299e-06
55	0x36648300	3.40509e-06
56	0x365e9b00	3.31708e-06
57	0xb61c6800	-2.3306347e-06
58	0xb6604e00	-3.3424003e-06
59	0xb71e3280	-9.429292e-06
60	0xb7c5d7c0	-2.3584696e-05
61	0x379a5870	1.8399413e-05
62	0x37db7f68	2.6166163e-05
63	0x37f9bdb0	2.9771443e-05
64	0xb6bf2700	-5.696784e-06
65	0x358d8d30	1.054641e-06
66	0xb7b36780	-2.1386659e-05
67	0x3583ad80	9.810756e-07
68	0xb7c8ab30	-2.3921573e-05
69	0xb7083aa0	-8.119881e-06
70	0xb74b0600	-1.210114e-05
71	0x375b97b0	1.3088735e-05
72	0x36eb2100	7.0073875e-06
73	0xb7cad950	-2.418147e-05
74	0xb799d680	-1.8338906e-05
75	0xb737a3b0	-1.09457615e-05
76	0x36f03ae0	7.1594113e-06
77	0xb7500f40	-1.2401317e-05
78	0x37824040	1.5527126e-05
79	0xb7cf0b00	-2.4681445e-05
80	0x371d5e80	9.379932e-06
81	0xb70813e8	-8.1108665e-06
82	0xb6f12c60	-7.1875256e-06
83	0xb6d9cad0	-6.4907144e-06
84	0x3506b200	5.0177914e-07
85	0x37587f80	1.2904289e-05
86	0x3717e43e	9.053443e-06
87	0xb73b8160	-1.1176191e-05
88	0xb2e36c00	-2.647539e-08
89	0x35b6e9a0	1.362805e-06
90	0xb757a3c8	-1.2853132e-05
91	0xb648be00	-2.9912917e-06
92	0x36ae4a68	5.194266e-06
93	0x36cf1d50	6.172493e-06
94	0x36d43880	6.32467e-06
95	0xb6a45eb0	-4.898604e-06
96	0xb62a2cd0	-2.5358058e-06
97	0x372f4120	1.0445976e-05
98	0xb7336c18	-1.0694399e-05
99	0xb41b0ce0	-1.4440184e-07
100	0xb82664c0	-3.9671315e-05
101	0x00000000	0.0

old_dirs f4 [102]
0	0xb612b700	-2.1862215e-06
1	0xb50a1b00	-5.1448296e-07
2	0x34f8a400	4.6312925e-07
3	0x3475fcc0	2.2909353e-07
4	0xb4cf7000	-3.8638245e-07
5	0x353b7000	6.982591e-07
6	0x3335bc00	4.231333e-08
7	0x347d7a00	2.3606844e-07
8	0x35f72200	1.8412829e-06
9	0x3598c6f0	1.1382781e-06
10	0x35665680	8.580755e-07
11	0x3522ea00	6.069022e-07
12	0x35159a00	5.5730925e-07
13	0x34932f80	2.7415444e-07
14	0x342b4000	1.5948899e-07
15	0x34057800	1.2430246e-07
16	0x356a0300	8.717616e-07
17	0xb483a400	-2.4519977e-07
18	0x35a2dd00	1.213426e-06
19	0x34b5ec80	3.3885954e-07
20	0x368c1000	4.174188e-06
21	0x357b7c00	9.368523e-07
22	0xb5dd0080	-1.6465929e-06
23	0xb5433080	-7.271374e-07
24	0x3614f700	2.2197491e-06
25	0x3584fb00	9.907817e-07
26	0x35773000	9.208452e-07
27	0xb4674a00	-2.1540473e-07
28	0xb5ab2300	-1.2750679e-06
29	0xb5311180	-6.5963104e-07
30	0x3535cfc0	6.773007e-07
31	0x3565fd40	8.5677675e-07
32	0x3551d900	7.8174344e-07
33	0x344d7480	1.9134495e-07
34	0x34b34800	3.3393735e-07
35	0x34d5b800	3.980822e-07
36	0xb57e8200	-9.481155e-07
37	0xb4f02500	-4.4730405e-07
38	0xb5f74c00	-1.8425053e-06
39	0x34eac300	4.3727778e-07
40	0xb5734900	-9.0630783e-07
41	0x34514a00	1.9491563e-07
42	0xb48f0500	-2.6639464e-07
43	0xb3dbe400	-1.0239455e-07
44	0x35484c00	7.46164e-07
45	0x34e85a00	4.327885e-07
46	0x346f0200	2.2259337e-07
47	0xb2236000	-9.509677e-09
48	0x351b5400	5.7864236e-07
49	0x3503ee00	4.914764e-07
50	0x35fd0400	1.8851133e-06
51	0xb53f8400	-7.134513e-07
52	0x35946800	1.1057127e-06
53	0x3535ba00	6.769842e-07
54	0xb4978800	-2.8224895e-07
55	0x34775800	2.3035682e-07
56	0x34e43000	4.2503234e-07
57	0xb3f10000	-1.1222437e-07
58	0xb4ed3e00	-4.41898e-07
59	0xb597cc00	-1.1309749e-06
60	0xb5346000	-6.7194924e-07
61	0x366e3b00	3.5499106e-06
62	0x36a7dd60	5.0027593e-06
63	0x36a4d240	4.912057e-06
64	0x35c2ce00	1.451408e-06
65	0x34f6be80	4.5959678e-07
66	0xb6151780	-2.221641e-06
67	0xb6668e40	-3.4355471e-06
68	0xb61de880	-2.3530156e-06
69	0xb65c9680	-3.2870157e-06
70	0x36979400	4.51738e-06
71	0x3653f500	3.158406e-06
72	0xb5a26c00	-1.2101373e-06
73	0xb6525a00	-3.1344825e-06
74	0x36150e00	2.221088e-06
75	0xb675e480	-3.664085e-06
76	0x34bd3e00	3.5249104e-07
77	0x3496e400	2.810557e-07
78	0x361c7580	2.3314205e-06
79	0xb6596040	-3.2391545e-06
80	0x35af1700	1.304521e-06
81	0xb58e18c0	-1.0587028e-06
82	0xb589bb60	-1.0261829e-06
83	0xb5972b50	-1.1262982e-06
84	0x3387dc00	6.326445e-08
85	0x35c6c380	1.4809048e-06
86	0x35b49780	1.3455137e-06
87	0xb5869900	-1.0028307e-06
88	0xb03e8000	-6.9303496e-10
89	0x3426a300	1.5519254e-07
90	0xb5da96c0	-1.628614e-06
91	0xb4b9b880	-3.4593177e-07
92	0x35317c80	6.611881e-07
93	0x35738240	9.0714093e-07
94	0x35279200	6.2424806e-07
95	0xb5014c00	-4.816684e-07
96	0xb4acd100	-3.2189564e-07
97	0x35a54400	1.2313249e-06
98	0xb5c67a80	-1.4787802e-06
99	0xb11ef400	-2.3130724e-09
100	0xb6a75600	-4.9869996e-06
101	0x00000000	0.0

old_dirs f4 [102]
0	0xb5abe600	-1.2807432e-06
1	0x359142c0	1.0822769e-06
2	0x34761100	2.291672e-07
3	0xb495cd60	-2.7902843e-07
4	0xb4ace400	-3.2203388e-07
5	0x33a50000	7.683411e-08
6	0x33316800	4.130561e-08
7	0x33867800	6.261689e-08
8	0x357ee000	9.4948336e-07
9	0xb501ede0	-4.84024e-07
10	0x344b9480	1.8959872e-07
11	0xb5535200	-7.872295e-07
12	0x34976600	2.8200157e-07
13	0xb481e900	-2.4197652e-07
14	0x336b7c00	5.482798e-08
15	0xb3f0b400	-1.1208613e-07
16	0x357a2a00	9.3193376e-07
17	0x35129e40	5.461952e-07
18	0x35752200	9.131909e-07
19	0xb2ab8000	-1.9965228e-08
20	0x3661f400	3.366964e-06
21	0x35799800	9.298092e-07
22	0xb5817580	-9.645446e-07
23	0x3514bc40	5.5408236e-07
24	0x35a84200	1.2536184e-06
25	0xb4fcea00	-4.7108915e-07
26	0x35472500	7.418712e-07
27	0x34751900	2.2826498e-07
28	0xb51af300	-5.772308e-07
29	0x34ff4b00	4.755202e-07
30	0x33664800	5.361653e-08
31	0xb552c680	-7.851995e-07
32	0x351dfb00	5.885231e-07
33	0x33b5a400	8.458301e-08
34	0xb4b1d300	-3.3122342e-07
35	0xb5d07f00	-1.553417e-06
36	0xb4fb0000	-4.6752393e-07
37	0x34f79700	4.6117202e-07
38	0xb6077f80	-2.0190782e-06
39	0xb59219c0	-1.0885342e-06
40	0xb4e69200	-4.2947067e-07
41	0xb4debd00	-4.1488238e-07
42	0xb57a7c80	-9.331343e-07
43	0xb3e33800	-1.05806976e-07
44	0xb556ec00	-8.006464e-07
45	0xb4f39600	-4.5371416e-07
46	0xb4283c00	-1.5668047e-07
47	0xb49fbb00	-2.9752118e-07
48	0xb4ced800	-3.852765e-07
49	0xb59d9100	-1.1739612e-06
50	0xb3f1c000	-1.12573616e-07
51	0x35c55a00	1.4703837e-06
52	0xb583b600	-9.81323e-07
53	0xb55ee600	-8.303614e-07
54	0x34593800	2.0230073e-07
55	0xb52aaa00	-6.357732e-07
56	0xb4e6ac00	-4.2965985e-07
57	0x34bdae00	3.5330595e-07
58	0x35017d00	4.8238144e-07
59	0x35a8de00	1.2581586e-06
60	0x36930100	4.381058e-06
61	0xb573ee00	-9.087089e-07
62	0xb60297a0	-1.9459767e-06
63	0xb62af600	-2.5475165e-06
64	0x36362500	2.714165e-06
65	0xb517d7c0	-5.656584e-07
66	0x36334280	2.6711787e-06
67	0xb62be740	-2.561559e-06
68	0x3679d680	3.7228747e-06
69	0xb58e1300	-1.0585354e-06
70	0x370e2800	8.473173e-06
71	0xb45ba000	-2.0454172e-07
72	0xb6512c00	-3.1169038e-06
73	0x3635fe80	2.711924e-06
74	0x36c9f800	6.019138e-06
75	0xb4bcb000	-3.5145786e-07
76	0xb5aba600	-1.2788805e-06
77	0x362aff00	2.5480404e-06
78	0xb595b900	-1.1155207e-06
79	0x36518400	3.122026e-06
80	0xb6084ec0	-2.0311418e-06
81	0x35a2f540	1.2141318e-06
82	0x35a14a00	1.2016972e-06
83	0x357c43e0	9.3976087e-07
84	0xb39a5800	-7.187191e-08
85	0xb5fb7b00	-1.8736755e-06
86	0xb5bb1210	-1.3937843e-06
87	0x35efab00	1.7856655e-06
88	0x318e2800	4.1372914e-09
89	0xb4583a00	-2.0137668e-07
90	0x35dda080	1.6512495e-06
91	0x34e8ab80	4.333815e-07
92	0xb5332500	-6.673654e-07
93	0xb566f100	-8.603238e-07
94	0xb5c0a000	-1.4351681e-06
95	0x3538b800	6.8813097e-07
96	0x34b4a700	3.364912e-07
97	0xb5eadf00	-1.749926e-06
98	0x35d440c0	1.5814076e-06
99	0x33207140	3.7355903e-08
100	0x36ad1000	5.1576644e-06
101	0x00000000	0.0

old_dirs f4 [102]
0	0xb672d500	-3.6184792e-06
1	0xb67e7380	-3.791618e-06
2	0x35738a00	9.072537e-07
3	0x35dbcf10	1.6377035e-06
4	0xb5572400	-8.014613e-07
5	0x3609cf00	2.053508e-06
6	0xb27a8000	-1.4581019e-08
7	0x35154400	5.560578e-07
8	0x3688e940	4.0802697e-06
9	0x36d049b0	6.2074614e-06
10	0x3623b858	2.4396195e-06
11	0x36986f40	4.542904e-06
12	0x358c9480	1.0474032e-06
13	0x35cff7f0	1.5494861e-06
14	0x35034e40	4.891517e-07
15	0x3575b480	9.1532274e-07
16	0x3518ea00	5.696493e-07
17	0xb5fbc140	-1.87572e-06
18	0x3601e100	1.9353465e-06
19	0x3603af20	1.9622457e-06
20	0x36d0f900	6.2278705e-06
21	0x36218c80	2.4072651e-06
22	0xb65a8e40	-3.2567332e-06
23	0xb6a60600	-4.947884e-06
24	0x369a6180	4.600908e-06
25	0x36c67470	5.914415e-06
26	0x359d4900	1.1718657e-06
27	0xb523a540	-6.09627e-07
28	0xb63e7d00	-2.8384966e-06
29	0xb6730280	-3.6211277e-06
30	0x3622fd68	2.4287383e-06
31	0x36c38150	5.826507e-06
32	0x35a233c0	1.2085002e-06
33	0x3566ca00	8.5975626e-07
34	0x35e8d5c0	1.7347556e-06
35	0x369d8880	4.6948553e-06
36	0xb5f9bf00	-1.8607534e-06
37	0xb641d2b0	-2.8881877e-06
38	0xb59b3e00	-1.1566444e-06
39	0x366d0f20	3.5324556e-06
40	0xb5f28300	-1.8068531e-06
41	0x35ed7180	1.7690909e-06
42	0x35e7a6c0	1.7259372e-06
43	0xb2cfb000	-2.4178007e-08
44	0x36a47a00	4.9017835e-06
45	0x36314200	2.6413472e-06
46	0x3598cf40	1.13852e-06
47	0x355be300	8.1914186e-07
48	0x3651cb80	3.126188e-06
49	0x36a90280	5.0368835e-06
50	0x36f1f700	7.2111143e-06
51	0xb6dd3780	-6.5927743e-06
52	0x36dfe780	6.672868e-06
53	0x36980240	4.530215e-06
54	0xb5be4e00	-1.4178804e-06
55	0x36303d00	2.626155e-06
56	0x36358780	2.7049973e-06
57	0xb5de7f80	-1.6577396e-06
58	0xb6386140	-2.7474744e-06
59	0xb6fe0780	-7.570663e-06
60	0xb78cd980	-1.6790582e-05
61	0x3785a8b0	1.5933387e-05
62	0x37c2af44	2.3208217e-05
63	0x37d23b50	2.506157e-05
64	0xb6352700	-2.6993803e-06
65	0x35ce6fa0	1.5380683e-06
66	0xb78bde30	-1.6673555e-05
67	0xb668fd80	-3.471825e-06
68	0xb79e3980	-1.8861843e-05
69	0xb711e160	-8.695148e-06
70	0xb6c9bc00	-6.012153e-06
71	0x37490d20	1.19835895e-05
72	0x36859d80	3.9820443e-06
73	0xb7a3e038	-1.9535524e-05
74	0xb735c100	-1.0833377e-05
75	0xb73ee920	-1.1379161e-05
76	0x36af5240	5.2249816e-06
77	0xb7053de0	-7.941824e-06
78	0x3754f190	1.2692428e-05
79	0xb7a99980	-2.0217849e-05
80	0x37102be0	8.593284e-06
81	0xb6e13000	-6.7111105e-06
82	0xb6cc2820	-6.084345e-06
83	0xb6c003cc	-5.722488e-06
84	0x34de2300	4.1376188e-07
85	0x372f0280	1.0431395e-05
86	0x37031f02	7.815428e-06
87	0xb713f820	-8.819654e-06
88	0xb29ad000	-1.8022547e-08
89	0x3592c480	1.0935037e-06
90	0xb7302450	-1.0498872e-05
91	0xb621aec0	-2.4092587e-06
92	0x368dc720	4.2253087e-06
93	0x36af6168	5.226746e-06
94	0x36bb18c0	5.5759156e-06
95	0xb67ff040	-3.8137805e-06
96	0xb60acec8	-2.0683965e-06
97	0x3712a7e0	8.741365e-06
98	0xb71674e8	-8.967916e-06
99	0xb3e8ad40	-1.0834856e-07
100	0xb8071300	-3.2204203e-05
101	0x00000000	0.0

old_dirs f4 [102]
0	0xb61f8000	-2.3767352e-06
1	0xb403b800	-1.2267265e-07
2	0x3517ad80	5.650436e-07
3	0x3348d900	4.676349e-08
4	0xb4acc800	-3.2183016e-07
5	0x34af1800	3.2613752e-07
6	0x33795800	5.8054866e-08
7	0x341d0400	1.462322e-07
8	0x360ed700	2.1284795e-06
9	0x35311380	6.5966015e-07
10	0x357a8dc0	9.333853e-07
11	0x3417a800	1.4124089e-07
12	0x352a4500	6.3430343e-07
13	0x33ff8100	1.1897828e-07
14	0x346e0000	2.2165477e-07
15	0x335a6000	5.0844392e-08
16	0x35b17280	1.3220852e-06
17	0x34495c00	1.8753053e-07
18	0x35df6b80	1.6646081e-06
19	0x34a7af80	3.1233867e-07
20	0x36aa2100	5.0702365e-06
21	0x35b77600	1.3668905e-06
22	0xb60d4b00	-2.1054293e-06
23	0xb4b43b00	-3.357054e-07
24	0x36363d80	2.715591e-06
25	0x352bd100	6.40066e-07
26	0x35aeb600	1.3016979e-06
27	0x33ac7400	8.0304744e-08
28	0xb5ba8300	-1.3896206e-06
29	0xb4e05200	-4.1782914e-07
30	0x35312d60	6.600367e-07
31	0x34443000	1.8271385e-07
32	0x358c6a80	1.0461808e-06
33	0x34802300	2.3867324e-07
34	0x32afc000	2.0459993e-08
35	0xb4b3ae00	-3.346795e-07
36	0xb595d000	-1.1161901e-06
37	0xb42b4900	-1.5952173e-07
38	0xb63e8e00	-2.8394861e-06
39	0xb4e65c00	-4.2907777e-07
40	0xb5567800	-7.9895835e-07
41	0xb407fc00	-1.2664532e-07
42	0xb5692100	-8.6847285e-07
43	0xb4193200	-1.4267425e-07
44	0x34099000	1.2811506e-07
45	0x33a31000	7.5931894e-08
46	0x337f5000	5.9444574e-08
47	0xb4245a00	-1.5306432e-07
48	0x347b7800	2.3419852e-07
49	0xb4aaf400	-3.18425e-07
50	0x35c33800	1.454493e-06
51	0x34b8a000	3.4389086e-07
52	0x349e7000	2.9511284e-07
53	0x329d8000	1.8335413e-08
54	0xb450b800	-1.9438448e-07
55	0xb4566800	-1.9968138e-07
56	0x33a8e000	7.863855e-08
57	0x33da5800	1.0167423e-07
58	0xb2730000	-1.4144462e-08
59	0xb3e22000	-1.0529766e-07
60	0x3608f900	2.0410516e-06
61	0x362adc00	2.546003e-06
62	0x365964c0	3.2394164e-06
63	0x36294000	2.5220215e-06
64	0x36464400	2.954388e-06
65	0xb3d87b00	-1.00806574e-07
66	0xb4a0fc00	-2.9985677e-07
67	0xb6a7aa20	-4.996793e-06
68	0x34ec8400	4.4054468e-07
69	0xb66a3ec0	-3.4905243e-06
70	0x37126000	8.72463e-06
71	0x362cd4c0	2.5753834e-06
72	0xb64fdb00	-3.0972878e-06
73	0xb580b480	-9.589276e-07
74	0x36bd7500	5.6462595e-06
75	0xb66718a0	-3.4436016e-06
76	0xb50f6c00	-5.342881e-07
77	0x35fb7c00	1.8737046e-06
78	0x35be3e00	1.4174148e-06
79	0xb53dba00	-7.067865e-07
80	0x33ae5000	8.117058e-08
81	0xb354d400	-4.955291e-08
82	0x34720c00	2.2542372e-07
83	0xb3d9e600	-1.0146687e-07
84	0x3234b000	1.0517397e-08
85	0x34029400	1.2161036e-07
86	0x3478f800	2.3187022e-07
87	0x34346000	1.6798731e-07
88	0x308be000	1.0177246e-09
89	0xb1038000	-1.9135769e-09
90	0xb4d4fe00	-3.9672886e-07
91	0xb1a72000	-4.8639777e-09
92	0x34051900	1.2395685e-07
93	0x34340f00	1.6769263e-07
94	0xb38f9000	-6.68515e-08
95	0x33170800	3.5164703e-08
96	0xb3604600	-5.221773e-08
97	0x33a2a000	7.572817e-08
98	0xb4516500	-1.9501385e-07
99	0x32899900	1.6018475e-08
100	0xb55a6000	-8.1351027e-07
101	0x00000000	0.0

old_dirs f4 [102]
0	0xb483e000	-2.4563633e-07
1	0x35cc6080	1.522727e-06
2	0xb446eb00	-1.852568e-07
3	0xb474bd80	-2.279321e-07
4	0xb52e3e00	-6.4910273e-07
5	0x34c47800	3.6595156e-07
6	0xb2de0800	-2.584784e-08
7	0x33c56000	9.19099e-08
8	0xb4674000	-2.1536835e-07
9	0xb4f3dd80	-4.542344e-07
10	0xb4e439c0	-4.2510328e-07
11	0xb53e3400	-7.0856186e-07
12	0xb3b71000	-8.524512e-08
13	0xb497b780	-2.8259456e-07
14	0xb4222600	-1.510125e-07
15	0xb3e51800	-1.0668009e-07
16	0x33b7a000	8.5507054e-08
17	0x34a26b00	3.0252704e-07
18	0xb488c200	-2.5473128e-07
19	0xb399c400	-7.16027e-08
20	0x35ae4800	1.2984965e-06
21	0x34b32c00	3.3373362e-07
22	0x35082a00	5.0725066e-07
23	0x34f14200	4.493777e-07
24	0xb4bdfc00	-3.5387347e-07
25	0xb50f2080	-5.3318945e-07
26	0xb431e800	-1.656881e-07
27	0x33fa8e00	1.1667362e-07
28	0x33c78000	9.289943e-08
29	0x354c3e80	7.608687e-07
30	0xb4bf8780	-3.5675112e-07
31	0xb4defd00	-4.1534804e-07
32	0xb39ffc00	-7.449853e-08
33	0x30954000	1.0859367e-09
34	0xb4514a00	-1.9491563e-07
35	0xb5ceb380	-1.5400437e-06
36	0x3486d800	2.5116606e-07
37	0x34f77700	4.609392e-07
38	0xb3c80000	-9.313226e-08
39	0xb5168500	-5.6072895e-07
40	0xb4802800	-2.3870962e-07
41	0xb44be600	-1.8989522e-07
42	0xb3e83400	-1.08128006e-07
43	0xb28fb800	-1.6731065e-08
44	0xb5222c00	-6.041373e-07
45	0xb4bc0e00	-3.5027915e-07
46	0xb3dc3000	-1.02532795e-07
47	0xb4645600	-2.1265441e-07
48	0xb4b3e800	-3.351015e-07
49	0xb5338400	-6.687478e-07
50	0xb52ad800	-6.3644256e-07
51	0x35588400	8.0658356e-07
52	0xb54be800	-7.5961e-07
53	0xb510b600	-5.3909025e-07
54	0x34dd2800	4.1193562e-07
55	0xb4bd5000	-3.52622e-07
56	0xb4a21c00	-3.0195224e-07
57	0x34357400	1.6899139e-07
58	0x34917800	2.7095666e-07
59	0x35506000	7.7625737e-07
60	0x35f9d800	1.861481e-06
61	0xb5e97680	-1.7394341e-06
62	0xb65c3a00	-3.2816315e-06
63	0xb6330600	-2.667657e-06
64	0x34e29400	4.2203465e-07
65	0xb4eedfc0	-4.4493754e-07
66	0x35e95100	1.7383427e-06
67	0x35e34e80	1.6935664e-06
68	0x360c9a00	2.0951265e-06
69	0x3581f180	9.681535e-07
70	0x364d4800	3.058929e-06
71	0xb5ad7980	-1.2924866e-06
72	0xb52b9800	-6.3923653e-07
73	0x36096b40	2.0477019e-06
74	0x35bd5000	1.410488e-06
75	0x35e51480	1.7067796e-06
76	0xb5028e00	-4.863541e-07
77	0x34f92800	4.6408968e-07
78	0xb5aed700	-1.3026583e-06
79	0x36162a40	2.2376335e-06
80	0xb60cdc40	-2.0989828e-06
81	0x35504b40	7.759554e-07
82	0x34dac280	4.0747182e-07
83	0x35048a80	4.9375376e-07
84	0xb3795c00	-5.8058504e-08
85	0xb5b57d00	-1.3521931e-06
86	0xb5993240	-1.1414013e-06
87	0x35ab0400	1.2741657e-06
88	0x31680000	3.3760443e-09
89	0xb4046a00	-1.233202e-07
90	0x35b10400	1.3188692e-06
91	0x34916b00	2.7086207e-07
92	0xb4f8d480	-4.6348214e-07
93	0xb529e440	-6.3289554e-07
94	0xb5cf1900	-1.5429978e-06
95	0x34d42400	3.951427e-07
96	0x347c2700	2.3483517e-07
97	0xb5c88000	-1.4938414e-06
98	0x359bd920	1.1611592e-06
99	0x3301d640	3.0230012e-08
100	0x36698400	3.479654e-06
101	0x00000000	0.0

old_dirs f4 [102]
0	0xb73e2880	-1.1334312e-05
1	0xb76a3b90	-1.3961355e-05
2	0x3673cc10	3.6328602e-06
3	0x36999cde	4.578017e-06
4	0x33a38000	7.613562e-08
5	0x36969b80	4.488451e-06
6	0x3462fe00	2.1140295e-07
7	0x35b93840	1.3799945e-06
8	0x375fdcc0	1.3343233e-05
9	0x378ccdfc	1.678522e-05
10	0x370c8b1c	8.377039e-06
11	0x37596e20	1.2959848e-05
12	0x36778400	3.6882702e-06
13	0x369e2fe0	4.7143403e-06
14	0x360248e0	1.9413928e-06
15	0x36290180	2.5183836e-06
16	0x363fde40	2.8590584e-06
17	0xb6b4fc50	-5.393791e-06
18	0x37045ef0	7.8899175e-06
19	0x36a706e8	4.977792e-06
20	0x37955780	1.780293e-05
21	0x36d1f5c0	6.2572944e-06
22	0xb7510270	-1.2457938e-05
23	0xb75c7778	-1.3140838e-05
24	0x3783ff00	1.573516e-05
25	0x3786ed00	1.6084407e-05
26	0x36aad2c0	5.0909293e-06
27	0xb6147970	-2.2124404e-06
28	0xb714ac80	-8.861651e-06
29	0xb74103b8	-1.1504562e-05
30	0x37046978	7.8923695e-06
31	0x377f5e48	1.5221136e-05
32	0x3698b9e0	4.5515917e-06
33	0x36122ac8	2.1780597e-06
34	0x36a42390	4.891721e-06
35	0x37832a20	1.5636033e-05
36	0xb6e62f80	-6.860064e-06
37	0xb70cbd0e	-8.388668e-06
38	0xb6da4700	-6.5051718e-06
39	0x3729a690	1.0111966e-05
40	0xb6a77840	-4.990987e-06
41	0x369cef90	4.677051e-06
42	0x36516ba0	3.1206073e-06
43	0xb4827980	-2.430279e-07
44	0x3766fd40	1.3768033e-05
45	0x36fce840	7.5372227e-06
46	0x36551b00	3.175519e-06
47	0x3623abc0	2.4388864e-06
48	0x3713bb40	8.80548e-06
49	0x37650d00	1.365249e-05
50	0x37b4bb40	2.1544867e-05
51	0xb794b940	-1.7729239e-05
52	0x379d36a0	1.8741295e-05
53	0x3752ca20	1.2564036e-05
54	0xb6a694c0	-4.9645023e-06
55	0x36edeac0	7.090479e-06
56	0x36fafb80	7.479859e-06
57	0xb68cd5e0	-4.1972235e-06
58	0xb6fbeec0	-7.508177e-06
59	0xb7ac48c0	-2.0537875e-05
60	0xb82fd770	-4.1923893e-05
61	0x3842ea80	4.64716e-05
62	0x38936580	7.028412e-05
63	0x38954d34	7.119254e-05
64	0xb661a680	-3.3624528e-06
65	0x36c1bfb0	5.7741636e-06
66	0xb83b5158	-4.466003e-05
67	0xb7b4eae0	-2.1567044e-05
68	0xb8547310	-5.06519e-05
69	0xb7f1e840	-2.8837589e-05
70	0xb74dd500	-1.2268545e-05
71	0x38179974	3.614412e-05
72	0x36f4a000	7.290393e-06
73	0xb8610a04	-5.3653508e-05
74	0xb7b93600	-2.2078864e-05
75	0xb81efe28	-3.7906837e-05
76	0x375a14a0	1.2998615e-05
77	0xb78e14a0	-1.6937323e-05
78	0x381487f0	3.541255e-05
79	0xb86b1964	-5.6052013e-05
80	0x37e6be00	2.7506612e-05
81	0xb79cab54	-1.867643e-05
82	0xb7882ee6	-1.6234302e-05
83	0xb78646bb	-1.6006981e-05
84	0x359cfec0	1.1697048e-06
85	0x37f3faa8	2.9084578e-05
86	0x37bf7d24	2.2827247e-05
87	0xb7cf7d50	-2.4734676e-05
88	0xb341a000	-4.5081833e-08
89	0x364894d0	2.9888943e-06
90	0xb7f76838	-2.9493225e-05
91	0xb6dd39e0	-6.593051e-06
92	0x374368b8	1.16472875e-05
93	0x37791ac4	1.4847788e-05
94	0x37972df0	1.8021994e-05
95	0xb72a6df8	-1.0158394e-05
96	0xb6bfe4c8	-5.718877e-06
97	0x37d73070	2.5652553e-05
98	0xb7d5ecb0	-2.5501795e-05
99	0xb4a3aef0	-3.04884e-07
100	0xb8b98d60	-8.8478206e-05
101	0x00000000	0.0

old_dirs f4 [102]
0	0xb60a3200	-2.0592706e-06
1	0xb3945400	-6.9070666e-08
2	0x350807c0	5.0675226e-07
3	0x32c55000	2.2970198e-08
4	0xb44e7000	-1.922599e-07
5	0x34b45000	3.358582e-07
6	0x3380de00	6.000846e-08
7	0x34058e00	1.243825e-07
8	0x35ec5000	1.7606653e-06
9	0x34c91b80	3.7459176e-07
10	0x35507540	7.765666e-07
11	0x33609000	5.228503e-08
12	0x35151700	5.5540295e-07
13	0x33ce9400	9.6195436e-08
14	0x34363400	1.6968988e-07
15	0x3289f800	1.6061676e-08
16	0x35975600	1.1275406e-06
17	0x34189f00	1.4213947e-07
18	0x35bfc200	1.428707e-06
19	0x3437b000	1.7107232e-07
20	0x368ea800	4.2514876e-06
21	0x357e2000	9.466894e-07
22	0xb5f1db80	-1.8019782e-06
23	0xb400b600	-1.198714e-07
24	0x36171c00	2.2517052e-06
25	0x34a82b00	3.1323725e-07
26	0x3598e480	1.1391385e-06
27	0x332c2000	4.0075975e-08
28	0xb5985e80	-1.1352386e-06
29	0xb49d7e00	-2.9335206e-07
30	0x350ccec0	5.2454925e-07
31	0x322d4000	1.0084477e-08
32	0x356c7f00	8.810166e-07
33	0x341e8400	1.4762918e-07
34	0x33120800	3.400055e-08
35	0xb4862800	-2.498855e-07
36	0xb5839600	-9.803916e-07
37	0xb3f45e00	-1.1379234e-07
38	0xb6244b00	-2.448156e-06
39	0xb4ac3200	-3.2073876e-07
40	0xb5240300	-6.1099126e-07
41	0xb410ac00	-1.3473618e-07
42	0xb568d600	-8.6738146e-07
43	0xb419ea00	-1.4334364e-07
44	0x328a8000	1.6123522e-08
45	0x332ba000	3.995956e-08
46	0x330cf800	3.2821845e-08
47	0xb41ef800	-1.4805119e-07
48	0x3416c000	1.4039688e-07
49	0xb4c93c00	-3.7482823e-07
50	0x35a1e800	1.2062956e-06
51	0x34e5e000	4.2817555e-07
52	0x341b5000	1.4464604e-07
53	0xb345e000	-4.6071364e-08
54	0xb3f4e000	-1.1402881e-07
55	0xb46bb000	-2.1950109e-07
56	0x325f0000	1.2980308e-08
57	0x33eef800	1.11278496e-07
58	0x32b8c000	2.150773e-08
59	0x3395e000	6.9790985e-08
60	0x3616f400	2.2493768e-06
61	0x35fa4580	1.8646679e-06
62	0x3631ea40	2.6511407e-06
63	0x35f3da00	1.8168357e-06
64	0x36337100	2.6738853e-06
65	0x33b36c00	8.354982e-08
66	0x34474800	1.8559513e-07
67	0xb693f1c0	-4.409085e-06
68	0x35549200	7.918861e-07
69	0xb6430f00	-2.9065995e-06
70	0x36fcb600	7.531373e-06
71	0x3606a140	2.0061416e-06
72	0xb6376800	-2.732966e-06
73	0xb4c82400	-3.7279096e-07
74	0x36af3000	5.2209944e-06
75	0xb6407080	-2.8675713e-06
76	0xb5265100	-6.195769e-07
77	0x3602c900	1.9488507e-06
78	0x356a5500	8.7295484e-07
79	0xb45fc000	-2.0838343e-07
80	0xb0400000	-6.9849193e-10
81	0x33116000	3.3847755e-08
82	0x34b52980	3.3744072e-07
83	0x3274e800	1.425542e-08
84	0x31460000	2.8812792e-09
85	0xb3154000	-3.4749974e-08
86	0x34121400	1.3604586e-07
87	0x34875400	2.5206828e-07
88	0x31746000	3.5561243e-09
89	0xb2c8b800	-2.3366738e-08
90	0xb4276800	-1.5590922e-07
91	0x33387c00	4.2953616e-08
92	0x32cd3800	2.3890607e-08
93	0x33b25000	8.303323e-08
94	0xb41f3000	-1.4825491e-07
95	0x34055800	1.2418604e-07
96	0xb1bf2000	-5.5624696e-09
97	0xb309c000	-3.207242e-08
98	0xb3c3b400	-9.113137e-08
99	0x32bb4e00	2.1805135e-08
100	0xb3080000	-3.1664968e-08
101	0x00000000	0.0

old_dirs f4 [102]
0	0x3726f400	9.951182e-06
1	0x3747e3d8	1.1914373e-05
2	0xb6852a78	-3.968653e-06
3	0xb5f04620	-1.7901802e-06
4	0xb6763880	-3.6689744e-06
5	0xb504dc00	-4.9493974e-07
6	0xb5283880	-6.2667095e-07
7	0xb529e900	-6.3296466e-07
8	0xb7373540	-1.0920048e-05
9	0xb6c7aafc	-5.9505674e-06
10	0xb6eb5038	-7.0128845e-06
11	0xb6b89360	-5.500784e-06
12	0xb6706480	-3.5821286e-06
13	0xb6353530	-2.700206e-06
14	0xb60098d8	-1.9162453e-06
15	0xb5720b80	-9.016876e-07
16	0xb69db440	-4.6999485e-06
17	0x3633ca30	2.6790767e-06
18	0xb7174b10	-9.017778e-06
19	0xb56e5f80	-8.880088e-07
20	0xb7602c80	-1.3361801e-05
21	0xb6090700	-2.0418665e-06
22	0x37576ba0	1.2840057e-05
23	0x367d9fb0	3.7792888e-06
24	0xb76b1c80	-1.4013727e-05
25	0xb6ba6210	-5.554648e-06
26	0xb6d930a0	-6.4727647e-06
27	0x3628a340	2.5128975e-06
28	0x36e43a00	6.8016816e-06
29	0x36f6be60	7.353534e-06
30	0xb6bcaf98	-5.6232784e-06
31	0xb68b6f60	-4.1554886e-06
32	0xb6a50140	-4.9175287e-06
33	0xb4dc6900	-4.105459e-07
34	0xb6212320	-2.4011315e-06
35	0xb7324660	-1.0626012e-05
36	0x36e7cbc0	6.908056e-06
37	0x36848338	3.9491824e-06
38	0x373a4e00	1.1104625e-05
39	0xb6a75180	-4.9864757e-06
40	0x3660dfc0	3.350884e-06
41	0xb5bba0c0	-1.397937e-06
42	0x36240660	2.4441615e-06
43	0x35193280	5.707043e-07
44	0xb6c44880	-5.8496953e-06
45	0xb66b7180	-3.5083795e-06
46	0xb5c37b40	-1.4564503e-06
47	0xb5882380	-1.0143121e-06
48	0xb6853a40	-3.97049e-06
49	0xb695f2c0	-4.468806e-06
50	0xb7510f00	-1.2460863e-05
51	0x36bf6180	5.703594e-06
52	0xb70756c0	-8.066825e-06
53	0xb6ac2700	-5.1305396e-06
54	0x3686ab00	4.013418e-06
55	0xb6144600	-2.2094464e-06
56	0xb649a080	-3.0044757e-06
57	0x351b1500	5.777256e-07
58	0x36471800	2.966728e-06
59	0x36f9fa80	7.4499403e-06
60	0x36965100	4.479778e-06
61	0xb7ca8638	-2.4142777e-05
62	0xb82ad2c0	-4.0727435e-05
63	0xb80a69b0	-3.3000193e-05
64	0xb7195e80	-9.141513e-06
65	0xb6cdb7e0	-6.130882e-06
66	0x376a9de0	1.3984245e-05
67	0x38132e68	3.509075e-05
68	0x378b6530	1.661721e-05
69	0x37c2b838	2.3212386e-05
70	0xb7413300	-1.1515571e-05
71	0xb7b74750	-2.1848507e-05
72	0x36d94200	6.4747874e-06
73	0x37ac49e0	2.0538399e-05
74	0xb7523280	-1.2528733e-05
75	0x37faf16c	2.9914743e-05
76	0xb5e19780	-1.6807899e-06
77	0xb6b83c00	-5.4906122e-06
78	0xb775bd00	-1.4647143e-05
79	0x37bfa820	2.2847264e-05
80	0xb7991fd8	-1.825385e-05
81	0x3704ff40	7.927243e-06
82	0x36d69880	6.3954503e-06
83	0x37030b1c	7.810795e-06
84	0xb50ca680	-5.2396354e-07
85	0xb7461200	-1.1805911e-05
86	0xb74761a0	-1.1884054e-05
87	0x37218ae0	9.628682e-06
88	0x32024000	7.581548e-09
89	0xb592cec0	-1.093802e-06
90	0x37509940	1.2433447e-05
91	0x36260ed0	2.474455e-06
92	0xb699d108	-4.5840898e-06
93	0xb6eafa38	-7.0028727e-06
94	0xb74202c0	-1.1563941e-05
95	0x36508ac0	3.1075178e-06
96	0x361a9f90	2.3040666e-06
97	0xb7567080	-1.2781587e-05
98	0x37469408	1.1836186e-05
99	0x341579a0	1.3920953e-07
100	0x38104040	3.4392113e-05
101	0x00000000	0.0

old_dirs f4 [102]
0	0xb62e5a00	-2.5980407e-06
1	0xb5151a00	-5.554466e-07
2	0x350da380	5.2764517e-07
3	0x346f6d00	2.2298264e-07
4	0xb5249e00	-6.132468e-07
5	0x350e1600	5.2931136e-07
6	0x32d8d800	2.5243935e-08
7	0x34657400	2.1369488e-07
8	0x3619c200	2.29117e-06
9	0x35b59bf0	1.3530935e-06
10	0x358d58d0	1.0531166e-06
11	0x35216700	6.012706e-07
12	0x35304000	6.565824e-07
13	0x348d17a0	2.6280486e-07
14	0x346fd180	2.2334825e-07
15	0x3400b900	1.1988232e-07
16	0x35a0a600	1.1969241e-06
17	0xb383b400	-6.132905e-08
18	0x35cca400	1.5246915e-06
19	0x350d3480	5.260299e-07
20	0x36b28200	5.3199474e-06
21	0x35cf8600	1.5461701e-06
22	0xb6080340	-2.026747e-06
23	0xb57a7c80	-9.331343e-07
24	0x36409000	2.8694049e-06
25	0x35b2b640	1.3315075e-06
26	0x359f8500	1.1885131e-06
27	0xb3375800	-4.2688043e-08
28	0xb5d78e00	-1.6060076e-06
29	0xb545b880	-7.36567e-07
30	0x35528b20	7.843355e-07
31	0x35699900	8.702191e-07
32	0x3588f500	1.0204094e-06
33	0x34af6780	3.2671596e-07
34	0x347c6200	2.3504981e-07
35	0x33f27000	1.1289376e-07
36	0xb5962900	-1.1187803e-06
37	0xb4eb9980	-4.3883847e-07
38	0xb623bb80	-2.4398032e-06
39	0x3323a000	3.8096914e-08
40	0xb5909600	-1.0772492e-06
41	0x33f80c00	1.1550583e-07
42	0xb4cb2b00	-3.7842983e-07
43	0xb3dd2000	-1.0296935e-07
44	0x353c5c00	7.0169335e-07
45	0x34c9f000	3.761379e-07
46	0x345be000	2.0477455e-07
47	0xb3777800	-5.761831e-08
48	0x351f1200	5.925831e-07
49	0x34b6e400	3.4066034e-07
50	0x36049800	1.9758008e-06
51	0xb510b400	-5.3906115e-07
52	0x358e5000	1.0603108e-06
53	0x3518c400	5.690963e-07
54	0xb4bcb800	-3.5151606e-07
55	0x340b2000	1.2957025e-07
56	0x34db4000	4.0838495e-07
57	0xb37d8000	-5.9022568e-08
58	0xb4c09200	-3.5869016e-07
59	0xb58dbe00	-1.0560616e-06
60	0xb4917800	-2.7095666e-07
61	0x36891820	4.0857267e-06
62	0x36a8cd80	5.0307135e-06
63	0x36a99380	5.0537637e-06
64	0x360ba000	2.0805746e-06
65	0x322c4800	1.0028089e-08
66	0xb61eb580	-2.3649482e-06
67	0xb6925180	-4.360627e-06
68	0xb6091200	-2.0425068e-06
69	0xb682b4e0	-3.8953585e-06
70	0x36e7d600	6.9092494e-06
71	0x3671a480	3.600755e-06
72	0xb60bde00	-2.0841835e-06
73	0xb65cc500	-3.2897224e-06
74	0x36720600	3.6064303e-06
75	0xb68800f0	-4.053225e-06
76	0x34886c00	2.5410554e-07
77	0x3509f400	5.1391544e-07
78	0x363c7380	2.8081413e-06
79	0xb6569c80	-3.197958e-06
80	0x35928800	1.0917429e-06
81	0xb5690e00	-8.6819637e-07
82	0xb5453d80	-7.3477713e-07
83	0xb57619c0	-9.167961e-07
84	0x3372d000	5.653419e-08
85	0x35af8500	1.3077224e-06
86	0x35986880	1.1355296e-06
87	0xb53e7600	-7.095223e-07
88	0xb0d2e000	-1.5343176e-09
89	0x34144c00	1.3811223e-07
90	0xb5d7d500	-1.608074e-06
91	0xb4a6e580	-3.1086893e-07
92	0x352bb640	6.396767e-07
93	0x35548b00	7.9178426e-07
94	0x35154400	5.560578e-07
95	0xb4e63a00	-4.288304e-07
96	0xb4a33980	-3.0402953e-07
97	0x358acd00	1.0341464e-06
98	0xb5a3b140	-1.2196033e-06
99	0x31398000	2.6993803e-09
100	0xb6a15c00	-4.808884e-06
101	0x00000000	0.0

old_dirs f4 [102]
0	0xb64cec00	-3.053574e-06
1	0xb5d38880	-1.5760452e-06
2	0x354b5f40	7.5762e-07
3	0x35143780	5.521506e-07
4	0xb4d25000	-3.9173756e-07
5	0x3569d600	8.7110675e-07
6	0x336b8000	5.4831617e-08
7	0x34a62500	3.094683e-07
8	0x3649e340	3.008361e-06
9	0x36276480	2.4943438e-06
10	0x35d14cc0	1.5594051e-06
11	0x35d2a700	1.5694823e-06
12	0x3563c800	8.485513e-07
13	0x35241e00	6.1138417e-07
14	0x34bb4f00	3.4888944e-07
15	0x34a8b980	3.1427408e-07
16	0x35a28080	1.2107339e-06
17	0xb50e6a80	-5.30541e-07
18	0x3603be80	1.9631407e-06
19	0x3555f000	7.969793e-07
20	0x36c31f00	5.8150617e-06
21	0x35ee0400	1.7733546e-06
22	0xb6397480	-2.763496e-06
23	0xb5efe6c0	-1.7874045e-06
24	0x36756c80	3.6571e-06
25	0x361ef1c0	2.3684552e-06
26	0x35bb6200	1.3961107e-06
27	0xb4961800	-2.795714e-07
28	0xb6071b00	-2.0132284e-06
29	0xb5d3a840	-1.5769692e-06
30	0x35b3e8b0	1.340426e-06
31	0x3605b600	1.9924482e-06
32	0x35a414c0	1.2224991e-06
33	0x34e57080	4.2736428e-07
34	0x35242d00	6.1160245e-07
35	0x35c09800	1.4349353e-06
36	0xb5c9db00	-1.5039404e-06
37	0xb58cc090	-1.0486856e-06
38	0xb62e0980	-2.593355e-06
39	0x35810280	9.611977e-07
40	0xb5aec980	-1.3022654e-06
41	0x35053c00	4.963367e-07
42	0xb3968000	-7.0082024e-08
43	0xb3f51a00	-1.1413431e-07
44	0x35ea6e00	1.7466373e-06
45	0x357f4700	9.509822e-07
46	0x34ecc100	4.4098852e-07
47	0x343cba00	1.7576531e-07
48	0x35a4a100	1.2265809e-06
49	0x35c14000	1.4398247e-06
50	0x366a8200	3.4944387e-06
51	0xb601d300	-1.9345316e-06
52	0x36256500	2.4645706e-06
53	0x35ce7700	1.538283e-06
54	0xb5389a00	-6.876944e-07
55	0x35412200	7.194758e-07
56	0x35813900	9.627838e-07
57	0xb4dd4a00	-4.12183e-07
58	0xb57c7500	-9.4047573e-07
59	0xb62d8d00	-2.5861082e-06
60	0xb6799f00	-3.7196442e-06
61	0x36f230c0	7.2178373e-06
62	0x372af950	1.0190837e-05
63	0x3729e4c0	1.0126445e-05
64	0x35c50700	1.4679681e-06
65	0x35261140	6.186492e-07
66	0xb6bba380	-5.592068e-06
67	0xb6ba2560	-5.547583e-06
68	0xb6c71540	-5.933136e-06
69	0xb6bef980	-5.691487e-06
70	0x3698d800	4.5550987e-06
71	0x36c9f260	6.018483e-06
72	0xb591c800	-1.086155e-06
73	0xb6ef8300	-7.1380055e-06
74	0x35810000	9.611249e-07
75	0xb6e07d20	-6.6902867e-06
76	0x35ab0080	1.2740638e-06
77	0xb57a7400	-9.330106e-07
78	0x36ad2d60	5.161084e-06
79	0xb6f58e00	-7.3181e-06
80	0x3657ac40	3.213776e-06
81	0xb61b74c0	-2.3164757e-06
82	0xb60b2d20	-2.073888e-06
83	0xb6125c90	-2.1809574e-06
84	0x341e1300	1.4721809e-07
85	0x366d5b00	3.536872e-06
86	0x36426b90	2.8970862e-06
87	0xb6398800	-2.764631e-06
88	0xb1849800	-3.858986e-09
89	0x34c2f900	3.6316487e-07
90	0xb67cb200	-3.7654536e-06
91	0xb5595d40	-8.0974496e-07
92	0x35c96ca0	1.5007281e-06
93	0x36011000	1.9231811e-06
94	0x3604c280	1.9782747e-06
95	0xb5a273c0	-1.2103628e-06
96	0xb54474c0	-7.3185583e-07
97	0x364b9c80	3.0340452e-06
98	0xb6563660	-3.1920135e-06
99	0xb2abd800	-2.0005245e-08
100	0xb73e8500	-1.1355849e-05
101	0x00000000	0.0

old_dirs f4 [102]
0	0xb58a2000	-1.0291114e-06
1	0x35609c00	8.367351e-07
2	0x2fb40000	3.274181e-10
3	0xb2595800	-1.2651071e-08
4	0xb56a6e00	-8.7331864e-07
5	0x34fc2800	4.6967762e-07
6	0xb3365400	-4.2451575e-08
7	0x34026200	1.2142846e-07
8	0x3524c700	6.1384344e-07
9	0x34c58940	3.6793972e-07
10	0x3396f800	7.03003e-08
11	0xb3d71000	-1.0014628e-07
12	0x341a9c00	1.439912e-07
13	0xb38ad480	-6.464779e-08
14	0xb3490a00	-4.6808054e-08
15	0xb1c1e000	-5.642505e-09
16	0x34de2000	4.1374005e-07
17	0x34327e00	1.662338e-07
18	0x34698000	2.1746382e-07
19	0x347ea200	2.3714529e-07
20	0x363b3800	2.7897768e-06
21	0x35620800	8.42032e-07
22	0xb4593400	-2.0228617e-07
23	0xb47c7500	-2.3511893e-07
24	0x353dcc00	7.0704846e-07
25	0x34b0c100	3.292298e-07
26	0x3474a400	2.2783934e-07
27	0x34281600	1.5654223e-07
28	0xb50c5400	-5.22763e-07
29	0x3458d800	2.0195148e-07
30	0x31e10000	6.548362e-09
31	0x3476ee00	2.2997119e-07
32	0x348acb00	2.5852205e-07
33	0x34322900	1.6592458e-07
34	0xb28f0000	-1.6647391e-08
35	0xb5785b00	-9.251962e-07
36	0xb4272800	-1.5567639e-07
37	0x337da400	5.905531e-08
38	0xb539f600	-6.927585e-07
39	0xb4b39000	-3.3446122e-07
40	0xb4fa3c00	-4.6609784e-07
41	0xb317a000	-3.5302946e-08
42	0xb3539000	-4.9258233e-08
43	0xb311e800	-3.3971446e-08
44	0xb3668000	-5.3667463e-08
45	0xb33cb000	-4.3932232e-08
46	0x3297f000	1.7687853e-08
47	0xb41f9e00	-1.4865509e-07
48	0x33606000	5.2241376e-08
49	0xb4475800	-1.8565333e-07
50	0x349b1000	2.888264e-07
51	0x34213000	1.5011756e-07
52	0x31da0000	6.344635e-09
53	0xb356c000	-5.000038e-08
54	0x34442000	1.8265564e-07
55	0xb3f2b000	-1.13010174e-07
56	0x32358000	1.05646905e-08
57	0xb0d40000	-1.542503e-09
58	0xb1540000	-3.085006e-09
59	0xb38b4000	-6.4843334e-08
60	0x34a35800	3.0425144e-07
61	0x3515ab00	5.5755663e-07
62	0xb49bde00	-2.9032526e-07
63	0x35137a00	5.49393e-07
64	0x352e6e00	6.498012e-07
65	0xb4dfedc0	-4.1709973e-07
66	0xb49f7800	-2.970337e-07
67	0x349f7600	2.9701914e-07
68	0x33ced000	9.6304575e-08
69	0xb51dd000	-5.878974e-07
70	0x36869400	4.0107407e-06
71	0x3503b100	4.905887e-07
72	0xb55df000	-8.267816e-07
73	0xb4c94000	-3.7485734e-07
74	0x35c23800	1.4470425e-06
75	0xb3cf8400	-9.663199e-08
76	0x31aa8000	4.962203e-09
77	0xb3bf8000	-8.917414e-08
78	0x35093800	5.111797e-07
79	0xb408e000	-1.2747478e-07
80	0xb5848680	-9.873911e-07
81	0x339bd400	7.2563125e-08
82	0xb1f96000	-7.2577677e-09
83	0x32558800	1.2429155e-08
84	0xb2193000	-8.916686e-09
85	0xb4146800	-1.3821409e-07
86	0xb488ce00	-2.548186e-07
87	0x34bae800	3.4814002e-07
88	0x30994000	1.1150405e-09
89	0xb1490000	-2.924935e-09
90	0x332da000	4.042522e-08
91	0x31d50000	6.199116e-09
92	0x32fa1800	2.9114744e-08
93	0xb3749800	-5.694892e-08
94	0xb5512e00	-7.7925506e-07
95	0xb29c7000	-1.8211722e-08
96	0xb0a30000	-1.1859811e-09
97	0xb4f0b800	-4.483736e-07
98	0x3431c800	1.6557169e-07
99	0x32ac2400	2.0039806e-08
100	0xb4680000	-2.1606684e-07
101	0x00000000	0.0

old_dirs f4 [102]
0	0xb7695240	-1.3907033e-05
1	0xb73d20bc	-1.1272899e-05
2	0x36a251d8	4.837504e-06
3	0x35903508	1.074427e-06
4	0x3665ec80	3.426132e-06
5	0x35335000	6.679911e-07
6	0x355a8480	8.140414e-07
7	0x357f5800	9.512296e-07
8	0x3769c650	1.39340555e-05
9	0x369a94d4	4.6068835e-06
10	0x37071ff8	8.05407e-06
11	0x3680e5c0	3.8414437e-06
12	0x3698ef20	4.557791e-06
13	0x36204998	2.3884695e-06
14	0x3612a7d0	2.1853375e-06
15	0x35160b80	5.589609e-07
16	0x36f1b2c0	7.203169e-06
17	0xb60a5190	-2.0611078e-06
18	0x37466e18	1.1827353e-05
19	0x335a8000	5.0873496e-08
20	0x37b83140	2.1957443e-05
21	0x366d3900	3.534893e-06
22	0xb786e0a8	-1.6078659e-05
23	0xb5e48800	-1.7026905e-06
24	0x3796cef0	1.7977756e-05
25	0x3682d270	3.8988e-06
26	0x370f7bf0	8.552321e-06
27	0xb6541780	-3.160414e-06
28	0xb7117aa0	-8.671224e-06
29	0xb6ee3520	-7.0991373e-06
30	0x36cf4958	6.177619e-06
31	0x360c8060	2.093635e-06
32	0x36df4ef0	6.6551074e-06
33	0x3484fa80	2.476918e-07
34	0x360acb40	2.068191e-06
35	0x37143210	8.8331435e-06
36	0xb70ffa50	-8.581745e-06
37	0xb6489538	-2.988918e-06
38	0xb78b5f60	-1.6614504e-05
39	0x36850bc0	3.9650768e-06
40	0xb6a38f80	-4.874484e-06
41	0x3524c200	6.137707e-07
42	0xb699be80	-4.5819324e-06
43	0xb569ae40	-8.705283e-07
44	0x3696df80	4.496367e-06
45	0x364083c0	2.8686918e-06
46	0x35af9a00	1.3083336e-06
47	0x34fc2d00	4.69714e-07
48	0x3664af00	3.407651e-06
49	0x360c5380	2.091023e-06
50	0x3758b880	1.29175605e-05
51	0xb638ac00	-2.7518254e-06
52	0x36d7bc80	6.4294436e-06
53	0x367ea580	3.7945283e-06
54	0xb6868ac0	-4.009664e-06
55	0x3578e600	9.2721893e-07
56	0x36170900	2.2505992e-06
57	0x34e2ba00	4.2231113e-07
58	0xb6161c40	-2.2368185e-06
59	0xb6a94700	-5.044858e-06
60	0x36ef0480	7.123279e-06
61	0x37c0b8d8	2.2974258e-05
62	0x381ff3bc	3.813555e-05
63	0x37ee64f0	2.8418814e-05
64	0x378b67e0	1.6618462e-05
65	0x36ea24c8	6.9780253e-06
66	0xb6fac980	-7.4740383e-06
67	0xb841ebd2	-4.623441e-05
68	0xb71a26c0	-9.1881375e-06
69	0xb7e96730	-2.7823815e-05
70	0x3803e500	3.1446107e-05
71	0x37c13380	2.3031374e-05
72	0xb76b6dc0	-1.4032645e-05
73	0xb77acc40	-1.4948717e-05
74	0x37f0f380	2.8723618e-05
75	0xb8101346	-3.4350225e-05
76	0xb5d33400	-1.5735859e-06
77	0x3763b9a0	1.3573474e-05
78	0x3744e590	1.173596e-05
79	0xb792cc00	-1.7499551e-05
80	0x378b28d0	1.6589096e-05
81	0xb6ceea20	-6.166534e-06
82	0xb6bff6d0	-5.7209763e-06
83	0xb6fc1170	-7.5122152e-06
84	0x34dcfa00	4.1160092e-07
85	0x370d3ec0	8.418865e-06
86	0x372ed1ec	1.0420084e-05
87	0xb6d6c800	-6.40098e-06
88	0x31d65800	6.238224e-09
89	0x35404600	7.1627437e-07
90	0xb719e3e0	-9.172567e-06
91	0xb5e1f540	-1.6835183e-06
92	0x3661f510	3.3670258e-06
93	0x36c85868	5.9707563e-06
94	0x3725c260	9.880023e-06
95	0xb5da0a80	-1.6245322e-06
96	0xb5e63c20	-1.7153834e-06
97	0x372cfa80	1.0310323e-05
98	0xb7235700	-9.735813e-06
99	0xb3756480	-5.7134912e-08
100	0xb7d28000	-2.5093555e-05
101	0x00000000	0.0
